experiments/Exp3/saved_models/benchmark.pt (torch, 729856 bytes, 30 tensors)

model.static_proj.weight f4 [64, 10]
0.014817763 0.10934102 0.009728762 -0.29268634 -0.28739145 -0.26144952 -0.28370252 -0.0943575
-0.09346421 0.27675834 -0.077379525 0.13283114 -0.08281556 -0.09513619 -0.25765643 -0.1498974
-0.1676101 0.2390511 -0.066658586 -0.29864743 -0.04358441 0.34595913 0.20291457 0.20141563
0.2668861 -0.060655866 -0.09329214 0.32183337 -0.0023870459 -0.2209254 -0.035966594 0.22086999
0.17061614 0.004085615 0.15262577 0.11597326 0.12063892 0.20254101 0.271068 -0.09774488
0.02500385 -0.10097457 0.28377983 -0.124080256 0.21144551 0.06267183 -0.23517282 -0.13291046
0.19873215 0.09167281 -0.010511791 0.14544432 0.046692062 -0.23017357 0.31618357 -0.101040296
0.060983807 0.33334926 0.09062921 0.14627075 0.034551267 -0.16849118 -0.28628486 -0.3189264
-0.28879324 0.17297643 -0.014246547 -0.28871614 0.11074849 0.42660707 -0.06282479 -0.031631548
-0.11181311 -0.20430742 0.09422434 0.1119361 -0.09622088 0.186681 -0.005507443 0.22034314
0.07540049 0.08510955 0.033404756 -0.14460832 -0.1871307 -0.19452323 -0.09528373 0.15463294
-0.17059925 0.012198512 0.01611688 0.014996383 -0.3050296 0.05330256 0.0010385424 0.2155999
0.039061964 0.22054951 -0.00867395 0.22593446 0.0049516005 0.23508327 0.22443807 0.014865703
0.16447537 0.037781566 -0.17768879 -0.30196816 0.0074310126 0.18271701 0.06936734 0.109861284
0.31405807 0.14118098 0.14316896 -0.24581516 -0.27192968 0.18285109 0.12938891 0.4030319
0.020360505 0.10189571 -0.35477266 -0.008039793 -0.28265324 0.08018967 -0.04757835 -0.26285064
-0.23381941 0.32869905 0.023412013 0.2298987 -0.08399826 -0.18912311 0.22234908 0.015281393
0.07938505 0.20695743 0.42833802 -0.07150306 0.006858948 0.23579372 -0.0067309774 -0.11326809
0.0021209493 0.28149143 -0.088811204 0.1776565 0.33764324 -0.18545748 -0.059636746 0.22704837
0.19505583 0.17145066 0.07002619 -0.1371683 -0.15908736 -0.028411584 0.34658813 -0.2922607
0.017000757 -0.12554875 0.30451444 -0.06595037 0.19585857 0.32256296 -0.22247751 0.30436704
0.10793606 0.034283046 0.047252845 0.23148529 -0.23569302 0.036698904 -0.12746653 0.025743602
-0.031550735 0.048884895 0.2806501 -0.15983185 0.06346217 0.14593492 0.18574102 0.026098052
-0.21185203 -0.089377254 -0.23339806 0.07919152 -0.26511744 0.014120626 -0.018052664 -0.07467558
0.1616561 -0.2862175 0.01778884 0.040587053 0.0761984 -0.10559173 -0.082328625 0.23277627
-0.048238933 -0.21978742 0.32790622 -0.06500635 0.14236392 -0.13996604 -0.23703098 -0.06392659
-0.055266906 0.084084325 0.031779844 -0.061959185 0.0801634 0.012187605 -0.21810813 -0.027867705
0.03831888 -0.30313337 -0.2551556 0.028859025 0.04145365 -0.1366355 -0.023744479 0.043509062
0.051025923 0.059794478 -0.24179983 -0.10012341 0.06253527 -0.05125725 0.0040152296 0.26434395
-0.07452308 -0.05748148 -0.09813188 -0.21905811 -0.084294744 -0.2060616 0.08727905 -0.08964493
-0.00505195 -0.28966284 -0.057332702 -0.10702313 -0.13156487 -0.035853855 0.25500026 0.017956408
-0.29705915 0.005710376 -0.0040699244 -0.21074262 0.31892437 0.13892524 0.13476664 0.2847989
00000000: 34c6 723c 2fee df3d 6365 1f3c fcda 95be
00000010: f924 93be b6dc 85be 7541 91be 813e c1bd
00000020: 2a6a bfbd 45b3 8d3e 2879 9ebd e304 083e
00000030: 349b a9bd c3d6 c2bd 8beb 83be b47e 19be
00000040: fba1 2bbe d0c9 743e 4c84 88bd 51e8 98be
00000050: 9185 32bd 8e21 b13e d6c8 4f3e e63f 4e3e
00000060: 4ba5 883e 4972 78bd f30f bfbd 58c7 a43e
00000070: fc6f 1cbb 453a 62be b551 13bd be2b 623e
00000080: ffb5 2e3e 9fe0 853b ee49 1c3e 6383 ed3d
00000090: 8a11 f73d e966 4f3e 6dc9 8a3e 782e c8bd
000000a0: e0d4 cc3c c1cb cebd 974b 913e ca1d febd
000000b0: 2c85 583e 175a 803d 25d1 70be ae19 08be
000000c0: 7180 4b3e f4be bb3d a639 2cbc 5bef 143e
000000d0: 2d40 3f3d 9fb2 6bbe d0e2 a13e 37ee cebd
000000e0: 28ca 793d c1ac aa3e cf9b b93d 00c8 153e
000000f0: a185 0d3d f488 2cbe ee93 92be 524a a3be
00000100: b5dc 93be bc20 313e 596a 69bc 9ad2 93be
00000110: 1bd0 e23d 3e6c da3e 49aa 80bd 1590 01bd
00000120: 46fe e4bd f735 51be b1f8 c03d c13e e53d
00000130: 740f c5bd 4e29 3f3e c877 b4bb a2a1 613e
00000140: 926b 9a3d ea4d ae3d 6dd3 083d 3414 14be
00000150: 319f 3fbe 1931 47be 1e24 c3bd 1958 1e3e
00000160: 92b1 2ebe 45dc 473c 8c07 843c 64b3 753c
00000170: d72c 9cbe c953 5a3d b31f 883a 38c6 5c3e
00000180: 70ff 1f3d bbd7 613e 2f1d 0ebc 5d5b 673e
00000190: 0941 a23b abb9 703e 18d3 653e 478f 733c
000001a0: 3b6c 283e d8c0 1a3d 0df4 35be 929b 9abe
000001b0: da7f f33b 2b1a 3b3e 7710 8e3d f4fe e03d
000001c0: 38cc a03e bf91 103e e29a 123e f8b6 7bbe
000001d0: 5e3a 8bbe 513d 3b3e 877e 043e 325a ce3e
000001e0: 13cb a63c b3ae d03d c3a4 b5be 56b9 03bc
000001f0: edb7 90be 7b3a a43d 84e1 42bd 5c94 86be
00000200: 5b6e 6fbe 3e4b a83e 8dca bf3c 916a 6b3e
00000210: 4807 acbd 7da9 41be 7aaf 633e cf5e 7a3c
00000220: a194 a23d a6ec 533e 1f4f db3e 3270 92bd
00000230: 07c1 e03b e973 713e 888f dcbb 1af9 e7bd
00000240: a0ff 0a3b a51f 903e a6e2 b5bd 96eb 353e
00000250: 93df ac3e 91e8 3dbe a945 74bd 5e7f 683e
00000260: b7bc 473e c390 2f3e e469 8f3d d975 0cbe
00000270: cce7 22be 69bf e8bc 0074 b13e 32a3 95be
00000280: 2c45 8b3c da8f 00be 51e9 9b3e fd10 87bd
00000290: 268f 483e f926 a53e 25d1 63be ffd5 9b3e
000002a0: 950d dd3d 616c 0c3d 338c 413d 7b0a 6d3e
000002b0: 8359 71be 9751 163d 9686 02be 3fe4 d23c
000002c0: 583b 01bd 873b 483d 5fb1 8f3e f6aa 23be
000002d0: 74f8 813d f76f 153e e532 3e3e 95cb d53c
000002e0: bdef 58be 6c0b b7bd e7ff 6ebe 2a2f a23d
000002f0: 79bd 87be 335a 673c 2ee3 93bc 83ef 98bd
00000300: 2d89 253e 1a8b 92be e7b9 913c 9c3e 263d
00000310: e80d 9c3d 7a40 d8bd e99b a8bd e75c 6e3e
00000320: 3096 45bd f40f 61be 53e3 a73e 0d22 85bd
00000330: d9c7 113e 4253 0fbe 40b8 72be f2eb 82bd
00000340: 8d5f 62bd 6734 ac3d 952b 023d eac8 7dbd
00000350: b52c a43d 85ae 473c bd57 5fbe d04a e4bc
00000360: 42f4 1c3d 4c34 9bbe c1a3 82be c369 ec3c
00000370: 4dcb 293d 2dea 0bbe c883 c2bc 8f36 323d
00000380: 8f00 513d 0eeb 743d 609a 77be 810d cdbd
00000390: 7e12 803d 1ff3 51bd 3092 833b 1758 873e
000003a0: 8e9f 98bd b371 6bbd 5ef9 c8bd c550 60be
000003b0: b9a2 acbd d001 53be 5cbf b23d c397 b7bd
000003c0: d48a a5bb b04e 94be b2d5 6abd f12e dbbd
000003d0: f1b8 06be 7edb 12bd 658f 823e 5119 933c
000003e0: 2318 98be 1b1e bb3b 005d 85bb eacc 57be
000003f0: 0e4a a33e 6b42 0e3e 4400 0a3e 29d1 913e

model.static_proj.bias f4 [64]
-0.0113694025 0.2641042 -0.01900617 0.12610477 0.22680552 -0.36123225 0.1602878 -0.19692008
0.023819415 0.108620755 -0.28278568 0.037090097 0.26832888 -0.102547325 0.24093343 0.018099839
-0.16563645 0.24129662 0.15333034 -0.107429065 -0.26519185 0.081535056 -0.22249757 0.17904902
-0.072627716 -0.009600735 0.25100893 -0.0017026791 0.028849304 0.16885279 -0.24810831 -0.02087675
-0.13230234 -0.28000987 0.23385459 -0.19681028 0.21884595 -0.20055917 -0.15096307 -0.093468204
0.2239881 0.13351348 -0.16239548 0.07049065 0.18108085 0.14899142 0.17202346 0.16757204
-0.27876323 0.04262095 0.17972642 0.023308156 0.21967228 -0.3056228 0.27135256 -0.0984605
0.08487179 0.17435898 -0.26520175 0.26794252 -0.09556939 0.045415256 -0.20080438 0.10243014
00000000: bb46 3abc aa38 873e d4b2 9bbc 9c21 013e
00000010: b53f 683e 6ff3 b8be 7c22 243e 6ba5 49be
00000020: ef20 c33c 8f74 de3d 49c9 90be c9eb 173d
00000030: 6762 893e 5504 d2bd 41b7 763e 1d46 943c
00000040: 9a9c 29be 7616 773e a102 1d3e c503 dcbd
00000050: 3ac7 87be dafb a63d 67d6 63be a058 373e
00000060: d7bd 94bd 674c 1dbc 3e84 803e 6e2c dfba
00000070: 6055 ec3c bfe7 2c3e 1b10 7ebe b805 abbc
00000080: 447a 07be 745d 8fbe 9477 6f3e a288 49be
00000090: 2719 603e 625f 4dbe 1096 1abe 426c bfbd
000000a0: 235d 653e c2b7 083e 004b 26be 675d 903d
000000b0: 426d 393e 3591 183e eb26 303e 0198 2b3e
000000c0: 0eba 8ebe 4e93 2e3d 340a 383e bff0 be3c
000000d0: c5f1 603e 977a 9cbe b9ee 8a3e a9a5 c9bd
000000e0: 43d1 ad3d 298b 323e 86c8 87be c32f 893e
000000f0: e2b9 c3bd 5905 3a3d aa9f 4dbe e5c6 d13d

model.layers.0.temporal.0.weight f4 [32, 64]
0.0113320835 0.0375769 -0.006623421 -0.03195699 0.099160366 -0.044430126 -0.114623584 0.062968366
0.018646603 -0.16442157 -0.09971725 -0.006374132 -0.14519912 -0.1316754 -0.13837333 -0.05338807
0.18325026 0.17636897 -0.066893026 -0.11881136 -0.03960278 0.11381598 0.14167714 0.132188
0.24855497 0.058657616 0.022390952 0.030594245 0.011023798 0.119570725 0.013346009 -0.04429128
0.014514335 -0.040181007 -0.07888372 -0.10631188 -0.19747251 -0.062383883 -0.19513744 -0.21166289
-0.087170266 -0.08777589 -0.08063831 -0.14150225 -0.06298034 -0.11699511 -0.017841863 0.07899539
0.14390938 0.074367516 0.06231693 -0.14534318 0.042550296 -0.028116694 -0.025637629 -0.05532579
-0.03642422 -0.15265799 -0.11573814 0.03287647 0.04447918 0.25993013 0.08774102 0.15844582
-0.097130984 -0.14717677 0.044748 -0.0076824725 0.121611774 0.022013867 0.15697403 0.15733658
0.02542239 -0.0013579736 0.04581035 0.033483155 -0.06388875 -0.12440678 0.044211373 -0.03775526
-0.06899608 -0.010654098 0.016373236 -0.051741093 -0.08558182 -0.017856682 0.031661443 -0.016866814
0.026024105 -0.0580974 0.010914791 -0.057243872 0.038814474 0.096526995 -0.08304128 0.053418145
0.011512608 -0.11922846 -0.08635187 -0.13307115 0.059579834 -0.038514305 0.025109582 0.0062646596
-0.0029606905 -0.057027496 -0.050088715 0.08181254 0.06835392 0.004763123 0.05444708 -0.12206161
-0.11861239 0.048048805 -0.035593152 -0.1010868 -0.044216547 0.057465237 -0.025529925 -0.008796248
0.08283238 0.057055853 0.11354765 0.12825221 0.16646165 0.07374633 0.12439308 -0.37456337
-0.11235462 0.106832586 0.016904201 0.1473725 0.041299153 -0.14598763 -0.06161765 0.051531386
-0.17317419 -0.031471904 -0.033271547 0.034383696 -0.09483298 -0.18639785 -0.066362694 0.047508914
0.05693916 0.053346157 0.046502165 -0.00514575 -0.018784124 0.0818449 0.16764636 -0.06299695
-0.027361408 0.04622209 0.09651465 0.0030901274 0.061217688 0.076879114 0.07969088 0.025239779
0.014735699 -0.10555916 -0.10937455 -0.07798434 0.020463118 0.08773801 -0.035737783 -0.10116044
-0.1169266 -0.11319045 -0.1925567 -0.06506869 0.053479683 0.03393122 0.11101529 0.11133394
0.11729838 0.059313606 -0.002771679 -0.046594996 -0.092812255 0.038449332 -0.0036603536 -0.07050263
-0.12983517 0.004387083 -0.05186398 -0.092567906 -0.07252982 0.06794605 -0.14341477 -0.41810068
-0.06120615 -0.033127528 0.23484239 0.17100996 0.09651588 0.2284364 0.16123687 -0.029678416
-0.054042954 0.05804488 -0.022107936 -0.16115229 -0.13398668 -0.17162216 -0.22200753 -0.06598416
-0.052913703 0.07938668 -0.043251246 0.0075803567 -0.1472356 0.12928343 0.16555186 0.1622112
0.092229225 -0.08038079 -0.07104959 -0.050997674 -0.19988038 -0.1381295 -0.1479435 -0.07981531
-0.07471487 0.15032344 0.029519934 0.045507163 0.046725195 -0.045024373 0.0017937603 -0.12084893
-0.060311217 -0.11152166 -0.23160979 -0.16267607 -0.037997097 -0.09653287 -0.085354835 -0.00664932
0.030512104 -0.12182979 0.04473146 -0.023862742 0.11706119 0.11179817 -0.14834842 -0.14214557
0.015944965 0.07397822 0.12932006 0.08633121 -0.0064848135 -0.033206925 0.19206971 0.08172813
00000000: 34aa 393c 3cea 193d 4809 d9bb 55e5 02bd
00000010: 9714 cb3d 5dfc 35bd c5bf eabd 8ff5 803d
00000020: c3c0 983c 215e 28be 8f38 ccbd 18de d0bb
00000030: 14af 14be ebd5 06be bdb1 0dbe 73ad 5abd
00000040: f5a5 3b3e 119a 343e 36ff 88bd 5f53 f3bd
00000050: 8636 22bd 5a18 e93d d013 113e 4b5c 073e
00000060: 3285 7e3e f842 703d 3b6d b73c c8a0 fa3c
00000070: 299d 343c 7fe1 f43d 38a9 5a3c c66a 35bd
00000080: 89cd 6d3c d794 24bd ca8d a1bd 0bba d9bd
00000090: 3c36 4abe 3e86 7fbd 1cd2 47be 28be 58be
000000a0: 5386 b2bd d9c3 b3bd b325 a5bd f7e5 10be
000000b0: d6fb 80bd 229b efbd 1929 92bc 56c8 a13d
000000c0: fb5c 133e ff4d 983d 0a40 7f3d d8d4 14be
000000d0: 3849 2e3d fb54 e6bc 0106 d2bc 4c9d 62bd
000000e0: 9031 15bd 6052 1cbe 1e08 edbd 7aa9 063d
000000f0: cd2f 363d 9015 853e 90b1 b33d 9f3f 223e
00000100: 9cec c6bd 82b5 16be ae49 373d 40bd fbbb
00000110: 980f f93d 6d56 b43c cdbd 203e d71c 213e
00000120: 9e42 d03c 08fe b1ba a2a3 3b3d a225 093d
00000130: 1bd8 82bd fbc8 febd fc16 353d 42a5 1abd
00000140: d14d 8dbd 878e 2ebc 2a21 863c 78ee 53bd
00000150: 8545 afbd 2d48 92bc 6eaf 013d 462c 8abc
00000160: 8130 d53c 8af7 6dbd f4d3 323c 8d78 6abd
00000170: edfb 1e3d f2af c53d 8c11 aabd fccc 5a3d
00000180: 619f 3c3c 0d2e f4bd 40d9 b0bd ce43 08be
00000190: fc09 743d 2dc1 1dbd 9cb2 cd3c c647 cd3b
000001a0: 2508 42bb aa95 69bd d329 4dbd 558d a73d
000001b0: 24fd 8b3d f913 9c3b e703 5f3d 70fb f9bd
000001c0: 0deb f2bd d3ce 443d 20ca 11bd 9906 cfbd
000001d0: 691c 35bd ab60 6b3d 2224 d1bc 231e 10bc
000001e0: 06a4 a93d 66b3 693d ac8b e83d 8c54 033e
000001f0: ec74 2a3e 5108 973d cdc1 fe3d c5c6 bfbe
00000200: 2e1a e6bd 0bcb da3d ae7a 8a3c d1e8 163e
00000210: 4d29 293d c87d 15be ca62 7cbd 9312 533d
00000220: 9354 31be afe8 00bd bf47 08bd ebd5 0c3d
00000230: cb37 c2bd 14df 3ebe 2ae9 87bd b598 423d
00000240: 0939 693d 8081 5a3d 0e79 3e3d ae9d a8bb
00000250: 2ae1 99bc 4d9e a73d 7dab 2b3e 8b04 81bd
00000260: 0825 e0bc 6053 3d3d 79a9 c53d bc83 4a3b
00000270: 66bf 7a3d cc72 9d3d f934 a33d a7c3 ce3c
00000280: 006e 713c 672f d8bd c4ff dfbd 41b6 9fbd
00000290: 45a2 a73c fcaf b33d c861 12bd 342d cfbd
000002a0: 3777 efbd 65d0 e7bd 952d 45be bc42 85bd
000002b0: 830d 5b3d 77fb 0a3d fc5b e33d 0c03 e43d
000002c0: 223a f03d d3f2 723d 0fa5 35bb 65da 3ebd
000002d0: 5a14 bebd 0c7d 1d3d 8be2 6fbb af63 90bd
000002e0: 83f3 04be 85c1 8f3b 536f 54bd 3e94 bdbd
000002f0: 848a 94bd 4c27 8b3d 52db 12be 4b11 d6be
00000300: 4db3 7abd bbb0 07bd 867a 703e 3c1d 2f3e
00000310: 1eaa c53d 3beb 693e 471b 253e 2620 f3bc
00000320: 255c 5dbd 78c0 6d3d b41b b5bc 1b05 25be
00000330: ce33 09be b8bd 2fbe f155 63be b422 87bd
00000340: 0abc 58bd 7c95 a23d 3828 31bd a464 f83b
00000350: eec4 16be e062 043e 6d86 293e b11a 263e
00000360: ade2 bc3d af9e a4bd 7382 91bd f0e2 50bd
00000370: 71ad 4cbe d271 0dbe 807e 17be 3676 a3bd
00000380: 1c04 99bd 63ee 193e cad3 f13c b865 3a3d
00000390: eb62 3f3d 7a6b 38bd 9c1c eb3a a57f f7bd
000003a0: e508 77bd 7865 e4bd 1e2b 6dbe 8e94 26be
000003b0: d8a2 1bbd 06b3 c5bd 84ce aebd 8ae2 d9bb
000003c0: 85f4 f93c e681 f9bd 5638 373d cc7b c3bc
000003d0: c7bd ef3d 70f6 e43d a6e8 17be 9c8e 11be
000003e0: 049f 823c e581 973d 7a6c 043e 6bce b03d
000003f0: 8f7e d4bb fc03 08bd ecad 443e 1461 a73d

model.layers.0.temporal.0.bias f4 [32]
0.12786417 -0.23741947 -0.22116011 -0.389174 -0.13012217 -0.14535871 -0.091079436 -0.0058523086
-0.23418532 -0.30013162 -0.41601795 -0.41897553 -0.2633186 -0.2416788 -0.10869264 0.010131821
-0.1534095 -0.09386523 0.0010168095 -0.048154972 0.02920529 -0.1843647 -0.030573158 -0.227254
-0.15753159 -0.27390212 -0.06034366 -0.09211941 0.021185989 -0.23900697 -0.1978063 -0.042088017
00000000: d3ee 023e 171e 73be cc77 62be d141 c7be
00000010: bf3e 05be ead8 14be db87 babd b9c4 bfbb
00000020: 47ce 6fbe daaa 99be 4e00 d5be f683 d6be
00000030: b2d1 86be a67a 77be 3f9a debd f0ff 253c
00000040: 6117 1dbe 6a3c c0bd 7746 853a 263e 45bd
00000050: ef3f ef3c 1aca 3cbe 8f74 fabc 46b5 68be
00000060: f64f 21be e63c 8cbe ea2a 77bd 1aa9 bcbd
00000070: 3d8e ad3c 3ebe 74be bc8d 4abe 7c64 2cbd

model.layers.0.temporal.2.weight f4 [64, 32]
0.10070763 0.16958791 0.09934955 0.37858555 0.032133453 0.035265904 0.009738096 0.06712086
-0.1116112 -0.018075898 0.08517186 -0.048243076 -0.053459276 0.06217359 -0.0012194128 -0.017025065
-0.06477068 0.0036900726 -0.06052224 0.07866028 0.016813336 0.089781865 -0.14052404 0.09211942
-0.009551504 0.14618663 0.019527128 0.043482654 0.27379012 0.20545433 0.20467378 -0.061004013
0.11072785 -0.037183918 -0.19300285 0.061548587 0.15386894 0.12420382 0.019386465 0.01715073
-0.022321198 0.028077267 0.1509961 0.047351602 -0.043618914 0.09161282 -0.011335961 -0.08938204
-0.06920589 0.06025092 -0.11192238 -0.007634178 -0.045472004 0.080011375 0.12433628 0.03630568
0.12773316 -0.14530212 0.1521954 0.060600705 0.16505113 0.020395074 0.087601066 -0.04238133
-0.080392055 0.18536852 0.19624817 0.2757151 0.056700844 0.06299411 0.14667518 0.0782882
0.023022072 0.06853677 0.05975963 -0.15755226 0.05633602 0.095029905 -0.06285496 0.106532015
0.07806084 -0.03721709 -0.19257067 0.109867826 -0.091602884 -0.035063278 0.116489924 0.016418409
0.12170406 0.19417545 -0.008511728 0.13484447 0.2528965 -0.03291343 0.10790245 0.08102616
-0.016842928 0.058810107 -0.1959073 0.06125573 0.07597178 -0.057964977 -0.07212802 0.086431265
0.29816929 0.15196808 -0.14075947 -0.08293707 -0.049394656 -0.14836328 0.038958106 -0.018047918
-0.009506617 -0.097106904 -0.11537301 0.092000715 -0.17682393 -0.050716337 0.0379588 0.059245627
-0.08965315 -0.19485408 -0.15317017 0.038949184 0.051952355 0.18224803 -0.13764143 -0.13355209
0.21655086 -0.004832499 -0.16252513 0.1665746 -0.027240619 0.11222512 0.0005112288 -0.065271094
0.050721098 0.1785435 0.05301604 -0.061720114 -0.14352003 0.00040779254 0.0286103 0.07456858
0.07572915 0.027580263 -0.0821938 0.20262589 -0.13272761 0.0194714 0.13058975 0.16664681
0.105701104 -0.0489734 0.0129630985 -0.16615225 0.2684731 0.044423006 -0.093633026 -0.09739485
-0.12787324 0.15958218 0.041105617 -0.0038456623 0.037583146 -0.041651167 0.07115991 0.027005883
-0.1640227 0.16901454 -0.02577902 -0.021624465 0.11724386 -0.115498625 -0.016550168 -0.102450036
0.015818104 0.13299532 0.06385063 -0.0057090945 0.14102186 -0.17063406 -0.10463872 -0.09324061
0.22213554 0.019111652 0.19162168 0.08091275 0.037535675 0.18141778 -0.0028416566 -0.21651918
0.18344988 -0.088871375 -0.06525327 0.07123883 -0.06982138 0.068197444 -0.015825484 0.26084623
0.10779927 0.14006685 0.29213902 0.19211918 0.22288509 -0.3103749 0.2874864 -0.058853604
0.21206601 0.11970939 -0.3468276 0.11102682 -0.34781653 0.08036905 0.046857122 0.17630161
-0.20286007 -0.00022821968 0.08806684 0.11368691 0.137293 0.09462666 0.11825055 -0.037788857
-0.0038551027 0.08911758 -0.052861635 0.24333966 0.0049480987 -0.011276209 -0.21199319 0.06808313
0.120030686 -0.009594464 0.17911702 0.13933098 0.08828935 -0.07726359 0.038854226 -0.06330584
0.13021763 -0.08160724 0.021145605 0.34423044 -0.06968596 -0.28376544 0.04053116 0.17458841
-0.035102855 -0.34945065 -0.025716653 0.14772323 0.13499765 0.030885892 0.12957671 -0.097549014
00000000: cd3f ce3d 74a8 2d3e c777 cb3d f7d5 c13e
00000010: 5e9e 033d fb72 103d 898c 1f3c a976 893d
00000020: 6a94 e4bd e813 94bc 966e ae3d 889a 45bd
00000030: 1df8 5abd bca9 7e3d b4d4 9fba 2678 8bbc
00000040: 7ea6 84bd 25d5 713b 2be6 77bd a418 a13d
00000050: 1fbc 893c 8edf b73d 89e5 0fbe 1ba9 bc3d
00000060: e97d 1cbc f3b1 153e 5bf7 9f3c de1a 323d
00000070: 382e 8c3e 9f62 523e 0196 513e 58df 79bd
00000080: 48c5 e23d 2a4e 18bd 8aa2 45be 5f1a 7c3d
00000090: d28f 1d3e 935e fe3d 5dd0 9e3c b07f 8c3c
000000a0: f2da b6bc 4c02 e63c b99e 1a3e c1f3 413d
000000b0: bfa9 32bd 819f bb3d 77ba 39bc ee0d b7bd
000000c0: d1bb 8dbd abc9 763d 9037 e5bd 2028 fabb
000000d0: da40 3abd 01dd a33d 05a4 fe3d 44b5 143d
000000e0: 7bcc 023e 14ca 14be 1cd9 1b3e 7238 783d
000000f0: 2a03 293e 9213 a73c 3068 b33d 0c98 2dbd
00000100: 97a4 a4bd 3fd1 3d3e 48f5 483e 882a 8d3e
00000110: 253f 683d 0e03 813d 0532 163e 9055 a03d
00000120: c998 bc3c 025d 8c3d 84c6 743d 6155 21be
00000130: 99c0 663d 0a9f c23d 1aba 80bd 752d da3d
00000140: 5dde 9f3d f370 18bd 3f31 45be 6202 e13d
00000150: 4b9a bbbd 839e 0fbd 4592 ee3d e67f 863c
00000160: fa3f f93d eed5 463e c674 0bbc ab14 0a3e
00000170: a67b 813e 3cd0 06bd f6fb dc3d 0bf1 a53d
00000180: 2efa 89bc dee2 703d ec9b 48be 4ae7 7a3d
00000190: 1897 9b3d af6c 6dbd dbb7 93bd e002 b13d
000001a0: a5a9 983e 859d 1b3e 4023 10be e9da a9bd
000001b0: 0d52 4abd 8bec 17be 8992 1f3d 3ad9 93bc
000001c0: a4c1 1bbc fcdf c6bd af48 ecbd df6a bc3d
000001d0: 5511 35be efbb 4fbd b07a 1b3d 8bab 723d
000001e0: 129c b7bd d487 47be a4d8 1cbe 2e89 1f3d
000001f0: fecb 543d 3a9f 3a3e e0f1 0cbe e1c1 08be
00000200: 82bf 5d3e f159 9ebb fd6c 26be 8892 2a3e
00000210: b827 dfbc 49d6 e53d fc03 063a daac 85bd
00000220: edc0 4f3d 1bd4 363e 5927 593d 3bce 7cbd
00000230: eaf6 12be fdcc d539 2660 ea3c 69b7 983d
00000240: e217 9b3d 01f0 e13c 3955 a8bd 297d 4f3e
00000250: bfe9 07be 7c82 9f3c 52b9 053e 76a5 2a3e
00000260: d279 d83d 5598 48bd 2d63 543c d123 2abe
00000270: 4e75 893e e6f4 353d acc2 bfbd f376 c7bd
00000280: 34f1 02be 8369 233e 5d5e 283d 8207 7cbb
00000290: c9f0 193d 6a9a 2abd 49bc 913d 713b dd3c
000002a0: 91f5 27be 2612 2d3e 862e d3bc ca25 b1bc
000002b0: 8d1d f03d 8b8a ecbd 3894 87bc 53d1 d1bd
000002c0: f894 813c ed2f 083e 1ec4 823d 5b13 bbbb
000002d0: 0968 103e b2ba 2ebe d34c d6bd eff4 bebd
000002e0: 8077 633e 0a90 9c3c 7938 443e 95b5 a53d
000002f0: 02bf 193d 95c5 393e 163b 3abb 34b7 5dbe
00000300: 49da 3b3e 3202 b6bd 82a3 85bd aae5 913d
00000310: 83fe 8ebd 1aab 8b3d 72a4 81bc a38d 853e
00000320: ddc5 dc3d af6d 0f3e 3f93 953e e4ba 443e
00000330: fd3b 643e 75e9 9ebe 6b31 933e 7a10 71bd
00000340: d527 593e 322a f53d 6393 b1be 0862 e33d
00000350: 0215 b2be 8798 a43d 41ed 3f3d 6988 343e
00000360: 8dba 4fbe 414e 6fb9 635c b43d afd4 e83d
00000370: 8996 0c3e 9fcb c13d 582d f23d 7dc8 1abd
00000380: e4a5 7cbb 4783 b63d 7185 58bd 082e 793e
00000390: a923 a23b d9bf 38bc be14 59be 2b6f 8b3d
000003a0: a6d2 f53d 1932 1dbc 746a 373e c8ac 0e3e
000003b0: 0cd1 b43d 603c 9ebd 9c25 1f3d 7ea6 81bd
000003c0: c557 053e b221 a7bd 8c39 ad3c f93e b03e
000003d0: 83b7 8ebd b449 91be 0004 263d 4ec7 323e
000003e0: 03c8 0fbd 32eb b2be bbab d2bc c244 173e
000003f0: d33c 0a3e 6904 fd3c c2af 043e c7c7 c7bd

model.layers.0.temporal.2.bias f4 [64]
-0.020531118 0.038836673 -0.038574807 0.031312384 -0.060249165 0.04851661 0.024694879 0.014855313
-0.011707522 0.048774872 0.018367514 0.049195636 0.036440868 0.0024787488 -0.014157279 -0.044623453
0.07072029 0.083325446 -0.019213231 0.022300161 -0.008277162 -0.023689818 0.08819906 0.0019271873
0.07857252 -0.0019335306 0.041169807 0.01470957 -0.019391825 -0.03128614 -0.00013220031 0.052292902
0.025593543 0.030407201 0.053464957 0.0355698 0.031804483 0.016139545 0.009714478 0.0032917946
0.07021448 -0.027817244 -0.008955294 0.0015109603 0.020420464 0.047218595 -0.007980689 -0.00053492934
0.09037426 -0.039469533 0.063756436 0.052697476 0.07652581 0.042373583 -0.041995347 0.0046958867
0.07884488 -0.011166908 0.005404573 -0.0047626225 -0.031452235 0.010802561 -0.0005807165 -0.034062393
00000000: e030 a8bc 3413 1f3d 9e00 1ebd 6a41 003d
00000010: d4c7 76bd 5ab9 463d ea4c ca3c b363 733c
00000020: e8d0 3fbc 29c8 473d 7877 963c 5d81 493d
00000030: 0543 153d 8172 223b eff3 67bc 15c7 36bd
00000040: cdd5 903d 88a6 aa3d 1165 9dbc d4ae b63c
00000050: ef9c 07bc 2611 c2bc b5a1 b43d ad99 fc3a
00000060: a1ea a03d 856e fdba aca1 283d 6900 713c
00000070: 9bdb 9ebc e525 00bd 409f 0ab9 1531 563d
00000080: 8da9 d13c 8618 f93c 12fe 5a3d a3b1 113d
00000090: 6b45 023d 1437 843c 7929 1f3c 26bb 573b
000000a0: 9ccc 8f3d fde0 e3bc 3ab9 12bc 6a0b c63a
000000b0: d148 a73c 4968 413d 70c1 02bc 803a 0cba
000000c0: 2416 b93d ceaa 21bd bc92 823d 4fd9 573d
000000d0: 90b9 9c3d ec8f 2d3d 5003 2cbd f4df 993b
000000e0: 6d79 a13d 68f5 36bc d818 b13b c60f 9cbb
000000f0: 0fd4 00bd 3afd 303c 3a3b 18ba 0285 0bbd

model.layers.0.channel.0.weight f4 [32, 74]
0.22244222 0.08409611 0.084540606 -0.03772652 0.07284228 0.17005132 -0.22272885 -0.006496042
0.17042616 -0.023869785 -0.110041395 -0.17909414 0.08916692 0.14579612 -0.032427754 0.10391499
-0.06735417 -0.08867801 0.060277343 -0.06678473 0.03514756 0.049966425 -0.23753396 -0.06242201
0.0011058912 0.0550176 0.174144 0.0064523756 -0.026135202 0.05986603 -0.04027589 0.061433632
-0.0248447 -0.17149277 -0.0015579766 0.029360175 -0.10189923 -0.050806087 -0.14037916 -0.06937811
0.021310767 -0.032757655 0.043198045 0.02936346 -0.070285015 -0.16209981 0.098017626 -0.052113
0.14408669 -0.04975464 -0.12320218 -0.1277976 0.124804154 0.04323654 0.09456438 -0.034569766
-0.07832832 0.00092582725 0.11742421 0.019658413 0.018408526 -0.07808947 0.04901445 0.012387449
-0.2730333 -0.07439568 -0.060328953 0.077701315 0.16519023 -0.050961215 -0.09373404 0.035058837
-0.0747737 0.030132687 0.1806447 -0.11215747 -0.11429409 -0.12592885 0.013738386 -0.011240198
-0.16117251 0.025285613 0.053062133 -0.024673304 0.031768274 -0.06704329 -0.22757529 -0.057839543
0.15079284 -0.28717208 0.025003042 -0.033084318 0.038286246 -0.041197825 -0.030929968 0.019014856
0.12335846 0.025288953 -0.0053962045 -0.15262537 -0.11035079 0.06837077 0.08616101 -0.06613799
-0.2359566 -0.00027087427 -0.03268528 0.01806027 0.044384807 0.0021491032 -0.09467993 0.080721475
-0.03992053 -0.103821054 -0.22125146 -0.03803853 -0.0895654 -0.17506397 -0.032835923 -0.114844605
-0.04330951 -0.011699894 -0.28495654 -0.013219279 -0.05952 -0.22645548 -0.09056769 0.05129296
0.033897236 -0.053468533 0.00016085297 0.10379935 0.032328147 -0.15589574 0.033883184 -0.16447617
-0.06642086 0.06311686 0.16123217 -0.16075155 0.052947063 0.053293277 -0.14223427 -0.13973139
0.014275549 0.029479964 0.019240305 0.12990347 -0.030238627 0.1294369 0.11236691 0.117577925
-0.1421789 -0.066005364 0.35095015 0.14907503 -0.14448446 0.04644953 -0.067374416 0.016472043
-0.051181722 -0.0428727 -0.10017996 -0.00949207 -0.057368092 0.00035638976 -0.001844355 -0.08887218
-0.0625344 -0.15396763 -0.18522762 -0.046771068 -0.019655235 0.002030124 0.03304056 -0.004367047
0.0175553 0.00034372602 -0.09665298 -0.05627816 -0.09729342 -0.13710184 -0.012153367 -0.10527555
-0.07554274 0.06907392 -0.10219019 -0.12772834 -0.065005705 -0.03482516 -0.002184213 -0.0359526
-0.20455518 -0.034477774 -0.06274014 -0.013677595 -0.115761526 0.06949075 -0.050468877 0.004538882
-0.022442473 -0.0879708 -0.07130489 -0.12919658 -0.16203722 -0.16323833 -0.097495995 -0.09026102
0.019937048 0.03230762 -0.11321719 -0.06971813 -0.22273704 -0.06052092 -0.0628643 -0.030317504
0.03900459 -0.106511645 -0.06846134 -0.046788346 -0.03629429 -0.02514918 -0.07967961 0.19389692
-0.1932383 -0.20204097 0.14109962 0.21434161 0.00765867 0.056018196 -0.08100105 0.12288114
0.24015261 0.1681899 -0.090372026 -0.050056092 -0.04431727 -0.20546743 -0.011813438 0.10496838
0.03863003 0.012243537 -0.07879653 -0.29168436 0.018942738 -0.13500294 -0.08855965 0.097087115
0.0077216625 0.10786099 0.19731022 0.023433864 0.05877258 0.15764764 -0.05516063 -0.10258191
00000000: e5c7 633e 953a ac3d a023 ad3d 2087 1abd
00000010: 552e 953d ef21 2e3e 0813 64be c0dc d4bb
00000020: 3284 2e3e 918a c3bc 625d e1bd 7464 37be
00000030: 259d b63d 944b 153e f7d2 04bd 62d1 d43d
00000040: fcf0 89bd d19c b5bd 60e5 763d 6fc6 88bd
00000050: e3f6 0f3d 98a9 4c3d 1a3c 73be 39ae 7fbd
00000060: 8df3 903a 235a 613d ce52 323e 736e d33b
00000070: 7e19 d6bc 1536 753d 55f8 24bd d5a1 7b3d
00000080: 1d87 cbbc cd9b 2fbe 0535 ccba c084 f03c
00000090: 8bb0 d0bd 0b1a 50bd 8ebf 0fbe 1c16 8ebd
000000a0: eb93 ae3c e42c 06bd 6ff0 303d a48b f03c
000000b0: 97f1 8fbd 7efd 25be 77bd c83d 7174 55bd
000000c0: 768b 133e 85cb 4bbd 6d51 fcbd 60dd 02be
000000d0: 5299 ff3d cc18 313d f8aa c13d 0799 0dbd
000000e0: 996a a0bd 37b3 723a 1b7c f03d ae0a a13c
000000f0: 7acd 963c 5fed 9fbd 60c3 483d baf4 4a3c
00000100: 05cb 8bbe c35c 98bd 7e1b 77bd de21 9f3d
00000110: a127 293e b5bc 50bd a2f7 bfbd db99 0f3d
00000120: f422 99bd d3d8 f63c edfa 383e d1b2 e5bd
00000130: 0513 eabd 7ef3 00be f816 613c cf28 38bc
00000140: 680a 25be c623 cf3c ae57 593d ab1f cabc
00000150: 731f 023d fe4d 89bd 7f09 69be 28e9 6cbd
00000160: 7069 1a3e 3808 93be 2ed3 cc3c 6c83 07bd
00000170: 0ad2 1c3d 0dbf 28bd d860 fdbc 0bc5 9b3c
00000180: 5ca3 fc3d c72a cf3c a5d2 b0bb d349 1cbe
00000190: 98ff e1bd f905 8c3d 2f75 b03d 5b73 87bd
000001a0: 9b9e 71be 2104 8eb9 00e1 05bd 22f3 933c
000001b0: d8cc 353d f8d7 0c3b 8de7 c1bd 4d51 a53d
000001c0: b683 23bd 22a0 d4bd be8f 62be 4ace 1bbd
000001d0: 106e b7bd f843 33be f67e 06bd a633 ebbd
000001e0: 5065 31bd eab0 3fbc d3e5 91be ad95 58bc
000001f0: 3ecb 73bd f2e3 67be 8e7b b9bd 9118 523d
00000200: d4d7 0a3d d201 5bbd a4aa 2839 c194 d43d
00000210: 856a 043d 22a3 1fbe 18c9 0a3d 716c 28be
00000220: a907 88bd 6a43 813d 0c1a 253e 0e9c 24be
00000230: 05df 583d 0d4a 5a3d dca5 11be bf15 0fbe
00000240: fee3 693c f77f f13c d89d 9d3c 6a05 053e
00000250: ffb6 f7bc 1b8b 043e 9f20 e63d b2cc f03d
00000260: 5897 11be d22d 87bd bdaf b33e 20a7 183e
00000270: bcf3 13be dd41 3e3d 99fb 89bd 61f0 863c
00000280: eda3 51bd 499b 2fbd 272b cdbd a184 1bbc
00000290: cefa 6abd d3d9 ba39 49be f1ba 9e02 b6bd
000002a0: 0912 80bd b1a9 1dbe 4fac 3dbe 0593 3fbd
000002b0: 0404 a1bc d40b 053b 8a55 073d 7219 8fbb
000002c0: 22d0 8f3c 2036 b439 fff1 c5bd ee83 66bd
000002d0: c641 c7bd 6d64 0cbe ea1e 47bc b59a d7bd
000002e0: 27b6 9abd a176 8d3d 1749 d1bd 38cb 02be
000002f0: b621 85bd d4a4 0ebd 0325 0fbb 0943 13bd
00000300: ea76 51be 9138 0dbd e77d 80bd fe17 60bc
00000310: 6114 edbd 2b51 8e3d 74b8 4ebd e7ba 943b
00000320: 47d9 b7bc 092a b4bd 4c08 92bd 1c4c 04be
00000330: 16ed 25be f327 27be fbab c7bd c5da b8bd
00000340: 0553 a33c ff54 043d 6ade e7bd 61c8 8ebd
00000350: 2e15 64be c9e4 77bd 00bf 80bd 6a5c f8bc
00000360: 47c3 1f3d c722 dabd 7635 8cbd 23a5 3fbd
00000370: 52a9 14bd a705 cebc 102f a3bd ea8c 463e
00000380: 43e0 45be d4e3 4ebe 6b7c 103e 5e7c 5b3e
00000390: 95f5 fa3b 5673 653d e1e3 a5bd 1ba9 fb3d
000003a0: 91ea 753e f939 2c3e f814 b9bd 9e07 4dbd
000003b0: 0786 35bd 0e66 52be 268d 41bc a9f9 d63d
000003c0: 863a 1e3d 1e99 483c 1360 a1bd a757 95be
000003d0: cd2d 9b3c 363e 0abe c35e b5bd 9cd5 c63d
000003e0: 0006 fd3b 39e6 dc3d b10b 4a3e 60f8 bf3c
000003f0: 84bb 703d 626e 213e 1df0 61bd 7716 d2bd

model.layers.0.channel.0.bias f4 [32]
-0.15443474 0.0901012 -0.15480767 0.011069224 0.02318141 -0.085040726 0.03696834 0.06819307
-0.094792105 -0.16003598 0.06342676 -0.20659247 -0.0920725 0.026304243 0.10350845 -0.039827105
-0.074733324 -0.11507668 -0.18009955 0.0051675956 -0.2097737 -0.09368195 -0.08423326 -0.091254
-0.004584736 0.020551894 0.08080692 -0.028366862 -0.05178824 0.09844544 0.028710106 -0.07701218
00000000: 2424 1ebe fa86 b83d e785 1ebe b15b 353c
00000010: f1e6 bd3c d529 aebd 1d6c 173d cfa8 8b3d
00000020: 5d22 c2bd 79e0 23be e4e5 813d fa8c 53be
00000030: 8290 bcbd ff7b d73c 3dfc d33d bf21 23bd
00000040: c90d 99bd 53ad ebbd 046c 38be ef54 a93b
00000050: ebce 56be 52dc bfbd 7d82 acbd 61e3 babd
00000060: 8e3b 96bb 725c a83c 197e a53d 9f61 e8bc
00000070: e81f 54bd c39d c93d 7531 eb3c 90b8 9dbd

model.layers.0.channel.2.weight f4 [74, 32]
0.041025788 0.07584157 0.014183463 0.22872418 0.05602016 0.13952795 0.13682699 0.42427498
0.045454193 0.18600345 -0.0700297 -0.07141872 -0.0025417525 0.23482417 0.06154628 0.08931419
0.20225641 0.29525363 0.13406357 -0.16047704 -0.11190606 0.047316276 -0.124927975 0.007011612
-0.22173382 0.1722161 0.108441606 0.095567614 0.04580931 -0.12295289 0.40475017 0.09654019
-0.024695469 -0.18142441 -0.021400109 0.032843247 0.08896527 0.3498527 0.0032024344 0.28999358
0.21076275 0.11995069 -0.11325367 0.28666165 0.114915214 0.045232113 0.0386634 0.041154463
0.24732889 0.13425615 -0.35965478 0.095937766 0.08000533 0.052449208 -0.20139126 0.21313986
-0.44754985 0.20574626 -0.21958084 -0.17240074 -0.01567867 0.13236739 -0.5891008 0.4069382
-0.08377309 -0.17441916 -0.038478047 0.31110778 0.060339488 0.15737422 -0.11446852 -0.20988564
-0.2429879 -0.12655163 -0.14920774 0.24924296 0.31715634 -0.13979273 -0.050652564 -0.19285625
-0.39625484 -0.1195659 -0.23948361 0.06370828 -0.14659797 0.04280909 -0.025617024 -0.03581676
0.4347774 -0.24443592 0.3894923 -0.25139114 -0.21504241 0.062887795 0.14290844 -0.20105496
0.056094486 0.020520957 0.0172425 -0.007574496 0.018233513 0.17625192 -0.0404474 0.030069357
0.022865351 0.023203185 -0.098941445 -0.059531387 -0.03382578 0.032597475 0.024698231 -0.015672538
-0.08621344 0.011867467 -0.030889945 -0.0628414 -0.036253802 -0.06880087 -0.053735245 0.011578285
0.040483862 0.055307005 -0.0027212154 0.051962703 0.04289299 -0.046754915 -0.032924682 -0.026480358
-0.047076162 -0.07976279 -0.30166957 -0.18870626 -0.23019071 0.101570144 0.14658701 0.32415974
0.16682948 0.0734703 0.1491946 0.20901936 -0.10390345 0.29279816 -0.10675895 -0.086324394
0.05912502 -0.10373207 -0.5050377 -0.17611186 -0.19832018 -0.11769179 -0.21048157 -0.24972743
-0.56266326 0.16069035 -0.26403224 -0.018407082 -0.21801494 0.10716487 -0.08038119 -0.07592039
0.042432364 -0.009637509 -0.07437719 -0.1992335 -0.014992851 -0.37430617 -0.13931066 -0.1670168
0.07123916 0.06813007 0.0074840793 -0.42229402 0.20811671 0.120799586 -0.006159924 -0.17745037
-0.02478757 0.18069728 0.32758278 0.11428213 0.13519458 0.027833939 0.16837236 0.20394213
0.61428523 -0.2521517 0.154297 -0.06777061 0.19703533 0.10310042 0.08510632 -0.04008545
-0.012049778 -0.03288823 0.034308515 0.12601309 -0.00273157 0.037893932 0.045148686 0.24600206
0.19830489 -0.121618405 -0.04920871 -0.056756955 -0.15750386 0.053342793 0.26450795 0.22310708
0.07939733 0.20380542 -0.09029121 0.23954652 0.123015046 0.1532549 -0.063314095 0.25618
-0.09263283 0.050996903 0.0076743593 -0.18801038 0.01340379 -0.0692575 -0.1126682 0.14661667
-0.1108134 -0.118484445 0.18749447 0.12820187 -0.009914368 0.13292894 -0.036872458 0.021413788
0.23002355 -0.18519165 0.15586819 -0.055478506 -0.15921828 0.062474485 0.20255351 0.20270549
0.15027973 0.29601434 0.042604778 0.34582776 0.16173477 0.09083674 0.018066416 0.09453355
-0.18730816 0.07020671 -0.109446935 -0.0945723 -0.08348796 0.3002859 -0.10267377 0.34464946
00000000: a80a 283d d352 9b3d c161 683c ac36 6a3e
00000010: 6575 653d 6ae0 0e3e 601c 0c3e 923a d93e
00000020: 2d2e 3a3d b077 3e3e bb6b 8fbd fa43 92bd
00000030: 8893 26bb bf75 703e f417 7c3d 5cea b63d
00000040: 4e1c 4f3e 7c2b 973e f647 093e 1854 24be
00000050: 012f e5bd b6ce 413d 3dda ffbd aac1 e53b
00000060: 310e 63be 6b59 303e a216 de3d f4b8 c33d
00000070: 8ba2 3b3d bace fbbd 6a3b cf3e ddb6 c53d
00000080: 274e cabc 52c7 39be 484f afbc a486 063d
00000090: 6c33 b63d e51f b33e efdf 513b 0a7a 943e
000000a0: 31d2 573e b5a8 f53d 8af1 e7bd 51c5 923e
000000b0: ab58 eb3d 4f45 393d 835d 1e3d 9591 283d
000000c0: c943 7d3e 727a 093e ac24 b8be 057b c43d
000000d0: d6d9 a33d fbd4 563d 8339 4ebe 5641 5a3e
000000e0: 4125 e5be 26af 523e cdd9 60be d289 30be
000000f0: 8e70 80bc 518b 073e 4fcf 16bf 345a d03e
00000100: 3a91 abbd f09a 32be 289b 1dbd 8549 9f3e
00000110: 8a26 773d b526 213e 796e eabd 43ec 56be
00000120: d2d1 78be c096 01be eac9 18be 8c39 7f3e
00000130: 5162 a23e d325 0fbe 1079 4fbd 1c7c 45be
00000140: eae1 cabe f7de f4bd 313b 75be 7d79 823d
00000150: c71d 16be 9658 2f3d cbda d1bc 98b4 12bd
00000160: 259b de3e 694d 7abe 896b c73e 57b6 80be
00000170: 1434 5cbe 51cb 803d 9756 123e 5ae1 4dbe
00000180: 55c3 653d 911b a83c 2540 8d3c 7a33 f8bb
00000190: 735e 953c 627b 343e 2cac 25bd 0354 f63c
000001a0: 1e50 bb3c 9b14 be3c d0a1 cabd 2fd7 73bd
000001b0: e78c 0abd ee84 053d f253 ca3c b263 80bc
000001c0: ac90 b0bd c46f 423c e90c fdbc feb2 80bd
000001d0: de7e 14bd 78e7 8cbd 7d19 5cbd d9b2 3d3c
000001e0: 68d2 253d 9989 623d 6b56 32bb d8d6 543d
000001f0: 8fb0 2f3d 1582 3fbd 08dc 06bd 56ed d8bc
00000200: efd2 40bd ac5a a3bd 6f74 9abe 373c 41be
00000210: 1db7 6bbe 0204 d03d e81a 163e 44f8 a53e
00000220: 59d5 2a3e 9977 963d 78c6 183e 2c09 563e
00000230: 55cb d4bd a4e9 953e 70a4 dabd d8ca b0bd
00000240: 142d 723d 7b71 d4bd 274a 01bf ab56 34be
00000250: 7214 4bbe 6508 f1bd 7b88 57be 8cb8 7fbe
00000260: b30a 10bf 038c 243e 3c2f 87be 73ca 96bc
00000270: 4f3f 5fbe 4179 db3d e59e a4bd 267c 9bbd
00000280: 8fcd 2d3d a4e6 1dbc 1153 98bd de03 4cbe
00000290: 93a4 75bc 0fa5 bfbe 74a7 0ebe 7406 2bbe
000002a0: d6e5 913d c787 8b3d 023d f53b ec36 d8be
000002b0: 8c1c 553e c665 f73d 30d9 c9bb 8db5 35be
000002c0: 4d0f cbbc b508 393e eeb8 a73e c00c ea3d
000002d0: 7370 0a3e 0004 e43c ce69 2c3e 35d6 503e
000002e0: cc41 1d3f 071a 81be 0800 1e3e 51cb 8abd
000002f0: a1c3 493e 5026 d33d 394c ae3d a430 24bd
00000300: 6f6c 45bc cfb5 06bd 1687 0c3d 9309 013e
00000310: 2404 33bb ab36 1b3d d4ed 383d f7e7 7b3e
00000320: 7010 4b3e 1213 f9bd 138f 49bd fb79 68bd
00000330: b148 21be f97d 5a3d 966d 873e 2f76 643e
00000340: 119b a23d 5eb2 503e 99ea b8bd af4b 753e
00000350: 50ef fb3d daee 1c3e d2aa 81bd 062a 833e
00000360: 48b6 bdbd 21e2 503d 3179 fb3b cb85 40be
00000370: 929b 5b3c e0d6 8dbd 96be e6bd ae22 163e
00000380: 23f2 e2bd f9a7 f2bd 8dfe 3f3e 5a47 033e
00000390: e06f 22bc 861e 083e 9307 17bd f86b af3c
000003a0: 4b8b 6b3e e1a2 3dbe e99b 1f3e 6e3d 63bd
000003b0: 1e0a 23be 3fe5 7f3d 306a 4f3e 0792 4f3e
000003c0: eee2 193e 318f 973e 5982 2e3d 5610 b13e
000003d0: cd9d 253e 9d08 ba3d 0500 943c ce9a c13d
000003e0: b6cd 3fbe 89c8 8f3d b725 e0bd 1faf c1bd
000003f0: bcfb aabd 13bf 993e a046 d2bd e575 b03e

model.layers.0.channel.2.bias f4 [74]
-0.044232983 -0.12515554 -0.012315974 0.05214983 0.0421888 -0.005153179 -0.13875775 -0.19131286
-0.008174691 0.029502446 0.014280205 -0.013135966 0.030467194 0.0047269184 0.10852289 -0.13092253
-0.06400705 -0.1733303 -0.019742878 0.07108694 -0.1514822 0.064417385 0.08156527 -0.07683973
0.078886434 0.09101394 -0.071665026 0.07131731 -0.022528332 0.027588857 -0.020339208 -0.11318505
-0.08811165 0.06317864 -0.07329969 0.13261105 0.0073557114 0.042927373 -0.077200614 -0.036348958
-0.077685125 0.0438725 -0.14274658 -0.040227767 0.011816733 0.04896006 0.10909673 -0.029644111
-0.08206922 -0.03952641 -5.8166024e-05 -0.107729204 -0.0025100156 -0.14931396 -0.01579038 -0.03898788
-0.14288412 0.0077711632 0.017910803 -0.0281963 -0.031913735 0.00366634 -0.0832363 -0.08811118
-0.033056557 -0.052573033 -0.040572066 -0.063149005 -0.06740069 0.037061147 0.10597728 0.02586602
0.05798435 0.0917696
00000000: a52d 35bd c628 00be f0c8 49bc 0f9b 553d
00000010: 2ace 2c3d 00dc a8bb 8316 0ebe 85e7 43be
00000020: 24ef 05bc 1daf f13c 85f7 693c 3c38 57bc
00000030: 5696 f93c 44e4 9a3b 4041 de3d 8e10 06be
00000040: 2116 83bd 807d 31be d1bb a1bc 0896 913d
00000050: 261e 1bbe 43ed 833d b10b a73d 265e 9dbd
00000060: 368f a13d 8465 ba3d 1dc5 92bd cf0e 923d
00000070: 568d b8bc 0702 e23c 699e a6bc 90cd e7bd
00000080: e173 b4bd ce63 813d 261e 96bd 31cb 073e
00000090: 2e08 f13b 9dd4 2f3d 5b1b 9ebd a5e2 14bd
000000a0: 6119 9fbd a7b3 333d 292c 12be dfc5 24bd
000000b0: f89a 413c 588a 483d 1b6e df3d 35d8 f2bc
000000c0: e813 a8bd 72e6 21bd 4bf7 73b8 21a1 dcbd
000000d0: 137f 24bb c2e5 18be d45a 81bc c1b1 1fbd
000000e0: 3750 12be 3ea5 fe3b adb9 923c edfb e6bc
000000f0: fab7 02bd fa46 703b cb77 aabd a273 b4bd
00000100: 5066 07bd d256 57bd e52e 26bd 4454 81bd
00000110: 5f09 8abd 6ecd 173d 9e0a d93d fae4 d33c
00000120: ff80 6d3d b3f1 bb3d

model.layers.1.temporal.0.weight f4 [32, 64]
-0.26826015 -0.19899508 -0.073594145 0.0919662 -0.0059527075 0.07022911 -0.097965464 -0.111386955
-0.025316522 -0.009699469 -0.0013751286 -0.08524363 -0.086172014 0.0029065965 -0.064384595 0.08919523
-0.050550498 -0.118724845 -0.08860168 -0.20484132 -0.09005475 0.07130447 -0.14223091 -0.059815962
-0.091051936 -0.099863045 0.086210705 -0.010826321 -0.045454115 0.101550974 0.043374833 -0.093261026
0.061186023 0.0007543484 0.1972614 0.053271838 -0.104614876 0.021841666 0.06908109 -0.16192777
0.04312028 -0.04272624 0.03659515 -0.020368733 0.042198732 0.12278467 -0.015311343 0.065500185
0.025122296 -0.056061164 -0.001679561 -0.13587087 0.06698893 -0.09178974 -0.00855855 0.07605703
-0.048503175 0.051144965 0.05760513 0.20910506 0.14039122 0.0015537324 0.23386951 -0.3398178
-0.06663184 -0.037601616 0.028892748 0.046862178 0.0709477 -0.02169679 -0.17639393 0.059414376
0.09000234 -0.11825261 -0.11793089 -0.059134707 -0.023348683 0.027232943 0.13328739 0.047969278
0.07102587 0.060857303 -0.098619044 -0.12312477 -0.034456644 -0.1273551 -0.066580735 0.022496473
0.04804335 0.07344123 -0.044496343 0.06279829 0.11987224 0.00044435708 0.042061083 -0.023573564
-0.0062557026 -0.05251852 -0.040312197 -0.16449802 0.03460144 0.037707772 0.13296807 0.06368169
-0.0027354523 -0.22450641 -0.15835096 -0.09808931 -0.056242865 -0.05993118 0.029348519 0.109309606
-0.04038523 -0.046574607 -0.05128554 -0.114267446 -0.22263391 -0.04728275 -0.03296864 0.064379156
-0.08621955 0.12464653 0.076691166 0.071105756 0.08501858 -0.088514365 -0.049369358 0.3462794
-0.04645602 0.043954838 0.07394922 0.08783518 0.016425554 -0.01365406 0.040683676 0.09146049
-0.10082542 -0.020713726 0.012101337 -0.0360116 0.087637424 -0.010815309 -0.06422061 0.0035871018
0.15358053 0.026487233 0.029364431 0.021288842 -0.025901796 -0.076391846 0.0024913717 0.1294745
0.24402846 -0.10941609 0.033259384 -0.14090459 -0.121729665 0.053735737 0.017051175 -0.14302352
-0.03684257 0.028059749 0.09281299 -0.051768154 -0.08630151 -0.0854695 0.024174983 -0.030735813
-0.005523574 -0.17876273 -0.107424065 0.07582107 0.053773638 0.08514039 -0.08077216 -0.07099015
-0.058495983 -0.015056866 -0.01160195 -0.099321306 -0.042234607 -0.057811547 -0.040201813 0.023929937
0.13876982 0.020571798 -0.00048087945 -0.1652803 -0.15101089 -0.23409931 -0.2778923 -0.41203848
-0.07976609 -0.12218801 -0.0065717613 -0.0070266654 -0.21268424 -0.29998323 -0.035789795 0.02239824
0.019881649 -0.07867523 0.020827245 0.057752658 0.08404254 0.042701084 -0.14641431 0.09810578
0.20044924 0.2612837 0.19408071 0.05728407 0.039747078 0.14204706 0.10623859 0.017173951
-0.014415814 -0.15033068 -0.012268044 -0.056161717 -0.107920885 0.028826041 -0.18279782 -0.023458019
0.099325255 0.024857016 0.013604452 -0.19119258 -0.08188364 -0.08579459 0.050150376 -0.14935973
-0.04179048 0.11066445 -0.09063348 0.037961226 -0.13960603 0.101504624 -0.10411294 0.06057847
0.085843444 -0.19833305 -0.14183289 -0.2248101 0.0061832927 0.06784497 -0.12629396 -0.07711787
-0.0457474 0.017772295 0.067099206 0.035648696 -0.038928133 -0.12562372 -0.01156011 0.15867177
00000000: 6559 89be 5ec5 4bbe 87b8 96bd c658 bc3d
00000010: ee0e c3bb 48d4 8f3d 1ea2 c8bd d81e e4bd
00000020: 9864 cfbc 86ea 1ebc a93d b4ba 3694 aebd
00000030: f47a b0bd 997c 3e3b 12dc 83bd fdab b63d
00000040: 0a0e 4fbd 0326 f3bd cc74 b5bd ecc1 51be
00000050: a06e b8bd 1408 923d fba4 11be 9501 75bd
00000060: 7079 babd ff84 ccbd 3d8f b03d e260 31bc
00000070: 182e 3abd f5f9 cf3d cfa9 313d a3ff bebd
00000080: 329e 7a3d 77bf 453a e4fe 493e 9233 5a3d
00000090: 5340 d6bd 4bed b23c 637a 8d3d 65d0 25be
000000a0: e49e 303d b601 2fbd cce4 153d 54dc a6bc
000000b0: 94d8 2c3d 8776 fb3d 6ddc 7abc f624 863d
000000c0: 46cd cd3c 64a0 65bd b724 dcba bc21 0bbe
000000d0: 7e31 893d 42fc bbbd 2939 0cbc cac3 9b3d
000000e0: 44ab 46bd 627d 513d 5bf3 6b3d a31f 563e
000000f0: b7c2 0f3e 9ca6 cb3a 7d7b 6f3e 99fc adbe
00000100: 4676 88bd 2704 1abd 7cb0 ec3c 8ef2 3f3d
00000110: 074d 913d 77bd b1bc 9ca0 34be 7d5c 733d
00000120: 2653 b83d 6d2e f2bd c085 f1bd 3c37 72bd
00000130: bd45 bfbc 9f17 df3c 7d7c 083e 6f7b 443d
00000140: 0376 913d 8245 793d c8f8 c9bd d728 fcbd
00000150: 6922 0dbd 6069 02be 7b5b 88bd 864a b83c
00000160: 1bc9 443d 5b68 963d cc41 36bd 649c 803d
00000170: 947f f53d 99f8 e839 3e48 2c3d 591d c1bc
00000180: a3fc ccbb a91d 57bd 671e 25bd 2b72 28be
00000190: 3dba 0d3d 7773 1a3d c828 083e 8c6b 823d
000001a0: 4645 33bb 02e5 65be c126 22be 0ce3 c8bd
000001b0: eb5e 66bd 667a 75bd 4e6c f03c b7dd df3d
000001c0: fc6a 25bd 04c5 3ebd c910 52bd 0d05 eabd
000001d0: 25fa 63be 8fab 41bd 200a 07bd 38d9 833d
000001e0: e093 b0bd ae46 ff3d 4210 9d3d e59f 913d
000001f0: 391e ae3d 0547 b5bd 8637 4abd 894b b13e
00000200: ab48 3ebd fd09 343d b072 973d eee2 b33d
00000210: e28e 863c 47b5 5fbc eda3 263d a34f bb3d
00000220: 8f7d cebd d5af a9bc b044 463c e680 13bd
00000230: 407b b33d b232 31bc 1886 83bd 9515 6b3b
00000240: 3744 1d3e c1fb d83c ad8d f03c f065 ae3c
00000250: 0130 d4bc 5473 9cbd 4846 233b f794 043e
00000260: 99e2 793e 8b15 e0bd fe3a 083d 4b49 10be
00000270: 674d f9bd 011a 5c3d e8ae 8b3c c274 12be
00000280: 3ce8 16bd 8fdd e53c bd14 be3d d80a 54bd
00000290: d9be b0bd a20a afbd 9d0a c63c acc9 fbbc
000002a0: 19ff b4bb 940d 37be 2601 dcbd 1448 9b3d
000002b0: bf41 5c3d 165e ae3d e06b a5bd 4963 91bd
000002c0: 7c99 6fbd 13b1 76bc 1b16 3ebc f868 cbbd
000002d0: 32fe 2cbd cdcb 6cbd a8aa 24bd b708 c43c
000002e0: ad19 0e3e 3086 a83c 8c1e fcb9 3d3f 29be
000002f0: 99a2 1abe bbb7 6fbe e647 8ebe b5f6 d2be
00000300: 675c a3bd b53d fabd ee57 d7bb f13f e6bb
00000310: e6c9 59be 6797 99be 5298 12bd 847c b73c
00000320: d7de a23c 7b20 a1bd e69d aa3c 0d8e 6c3d
00000330: 7f1e ac3d 55e7 2e3d a2ed 15be afeb c83d
00000340: 9142 4d3e fac6 853e 18bd 463e b3a2 6a3d
00000350: d5cd 223d c974 113e 9e93 d93d 63b0 8c3c
00000360: 4e30 6cbc 49f0 19be e8ff 48bc d409 66bd
00000370: a005 ddbd 9724 ec3c 5a2f 3bbe 082b c0bc
00000380: 0a6b cb3d f1a0 cb3c 35e5 5e3c fdc7 43be
00000390: 9cb2 a7bd 13b5 afbd 7b6a 4d3d c2f1 18be
000003a0: 7f2c 2bbd 0ba4 e23d 0c9e b9bd 3b7d 1b3d
000003b0: e2f4 0ebe a8e1 cf3d 2a39 d5bd 2121 783d
000003c0: b0ce af3d d217 4bbe a43c 11be 9e34 66be
000003d0: 389d ca3b 4ef2 8a3d 3453 01be f9ef 9dbd
000003e0: a061 3bbd 3497 913c 4f6b 893d 5e04 123d
000003f0: 1b73 1fbd 81a3 00be 9e66 3dbc da7a 223e

model.layers.1.temporal.0.bias f4 [32]
-0.3507315 -0.12463109 -0.107495345 -0.2729347 -0.096658 0.20499383 -0.19585146 -0.014467636
-0.20541629 0.00179278 -0.26826698 0.049255386 -0.33736163 -0.16737969 -0.0816123 -0.2212591
-0.03444238 0.07179596 -0.5667351 -0.10628565 -0.04771888 0.12545812 -0.2637368 -0.10679132
-0.04641946 0.077144764 -0.044074904 -0.030358573 -0.42711508 -0.3188426 -0.04482458 -0.017324561
00000000: 1493 b3be 963e ffbd 8526 dcbd 19be 8bbe
00000010: a1f4 c5bd e7e9 513e 498d 48be aa09 6dbc
00000020: a658 52be b7fb ea3a 4a5a 89be 04c0 493d
00000030: aaba acbe 9565 2bbe 5924 a7bd bf91 62be
00000040: 7413 0dbd c309 933d 8d15 11bf 4aac d9bd
00000050: df74 43bd 1878 003e 8308 87be 68b5 dabd
00000060: 5522 3ebd 13fe 9d3d e387 34bd 8bb2 f8bc
00000070: d4ae dabe 563f a3be fb99 37bd 3dec 8dbc
