lightning_logs/version_114/checkpoints/epoch=19-step=5320.ckpt (torch, 679870 bytes, 114 tensors)

model.backbone.conditional_mixing.static_proj.weight f4 [10, 10]
00000000: 83a1 983e f20c 0e3e 0fc5 a9bd cf73 983d
00000010: b6d8 1cbc cda6 88be b86c 85bd 965b dc3c
00000020: 9137 923e 0a13 4c3e 5dee 613d 6c9b b5be
00000030: c50d a9be de63 e13d 3e44 0f3d 524a 40be
00000040: 15c1 f8be dd8d 2c3e 26c8 603e c325 893e
00000050: 4598 5cbc 8168 22bd ebc9 9bbe 68ed ccbd
00000060: ffc5 8c3d ff7c 84bd 43c5 a03d 34de 15bf
00000070: edc1 b3be 5dca 5fbe c11e 0cbf a48c a83e
00000080: 345f 993c ef3f 583d 5be6 4dbe 70df 893e
00000090: f18b c3be 99f8 1c3e a5e7 f83c e0a4 e43d
000000a0: fef5 fb3d b77d 8dbe edfb c4bd 20f7 7cbe
000000b0: 7f80 e83d aad9 0bbe a5d5 713d aff2 2ebd
000000c0: 732e 92bc 2b40 46be c5e4 42be 12e6 503e
000000d0: 9e76 1e3c ee55 ebbe 2c52 af3c 32bb ba3d
000000e0: 1ad2 193d b8d4 4f3d ea8e edbd 1eee 4e3e
000000f0: e520 82be 35f5 643d 9dfc 2d3e 1814 ad3e
00000100: c55a a13e 9418 913e ebe2 ddbb 531b fa3d
00000110: 8317 8bbc 1468 89bd b375 2ebe 148f a5be
00000120: 7102 4d3d 2d60 be3c 56dd b23e 023b 753e
00000130: 7c64 4abe 37b7 3e3e b6f4 f7bd 392d b4bd
00000140: 823c da3d 772d 95be 0186 af3d a246 b63d
00000150: dcba 803e d7cf 32bd e2be 48bd f0d1 edb9
00000160: b257 9a3d f161 c5be 3d9a 20bd 30de 47bc
00000170: cd52 4e3d 671b f63e 8321 f83d 1c7c 28bd
00000180: 733c b33d 81c1 5f3e 2487 973e fa87 f6bd
0.29810724 0.13872126 -0.08289539 0.07443964 -0.009573152 -0.2668976 -0.06514877 0.02689914
0.2855802 0.19929138 0.05515896 -0.3547014 -0.33018318 0.11005376 0.03497719 -0.18778351
-0.4858481 0.16850992 0.2195135 0.26786622 -0.013464038 -0.039650444 -0.3042749 -0.10006219
0.06873702 -0.064691536 0.07850125 -0.5854218 -0.3510889 -0.21854539 -0.54734427 0.329198
0.018722154 0.052795347 -0.20107405 0.26928282 -0.38192704 0.15329207 0.030383894 0.1116426
0.12302779 -0.27634975 -0.096183635 -0.24703646 0.11352634 -0.13657251 0.059041638 -0.04271191
-0.017844414 -0.19360416 -0.19032581 0.20400265 0.009671835 -0.45963997 0.021401487 0.09117736
0.037553884 0.050739974 -0.11599524 0.20208022 -0.25415722 0.05589791 0.16990896 0.33804393
0.31514564 0.28339064 -0.0067714355 0.12212243 -0.016978985 -0.067093045 -0.17037086 -0.32335722
0.050051156 0.02323922 0.3493449 0.23948291 -0.19764894 0.18624578 -0.12107222 -0.08797688
0.10656072 -0.2913625 0.08570481 0.08900191 0.25142562 -0.043655243 -0.049010165 -0.00045360578
0.07536258 -0.38551286 -0.039209593 -0.01219897 0.050371934 0.4806778 0.12115767 -0.041133985
0.08751764 0.2185116 0.29595292 -0.12037654

model.backbone.conditional_mixing.static_proj.bias f4 [10]
00000000: c04d 0cbe 3d1d ce3e 2399 82bd d0ee c4be
00000010: 294b 92bd 1769 1ebd d950 73be 2131 913e
00000020: 16ad db3c 96c6 e1bd
-0.13701534 0.40256682 -0.06376865 -0.3846345 -0.07143242 -0.03867444 -0.2376131 0.28357795
0.026815932 -0.110242054

model.backbone.conditional_mixing.gate_proj.weight f4 [10, 10]
00000000: c23b 90bd 96dc f23e 7b6d 1f3e db02 143e
00000010: 212a 0b3e c478 16be 1c7f 8cbe 2367 a83e
00000020: 5257 f8be 68f8 8a3e fc27 64be 8cea 87be
00000030: eaf8 fe3d 5ae0 0e3f 8cbc 1e3b e9bd 78be
00000040: 3718 973e 58fb d8bd 16b1 afbd f961 3d3e
00000050: d95b 7f3e 94c7 1ebe 6d35 2fbe 7135 cb3d
00000060: c471 c0be 260c dfbe c829 d43e 9976 cebe
00000070: 3f53 04be 9790 053f 12f5 123e f09e ddbd
00000080: c947 5c3d 3411 483e 719f 4b3e e4c6 18be
00000090: b6a1 02bd 29c0 123e c765 73be b020 523d
000000a0: d3e1 613e e43a 1fbe a27f 17bc 12e0 3bbe
000000b0: 9495 533e 3296 5cbd 1c70 90be 7adb cc3d
000000c0: 991c f5bd 153f 843d 14b9 9abd a5d1 24be
000000d0: 78cb db3e 8f38 38be 4f49 62be 316b b6bd
000000e0: 7fe4 843e 46c3 1fbe 9ed1 9e3e ae9c 5cbe
000000f0: 82b1 2e3d e9ab 98bc b6a5 ccbe de3b b9be
00000100: 2aa0 42bd 56da 06bd 1455 1c3e 4608 883e
00000110: 97a3 9cbe c53a d83d b58a dc3c b286 a7be
00000120: 68f1 24be 3281 71be dbcb ad3e cc6d 323d
00000130: 651a 9a3d bd25 563d 9958 8a3d ce08 913c
00000140: 6403 f5bd 8227 debe 55d7 df3e 5f31 dfbd
00000150: 9808 993e c974 77be 25e3 cdbd 8eb7 30bd
00000160: 7bb5 36bc 17f0 a63e c187 1fbe 7f11 84be
00000170: 7a7a 263e f020 dd3d aa0e c43e f11d a53e
00000180: 25c3 ac3d 8665 bf3c 8d1e 35be c167 deba
-0.07042648 0.4743392 0.15569107 0.14454214 0.1359029 -0.14694506 -0.27440727 0.32891187
-0.4850412 0.27142644 -0.22280878 -0.26546133 0.1244982 0.55811083 0.002422127 -0.24291195
0.29510662 -0.10594815 -0.08578698 0.18494405 0.24937381 -0.1550582 -0.17110224 0.099223025
-0.37586796 -0.43563956 0.41438127 -0.40324858 -0.12922381 0.5217375 0.143513 -0.108213305
0.053779397 0.19537812 0.19885041 -0.14919621 -0.0318925 0.14331116 -0.23769294 0.051300704
0.22058801 -0.15549809 -0.009246739 -0.18347195 0.20662528 -0.053854175 -0.28210533 0.10002799
-0.11968345 0.064573444 -0.07554832 -0.16095598 0.42928672 -0.17990325 -0.22098278 -0.08907164
0.2595558 -0.15601835 0.310193 -0.21544144 0.042649753 -0.01863666 -0.39970177 -0.36178488
-0.047516026 -0.032923065 0.1526683 0.26568812 -0.3059356 0.105580844 0.02692161 -0.32719952
-0.16107714 -0.2358444 0.33944592 0.04356174 0.075245656 0.052282084 0.0675518 0.017704394
-0.11963537 -0.43389517 0.43718973 -0.10898089 0.2988937 -0.24165644 -0.1005309 -0.0431438
-0.011151667 0.3260505 -0.1557913 -0.25794598 0.16257659 0.10797298 0.38292438 0.32249406
0.08435658 0.02336384 -0.17687435 -0.0016968177

model.backbone.conditional_mixing.gate_proj.bias f4 [10]
00000000: 959c a03e b498 80be a31d 0dbd 4f1c 773e
00000010: 4f55 20be d71d 023c 9c29 42be 6896 b9bd
00000020: bda9 8ebd 1897 fabe
0.31369463 -0.25116503 -0.034452092 0.24131893 -0.15657543 0.007941685 -0.18961185 -0.09061891
-0.06965969 -0.489434

model.backbone.conditional_mixing.feature_mixing.0.weight f4 [80, 10]
00000000: d103 8bbc 8c01 4e3e 9c4a 3e3e 92ff 0f3e
00000010: 1563 5cbe 951e 98be e3df 2d3d b62a 81bd
00000020: ed17 253e 7a75 723e 0045 fbbd 343d a93e
00000030: 27ed dd3d 72d0 6bbb 6c91 45be 0513 ab3e
00000040: d775 053e ff5f 41be 0a71 1dbc 1c07 053f
00000050: b8ec 28bd 2677 4d3e b26b a13e 6c7a 2f3e
00000060: 4121 7abb c2be ab3e 3100 bbbe aaa7 06be
00000070: 86e7 84be 2117 483c 2863 863d 4455 a53d
00000080: 63e1 61be 3a9b d43d bee6 90be c185 30bd
00000090: 2c66 6abe bec0 01bd 0012 0cbe f56a 23bd
000000a0: 0aaa cf3d a23e bcbe 7398 a5bd bac9 a1be
000000b0: 641c b9be d649 c0be 6014 8d3e 58f7 903b
000000c0: 76e0 4abe 8e57 c93d d195 9cbe 87b3 303e
000000d0: 1784 9d3e 196f aabe 2b4c a5bd d524 dd3d
000000e0: 30ca a53a 25ae 4b3e 7285 4abe c66a 1abd
000000f0: 6f79 a13e 9c6f 363e 2dbd 36be 89f9 6a3d
00000100: 9a93 97bc fad2 24be c08e 553d 2068 5dbe
00000110: a72d 30be 9582 a3bd e1d8 9cbb 0f57 173e
00000120: 5c4b a33d 8a45 9b3e 5517 8abe eec0 353e
00000130: d944 93be 24a7 98be 8218 b7be 64b0 7cbd
00000140: 4adf d3be 71a3 9a3e a710 b6bd 044a 883e
00000150: 7dfa bbbe 17a8 a0be e430 233e b180 da3e
00000160: 2ffa a43d 4a79 fe3d 399f 8d3e 9888 0a3e
00000170: f816 9c3e 37dd 943e e683 5dbe c9e1 c63d
00000180: 851d d9bd 7e52 4fbd 90e4 a4bd 4c22 313e
00000190: 9b5c a7be 60dc 043c 69e0 d7bd 0a8f 74be
000001a0: 167b afbe 11b8 e73d d8a1 523e 1444 83be
000001b0: 9e6a 5f3e 8e62 7dbe dbe1 133e c700 3fbe
000001c0: 5d4a c23d 492c dc3d a0e4 a6bd e0a6 3c3d
000001d0: 805d 86be 45dc 0f3b 11cc 3b3e 03b1 ebbd
000001e0: d381 023e 0f46 7d3d 36c0 e83c c190 183e
000001f0: 5afe 013d d172 9fbe 95c0 18bd 2d2e 2cbd
00000200: 3967 08be feff 21be 547f 423e 7542 973e
00000210: 66d4 25be 0d58 e93d b13b 3dbd 8c57 d73e
00000220: d671 243e cccc 103e 8b05 10be cd22 5e3e
00000230: 625d 91be 1e1b c23e dc90 433e 1d8e b4be
00000240: 9cc0 28be 58e8 89be 7575 cc3c 46a7 05be
00000250: 1d14 623e 30e7 1f3d ee63 bfbc 7123 fe3d
00000260: 5424 0dbe 9e57 80be ff95 46bd edff a1be
00000270: 9adb 7e3e 8bd2 b1bc ee6f ae3e 6eec 083e
00000280: e5e9 fb3d 82c1 fa3d daee b1bd 0ffd 053e
00000290: 92b1 9d3e 3799 ba3c 84ab 7ebe 58e5 4bbe
000002a0: c1b2 e9bd 32a5 63be ef55 71bc 905a 73bd
000002b0: d523 81be 3715 a1be 49d2 bfbe 5704 6abe
000002c0: 5cc0 9d3e f248 d53c 71df db3e 1149 b23d
000002d0: 3e48 5d3d 3b6a 473d 4f1f e43d dcb5 1ebd
000002e0: 6568 833d f943 e83c 032e 9c3e ec53 c73e
000002f0: 5c77 df3d aa37 b93e 3a3a 053e 909c dc3d
00000300: 09e7 d9bc b1d6 8cbe 84a2 2f3e 7da3 80be
00000310: 2d71 a63d 7d94 51be 5158 e9bc 29a4 e1be
00000320: d624 a5bc 2c91 2fbe f99e 8cbe a5ae 68be
00000330: 4b6b cabd 291f b03d 240d 7b3e ef21 e73e
00000340: ae2f 6d3e 3162 8dbe 1f44 51bd cf5e 88be
00000350: fcfd 243e 1dd0 6a3d af77 60be d204 cebd
00000360: ad26 b63e 1c97 3c3e 3405 933e 7354 16bd
00000370: f935 903e 925b a13d e8f3 80bd d8ab 5cbe
00000380: 92b5 4abd 9e0b 9fbe 9b42 29be 7e0b c0bd
00000390: 9fcb f8bc d1b4 c7bd 6f43 2fbe 7244 86bd
000003a0: 43b8 4bbe ea7a 4b3e e2b8 223e b416 0fbe
000003b0: 0ebf 133d 05eb f63d 069a 5bbe 95c1 71bd
000003c0: 49c4 2f3e 97e8 163f ddde 833e d710 5abe
000003d0: eda0 e43d 9537 38be 922f 1f3e bba0 673c
000003e0: 20d5 433e cf4d d2bd 61d6 54be 56ff aebd
000003f0: 0790 22be bf3e 88be 2376 32be 6b5c f3bd
-0.016969593 0.20117778 0.18583149 0.14062336 -0.21522172 -0.29710832 0.042449843 -0.063069746
0.16122408 0.23677626 -0.1226902 0.33054507 0.10836249 -0.0035982397 -0.19293755 0.33412948
0.13033234 -0.18884276 -0.00960947 0.51963973 -0.041241378 0.20064983 0.31527478 0.17136544
-0.0038166794 0.33543974 -0.36523584 -0.13149896 -0.25957888 0.012212546 0.06561881 0.08072904
-0.22058634 0.103811696 -0.28301042 -0.043096308 -0.22890538 -0.031677954 -0.13678741 -0.039896924
0.10139854 -0.36766535 -0.08085718 -0.31599218 -0.36154473 -0.37556332 0.27554607 0.004424017
-0.19812188 0.09831153 -0.3058305 0.17255984 0.3076484 -0.33287886 -0.080711685 0.10798041
0.0012648758 0.1989065 -0.19777468 -0.037699483 0.3153796 0.17816013 -0.17845602 0.05736688
-0.018503 -0.16096106 0.05213809 -0.21621752 -0.17204915 -0.07983891 -0.004786596 0.14779304
0.07973358 0.30326492 -0.26970926 0.17749378 -0.28763464 -0.29815018 -0.35760885 -0.061691657
-0.41381294 0.3020282 -0.08889895 0.2661897 -0.36714545 -0.31378242 0.15936619 0.4267631
0.08055531 0.12425478 0.2766054 0.13528669 0.30486274 0.29075024 -0.21632347 0.09711034
-0.106013335 -0.05061578 -0.08051407 0.1729824 -0.3268784 0.008109182 -0.1054085 -0.2388269
-0.34273595 0.11314405 0.20569551 -0.25637877 0.21818015 -0.24744627 0.14441626 -0.1865264
0.0948684 0.10750634 -0.081490755 0.046057582 -0.2624321 0.002195136 0.18339564 -0.11508372
0.12744837 0.06183439 0.028411966 0.14898969 0.03173671 -0.31142285 -0.037293036 -0.042036224
-0.13320626 -0.1582031 0.18993884 0.2954289 -0.16194305 0.113937475 -0.046199504 0.4205898
0.1605905 0.14140624 -0.14064614 0.21692963 -0.28391558 0.37911314 0.19098228 -0.35264674
-0.16479725 -0.26935077 0.024958352 -0.13052091 0.22077985 0.039038837 -0.02336308 0.12409104
-0.1378339 -0.25066847 -0.04848289 -0.31640568 0.24888459 -0.02170684 0.3406977 0.13371441
0.12300471 0.1224394 -0.086881354 0.13084815 0.30799538 0.022778137 -0.24870116 -0.19911706
-0.11411048 -0.22230986 -0.014729961 -0.05941254 -0.2522265 -0.31461498 -0.37465122 -0.22853218
0.3081082 0.02603576 0.4294391 0.087053426 0.054023974 0.048685294 0.11138784 -0.038747653
0.06416396 0.028352724 0.30503854 0.38931215 0.10911438 0.3617528 0.13010493 0.107720494
-0.026599424 -0.27507547 0.17151839 -0.25124732 0.08127055 -0.204668 -0.028484495 -0.44070557
-0.020159166 -0.17145222 -0.27465037 -0.22722872 -0.09883746 0.08599693 0.24516732 0.45143077
0.2316272 -0.27613977 -0.051090356 -0.26634833 0.16112512 0.05732738 -0.21920656 -0.10059513
0.35576382 0.18417019 0.28714907 -0.03670163 0.28166178 0.07878794 -0.062965214 -0.21549928
-0.049489565 -0.3106355 -0.16529314 -0.09377192 -0.030370532 -0.09751285 -0.17115568 -0.06556024
-0.19894509 0.19871107 0.1589084 -0.13973504 0.036070876 0.12056545 -0.21445474 -0.059022505
0.1716472 0.58948654 0.2575597 -0.21295486 0.11163507 -0.17989953 0.1554549 0.014137442
0.1912427 -0.10268747 -0.20784904 -0.08544795 -0.15875255 -0.2661037 -0.17427878 -0.11882862

model.backbone.conditional_mixing.feature_mixing.0.bias f4 [80]
00000000: c717 84be 75bf 9c3d ec69 2ebe 6f57 7fbe
00000010: a290 73bd 8754 63be b97b 6a3e e249 87bd
00000020: 4e3f 39bd 6b3b a5be 3f71 7cbe bcbb 3bbe
00000030: d47e 323d 4d4c 6ebe f43f 393e 12cd eb3d
00000040: f790 65bd d16a 46be acce dabd 5043 93bd
00000050: d353 82be 9586 a8be aaf6 7e3e 4715 7cbe
00000060: 6c6b 58be 89b1 77be c645 133c 04cd 9fbe
00000070: 293b b8be bb49 db3e 6ba3 95bd 1da6 203e
00000080: 0ba9 e4be c313 cebe 34bd 85be 5687 c73e
00000090: 9875 fe3d 37b5 80be e260 9d3e 5356 f1bd
000000a0: 5310 833e fad4 9cbe 9be3 9dbd 8618 cebe
000000b0: 16c0 a8bc 4d1c 993e b8e7 793e 1dbf 8d3e
000000c0: 25b4 ba3e d6cb 10be e274 c93e 0e0e 57be
000000d0: 1e61 423e 7597 213e 6882 6bbe ff66 4cbe
000000e0: c4ac 90be 97b8 04be 14eb fabd 5398 bf3e
000000f0: 0175 e7bd b35f 763c 9365 9b3e abcb a2be
00000100: f7ba 8dbe 78c9 433e 7571 a53e 7d90 6d3e
00000110: 74bc d73d 6804 1e3e dabf 883e e421 6cbd
00000120: a291 b43e 4d36 2ebe 3503 fbbd 5fb9 ba3e
00000130: 05a9 bfbc 41d1 15be ca24 f23c 04e4 03be
-0.2579939 0.07653705 -0.17032593 -0.24935697 -0.059464104 -0.22200213 0.22898759 -0.06605889
-0.045226388 -0.32271895 -0.24652575 -0.18333334 0.043577984 -0.23271294 0.18090802 0.115137234
-0.056046452 -0.19376685 -0.10683951 -0.07190573 -0.25454578 -0.32915178 0.24898782 -0.24617492
-0.21134728 -0.24188818 0.008988803 -0.31211102 -0.35982636 0.4282969 -0.0730656 0.15688367
-0.4466022 -0.40249452 -0.26120913 0.3897044 0.12424773 -0.25138256 0.30737978 -0.11784043
0.25598392 -0.30631238 -0.07709428 -0.40253085 -0.020599406 0.29904404 0.244048 0.2768487
0.36465564 -0.14140257 0.39346987 -0.21001455 0.1898236 0.15780433 -0.22998965 -0.19961165
-0.2825681 -0.1296104 -0.12251869 0.37420902 -0.113016136 0.015037465 0.30350932 -0.3179601
-0.27681705 0.19119823 0.32313123 0.23199649 0.105339915 0.15431368 0.2670887 -0.057649508
0.3526736 -0.17012902 -0.12256471 0.36469552 -0.023396024 -0.14630605 0.029558558 -0.1287995

model.backbone.conditional_mixing.feature_mixing.2.weight f4 [10, 80]
00000000: cc90 db3d 87ab f4bd 95a9 49bb 5f37 e8bd
00000010: 1af5 e13d 2a6b 883e e6fd eabd 9e69 74bc
00000020: 213e 893c 5de3 393d d5e3 633e 9cc3 8abc
00000030: eca2 89bd 7e8a 983e 5b29 0bbd 3b4a 2d3c
00000040: 498d 14be 2ad0 633d 025b 9e3d ff74 86bd
00000050: 2639 b2bd b9e2 2c3e aee7 093c ad74 0d3e
00000060: a591 0fbe aea0 ee3d 88fd 7a3d 31ba 573e
00000070: 0dae 2fbd 517e 58bd 7f2d 2a3d 44b2 883d
00000080: db7f 4d3e 0570 403d abb0 f83c 1028 5bbe
00000090: 16e8 d4bd 94cf 433e e484 44be ba6b 92bb
000000a0: 5746 55be bd9a 5f3e 68c1 b4bc 799e 32be
000000b0: 5dc8 573e d3a3 8dbc cc7e 60be 3273 39bd
000000c0: b0fa 96bd d63b 363e b012 63be f353 e2bd
000000d0: 3672 003d 968a 6abd 8668 323e 6e8c 403d
000000e0: 5a64 0fbe 9cf0 e53a ee74 a73d d8dd 61be
000000f0: 19fb fa3d 9d54 2abc 960c 78be 847c 8abd
00000100: 32d5 aa3d f510 e4bd c26a 8d3c 121c 94bd
00000110: 71ff 12be 81c8 93be 7e98 d93c 5811 5bbd
00000120: 3241 48be 9350 87ba 41eb 3fbe 6e60 22be
00000130: 9fc9 253e e629 0b3e f952 1abd 2c6b 903d
00000140: 8d13 adbd 3d16 263e 9994 00be 6b74 46bd
00000150: a109 0abc 6da5 c73c ab3b 2dbd ab10 9abd
00000160: 55e3 f03c afec d5bd e157 7b3d b0b5 52be
00000170: 0780 c7bd f9a6 1e3d 0ed8 1fbd 0fb2 de3d
00000180: 1844 503d b571 fcbd e0cc f13b 718e 45bc
00000190: 2102 6d3e c99a afbb 3c9c e43d 4833 00bd
000001a0: f3f9 45be 2bc6 36bd 0ca0 653d 1f11 dbbd
000001b0: 1f9e 0cbd 5f4b 49bb 2b55 f9ba 9360 92bd
000001c0: 351e 7e3e 9d21 a6bd 231a be3d ff25 ae3d
000001d0: 347e 1b3d be36 47bd 0638 e3bd d830 963d
000001e0: f668 b1bc f46c dcbd dec6 983d b928 fe3b
000001f0: 5f6c dcbd 2f47 47bd 7115 3a3e a8da 34bd
00000200: c9cd 983d d8bc ef3d a09b f8bc b56f 003e
00000210: 0fea 34bd 39b3 e13d 8ab5 233e e6d2 adbd
00000220: 513f f1bc f006 813d 0e78 bf3d b638 1d3e
00000230: d21c 953d ae46 82bc 89e1 843d c508 083d
00000240: 8579 58bb da92 583e d014 ddbd 0e5e 94bd
00000250: 39f3 343e 514c d5bd a4f3 ad3c f832 86bd
00000260: ad02 093d 51c5 1abd 9665 13bd 011f bc3d
00000270: 27f3 0fbe 4406 f7bd 6379 563d 3e7f b93d
00000280: 7a89 d93d 3373 10be 6668 02be 81df 27be
00000290: 6c10 833d 347a c2bb 8b2c b93d c072 efbd
000002a0: 493a 25bd d25b 62bd 1cd7 693d 1e33 34bc
000002b0: c0bc b03d b376 fd3c 7f2f 2c3e c1c3 37bd
000002c0: 3f12 13be d837 8d3c 42b4 9b3a 2a07 8c3d
000002d0: d396 083e 2c2b fb3d aafc bf3c 47a7 323b
000002e0: ccf4 fbbd 71c7 913e 581f 02bc ff34 90bd
000002f0: 2329 553d 5cc1 713c eb33 8f3b 295e fa3c
00000300: 0f54 bc3c 7486 483d 3143 0abe 88d9 e2bd
00000310: e015 04be bb2b 193e 9a33 86bd 23db 8539
00000320: a1af 0e3e cec5 873d 8ade 5b3e eca2 f33c
00000330: 63dc 03bd d187 0a3e 5725 b6bd 0683 573d
00000340: 4f35 4c3e 03d5 303e 6a42 03bd fe48 febd
00000350: 33af abbd 9d7f 52bd efab 64be 0a20 ddbb
00000360: 19b3 843d bc2e 243d 915b 3b3e 101e 903e
00000370: 4296 2b3e f8d0 e9bc 9290 2f3d 31c5 ba3d
00000380: 4643 87bc af0d 383e 3a00 b1bd d0af 4b3d
00000390: a07a 1f3e 8121 7dbe 9378 b03d 7bfd 90bd
000003a0: 860d 77b9 984f 91bc c0a9 a83d 3ae3 69bd
000003b0: 1a54 9c3d f03b 833d 49a8 06be ea31 84bd
000003c0: c0a3 e3bc d76c de3d 8b80 a0bc f342 f7bc
000003d0: ba81 2a3d f7d0 133e f004 0cbe 3c53 b6bd
000003e0: b2ef acbd 85b3 b0bd e088 6f3d 9915 36bd
000003f0: 8e74 bebd f12d 9ebd 2f51 273e ac1b 913c
0.10720977 -0.11946779 -0.0030771245 -0.11338686 0.110330775 0.2664426 -0.114742085 -0.014917759
0.016753258 0.045382846 0.2225488 -0.016938977 -0.06720528 0.2979316 -0.033974987 0.01057678
-0.14507021 0.055618443 0.07732202 -0.06565284 -0.087023064 0.16883363 0.008417053 0.1381404
-0.14020403 0.11651741 0.061276942 0.2106712 -0.042890597 -0.05285484 0.041547295 0.066746265
0.20068304 0.04698183 0.03035768 -0.21402001 -0.103958294 0.19122154 -0.19191319 -0.0044684084
-0.20827614 0.21836372 -0.02206488 -0.17443265 0.21072526 -0.017290032 -0.21923369 -0.045275874
-0.073720336 0.17796263 -0.22175097 -0.11051168 0.03135892 -0.057261072 0.17422685 0.047008924
-0.14003125 0.0017543021 0.081765994 -0.22057283 0.12254924 -0.01039615 -0.24223551 -0.06762031
0.08341445 -0.11136047 0.01726282 -0.072319165 -0.14355256 -0.2886391 0.026561972 -0.053483337
-0.1955612 -0.0010323696 -0.18742086 -0.15857098 0.16190194 0.13590202 -0.037676785 0.070516914
-0.08450995 0.1621942 -0.12556686 -0.04845087 -0.008425147 0.024370873 -0.042293232 -0.075227104
0.029405275 -0.104455344 0.061363105 -0.20577121 -0.09741216 0.038733456 -0.039024405 0.10873806
0.05084619 -0.123263754 0.0073791593 -0.012057886 0.23145343 -0.005359028 0.11162612 -0.031298906
-0.1933363 -0.04462258 0.056060836 -0.10696625 -0.034330484 -0.003071509 -0.0019022574 -0.07147326
0.2481621 -0.0811188 0.09282329 0.08503341 0.037962154 -0.04863619 -0.1109467 0.07333535
-0.021656495 -0.10762969 0.07459806 0.0077563194 -0.10762858 -0.04865187 0.18172242 -0.04415384
0.074611254 0.11705941 -0.030347645 0.12542613 -0.04416853 0.11020512 0.1598722 -0.08487491
-0.029449137 0.06300151 0.093490705 0.15353665 0.07280888 -0.015902843 0.0648833 0.03321149
-0.0033031416 0.2114977 -0.10794985 -0.07244502 0.17670907 -0.10414947 0.021234341 -0.0655269
0.033449817 -0.03778583 -0.03598555 0.09185601 -0.14057599 -0.12061742 0.052361857 0.09057473
0.10621925 -0.14106445 -0.12735137 -0.16393854 0.063996166 -0.005934978 0.09041699 -0.11691809
-0.04033879 -0.055263348 0.05708991 -0.010998515 0.08629751 0.03094039 0.16814993 -0.04486442
-0.14362429 0.017238542 0.0011879283 0.06837304 0.13338785 0.12264094 0.02343591 0.002726035
-0.12302551 0.28472474 -0.007942043 -0.07041358 0.052041184 0.014755573 0.004370203 0.030562477
0.022989301 0.04895635 -0.13502194 -0.11076647 -0.1289897 0.14958088 -0.06552811 0.00025531006
0.13934185 0.06629525 0.2147161 0.029740773 -0.0321926 0.13528372 -0.08893841 0.052615188
0.1994221 0.17268758 -0.03204576 -0.12416266 -0.08383026 -0.051391233 -0.22331212 -0.006748204
0.06479473 0.040083632 0.18296649 0.28147936 0.16756538 -0.028542027 0.042862482 0.091196425
-0.01651157 0.1797397 -0.08642621 0.049728215 0.15574121 -0.24719812 0.08616748 -0.070795976
-0.00023560793 -0.017738149 0.08235502 -0.057101466 0.076332286 0.064079165 -0.13150133 -0.06454833
-0.027788043 0.10860603 -0.019592544 -0.030183291 0.041627623 0.14435183 -0.13673759 -0.089025944
-0.08444156 -0.08627991 0.058480144 -0.04445419 -0.09299575 -0.077236064 0.16339563 0.01771339

model.backbone.conditional_mixing.feature_mixing.2.bias f4 [10]
00000000: ee3e 2dbe ec28 0b3d fc2a b6bd 93ff f0bd
00000010: 142a a2bd 236f 3fbd 0384 ecbc 2998 ec3d
00000020: 3e6f 2d3d f949 943d
-0.16918537 0.033974573 -0.08894917 -0.11767497 -0.07918182 -0.046736848 -0.028871542 0.1155246
0.042342417 0.07240672

model.backbone.conditional_mixing.norm.weight f4 [10]
00000000: 730b 503f 78d6 593f 0337 3c3f 9a46 173f
00000010: 90da 873f 0568 6d3f bc3b 6a3f 9222 773f
00000020: 98dd 833f dc61 823f
0.8126747 0.8509288 0.7352144 0.59092104 1.0613575 0.92736846 0.914974 0.96537125
1.0302 1.0186114

model.backbone.conditional_mixing.norm.bias f4 [10]
00000000: d4d8 753e 5f82 04bb fbce 39bd 41c3 abbd
00000010: 20cb 0b3c 2f11 42b9 fcab 2ebd cec1 1cbc
00000020: eb19 68bb 235a bebd
0.24008495 -0.0020219309 -0.045363408 -0.08386851 0.0085323155 -0.00018507683 -0.042644486 -0.009567691
-0.003541584 -0.09294536

model.backbone.layers.0.temporal.mixing.0.weight f4 [80, 41]
00000000: 0388 743d e8d4 f3bd e145 1abe b291 c33c
00000010: c334 3dbe c304 b8bd 957f 94bd 60d1 dfbd
00000020: 4ed1 19be 51d8 bb3d 7f82 1cbe 99a9 c73b
00000030: ed80 3d3d 5621 b5bc 0fc8 9c3d 056d 4c3a
00000040: eb9a 453d ab91 b6bd 4cb9 033e 95fe ab3d
00000050: 23b6 4dbd b8a8 c63c b2db 0f3e f286 cf3d
00000060: 3f52 8ebd 38fa 733c 20e0 ecbd 91af 91bd
00000070: f717 a63d d7b3 0c3e c4ec 8ebc 2962 57bd
00000080: b914 2b3e 4e84 d1bd 578d ff3c a6a7 953d
00000090: 123d f23d 27b2 2bbd c343 acbd 77c2 8dbd
000000a0: 63ea 2a3d c772 f4bd 08e2 16bd 91d3 15be
000000b0: 66ee 003c 9528 4bbe c551 1dbd bfc1 0d3e
000000c0: 7f5a b03d b717 1ebe 6351 e23d fed9 bbbc
000000d0: 9668 9abd 4234 b63d dd24 64bd 2903 6abd
000000e0: f720 103d bb54 273d 76ea 1bbd 454f 1fbe
000000f0: 68a9 bdbb 38a4 163e 9aad 4c3e bd82 3f3e
00000100: 6e59 f23d 9536 f23d 482a 4bbd 54f2 24be
00000110: 7890 bb3c 7460 0e3d 008b adbd bfad 063d
00000120: 8e81 14bd 8f4e b13d 450d 8c3c 56f6 8cbd
00000130: 9d0d 0bbe 3642 27be c3e0 83bc ad65 5ebe
00000140: 5a56 43bd 15bc 333d 0fe9 0d3e 203b 85bc
00000150: 625a a13b 0c6b d1bc 1902 563c 2040 9ebb
00000160: a593 bcbd 9007 00bd 6551 4b3d 32c3 093e
00000170: ea64 abbd e008 21bd 6887 a1bd b2e2 e23d
00000180: 8ac5 f0bd 6a94 ddbd f78b a13d 34cd 1e3e
00000190: ab72 0a3d dce6 2bbe 163b aebc 309d ed3c
000001a0: a6db d63d 412f 3bbd 6cd0 5d3d 2b47 c53b
000001b0: e202 ebbd 8728 c53d a8a3 d3bd b91a 23bd
000001c0: dec9 70bc a99b 06be 4b57 b13d 7eee c33d
000001d0: 2db4 28be 52d3 483d 6f5d e53d 8566 febd
000001e0: 464d 9ebd be54 42bd 554f c03e 2503 edba
000001f0: 6be1 de3d 7f9f eabd 0cf2 ecbd 3a56 d53d
00000200: dd91 9e3d 6fd1 45bd ae4d b2bd ce86 e7bd
00000210: 24b9 5dbd fdb5 0dbe 53d1 dd3d 0118 863b
00000220: 8dd7 963c e77f e03d 97fd e53c 5c99 81bc
00000230: cfe6 1f3d 2d40 0fbd 8a03 46bc 8564 e8bd
00000240: 28f2 493c d282 123e 1d8c 1d3e 339f b93d
00000250: 83e4 dcbd 1946 a83d f60f 09be f025 033e
00000260: ecdd 0fbe 899e 593d 9db8 4d3c b773 c33b
00000270: 4bda c0bc b974 d7bd 59ad ff3d 24b3 b1bd
00000280: 57ab 3a3e 3ecd bdbd 6ba1 dc3d 75b6 d13e
00000290: 074e f43d 90c0 cabd 9e45 6abd e663 49bd
000002a0: 0683 2c3b d6fe adbd f012 c2bd bb64 06be
000002b0: 63a9 b33c 9672 20bd d244 3f3d c0f1 83bd
000002c0: b5d8 2b3c 8abe 80bd c89d 23bb 5541 98bd
000002d0: 442b e3bd 44ce e33a d170 ae3d e542 8dbd
000002e0: d3d0 2d3d a784 013e 20d4 a8bc 4534 a5bd
000002f0: 8bd4 93bd a3bc a23d f27d 54bd 708e f7bd
00000300: 2e5e 513d a5af ccbd c04f b33d 6d32 60bd
00000310: f954 bcbd e03d 0bbd 7722 b93d 3cab bb3d
00000320: e99c f1bd a423 12be e6cc ef3d 88a1 1a3d
00000330: ff4b cc3d eaab b3bd 95e9 953d f5cf 403c
00000340: 343e fdbd 7c31 3ebd 74e4 a93d 1c7e 123e
00000350: 5604 1c3e 172b 2c3d e4f8 6b3c 2cba adbd
00000360: 7291 1c3e c5b3 373e 1231 fc3d ebe9 1a3d
00000370: 41a3 16bc f398 acbd ed09 c13c e441 093e
00000380: 01cb 8cbd bffb 1d3c dc5e e63d eee8 8abb
00000390: a858 ecbd 69cc 9e3d 785a 30bd 6c76 3f3d
000003a0: 6282 2cbb a03c d73d 0cba 2bbc fb72 1fbc
000003b0: f7cd 09be 4254 88bd c0e9 11bd 8b2d 973c
000003c0: cab9 2dbe 1b2f 19be 74f6 23be da68 133d
000003d0: 97bb 5abe d7db 6dbd 192b 833d 4c17 f73d
000003e0: 3076 9bbd 11db 75bc acf0 1ebc fb1d 643d
000003f0: 429e 08bc 3330 d93c 7250 97bd 16c0 1f3d
0.059700023 -0.11905843 -0.15065719 0.023873184 -0.18477158 -0.08985283 -0.07250897 -0.10928607
-0.1502125 0.091721185 -0.15284155 0.0060932157 0.04626553 -0.022110622 0.07655346 0.00077982276
0.048243444 -0.08914503 0.12863654 0.08398167 -0.050222527 0.024250373 0.14048651 0.10133161
-0.06949281 0.0148912 -0.11566186 -0.07113565 0.0811004 0.13740478 -0.017446883 -0.052583847
0.16707124 -0.10230313 0.031195326 0.07307367 0.118280545 -0.041917946 -0.08411362 -0.06921857
0.041727435 -0.119359545 -0.036836654 -0.14631487 0.007869339 -0.198397 -0.03840806 0.1384344
0.08611011 -0.15438734 0.110506795 -0.022931095 -0.075394794 0.08896686 -0.055699218 -0.05713192
0.035187688 0.04085229 -0.038065396 -0.15557583 -0.005788017 0.14711082 0.19988099 0.18702216
0.118334636 0.11826817 -0.04960087 -0.16108066 0.022896037 0.034759954 -0.08473778 0.03288054
-0.036256365 0.08657562 0.017096171 -0.06882922 -0.13579412 -0.16333851 -0.016098386 -0.21718474
-0.047689773 0.04388054 0.13858436 -0.016263545 0.0049241045 -0.02556374 0.013062024 -0.0048294216
-0.092078485 -0.031257212 0.04963817 0.13453367 -0.08368857 -0.039315104 -0.07887155 0.11078395
-0.117564276 -0.10819323 0.07888024 0.15507966 0.033800762 -0.16787285 -0.021268409 0.029005617
0.10491113 -0.04569936 0.054153845 0.006020447 -0.11475159 0.096268706 -0.10333949 -0.039820407
-0.014696566 -0.13145317 0.08659228 0.09566973 -0.16474982 0.049029656 0.11199462 -0.12421898
-0.077295825 -0.047444098 0.37560526 -0.0018082602 0.10882839 -0.11456203 -0.11569604 0.10416837
0.07742665 -0.048295435 -0.087062225 -0.11305009 -0.054131642 -0.13838954 0.10830941 0.004092217
0.01841333 0.109618954 0.028075023 -0.015820198 0.039038476 -0.034973312 -0.012085805 -0.113472976
0.012325801 0.14307716 0.1538548 0.09063568 -0.10785773 0.08216495 -0.13384995 0.12807441
-0.140495 0.053129707 0.012556222 0.005964722 -0.02354159 -0.1052031 0.12484235 -0.086767465
0.18229423 -0.092676625 0.107729755 0.40959516 0.11928945 -0.0990001 -0.0571953 -0.049167536
0.0026323213 -0.08495872 -0.09476268 -0.13124363 0.021931356 -0.039171778 0.04669649 -0.064425945
0.010488679 -0.062863424 -0.002496587 -0.07434336 -0.11092237 0.0017380198 0.08517612 -0.06897525
0.04243548 0.12648259 -0.020608962 -0.0806661 -0.07218274 0.07946136 -0.051877923 -0.12087715
0.051115207 -0.09994439 0.087554455 -0.05473559 -0.09195895 -0.033994555 0.09039777 0.0916352
-0.11797506 -0.14271408 0.11709003 0.037751704 0.099754326 -0.087730244 0.07319943 0.011768331
-0.1236538 -0.04643391 0.08295527 0.1430592 0.15236029 0.04203328 0.014402602 -0.08482775
0.15289858 0.1793967 0.12314047 0.037820738 -0.009194196 -0.0842761 0.023564303 0.13404042
-0.068746574 0.0096425405 0.11248562 -0.004239193 -0.11540347 0.07753832 -0.043055028 0.046743795
-0.0026322831 0.1050961 -0.010481369 -0.009732003 -0.13457476 -0.06656696 -0.035623312 0.018454334
-0.16965404 -0.14959376 -0.16011983 0.035988666 -0.21360622 -0.058070984 0.064047046 0.120649904
-0.07590902 -0.015005843 -0.009700935 0.055692654 -0.008338513 0.026512241 -0.073883906 0.039001547

model.backbone.layers.0.temporal.mixing.0.bias f4 [80]
00000000: dd83 29be 05fe 9cbd 4c43 293e 186a 033e
00000010: 1aff d23d 8a8c 80be 33c6 2f3e 99fa 203e
00000020: ff10 393d 9df3 923d 859f 3e3e d22f 2f3e
00000030: e585 30be 866b a6bd 230d a4bd f24a 463d
00000040: 1a74 1abe 9c3d 93bd e382 25bd 78b3 21be
00000050: ee71 0cbe 14a3 43be 2f03 1b3e 8ae3 fcbd
00000060: a170 f9bd b929 84be c1ab dfbd 7b93 493e
00000070: 4c30 0d3e d899 323e d0c1 42bd 2bcf cd3d
00000080: cafe 0c3e 8c81 78be 9d4a 35be dc9a 763d
00000090: ebbc be3d c046 48be ffb4 9cbd 59c8 afbb
000000a0: 0334 143a 9989 62be 1d3c 923d 66a6 a43d
000000b0: 6143 6fbe a336 193e ba8c 1ebd 0a09 353e
000000c0: 0e8b d9bd c055 483c bf34 523e 6deb 28bd
000000d0: 501e 6b3e 9323 3d3e 58e7 ba3d a616 483d
000000e0: 66d5 3f3d 5dd3 8fbe b0ea 313e ec74 31bc
000000f0: dd35 5b3e d09f 97be 8fc8 003e 17cf e93d
00000100: 0a2c 933b 6b04 46be 772a b5bd dd79 223e
00000110: 9e5a 593e 93b3 323e 7694 403d c33d c63d
00000120: 33f1 36bd 5e04 2f3e 84b9 da3d 7917 3fbe
00000130: 9080 8dbe 9962 60be c303 7ebe 6905 133e
-0.16554208 -0.07665638 0.16529578 0.1283344 0.10302563 -0.25107223 0.17165451 0.15720595
0.045182224 0.07175372 0.1861554 0.17108086 -0.17238577 -0.08125977 -0.08010318 0.048411317
-0.15083352 -0.071894854 -0.040408026 -0.15791118 -0.13715336 -0.19105178 0.15137933 -0.12348087
-0.121796854 -0.25813082 -0.10921431 0.19685166 0.13787955 0.17441499 -0.047548115 0.1004928
0.1376907 -0.24268168 -0.17704244 0.06020628 0.09313377 -0.19558239 -0.0765171 -0.0053644595
0.00056535023 -0.22122802 0.07140372 0.080395505 -0.23365547 0.14962249 -0.038708426 0.1767923
-0.10622226 0.012227476 0.20527934 -0.041240145 0.22960782 0.18470602 0.091261566 0.048849724
0.046834372 -0.28090945 0.17374682 -0.010831099 0.21407266 -0.29614115 0.12576507 0.114164524
0.004491334 -0.19337623 -0.0884599 0.158668 0.21225974 0.17451315 0.047016583 0.09679749
-0.04466362 0.1709151 0.106799155 -0.18661298 -0.27637148 -0.21912612 -0.24806122 0.14357533

model.backbone.layers.0.temporal.mixing.2.weight f4 [41, 80]
00000000: 1698 983c d27f 0a3e f161 e3bd a940 a43d
00000010: 7f16 b1bd 4627 e03d e105 7abd 12c1 333d
00000020: ec0f 153e bef4 66bd c66a d3bd b91d cf3c
00000030: 72c2 a13d 0fe0 283d c85e bd3d fa2f 993d
00000040: a387 ed3d ac6e 1d3e 34ef e93c 95e1 cd3d
00000050: 0db8 143e f0c0 b6bc a29d 493d 52be 753d
00000060: c787 b43c aa24 a7be bbd1 033e bb39 e63d
00000070: 4b8d 033d 715e 61bd 4a28 3dbc f66d 9e3d
00000080: c8af 58bc 6d2a 653c d377 583d 82da db3d
00000090: 6256 243b 421f 583d 3970 43bd 8e9c a83c
000000a0: 4ec3 063e c2a8 533d 20a1 063e 11b3 45bd
000000b0: 2b1a 483c 8149 2bbd 17e1 2ebd 2cae c3bd
000000c0: 36f1 983d 1e31 1f3e 5dfd 01bd 147c 52bb
000000d0: 2936 04bb 7967 203d f3d5 5abd c2c6 eebc
000000e0: e2c0 74bd 83c1 a63d d0a7 38bd 3abd e63d
000000f0: be6c 7dbd 6a9f 7abd 44c9 ecbd fe2d a1bd
00000100: 8739 8c3d 9f39 d4bc 48c5 203e ca43 8e3d
00000110: 73d6 2bbc 9ad2 53bd 7d28 43bd 047f c1ba
00000120: 0ea9 54bd 3280 87bb 1351 c4bc 8e5e b1bc
00000130: 2403 043e 96ef a0bc b030 303e a112 563d
00000140: 5f5e 453d c4e9 8b3d da89 4bbd 91c3 29be
00000150: 2791 993c 83da 03be 4c91 23bd 75b7 be3d
00000160: 9bf1 043e d7d9 01bb d482 833d f0c0 a7bd
00000170: 27b0 98bd 3b90 ac3d 7439 c1bd d2c2 fcbd
00000180: ffcf eebd 4208 c63d fc3b 3d3e 876a 783c
00000190: e24d e83d 1a10 82bd cfef 4b3d 8e8e dfbd
000001a0: b683 0ebe 12f1 9d3d 8c69 d6bd dc08 3f3e
000001b0: 0d02 a63d 4cdd d53d 117c 69bc 2107 1dbd
000001c0: cd39 6a3d a791 81bd 7285 73bc 7c88 b3bd
000001d0: f476 e23c 952c 793d 0650 873d 11f2 63bd
000001e0: 3f26 b2bd 4463 12bd e717 2d3c 425f a33d
000001f0: f755 2ebd 9bc8 013e ffb1 33be 9ad3 ed3d
00000200: 0b07 303d 4eb4 9a3c 77d1 0abd 74de cabd
00000210: 4fb3 8fbd 6ef7 933c ac2d 063d 2403 123e
00000220: d044 49be e195 2d3e 6ea5 5a3d 1276 0cbd
00000230: 9a42 dabd 768e 6a3d c4cf 4d3c 90a6 69bd
00000240: 32fe 1cbe dd23 1b3e c6dd 8d3d 9135 e4bc
00000250: 89ac 2c3d 3da4 943d 79eb 053e 6546 e53d
00000260: 74a7 62bd 74b4 88bd 9f7a 023d b13e 34be
00000270: ef0e e73d aa7c 39be 234d 64bc 9e78 d2bd
00000280: 51dd 833d bd80 f63c 18bf 47be 1e12 03bd
00000290: 3750 393d 1be7 0b3d 65f3 c33d fa60 b4bd
000002a0: bb8d 093e 1876 d5bd 8b40 9dbd fe7c 8dbd
000002b0: efe8 ec3d a106 2abd 9ed9 b6bc e17e cd3d
000002c0: 612d c1bc 7554 133e b658 553e de90 913d
000002d0: 4cb9 80bc ad06 08be 4850 af3d 722e 083e
000002e0: 0543 833c 9f21 4dbe 57ef 0c3b 8afa 5b3d
000002f0: 205b 773d 6410 80bd 5fe0 63bd 2045 18bd
00000300: cc11 2c3e 5da0 4a3e c653 e1bc 0d53 933d
00000310: efa9 f8bb 418b ce3d e3a6 52be 958f 90bc
00000320: e31f 0ebd e39c 643e 158b 043d ddb9 2bbd
00000330: 268d 28be 8237 76bd 80f0 a13d ed6b e9bd
00000340: 3ebd 3b3d fc79 823d a6d7 30be 78c9 7c3e
00000350: a762 b23c 8598 f73d b045 6abe 01d7 f03c
00000360: f6eb db3d e1eb 9ebd 3e02 36be e9f0 a53c
00000370: e28c 2f3d 7252 16be ba90 9ebd d850 f33c
00000380: 7b48 983d 06ac cdb9 b793 5d3d f90a 55bd
00000390: e41d 77bb 884b b53d f5e3 20be de89 ae3d
000003a0: c067 25bc 72c3 98bd 56e2 033e 844c 483e
000003b0: e8ee 25be a0ee 513e 3e61 ba3d de31 d03d
000003c0: 6808 993d ac85 8ebd 32df 303d 1b08 013c
000003d0: 65ce 00bd fd5c d53d d0c8 1b3d ff2e 043e
000003e0: 35d3 d73d da20 8bba bc78 efbd d65b 14be
000003f0: 8eea 1b3c 4974 9e3c 5f79 eb3d 1b29 95bd
0.018627208 0.13525322 -0.11102665 0.080201454 -0.08646869 0.10944991 -0.061040763 0.043885298
0.14556855 -0.056385748 -0.103231 0.025282728 0.078984156 0.041229304 0.09246594 0.07479854
0.11598136 0.15374249 0.028556444 0.10052792 0.14523335 -0.022308797 0.049222596 0.059995957
0.0220374 -0.3264516 0.12872975 0.1124148 0.03211717 -0.055021707 -0.01154525 0.07735817
-0.013225503 0.013987166 0.05284865 0.107350364 0.0025075902 0.052764185 -0.047714446 0.020582464
0.1316044 0.051674612 0.13147402 -0.048266474 0.01221327 -0.041818146 -0.04269513 -0.09554705
0.07467882 0.1554608 -0.031735767 -0.0032117413 -0.0020173884 0.03916118 -0.053426694 -0.02914751
-0.05975426 0.08142378 -0.045081913 0.11266561 -0.061871283 -0.061187185 -0.11561826 -0.078701004
0.0684691 -0.025906382 0.15700257 0.069465235 -0.01048814 -0.051714517 -0.047646035 -0.0014762585
-0.051919036 -0.004135155 -0.02396444 -0.021651533 0.12891823 -0.019645493 0.17206073 0.05226386
0.048185702 0.06831697 -0.049692012 -0.16578509 0.018745972 -0.12876324 -0.039933488 0.093123354
0.1298279 -0.001981368 0.06421438 -0.08191097 -0.074554734 0.08425947 -0.094347864 -0.123418465
-0.11660766 0.09669544 0.18479913 0.015162117 0.1134298 -0.063507274 0.049789246 -0.10915862
-0.13917431 0.07711996 -0.1046935 0.18655723 0.0810586 0.104426 -0.014250771 -0.038336877
0.05718403 -0.06326609 -0.014863359 -0.08766267 0.027644612 0.060833532 0.0660706 -0.055650774
-0.08698701 -0.0357392 0.010564781 0.07977153 -0.04256245 0.12674181 -0.17548369 0.116126254
0.042975467 0.018884804 -0.033891167 -0.09905711 -0.07016622 0.01806232 0.0327584 0.1425901
-0.19655156 0.16951706 0.053380422 -0.034292288 -0.106572345 0.057264768 0.012561742 -0.057043612
-0.15331343 0.151504 0.069270656 -0.027857574 0.04215673 0.072578885 0.13078107 0.11195067
-0.055335477 -0.06675044 0.03185522 -0.1760204 0.11282145 -0.18113962 -0.013934406 -0.10276912
0.06438697 0.030090684 -0.1950649 -0.0319997 0.045242514 0.034155946 0.09567908 -0.08807559
0.13432972 -0.10422915 -0.07678326 -0.06908606 0.11567866 -0.041510228 -0.022320565 0.10033966
-0.023581209 0.14387687 0.20834622 0.07107709 -0.015713356 -0.13283797 0.08560234 0.13298967
0.016023168 -0.20032357 0.0021504962 0.05370573 0.060389638 -0.06253126 -0.0556339 -0.037175298
0.16803664 0.19787736 -0.027505767 0.07193575 -0.007588617 0.10085154 -0.20571475 -0.01764659
-0.03469838 0.22325473 0.0323592 -0.0419253 -0.16460094 -0.06011153 0.079072 -0.11397538
0.045834772 0.06370923 -0.17269763 0.24686229 0.021775557 0.12089638 -0.22878146 0.029399397
0.10738365 -0.07759834 -0.17774293 0.020256476 0.042858966 -0.14679888 -0.07742448 0.029701635
0.074356996 -0.00039228814 0.05409595 -0.052012417 -0.0037707025 0.08852297 -0.15711959 0.0852239
-0.010095537 -0.07459153 0.12879309 0.19560438 -0.16204417 0.20501184 0.09100579 0.101657614
0.074723065 -0.0695909 0.043181606 0.007875468 -0.031446833 0.10418127 0.038033307 0.12908553
0.105383314 -0.0010614649 -0.1169295 -0.14488158 0.009516371 0.019342558 0.11497759 -0.07283231

model.backbone.layers.0.temporal.mixing.2.bias f4 [41]
00000000: 0d85 f6bd 8185 133d 44b4 90bd f2cc 16be
00000010: 2359 593b 8d69 613d 720f 383e d8f2 f8bd
00000020: fb28 13bd 75ef 263c ede3 c1bd cd3d bdbd
00000030: 537c f63d 9c6e 1ebe 414d 983c 099b abbd
00000040: 34db 8d3c 15fe 03be 4533 733d 87e3 2c3e
00000050: 41f8 96bd 1e26 a43d 0dc0 783d d42c eb3d
00000060: 5e64 e23d 544f 8cbd 90a2 753c 1afe 18bd
00000070: ed7d 213d 4352 16be f1c9 0e39 0640 2c3d
00000080: 25ac d4bd 0e0d 253d 0032 d43d 7bf1 ba3c
00000090: b69d 2fbd 3597 d1bc cd59 933d e677 7d3d
000000a0: 2249 1f3d
-0.12037096 0.03601599 -0.07065633 -0.14726618 0.0033164702 0.0550323 0.17974642 -0.12155694
-0.035927754 0.010188927 -0.094673015 -0.09240303 0.12035432 -0.15471882 0.018591525 -0.0837918
0.017316438 -0.12889893 0.059375066 0.1688367 -0.073715694 0.08015083 0.06073003 0.1148316
0.110543 -0.06851068 0.014992371 -0.037351705 0.039426733 -0.14679818 0.00013617404 0.042053245
-0.103843965 0.040295653 0.10361099 0.022820225 -0.042875014 -0.025584796 0.071948625 0.061881922
0.038888104

model.backbone.layers.0.temporal.norm.weight f4 [41]
00000000: 0dc0 7b3f c10e 903f 2d89 673f f1a0 813f
00000010: 6a00 753f 5643 7e3f c0d2 7f3f 462a 803f
00000020: 64c4 733f 6a47 713f 6d45 823f 0d6c 7a3f
00000030: 55ad 6f3f 5d8e 4c3f 9a95 773f 92f3 7e3f
00000040: 4964 7e3f 607e 5d3f ec13 803f 9432 803f
00000050: c95f 6a3f 34fb 6e3f 03a9 633f e754 823f
00000060: f69c 683f 895e 803f fadf 5f3f 13ac 833f
00000070: 527b 833f 44db 843f 814c 833f 8755 753f
00000080: 33cd 863f bdeb 7d3f f486 813f 1550 843f
00000090: 4bb0 753f 5616 753f 2267 783f a029 833f
000000a0: b80c 8c3f
0.9833992 1.1254503 0.9044369 1.012724 0.95703757 0.99321496 0.99930954 1.0012901
0.95221543 0.94249594 1.0177437 0.9782112 0.9362386 0.7990473 0.9671265 0.9959041
0.99371773 0.8652096 1.000608 1.0015435 0.91552407 0.93352056 0.88929766 1.018216
0.90864503 1.002885 0.87451136 1.0286888 1.0272009 1.0379415 1.0257722 0.9583363
1.0531372 0.99187833 1.011931 1.0336939 0.95972127 0.95737207 0.9703237 1.0247078
1.0941381

model.backbone.layers.0.temporal.norm.bias f4 [41]
00000000: bbca 283e e372 f63d 4722 ed3d 0d15 523d
00000010: 2160 0d3e 1f34 b4bd c5e4 44bd 07bb 83bd
00000020: 8511 1f3e d500 babd 8313 1e3e 90d4 bcbd
00000030: ef93 893d c353 8dbc 56e9 033b c5b3 763d
00000040: cc29 a2bd 1d24 c3bb 0a9f 8ebd 8c26 08bd
00000050: 7423 12bd 6c37 0cbd 04c0 683d 6787 98bb
00000060: 2068 be3b c9a2 f9bc b3bc e63d ab94 ccbb
00000070: 5904 e6bd 62ab 8cbd 6a06 203d ae0f cf3d
00000080: 83c3 9abc 362f b23d 10cd a6bc fdde 413d
00000090: 1db7 10bd 736a cd3c f3ca 3c3d 13d4 35bc
000000a0: 5563 24bc
0.16483586 0.12033632 0.115788035 0.051289607 0.13806202 -0.08799004 -0.048069734 -0.06432157
0.15534027 -0.0908219 0.1543713 -0.092202306 0.06717669 -0.017251855 0.0020128093 0.060230035
-0.07918128 -0.005955233 -0.06963928 -0.033239886 -0.035678342 -0.034232542 0.056823745 -0.004654813
0.0058107525 -0.03047313 0.1126646 -0.0062433085 -0.11231298 -0.06868626 0.039068617 0.101104125
-0.018892055 0.08700411 -0.020361453 0.0473318 -0.03533088 0.025075173 0.046091985 -0.011097926
-0.010033448

model.backbone.layers.0.channel.mixing.0.weight f4 [80, 10]
00000000: f88a 603d b837 2b3e f466 f8bd 0199 123e
00000010: ccba 193e fc5d a83d 5822 56be 4d04 c93d
00000020: 5713 e23d 2cb9 933e 70b9 1fbe 9fdd 82be
00000030: ee19 adbd 0b6c 21bc e952 e9bd dc2a fc3d
00000040: 05d8 5d3e 14b3 95bd fcba aabe 29cb 74be
00000050: 4837 55be 85c2 373e f8ab 303e 2859 a3be
00000060: c220 8f3e da3e 02be 6680 f3bd fa64 c2bd
00000070: e91e a63e bf9a 763c 1f09 77be 04f9 85bd
00000080: 2a21 4b3e c1fe 663b 049a fabd aac9 b23e
00000090: 36a9 7f3e de1e 1dbd ef9b a03d a743 4ebe
000000a0: 1a7c cfbc 4b49 19be c7f7 773d 37fc 8d3e
000000b0: 770a 873e a954 823e 50b7 533e 397d 80bd
000000c0: b354 73be 15d9 903e ea5f 12bd e78e 40be
000000d0: 45fe 44be d773 85bd e608 60bd 6646 bebd
000000e0: bff8 e13d 5a63 f33c aa28 3e3d a946 603e
000000f0: 279e 8bbe 8597 98be 2cf0 48bc c51a 7ebe
00000100: dd5a 7a3d 7515 5dbc 6383 d9bd 2d7d 3bbe
00000110: 348c 7b3d a661 1cbe 56b5 6dbe ad05 e63d
00000120: c836 2f3e 1df7 8bbe bc01 73be 43c9 033e
00000130: 2a59 7dbc eadc 373d 1e2b 6b3e 3215 adbe
00000140: 05e2 47be 2c14 92be 82ac b63d 766c 0a3c
00000150: ca09 a73e de39 37be 7027 cbbd e81e 6d3d
00000160: b6bb dbbd 0b45 a7bd 1e4d 84be 97e4 dc3c
00000170: 5c4f 153e b357 af3c 2c16 8e3e f9e1 c13c
00000180: 427e 203e e6f0 9fbd bac5 3ebe 5298 42be
00000190: ea02 7c3d 0132 293e e6db 8bbe c672 aebc
000001a0: d79a 8fbd 78f5 d73d 0479 01bd 2934 773e
000001b0: 40d9 633e 302d 133d fa01 41bd a034 0b3d
000001c0: fdf6 9fbe e9ca ad3d a564 743d 5d6e 823d
000001d0: dfaf 7fbe 70b7 693e 9ecf 46bd c5fb 45be
000001e0: 0440 bc3c d1c8 9d3e a402 13be cd97 d93d
000001f0: 1bb7 8f3e 49cd 803c 8ad0 893e 9b88 c1bd
00000200: ec6b 503d fe96 4ebd e55a 8f3d 45f0 d8bb
00000210: d60d 3c3e 9d08 58be f645 6e3d 93c0 873d
00000220: 5038 253e 3691 cd3d 8bb0 313e a0b4 663e
00000230: 73c2 90be c692 9dbd 87e7 45be d3ef 013e
00000240: a72f b2bd 2f1a 0e3c 77e0 e6bd b90b 6c3e
00000250: bfa8 54be 39c8 1cbc eb94 a13d ed5c 8b3e
00000260: 223c 093d fce5 9f3d ad79 c5bb 9b63 80bd
00000270: c7ac a13e 134a 74be 05f6 6fbe 238a 44bd
00000280: d997 39be 1b64 923e 21fd 403e adc4 9d3e
00000290: cac6 743e 04fb 8f3e 9384 86ba 4803 aa3d
000002a0: 63a8 5bbe 517a febc 1a05 823e 4781 ca3d
000002b0: b907 29be d3e1 31bb 1581 4c3d 09c8 833d
000002c0: cf0c 66be 8012 5a3e ac45 543e 86eb 863e
000002d0: 38db 30bc 0e58 063e 29c6 5dbe 8fc7 59be
000002e0: 3bba 833e ae8e 583e 2634 903e 7cb7 b93c
000002f0: 8632 873d 7bec 7a3e fe09 793d fc19 6e3d
00000300: f9bd 2c3e 2acd 9dbd d438 7b3e af51 3e3d
00000310: ed96 0e3c 232d b53e 8f98 40be c525 92be
00000320: 02df 303e 7969 053e 85d6 00be fc6b 483e
00000330: b435 4c3d 2821 0f3e 679d 093d 5e15 5fbe
00000340: 00d7 6b3d df0e 64bd 5b3a b9be 0101 a0be
00000350: ebd0 1abd ccde 953a fe53 5fbe 9991 7bbe
00000360: ac6a 3c3e d887 1abe 54d6 11be fc09 47bd
00000370: 4864 d7bb 04bc 58bd a439 d63d 408d f4bd
00000380: 7423 fb3d 3fee 9c3e 665d ffbb 53a6 023e
00000390: e7ec 783e 09c5 81bd 13cf 7b3d 1f0f 57be
000003a0: f230 213e 0f43 4ebe 1682 a3bd d032 2ebe
000003b0: baff 6fbe 65ca 303e 0c32 cb3c fcf9 063e
000003c0: 2d7e 23be 0701 94bb a3dc 883e 747d 953d
000003d0: 2bb8 8f3e 611f 913e 1eb9 7ebe e542 613e
000003e0: aa48 8a3e 86a1 a13d d6d8 81be 1b6b 6a3e
000003f0: 8466 e53a 9428 833e 1f58 98bd 1392 693e
0.05482003 0.16720474 -0.12129012 0.14316179 0.15012664 0.08221051 -0.20911539 0.098152734
0.11038845 0.28852212 -0.15598083 -0.25559708 -0.08452211 -0.00985242 -0.11392767 0.12312862
0.21664436 -0.07309547 -0.33345783 -0.23905624 -0.2082187 0.17945297 0.17253101 -0.31903958
0.2795468 -0.12719288 -0.118897244 -0.09491916 0.32445458 0.015051543 -0.24124573 -0.065416366
0.1983687 0.003524706 -0.122364074 0.34919482 0.24966893 -0.038359515 0.07842242 -0.20142995
-0.02532773 -0.14969365 0.060539033 0.27731487 0.26375172 0.25455216 0.20675397 -0.06273884
-0.23762779 0.2829062 -0.035736002 -0.18804513 -0.19237621 -0.06516235 -0.054695986 -0.09290771
0.11033773 0.02971046 0.0464255 0.21901955 -0.27269098 -0.298031 -0.012264293 -0.248149
0.06112181 -0.013493885 -0.10620763 -0.1830947 0.061413005 -0.15271625 -0.23213705 0.11231551
0.17110741 -0.2733697 -0.2373113 0.12869744 -0.015463153 0.044888414 0.22965667 -0.33805233
-0.19519813 -0.28531015 0.08919622 0.008448711 0.32624656 -0.17893168 -0.099196315 0.057890803
-0.107291624 -0.08167466 -0.25840086 0.026964469 0.14581054 0.021404123 0.2775129 0.023667322
0.15673164 -0.078096196 -0.18630114 -0.19003418 0.061526217 0.16522981 -0.27316207 -0.021294963
-0.07011955 0.10544866 -0.03160955 0.24140991 0.22250843 0.035931766 -0.047121026 0.033985734
-0.31243125 0.08485968 0.059666295 0.063687064 -0.24969433 0.22823882 -0.048537843 -0.19334324
0.022979744 0.30817273 -0.14356476 0.10624657 0.28069386 0.015722888 0.26916915 -0.094498836
0.050884172 -0.050436966 0.06999759 -0.0066204392 0.18364653 -0.21097036 0.05817219 0.066285275
0.16134763 0.100374624 0.17352502 0.2252984 -0.28273353 -0.076940104 -0.19326602 0.12689142
-0.08700495 0.008673235 -0.11273282 0.23051347 -0.20767497 -0.009569221 0.07889732 0.27219334
0.033504613 0.07807538 -0.006026468 -0.06268998 0.3157713 -0.23856382 -0.23433693 -0.0479833
-0.18124332 0.28592 0.18846561 0.30814114 0.23903957 0.28121197 -0.0010262899 0.08301407
-0.21450953 -0.031064184 0.25394517 0.09887939 -0.16506852 -0.0027142658 0.04992779 0.06434638
-0.22465824 0.2129612 0.20729703 0.26351565 -0.010794453 0.13119528 -0.21657623 -0.21267532
0.2572802 0.21148178 0.28164786 0.0226705 0.066014335 0.24504273 0.060800545 0.05813025
0.16869344 -0.077051476 0.24533397 0.04646462 0.008702976 0.35386 -0.18808196 -0.2854444
0.1727257 0.13028516 -0.12581833 0.19572443 0.049855903 0.13977492 0.033597376 -0.21785495
0.057578087 -0.055678245 -0.36177334 -0.31250766 -0.037796896 0.0011434196 -0.21809384 -0.2456726
0.18400067 -0.15090883 -0.14241916 -0.048593506 -0.0065732338 -0.05291368 0.10460213 -0.11941004
0.122626215 0.30650517 -0.0077931164 0.1275876 0.24309121 -0.063364096 0.06147678 -0.21001862
0.15741327 -0.20142768 -0.07983796 -0.17011571 -0.23437396 0.17264707 0.024804138 0.13181299
-0.15966101 -0.004516724 0.26730832 0.07299319 0.28070197 0.28344253 -0.24875304 0.21998174
0.27008563 0.07892136 -0.25360745 0.2289242 0.0017501866 0.25616896 -0.07438683 0.22809629

model.backbone.layers.0.channel.mixing.0.bias f4 [80]
00000000: 1d9b 37be 3895 eebd f4dd 7ebe 5c26 de3d
00000010: 5e22 063e 7c1d 9a3c f122 363e 2fa1 0f3d
00000020: b348 80be ac5d a8be a147 39bc 6784 253e
00000030: 42ce a7bc e8ff e7bc 5081 d7bd 9f75 a73d
00000040: 727e a83d 930d 0cbe e302 073e 6780 a6bd
00000050: cba5 9bbe 704e cb3d f4ba 2c3e e76b 7b3c
00000060: 1d96 263e 153b d5ba 1f99 003e a06a 09bd
00000070: 93fb d1b9 d57a 19be 72a3 59be 0b32 08be
00000080: 51a4 44be 4ba2 44be 5610 dd3d 8430 cabe
00000090: 527c 44be d3b2 c3bd c038 58bd 990e 90be
000000a0: 2277 4dbd 68f9 babc c4f7 a9be 733e ef3b
000000b0: 8807 11be 1ea9 89bd 9393 a7be 2af6 ff3d
000000c0: f423 1c3d 2c48 5dbe b5c6 27be 8ee3 023e
000000d0: 1d39 853d 2d4c 81be 411f bfbd ea0a d739
000000e0: 288e e83d 0c9b 2a3e aad1 223e a2ea 013e
000000f0: ceac f8bd 1f25 91bd 181f 86be d278 b5be
00000100: 1829 20be 7a2d 6abe 12b4 81be 3386 e1bd
00000110: 9b9c aabc 42f9 9dbe 4c64 2f3e ecfc 83bd
00000120: cfb9 51be 6712 823e 5eeb 963d f7db 84be
00000130: d2b5 5bbe aae7 f53c 8743 dabd bc92 33be
-0.17930265 -0.11649555 -0.24889356 0.1084716 0.13099048 0.018812887 0.17786767 0.035065826
-0.25055465 -0.32883966 -0.011308582 0.16163789 -0.020484094 -0.028320268 -0.10522711 0.08176731
0.082272425 -0.13677053 0.13184695 -0.081299596 -0.30399927 0.0992707 0.16868192 0.01534555
0.16268201 -0.0016268218 0.12558411 -0.03354895 -0.00040051024 -0.14988263 -0.21253756 -0.1330034
-0.19203307 -0.19202535 0.107941315 -0.3949014 -0.1918805 -0.095555924 -0.052788496 -0.28136137
-0.050162442 -0.022824004 -0.33196843 0.0073011457 -0.14163029 -0.0672171 -0.32729778 0.12498124
0.038120225 -0.21609563 -0.16384394 0.12782118 0.06505034 -0.2525343 -0.09332133 0.00041016127
0.11355239 0.16660708 0.15900293 0.12687162 -0.12142335 -0.070871584 -0.26195598 -0.3544374
-0.15640676 -0.2286891 -0.25332695 -0.110119246 -0.020826628 -0.3085423 0.17128104 -0.064447254
-0.20481037 0.25404665 0.073691115 -0.2594907 -0.21456078 0.030017693 -0.10657411 -0.17536443
