experiments/Merged/saved_models/merged_dataset_benchmark/tsmixer_benchmark_0.pt (torch, 245662 bytes, 134 tensors)

model.backbone.conditional_mixing.static_proj.weight f4 [10, 10]
000000 10 d2 4e 3e 39 39 47 3e d2 55 18 be cf f7 87 3e
       0.2019732 0.19455422 -0.14876488 0.2655625
000010 8b 8f b9 bd fd a8 70 3d ab 0d 12 be 6d 1c 0c 3e
       -0.09060582 0.05875491 -0.14263026 0.13682719
000020 6e 3c 88 3e 73 7d 5d be 3c fc 40 3e b2 38 08 3d
       0.26608604 -0.21629886 0.1884622 0.033257194
000030 90 b4 6c 3e 36 d1 5d bc 71 03 34 3e e4 6b be bd
       0.23115754 -0.013538649 0.17579438 -0.09297922
000040 8a 02 34 3e 04 ab 72 3c bd 30 ee bd a3 3f d8 3d
       0.17579094 0.014811281 -0.1163039 0.10559013
000050 2c 45 90 bd 8e 52 4b 3d c9 4e 86 bd 3c b8 ad 3e
       -0.070444435 0.049639277 -0.06557996 0.33929622
000060 1d d3 6a be c2 bd 1e bd 96 fb 5e 3d a3 89 0a be
       -0.22932096 -0.038755186 0.05443915 -0.13529067
000070 32 8d 81 bd 0a 3e a0 be 57 8c 4a 3e 69 b6 8a be
       -0.06325759 -0.31297332 0.19780098 -0.27092293
000080 ab 66 8c 3e c0 e3 c9 3c 27 3a b5 bd 64 33 23 3e
       0.2742208 0.024644732 -0.08848982 0.15937573
000090 fa a4 13 3c dc 22 80 3e f2 35 b1 3d 9a 7d 54 bd
       0.009011501 0.25026596 0.086528674 -0.051877595
0000a0 86 41 23 3d a9 1c 23 be 75 2f a7 3c ae 9d 24 3e
       0.03985741 -0.15928902 0.020408371 0.16075775
0000b0 7f a2 21 3e 65 ea 14 be 50 2f 83 3d 1a f4 36 3d
       0.15784644 -0.1454254 0.064055085 0.044666387
0000c0 c3 16 85 3e df 6e 22 be f4 e5 dd be 9e a9 23 be
       0.25993928 -0.15862606 -0.43339503 -0.15982673
0000d0 d9 11 94 be 29 f6 35 3e 5d d5 9d 3d b7 4d 39 3e
       -0.28919867 0.17769684 0.077067114 0.18096052
0000e0 43 f2 2b bd e7 ae bb bd af ce 7b 3e 46 64 35 be
       -0.041979086 -0.09164219 0.24590562 -0.17714033
0000f0 90 15 cc 3d 07 ec 61 be 59 69 a1 3d 31 d5 18 be
       0.0996505 -0.22062694 0.078814216 -0.14925076
000100 73 a3 be 3d 1d 30 c2 3d 98 26 7a 3e 7e 10 24 be
       0.09308519 0.09481833 0.24428785 -0.16021916
000110 19 57 81 be 88 cf 0c be 64 97 a3 3e f9 2b 16 3e
       -0.25261763 -0.13751042 0.3195144 0.14665212
000120 4a 93 95 3e 07 91 38 be 9c a8 b5 be 62 07 32 be
       0.29213935 -0.18024074 -0.354802 -0.17385629
000130 74 02 1c be fb ac 1c 3e a7 c6 ca 3d 8e 12 89 3e
       -0.15235311 0.15300362 0.09901171 0.2677197
000140 17 95 9b bd 30 6b 32 be a8 91 41 3e dd c5 44 bd
       -0.07596796 -0.17423701 0.1890322 -0.04804026
000150 fb 32 44 3e be 07 f6 bc 1a 38 8f 3e 24 c5 64 be
       0.19160073 -0.030032989 0.2797249 -0.22340828
000160 79 01 4f be 54 20 89 3d e1 bc 4a bb de 40 f1 bd
       -0.20215406 0.06695619 -0.0030935335 -0.117799506
000170 96 0d 37 3e 4c c4 d4 3d 4e 49 53 be e9 cb 8c be
       0.17876276 0.10389003 -0.20633432 -0.2749932
000180 22 f8 0e 3e 4b 2d 21 be 52 ac 9f bd ff c3 91 be
       0.13961843 -0.15739934 -0.07796539 -0.28469846

model.backbone.conditional_mixing.static_proj.bias f4 [10]
000000 a6 77 4e be a7 44 a9 bc 94 8e ac 3c cc 11 91 be
       -0.2016283 -0.020662619 0.02106408 -0.2833389
000010 df fe 1f 3d 2c 5b 00 be e4 64 99 bd 45 fe 0e bd
       0.039061423 -0.1253478 -0.074899465 -0.03491046
000020 6e 85 67 be 08 86 a2 be
       -0.22609493 -0.31742883

model.backbone.conditional_mixing.gate_proj.weight f4 [10, 10]
000000 59 f8 99 3e 3c 34 10 3e a0 c7 b7 3d 18 81 46 be
       0.30072287 0.14082426 0.08973622 -0.19385183
000010 c0 ce 49 be 3f 5d d9 bd a9 10 24 3e 54 15 93 be
       -0.19707775 -0.106134884 0.1602198 -0.2872721
000020 30 93 6a 3c 0b 88 02 be 23 1f 90 3d da 7d 9a bd
       0.014317319 -0.12747209 0.07037189 -0.075435355
000030 36 fc 26 bd a5 76 1c be 19 10 d9 bd f7 c2 66 be
       -0.04076787 -0.15279634 -0.105987735 -0.2253531
000040 59 6b 8b bd 2c 27 35 be 0e 6f 80 3e 26 cf 5d 3d
       -0.06807584 -0.17690724 0.25084728 0.05415263
000050 e3 ce 80 3e ad 75 47 3d 2a 1d 5a be 28 7d 87 3e
       0.25157842 0.04869621 -0.21300188 0.26462674
000060 1f 07 f2 bd ae 7a 3d bd bc 8c 42 be 9d f9 a8 be
       -0.118177645 -0.046259575 -0.18998998 -0.3300294
000070 ac 57 56 3e 66 8c fb 3c f5 08 06 3e 7f c6 37 be
       0.20931882 0.030706596 0.13089354 -0.17946814
000080 b2 5e 5e 3e e2 d0 61 be 4f c4 d0 bb f5 08 04 bc
       0.21715811 -0.22052339 -0.006371058 -0.008058776
000090 ab ac 06 3e 70 82 4e 3e 24 bb 72 3e 88 ea 7a be
       0.13151805 0.20166945 0.23704201 -0.24503529
0000a0 dd 01 07 3e 51 8c 48 be f1 b0 88 bd ca de 1f be
       0.13184305 -0.19584776 -0.06674374 -0.15612331
0000b0 0e b3 9c 3e 00 51 4b be 3a be e0 3d f6 6b 02 3e
       0.30605358 -0.19855118 0.10973783 0.12736496
0000c0 57 8b 76 bc 2b 23 8e be 7f 25 8d 3e db c6 1d 3b
       -0.01504787 -0.27761206 0.2756767 0.0024074826
0000d0 af 6a 86 3d c5 7b a5 be 3a 20 b8 3b 91 a0 73 3d
       0.06563317 -0.3232099 0.005619076 0.0594793
0000e0 2d 3e 9a bd 97 28 71 3e db e3 8d 3e 7a b8 54 bd
       -0.0753139 0.2355064 0.27712902 -0.051933743
0000f0 e6 4a 9e bd 65 f2 d9 3d f2 e6 64 3e 45 45 52 bc
       -0.077291295 0.10641936 0.22353724 -0.012833898
000100 93 03 b0 b9 d4 f0 b4 bd 01 70 61 be bd 4e de b9
       -0.00033572 -0.08834997 -0.22015382 -0.00042401804
000110 a0 7b 92 3e b2 d6 51 be e3 b6 0a 3d eb 83 af 3d
       0.28609943 -0.20492056 0.03386582 0.08570083
000120 ef b5 e0 3b 84 d7 d7 bd 01 d8 05 3a 06 f9 3d 3e
       0.0068576257 -0.10539153 0.00051057345 0.18552026
000130 21 ef 33 3e 9b 3f 2a bd e0 cd 68 bd f2 d5 3c bd
       0.17571689 -0.041564565 -0.056836963 -0.04610247
000140 32 b1 ae bd b0 7d c3 bd c0 e8 01 3e bd 64 a4 3e
       -0.08529891 -0.09545457 0.12686443 0.32108107
000150 1c 61 e5 bc a7 d5 1d 3c fa 18 fe bb 83 66 ac bd
       -0.028000407 0.009633458 -0.0077544423 -0.0841799
000160 5d 1f f4 3d 48 5d 35 3d b2 ef 40 be 14 e6 c3 3d
       0.119200446 0.044278413 -0.18841437 0.09565368
000170 e8 14 4a 3e ab 6b ab 3e 47 96 92 bd 57 87 9a be
       0.19734538 0.33480582 -0.071575694 -0.3018138
000180 ac 15 5e bd 39 25 13 be ea 28 01 3e 4e 95 82 3e
       -0.054219887 -0.14369668 0.12613264 0.25504535

model.backbone.conditional_mixing.gate_proj.bias f4 [10]
000000 e1 f5 fb 3d 99 14 a1 3d 9a 4c db be 4c a8 7f bd
       0.12302757 0.07865257 -0.4283188 -0.06241636
000010 a2 a5 b6 bc c7 d1 95 3c bc 24 35 3d 24 4c 14 be
       -0.022295777 0.018288506 0.044224486 -0.1448217
000020 c5 6f 98 3d fa 3c c5 be
       0.07443193 -0.38523084

model.backbone.conditional_mixing.feature_mixing.0.weight f4 [32, 10]
000000 06 03 1a be 0a 9d a4 3e 00 83 ac bd c9 4d 39 bc
       -0.15040216 0.3215106 -0.08423424 -0.011310049
000010 14 ba 5e be ce a1 0e 3e e5 72 90 3e 90 b4 2d 3e
       -0.2175067 0.13928911 0.28212658 0.1696341
000020 6d 2d 33 be 1f aa 79 be 51 ab 6a be 75 65 67 3e
       -0.17497797 -0.24381302 -0.22916915 0.22597297
000030 72 c9 33 3e d7 c1 12 3e a4 25 4a 3e ae 22 85 3d
       0.17557314 0.14331757 0.19740921 0.06500755
000040 02 c7 54 bd 28 3f 8b be dc 87 90 be 85 2c a9 be
       -0.0519476 -0.27196622 -0.28228652 -0.33041778
000050 92 10 a4 3d 58 23 35 be e6 52 c0 bd ea 74 fd be
       0.08010973 -0.17689264 -0.093908116 -0.4950326
000060 6f d6 c9 bd a7 5d 65 be 91 e7 3d be 2d a6 24 3e
       -0.09855353 -0.22399007 -0.18545367 0.16079016
000070 81 8e 38 3d 60 b7 10 3e 2b 4c cf bd eb c6 4f be
       0.045057777 0.14132452 -0.1012195 -0.20290725
000080 5e ec 7b bd a1 51 98 be 18 c9 05 be 31 f0 86 be
       -0.061504714 -0.29749778 -0.13064992 -0.26355127
000090 bc 7b 74 3e e3 a3 52 be 49 20 53 3e a9 59 f2 3d
       0.23875326 -0.2057033 0.20617785 0.118335076
0000a0 40 a6 7a 3e 7a aa 4c be 77 fe 70 3e 7a 48 00 be
       0.24477482 -0.19986907 0.2353457 -0.12527648
0000b0 e6 df 04 3e 41 e4 c2 3e 0e 91 6b 3c a2 6b 6f 3d
       0.12976035 0.3806477 0.014377845 0.058452256
0000c0 e8 54 12 bd d1 c8 a1 bd fa a4 06 3e 64 34 b3 be
       -0.035725504 -0.07899631 0.13148871 -0.35000908
0000d0 7d 57 e8 3d c1 96 b8 3e 71 eb 86 3e 40 1e bf bd
       0.11344812 0.36052516 0.26351503 -0.093319416
0000e0 12 be 9b be 75 50 8f 3d 74 4c 1c 3e 44 13 9e be
       -0.3041845 0.06997768 0.1526354 -0.30874074
0000f0 1a 13 ae bd ff d5 6c be c1 d0 fd bd 18 45 8c bd
       -0.08499737 -0.23128508 -0.12393332 -0.06849116
000100 f4 f8 14 be 17 1b fd bd 65 b6 b3 be 13 10 83 3e
       -0.14548093 -0.123586826 -0.35100093 0.255982
000110 c9 29 99 3e 9d a8 b6 bd 58 68 08 3e ed ee 24 3d
       0.29914692 -0.08918879 0.13321054 0.04026692
000120 b7 d7 97 be a8 41 ab be c6 65 8e 3e 7d fe 5d be
       -0.29656765 -0.3344853 0.27812022 -0.21679111
000130 ec 42 84 bc c2 1d cd 3d fd b0 ec 3b a8 b1 91 3c
       -0.016145192 0.100154415 0.007223247 0.017784908
000140 45 37 0a bd 96 4f 14 bd ae 2e 4f bd fc f0 a9 be
       -0.033744115 -0.03620871 -0.050581627 -0.3319167
000150 5e 48 94 be eb 61 29 3e cc b9 19 be d7 ed 34 3d
       -0.28961462 0.16541259 -0.15012282 0.044172134
000160 de 2a d6 bd c2 a9 10 bd ff 0a 86 3e 31 12 08 3e
       -0.10457395 -0.035318144 0.26180264 0.1328819
000170 31 f3 44 be 0d c4 5b 3e 2f 4f 99 3e 76 5d a5 3d
       -0.19233395 0.21461506 0.29943225 0.08074467
000180 34 38 3b 3e 0f b1 a9 3e 4c 12 38 bd 82 5a e0 3d
       0.18283159 0.33142897 -0.044939324 0.10954763
000190 01 87 8f be 18 fd bb bd 89 d3 9a 3e 91 24 71 bd
       -0.28032687 -0.09179133 0.30239514 -0.058872763
0001a0 67 70 7c be 7e c6 26 be e4 ab 84 be b6 9c a6 be
       -0.24652253 -0.16286656 -0.25912392 -0.32541436
0001b0 cf 71 4f be bb 9d e8 bd 4b 54 79 3e a4 42 84 3d
       -0.20258258 -0.1135821 0.24348561 0.06458023
0001c0 20 c9 a0 be 54 4b a5 be cd 08 13 3e 6c 4d 5c be
       -0.31403446 -0.32284033 0.14358826 -0.21513909
0001d0 bf 57 f0 3a 8b e5 20 3e b5 2a ba bd 9f 5b 84 bd
       0.0018336697 0.15712564 -0.09090177 -0.06462788
0001e0 6d be 15 be 43 ec 05 be 3c 60 2f be 49 79 cc be
       -0.14623423 -0.13078408 -0.17126554 -0.39936283
0001f0 6a c0 cb be 7b b3 bb bb 05 2c bc 3e 1c 38 1e be
       -0.39795238 -0.005728183 0.36752334 -0.15451092
000200 fe 9c 49 be e1 3b 04 3e 5c 7d b2 3d 28 ed 1c 3e
       -0.19688794 0.12913467 0.08715317 0.15324843
000210 4d 8c 69 3e b0 03 6c 3e a1 31 b1 be 37 4d a0 3d
       0.22807427 0.23048282 -0.34608176 0.078272276
000220 b8 88 56 3e 5c ac 1c 3d 51 c2 05 be aa 94 b8 3e
       0.20950592 0.038250312 -0.13062407 0.36050922
000230 e7 26 ff bd 8e 38 5f be eb 8c 00 bf e5 5f e3 3d
       -0.12458592 -0.21798918 -0.50215024 0.11102275
000240 bc fe f6 3d 04 ba 3a 3e b2 c2 26 3e 7c 32 eb bd
       0.120603055 0.18235022 0.16285208 -0.114842385
000250 d7 65 0f be 27 ef c1 3d 46 34 6b 3e 4b 76 fc 3d
       -0.14003693 0.09469443 0.2296916 0.1232725
000260 9a 75 c9 bd ac 7c 42 bc 88 7c 87 be fe b9 31 be
       -0.09836884 -0.011870544 -0.26462197 -0.17356107
000270 38 d8 ea bb 98 87 0b 3e 51 e3 6b 3e b5 da 9c be
       -0.0071668886 0.13625944 0.23035933 -0.3063561
000280 a0 f1 4d 3e ac ba 3c be ab a3 09 3e 9a ca c3 3e
       0.20111704 -0.18430585 0.1344134 0.3824051
000290 68 2a 6b 3d d8 1b da 3e 21 fe 48 be 5a db 14 bd
       0.05741349 0.42599368 -0.19628192 -0.036342002
0002a0 83 cc 84 3e 20 44 ff 3c 2d f5 f6 bd 2d 74 2b be
       0.2593728 0.031160414 -0.12058482 -0.16743536
0002b0 7e 5b 46 3e 42 b3 bc 3d 0e 7d 26 3d e2 5c 2e be
       0.19370839 0.09213878 0.040646605 -0.1702762
0002c0 e1 eb 9e be 44 8c 7e bd 21 2c cb bc 90 1a 15 be
       -0.31039336 -0.062145486 -0.024801316 -0.14560914
0002d0 04 bd 1d be 02 30 2f 3e f2 12 59 3d 8d a1 df bd
       -0.15404135 0.17108157 0.052996583 -0.10919485
0002e0 a0 94 f5 bd 72 93 4c be 8b df 9c be ea 1d 21 be
       -0.119912386 -0.19978121 -0.306393 -0.15734068
0002f0 fb c4 f9 bd ab 8e b2 3d be 32 02 be 4b 41 16 be
       -0.12195774 0.08718618 -0.12714669 -0.14673345
000300 4c 83 59 3e 62 d9 43 3d fe cd 30 3e d3 f3 27 be
       0.21241492 0.047814734 0.1726608 -0.16401605
000310 d7 7b b5 bd fc 72 07 3e ec 16 3e be fd 6d a8 be
       -0.08861511 0.13227457 -0.18563432 -0.32896414
000320 b6 0d 05 3c 4b c5 d7 bd 18 58 81 be 6d 57 05 3e
       0.008120945 -0.105356775 -0.25262523 0.13021632
000330 91 db 8d 3e 6e e7 df 3d 8b b1 0b bd e4 d4 ab be
       0.27706578 0.109328136 -0.034104865 -0.3356086
000340 da 47 1d be dc 0a 4c 3d 53 d5 3d 3e 5c b8 03 bc
       -0.1535944 0.049815044 0.18538408 -0.00803956
000350 cb 91 c0 bd 7d 04 bd 3d 3a 48 4b be 97 0a 46 3e
       -0.09402808 0.09229372 -0.19851771 0.19339977
000360 d8 a9 8e bd 59 41 36 bb dd d0 81 bd ae 5e ac 3c
       -0.06965989 -0.0027809946 -0.06338666 0.02104124
000370 15 84 a0 bd fc 6e 73 3e 2d 4e 9e bc 9f 29 b1 3e
       -0.07837693 0.23772806 -0.019324386 0.34602067
000380 56 03 a8 3e c1 7c 51 be a7 6d 72 be 8b b2 91 3e
       0.32815045 -0.20457746 -0.23674642 0.2845653
000390 84 80 73 3e 47 b3 78 be a4 c5 a5 bc de e9 94 be
       0.23779494 -0.24287139 -0.020235844 -0.29084677
0003a0 16 7d 8c be 23 53 84 3e 36 37 dd 3d 0c e3 22 3d
       -0.27439183 0.25844678 0.10801546 0.03976731
0003b0 28 11 24 bd c1 ad c0 3e a2 42 00 3e 0e e3 9d bd
       -0.040055424 0.37632564 0.12525418 -0.07709323
0003c0 c3 49 8a 3d 9f 34 1b 3e fe ea 02 3d 30 13 f9 be
       0.0675235 0.15156792 0.031962387 -0.4864745
0003d0 ab 18 19 3e 3e f2 35 be 50 27 14 be b4 0d 83 bd
       0.14950816 -0.1776819 -0.14468122 -0.06399098
0003e0 bb 34 e0 3e 9a cc 23 3e 09 cb a8 3e 56 a9 31 3e
       0.4379023 0.15996018 0.32967404 0.17349753
0003f0 f0 3e 82 3e 27 cf 1d be b9 71 1d be c8 8f 27 3e
       0.25438643 -0.15411054 -0.15375413 0.16363442

model.backbone.conditional_mixing.feature_mixing.0.bias f4 [32]
000000 5f 80 76 be d4 8e ca bd cc 89 82 bb 25 4f 17 3e
       -0.24072407 -0.098905236 -0.003983712 0.14776285
000010 ce bf bd 3e d4 59 46 bd 4d 2b c6 3d c4 4f e5 3e
       0.37060398 -0.04842551 0.09676228 0.4478742
000020 fc 83 87 3e 7d 09 07 be a7 f7 5d bd db 66 27 3e
       0.26467884 -0.13187213 -0.054191258 0.1634783
000030 f3 95 1a 3c 8a 87 26 3e 07 8a c5 bc 73 ff 89 be
       0.009435165 0.16262642 -0.024113668 -0.26952705
000040 c1 d0 95 3e 8e 97 e0 3c 08 09 52 3e de b3 a7 3e
       0.2926083 0.027416017 0.20511258 0.32754415
000050 1e e9 91 3e 9f cc d7 3e 22 ad 84 bb 39 41 59 be
       0.28498167 0.421483 -0.0040489594 -0.21216287
000060 06 04 0c be 1e cd 41 be 33 af 91 be 17 91 49 be
       -0.1367341 -0.18925902 -0.2845398 -0.19684254
000070 4b 0b 12 be 65 11 f0 bd fe fd f8 bd 3e a0 96 be
       -0.1426212 -0.11722068 -0.1215782 -0.2941913

model.backbone.conditional_mixing.feature_mixing.2.weight f4 [10, 32]
000000 4c f3 d6 bc 8d c9 31 3c cc 6d c4 3e c1 18 5d 3d
       -0.02623906 0.010851276 0.38365018 0.053978685
000010 68 b4 f4 bc 21 8e 9d bc 5d 48 50 3c 03 03 5d bd
       -0.02987118 -0.019232811 0.012712565 -0.05395795
000020 d6 8f 35 3e 3e 7b 4b be 51 6d 47 3d 82 f2 15 3e
       0.1773065 -0.19871232 0.048688237 0.1464329
000030 31 b4 4f 3e f5 ec ea bc f4 c2 82 bd 21 61 30 bc
       0.20283581 -0.028677443 -0.063848406 -0.010765345
000040 6b e4 8b bd b9 fe c5 3c e5 51 c4 3d af f6 e5 3d
       -0.06830677 0.024169313 0.09585933 0.11228692
000050 39 80 6a be 1f e5 eb bc 06 af 0a be 4d 9d 3a bd
       -0.22900476 -0.028795777 -0.13543329 -0.04556017
000060 27 1b 16 bc cb 97 5a bd 36 41 ff 3d aa 02 be bc
       -0.009161747 -0.053367417 0.1246361 -0.02319463
000070 7b 27 52 be 9d 5b a8 3e d6 09 6a be 78 0f b8 bd
       -0.20522873 0.32882395 -0.22855315 -0.089873254
000080 45 87 cc bc 1b ea ba bd ee 5b c0 bd 23 fd 26 be
       -0.024966845 -0.09126683 -0.09392534 -0.16307501
000090 d2 bb 5a bc b5 33 97 3e 9a a9 cc 3d 15 d7 8a be
       -0.013350444 0.29531637 0.099932864 -0.2711722
0000a0 bf f8 31 be ed 71 ea 3d 88 ed be 3d 6d 94 0f be
       -0.17380045 0.11447511 0.09322649 -0.14021464
0000b0 7e 4e 5d bc 35 42 f9 bd 33 b3 9f 3c e9 36 03 3e
       -0.0135074835 -0.12170831 0.019494629 0.12813915
0000c0 24 60 02 bc b2 0e 9d 3d eb 75 39 be 88 c7 20 be
       -0.007957492 0.076688185 -0.18111388 -0.15701115
0000d0 22 8a 0f bd 77 82 53 be 63 dc 59 3c 59 85 a5 3e
       -0.035043843 -0.20655237 0.013297173 0.323283
0000e0 cb 17 92 be ca da 2d 3e 90 dc 27 bd d4 88 ad bd
       -0.28533778 0.16977993 -0.04098183 -0.084733635
0000f0 bd dd b6 3e 35 10 55 3e 7a 1c 0e bd 86 6a 32 3e
       0.35716048 0.20806964 -0.034695126 0.17423448
000100 9b 18 ca bd 81 fe 1b be 92 bd ab 3c 36 b9 37 3d
       -0.09867974 -0.15233804 0.020964418 0.044854365
000110 cf 32 8e bd d0 61 b9 bd 83 c9 38 3e b8 48 00 3e
       -0.06943285 -0.090518594 0.1804562 0.1252774
000120 ca 7f 1c be 36 f5 b6 bd 43 b1 dd bd a3 2d 0a bd
       -0.15283123 -0.08933489 -0.108248256 -0.03373493
000130 9c 9a f9 3d f3 f4 06 be 9a 1f a8 3e 52 a6 10 bc
       0.121876925 -0.13179378 0.3283661 -0.008828716
000140 ad bd 07 3e d5 c9 07 be 34 6f ce bb e2 92 16 3e
       0.1325595 -0.13260587 -0.0062998775 0.14704469
000150 74 57 8a 3d db 65 df bd 63 1e 50 3d 31 ad 4c 3e
       0.067549616 -0.10908099 0.05081023 0.19987942
000160 f8 55 15 be 7e e9 81 bd a5 0a 55 be 3d 00 3d 3e
       -0.14583576 -0.06343363 -0.20804842 0.18457122
000170 5b 15 10 3e a4 65 9e bc e9 ba 04 3e 87 25 ab 3d
       0.14070646 -0.019335575 0.12961926 0.08356767
000180 18 47 7d bb ef 41 11 be 37 64 1a be dc 77 84 3d
       -0.0038647112 -0.14185308 -0.15077291 0.06468174
000190 ba 56 53 3e 86 8b 0f 3e f0 41 23 be c8 ac 1f 3e
       0.20638552 0.14018068 -0.15943122 0.15593255
0001a0 3a 64 39 bc c2 21 94 bc ea 8f 36 be 6f b6 23 bc
       -0.0113154 -0.018082503 -0.17828336 -0.009992226
0001b0 c2 9c 4e 3d e5 50 4e 3d 96 89 3c be ef df 99 3d
       0.050442465 0.050370116 -0.1841186 0.07513415
0001c0 ab 65 18 bd d3 1a 0e 3e c6 68 18 be 0f 64 50 bd
       -0.037206333 0.1387742 -0.14883718 -0.050876673
0001d0 74 f9 1e be f9 4e e2 bc 06 ad 8b 3d 8c 9a 5a 3e
       -0.15524846 -0.027625548 0.06820111 0.21348017
0001e0 3b 4a ed 3d f7 e0 5c 3c 59 3f 9e 3d c2 bf 06 3e
       0.11586424 0.01348137 0.07726926 0.13159087
0001f0 30 13 9b 3d 0b fc 81 bc 0e 9e 97 bd ef 6f 83 3e
       0.07572019 -0.015867254 -0.074031934 0.25671336
000200 db 8a 18 3e ca 08 2f be 90 70 40 be 38 e4 32 be
       0.14896719 -0.17093197 -0.18792939 -0.17469871
000210 67 e6 a1 3d 8d 45 29 be 4e a6 ef 3d 1e 69 43 3d
       0.07905274 -0.16530438 0.11701642 0.04770767
000220 05 4e 43 be 1c 0d bc 3c 19 db af bd f6 7d 02 3d
       -0.19072731 0.02295547 -0.085867114 0.031858407
000230 cc 66 01 3c f5 11 4f bd e9 dc 4e 3e cb af 1e 3d
       0.007898044 -0.050554235 0.20201458 0.038741868
000240 65 9a 3c 3e 4d ee 40 be ad 2d 04 be 05 c7 06 bd
       0.18418272 -0.18840905 -0.12908049 -0.032904644
000250 b0 6e 8e bc 50 74 66 3e bf 8b 11 3d d0 c8 80 3d
       -0.017386764 0.22505307 0.035533663 0.06288302
000260 fa 13 96 be 17 06 f7 3d 9b 4a ce 3a 93 74 86 be
       -0.29312116 0.120617084 0.0015738787 -0.26260814
000270 7d a1 65 be 35 43 e6 bd 74 15 55 3d 98 26 b0 be
       -0.22424884 -0.112432875 0.052022412 -0.34404445
000280 c0 ec f9 bd 96 3e ce 3c d7 74 7c 3e 93 2c 6e 3e
       -0.122033596 0.025176328 0.24653946 0.23259191
000290 5b 72 97 be 02 be ce bd fc dd e3 3d 56 87 eb 3d
       -0.29579434 -0.10094835 0.111263245 0.11500423
0002a0 87 ab e0 bb 34 7f a2 3d 47 7f ba 3d b0 db 7d 3e
       -0.006856385 0.07934418 0.091063075 0.24790835
0002b0 75 2a 73 bd c9 9f 78 be 02 1e 6c bc 7d 1a d3 3d
       -0.059366662 -0.24279703 -0.014411451 0.103077866
0002c0 30 fa a6 be 7f c6 20 3e 57 08 53 3d 4f 62 68 3b
       -0.32612753 0.1570072 0.051521625 0.0035458987
0002d0 b0 b7 8c be 03 8f 5a be 5e e8 84 3e 2b c2 30 bd
       -0.27483892 -0.21343617 0.25958532 -0.043153923
0002e0 8b 7c 5f 3e 76 74 e4 3d e8 4f e0 bd 98 01 de 3e
       0.21824853 0.11155026 -0.10952741 0.4336059
0002f0 47 e2 44 be 82 b0 66 3e 5c b7 bc 3d 14 db e6 bd
       -0.19226943 0.2252827 0.092146605 -0.112722546
000300 da 69 46 be 75 a8 f7 3d 74 37 f2 3c 22 0a 9c be
       -0.19376317 0.120926775 0.029567458 -0.3047648
000310 36 4f 03 be 0e fa 5b 3e e0 37 0e 3d 84 23 0b bd
       -0.12823185 0.21482107 0.034721255 -0.033969417
000320 96 44 d2 bd 81 1c 03 bd c4 b9 0a bd d7 19 ab bd
       -0.10266988 -0.032009605 -0.033868566 -0.08354538
000330 6a 3b 3e be 89 19 ef 3d 3e 42 c4 3c ce 5c 04 bd
       -0.18577352 0.11674792 0.023957368 -0.032315068
000340 78 b1 e5 3d 2e 9a 3b bd 79 af 4e 3c 1d e5 91 3c
       0.1121549 -0.045801334 0.012615078 0.017809445
000350 18 72 b4 bd 8e a2 15 be fc 2b f5 3d f1 b2 66 3e
       -0.08810824 -0.14612791 0.1197128 0.22529198
000360 c0 41 21 be 3b 80 9e 3e 9d e4 88 3d 60 88 3d 3e
       -0.15747738 0.30957207 0.066842295 0.18509054
000370 b9 91 aa 3e 20 0d 80 be 44 cc 27 3e 88 88 86 3b
       0.33314303 -0.25010014 0.16386515 0.0041056313
000380 ff 25 9d bd 11 7c 30 bd a6 f6 cb 3c 34 37 6f 3e
       -0.07673263 -0.04308707 0.024897885 0.23360902
000390 29 f4 d4 3c c2 92 f9 bc 3c 12 1b be 61 88 38 3e
       0.02599533 -0.030465487 -0.15143675 0.18020774
0003a0 63 29 72 bb a6 2d 0a be b7 ee 4e 3d 11 89 0d 3e
       -0.0036950938 -0.13493976 0.050520625 0.13821818
0003b0 cb b1 91 3e f5 b6 17 be 2f bf 3b bd 0c 3f b6 bb
       0.28455958 -0.14815886 -0.045836624 -0.005561715
0003c0 6c 47 a2 bb 12 84 ed 3c fc 9b 06 3e 4f ee 30 bd
       -0.004952362 0.02899364 0.13145441 -0.04319602
0003d0 8b e9 e2 3d 2b 24 04 3e 00 1f b7 bd 5f 4c 18 be
       0.11079701 0.12904422 -0.0894146 -0.14872883
0003e0 a8 9a e8 3d ce 72 64 3e 03 f3 3a be 80 a9 16 be
       0.11357623 0.2230942 -0.18256764 -0.14713097
0003f0 7c 3e 9a be 8d 9e 89 3d 72 6d 9c 3d 7c f5 83 be
       -0.30125797 0.06719694 0.076380625 -0.25773227

model.backbone.conditional_mixing.feature_mixing.2.bias f4 [10]
000000 ab d8 82 bd b3 67 04 be 74 5e f9 3d 15 ad b2 3d
       -0.063889824 -0.12930183 0.12176219 0.08724419
000010 67 09 05 3d f3 25 6e be bb bf c3 bd be c1 f9 bc
       0.03247967 -0.23256664 -0.09558054 -0.030487891
000020 80 0e a8 3e 2f d9 b4 3c
       0.32823563 0.022076217

model.backbone.conditional_mixing.norm.weight f4 [10]
000000 19 da 77 3f 76 13 6b 3f 50 a8 77 3f 06 06 5e 3f
       0.96817166 0.9182657 0.967412 0.8672794
000010 ff 39 7e 3f 11 4e 89 3f 56 55 82 3f 37 bf 7c 3f
       0.99307245 1.0726949 1.0182292 0.9872927
000020 dc ec 55 3f 0a b0 68 3f
       0.83564544 0.90893614

model.backbone.conditional_mixing.norm.bias f4 [10]
000000 09 29 51 3d 2f 0f d0 3c 33 1d 7c 3d 1b 98 b5 bc
       0.051064525 0.025397865 0.061551284 -0.022167256
000010 d6 1a b9 3c 8a 28 8d 3c d4 e5 ff 3c 50 f1 93 bc
       0.022595804 0.017231245 0.03123752 -0.018059403
000020 24 e3 90 bd f4 74 ae 3d
       -0.07074574 0.08518401

model.backbone.layers.0.temporal.mixing.0.weight f4 [32, 40]
000000 fe e2 1b 3e ae 6e f0 bb df 74 4b 3d d9 23 8d 3d
       0.1522331 -0.007337413 0.049672004 0.06891603
000010 35 ea e4 bd 91 aa 4a 3d b4 fa a3 bb d0 9c 8c bd
       -0.11177484 0.04947907 -0.0050042514 -0.06865847
000020 2d 2d fe bd f3 df 15 3e c9 16 d0 3d 82 88 af 3d
       -0.1241096 0.14636211 0.10160596 0.08570959
000030 b9 65 04 3e ff 89 bf bd 13 e0 5a bb 19 72 84 3d
       0.12929429 -0.093524925 -0.0033397719 0.06467075
000040 ef 0f 13 bd 70 ae a9 bc 4e e5 8b bd 21 94 de 3d
       -0.035903867 -0.020713061 -0.06830846 0.10868097
000050 af 39 81 bd 63 10 ca bc 09 a6 0e 3e d4 47 70 bd
       -0.063098304 -0.024666017 0.13930525 -0.05866225
000060 0c df 36 bd 58 8d 9d 3d 65 64 35 bd 15 3d 72 bc
       -0.044646308 0.07692975 -0.044285197 -0.014785071
000070 be fc ec 3d e2 7e 80 bd 21 95 04 be 53 66 c2 bd
       0.11571644 -0.06274201 -0.12947513 -0.09492173
000080 96 9d be bc d5 88 b8 bd 63 59 d6 bd f8 86 d6 3c
       -0.023268502 -0.09010474 -0.10466268 0.026187405
000090 0a 3a 9d bd 77 e7 10 be 82 43 52 be 5b 95 9c be
       -0.07677086 -0.14150797 -0.20533565 -0.305827
0000a0 28 e0 9c bd 42 89 ba bc 8e 39 f0 bd ca f5 c0 3c
       -0.07659942 -0.022770528 -0.11729728 0.023554701
0000b0 7c 18 bd bd 96 ac e8 bd 0c cf 14 be 0b 4f 21 3d
       -0.09233186 -0.11361043 -0.14532107 0.039382022
0000c0 8b 35 c7 bd 66 5c 7f bd 5b b2 b3 3d 2e 8a 23 3d
       -0.097270094 -0.062343977 0.08774253 0.0399267
0000d0 b6 60 bf 3d 5f 89 1d be ec 39 bc bd b5 57 0b bd
       0.09344618 -0.15384434 -0.09190735 -0.03401919
0000e0 36 11 0e 3e 0d 84 7c 3b 46 8a 1c be 73 bb 94 3b
       0.13873753 0.0038530857 -0.15287122 0.0045389473
0000f0 d7 33 b5 bd 2e 26 38 bd c8 6a 85 bd 5b 45 e9 3d
       -0.08847778 -0.044958286 -0.065145075 0.11390182
000100 38 c1 42 3c 91 a6 c1 bc 77 31 7c 3c 8f 32 90 bc
       0.011886887 -0.023638995 0.015392653 -0.017602233
000110 c6 01 6a 3d 79 69 68 3d ab ed 16 3d b8 50 c6 bd
       0.057130598 0.05674121 0.03684775 -0.09683365
000120 a0 d1 23 3e ec 4a 76 3c 63 88 4a bc c7 3e 06 3e
       0.15997934 0.015032511 -0.012361619 0.13109885
000130 59 6c 03 3e a9 51 1d 3e aa 43 ec 3d d2 e2 37 3e
       0.128343 0.15363182 0.115363434 0.17957619
000140 19 6a 9e 3d 8c 39 04 3e 8e 1d fd bd 70 61 76 3b
       0.0773508 0.12912577 -0.12359153 0.0037594698
000150 44 83 89 bd 91 b3 96 3d d5 42 a8 3d 66 7f 93 ba
       -0.0671449 0.07358468 0.08215872 -0.0011253178
000160 aa 72 34 3b 88 e2 c6 3d d8 d5 ca bc 4b 03 e2 bd
       0.0027534165 0.09711176 -0.024760172 -0.11035784
000170 fb 18 05 3e 3d 9b 97 bd 23 11 06 3c 35 c4 c1 3c
       0.1299781 -0.07402656 0.008182797 0.02365313
000180 78 5c 21 3b bf 8c f7 bd 6b c7 06 3e 26 b9 34 3c
       0.0024621766 -0.12087392 0.1316201 0.011030471
000190 31 1c 1f bd 2a 32 f8 3c 5d 3b ad bd 1e 57 88 bd
       -0.038845245 0.030297358 -0.08458588 -0.06657241
0001a0 de cb 1d bd d8 58 5d bd 55 59 17 bd c6 04 99 bc
       -0.0385245 -0.054039806 -0.036950428 -0.018679034
0001b0 38 a2 2a 3d 04 e4 e8 bd b4 47 d0 bd c8 fa 0d bc
       0.04165861 -0.113716155 -0.10169926 -0.008665748
0001c0 42 dd 0c 3d 31 a1 8a 3d 34 c6 11 be ec 7c 31 3c
       0.034390695 0.06769026 -0.14235765 0.010833006
0001d0 9a 18 a9 3c 83 8a ba 3b 51 80 7e be 45 3a 93 be
       0.020641614 0.0056927814 -0.24853636 -0.28755394
0001e0 f9 f5 f2 bd 86 9a c9 bd 8d e2 c2 3d 9b 00 e1 bc
       -0.11863322 -0.09843926 0.095158674 -0.027466109
0001f0 83 62 a0 3d 6d f5 9c bd 30 94 89 3b 79 59 e0 bd
       0.078312896 -0.07663999 0.0041985735 -0.109545656
000200 da a1 40 3d 2a 2e c6 bd ce 57 99 bd 01 09 f7 bd
       0.047029354 -0.09676774 -0.074874505 -0.12062264
000210 97 73 98 bc 1e 45 fc 3d 15 ed b8 3d 83 e3 ad bd
       -0.018609805 0.123178706 0.09029595 -0.0849066
000220 60 56 ed bc e6 23 30 bd e6 17 9e bd f8 b1 21 3e
       -0.02897185 -0.043002985 -0.07719402 0.15790546
000230 8d be f6 3b 94 f6 e0 3b 62 d1 9a bd e9 01 c4 bd
       0.0075300396 0.006865332 -0.07559468 -0.09570677
000240 b7 c5 23 3d 62 96 bf 3c fb 4c ff 3c 80 f1 d4 bd
       0.039983477 0.023387138 0.031164637 -0.10397625
000250 19 f6 cf 3d c0 3f 34 bd fc 2b 05 be 0a f6 57 bd
       0.10154361 -0.04400611 -0.1300506 -0.052724876
000260 c6 ba 4c 3e b9 ca ec 3c a3 67 f2 bb c3 1c 5f bd
       0.19993123 0.02890526 -0.0073976084 -0.05447079
000270 07 eb a5 bd f3 e5 ec bd d9 91 e6 bd 59 1d 12 be
       -0.081014685 -0.11567297 -0.11258287 -0.14269008
000280 84 22 c5 3d d2 43 21 3e 16 80 e6 bd cd 7e 82 3d
       0.09625724 0.15748528 -0.11254899 0.063718416
000290 06 67 bc bd c8 7b cc 3d 16 01 b7 3d 18 ad c7 3d
       -0.09199338 0.09984547 0.08935754 0.09749812
0002a0 29 81 f2 3d e4 cc be 3d 84 88 01 bd c6 d4 2c 3d
       0.118410416 0.093164235 -0.031624332 0.042195104
0002b0 03 24 7e bd 89 80 90 3d 70 21 a3 bc dd 88 37 3d
       -0.062046062 0.07055766 -0.019913405 0.044808257
0002c0 c8 16 94 bd a1 dd 5d bb 39 86 87 bd 02 21 d2 bb
       -0.07230908 -0.0033854025 -0.06617398 -0.0064126262
0002d0 31 5f 2a bd e7 91 f0 bd 2e 00 64 3c a1 be cd 3d
       -0.041594688 -0.11746579 0.0139160585 0.10046125
0002e0 cf b9 13 3e 48 0d cf 3d 35 0f a9 bd 12 c8 f4 bd
       0.14426349 0.10109955 -0.08254854 -0.11952223
0002f0 1f 07 a2 3d 20 c4 98 3d 45 41 ff bd f7 3a 42 3d
       0.079115145 0.07459283 -0.12463621 0.047419515
000300 aa a6 39 3e d1 17 61 3d 27 37 70 bd ea 36 1d 3e
       0.18129984 0.054954354 -0.058646347 0.1535298
000310 17 25 a2 3d c7 b4 02 3e 34 4e 29 bd 45 ea 77 3e
       0.079172306 0.12764274 -0.041334346 0.2421046
000320 9d d3 d8 bd 9c 3d 3c 3e 52 52 2c bd 77 a9 f4 3d
       -0.10587237 0.18382877 -0.042070694 0.11946385
000330 1b ac 3a 3d df 4b 0b 3d a9 98 10 bc f1 eb aa 3d
       0.04557429 0.034007903 -0.0088254595 0.083457835
000340 0b cd 3d bc a2 e4 06 be ad 19 e4 bc 50 1e bf 3d
       -0.011584531 -0.13173154 -0.027844274 0.093319535
000350 d7 a5 5d bc 82 35 84 3d 06 55 e0 bd ad 6f f7 3d
       -0.013528309 0.06455518 -0.10953717 0.12081847
000360 4c 46 0f 3e 45 7f dd 3d 59 1e eb bd ea da 38 be
       0.1399166 0.1081529 -0.11480398 -0.18052259
000370 38 23 d0 bc 05 cd a0 bd 07 dd d3 3d a0 9c df bd
       -0.025407419 -0.07851604 0.10344892 -0.10918546
000380 b2 4c 5c 3d 6e a9 1d 3e a7 96 71 3d ad 9c 8e 3d
       0.05378408 0.15396664 0.058981564 0.06963477
000390 27 87 d1 bd c8 1d 2c 3e 86 af 82 3c ea 49 03 be
       -0.102308564 0.16808236 0.015952837 -0.12821165
0003a0 ad b1 0b 3e 26 e8 15 bd 29 44 6b bc c0 b9 0c 3e
       0.13641997 -0.036598347 -0.014359512 0.13742733
0003b0 18 08 22 bd fd 60 7b bd eb fc 40 3d 3e 1a 9b 3d
       -0.0395585 -0.061371792 0.0471162 0.07573365
0003c0 b6 c0 8f 39 a5 09 da bd 14 0b ca 3b 24 00 d7 bd
       0.00027418666 -0.10646371 0.0061658714 -0.10498074
0003d0 d7 8c b0 bd 79 db 30 be 8e 44 43 3c 96 74 2c bd
       -0.08620613 -0.17271222 0.0119182 -0.042103373
0003e0 ad 9b 25 be b2 6d bf 3d dd 2b 86 bc 51 4a 83 bc
       -0.16172667 0.093470946 -0.016378338 -0.016026648
0003f0 8f c4 c8 bd 21 f2 52 3c 11 bb 33 3e 89 15 07 3e
       -0.098031156 0.012875111 0.17551829 0.13191809

model.backbone.layers.0.temporal.mixing.0.bias f4 [32]
000000 7c dc b3 bd b7 a0 7d be 99 81 5a bc 64 f7 35 bc
       -0.087822884 -0.24768339 -0.013336563 -0.011106346
000010 3a d8 95 bd b4 bd 89 3e 13 c8 26 be 58 5a 8e be
       -0.073166326 0.26902544 -0.1628726 -0.27803302
000020 0e 9e f0 bd 40 9c 9f bd a6 69 53 3b 8e 6f df 3d
       -0.117488965 -0.07793474 0.0032259016 0.10909949
000030 ee e2 92 3d da 8d 28 be 9b 6b 55 3e 83 92 e0 3d
       0.0717219 -0.16460362 0.2084183 0.10965445
000040 1c 62 35 3e 32 92 13 3e b4 96 52 3e 51 93 90 bd
       0.17713207 0.14411238 0.20565301 -0.070593484
000050 31 4c 43 be 18 53 bb bd 31 fe 8b 3c 7d 70 f9 3d
       -0.19072033 -0.09146708 0.017088981 0.121796586
000060 c9 e2 1a bd 18 93 d5 3d af b9 f2 3d aa fc b5 bb
       -0.037813935 0.104284465 0.118518226 -0.0055538015
000070 7f 9a 86 ba 99 f5 c7 3d 85 75 49 bd 4d e0 79 3e
       -0.0010269432 0.09763641 -0.04918434 0.2440197

model.backbone.layers.0.temporal.mixing.2.weight f4 [40, 32]
000000 89 92 15 be e7 9c c7 3d e5 ad ed bd 38 70 0f be
       -0.1460668 0.097467236 -0.116054334 -0.14007652
000010 fc bb 00 bd d3 05 0a 3e f3 89 21 3e d8 e3 0d 3d
       -0.031429276 0.13478784 0.1577528 0.034641117
000020 3a 80 01 bc 94 8a 5b ba aa 2d 8c bd 62 22 9a bd
       -0.007904107 -0.0008374837 -0.06844647 -0.07526089
000030 05 9c c7 3c 71 dc fe 3d 13 7c 27 3e dc d7 dd bd
       0.024366388 0.124443896 0.16355924 -0.108321875
000040 2b 82 13 bd 6e 5d bc bd f4 f8 82 bc 82 e8 04 be
       -0.03601281 -0.09197508 -0.01598785 -0.1297932
000050 8e 45 62 3d 17 de 12 be bd 02 38 3e 3f 73 a2 3d
       0.055242114 -0.14342533 0.17969795 0.07932138
000060 08 c7 d6 bd 91 8e fd bd 1f d7 7a 3d 52 4e 2e bd
       -0.10487181 -0.12380708 0.06124031 -0.04255516
000070 23 86 5e 3d f6 80 d8 bd 0a 7d c1 3d d6 c7 ed bd
       0.05432714 -0.10571472 0.094476774 -0.11610381
000080 54 28 7e 3d 00 a9 07 bd c4 f5 30 3e 9a af 86 3c
       0.06205018 -0.033120155 0.17281252 0.016441155
000090 aa 3e 3b be db 0c 0e be 5c c8 c4 bc 71 f4 bb bd
       -0.18285623 -0.13872091 -0.02402132 -0.09177483
0000a0 23 24 16 3c 7b 7f 89 3d 9d 44 af bd 88 7a 5a bc
       0.009163889 0.06713768 -0.08558009 -0.013334878
0000b0 09 e5 02 3c 5f 25 98 bd 2a c8 f8 bd 49 4d 9d bc
       0.007989177 -0.07429003 -0.12147553 -0.019201891
0000c0 a1 2e 7b 3e 99 6b c7 bc 5a 55 c6 3d 82 2c cb bc
       0.24529506 -0.024343299 0.09684248 -0.024801496
0000d0 32 60 88 bd 55 4d c3 bd 0b 88 2b 3e f6 63 54 3e
       -0.06658973 -0.09536234 0.16751115 0.20741257
0000e0 4a dd 5b ba c8 32 39 3e 47 fd bd 3d 46 5e 06 3e
       -0.00083871617 0.18085778 0.092768244 0.131219
0000f0 41 0d 09 3e 33 3c 63 be 46 fb 20 be 5e ec 3f be
       0.13383962 -0.22190933 -0.15720853 -0.1874251
000100 11 cc 76 3d 96 d5 52 be af ac 10 be 98 7f ab bd
       0.060253207 -0.20589289 -0.14128374 -0.08373946
000110 f8 65 2a be 1a ed 10 3d 1c 41 bd 3c ec 5a 27 be
       -0.1664046 0.035382368 0.023102336 -0.16343278
000120 e6 a7 7b 3d 80 e4 ac bd 3d af 91 bd 10 41 14 3e
       0.061439417 -0.084420204 -0.07113502 0.14477944
000130 9a 1a 1b 3e 46 7a 28 bd 93 bf 17 bd 4d ef 7f bd
       0.15146866 -0.041132234 -0.037047934 -0.062484074
000140 92 83 9d 3d a8 2a f6 3d 63 e0 21 3e 37 85 a1 bd
       0.07691111 0.12019855 0.15808253 -0.07886737
000150 70 2f 32 be 49 98 2c be f7 4d 50 bd fa 60 71 3d
       -0.17400908 -0.16854967 -0.050855603 0.058930375
000160 6a 0e 6b bd f9 6d d9 bd 44 0a bb 3c 40 60 0e be
       -0.057386793 -0.10616679 0.022832043 -0.13903904
000170 6e b8 e2 bd ea 84 0c be 43 8b e5 bc a4 d6 27 3e
       -0.110703334 -0.13722578 -0.028020507 0.16390473
000180 da 2f 13 3e 46 c0 68 3d f9 c9 87 3d d7 f9 a7 3d
       0.14373723 0.05682399 0.0663032 0.0820195
000190 6a 0d 77 bc 6c 81 21 be 34 2f 86 bd cd 60 8d bd
       -0.015078882 -0.15772027 -0.06551972 -0.06903229
0001a0 c7 6f fb 3b 18 45 2d be 36 d3 e1 bc e0 7f d1 bd
       0.007673237 -0.16920888 -0.027566534 -0.10229468
0001b0 a4 c8 2a 3e 75 75 37 3e 4d 1a a6 3b 08 c7 84 3c
       0.16678101 0.179159 0.0050690533 0.016208187
0001c0 94 61 c5 bd c8 14 14 3d 95 f7 1d be 3a 03 83 bd
       -0.09637752 0.03615263 -0.15426476 -0.063971
0001d0 c0 ae 44 bd f1 e3 75 3c bb ac 1f be 98 87 25 3d
       -0.048018217 0.015007959 -0.15593235 0.040412515
0001e0 e5 c6 08 3e d0 c6 0e be eb 92 b9 3c 48 21 be bb
       0.13357122 -0.13943028 0.022653064 -0.0058023073
0001f0 6c 07 40 3c d9 1f 36 3c 35 a4 1c 3e 65 d4 9f 3c
       0.0117205195 0.0111159915 0.15297015 0.019510457
000200 f6 ff 6b bd e8 75 5d bd 6a dd 05 3e 7c 6d 8c 3d
       -0.05761715 -0.054067522 0.13072744 0.0685682
000210 1f 2b 69 bd 9c 2c b4 bd a8 f9 c3 bd cb f7 8a bd
       -0.05692589 -0.08797571 -0.095691025 -0.06785544
000220 78 69 43 be 62 81 65 bc 31 15 54 bc 3c c3 64 3e
       -0.19083202 -0.014007898 -0.012944506 0.22340101
000230 af 2e 79 bd 99 16 0f 3d d6 3d 6b 3d a4 20 d5 3c
       -0.060835537 0.03493366 0.05743202 0.02601654
000240 a3 74 fb 3d 6d 6b 9d 3d 54 2f 5d 3c 36 e7 0a be
       0.12278106 0.076865055 0.013500053 -0.13564762
000250 d8 8d 5f bd 7f dc 34 bc 69 7c 2b 3e 3c bb 54 3e
       -0.054578632 -0.0110388985 0.16746677 0.20774549
000260 e5 ff c1 3c ec 36 82 3e f0 7e 2e be 14 5e 2f 3e
       0.02368159 0.25432527 -0.1704061 0.17125732
000270 7b 53 3d 3e c8 ac 9a bd 5a 4e 21 be 54 a2 00 be
       0.18488877 -0.07552487 -0.15752545 -0.12561923
000280 8e 3d a7 bd bb f5 0b bc 17 2c 35 be 06 9e 63 3c
       -0.081660375 -0.008542473 -0.176926 0.013892656
000290 6c 1d 98 bd 7d 86 6d 3b 70 8d aa bd bf 8d 9c bd
       -0.07427487 0.0036243491 -0.08327758 -0.076442234
0002a0 a5 8e 5b be 16 3e cf bd 61 0e 04 3d 7a d5 17 3e
       -0.21441133 -0.10119264 0.032240275 0.14827529
0002b0 3c 0d 37 3e 21 b4 41 be d3 39 3e 3e 65 bf ae bd
       0.17876142 -0.1891637 0.18576746 -0.08532599
0002c0 71 13 5c bd c8 86 0a 3c a4 7e 2c 3d 2b 0f 3a be
       -0.05372948 0.008454986 0.04211296 -0.18169849
0002d0 4a 5c 31 be a6 73 3d be 30 8d f9 3d a4 cb 2c 3e
       -0.17320362 -0.18501148 0.121851325 0.16874558
0002e0 d8 ee 53 bd b3 92 51 bd 75 37 c8 bd 04 14 ec bd
       -0.05174145 -0.051165294 -0.097762026 -0.11527255
0002f0 8b 64 95 bd 29 bc 14 3e 8e c5 a4 3d 0b fe 2f bd
       -0.07294568 0.14524902 0.08045493 -0.042966884
000300 62 ed 5b 3e 1a 07 4d bc 36 3b b6 bd c2 e6 aa 3d
       0.21477273 -0.0125139 -0.08898012 0.08344795
000310 77 7b ed bd ba 96 0c 3a 47 22 5c 3e 87 6e 7b 3b
       -0.11595815 0.0005363036 0.21497451 0.003836544
000320 d7 15 e4 bd 7d 49 c3 3d db 3d 2c be d9 60 84 3e
       -0.11136978 0.09535501 -0.16820471 0.2585514
000330 ae 77 b1 bd e2 a4 00 3e 18 43 77 be e6 b3 04 be
       -0.08665405 0.12562898 -0.24146688 -0.12959251
000340 38 9c 9d 3d 51 78 b9 3d 6d c6 01 3e d7 31 4f 3e
       0.07695812 0.09056152 0.1267335 0.20233856
000350 70 a9 cb bc c2 5e 36 3d c9 d0 7a 3d 0a da 4e bb
       -0.024861068 0.04452396 0.06123427 -0.0031563067
000360 76 a8 eb bb 50 12 08 be 1d 7c 4c be 3f c9 21 3e
       -0.007191713 -0.13288236 -0.1996922 0.15799426
000370 23 24 28 bd 4d 05 ff 3d e0 8b d8 3c eb b3 a5 39
       -0.041050088 0.12452183 0.026433885 0.00031605302
000380 ba b6 fc 3d 66 b3 0b 3d 33 35 38 bd 7d c4 b8 3c
       0.1233954 0.034106635 -0.04497261 0.02255463
000390 6f bd a8 3d a5 f5 57 be e8 3b 31 3e 67 c4 17 3c
       0.082392566 -0.210898 0.17308009 0.009263135
0003a0 02 75 e4 3d a0 25 0b 3e 59 20 12 3d 12 5b 77 3c
       0.1115513 0.13588572 0.03567538 0.015097396
0003b0 88 a3 25 bd 7f ce 1e 3e 10 eb d3 3c d0 41 19 3d
       -0.04043916 0.1550846 0.025868922 0.03741628
0003c0 de 98 16 be 9c 85 06 be 82 ac 40 3d 75 de d3 3d
       -0.14706752 -0.13136905 0.047039516 0.10345165
0003d0 2a 38 e7 3d 32 9d f1 bd 12 bc 0e 3e 21 aa e9 bd
       0.11290009 -0.11797561 0.1393893 -0.11409403
0003e0 44 58 dc 3d 70 73 b0 3d 64 f6 dd 3c 73 58 b3 bd
       0.10759023 0.08615768 0.027095027 -0.08757105
0003f0 18 c6 26 3e e7 21 8b bd 3b 31 06 3e d8 e8 34 be
       0.16286504 -0.06793576 0.13104717 -0.17666948

model.backbone.layers.0.temporal.mixing.2.bias f4 [40]
000000 53 fa cd 3d c2 da 46 be a7 06 25 3e a8 38 ed bd
       0.10057511 -0.19419387 0.16115819 -0.11583072
000010 5d b2 43 be d6 55 40 3e dd 4a 81 be 3a c6 10 be
       -0.19111009 0.18782744 -0.2525243 -0.14138117
000020 37 6c 05 be b4 08 5a 3e 4e f1 7b be b7 db 9c 3c
       -0.13029562 0.21292382 -0.24603769 0.019147737
000030 ea 7d 84 3d c4 f4 69 be db 0a 83 3e dc 2d b5 3d
       0.06469329 -0.22847277 0.2559422 0.088466376
000040 6f b8 50 be a2 69 77 bc 58 88 d0 bc e8 2f 92 3e
       -0.20382856 -0.015100868 -0.025455639 0.28552175
000050 c2 02 2b 3e ee 14 61 be 8d 74 33 be 4c d4 36 be
       0.16700271 -0.2198064 -0.1752493 -0.17854422
000060 4a 45 fa bd f5 b7 b4 bd d8 7a de bd 08 c3 03 3e
       -0.12220247 -0.088241495 -0.10863274 0.12867367
000070 ee b2 0e be e4 0a 32 be 27 f2 26 be e3 d2 0f be
       -0.13935444 -0.17386967 -0.16303311 -0.1404529
000080 fa 1d 84 3e ce a3 20 3d 64 43 91 3d f6 22 aa 3d
       0.2580412 0.039218716 0.07092932 0.083074495
000090 32 9e 6c be c7 a0 05 be 61 2d 0b 3e 1d 52 d1 3d
       -0.23107222 -0.13049613 0.1359153 0.1022074

model.backbone.layers.0.temporal.norm.weight f4 [40]
000000 4f 91 78 3f 51 f0 85 3f 7a 4f 71 3f 22 7a 80 3f
       0.97096723 1.0463964 0.94261897 1.0037272
000010 8e b7 86 3f fa 74 70 3f 96 6d 87 3f a8 a7 81 3f
       1.0524766 0.9392849 1.0580318 1.012929
000020 12 8f 82 3f 86 79 7d 3f b6 31 82 3f a7 bf 87 3f
       1.0199912 0.99013555 1.017142 1.0605363
000030 a3 05 77 3f a0 b2 89 3f b5 18 74 3f 4c 53 7f 3f
       0.96492976 1.0757637 0.953502 0.99736476
000040 28 92 80 3f 5a 68 84 3f e0 ac 82 3f e1 71 78 3f
       1.0044603 1.0344346 1.0209007 0.97048765
000050 0c 93 7b 3f 2a b2 82 3f 19 7b 88 3f 15 d3 80 3f
       0.9827125 1.0210621 1.0662566 1.0064417
000060 98 12 81 3f e1 01 80 3f b3 78 83 3f 91 af 7d 3f
       1.0083799 1.0000573 1.027121 0.9909602
000070 94 c2 82 3f a1 c3 88 3f dc 83 7d 3f 24 a2 83 3f
       1.021563 1.0684701 0.99029326 1.0283856
000080 45 c9 6b 3f 9b f9 83 3f 38 1e 80 3f 6a ec 7d 3f
       0.9210399 1.0310549 1.0009222 0.99188864
000090 f1 ae 7f 3f 9c 88 88 3f f7 58 7a 3f 93 12 89 3f
       0.99876314 1.066669 0.97792 1.0708793

model.backbone.layers.0.temporal.norm.bias f4 [40]
000000 c9 84 fd 3b 6c 93 33 bd 38 bd 02 bd 13 00 15 bb
       0.0077367765 -0.043841764 -0.031918734 -0.002273564
000010 09 71 36 bd 3b 24 1b 3d a6 d3 84 bd 76 0c 6d bc
       -0.044541392 0.03787635 -0.06485681 -0.014468303
000020 65 b7 1e bd 61 44 5e bc 31 a3 34 bc 4c c6 01 bc
       -0.038749117 -0.0135661075 -0.011025236 -0.007920813
000030 db 09 2d bc 0e 3a a8 bd f7 c7 c5 3c 37 9e 9b 3b
       -0.010561432 -0.08214198 0.024143202 0.0047490853
000040 39 be c3 ba 7c 98 75 bd 6c e4 5e 3d 9e 5b 12 3d
       -0.001493401 -0.059959874 0.05441706 0.035731904
000050 8c fa 1f bd 02 1f 3e bd 89 f4 ca bc 7d 0f 8b bd
       -0.0390573 -0.04641629 -0.024774807 -0.067900635
000060 95 10 43 3b 03 66 c0 bc 53 12 e1 3c aa 93 de bc
       0.0029764522 -0.023486143 0.027474558 -0.027170021
000070 9d c0 9b bc 2b b3 24 bc f1 0c b8 3c b0 c5 67 3b
       -0.019012744 -0.010052483 0.022467108 0.0035365634
000080 9a a3 a2 3d 10 11 78 bd ac b5 e9 bb 37 d6 5f 3d
       0.07941361 -0.060563147 -0.0071322527 0.05464765
000090 d3 c4 f2 3c bc 13 91 3d 5d e4 ad 3d cb 86 06 3d
       0.029634869 0.07083842 0.084908225 0.032843392

model.backbone.layers.0.channel.mixing.0.weight f4 [32, 10]
000000 a2 69 53 3e fe d5 c3 3b 20 e0 f0 bd a4 b3 0e be
       0.20645764 0.0059764376 -0.117614985 -0.13935715
000010 30 ca 82 3e 44 ac 5b be ae 47 56 3d 33 36 52 bd
       0.25544882 -0.21452433 0.052314453 -0.05132122
000020 70 23 a6 3e 57 bd 53 3e f3 74 ee bd 09 a3 72 be
       0.32448912 0.20677696 -0.116434 -0.23695005
000030 5c c2 61 3c 21 1c 70 be dd 12 87 bd ff 8c bf 3d
       0.013779249 -0.2344823 -0.06595395 0.09353065
000040 63 92 01 3e 8e a9 a9 bd 26 3f 66 be 5b c8 93 be
       0.12653498 -0.08284293 -0.22485027 -0.28863797
000050 a1 d4 ac be 87 2e 1b 3a 14 db 05 be 72 97 6b bd
       -0.33755973 0.0005919714 -0.13071853 -0.057517476
000060 a8 71 17 be 6e 69 29 be 97 e9 08 3e 2a f5 32 3e
       -0.1478945 -0.16544124 0.13370357 0.17476335
000070 10 d3 44 3e 14 fc 79 3e cf 98 1e be 4a 88 d7 bd
       0.19221139 0.24412566 -0.1548798 -0.10524042
000080 84 c1 5b be fd a3 5b 3e 15 02 1e 3e 80 6b 7f 3e
       -0.21460539 0.21449275 0.15430482 0.24943352
000090 73 77 54 be c2 8b 59 be ed f4 78 3e e0 b6 86 be
       -0.20748691 -0.2124472 0.24312182 -0.26311398
0000a0 57 37 5c be 78 44 9a 3d 33 2c 71 be d4 8c d1 bd
       -0.21505485 0.07532591 -0.23552017 -0.10231939
0000b0 36 91 05 3e 2c 41 7f 3e 3f 4f 2c bd bf 19 47 be
       0.13043675 0.24927205 -0.042067762 -0.19443415
0000c0 74 88 4f 3e 40 e8 a1 3e f5 c5 1b be 01 be de bc
       0.20266896 0.31622505 -0.15212233 -0.02719021
0000d0 34 b2 37 be 9f 76 45 be ec a3 bf 3d 81 c3 f6 3d
       -0.17939073 -0.19283532 0.093574375 0.12049008
0000e0 6d 67 ed 3d 92 56 93 be 86 fc e4 bd e3 aa 48 3d
       0.115919925 -0.28776985 -0.111809775 0.048991095
0000f0 c4 9d dd bc d7 26 1d be c0 35 46 be 46 c5 70 3e
       -0.027052768 -0.15346847 -0.19356441 0.23512754
000100 a8 37 b8 be 24 61 e3 bd ef a2 01 3e 9a e2 1c be
       -0.35979962 -0.111025125 0.1265981 -0.15320817
000110 5d 93 46 3d 20 73 e2 bd 20 82 aa 3a 3b 15 cc bd
       0.04848038 -0.110571146 0.0013008751 -0.09964987
000120 b8 4d 69 3e e4 93 42 3e cd 0d 8e 3d 95 3a d4 bc
       0.22783554 0.19001728 0.06936226 -0.02590684
000130 5b af d4 bd 0f 54 30 be 10 0e 0f be d3 be b4 3c
       -0.10385009 -0.17219566 -0.13970208 0.022063648
000140 b6 56 53 bd 17 53 7c 3e 76 81 2f 3c db 4b 3a bd
       -0.051596366 0.24641071 0.010712018 -0.045482498
000150 9b 91 28 be 4d 14 a3 3d 43 17 81 be 17 35 3b 3c
       -0.16461794 0.079628564 -0.2521306 0.011426232
000160 5e 5f 3e 3d eb c5 7c bd f2 0c 8a 3e 50 a5 e5 3d
       0.046477668 -0.061712187 0.26963 0.112131715
000170 8f 31 28 bd 14 da 17 be ea 1b 6f be 44 f3 61 3e
       -0.041062888 -0.14829284 -0.23350492 0.22065455
000180 1f 9e 4c 3e d1 91 32 be 0d 35 e5 3d c1 2d 82 bd
       0.19982193 -0.17438437 0.11191759 -0.06356383
000190 ce 41 84 3e b5 db 67 bd 11 35 73 3e 6e f9 4d 3e
       0.25831455 -0.056606013 0.23750712 0.20114681
0001a0 58 fe 58 3e 4c a8 86 3e b1 f4 ea 3d 80 a7 2a 3e
       0.21190774 0.26300275 0.114724524 0.16665459
0001b0 8a 94 37 be de 07 b4 3c fe 56 83 bc eb bd 81 3d
       -0.17927757 0.021976408 -0.016032692 0.06335052
0001c0 39 f8 a2 bd 4f af 15 3e 91 d6 6f 3e fd 7e b0 3d
       -0.07957501 0.14617656 0.23421694 0.08617971
0001d0 18 67 8c 3d ba e8 c9 bc 7a 9c 4b 3e 4d d3 2e bb
       0.06855601 -0.024647105 0.1988391 -0.0026676238
0001e0 30 42 2c 3e 50 4f 92 bd ca 90 11 3d 43 b0 7c be
       0.16822124 -0.07144034 0.035538472 -0.24676614
0001f0 a2 99 6d 3e ba fa 2e 38 da d9 2b 3e 67 dd 59 be
       0.23203138 4.171834e-05 0.16782323 -0.21275865
000200 df 8d 70 be cf e9 cb bb 4f b2 2d be 95 b4 21 3d
       -0.2349162 -0.0062229405 -0.1696255 0.039478857
000210 25 c9 56 3c 94 27 15 be 1d 7b 0c 3e 89 ab 86 3e
       0.01310948 -0.14565879 0.13718839 0.26302746
000220 df 49 89 be 7f 6c 47 be f3 cf fe 3d d5 96 56 be
       -0.26814172 -0.19474982 0.12442007 -0.20955975
000230 35 74 16 3e df 29 f6 bd bf e8 1d 3e 79 31 3f be
       0.14692767 -0.12019705 0.15420817 -0.18671216
000240 23 bc 55 3d 00 36 71 bd b5 53 29 be cc 40 e4 bd
       0.052181374 -0.05888939 -0.16535838 -0.111451715
000250 81 d8 7d 3d c0 ef 2e 3e 87 3d 95 bd e8 8e d8 bc
       0.061974052 0.17083645 -0.07287126 -0.02643533
000260 29 c1 65 3e 6f a7 75 3e c1 cf ea bd d5 17 63 be
       0.22436966 0.23989652 -0.11465407 -0.2217706
000270 15 57 14 3d d5 3c a6 3d 23 ec 82 be 21 79 63 be
       0.03621586 0.081170715 -0.25570783 -0.22214176
000280 2f d4 c1 3c 10 80 57 3e a5 57 68 be 3a 4a 55 be
       0.023660747 0.21044946 -0.22689684 -0.20829096
000290 48 eb 1c be 51 3c 92 be c1 ef 86 be 32 00 70 3e
       -0.15324128 -0.28561643 -0.26354793 0.23437575
0002a0 d0 f7 56 3e 45 cf 6d be 21 1b c0 bc c1 f1 71 be
       0.2099297 -0.23223598 -0.023450436 -0.23627378
0002b0 27 16 c5 3c d8 6a 96 be a9 89 34 be 96 f6 3e be
       0.024058415 -0.2937839 -0.17630638 -0.18648753
0002c0 e3 ce 74 3c 92 30 33 3e c1 b5 cc bd e2 7a 9a ba
       0.014941904 0.17498997 -0.09995604 -0.001178589
0002d0 0d a7 58 3e 18 5c 39 bd e2 37 ae 3d b4 8a 1c 3e
       0.21157475 -0.045253843 0.085067526 0.15287286
0002e0 81 bf 45 bd 23 38 23 3e 4a cd 30 3e d0 fa 26 be
       -0.048278335 0.15939383 0.17265812 -0.16306615
0002f0 1a 1a ae 3e 72 4f 2e 3e ed 02 bb bd 98 d2 57 3e
       0.3400429 0.17022493 -0.091314174 0.21076429
000300 ba 9b 63 3c 71 76 43 3e cf 01 9a be 8b 67 9a 3e
       0.013892109 0.1908815 -0.30079505 0.30157122
000310 14 6c 83 3e 9d bf 2f be 6e 03 7a be 3a bb 5d bd
       0.25668395 -0.17162938 -0.24415371 -0.05413363
000320 aa 96 3e be d7 fb a0 3c 9d 2e c7 3d 1e f3 8c bd
       -0.18612161 0.019651337 0.09725688 -0.068823084
000330 48 36 06 3e 7a 00 ad 3c ab d8 e3 bd af 51 a1 be
       0.13106644 0.021118391 -0.111253105 -0.31507632
000340 e2 d1 d4 3c b8 6a 9e be 6e 1e 86 bd 24 f3 73 bc
       0.025978986 -0.30940795 -0.06548773 -0.014889512
000350 76 9b 13 be 13 fc a3 3d 64 5d 99 3c a9 c0 51 3e
       -0.14414772 0.08007064 0.01872129 0.2048365
000360 7b b6 44 3e 7b e3 4f be d5 c3 6c be 3e 11 1d be
       0.19210236 -0.2030162 -0.23121579 -0.15338609
000370 be 90 1b be 9e cf b8 3d db 97 31 be 1d 7a 90 be
       -0.15191934 0.09023975 -0.17343085 -0.28218165
000380 fc 0e a7 3d ab ef 3e 3e ab 96 9f bd 6e 35 8d be
       0.08157155 0.18646114 -0.077924095 -0.27579826
000390 07 b2 87 3c f5 e2 d6 3d 87 bc 6e 3e c6 48 ee 3d
       0.016564382 0.10492507 0.23314105 0.11634974
0003a0 2d bc 03 3e 24 d7 4d be 6c d5 95 3e 67 1e 60 be
       0.12864752 -0.20101601 0.2926439 -0.21886598
0003b0 d8 24 f9 bd e6 d4 20 3e 22 4f d0 bd 1c a1 51 3e
       -0.121652305 0.15706214 -0.101713434 0.20471615
0003c0 57 77 1c be 03 ac 4c 3e 9f 3f 9f 3e 8b 19 ee 3d
       -0.152799 0.19987492 0.31103227 0.11625966
0003d0 9d b3 0a 3e 1e a3 0b be fe 57 31 be c3 14 20 3d
       0.1354508 -0.13636443 -0.17318723 0.0390823
0003e0 0e c7 cc 3d 16 76 13 be 21 5c 42 3e 85 a6 e6 bc
       0.09998904 -0.14400515 0.18980457 -0.028155575
0003f0 02 e9 2b be a4 4c 10 3d e3 5f 58 be 15 bd 90 be
       -0.16788104 0.03522934 -0.21130328 -0.28269258

model.backbone.layers.0.channel.mixing.0.bias f4 [32]
000000 d7 5e 81 be 8b 87 30 3d 5c 82 c0 bd b7 62 7f be
       -0.2526767 0.043098014 -0.09399864 -0.2494
000010 fc 4a 3e bc 07 c1 2a 3c 7b 0b cc bd fa d0 a4 3d
       -0.011614557 0.010421998 -0.09963127 0.080476716
000020 59 14 b2 3d c8 20 88 3e 86 d7 02 3c 99 14 bf 3c
       0.08695287 0.2658751 0.007985955 0.023325251
000030 f1 e0 d4 bd a6 b9 27 bd 76 a5 23 be 98 14 81 bd
       -0.10394467 -0.040948533 -0.15981087 -0.06302756
000040 8e 13 a0 be 06 d4 76 be b2 e9 6f be 52 bb 0b 3e
       -0.3126492 -0.24104318 -0.23428991 0.13645676
000050 8a 5d 30 be ee 68 aa bd 9a 34 b3 bd 91 73 47 3e
       -0.17223182 -0.08320795 -0.08750267 0.19477679
000060 77 30 df 3b 89 51 73 be 57 3c 99 3e 47 f8 c3 be
       0.0068111974 -0.23761572 0.29928848 -0.38275358
000070 b0 6b 8f 3d 88 5f 42 3e 94 4b 19 3e e8 35 f5 bd
       0.07002962 0.18981755 0.14970237 -0.119731724
