experiments/AdversarialDomainAdaptation/saved_models/tsmixer_da_pretrained_1.pt (torch, 731036 bytes, 30 tensors)

model.backbone.static_proj.weight f4 [64, 10]
0	0xbd77042a	-0.060306706
1	0xbd6de791	-0.058082167
2	0x3ec75433	0.38931426
3	0xbdbcb53e	-0.09214257
4	0x3ddda912	0.10823263
5	0xbe0afb16	-0.13572344
6	0x3d953acf	0.072866075
7	0xbe3390b4	-0.17535669
8	0x3e41759c	0.1889252
9	0x3e33b58b	0.17549722
10	0xbd762c61	-0.060100917
11	0xbd1bec03	-0.038066875
12	0x3e156bcb	0.14591901
13	0xbc45d07f	-0.012073635
14	0x3dba3210	0.0909158
15	0x3d81b75a	0.063338
16	0x3dd3be19	0.103389926
17	0xbd0b766c	-0.034048483
18	0x3e123716	0.14278826
19	0x3a68898f	0.00088705955
20	0xbda8a423	-0.082344316
21	0x3d89e029	0.06732208
22	0xbdb52f49	-0.088469096
23	0x3dc0e1b4	0.094180495
24	0xbe6ad32b	-0.22932117
25	0x3e365183	0.17804532
26	0x3ddd3117	0.10800379
27	0xbd84b1d9	-0.06479234
28	0xba603a9f	-0.0008553657
29	0xbcc3b12a	-0.02388819
30	0xbc654522	-0.013993533
31	0x3d97d477	0.07413571
32	0x3e8852d3	0.2662569
33	0x3e98a898	0.29816127
34	0x3e502e6b	0.20330207
35	0xbdf29f2c	-0.11846766
36	0x3eab76b1	0.33488992
37	0xbd24b1d2	-0.040208645
38	0x3e874154	0.2641703
39	0xbd02d610	-0.031942427
40	0x3c9041a8	0.017609432
41	0x3ce8d77f	0.028423069
42	0x3db0a665	0.08625487
43	0x3c09d830	0.0084133595
44	0x3d954552	0.072886124
45	0xbd304419	-0.043033693
46	0x3d1ff787	0.03905442
47	0xbbf64229	-0.007515211
48	0x3c5c3f99	0.013442897
49	0x3d41bdf9	0.047300313
50	0xbd6abc66	-0.057308577
51	0x3daa65c6	0.08320193
52	0xbecc4aab	-0.39900717
53	0x3d915d02	0.07097818
54	0x3be8ec34	0.0071082357
55	0xbd8a2048	-0.067444384
56	0xbcb26e0b	-0.021780988
57	0x3db8b8e0	0.09019637
58	0xbe3a29b9	-0.18179978
59	0xbe4daca5	-0.2008539
60	0xbcac61b6	-0.021042686
61	0x3bff817d	0.0077974186
62	0xbe82f1c5	-0.2557508
63	0x3eab6628	0.33476377
64	0x3de05419	0.1095354
65	0xbedc5e15	-0.4304053
66	0x3e84bb0e	0.2592396
67	0xbe18c2a3	-0.14917998
68	0xbe1b578b	-0.15170114
69	0x3e0b07ea	0.13577238
70	0xbc31e043	-0.010856691
71	0x3dd40fbc	0.103545636
72	0x3e8fe730	0.2810607
73	0x3cf09b62	0.029370967
74	0x3d328fef	0.043594297
75	0x3b9d84bd	0.0048070834
76	0x3e26f05f	0.16302632
77	0xbde5ffa4	-0.112304
78	0x3d5b2d75	0.053510148
79	0xbde8c182	-0.11365034
80	0x3e56df12	0.20983532
81	0xbd98e1d6	-0.0746495
82	0xbd2cfc21	-0.042232636
83	0xbe6ce81c	-0.23135418
84	0x3c3f9600	0.011693478
85	0x3e1afe7f	0.15136145
86	0xbe33b93e	-0.17551133
87	0x3e2e083c	0.16995329
88	0x3eba59b8	0.36396575
89	0xbf0af916	-0.54286325
90	0xbcf46c24	-0.029836722
91	0xbd010f64	-0.03150882
92	0x3b8ba29d	0.0042613284
93	0x3dea3226	0.11435346
94	0x3e9a5d98	0.3014953
95	0x3c60e169	0.013725617
96	0x3de45761	0.11149479
97	0x3de5eb59	0.1122653
98	0xbd0acfb2	-0.03388948
99	0xbde2f979	-0.110827394
100	0xbc545422	-0.012959512
101	0xbc7242a6	-0.014786398
102	0x3e181287	0.14850818
103	0x3e3c71c7	0.18402778
104	0x3db66c02	0.089073196
105	0x3dd73e80	0.10509968
106	0x3d249bfd	0.040187825
107	0xba72c2f3	-0.0009260617
108	0xbd76b1b4	-0.060228065
109	0x3d7982cf	0.060915764
110	0xbe0539fd	-0.13010402
111	0x3d7791d3	0.060441803
112	0x3db388d6	0.08766334
113	0x3e4ab78f	0.19796585
114	0xbe1b30ff	-0.1515541
115	0x3e930288	0.2871287
116	0xbe41919e	-0.18903205
117	0x3c816cde	0.015798982
118	0xbd104ec1	-0.035231356
119	0x3eae4229	0.3403485
120	0x3db15671	0.086590655
121	0xbd48230f	-0.04886156
122	0x3ec031c9	0.37537983
123	0x3c8677f3	0.016414618
124	0x3e4e6015	0.2015384
125	0x3d28ba46	0.04119327
126	0xbe4c33d4	-0.19941646
127	0x3cc52a54	0.024068035
128	0x3e93abbf	0.2884197
129	0xbd81b2cc	-0.06332931
130	0x3b60554d	0.003423053
131	0xbde99c40	-0.114067554
132	0x3e45287e	0.19253728
133	0xbdaaf21f	-0.08346962
134	0xbd14ed57	-0.036359157
135	0xbe157c1e	-0.14598128
136	0xbd3fb660	-0.046804786
137	0x3dd93baa	0.10607083
138	0xbded7401	-0.115943916
139	0x3e2cad0d	0.16862889
140	0x3d35705b	0.044296604
141	0x3d8ae9a2	0.06782843
142	0x3e98c055	0.29834238
143	0xbd8a77a8	-0.06761104
144	0x3d8039fe	0.06261061
145	0x3ddae2a0	0.106877565
146	0x3dec5124	0.11538914
147	0x3bbb4576	0.0057150675
148	0x3e109496	0.14119181
149	0xbe1747d0	-0.14773488
150	0x3d1bb5f0	0.038015306
151	0x3db08507	0.08619123
152	0x3dbf0cff	0.09328651
153	0xbe300cf0	-0.17192435
154	0x3eb14ea6	0.34630316
155	0xbe77b116	-0.24188647
156	0xbce9c5b6	-0.028536659
157	0xbdf451e1	-0.1192968
158	0x3e7acd92	0.24492481
159	0xbde467e6	-0.111526296
160	0xbdae7648	-0.08518654
161	0xbcc64fc1	-0.024207952
162	0xbe47df06	-0.1951867
163	0x3d8214af	0.06351601
164	0xbc75b653	-0.014997083
165	0xbdaf9f9c	-0.08575365
166	0xbccc1d47	-0.024916304
167	0xbd8da5d1	-0.069163926
168	0xbe199cf8	-0.15001285
169	0xbe20a75e	-0.15688846
170	0x3d8bb0fd	0.06820867
171	0x3c75c361	0.015000195
172	0xbe60f857	-0.21969734
173	0xbe5d4b92	-0.21610859
174	0x3e682aae	0.22672531
175	0xbc78e623	-0.015191588
176	0xbe1287e8	-0.14309657
177	0x3e04e4fa	0.12977973
178	0xbe2d14a0	-0.16902399
179	0xbd93c562	-0.07215382
180	0x3e15ee2f	0.14641641
181	0xbcf549db	-0.029942444
182	0xbec933b0	-0.39297247
183	0xbdcc1e66	-0.099667355
184	0xbe302554	-0.1720174
185	0xbe90f16e	-0.28309196
186	0xbd12b1a7	-0.035813954
187	0xbdc85ef9	-0.097837396
188	0xbeac00f1	-0.33594468
189	0x3e2caa45	0.16861828
190	0xbc1f9352	-0.009739714
191	0xbd48914b	-0.048966687
192	0x3eaf2fa3	0.3421603
193	0xbe4e1892	-0.2012656
194	0xbe181b78	-0.14854228
195	0xbe9721fb	-0.29518113
196	0x3d6a1086	0.057144664
197	0xbe4c8861	-0.199739
198	0x3e56484c	0.20926017
199	0x3e41cdd5	0.18926175
200	0xbc51ac2d	-0.012797398
201	0x3d17b05f	0.037033435
202	0xbd4456a4	-0.04793419
203	0x3d937e7e	0.07201861
204	0x3d195b19	0.037440393
205	0x3e3278c1	0.17428876
206	0x3e03dfad	0.12878294
207	0xbcc4e0c3	-0.024032956
208	0x3c644319	0.013932013
209	0x3d55a8ac	0.05216281
210	0x3c919dce	0.017775442
211	0xbc99b723	-0.018764084
212	0xbe3d1ab9	-0.18467225
213	0x3c7236d7	0.014783583
214	0x3e455050	0.19268918
215	0xbe413538	-0.18867958
216	0xbc4fbbea	-0.01267908
217	0x3cef31a3	0.029198473
218	0xbe0d8e61	-0.13823844
219	0xbd990a85	-0.074727096
220	0x3d9f7f61	0.077879675
221	0x3c0f2add	0.008738247
222	0xbd7a35eb	-0.061086576
223	0x3e689f84	0.227171
224	0xbe9ecc4d	-0.31015244
225	0x3ef9622c	0.48707712
226	0x3c83665f	0.016040025
227	0x3dc5c749	0.09657151
228	0x3e068c22	0.13139394
229	0xbe391cb0	-0.1807735
230	0x3d0cd5a8	0.034383446
231	0x3c6cb6dd	0.014447895
232	0x3e3cf2e6	0.18452033
233	0xbdff5190	-0.12466729
234	0x3e81a6ca	0.25322562
235	0xbe332d72	-0.17497805
236	0xbde7bca3	-0.113152765
237	0x3c0521e5	0.008125757
238	0x3e2cc3dc	0.1687159
239	0xbdecb458	-0.11557835
240	0x3e66ead6	0.2255052
241	0x3e4280f6	0.18994507
242	0xbe27a958	-0.16373193
243	0x3edd4ac7	0.43221113
244	0x3e914b64	0.2837783
245	0x3d4ae59e	0.049535386
246	0xbe89a119	-0.2688072
247	0x3d313b19	0.04326925
248	0x3e42e932	0.1903427
249	0x3da2d811	0.07951368
250	0xbe19d3b7	-0.15022169
251	0x3d93043b	0.07178541
252	0xbe4f9055	-0.20269902
253	0x3da0fd5e	0.07860826
254	0x3d5e9a31	0.054346267
255	0xbe1da36d	-0.15394373

model.backbone.static_proj.bias f4 [64]
0	0xbc76d168	-0.015064575
1	0xbc8330d8	-0.016014501
2	0x3d3d50e6	0.04621973
3	0x3e385ced	0.18004198
4	0x3d4a8946	0.04944732
5	0xbd92714b	-0.07150515
6	0xbdfad3a8	-0.122474015
7	0xbe39e3f4	-0.18153363
8	0x3dd11434	0.102089316
9	0x3d2b99e2	0.0418948
10	0x3cce7b62	0.025205318
11	0x3d9f5dd1	0.07781566
12	0xbcd15ab7	-0.025555952
13	0xbe5c2ae3	-0.21500735
14	0x3d05f351	0.032702748
15	0xbdb4cad8	-0.08827752
16	0x3ec56f9e	0.3856172
17	0x3e7c48f6	0.24637207
18	0xbe29dcf6	-0.16588196
19	0xbebad60d	-0.36491433
20	0xbe2ad789	-0.16683783
21	0x3bf81eb8	0.0075720213
22	0xbdd9bff2	-0.10632314
23	0xbc7a7cdd	-0.015288559
24	0x3df897ac	0.12138304
25	0xbdad50df	-0.084626906
26	0x3bcc3a11	0.006232508
27	0xbdeb27e1	-0.11482216
28	0x3e5921e8	0.2120434
29	0x3e411485	0.18855484
30	0x3acbed7c	0.0015558447
31	0xbe61d283	-0.2205296
32	0xbc900fba	-0.017585624
33	0x3d27ce21	0.040968064
34	0xbd82a697	-0.06379431
35	0xbdd0d54f	-0.101969354
36	0x3e2e6e21	0.17034198
37	0xb84030e3	-4.5821896e-05
38	0xbdf5703f	-0.119843
39	0x3e136be2	0.14396623
40	0xbd5fccda	-0.05463872
41	0xbd5ef452	-0.05443222
42	0xbddb6748	-0.10713059
43	0xbe28b7ae	-0.16476318
44	0x3d2ed8f4	0.04268737
45	0x3d4028d5	0.04691394
46	0x3e1d7107	0.15375148
47	0x3d1d1f4f	0.038359936
48	0xbd2c4623	-0.042059075
49	0x3e3c8df7	0.1841353
50	0xbcc80822	-0.02441794
51	0x3e0571c2	0.13031676
52	0x3e22db71	0.15904023
53	0x3d974d3a	0.07387777
54	0xbe1a598c	-0.15073222
55	0x3e380585	0.17970856
56	0xbe4ca886	-0.19986162
57	0x3dcb89de	0.099384055
58	0x3caf2c47	0.021383418
59	0xbc7e90fc	-0.015537497
60	0x3e0d1f19	0.13781394
61	0x3da91ce5	0.08257464
62	0x3e719fcd	0.23596115
63	0xba571672	-0.0008204944

model.backbone.layers.0.temporal.0.weight f4 [32, 64]
0	0xbd9b0131	-0.075685866
1	0x3ce51dbe	0.027968284
2	0x3da9db7f	0.08293819
3	0x3d62c3d4	0.055362538
4	0x3dbab9b6	0.09117453
5	0xb8ab9506	-8.181673e-05
6	0x3d717810	0.05895239
7	0x3dc828af	0.09773385
8	0x3d05350b	0.03252129
9	0xbdbc7608	-0.092022
10	0xbda45e3d	-0.08025787
11	0x3bd3a97e	0.006459414
12	0xbbecdbe6	-0.0072283624
13	0x3d5b6cc7	0.053570535
14	0x3d91925c	0.07107994
15	0x3e0e02ec	0.13868302
16	0x3dd75ffa	0.10516353
17	0x3dad99be	0.084765896
18	0x3e9e57f6	0.30926484
19	0x3e4e4dee	0.20146915
20	0x3e336ed2	0.17522743
21	0x3da1b057	0.07894962
22	0x3d96a3c4	0.073554546
23	0xbc983e0b	-0.018584272
24	0xba4302a3	-0.00074390526
25	0xbde5097c	-0.111834496
26	0xbc598d7d	-0.013278362
27	0xbd765b0c	-0.060145423
28	0xbd20e93b	-0.039284926
29	0x3d9966ae	0.07490288
30	0x3e2b3cca	0.16722408
31	0x3dcd098b	0.10011586
32	0x3d1b1d35	0.03786965
33	0x3dac39b6	0.08409445
34	0x3e4c996e	0.19980404
35	0x3e595be4	0.2122646
36	0x3dcd8ac9	0.10036237
37	0x3e1bd832	0.1521919
38	0xbe401aa3	-0.18760161
39	0xbe54f276	-0.20795617
40	0xbef87b68	-0.48531651
41	0xbe8fd473	-0.28091773
42	0xbebdc819	-0.37066725
43	0xbeb94d44	-0.36191761
44	0xbe7408c2	-0.23831466
45	0xbe9710ca	-0.29504997
46	0xbe07cff6	-0.13262925
47	0x3bf0f997	0.007353972
48	0xbcabffc3	-0.02099598
49	0x3c239025	0.009983097
50	0xbd1e2c47	-0.038616445
51	0xbd719955	-0.05898412
52	0x3c480f94	0.012210745
53	0xbe2165e9	-0.15761532
54	0xbe822347	-0.2541754
55	0xbe1c4eaa	-0.15264383
56	0xbcb8d3d8	-0.022561952
57	0x3de129da	0.10994311
58	0x3e484b6b	0.1956002
59	0x3ded271b	0.115797244
60	0x3daa51f7	0.08316415
61	0x3df63095	0.12020985
62	0x3e305c89	0.172228
63	0x3e301e89	0.17199148
64	0x3e9c54e4	0.30533516
65	0x3e4b4351	0.19849898
66	0x3e0a6e69	0.1351868
67	0x3d2e48d7	0.042549934
68	0xbcb18432	-0.021669481
69	0xbdea683f	-0.114456646
70	0xbe7dea15	-0.24796326
71	0xbe6275f3	-0.22115307
72	0xbe1043d3	-0.14088373
73	0xbe841162	-0.25794512
74	0xbd10fc6d	-0.035396982
75	0x3e017322	0.12641576
76	0x3e3c83da	0.18409672
77	0x3e3fe8c0	0.18741131
78	0x3db47f8b	0.088133894
79	0x3da87d62	0.0822704
80	0x3dc83f59	0.097777076
81	0xbe0475a0	-0.12935495
82	0xbdd252d2	-0.10269703
83	0xbe834dd9	-0.2564533
84	0xbe8738de	-0.26410574
85	0xbc86c72c	-0.016452394
86	0x3d350f71	0.04420418
87	0x3dea52fd	0.1144161
88	0x3d556960	0.052102447
89	0xbe2827e2	-0.16421464
90	0xbe7f7c3c	-0.24949735
91	0xbe73492e	-0.23758385
92	0xbe231348	-0.15925324
93	0xbd5dc8fb	-0.054146748
94	0x3e623ab2	0.22092703
95	0x3c96414b	0.018341681
96	0x3e62b484	0.22139174
97	0x3e7e5f58	0.24841058
98	0x3e8d6e99	0.27623442
99	0x3db2fcb0	0.087396026
100	0x3e1089ce	0.14115068
101	0x3e528f6d	0.20562525
102	0x3d4f731d	0.05064689
103	0x3d2c0b4f	0.042002972
104	0xbd28da9f	-0.04122412
105	0x3dc65d24	0.09685734
106	0xbc8f3f22	-0.017486159
107	0x3d863018	0.06552142
108	0x3e0ee7c7	0.13955604
109	0x3d83ba88	0.064320624
110	0x3d34d155	0.044144947
111	0xbddc7940	-0.10765314
112	0xbe5e249d	-0.21693654
113	0xbe2d02c6	-0.16895589
114	0xbe892038	-0.26782393
115	0xbe5c73ca	-0.21528545
116	0xbe341655	-0.17586644
117	0xbe24a749	-0.16079439
118	0xbe345f8d	-0.17614575
119	0xbd3a8c18	-0.04554376
120	0x3c9bf3c3	0.019037133
121	0x3ceaa61e	0.028643664
122	0xbcf973c2	-0.030450705
123	0x3d89a25f	0.06720423
124	0x3dda73fe	0.10666655
125	0x3e5c4e71	0.21514298
126	0x3e53d497	0.20686565
127	0x3e9a83af	0.30178592
128	0x3cc39f44	0.023879655
129	0x3d670301	0.05639935
130	0x3d85703b	0.06515547
131	0x3d6c3416	0.05766686
132	0x3dc36dcf	0.09542429
133	0x3d6c8f1f	0.05775368
134	0x3b389ead	0.002817075
135	0xbcbad305	-0.0228057
136	0x3c18a4ca	0.0093166325
137	0x3d403812	0.046928473
138	0x3d58e6f7	0.05295464
139	0x3e09c069	0.13452305
140	0x3cfb2ac4	0.03066004
141	0x3da02cb0	0.078210235
142	0x3e6a84a5	0.22902162
143	0x3dc1b5cb	0.094585024
144	0x3e376d49	0.17912783
145	0xbd1d2935	-0.038369376
146	0xbdcf92b0	-0.101354
147	0xbbaa5288	-0.005197827
148	0x3dd4d07d	0.103913285
149	0x3d25a0cb	0.040436547
150	0x3e0858ad	0.13315077
151	0x3e38c8d2	0.18045357
152	0x3e03e3d8	0.12879884
153	0x3d2de485	0.04245426
154	0xbd956fd6	-0.07296722
155	0xbe38ed8d	-0.18059368
156	0xbe08c0be	-0.13354775
157	0xbe217fda	-0.15771428
158	0x3dc38f41	0.09548808
159	0xbdecd94e	-0.11564885
160	0x3bfb306e	0.0076656854
161	0x3daecefb	0.08535572
162	0x3d97241a	0.07379933
163	0xbd8dae18	-0.069179714
164	0x3c64f82a	0.013975183
165	0xbd538346	-0.051638864
166	0xbe19b00f	-0.15008567
167	0x3d6f7e85	0.058470268
168	0x3d848ed1	0.064725526
169	0xbd7ef281	-0.06224299
170	0xbe0be73b	-0.13662426
171	0xbdea485f	-0.11439585
172	0x3e6e70f9	0.23285283
173	0xbd18f8bc	-0.037346587
174	0xbdd9b5b2	-0.10630359
175	0x3e073d99	0.13207091
176	0x3e1770d6	0.14789137
177	0x3e2a2d18	0.16618764
178	0xbe39dc92	-0.18150547
179	0x3dd06ec4	0.10177377
180	0x3ddcd55f	0.10782885
181	0xbd1b8b1a	-0.037974454
182	0x3c023f78	0.007949702
183	0x3e609c97	0.21934734
184	0x3d32a801	0.043617252
185	0x3e0e637e	0.13905141
186	0x3e25b356	0.16181692
187	0xbd6493e5	-0.055805106
188	0xbeac9614	-0.3370825
189	0xbe8304c5	-0.25589576
190	0xbe94fba8	-0.29098248
191	0x3d8cc65a	0.0687377
192	0xbdaf9038	-0.085724294
193	0x3b3cb00a	0.002879145
194	0x3d44a92a	0.04801289
195	0xbd0ca401	-0.034336094
196	0x3d3cfcab	0.0461394
197	0x3d6c900a	0.057754554
198	0x3d6c7bbb	0.057735186
199	0xbca6de30	-0.02036962
200	0xbd6ff6dd	-0.058585037
201	0xbd869c96	-0.06572835
202	0x3d5e614e	0.054292016
203	0x3d869d16	0.065729305
204	0x3db0a1c5	0.08624605
205	0x3b9b59ac	0.0047409143
206	0x3d1afefe	0.037840836
207	0xbd7ba761	-0.06143892
208	0x3d4db085	0.05021717
209	0x3dd3a4d9	0.103341766
210	0x3e1cc7fa	0.1531066
211	0x3e43fbcf	0.19139026
212	0x3d795dc5	0.06088044
213	0xbc83f2e3	-0.016107028
214	0x3a87835a	0.0010338828
215	0xbdd565b7	-0.10419791
216	0xbe567ba8	-0.20945609
217	0xbe47c5b9	-0.19509019
218	0xbd56db94	-0.0524555
219	0xbd371130	-0.044694126
220	0x3be48e43	0.0069749667
221	0x3e053b6d	0.1301095
222	0x3eabd982	0.33564383
223	0x3e7a8c0e	0.24467489
224	0x3dab4f32	0.08364715
225	0x3d0e38d2	0.034722157
226	0xbd211c66	-0.039333723
227	0xbe08ac84	-0.1334706
228	0xbcdad7a8	-0.026714161
229	0xbd969163	-0.07351949
230	0xbc7df98f	-0.015501394
231	0xbe148c49	-0.1450664
232	0xbe250ceb	-0.16118209
233	0xbbd424d3	-0.0064741164
234	0xbe0ce28a	-0.13758293
235	0xbd81aebf	-0.06332158
236	0x3d988cd3	0.07448735
237	0x3dee175c	0.11625549
238	0x3cf00d3d	0.029303188
239	0xbda55699	-0.08073158
240	0xbd63b68f	-0.055594023
241	0x3e003ac8	0.12522423
242	0x3e0e8db8	0.13921249
243	0x3de115af	0.10990464
244	0xbeaa143b	-0.3321856
245	0xbe542161	-0.20715858
246	0xbe4ccc58	-0.19999826
247	0xbc9f3abf	-0.019437192
248	0xbdcd699f	-0.10029911
249	0x3e4fd8ac	0.20297498
250	0x3df61efc	0.120176286
251	0x3d9a99d6	0.07548873
252	0x3cadbc47	0.021207942
253	0x3ce68331	0.028138729
254	0x3d820544	0.063486606
255	0x3e811c52	0.2521692

model.backbone.layers.0.temporal.0.bias f4 [32]
0	0xbf8f24cc	-1.1183105
1	0xbf4d226a	-0.80130637
2	0xbf94ece7	-1.1634797
3	0xb9ab3493	-0.00032654832
4	0xbeb0b211	-0.34510854
5	0xbe0b4e3f	-0.13604067
6	0xbf0669f5	-0.5250543
7	0xbf09ba63	-0.5380003
8	0xbf1bc36d	-0.6084507
9	0xbe8cec69	-0.27524117
10	0xbecfa094	-0.405522
11	0xbf29ac02	-0.6627809
12	0xbf832ed3	-1.0248665
13	0xbebbd40a	-0.3668521
14	0xbd194b91	-0.03742558
15	0xbf32cd06	-0.6984409
16	0xbda649ab	-0.0811952
17	0xbf0caa88	-0.5494771
18	0xbdba2809	-0.09089667
19	0xbf0a8e94	-0.54123807
20	0xbeeb5c3f	-0.45968816
21	0x3d884167	0.066530995
22	0xbebcae6d	-0.36851826
23	0xbd748e60	-0.059706092
24	0xbec0f9aa	-0.3769048
25	0xbf256744	-0.64610696
26	0xbdc5d7f4	-0.096603304
27	0x3d8f2d2d	0.069910385
28	0xbf0c94b5	-0.5491441
29	0xbf6943bf	-0.91119
30	0xbf3b7d00	-0.7323761
31	0x3eb1c67f	0.34721753

model.backbone.layers.0.temporal.2.weight f4 [64, 32]
0	0xbdd5ca18	-0.10438937
1	0xbb671cb1	-0.0035264904
2	0xbe4cd6dd	-0.20003839
3	0x3d32d60f	0.043661173
4	0x3d32acd0	0.043621838
5	0x3b9ef752	0.00485126
6	0x3dcc103b	0.09964033
7	0x3dd25f18	0.10272044
8	0xbc6ea13c	-0.014564808
9	0x3c032c99	0.008006238
10	0xbe2cca2b	-0.16873996
11	0x3d18ffc6	0.0373533
12	0xbcd41189	-0.025887268
13	0xbe046d4c	-0.12932318
14	0xbe015ab8	-0.12632263
15	0x3c8601fe	0.016358372
16	0x3da9ad67	0.08285027
17	0x3db63e19	0.08898563
18	0x3c58ebf9	0.013239854
19	0xbd919f88	-0.07110506
20	0x3d3fcb38	0.046824664
21	0xbe028cf5	-0.12749083
22	0xbdebe3be	-0.11518048
23	0x3e08c02d	0.13354559
24	0x3d30568b	0.043051284
25	0xbe01b9d8	-0.1266855
26	0x3e09739d	0.13423009
27	0x3dec54bd	0.115396
28	0x3d092d02	0.03349019
29	0x3cbefd35	0.023314098
30	0x3dbd8831	0.09254492
31	0xbd9a2f7c	-0.07528588
32	0xbdf8b87f	-0.12144565
33	0x3d63231a	0.055453397
34	0xbe4fa641	-0.20278265
35	0xbc6095e8	-0.013707615
36	0x3d8201fc	0.06348035
37	0xbd78a1cb	-0.060701173
38	0xbde3dadc	-0.111257285
39	0x3d35dbfa	0.04439924
40	0xbc735259	-0.014851176
41	0x3b93a664	0.0045059193
42	0x3aa174dc	0.0012318152
43	0x3e5badc8	0.21453011
44	0xbce91d10	-0.02845624
45	0x3df75e58	0.120785415
46	0x3dea301a	0.11434956
47	0xbe08fee7	-0.13378488
48	0xbe947ecf	-0.29002997
49	0x3cc7c39e	0.02438527
50	0xbd636472	-0.055515714
51	0x3d6cab02	0.057780273
52	0xbe6e6ba9	-0.23283257
53	0xbd9b538b	-0.07584294
54	0x3e8d9e4e	0.2765984
55	0x3c84ddef	0.016219107
56	0xbe671af8	-0.22568882
57	0x3cce00cf	0.02514687
58	0x3dc158b9	0.09440751
59	0xbc9be9d5	-0.019032398
60	0xbe40cebd	-0.18828864
61	0xbc81e71b	-0.01585727
62	0xbd1e0294	-0.038576677
63	0x3e156b70	0.14591765
64	0x3daa9104	0.08328441
65	0xbd3803d6	-0.044925533
66	0x3d6d2b59	0.057902668
67	0xbe4d320e	-0.20038626
68	0xbdc6d71d	-0.09708998
69	0x3d86d813	0.06584182
70	0x3e286b9f	0.16447304
71	0x3e5b6892	0.21426609
72	0x3caa81b6	0.020813804
73	0xbe202b82	-0.15641597
74	0x3eb0a2cd	0.34499207
75	0x3dc4bcc9	0.096063204
76	0x3e3e0dba	0.18559924
77	0xbe1270a5	-0.14300783
78	0x3d8e69de	0.06953786
79	0xbd0a40da	-0.033753254
80	0x3e1aae75	0.15105613
81	0xbd7d7c09	-0.061885867
82	0xbd229384	-0.039691463
83	0x3e289746	0.16463956
84	0x3dc6199c	0.09672853
85	0xbe3bb33e	-0.18330094
86	0xbea1ad10	-0.3157735
87	0xbdc33544	-0.09531644
88	0xbc95a842	-0.018268708
89	0xbe963c8c	-0.2934307
90	0xbdfa6735	-0.122267164
91	0x3dd485c8	0.10377079
92	0x3df008a8	0.11720401
93	0xbcbf9950	-0.023388535
94	0xbd6f2d83	-0.058393013
95	0xbd683891	-0.05669457
96	0xbe09e00d	-0.13464375
97	0x3ee1981a	0.44061357
98	0xbdbfa46d	-0.093575336
99	0x3b460c7f	0.003021985
100	0x3c62ef59	0.01385101
101	0x3dd1a5fe	0.102367386
102	0x3e860ec5	0.26183143
103	0xbd593bb8	-0.053035468
104	0xbdaa57c7	-0.083175234
105	0xbd24dd5c	-0.040250167
106	0xbe1924ac	-0.14955395
107	0xbe418e86	-0.18902025
108	0xbd96321f	-0.073337786
109	0xbd104fb3	-0.035232257
110	0x3d975680	0.073895454
111	0xbe5d71c9	-0.21625437
112	0xbdbde0de	-0.09271406
113	0xbe9111bf	-0.28333852
114	0x3dcc56e6	0.09977512
115	0x3dde265c	0.1084716
116	0xbdd658b6	-0.10466139
117	0x3e33ae25	0.175469
118	0x3d25a9db	0.04044519
119	0x3e6de30b	0.23231141
120	0x3e50fd7d	0.20409198
121	0xbe07ffec	-0.1328122
122	0x3d0d731e	0.034533612
123	0xbbed5c11	-0.007243641
124	0xbe5a3608	-0.21309674
125	0x3cf3f3c4	0.029779322
126	0xbe099685	-0.13436325
127	0xbe1560b0	-0.14587665
128	0xbd53a04f	-0.051666554
129	0x3e517c47	0.20457564
130	0xbcf44d45	-0.029822001
131	0x3c9a4473	0.018831467
132	0x3c225ac3	0.009909335
133	0x3eb6b08e	0.35681576
134	0x3e19e55d	0.15028901
135	0x3dec9b11	0.11553014
136	0x3e3bb6e7	0.1833149
137	0xbe279863	-0.16366725
138	0x3e056abb	0.13028996
139	0x3d9def0f	0.077116124
140	0x3e1d3595	0.15352471
141	0x3da4260a	0.08015068
142	0xbd2f4e76	-0.042799436
143	0xbde314d4	-0.11087957
144	0xbdd158b2	-0.102219954
145	0xbc8d5e43	-0.017256862
146	0x3da17659	0.07883901
147	0xbdf47172	-0.119357005
148	0xbe2660b7	-0.16247831
149	0xbd88cf89	-0.06680209
150	0x3c97e0c7	0.0185398
151	0x3e1436b5	0.14473994
152	0x3ce918fb	0.028454294
153	0x3d8bc7b7	0.06825202
154	0xbd8618f3	-0.065477274
155	0xbd09be46	-0.033628725
156	0xbd96c4e5	-0.073617734
157	0x3ed09c8c	0.40744436
158	0xbe77c537	-0.24196325
159	0xbd53c2b2	-0.051699348
160	0x3e2c2834	0.16812211
161	0xbd299a66	-0.04140701
162	0xbe2bcc24	-0.16777092
163	0xbd694cfa	-0.056958176
164	0xbe3ba6e5	-0.18325384
165	0x3dc94793	0.09828105
166	0xbe2a517e	-0.1663265
167	0x3e10b4f1	0.14131524
168	0x3e360a24	0.17777306
169	0x3e70d718	0.23519552
170	0x3cbedc24	0.02329833
171	0x3d32c570	0.043645322
172	0x3cd98f02	0.02655745
173	0xbd526adc	-0.05137144
174	0x3dbc71b6	0.09201376
175	0x3c950e6f	0.018195359
176	0xbd847805	-0.064682044
177	0xbc86cfcd	-0.016456509
178	0xbdc807be	-0.09767102
179	0xbe52fd44	-0.20604426
180	0xbe2ffc46	-0.17186078
181	0xbe4315e3	-0.19051318
182	0xbd25bde5	-0.0404643
183	0xbdd6aba3	-0.10481956
184	0x3d469058	0.0484775
185	0xbd996f48	-0.07491928
186	0x3d99b9d1	0.07506145
187	0x3d333ab8	0.04375717
188	0x3e7a0c40	0.24418736
189	0xbd76766c	-0.06017153
190	0x3dd9f2ad	0.1064199
191	0x3b6652fc	0.0035144677
192	0x3ec65aa3	0.38741025
193	0x3cd07a93	0.025449073
194	0xbde86da7	-0.113490395
195	0xbd65b097	-0.056076612
196	0xbdac2313	-0.084051274
197	0xbe53d1ae	-0.20685455
198	0xbe227b75	-0.15867408
199	0xbdfa5933	-0.12224045
200	0xbd768f13	-0.06019504
201	0x3bca81f9	0.0061800447
202	0x3e2d6ab9	0.16935243
203	0xbdd8a986	-0.10579209
204	0x3c992498	0.018694207
205	0x3c6610b1	0.0140420655
206	0x3d586398	0.052829355
207	0xbe25d2c6	-0.16193685
208	0x3b0c6cda	0.0021427185
209	0x3e112b78	0.14176738
210	0x3e016815	0.1263736
211	0xbd59f06c	-0.0532078
212	0xbdc1f868	-0.09471208
213	0xbe5bb81f	-0.21456955
214	0x3e982601	0.29716495
215	0x3e035ee7	0.12829171
216	0x3ec20226	0.37892264
217	0xbe045605	-0.12923439
218	0xbd90fc21	-0.0707934
219	0x3dfb6b9c	0.12276384
220	0xbeab95fb	-0.33512864
221	0xbe40cfda	-0.18829289
222	0x3c29358e	0.01032771
223	0x3cc840aa	0.024444897
224	0xbda9c33e	-0.082891926
225	0xbca34a67	-0.019932939
226	0xbe8c8f9a	-0.2745331
227	0xbddfbb61	-0.109244116
228	0x3d3f9e06	0.046781562
229	0x3e848405	0.25881973
230	0xbda219d4	-0.079150826
231	0x3ea0c65a	0.3140133
232	0x3db4636c	0.08808026
233	0x3e2c2b4c	0.16813391
234	0x3ca11b1e	0.01966625
235	0xbd51693d	-0.051125754
236	0x3b89b6e4	0.0042027105
237	0xbe6a9cb3	-0.22911339
238	0x3e414f67	0.18877946
239	0x3e23e54a	0.16005436
240	0x3d766d41	0.060162786
241	0x3e8c6b22	0.27425486
242	0x3d96f251	0.07370437
243	0xbcdf78f5	-0.027279356
244	0xbe4e2161	-0.2012992
245	0xbd7681d3	-0.060182404
246	0xbd1f78f3	-0.038933706
247	0xbc0a9de0	-0.008460492
248	0xbe59a9e0	-0.21256208
249	0x3e94b8ed	0.29047337
250	0x3dc36d42	0.09542324
251	0xbe23518b	-0.15949075
252	0xbb36b1ca	-0.0027876967
253	0xbe252d47	-0.16130553
254	0x3d5fb766	0.05461826
255	0xbe14aa08	-0.14517987

model.backbone.layers.0.temporal.2.bias f4 [64]
0	0xbb8ace9b	-0.004236055
1	0xbd6da9a1	-0.0580231
2	0x3ce6d645	0.028178344
3	0x3a3fc4e7	0.00073154125
4	0xbd4cf5c8	-0.050039083
5	0x3a53dfa0	0.0008082334
6	0x3d2eba56	0.042658173
7	0x3d303246	0.043016694
8	0xbdecb984	-0.11558822
9	0xbd92c982	-0.07167341
10	0x3dd457df	0.103683226
11	0x3dd0c32d	0.10193477
12	0xbda24754	-0.07923761
13	0xbd714e65	-0.058912653
14	0xbca5b5ee	-0.020228352
15	0xbbcaefd2	-0.0061931396
16	0x3d71ce22	0.059034474
17	0x3cd5f7b2	0.026119087
18	0xbbd0d6c3	-0.006373258
19	0xbc6136d2	-0.01374598
20	0xbdadd58d	-0.08487997
21	0xba063897	-0.0005120127
22	0x3d89a4e9	0.06720907
23	0xbbd591d9	-0.0065176305
24	0xbc540f82	-0.0129431505
25	0xbd931204	-0.071811706
26	0x3d317958	0.043328613
27	0x3ca7549a	0.020426083
28	0xbdb718ae	-0.08940254
29	0xbb2877f8	-0.0025706273
30	0xbb41b210	-0.0029555596
31	0x3bdb2d13	0.006688723
32	0x3d0bf838	0.034172267
33	0x3c5ed29c	0.013600018
34	0xbda2f62e	-0.07957111
35	0x3d1d2609	0.03836635
36	0x3ccc3d35	0.02493153
37	0xbdc08339	-0.09400029
38	0x3c562c5c	0.0130721
39	0xbda860b3	-0.08221569
40	0xbcb963f1	-0.022630664
41	0xbcf4848d	-0.029848361
42	0xbd558b80	-0.05213499
43	0x3d11de36	0.035612307
44	0x3d954c6c	0.07289967
45	0x3ca06a27	0.019581867
46	0xbbc15bfc	-0.005900858
47	0xbcb7d63b	-0.02244102
48	0xbd2c7dd8	-0.0421122
49	0x3da606fd	0.08106802
50	0xbc8760e3	-0.016525691
51	0x3db7eaf0	0.08980358
52	0xbc7ffae7	-0.015623785
53	0xbd4446ef	-0.04791921
54	0xbd98792f	-0.07444989
55	0x3d069c82	0.0328641
56	0x3c59af9f	0.0132865
57	0x3d93cbe6	0.07216625
58	0xbccf6bd2	-0.025319967
59	0xbdca04a4	-0.098641664
60	0x3dd345ae	0.10316025
61	0x3d2f6802	0.0428238
62	0x3abfd190	0.0014634598
63	0x3dc220ad	0.09478889

model.backbone.layers.0.channel.0.weight f4 [32, 74]
0	0xbe654977	-0.22391306
1	0x3e068094	0.13134986
2	0x3e260189	0.16211523
3	0xbe463384	-0.19355589
4	0x3e4bb45f	0.19893025
5	0x3d4f50fe	0.05061435
6	0xbc13c554	-0.009019215
7	0x3d4e6fed	0.05039971
8	0x3def0107	0.11670118
9	0xbe04f466	-0.12983856
10	0x3e6da814	0.23208648
11	0x3d8f64f2	0.07001676
12	0x3b4ddae8	0.0031410996
13	0xbe260fea	-0.16217008
14	0xbc0b7dd0	-0.008513883
15	0xbe0aeaee	-0.13566181
16	0xbe511cd1	-0.20421149
17	0x3e1e2980	0.15445518
18	0xbde2845a	-0.110604
19	0xbe2a505a	-0.16632214
20	0x3e03b0ab	0.12860362
21	0x3ecc62fe	0.39919275
22	0x3e69e8c7	0.22842704
23	0x3e08fd22	0.13377813
24	0xbd44174f	-0.04787379
25	0xbc89ee58	-0.016837284
26	0xbe187f3d	-0.14892288
27	0xbe492cd1	-0.19646002
28	0xbe3ff3fd	-0.18745418
29	0x3e992857	0.2991359
30	0x3dc5aafb	0.096517526
31	0xbe6ac564	-0.22926861
32	0x3e18eb8b	0.14933603
33	0x3bb00595	0.005371759
34	0x3e275bf0	0.16343665
35	0xbe6fe3eb	-0.23426788
36	0x3dd9ee5c	0.106411666
37	0xbd838b2d	-0.0642303
38	0xbe7548a6	-0.23953494
39	0xbe2b9b8c	-0.16758555
40	0xbdd5e91a	-0.10444851
41	0xbe837945	-0.2567846
42	0x3bc1555d	0.0059000687
43	0x3da9de97	0.08294409
44	0xbea051e1	-0.3131247
45	0x3bc7cc9a	0.0060973885
46	0xbdfd7f38	-0.12377781
47	0xbd425041	-0.047439817
48	0x3f03935f	0.51396745
49	0xbf294be9	-0.66131455
50	0xbe3f3477	-0.18672357
51	0x3e83a5b2	0.25712353
52	0x3e5ad594	0.21370536
53	0x3e8ea760	0.27862072
54	0x3d509e9a	0.050932504
55	0xbc5f110c	-0.013614904
56	0xbe0f5f03	-0.14001088
57	0xbdf793bf	-0.12088727
58	0x3eaf69a3	0.34260282
59	0x3ddddb01	0.10832787
60	0x3e157a82	0.14597514
61	0xba9d252a	-0.0011989225
62	0x3da641b8	0.081180036
63	0x3e2f2c06	0.17106637
64	0xbd1a0265	-0.03759994
65	0xbe2cb437	-0.16865622
66	0x3e7a8c68	0.24467623
67	0xbd7c5087	-0.061600234
68	0x3eb5fc49	0.3554404
69	0xbe181f88	-0.14855778
70	0x3e3faedb	0.18719046
71	0x3d79d7e5	0.06099691
72	0xbe7ed049	-0.24884142
73	0x3d9a1274	0.07523051
74	0xbe2a92ec	-0.16657609
75	0xbe4e2cd0	-0.20134282
76	0x3dd911a1	0.105990656
77	0xbd565e59	-0.05233607
78	0xbe8c7985	-0.27436462
79	0xbef65f10	-0.48119402
80	0xbe6a4881	-0.2287922
81	0xbed57a23	-0.41694745
82	0xbe97eb63	-0.29671773
83	0x3e3a20aa	0.18176523
84	0xbcd11516	-0.02552275
85	0x3d9080e2	0.070558324
86	0x3e13f522	0.1444898
87	0xbda6cc9a	-0.081444934
88	0xbd2de452	-0.04245407
89	0x3e366481	0.17811777
90	0x3dfdfa6f	0.12401282
91	0x3e97b66b	0.2963136
92	0xbdb82920	-0.08992219
93	0xbe589018	-0.21148717
94	0x3cfb36d0	0.030665785
95	0x3d8fee6f	0.070278995
96	0x3c11e0b6	0.008903673
97	0x3ee97469	0.45596626
98	0xbc9d6938	-0.019215211
99	0x3dda3278	0.106541574
100	0xbddec660	-0.10877681
101	0xbeb3525c	-0.35023773
102	0x3e8156f2	0.25261647
103	0x3ed5ddaf	0.41770694
104	0x3de3ee85	0.11129478
105	0x3cd9c6cd	0.026584053
106	0x3e890343	0.267603
107	0xbd4f8d73	-0.050672006
108	0x3c87f88f	0.016598014
109	0x3dce7ee5	0.10082797
110	0xbd6a0d2e	-0.057141475
111	0x3d9293de	0.0715711
112	0xbe695d5c	-0.2278952
113	0xbe966b70	-0.29378843
114	0x3d815047	0.0631414
115	0x3e7f690e	0.24942419
116	0x3ba18afd	0.004929899
117	0x3d6229b3	0.05521555
118	0x3e15107a	0.14557067
119	0x3e3dacc2	0.18522933
120	0xbe84881c	-0.25885093
121	0xbd5d89de	-0.05408656
122	0x3e8129e5	0.25227275
123	0xbe8f1a5b	-0.27949795
124	0xbd0190cf	-0.03163224
125	0x3dfd4c0f	0.12368023
126	0x3d4d032f	0.050051864
127	0x3e8f7a93	0.28023204
128	0x3ca0140b	0.019540807
129	0x3dacb3ef	0.08432757
130	0xbeaa79ee	-0.3329615
131	0xbd22d925	-0.039757866
132	0x3d78daeb	0.06075565
133	0xbe69bd11	-0.2282603
134	0xbd4bc4b1	-0.049748126
135	0xbe4b7796	-0.19869837
136	0x3dab6ac6	0.08369975
137	0xbe1f0607	-0.15529643
138	0x3e1ef59c	0.1552338
139	0xbe85d94b	-0.26142344
140	0x3ea1c42e	0.31594986
141	0xbd99678b	-0.074904524
142	0xbde15b34	-0.11003724
143	0xbda0006f	-0.07812583
144	0xbe055ace	-0.1302292
145	0xbceb34fe	-0.028711792
146	0xbea53fb9	-0.3227518
147	0x3d15d2ad	0.03657787
148	0x3cfd549b	0.030924132
149	0xbe4d96af	-0.20077012
150	0xbe984532	-0.29740292
151	0xbe720fd6	-0.23638853
152	0x3dc85613	0.09782042
153	0x3e39fb79	0.18162335
154	0xbf365ec6	-0.7123836
155	0xbeb45726	-0.3522274
156	0x3dd43f30	0.103636146
157	0xbe123e7a	-0.14281645
158	0x3bb7a914	0.0056048725
159	0x3de802e6	0.11328678
160	0x3de31043	0.11087086
161	0xbdf39e64	-0.11895445
162	0xbd6586b3	-0.056036662
163	0x3d8dff79	0.06933493
164	0x3dd453af	0.10367524
165	0x3e1b1c43	0.151475
166	0xbd832bcf	-0.0640484
167	0xbe29322a	-0.16523042
168	0x3cd09551	0.025461825
169	0x3c0836b1	0.008313821
170	0x3dcfd07e	0.101471886
171	0x3e50e195	0.20398553
172	0xbd335f75	-0.043792207
173	0xbd7f8f2f	-0.06239241
174	0xbdbdbf5a	-0.09265013
175	0xbe848e34	-0.25889742
176	0x3e096484	0.1341725
177	0x3ed1071e	0.40825742
178	0x3df8809d	0.12133906
179	0x3d7fc614	0.06244476
180	0x3e7482a0	0.23877954
181	0xbe0f5e6e	-0.14000866
182	0xbd1b310c	-0.03788857
183	0x3bec3fad	0.007209739
184	0x3be3b51d	0.0069490806
185	0x3da93966	0.08262901
186	0xbe9dce5b	-0.308215
187	0xbe816214	-0.2527014
188	0x3d6695a4	0.056295052
189	0x3e214e6d	0.15752573
190	0x3d9a95c2	0.07548095
191	0xbd5508e2	-0.052010424
192	0x3e20e154	0.15710956
193	0x3e247fe0	0.16064405
194	0xbe6dc556	-0.23219809
195	0x3cc2cbcd	0.02377882
196	0x3e8288dd	0.25495043
197	0xbec1b5ce	-0.37834018
198	0x3d0e4896	0.034737192
199	0x3e52220b	0.20520799
200	0x3c4d20b7	0.012520007
201	0x3e34574e	0.17611429
202	0x3dfe4cb1	0.124169715
203	0xbd5fbd3a	-0.05462382
204	0xbe61f88e	-0.22067472
205	0xbe29e3a7	-0.16590749
206	0x3d447d0d	0.04797082
207	0xbe27a492	-0.16371372
208	0xbd253274	-0.04033132
209	0xbe0c55d9	-0.13704623
210	0x3d9f92f2	0.077916995
211	0xbde58ec5	-0.11208872
212	0x3d90589a	0.070481494
213	0xbdf5defc	-0.120054215
214	0x3ec5e307	0.3864977
215	0x3cd0b88b	0.025478622
216	0xbd9e187e	-0.07719515
217	0xbda96e8b	-0.082730375
218	0xbd869333	-0.06571045
219	0x3cd6fe82	0.026244406
220	0xbed7c64b	-0.42143473
221	0xbdce56c6	-0.100751445
222	0x3d2276d3	0.0396641
223	0xbd9deb46	-0.077108905
224	0xbd681178	-0.056657284
225	0xbdc8be10	-0.098018765
226	0x3e0ee959	0.13956203
227	0x3d8efbb9	0.06981606
228	0xbe01611a	-0.12634698
229	0xbdab3843	-0.083603404
230	0x3d94769f	0.07249188
231	0xbd352761	-0.044227008
232	0xbe366ac9	-0.17814173
233	0x3bc8a545	0.0061232173
234	0xbd85e773	-0.06538286
235	0xbebb2975	-0.36555067
236	0xbe030aad	-0.12797041
237	0x3ec74ea6	0.38927191
238	0x3d156c2f	0.036480125
239	0xbc9f579d	-0.019450957
240	0x3e17eceb	0.14836471
241	0xbdaa0d48	-0.083033144
242	0xbe13146b	-0.14363258
243	0xbc87b3eb	-0.016565284
244	0xbda3222a	-0.07965501
245	0x3eb3ee6a	0.35142833
246	0xbe1fa3d3	-0.15589838
247	0xbe16d97d	-0.14731403
248	0xbd84de1a	-0.06487675
249	0x3e0326c9	0.12807764
250	0x3f2b5445	0.6692546
251	0x3d7970d3	0.060898613
252	0xbe0581a3	-0.13037734
253	0x3e72d070	0.23712325
254	0x3b4863d8	0.003057709
255	0x3c70b120	0.014690667

model.backbone.layers.0.channel.0.bias f4 [32]
0	0xbea5390a	-0.3227008
1	0xbee77a06	-0.45210284
2	0xbdb4ecc5	-0.08834223
3	0xbe63ad9b	-0.22234194
4	0xbe9cd0ab	-0.3062795
5	0xbea065fe	-0.31327814
6	0xbd4fb4d3	-0.050709557
7	0xbe787ea2	-0.24267057
8	0xbe929189	-0.2862666
9	0xbeade9a8	-0.33967328
10	0xbe47e09c	-0.19519275
11	0xbf021f7c	-0.5082929
12	0xbe605001	-0.21905519
13	0xbe87a971	-0.2649646
14	0xbec77629	-0.38957337
15	0xbdfb5f7b	-0.12274071
16	0xbebc9076	-0.36828965
17	0xbee23ebf	-0.44188496
18	0xbe1438a9	-0.14474739
19	0xbe96043b	-0.29300103
20	0xbd2c198b	-0.042016547
21	0xbe80e887	-0.25177404
22	0xbe9e31a3	-0.30897245
23	0xbf07ac4c	-0.5299728
24	0xbe4a9980	-0.19785118
25	0xbed09c73	-0.4074436
26	0xbc69f7bd	-0.014280257
27	0xbe78b21a	-0.2428669
28	0xbf20d7a4	-0.6282904
29	0xbd9c49d7	-0.07631271
30	0xbe1a182a	-0.1504828
31	0xbe8e3a7f	-0.27779004

model.backbone.layers.0.channel.2.weight f4 [74, 32]
0	0xbd650a3e	-0.05591797
1	0x3e17d87a	0.14828673
2	0x3e2bd82e	0.16781685
3	0x3df5360c	0.11973199
4	0xbda7a935	-0.081865706
5	0x3e8614b3	0.26187667
6	0xbda47d3d	-0.080317
7	0xbc503ace	-0.012709333
8	0x3d946b90	0.072470784
9	0xbeeac144	-0.45850575
10	0xbe25c505	-0.16188438
11	0x3ef24a1a	0.4732216
12	0xbe8a86cd	-0.2705597
13	0xbc41e834	-0.011835147
14	0xbdedde24	-0.116146356
15	0x3e0a87c1	0.13528349
16	0x3da1aec4	0.07894662
17	0x3d85640c	0.06513223
18	0x3e9c2ee2	0.3050452
19	0xbe07a3db	-0.132461
20	0x3eef2060	0.46704388
21	0x3da8d9f9	0.082447
22	0xbe0ea15e	-0.13928744
23	0x3ec81f8d	0.3908657
24	0x3ca63b9f	0.020292101
25	0xbeea3692	-0.4574476
26	0x3d659417	0.056049433
27	0xbef98a1a	-0.48738176
28	0xbe8e9257	-0.27846023
29	0x3e47707a	0.194765
30	0xbe07a3f2	-0.13246134
31	0xbe93a761	-0.28838637
32	0x3ce6009b	0.02807646
33	0x3db503af	0.08838593
34	0x3e24d20b	0.1609575
35	0xbe0ebddd	-0.13939615
36	0x3dad8424	0.084724694
37	0x3e055955	0.13022359
38	0xbdd36ddb	-0.10323688
39	0x3e18ea53	0.14933138
40	0xbe3aafa6	-0.18231067
41	0xbe382bfb	-0.17985527
42	0xbe4cf5c3	-0.20015626
43	0xbd8526a3	-0.0650151
44	0x3e32c976	0.17459664
45	0xbe3cbbf5	-0.18431075
46	0x3e6fcea1	0.23418666
47	0xbdac2e76	-0.08407299
48	0xbcdcdfd5	-0.0269622
49	0x3db1c01b	0.08679219
50	0x3db99a85	0.090626754
51	0x3d272101	0.04080296
52	0x3e4ea041	0.2017832
53	0xbd8b9b9e	-0.06816791
54	0xbdd2438f	-0.10266792
55	0x3e0303f1	0.12794472
56	0x3e8c98ac	0.2746023
57	0xbd9aa94e	-0.075518236
58	0x3dc47cca	0.09594114
59	0xbe0d0242	-0.13770393
60	0x3e49c99d	0.19705816
61	0x3da759d0	0.08171427
62	0x3de22a8f	0.11043274
63	0xbe026183	-0.1273251
64	0x3d264248	0.040590554
65	0xbead1f10	-0.3381276
66	0x3e2e1c91	0.17003085
67	0x3e2046ba	0.1565198
68	0xbb8f797a	-0.004378495
69	0xbe3920ca	-0.18078914
70	0xbd732cc6	-0.05936887
71	0x3e258304	0.1616326
72	0x3d416d0a	0.04722313
73	0xbe63380b	-0.22189347
74	0xbe896ecc	-0.26842344
75	0xbe28f095	-0.16498025
76	0xbd503699	-0.05083332
77	0x3da390be	0.07986592
78	0xbe4dcafd	-0.20096965
79	0x3d5c16e8	0.053732783
80	0x3e878c29	0.2647412
81	0xbdc01c25	-0.09380368
82	0x3c2a5a6a	0.010397533
83	0x3dba4b82	0.09096433
84	0x3f0e5ee4	0.5561354
85	0xbcd192d2	-0.025582705
86	0xbe39577a	-0.18099776
87	0x3dff24fa	0.124582246
88	0x3d03b148	0.03215149
89	0xbeb9c9df	-0.36286828
90	0xbc39fe9e	-0.011352209
91	0x3e0ca8de	0.13736293
92	0x3d66bb39	0.056330893
93	0x3e6b0306	0.22950372
94	0xbe1b2b1a	-0.1515316
95	0x3dd0927f	0.10184192
96	0x3dbf1f24	0.093321115
97	0x3d905415	0.070472874
98	0x3d563479	0.052296136
99	0x3d0290b5	0.031876285
100	0xbde228a5	-0.110429086
101	0x3afc335e	0.0019241383
102	0xbd054686	-0.03253796
103	0x3793fd77	1.7641794e-05
104	0x3d90db97	0.070731334
105	0x3d18bed9	0.03729138
106	0xbbbf297d	-0.005833803
107	0xbd8d7434	-0.069069296
108	0x3d814519	0.063120075
109	0x3d0862fc	0.033297524
110	0xbca88d58	-0.02057521
111	0xbcbf74a3	-0.023371046
112	0xbc3deabc	-0.01159161
113	0xbb36dbba	-0.0027901963
114	0xbdea73cf	-0.1144787
115	0x3d277127	0.040879395
116	0xbd7d542c	-0.06184785
117	0xbcb07c6c	-0.021543704
118	0x3d428888	0.047493488
119	0xbc9901e1	-0.018677654
120	0x3cab5427	0.02091415
121	0x3d09f681	0.03368235
122	0x3d0b7819	0.03405008
123	0xbbaae77d	-0.005215584
124	0x3d1bbfbf	0.03802466
125	0x3b9fe7ee	0.004879943
126	0xbcb80f31	-0.022468181
127	0xbb9f4e01	-0.0048615937
128	0x3e1c7355	0.1527837
129	0x3d365ad7	0.044520225
130	0xbcba6f30	-0.022758096
131	0x3cbeab2e	0.023274984
132	0xbdc812d2	-0.09769215
133	0x3e25f73d	0.16207595
134	0xbd2e1b92	-0.04250676
135	0xbed5a752	-0.41729218
136	0xbe1670fe	-0.1469154
137	0xbd5c53a6	-0.05379071
138	0xbd4153a8	-0.04719892
139	0xbe14a79f	-0.14517067
140	0x3ca9fff7	0.020751936
141	0xbdc3da82	-0.095631614
142	0x3e2e025a	0.16993085
143	0x3dd721ce	0.105044946
144	0x3e14858c	0.14504069
145	0xbd018178	-0.03161761
146	0xbdbb0951	-0.09132636
147	0x3c47870d	0.012178195
148	0xbe070aa2	-0.1318765
149	0xbdfd593c	-0.12370536
150	0xbe80dd55	-0.25168863
151	0x3d5c7760	0.053824782
152	0x3e28f777	0.1650065
153	0xbe48d186	-0.19611177
154	0xbd7c26b6	-0.061560355
155	0xbe718d25	-0.23588999
156	0xbdc373cc	-0.09543571
157	0xbd3cd8a3	-0.04610504
158	0x3dcdafb6	0.1004328
159	0x3cbb9ae2	0.022901002
160	0xbe817b58	-0.25289416
161	0x3e179f4f	0.14806865
162	0x3da367b9	0.07978768
163	0x3d4fb765	0.050712008
164	0x3c86e930	0.016468614
165	0xbe7ba9dd	-0.24576516
166	0xbe6c559f	-0.23079537
167	0x3d65e8fa	0.056130387
168	0x3cf9f44d	0.030512
169	0xbdb7a8c0	-0.089677334
170	0xbcbea8d7	-0.023273868
171	0x3d5cf657	0.053945865
172	0xbd192ee3	-0.03739823
173	0xbd374d49	-0.04475144
174	0xbd762d95	-0.060102064
175	0x3da3b9b2	0.07994403
176	0xbe08114a	-0.13287845
177	0xbcdf3133	-0.02724514
178	0xbdb24921	-0.087053545
179	0xbdb8d6d9	-0.09025354
180	0xbdb94e81	-0.090481766
181	0x3e1786ba	0.14797488
182	0xbdb245a6	-0.08704691
183	0x3e0d13d2	0.13777092
184	0xbe9dae97	-0.30797264
185	0xbcbfb4fa	-0.023401726
186	0xbd7bd0eb	-0.061478537
187	0x3eb15681	0.3463631
188	0xbe246ca3	-0.16057067
189	0x3db43212	0.08798613
190	0xbe389f2e	-0.18029472
191	0xbe14a99b	-0.14517824
192	0x3cf4f49a	0.029901791
193	0xbda64b65	-0.08119849
194	0xbce71cfe	-0.028212067
195	0xbd7d6b7c	-0.061870083
196	0x3e0fb4f2	0.14033869
197	0x3da66896	0.08125417
198	0x3ca3e566	0.020006847
199	0x3e01ec60	0.12687826
200	0xbd5de295	-0.054171164
201	0xbd84ff04	-0.06493953
202	0x3dcbd2f2	0.09952344
203	0x3d1dca39	0.038522933
204	0x3e5fbf8a	0.2185041
205	0xbe36618d	-0.1781065
206	0x3e4172e2	0.1889148
207	0x3d15f21a	0.03660784
208	0x3df7bdb9	0.120967336
209	0xbd0b8a74	-0.034067586
210	0x3d0142b1	0.031557743
211	0xbc1e6d4d	-0.009669614
212	0x3e09a21f	0.1344075
213	0xbd19c4b7	-0.037541118
214	0xbe276940	-0.16348743
215	0xbe69e9a4	-0.22843033
216	0xbad000a9	-0.0015869337
217	0xbd679fc6	-0.056548856
218	0x3e3e533f	0.18586443
219	0xbdd6bd30	-0.104853034
220	0x3e01bdd3	0.12670068
221	0x3cf65e36	0.03007422
222	0x3c6512eb	0.013981561
223	0xbd1f04b1	-0.038822833
224	0x3ca1cb0c	0.01975014
225	0xbddeec7c	-0.108849496
226	0x3e1807db	0.14846747
227	0xbe8355f0	-0.25651503
228	0x3e1a50f0	0.15069938
229	0x3e484a3f	0.19559573
230	0xbd25cd07	-0.040478732
231	0x3e9ef4fb	0.3104628
232	0xbd885344	-0.06656507
233	0xbe543feb	-0.20727508
234	0x3de7788d	0.1130229
235	0xbddc1eea	-0.10748084
236	0x3edd98ef	0.43280742
237	0xbe1fae05	-0.15593727
238	0x3e516562	0.2044883
239	0x3c9a6f5a	0.018851925
240	0x3e291b67	0.1651436
241	0xbde776d2	-0.1130196
242	0x3e1065d6	0.14101347
243	0xbe21c803	-0.15798955
244	0xbd1ef7d5	-0.03881057
245	0xbd993a51	-0.07481826
246	0xbea903d3	-0.3301073
247	0x3b4301e8	0.0029755775
248	0xbdc914cc	-0.0981842
249	0xbd39f893	-0.045403074
250	0x3e90bf68	0.2827103
251	0xbd92e6c4	-0.07172921
252	0x3d443e10	0.04791075
253	0x3c942365	0.018083284
254	0xbda29f08	-0.07940489
255	0xbe1bb52d	-0.15205832

model.backbone.layers.0.channel.2.bias f4 [74]
0	0xbe0d55e0	-0.1380229
1	0xbd5028e5	-0.05082025
2	0xbdbabe12	-0.09118284
3	0x3d40ac17	0.047039118
4	0x3e09742c	0.13423222
5	0x3d9e1661	0.07719112
6	0xbe03896a	-0.12845388
7	0xbdcb16f5	-0.09916488
8	0x3c73c9ab	0.014879624
9	0x3d744aa3	0.05964149
10	0x3e2151b0	0.15753818
11	0x3b277782	0.002555341
12	0xbb7e08da	-0.00387626
13	0xbd9d3ddb	-0.076778136
14	0x3c220e3f	0.009891092
15	0xbdbbf84f	-0.091782205
16	0xbdd85dba	-0.10564752
17	0x3d56a755	0.052405674
18	0x3c5e7ddb	0.013579811
19	0xbe2ebf71	-0.17065217
20	0x3cde52ed	0.027139151
21	0x3beb4e13	0.007180938
22	0x3bc3205a	0.0059547843
23	0xbd54b14a	-0.05192689
24	0x3cc2fb5e	0.023801502
25	0xbc1dd915	-0.009634276
26	0x3dc1fbd0	0.094718575
27	0xbd37018d	-0.044679213
28	0xbdbd832a	-0.09253533
29	0x3e4db187	0.20087253
30	0x3ad374df	0.0016132853
31	0x3e0b4dc5	0.13603885
32	0xbd3d039c	-0.04614602
33	0x3d234c0e	0.039867453
34	0xbd0afc29	-0.033931885
35	0x3cf7b4a6	0.030237507
36	0x3e81fd67	0.25388643
37	0xbcf189bc	-0.029484622
38	0xbe44c589	-0.19215979
39	0xbe1bf47d	-0.15229984
40	0x3e2d1517	0.16902576
41	0xbbc64d89	-0.0060517234
42	0x3be7b8e8	0.007071603
43	0x3c5aa352	0.013344603
44	0x3da15550	0.078776
45	0xbd6ca339	-0.05777285
46	0xbd4d5be5	-0.050136466
47	0x3cbae3fb	0.022813788
48	0xbd277b9d	-0.04088937
49	0x3d95b7b1	0.07310427
50	0xbd71217c	-0.058869824
51	0x3dce35a9	0.100688286
52	0x3e88f993	0.2675291
53	0xbdba8ff3	-0.091094874
54	0x3d2d2183	0.042268287
55	0xbd713b77	-0.0588946
56	0x3d0d54bb	0.034504633
57	0x3c282208	0.01026202
58	0xbb064571	-0.0020488168
59	0xbdd036f9	-0.10166735
60	0x3d8e48ab	0.06947454
61	0xbc962dc6	-0.018332373
62	0x3e41b2b5	0.18915828
63	0x3e022e54	0.12712985
64	0xbe3e639c	-0.18592685
65	0x390c70b5	0.00013393427
66	0xbd5ee5a0	-0.054418206
67	0xbd08e891	-0.033424918
68	0x3c8e842d	0.01739701
69	0xbd8f253b	-0.06989523
70	0xba9549e7	-0.0011389822
71	0xbd54c034	-0.05194111
72	0xbb4db936	-0.0031390912
73	0x3e1b675e	0.1517615

model.backbone.layers.1.temporal.0.weight f4 [32, 64]
0	0xbead2e8f	-0.33824584
1	0xbe60c0e7	-0.21948586
2	0xbe46f381	-0.19428827
3	0xbdb1e8e0	-0.086869955
4	0x3d016310	0.031588614
5	0x3d63c0d9	0.055603836
6	0x3dcafeb0	0.09911859
7	0x3e7e5a14	0.2483905
8	0x3df3baff	0.11900901
9	0x3ee076b9	0.43840578
10	0x3d92ad96	0.07162015
11	0xbd5b8d53	-0.053601574
12	0xbebde544	-0.37088978
13	0xbeb46824	-0.35235703
14	0xbe9c5ae0	-0.30538082
15	0xbe42855b	-0.18996184
16	0xbe6696ec	-0.2251851
17	0x3d562a3d	0.052286375
18	0x3e4023f6	0.18763718
19	0x3e5477f8	0.2074889
20	0x3e378d6e	0.17925045
21	0x3e328134	0.174321
22	0x3d3966bb	0.045263987
23	0x3e780189	0.24219336
24	0xbe1266b7	-0.14296995
25	0x3e1ebc2c	0.1550147
26	0xbdadc389	-0.08484561
27	0xbe4aa0e1	-0.19787933
28	0xbe57ce1f	-0.21074723
29	0xbc668294	-0.014069218
30	0x3bd0fce6	0.006377804
31	0x3e56c4e9	0.20973553
32	0x3e470e77	0.19439112
33	0x3e3d5b9b	0.18491976
34	0xbe050f86	-0.12994203
35	0xbdd8e8c9	-0.10591275
36	0xbec5f021	-0.38659766
37	0xbe873385	-0.26406494
38	0xbe1f5bba	-0.15562335
39	0xbe1dda51	-0.15415312
40	0xbddc71d4	-0.107638985
41	0x3d8fe999	0.07026977
42	0x3e8e9f5c	0.27855957
43	0xbd056e8d	-0.032576133
44	0xbcb8fc81	-0.02258134
45	0x3d7c950c	0.06166558
46	0x3b781d13	0.0037859126
47	0xbd9aca54	-0.07558122
48	0x3d506a1d	0.050882448
49	0xbc3de4e4	-0.011590216
50	0x3e1c350b	0.1525461
51	0x3e2f6759	0.17129268
52	0x3d89c0c4	0.0672622
53	0x3c91c075	0.017791966
54	0x3e79ecfe	0.24406812
55	0x3e789089	0.24273886
56	0x3e50cb9a	0.20390168
57	0xbc56ebd6	-0.013117751
58	0x3df20815	0.11817948
59	0xbdb0970b	-0.08622559
60	0x3caca244	0.021073468
61	0xbc3f73d4	-0.01168533
62	0xbdca2958	-0.09871167
63	0xbd33bfd3	-0.04388411
64	0xbe1d4ba2	-0.15360883
65	0xbd2c5e33	-0.042082023
66	0xbdaddf4f	-0.08489858
67	0x3e00fe67	0.12597047
68	0x3e0acd03	0.13554768
69	0x3bc71318	0.006075274
70	0x3d8bf856	0.06834476
71	0xbe1c4ecf	-0.15264438
72	0xbd61f700	-0.0551672
73	0x3e341aa1	0.17588283
74	0xbc068979	-0.008211487
75	0xbce826fe	-0.028338905
76	0xbda4f53a	-0.08054586
77	0xb9e21865	-0.00043124254
78	0x3c132f59	0.0089834565
79	0xbe869257	-0.26283523
80	0xbea33bbb	-0.31881508
81	0x3ce2c5c8	0.0276822
82	0x3d5558b7	0.05208656
83	0xbe08abe7	-0.13346826
84	0xbdb81422	-0.08988215
85	0xbd239f46	-0.039946817
86	0xbdb3c544	-0.0877786
87	0xbde1b63e	-0.11021088
88	0x3df1db37	0.1180939
89	0xbc6011e7	-0.013676143
90	0xbd176952	-0.036965676
91	0x3d86b763	0.06577947
92	0x3e021dbb	0.12706654
93	0x3eb489b8	0.3526132
94	0x3ee393cf	0.44448707
95	0x3eb6ba89	0.3568919
96	0x3e3830d5	0.17987378
97	0x3e2764a5	0.16346987
98	0x3daab7d2	0.08335842
99	0xbdb4790f	-0.088121526
100	0xbd3f4f42	-0.046706446
101	0xbe8ca04b	-0.27466044
102	0xbe8b7e59	-0.27244833
103	0xbe79d354	-0.24397022
104	0xbe0c7abe	-0.13718697
105	0x3e3a5c05	0.18199165
106	0x3e804f0e	0.25060314
107	0x3e3032da	0.17206898
108	0x3e68e185	0.22742279
109	0x3e97c33e	0.29641145
110	0xbcf08372	-0.029359553
111	0x3b91dac1	0.0044511263
112	0xbc97c24e	-0.018525269
113	0xbe834d9e	-0.25645155
114	0xbe09f29c	-0.13471454
115	0xbe1f4836	-0.1555489
116	0xbe562b41	-0.20914938
117	0xbda80890	-0.08204758
118	0xbc4f887d	-0.012666819
119	0xbc11ffd1	-0.008911089
120	0xbda9707a	-0.08273406
121	0x3d2bdebd	0.041960467
122	0xbe785c0d	-0.24253865
123	0xbd044175	-0.032288987
124	0x3dedef39	0.11617894
125	0x3e7a27be	0.24429223
126	0x3e492486	0.19642839
127	0xbe8454a7	-0.25845835
128	0x3d193e6c	0.037413046
129	0x3dd29b26	0.102834985
130	0x3e825cdf	0.2546148
131	0x3e36538f	0.17805313
132	0x3e0688bb	0.13138096
133	0x3e8641c8	0.26222062
134	0x3ea69b23	0.32540235
135	0x3e2ea368	0.17054522
136	0x3c8d4c6a	0.017248351
137	0x3d8873c8	0.066627085
138	0xbdc65b90	-0.09685433
139	0x3dff07ac	0.12452635
140	0xbddd8aaf	-0.108174674
141	0xbddf475a	-0.10902281
142	0xbe32d791	-0.17465045
143	0xbe31c842	-0.17361549
144	0xbd94c4e6	-0.07264118
145	0x3d2211d1	0.039567772
146	0xbd76fe47	-0.06030109
147	0xbd4fd50e	-0.050740294
148	0x3dc1d5ca	0.09464605
149	0xbce91c06	-0.028455745
150	0xbdeda461	-0.116036184
151	0xbe9ee7c5	-0.310362
152	0xbe3d171e	-0.1846585
153	0xbd1913fa	-0.037372567
154	0xbad3fcba	-0.0016173341
155	0xbe116e47	-0.14202224
156	0xbd88106a	-0.06643756
157	0xbcdfc7ac	-0.02731689
158	0xbbf0355f	-0.007330581
159	0x3d68963e	0.056783907
160	0xbe0e16ed	-0.13875933
161	0xba186b75	-0.0005814352
162	0xbdabb552	-0.083841935
163	0xbea2a892	-0.31769234
164	0xbd421bb1	-0.04738969
165	0x3e02c0f7	0.12768923
166	0x3eba30d1	0.3636537
167	0x3d8925c7	0.066966586
168	0xbdc92bac	-0.09822783
169	0xbe87089c	-0.26373756
170	0xbba1ab0e	-0.0049337214
171	0x3e2bb35d	0.1676764
172	0x3dec8413	0.11548629
173	0x3dd26172	0.102724925
174	0xbd7248a5	-0.05915131
175	0x3e2ed397	0.17072903
176	0x3d502c58	0.05082354
177	0x3d8589ac	0.065203995
178	0xbe308b8f	-0.17240737
179	0xbe07734e	-0.13227579
180	0xbe755bd1	-0.23960806
181	0xbe11e0cf	-0.14245914
182	0xbcaedb5a	-0.02134483
183	0xbd678dac	-0.056531593
184	0x3dfd2285	0.123601
185	0xbcb02a0b	-0.021504423
186	0x3e958d1e	0.29209226
187	0x3e8cdafe	0.27510828
188	0x3e3a7c44	0.18211466
189	0xbd0936ea	-0.033499636
190	0xbe23d162	-0.15997842
191	0xbdec5572	-0.11539735
192	0xbe16a9ab	-0.1471316
193	0x3d180f38	0.03712389
194	0xbe49c29f	-0.19703148
195	0xbd816d85	-0.06319717
196	0xbe025ccd	-0.12730713
197	0xbcb7eefe	-0.022452828
198	0xbe39525c	-0.18097824
199	0x3d9576c5	0.07298044
200	0xbc228da6	-0.009921467
201	0xba8108be	-0.0009844524
202	0x3d1a4aca	0.03766898
203	0xbc4fb3b9	-0.012677127
204	0xbe226e72	-0.15862444
205	0xbe1ff21b	-0.156197
206	0xbe880cd5	-0.2657229
207	0xbe694d00	-0.2278328
208	0x3d975568	0.07389337
209	0x3e0ab47f	0.13545416
210	0xbd7c7797	-0.061637487
211	0xba258600	-0.0006314218
212	0xbddc5226	-0.10757856
213	0x3b9f9612	0.0048701847
214	0x3e0c0d48	0.13676941
215	0x3d4b80ab	0.049683254
216	0xbd0da744	-0.034583345
217	0x3dc3aeb8	0.09554809
218	0x3ea2988b	0.31757006
219	0x3dc9a886	0.098465964
220	0x3e3a189d	0.18173452
221	0x3e1e19f1	0.15439583
222	0x3dce8bcf	0.1008526
223	0xbd3033a1	-0.043017987
224	0xbe01af56	-0.12664542
225	0x3db5a46e	0.08869253
226	0xbbad2eb0	-0.0052851066
227	0xbc1631f2	-0.009167181
228	0xbe48339d	-0.19550939
229	0xbe2b4f53	-0.16729479
230	0x3e0c26ca	0.13686672
231	0x3cbf6186	0.023361932
232	0xbe518b45	-0.20463283
233	0xbe8010bd	-0.2501277
234	0xbe18371d	-0.14864774
235	0xbe5ba569	-0.21449818
236	0xbcf6ac59	-0.030111479
237	0xbd781106	-0.06056311
238	0xbe908cf6	-0.28232545
239	0xbe56084a	-0.209016
240	0xbe6e5a99	-0.23276748
241	0xbe4c0b7a	-0.19926253
242	0xbdf0208e	-0.11724959
243	0xbb63b3c5	-0.0034744602
244	0xbd5f4bdb	-0.0545157
245	0xbdbccb1d	-0.09218428
246	0x3c559296	0.013035437
247	0x3e6155a3	0.22005324
248	0x3e6387cc	0.22219771
249	0x3d6f97ae	0.058494262
250	0x3d9daeba	0.07699342
251	0xbd9986dc	-0.074964255
252	0x3d6894f9	0.056782696
253	0xbcb7fbc3	-0.022458917
254	0xbe21c068	-0.15796053
255	0x3e15537f	0.14582632

model.backbone.layers.1.temporal.0.bias f4 [32]
0	0xbede55fb	-0.43424973
1	0xbebc3771	-0.36761048
2	0xbf3217f3	-0.69567794
3	0xbebd0dc4	-0.36924565
4	0xbf045c1b	-0.5170304
5	0xbf438566	-0.76375425
6	0xbefcfb37	-0.49410412
7	0x3d015b6b	0.031581324
8	0xbe807c07	-0.25094625
9	0xbefa0b55	-0.4883677
10	0xbf0d6a3a	-0.55240214
11	0xbee8d87d	-0.45477667
12	0xbe9691ca	-0.29408103
13	0xbf039f70	-0.5141516
14	0xbe9592e0	-0.2921362
15	0xbe108c89	-0.1411611
16	0xbe9414f2	-0.2892223
17	0xbec98141	-0.39356425
18	0xbe97d353	-0.29653415
19	0xbf165e97	-0.5873808
20	0xbf47c971	-0.7804175
21	0xbe8158dd	-0.2526311
22	0xbf182ca4	-0.59443116
23	0xbe1c3c6b	-0.15257423
24	0xbea67d63	-0.32517537
25	0xbf4af747	-0.79283565
26	0xbeff836b	-0.4990495
27	0xbf47c8de	-0.78040874
28	0xbed4bdb5	-0.41550985
29	0xbf3aef69	-0.7302156
30	0xbe8f212c	-0.27954996
31	0xbf693284	-0.91092706
