experiments/AdversarialDomainAdaptation/saved_models/tsmixer_da_pretrained_2.pt (torch, 731036 bytes, 30 tensors)

model.backbone.static_proj.weight f4 [64, 10]
000000 9e ad cc bc 00 56 f5 3d 23 54 5f 3e 95 55 d3 bc
       -0.02498513 0.11979294 0.2180944 -0.025797645
000010 61 28 07 3e 76 34 a2 3d 23 cc 47 bd 76 33 c1 bd
       0.13198997 0.079201624 -0.048778664 -0.094336435
000020 9a 8a 2d 3e 06 96 a8 3d 83 ce 0d 3d df 7e 64 3c
       0.16947404 0.0823174 0.034620773 0.013946264
000030 fe b7 d8 3d d8 46 f5 bd c8 e3 51 3e 2d 82 02 be
       0.10581969 -0.11976403 0.20497048 -0.1274497
000040 2f 60 71 3d 99 e4 d8 3d 87 08 4e 3e 2b b3 3a be
       0.05892962 0.105904765 0.2012044 -0.1823241
000050 00 af 3f 3e 43 44 97 bd b2 b8 2b 3e bf b9 50 bd
       0.18719101 -0.07386067 0.16769674 -0.05095839
000060 29 ef d7 3d c8 92 0e bc 5b cb 46 be 52 3b 08 3e
       0.10543663 -0.008701988 -0.19413511 0.13303879
000070 c9 f4 27 3e 3c 72 94 bb ef 9f d9 bd ef 6a e4 3d
       0.16401972 -0.0045302194 -0.10626208 0.111532085
000080 21 cf 0d bd 46 14 fe 3c 4f 23 31 3e 80 bd ed bd
       -0.03462136 0.031015527 0.17298625 -0.1160841
000090 f0 19 0e 3e c6 f3 1c bd 90 4a 34 3d 98 53 0d be
       0.13877082 -0.038318418 0.04401642 -0.1380142
0000a0 07 0a 4e be 7e ae e8 3d 4c 93 39 bd b1 93 8a be
       -0.20121013 0.11361407 -0.04530649 -0.27065805
0000b0 b6 15 81 bd d9 26 88 be e1 5a 04 3e c7 88 2a bd
       -0.06302969 -0.26592138 0.12925293 -0.041634347
0000c0 43 1c fe bd f9 af 8f 3d cf c5 ef bd af ce 83 3d
       -0.12407734 0.07015986 -0.11707651 0.06435906
0000d0 89 2a a5 3e 3d 94 92 be 4c 04 44 be dd 8d 19 3e
       0.32259014 -0.28628722 -0.19142264 0.14995523
0000e0 fd ff 23 be ea a8 44 3c 54 50 1f 3e 24 80 8b bd
       -0.1601562 0.012003163 0.15557986 -0.0681155
0000f0 9b ab e4 bc 55 5f 86 3d 42 cd 6e 3d 85 06 3a 3e
       -0.02791386 0.06561152 0.058301218 0.1816655
000100 f9 5d 85 3e 6e 24 10 bd c0 e9 fb 3d ee a5 21 bd
       0.26048258 -0.035190992 0.12300444 -0.039464884
000110 b6 22 71 3d af f2 fe bd 7a 23 89 3d bc ea c5 3d
       0.058870994 -0.12448632 0.0669622 0.09663913
000120 c7 6e db be 4e 45 0a 3e ee 2a ff 3d 79 2a c4 3a
       -0.42857954 0.13503 0.1245936 0.0014966271
000130 f5 fe 90 be 18 7d 5d 3e 68 a5 93 be aa d7 ef 3c
       -0.28319517 0.2162975 -0.28837132 0.029277641
000140 86 47 0f be a6 fc 2b bc c3 fc c6 3d c2 82 99 3e
       -0.13992128 -0.010497248 0.09716179 0.29982573
000150 71 3e bf 3e 9f 00 c3 3d 44 c6 34 3e e0 e0 e3 3d
       0.37352327 0.09521603 0.17653757 0.11126876
000160 74 f3 51 3d 91 e9 20 be 78 4a 73 3d b0 12 cd bd
       0.051257566 -0.15714099 0.05939719 -0.1001333
000170 45 13 95 bd fb a9 18 bd 48 d5 47 be 08 68 1d bc
       -0.07279066 -0.03727148 -0.19514954 -0.0096073225
000180 6f 5b e5 bc 12 aa c6 3d 5b f1 1d be 78 9e c8 bd
       -0.0279977 0.09700407 -0.15424101 -0.097958505
000190 eb b6 35 3e ae de 9c 3b b3 c7 8d bd 23 fc 0a 3e
       0.17745559 0.0047872877 -0.06922855 0.13572745
0001a0 f0 fc 8e 3e 96 63 94 bd 2f 45 cf bd ee 7a c9 3c
       0.2792735 -0.07245557 -0.101206176 0.02459475
0001b0 15 19 20 3e 0f a6 3e be 11 2e c0 bd 08 29 ad 3d
       0.15634568 -0.18618034 -0.093837865 0.08455092
0001c0 07 cf 3a 3d 4d a3 b6 3e c1 bd 44 be 5c 48 50 be
       0.045607593 0.35671464 -0.1921301 -0.20340103
0001d0 58 16 83 3e a0 5e 42 be ab 06 f9 bb 20 9c 97 3e
       0.25602984 -0.18981409 -0.007599672 0.296113
0001e0 45 9e 49 3d 91 db 9c 3d a5 38 92 be 00 0e 3e 3e
       0.049223203 0.076590665 -0.2855884 0.18560028
0001f0 9c cf 9d 3d 86 db 28 bd 56 c7 32 bd a3 01 af 3d
       0.07705614 -0.04122498 -0.043647133 0.08545234
000200 01 c2 20 be 3a 23 c7 3d 8a dc 08 be e6 9d 02 be
       -0.15699007 0.09723516 -0.13365379 -0.12755546
000210 1d 0c 94 3e 62 1f 33 bd 9f 74 90 bd 92 0f 61 3e
       0.28915492 -0.0437311 -0.07053494 0.21978596
000220 e1 ed 44 3e ca e4 33 be 88 4a dc bd d4 7b a7 bd
       0.19231369 -0.17567745 -0.10756403 -0.08177915
000230 74 0f b5 38 67 9f 59 bd 59 3a 8f 3e 37 3a 6a be
       8.633631e-05 -0.053130534 0.27974203 -0.2287377
000240 17 de 10 3e a0 20 82 be 9f 81 0b be 5f 99 33 bd
       0.1414722 -0.25415516 -0.13623665 -0.043847438
000250 8e 49 83 3d 85 75 4c 3e 70 5e c9 bd 33 ff 78 3b
       0.06410514 0.19966705 -0.09832466 0.0037993907
000260 91 70 5d 3d 99 68 17 be 54 e8 5a 3e 59 1e 21 be
       0.05406243 -0.14785995 0.21377689 -0.15734233
000270 7d 3d 39 bc 2c fa 40 be 94 37 d2 3d ec 32 59 3d
       -0.011306164 -0.18845433 0.10264507 0.05302708
000280 55 d9 8d 3d a8 64 bf 39 fb 1d 4c 3e b0 2d 90 3b
       0.069262184 0.00036505354 0.19933312 0.0043999776
000290 4f 23 45 be 7d be 0c 3d 9f ce 73 3d 60 45 0a bd
       -0.1925175 0.03436135 0.05952322 -0.033757567
0002a0 ce 72 13 3e 52 08 55 3d 45 67 c8 3d 94 fd 11 bd
       0.14399263 0.052009888 0.09785322 -0.03564222
0002b0 04 5c 16 3e 47 9a af bc ae 88 1c bc 46 f1 f4 3d
       0.14683539 -0.02143587 -0.009554071 0.11960082
0002c0 ad 4e 23 be d3 2b 1b 3d 4b e6 17 3e ff df 71 be
       -0.15947981 0.03788359 0.14833944 -0.23620604
0002d0 e4 46 53 bc ae 13 99 bd 4e 86 5e 3d 8c ed 5f 3e
       -0.01289532 -0.07474457 0.0543273 0.2186796
0002e0 04 d0 4b 3e 16 16 0b 3e 8a f0 a2 bc 65 90 90 3d
       0.1990357 0.13582644 -0.019890089 0.07058791
0002f0 cc c5 31 be 4d 07 45 3e dd 73 60 be 0f 10 04 bd
       -0.1736061 0.19241066 -0.21919198 -0.032241877
000300 e3 3c 6c 3c 6e 34 9d bd e6 0d ba bd 9f 82 3e bd
       0.014418813 -0.07676016 -0.09084682 -0.04651129
000310 cd de 39 3e 26 aa a7 bd 8c 87 99 3c cb 88 ea bd
       0.18151398 -0.0818675 0.018741392 -0.114518724
000320 24 8e 2a ba c1 f0 31 3c cd 16 d8 bd f6 da 1f bd
       -0.0006506166 0.010860623 -0.10551224 -0.039027177
000330 e2 f6 b2 3d 6a d1 b2 3d 7d bf 54 bd 62 eb 89 3d
       0.087384954 0.08731349 -0.05194043 0.06734349
000340 4f 98 a8 bb 10 13 32 be 2e d9 bd bc 67 fc 3e bd
       -0.0051451097 -0.17390084 -0.023174848 -0.04662743
000350 86 c7 56 3e 4f b0 9e 3c 18 52 0e 3d 84 bb cc bc
       0.2097455 0.01937118 0.03474626 -0.024991758
000360 ff a1 1c 3d cc 72 db bc 7e 7c 08 3e cd be c7 3c
       0.03824043 -0.026788138 0.1332874 0.024382973
000370 ef 73 3d 3b f2 14 b4 bd 81 4d e6 3d 26 ca 33 be
       0.0028908213 -0.087930575 0.112452514 -0.17557582
000380 d8 e0 1e 3e d5 40 52 be 4c fe e9 bd 22 a2 8f 3d
       0.15515459 -0.20532544 -0.114254564 0.07013346
000390 0e b2 35 3d 7f 58 18 be 18 17 ff bc fb c5 99 bc
       0.04435926 -0.14877509 -0.031138942 -0.018771162
0003a0 e3 71 f5 be 68 a4 83 bd b9 c0 4d 3d 8b 21 8d be
       -0.4793845 -0.064278424 0.050232623 -0.27564654
0003b0 97 fc 57 3d 7a 5f a3 3d d5 eb db bd 56 eb 61 be
       0.052731123 0.07977195 -0.10738341 -0.2206243
0003c0 8a 27 9e bd a5 c5 02 3d ad 1d fc 3d ec 15 01 3e
       -0.07722385 0.03192677 0.12310348 0.12606019
0003d0 9c 60 3a 3d 7c 0d 10 be b5 b3 63 3e 63 e0 0c be
       0.04550229 -0.14067644 0.22236522 -0.13757472
0003e0 7b 6b dc bc 9b f5 3f 3e 86 41 90 3d 92 40 13 bd
       -0.02690672 0.18746035 0.070437476 -0.03595025
0003f0 f6 42 62 3e 95 24 00 be 40 0a a1 be b8 62 74 3e
       0.22095856 -0.12513955 -0.31453133 0.23865783

model.backbone.static_proj.bias f4 [64]
000000 92 08 bf 3b fc 12 d5 3d e8 eb a3 be f8 3d a5 bd
       0.005829879 0.104040116 -0.3201592 -0.0806846
000010 60 74 42 bd 1f c3 eb 3d 3f 8d 69 3d 69 67 ca bd
       -0.047474265 0.11511826 0.05701947 -0.09883005
000020 95 97 89 be 86 56 29 3e df 8a 7a 3d 92 8c 2e be
       -0.2687346 0.16536912 0.061167594 -0.17045811
000030 ea a6 59 bd e6 bd a7 bd 99 6d 80 3d f5 40 78 bd
       -0.053137697 -0.08190517 0.06270904 -0.060608823
000040 d4 38 df 3e 96 88 8b bc 76 a2 a0 3d 8f 0f 9c bd
       0.43598044 -0.017032903 0.07843487 -0.07620155
000050 09 dc 83 3c 90 7a c5 3d d0 7d f8 3d a1 d4 6f bd
       0.016096132 0.096425176 0.12133372 -0.058552388
000060 c4 92 45 39 31 41 69 bd 6b 5f b9 3d 67 08 ed bb
       0.00018842058 -0.056946937 0.09051403 -0.0072336677
000070 08 1e a9 be eb 0d fd bc ab 8f 39 3e 27 48 ab be
       -0.33030725 -0.030890426 0.18121211 -0.33453485
000080 25 7d ff 3d 2f 6f 0e be d3 e2 ab bd 34 7e 0b be
       0.12475041 -0.139096 -0.08392873 -0.13622361
000090 a1 87 1a 3e d5 78 91 3d aa 6f bb bd cb ad b8 3a
       0.15090801 0.07103125 -0.091521576 0.001408988
0000a0 94 ca 5c 3e 00 ce d6 bd 6f 9b 61 bc 1d d1 58 3d
       0.21561652 -0.1048851 -0.013769968 0.0529338
0000b0 61 85 e1 bc c3 f1 f1 bb ad cd 25 be b3 db a7 3c
       -0.02752942 -0.0073835566 -0.1619174 0.020490503
0000c0 ee c2 f5 bd 08 7d 1b bd 38 a0 29 be 66 26 ef 3d
       -0.120000705 -0.037961036 -0.16565025 0.11677246
0000d0 a0 9a ae 3d 86 22 c4 3a 20 22 2d 3e a7 39 93 bd
       0.08525586 0.0014963902 0.16907549 -0.07188731
0000e0 cc c8 34 bc a8 f1 98 bd cd 1e 12 bd da 9b 87 3e
       -0.011034202 -0.07467967 -0.035673905 0.26486093
0000f0 6b 84 17 3c 25 d1 b7 3d c6 3b 4f 3d 1a 82 82 3e
       0.0092478795 0.08975438 0.050594114 0.25489885

model.backbone.layers.0.temporal.0.weight f4 [32, 64]
000000 fa c2 e0 bc 7b 95 5d bd 6c 6a 46 3d 00 ff 8c bd
       -0.027436722 -0.054097634 0.048441336 -0.06884575
000010 ed f5 9b 3d 16 40 42 3d b9 b5 31 3d 64 62 4b 3e
       0.07615266 0.0474244 0.043386195 0.19861752
000020 90 27 c3 3d b1 a9 5c 3e 97 a8 fd 3d ee 4d dd 3b
       0.0952903 0.21549107 0.123856716 0.0067536747
000030 7a 44 3a bd 20 2b 3b 3d e0 26 1e bc b3 6d 37 3d
       -0.04547546 0.045695424 -0.009652823 0.04478235
000040 09 9a 14 3e 5b 87 cd bd 29 34 c3 bc 1d 0c 7b bd
       0.14511885 -0.10035583 -0.023828583 -0.06129085
000050 f0 53 e3 3c 4c 41 00 3d cc 63 8d 3d d6 ff 29 bc
       0.027749985 0.031312272 0.069038 -0.010375937
000060 47 54 4f 3e ee e4 a3 3e 43 c5 4d 3e 65 a7 09 3e
       0.20246993 0.32010597 0.2009478 0.13442762
000070 82 69 aa 3c 22 29 a9 3d ed e4 93 bd 4e 5a 07 be
       0.020802263 0.082597986 -0.072213985 -0.13218042
000080 c9 b5 81 be 99 1d 0b be 22 cd 8a bd c3 35 2f bd
       -0.25334004 -0.1358551 -0.06777407 -0.04277588
000090 f3 6e 70 be cb 82 29 be 58 19 87 be de 40 56 be
       -0.23479824 -0.165538 -0.26386523 -0.20923182
0000a0 4d 46 b2 bd 02 2e 0b be af 7f 58 bd 26 9f 63 bd
       -0.08704815 -0.1359177 -0.052856144 -0.055571698
0000b0 ce 59 c2 bc c4 dd 17 3d f7 09 37 3d 0f a7 7c 3d
       -0.023724463 0.037076727 0.044687238 0.061682757
0000c0 7a 4a 55 3c c3 76 98 bb e2 af 29 3e a5 35 34 bc
       0.013018245 -0.0046528294 0.16571 -0.010999118
0000d0 40 ae a0 bd 56 18 9d 3d dd 18 04 3d 9c 22 9a 3d
       -0.078457355 0.07670657 0.032250274 0.075261325
0000e0 9e 8f 25 3e 52 73 0e 3e 3e 8f b0 3c 5c 03 04 be
       0.16168067 0.13911179 0.021552678 -0.12891906
0000f0 86 b4 1c bd 30 54 a8 bd 33 37 9c bd 9e bd 02 bf
       -0.038258098 -0.082191825 -0.07627716 -0.5107058
000100 3a 56 06 bd de ae 1e be 99 2e dd bd a8 39 c5 bd
       -0.032797076 -0.15496394 -0.107999034 -0.09630138
000110 7b 33 af 3c 69 a0 47 bd 08 46 2f be 67 90 93 3d
       0.021386852 -0.048736963 -0.17116559 0.07205277
000120 db 28 7e bd 30 44 b4 bd 0f af 86 bd 52 05 a0 bd
       -0.06205068 -0.08802068 -0.065763585 -0.07813515
000130 c1 b0 2f bd 61 c7 5d 3d c0 d6 28 3c 2b e3 31 be
       -0.042893175 0.05414522 0.010305107 -0.17371814
000140 30 cc 92 bc 6a c8 61 bd 98 16 10 be 82 28 9d bd
       -0.01791963 -0.05512277 -0.14071119 -0.07673742
000150 ba 2a 51 3d 16 71 a0 bd e0 42 ea bd 70 d9 19 bd
       0.051066138 -0.078340694 -0.11438537 -0.03756088
000160 3b dd b1 3c 1e 40 32 bd 69 1d 62 bd f1 31 0c be
       0.021711936 -0.04351818 -0.05520383 -0.13690926
000170 66 37 0b 3c d4 ad 91 bd 6e ac 3e be 08 23 b7 3d
       0.008497095 -0.07113233 -0.18620464 0.089422286
000180 0b f7 3d 3b 2e 11 03 bd 98 f3 9e bd 3a 89 b1 3b
       0.002898636 -0.031998806 -0.077613056 0.00541797
000190 72 70 a4 bd 62 07 4b bd 70 9b 57 3e 22 54 91 3e
       -0.0802926 -0.049567588 0.21055388 0.283845
0001a0 c7 80 28 bd b3 75 b9 3c 41 58 4a 3e 86 dc e8 3c
       -0.041138437 0.022639131 0.19760229 0.028425466
0001b0 76 e2 0a bd 43 a2 42 3d 5d cf 32 3d 08 1c 54 3c
       -0.033907376 0.047518026 0.04365479 0.012946136
0001c0 68 eb e1 3d 47 30 2e 3e e3 d1 0c 3e e7 3f 68 3e
       0.11031228 0.17010604 0.1375194 0.22680627
0001d0 85 56 27 3e 0f dc 53 3d 90 61 e3 3b fe 18 35 3e
       0.16341598 0.051723536 0.0069391206 0.17685315
0001e0 2d 49 f1 3d 6d 90 97 3c 69 62 c9 bd 46 9b e1 bd
       0.11781535 0.018501485 -0.098332234 -0.11015944
0001f0 d4 68 b5 bd 9a 60 07 be 21 56 67 be d8 bb 95 3e
       -0.08857885 -0.13220444 -0.2259145 0.29244876
000200 e9 ba 37 3e eb 4b b9 3d 23 74 b8 bd fb 0e 39 bd
       0.17942394 0.09047683 -0.09006526 -0.045180302
000210 45 2e 31 b9 44 b0 03 bd aa fa 69 3c c1 4e 82 bd
       -0.00016897272 -0.032150522 0.014280954 -0.06362677
000220 06 0f c5 bd c7 a0 62 3c 9d a6 28 be 55 1d 60 bd
       -0.09622006 0.013832278 -0.16469808 -0.054715473
000230 a9 f2 0c bd 83 b8 e9 3c d5 e7 52 be 63 e8 00 3e
       -0.034411106 0.028530365 -0.2059625 0.12588648
000240 bf a4 42 3e 0b 3a 12 3e a7 64 09 be 55 73 3b be
       0.19008158 0.14279954 -0.13417302 -0.18305714
000250 31 52 7b bd 65 1f 29 bc 41 08 d6 bd 7d 96 aa bd
       -0.06135768 -0.010322426 -0.10450793 -0.083294846
000260 eb aa 2b 3d fa da 50 3e 44 ed 0b bd 7f e1 2f 3d
       0.041911047 0.20396033 -0.03416182 0.04293966
000270 63 5b 83 3e e0 ab f0 3d e4 b1 ff 3d 7f 0a bd 3c
       0.2565566 0.117515326 0.12485102 0.023076294
000280 fc 45 ed bc 28 7d 52 bd be 48 74 be 11 d4 61 be
       -0.028964035 -0.05138889 -0.23855874 -0.22053553
000290 46 89 e0 bc d9 96 8e bc 2a 79 a1 3c 70 68 08 3e
       -0.027409207 -0.017405914 0.019711096 0.1332109
0002a0 2d 0f 35 3e f7 86 77 bd 5e fd 23 3d f6 27 52 3b
       0.1768157 -0.060431447 0.04003655 0.0032067276
0002b0 55 c5 42 3d b9 ad 1b 3d 9d e4 31 3d 6e 81 08 3e
       0.04755147 0.03800747 0.043430913 0.13330624
0002c0 35 3d 5a 3d 39 02 48 be 74 a1 54 be bb a9 40 be
       0.053281028 -0.19532098 -0.20764714 -0.18814747
0002d0 cb 7f 4e be a1 8a 1b bd 08 99 9d 3c 3a 80 35 3e
       -0.20165937 -0.037974004 0.01923801 0.17724696
0002e0 89 6a 7c 3e 45 30 6e 3e dd c3 ef bd a7 28 d6 bd
       0.24650015 0.23260601 -0.1170728 -0.104569726
0002f0 58 15 80 be e5 c6 48 be 2e 7f 90 3c 3c 99 11 3e
       -0.25016284 -0.19607122 0.017638769 0.1421861
000300 ca 8a 13 3e 01 9b dc bb 45 96 97 bd d1 32 be bb
       0.14408413 -0.006732345 -0.074017085 -0.0058043976
000310 16 63 b4 bd 32 62 0b 3e a2 72 26 3d f1 d2 fb 3c
       -0.08807962 0.13611677 0.040636666 0.030740233
000320 3f 0a d7 3d b8 66 34 3e 66 ea 99 bd 5f 28 35 3c
       0.10500001 0.17617309 -0.07515411 0.0110569885
000330 0d b9 74 3e 80 64 a2 bd 65 0c 22 3c 8f 35 58 3d
       0.23898716 -0.07929325 0.00989065 0.052785452
000340 a5 8d 80 3d 9e c2 4c be 20 86 54 3b cb e3 26 3e
       0.062770166 -0.19996116 0.0032428578 0.16297834
000350 08 e2 15 3e 86 4b 85 3d d9 67 c4 bd 20 e8 92 bd
       0.14637005 0.065085456 -0.0959012 -0.071731806
000360 b7 0c d2 be 80 73 25 be 96 84 0f be a5 e2 00 bc
       -0.41025326 -0.16157341 -0.14015421 -0.007866536
000370 a5 50 1b be b3 a8 b8 bd e5 ab d6 bd 2e 56 22 be
       -0.15167482 -0.09016552 -0.10482005 -0.15853187
000380 36 c4 3a 3d 52 d5 c7 3d 56 e0 a1 bd f7 2d ef 3d
       0.045597278 0.097574845 -0.07904117 0.11678689
000390 c1 4a b8 3d 15 39 07 bd 38 10 63 bd e9 f7 12 3e
       0.08998633 -0.033013422 -0.05543539 0.14352383
0003a0 b1 f5 ff 3d 71 26 51 3d e1 4e 55 bd 9b bf 4b 3d
       0.12498034 0.05106205 -0.052077178 0.049743276
0003b0 28 f5 d2 bd db 91 a1 be dd 37 e6 bd 08 3d 33 3d
       -0.10300666 -0.3155659 -0.11241124 0.043759376
0003c0 05 11 43 3e 67 b6 82 3e 36 a6 84 3d dc 66 b9 3d
       0.19049461 0.25529787 0.06477015 0.09052822
0003d0 84 01 bf 3c bc ae 3e bd 8a f0 61 be fa aa 1d bd
       0.023316152 -0.04655336 -0.22064415 -0.038493134
0003e0 1c a7 b7 3d 5e 5c 5e 3e df 25 14 3e 77 d5 8e bd
       0.089674205 0.21714923 0.14467572 -0.06974309
0003f0 3f 21 fc bc e9 cd 5a bd 2e 6f e1 bb 27 02 06 bd
       -0.030777572 -0.053419027 -0.0068797087 -0.032716896

model.backbone.layers.0.temporal.0.bias f4 [32]
000000 fa ba 3c bf f2 e5 58 bf c2 54 f4 be 63 c1 88 be
       -0.73722804 -0.8472587 -0.47720915 -0.26710042
000010 37 0d 4d 3d 01 5a 9c 3d fa 0c 0e bf 93 1b 26 bf
       0.05006143 0.076343544 -0.5548855 -0.64885825
000020 7c ac 07 bf dc ae d0 bd b4 21 5b be a5 38 c9 be
       -0.52997565 -0.10189602 -0.21399575 -0.3930103
000030 c2 6a aa be c1 6a 45 bf 6c da a4 3c bc c1 ca be
       -0.33284575 -0.7711602 0.020123683 -0.39600933
000040 57 fd a4 be fa ea 89 be 80 f1 83 be fa 1d 16 bf
       -0.32224533 -0.26937085 -0.25770187 -0.5863949
000050 e6 05 3d bf 9b 34 1e bf f2 78 87 be 2d 9b 1f b9
       -0.73837125 -0.6179902 -0.2645946 -0.00015221229
000060 5e dd a3 be d7 40 f0 bc 72 80 08 bf 60 bc 8d be
       -0.32004827 -0.029327793 -0.5332099 -0.2768278
000070 95 02 2e be e0 28 0a bf 18 e0 10 be a1 cb fe be
       -0.16993172 -0.5396862 -0.14147985 -0.49764732

model.backbone.layers.0.temporal.2.weight f4 [64, 32]
000000 4e ad 15 3e db 0b 6a 3d 5f 83 16 3e b6 ff 48 3d
       0.14616892 0.057140213 0.14698552 0.04907199
000010 c6 20 26 bc c4 d8 f5 bc bd 82 4f 3e 15 20 37 3e
       -0.01013965 -0.030010588 0.20264716 0.17883332
000020 86 d0 14 be d4 e7 df bd 48 4e d5 bd 4a 50 66 be
       -0.1453267 -0.109328896 -0.104153216 -0.22491565
000030 db 05 12 bd 10 8b fe bd 26 d5 15 bd f6 13 4f 3e
       -0.035650115 -0.12428868 -0.036580227 0.20222458
000040 f5 fc a9 3c 02 c0 b5 3c 16 da 00 bd f1 bf 32 bd
       0.020750502 0.022186283 -0.031457983 -0.04364008
000050 31 da 97 bb d8 e7 ac bd 16 39 b5 bd e0 7d c7 bd
       -0.0046341647 -0.08442658 -0.08848779 -0.097408056
000060 d9 13 e9 3d bb fa 5d bd 07 b6 ed 3c 85 52 d0 bd
       0.11380739 -0.054194193 0.029017461 -0.10171989
000070 07 7e 5c 3d d6 7f 0b 3b 86 05 02 3d d6 bd 55 bd
       0.053831127 0.0021285913 0.03174355 -0.052182995
000080 cd 16 c0 3d f4 0f 91 bc dd 4e e4 3d e7 29 bb 3c
       0.09379349 -0.017707802 0.111478545 0.022847129
000090 58 3a 1a be 9b 60 e9 bd 11 52 99 bd e6 64 81 bc
       -0.15061319 -0.11395379 -0.07486356 -0.015795182
0000a0 65 e3 83 bd 8a da 78 3e 94 2d 91 3d c4 a1 46 3d
       -0.064398564 0.24302116 0.070887715 0.048494115
0000b0 ba 1f 54 be a3 d3 48 be 0c fc 98 3c 6f 3d c2 bd
       -0.20715228 -0.19611983 0.018674873 -0.09484374
0000c0 4a ca 34 3d af 09 94 bc f0 e1 7c 3c 46 5c d4 3c
       0.04413823 -0.018071024 0.015434727 0.025922906
0000d0 75 1f 27 3e 1e c6 ce 3d bd 0d 4b be 27 29 0d 3e
       0.16320594 0.100963816 -0.1982946 0.1378523
0000e0 ee 10 a6 3d 70 22 be 3d a8 1d 64 be 29 67 54 3e
       0.08108698 0.09283912 -0.22276938 0.20742477
0000f0 18 f5 af bd 64 ed e9 3c 91 b5 9a bd be 51 74 be
       -0.0859167 0.02855558 -0.07554162 -0.23859307
000100 6f 4b a0 bd f2 5f 3a 3e b2 ec 18 bd 7b 9d 26 bd
       -0.07826888 0.18200663 -0.037335105 -0.04067753
000110 07 96 d2 3d 91 d3 b7 bc b4 84 02 3e 1a f3 58 bd
       0.10282522 -0.02243975 0.12745935 -0.052966215
000120 87 b4 a7 3e 8c 4a 86 bd 60 b8 56 bd 7e 7d a7 3d
       0.3275492 -0.065571874 -0.052421927 0.081782326
000130 fc 7d 0b be 5d d7 88 bc dd 07 65 bd 26 7b a8 3e
       -0.13622278 -0.016704256 -0.055915702 0.32906455
000140 8e 79 85 be d4 29 1f 3d 95 d9 e4 bc c1 8e d5 bd
       -0.260693 0.03885825 -0.027935782 -0.10427619
000150 70 4d 34 3e f9 1c 5f bb 0b ae 31 be 23 e5 d8 3c
       0.17607665 -0.0034044369 -0.17351548 0.026476448
000160 b8 d4 6d 3e 45 ac 60 be 40 e1 6d 3e 7d d5 04 be
       0.23225677 -0.21940716 0.23230457 -0.12972064
000170 f8 97 b8 3d ce ce 6b bd 31 0a 8f 3c 6a 68 f4 3d
       0.09013361 -0.05757027 0.017460914 0.11933978
000180 b3 1a 0c 3e 36 92 fe bd 63 85 4d 3e c3 b1 8d be
       0.1368206 -0.12430231 0.20070414 -0.27674684
000190 b2 15 ff 3d b1 92 3b bd 78 14 0b bd dd 9e 75 3e
       0.1245531 -0.045794193 -0.033955067 0.23986383
0001a0 e7 40 f5 3d 71 86 6a 3d 4b 73 48 3c 51 43 9b 3d
       0.1197527 0.05725712 0.012234519 0.07581199
0001b0 ea b1 5d bb d4 65 ef bc de fc 27 be 24 2f 32 bd
       -0.003382797 -0.02922336 -0.16405055 -0.043501988
0001c0 18 3b 19 be 9a 51 4e bd c9 7f 10 be a4 b9 98 bd
       -0.14963949 -0.05037079 -0.14111246 -0.07457283
0001d0 f5 f2 ea bd 33 f8 61 bc 24 a2 8c bd ce 87 dc bd
       -0.114721216 -0.013792085 -0.06866863 -0.1076809
0001e0 b1 3e dc bc 13 6d 4e 3c 38 cd 4f 3e 49 67 d5 bc
       -0.026885362 0.0125992475 0.20293128 -0.026050227
0001f0 6a 90 14 3d ed c1 83 3d 43 bb 08 bd df 93 ce bc
       0.036270536 0.06433473 -0.03338171 -0.025216995
000200 1a 56 03 be eb 89 ad bd a5 af a4 3d 2b 93 6f 3d
       -0.12825814 -0.084735714 0.08041314 0.05848996
000210 d4 b7 54 bd a3 74 bb 3d 17 a2 11 3d 54 7a 2b 3d
       -0.051933125 0.09153106 0.03555497 0.041864708
000220 ae d8 5d 3e 58 3d 07 3e f3 a0 29 bd 41 3f 16 be
       0.21664688 0.13206995 -0.04141326 -0.14672567
000230 20 fc 35 be 6a 3e cb bd 56 c0 cb bd b0 ac 25 3e
       -0.1777196 -0.09924014 -0.099487945 0.16179156
000240 b0 ae 87 be 59 ac 17 3e d0 c2 26 be 95 62 fd bb
       -0.26500463 0.14811839 -0.16285253 -0.007732699
000250 15 c9 15 be 56 b6 76 be 59 3c e8 3d c6 c2 fe 3d
       -0.14627488 -0.24092993 0.113396354 0.12439494
000260 33 dc 6d bd be 7f 46 3e 17 78 87 3e 78 23 c6 bd
       -0.058071326 0.19384667 0.2645881 -0.09674734
000270 a3 62 6f 3e 70 2b 46 3e 47 6b 8d bb 13 d2 16 bc
       0.2337747 0.19352508 -0.004315767 -0.009205359
000280 9b 63 56 3e 5e 75 41 3d 93 61 00 3c a7 aa ee 3d
       0.20936434 0.04723107 0.0078357635 0.11653643
000290 98 7e 98 3d 95 a9 77 be 2b 2b a4 3d 6a ce 02 be
       0.07446021 -0.24185784 0.08016046 -0.12774053
0002a0 87 05 86 3d 98 c6 4f 3d 2f a2 72 be d7 59 de bd
       0.06544023 0.050726503 -0.2369468 -0.10856979
0002b0 0a 7b 86 3d ef 86 9e 3d 7d 2e e9 bd 28 87 19 bd
       0.065664366 0.0774058 -0.1138582 -0.03748241
0002c0 f5 cc 05 bc dd 2d 0e 3e 80 ef 50 bd 30 18 51 bd
       -0.008166541 0.13884683 -0.051009655 -0.051048458
0002d0 88 c9 35 3c 60 4f e9 bd 6a 2d 4f be b7 12 b8 bd
       0.011095412 -0.11392093 -0.20232168 -0.089879446
0002e0 b2 e1 1e bd 8e c0 34 bc d8 0a 96 3c 0a 7b 27 3d
       -0.03878946 -0.011032237 0.018315718 0.040888824
0002f0 94 ce 55 bd 12 1a 4a be 6e d5 ec 3c 7f ba 7a 3e
       -0.05219896 -0.19736508 0.028910365 0.24485205
000300 f1 df 25 3e e0 78 92 bd e4 14 32 be 5c df 9b 3d
       0.16198708 -0.07151961 -0.17390782 0.07610962
000310 6f 29 35 3d a8 28 41 3d e4 97 75 3d 1b 35 7b 3e
       0.044228967 0.047157913 0.059959307 0.24531977
000320 95 3c 39 3e 28 af 29 3e d9 96 34 be 89 a4 fe bd
       0.18089516 0.16570723 -0.17635669 -0.12433726
000330 a4 67 68 be 04 48 a9 be 68 16 29 3d 14 6f ff 3d
       -0.22695786 -0.33062756 0.041281134 0.12472358
000340 2d ff 4c bc cc 00 69 3e 87 25 0a be 4c 7a 74 bd
       -0.0125120105 0.2275421 -0.13490878 -0.059686944
000350 81 1b a8 be 3f 24 c6 3c 7f 23 62 bd 77 9b a0 3e
       -0.32833484 0.024187205 -0.055209633 0.3136861
000360 2f b9 00 be bd a7 1f bd 8a 61 6c be ba 2a ba bd
       -0.12570642 -0.038978327 -0.23084083 -0.09090181
000370 de b2 ac 3e f0 8d 2c 3e 74 6e d4 bb 09 bf 35 3d
       0.33730215 0.1685102 -0.0064828936 0.04437164
000380 72 18 50 be 53 ef f3 3d b0 ca 78 be c1 03 ca 3b
       -0.20321825 0.11910882 -0.24296069 0.0061649983
000390 11 cf da 3d 94 ed 01 3c 5c ca 39 bd d7 1e e1 bc
       0.10684026 0.007930178 -0.045359 -0.027480526
0003a0 3c 02 f3 3d 9d b3 e2 bc 33 49 94 bd 3f 6f c7 3d
       0.118656605 -0.027673537 -0.07240524 0.097380154
0003b0 5f aa 58 3e 2d 76 0c 3e 1f c4 0d be 6d b5 ac 3d
       0.21158741 0.13716955 -0.13844346 0.08433042
0003c0 9f 4e ff 3d 04 a4 b2 bd c7 c8 9f bc e1 75 a8 3e
       0.12466168 -0.0872269 -0.019504918 0.32902434
0003d0 fb 63 4d 3d 00 af 7b bd 32 d5 40 be 6d 12 c8 3d
       0.050144177 -0.06144619 -0.18831328 0.097691394
0003e0 72 ee e8 3d 1f b9 07 3e d9 79 95 be 7d 76 7b be
       0.11373605 0.13254212 -0.29194525 -0.24556918
0003f0 84 61 85 be c8 8c 03 be 25 d5 10 be 5c 90 3c 3e
       -0.2605096 -0.12846673 -0.14143808 0.18414444

model.backbone.layers.0.temporal.2.bias f4 [64]
000000 b0 e2 50 3d 6d 87 85 bc 8f b2 a6 bb ff 98 7a 3d
       0.050997436 -0.016299928 -0.005087204 0.061181065
000010 42 83 04 bc 64 99 a5 3d e6 3f 8a bd e4 e4 99 bb
       -0.008087935 0.080858976 -0.06750469 -0.0046964753
000020 5d 7c e8 3c b2 2c 56 bd 55 db b7 3c 4a 97 98 3c
       0.028379614 -0.05228872 0.022443453 0.018626828
000030 29 c8 a1 bc ab 19 b3 bd b7 a3 3c 3c ef 55 25 bc
       -0.019748764 -0.0874513 0.011513642 -0.010091289
000040 46 75 ad bc c8 0f 98 3c 55 b2 e8 38 69 f7 5c 3d
       -0.021174084 0.018562213 0.00011095839 0.053946886
000050 38 bf db bc 96 53 4f bd 80 b4 9e bb d6 53 c5 3d
       -0.026824579 -0.050616823 -0.0048432946 0.09635131
000060 14 04 73 bd 3e ad 48 3b 51 a7 b8 bc 67 b3 33 3b
       -0.05933006 0.0030620839 -0.02254072 0.0027420165
000070 7c 42 f9 3c 58 99 c7 3c 95 38 87 bc 44 af 5d 3d
       0.03042721 0.024365112 -0.016506473 0.054122224
000080 5e 08 5b 3a 8d 5d 1a bc 9b b8 41 3d e1 76 97 3c
       0.0008355434 -0.009421718 0.047295194 0.018489303
000090 e0 8c 0c 3d 9c 8a 7d bc ff 85 21 3c ee 04 02 bd
       0.034314036 -0.015474942 0.009858607 -0.031742983
0000a0 34 ad 2c 3d c9 5b cc bc f5 74 59 3d 85 a0 02 bc
       0.042157367 -0.02494611 0.053090055 -0.007972841
0000b0 cc a0 64 3c 01 8f 8b 3b 75 b0 af 3c db 31 a1 bc
       0.013954353 0.0042589908 0.021446446 -0.019677093
0000c0 10 ea ed bc db 91 e8 3c 8c a0 05 bd da 88 e4 3c
       -0.029042274 0.028389862 -0.032623813 0.027897287
0000d0 e2 23 d9 3c 8d 65 1c 3d a1 36 b1 bc a8 25 8a 3c
       0.026506368 0.038182784 -0.021632494 0.016863659
0000e0 d5 54 cf 3c 6f 1f aa 3b 9a 39 e2 3c 4d 5e 43 bb
       0.025309006 0.0051917355 0.027615357 -0.0029810846
0000f0 1a 3e ce bc 4a 32 0c 3d 34 7c 6c bb 5a e7 4d bb
       -0.025176097 0.034227647 -0.0036084773 -0.0031418414

model.backbone.layers.0.channel.0.weight f4 [32, 74]
000000 e9 9a f7 bc d4 41 db 3d ce 39 e8 bd 0d 9e 9a 3e
       -0.030225234 0.10705915 -0.1133915 0.30198708
000010 99 f5 ea 3c 4d 88 6f bd 8b 1b 3d be b0 02 43 bd
       0.028681563 -0.058479596 -0.18467538 -0.047609985
000020 8d 87 19 be 2b 81 84 be 3e 4d de 3c 7f 2a 10 be
       -0.14993115 -0.25879797 0.027136441 -0.14078711
000030 96 96 c2 3d 14 23 50 bd 86 db 05 3e 6e 7f 3a be
       0.09501378 -0.050814703 0.13072023 -0.18212673
000040 9e 04 70 bd e0 39 4d 3e 98 f1 5e 3d fb d8 55 be
       -0.058598153 0.20041609 0.05442962 -0.20883553
000050 d0 93 93 bd 8a f5 38 bd 6e 16 05 3e c8 50 8e bd
       -0.07205927 -0.04515604 0.12996837 -0.069490016
000060 18 9e 60 be 52 f9 35 3d 15 3c 9a bd 87 84 41 be
       -0.21935308 0.044427224 -0.07530991 -0.18898211
000070 38 87 b7 bc f8 7e bf 3d 8b 9c 04 3e 29 96 05 be
       -0.022403345 0.09350389 0.12950341 -0.13045563
000080 a7 2a 80 be de 99 ab 3c 0c 55 a5 bb 38 ec f9 3c
       -0.2503254 0.020947393 -0.005045539 0.030508146
000090 da 9e 81 be 56 2a c5 bc 76 81 4a 3e 96 e7 13 3e
       -0.25316507 -0.024068039 0.19775948 0.14443812
0000a0 e6 c9 8e bd d1 c1 eb bd 93 77 21 be 29 48 a9 3d
       -0.06972103 -0.11511577 -0.1576827 0.082657166
0000b0 2b 1f de bd 74 5c 3b 3c f0 f9 0c be a2 fe 45 bb
       -0.108457886 0.011435617 -0.13767219 -0.0030211587
0000c0 cb bb 4c bc 00 ef d6 3d b1 73 b1 bd 32 94 d0 bc
       -0.012495945 0.104948044 -0.086646445 -0.02546129
0000d0 4e 59 3c 3e 07 be dd 3c 05 e1 05 3e 7b b6 e2 3d
       0.18393442 0.027068151 0.1307412 0.11069962
0000e0 ac 72 9c bc 05 59 a0 3d 43 d3 98 3c 82 8b 47 3d
       -0.019097649 0.07829479 0.018655425 0.04871703
0000f0 2d e1 8d 3e ca 2e d7 bb 6b 67 9a bd 37 f8 3f bc
       0.27710858 -0.006566857 -0.07539257 -0.011716894
000100 5f 45 1a 3e 8f c5 03 be 8f bc 87 bd 94 3d fa 3d
       0.15065525 -0.12868331 -0.066277616 0.12218776
000110 42 8a 82 bd 5a 58 4b 3d 81 1d a0 bd 19 a3 14 be
       -0.06374027 0.049644805 -0.078181274 -0.14515342
000120 f9 57 84 3d 0c 5a 9e 3d a4 0a 29 be 64 e5 9a be
       0.06462092 0.07732019 -0.16507965 -0.30253136
000130 ea 0e 17 3d 42 f6 78 be 47 ca 9e be 47 a5 ea 3d
       0.036879458 -0.2431269 -0.310137 0.114573054
000140 f8 5c 1a be 93 71 23 3d a8 bf 21 3c 57 52 97 be
       -0.15074527 0.039903235 0.009872355 -0.29555008
000150 be df 6c ba c2 0a 48 bd e0 3f 15 3e f4 34 18 3d
       -0.0009036026 -0.048838384 0.14575148 0.037159875
000160 0f 9f 0d 3d b9 bf e8 3c e7 07 ef bc 3b ca 96 3d
       0.03457552 0.028411733 -0.029178573 0.07362791
000170 43 da dd 3d d6 ec 02 be ad a4 2c be 82 6d 00 3e
       0.10832646 -0.12785658 -0.16859694 0.12541774
000180 51 54 5e 3d 07 d0 85 3d 4f c8 55 bd 68 19 2d 3e
       0.05427963 0.06533819 -0.052192982 0.16904223
000190 aa 22 34 ba 58 8e 17 3c 5f 84 1f be ad d1 6c 3d
       -0.00068716204 0.009250246 -0.1557784 0.05781715
0001a0 08 b0 32 bd 94 39 34 bd 78 77 10 be b4 d9 6e bd
       -0.043624908 -0.044000223 -0.14108074 -0.058313087
0001b0 07 25 79 bd 4a 00 a4 bc 6d 43 52 bd 20 4e 78 bc
       -0.060826328 -0.02001967 -0.051333833 -0.015155345
0001c0 35 93 e3 3d 5d 75 cb bc 01 20 ab bd a4 08 3f 3e
       0.11112062 -0.024836237 -0.08355714 0.1865564
0001d0 4d ca 4e bd 3b 84 80 3d 6b 36 6d bd 99 e0 a2 3c
       -0.050485898 0.06275221 -0.057913225 0.019882487
0001e0 64 0b 10 be 4e b0 d9 bd 35 cb 2c 3d 12 25 36 bd
       -0.14066845 -0.106293306 0.04218598 -0.044468947
0001f0 cd c2 bb bd ae fc a5 3d 7a 44 03 3d 6f 2b a6 bd
       -0.09168015 0.081048355 0.032047726 -0.08113753
000200 f3 24 ff bc c4 16 d7 bc 43 bb 13 3e ef 75 4f bb
       -0.031145548 -0.026255973 0.14426903 -0.0031655987
000210 8d 63 af 3d 35 b3 36 3d 12 52 25 3e fb 46 00 be
       0.0856391 0.0446045 0.16144589 -0.12527077
000220 50 c7 1c bd 89 a4 08 3e 48 d9 35 be 96 57 12 3d
       -0.038276017 0.13344015 -0.17758667 0.03572806
000230 9d af b2 bd 93 cd 95 3d 1f 7b 28 bc 29 60 a5 bd
       -0.08724902 0.07314601 -0.010283261 -0.08074982
000240 2d dc 24 bd 26 20 47 bd 3e 0c 9a 3d 42 52 ee bd
       -0.04024904 -0.048614644 0.07521866 -0.11636783
000250 8b 5b 93 3e 19 e7 b4 bd 7c 3b b2 bd 45 fe f5 bb
       0.2878078 -0.08833141 -0.08702752 -0.007507118
000260 58 00 db be 40 0f ff bd d7 81 2d 3e 99 05 49 3e
       -0.427737 -0.124540806 0.16944061 0.19631042
000270 89 a6 ea 3d 3d 25 01 3e e9 b0 97 3d b4 c1 3b be
       0.11457545 0.12611862 0.0740679 -0.1833561
000280 ef a7 21 3c d9 9f ba bc af 39 06 be b3 5a 37 be
       0.009866699 -0.0227813 -0.13107942 -0.17905693
000290 bf 9d 03 bd 7a e1 8c 3b d9 77 4a bc 33 8d 72 be
       -0.03213286 0.00429934 -0.0123576755 -0.23686676
0002a0 54 4c b6 3d b0 d0 1d 3d 8d 0f 73 bb 4b 8a 43 3d
       0.08901277 0.038529098 -0.0037088126 0.04773931
0002b0 5e af eb 3c af 3c c7 3e 8b 17 40 be 56 b2 8a 3e
       0.028770145 0.38913485 -0.18758981 0.27089185
0002c0 d5 06 74 3d bd 14 23 3e 71 7a a9 3d e7 03 a6 bd
       0.059576828 0.1592588 0.08275307 -0.08106213
0002d0 3b e4 bc bd 84 cb 6d 3b 4e 3f 02 be d7 e5 8b 3d
       -0.09223219 0.0036284635 -0.12719461 0.06830948
0002e0 17 d1 c7 bd f9 11 56 3d b5 81 af bc f2 dd 09 be
       -0.097566776 0.052263234 -0.021424154 -0.13463572
0002f0 9b f6 47 bd 6b 54 7d 3e 28 9d f6 3d 44 c9 ce 3d
       -0.048819166 0.24739234 0.12041694 0.10096982
000300 e3 ee bb 3d 3c e8 cd 3c d9 11 09 3e 43 d9 b2 bd
       0.091764234 0.025135152 0.13385715 -0.08732846
000310 e3 f0 bb bd 22 f0 a5 3d 80 86 f8 bd 39 d1 ae 3d
       -0.09176805 0.08102442 -0.12135029 0.08536
000320 75 1d 07 be df 5c de bd 0c de b7 3d fa ca d9 bd
       -0.1319483 -0.108575575 0.08977899 -0.10634418
000330 09 de 1c bd 6d d4 2a 3e ff 5e 69 3e 6a 51 98 be
       -0.038297687 0.16682597 0.22790144 -0.29749614
000340 b8 40 10 3d 97 5d 3b 3c 0f f3 28 be d0 9d a9 bb
       0.03521797 0.011435888 -0.1649897 -0.0051762834
000350 3b c9 b3 bd 3e 1e 0c 3e b8 08 e7 3d 9e fd 17 3e
       -0.08778616 0.13683411 0.1128096 0.14842841
000360 df 75 68 3e 69 0f cb bd 2d 93 c4 3d cb 6f 2e 3d
       0.22701214 -0.09915049 0.09598384 0.042587083
000370 d1 73 2a be 1d 13 2e be 38 04 0f 3e 5b a3 46 bd
       -0.16645743 -0.16999479 0.13966453 -0.04849563
000380 a1 bc 05 be a5 f6 ce bd d4 2c 73 3b fd 5d c0 3d
       -0.13060237 -0.101056375 0.0037105577 0.09392927
000390 21 2c be bd 45 dc c2 bd 7e d9 8e bd 2f 88 a4 3d
       -0.09285761 -0.09514669 -0.06975077 0.080337875
0003a0 b5 f6 0c 3e c3 28 33 bc 6f 0f 64 3d f0 35 ea 3b
       0.13765986 -0.010935011 0.05567878 0.007147543
0003b0 b4 19 10 3d 47 6e 85 bd 4f a5 bd bd 27 d8 7d 3d
       0.035180762 -0.06515174 -0.09260046 0.061973717
0003c0 d0 83 0f 3e 12 f3 61 be 3f 89 26 bd 74 61 e4 bd
       0.14015126 -0.2206538 -0.04065823 -0.111514
0003d0 48 50 f7 3d de ad 12 be 08 6e df bd 4e 0f 80 3e
       0.12075859 -0.14324138 -0.10909659 0.25011677
0003e0 04 c2 e1 bc 77 98 4d bd 63 40 01 3e 1b a1 85 bd
       -0.027558334 -0.05019423 0.12622218 -0.06524869
0003f0 60 bc 20 3d bd 93 35 be 34 88 57 be 7f c1 22 bd
       0.03924215 -0.17732139 -0.21048051 -0.039735314

model.backbone.layers.0.channel.0.bias f4 [32]
000000 b4 75 28 be 82 16 57 be c2 ac 4a be 82 0a 4a be
       -0.1645115 -0.2100468 -0.19792464 -0.19730571
000010 55 ab 14 be 5a 42 82 be 7a 7c 22 be b0 b6 04 be
       -0.14518483 -0.25441247 -0.15867797 -0.12960315
000020 c6 22 d7 bd 80 c1 42 be 74 13 11 be f5 54 3c be
       -0.105046794 -0.19019127 -0.14167577 -0.18391784
000030 c7 fc 94 bd 21 fc 22 be 09 e7 ed bd 71 a4 48 bb
       -0.07274776 -0.15916492 -0.11616332 -0.0030615593
000040 35 4a 2f bd 70 3c 0b be 6c 56 41 bd 59 d4 ad be
       -0.04279538 -0.13597274 -0.04720156 -0.3395107
000050 93 23 b1 be 93 e4 9e be e0 dc 52 be 0e 86 6f be
       -0.34597453 -0.31033763 -0.2059207 -0.23390982
000060 69 d8 9e be db d4 26 be 86 bd d0 bc a1 c5 58 be
       -0.31024483 -0.16292135 -0.025480997 -0.2116914
000070 bf 97 d0 bd 6e 28 02 3d cb 11 7c be 23 ca 7d bd
       -0.10185193 0.031776838 -0.24616162 -0.06196035

model.backbone.layers.0.channel.2.weight f4 [74, 32]
000000 4a 03 8d 3d 8c 12 a7 3d 4d fb 35 3d 70 1f be bd
       0.06885393 0.081578344 0.044429112 -0.0928334
000010 0a 9d 6b bd 5a 4e 9a be 97 17 8b bc c2 cc e4 3d
       -0.05752281 -0.30137902 -0.016979022 0.11171867
000020 17 00 2b bd 91 19 2e be 97 46 50 ba 8b 5a 7a 3d
       -0.041748133 -0.1700194 -0.0007945089 0.061121505
000030 4b 9e 99 3e 5d de a6 3c a1 d0 70 be d1 18 d8 3d
       0.3000358 0.020369703 -0.23517086 0.10551608
000040 8b 11 18 be 9c 3a d1 bd df eb 9a 3d c7 79 1f be
       -0.14850442 -0.10216257 0.0756452 -0.15573798
000050 c9 d9 05 bd 2e ff 31 3e 64 e2 a8 3d b8 82 13 3d
       -0.0326784 0.173825 0.082463056 0.036013335
000060 fe a4 b5 3d bc d0 ac 3d 3d c0 d1 bc 19 ec ae 3b
       0.088693604 0.084382504 -0.025604362 0.0053382036
000070 2f 11 73 be dd ba b6 ba 41 43 26 be 49 a6 96 3d
       -0.23737024 -0.0013941188 -0.16236593 0.07355935
000080 8d 1c 50 3d 3c af 37 3e aa e7 9d bd a7 ea 4a 3e
       0.05080848 0.1793794 -0.07710202 0.19816075
000090 eb 25 24 3e d5 05 90 be 15 90 dc bc f8 ef 0b 3d
       0.1603009 -0.2812945 -0.026924172 0.0341644
0000a0 a7 02 e9 3c bb f3 a3 bd a4 77 20 be cd f5 e0 bd
       0.028443648 -0.08005472 -0.1567064 -0.10984383
0000b0 3d 22 41 bd b7 fa e8 bd 31 21 d1 bd 1d 35 69 bc
       -0.047151793 -0.11375945 -0.10211409 -0.014233855
0000c0 a4 48 11 3e 33 ee 18 3d 36 e3 07 3d c5 df ea 3b
       0.14187866 0.03733654 0.03317567 0.0071677887
0000d0 a3 db bd 3d 47 03 90 bd 3f 75 4b 3e 5e c5 f3 bd
       0.09270408 -0.07031875 0.19868945 -0.11902879
0000e0 5d 60 a8 3d 41 94 a5 bd dc 2f ce 3d e3 7a 9b be
       0.08221505 -0.08084918 0.10067722 -0.30367193
0000f0 fd 5d 1b be ba 0e 7e bd 9e 89 bc 3d 74 93 4d 3e
       -0.15172572 -0.062025763 0.09205936 0.2007578
000100 50 43 71 bd ea 98 9f bd 80 f0 4a bc 98 1d a0 3d
       -0.058902085 -0.07792838 -0.012386441 0.078181446
000110 71 02 89 bc ba 0d 40 3d 37 9a 75 be 69 ef c6 be
       -0.016724797 0.04688809 -0.2398461 -0.3885453
000120 36 f5 c5 3c 3d b8 1d 3e 7c 95 92 3b d4 11 0f 3b
       0.024164777 0.15402313 0.0044733863 0.0021830695
000130 ad d7 56 bc 16 f4 11 3e af 27 ca be 93 89 01 be
       -0.013112945 0.14253268 -0.394834 -0.12650137
000140 51 38 d2 bd ce ad 85 be 80 81 6b bd 2c 36 69 be
       -0.10264648 -0.26109165 -0.057496548 -0.22774571
000150 81 92 85 be 7c 61 fd bd 77 75 7e bc 33 a0 8d 3d
       -0.26088336 -0.12372109 -0.0155309355 0.06915321
000160 c3 72 85 3d 18 4f 7d 3d e1 af 6c 3b ba 55 b0 3c
       0.0651603 0.061843008 0.0036115574 0.021525253
000170 67 07 d0 3b bb 75 00 3d d8 7a e0 bd 18 cd b0 3d
       0.0063485387 0.031362277 -0.109609306 0.086328685
000180 8c 9a c5 3c 38 51 2f bd 14 23 6d bd 5a 0d d8 3b
       0.024121545 -0.042802066 -0.05789478 0.0065933885
000190 37 e1 38 bc e2 c8 e5 bc 27 c2 aa 3c 9f 03 18 3d
       -0.011284164 -0.02804989 0.020844532 0.03711283
0001a0 a3 bc 03 3d c9 c9 06 3e 97 ae d1 3c 12 72 e3 3c
       0.03216232 0.13162912 0.025595946 0.027764354
0001b0 43 4e 94 3b 4e a2 dc bc 5c d0 67 bc 55 cc d3 bc
       0.004525931 -0.026932862 -0.014148798 -0.025854269
0001c0 5e 83 0e 3c b4 e8 08 bd 07 22 ee ba 4c 7f 79 bc
       0.008698313 -0.033425048 -0.00181681 -0.015228104
0001d0 01 f2 2d 3a ed d1 58 bc 4c 8b 82 bc 63 39 a6 3a
       0.00066354877 -0.013233644 -0.015935563 0.0012681897
0001e0 55 ce c6 3c 2d 3f 83 3c 3e 9b 12 bd f3 3b d5 3c
       0.024268309 0.016021335 -0.03579258 0.026029563
0001f0 04 a2 2d bd 56 69 44 3b 92 c1 3e bb 53 2a 3e 3c
       -0.04239084 0.0029970012 -0.0029107076 0.011606771
000200 3e 30 ef bd 21 8e cf bc 08 ee 1e be 50 92 c6 3c
       -0.11679123 -0.025336327 -0.15520489 0.02423969
000210 ec c2 65 3e 48 bd 5f be 36 11 fb 3d 3f 3d 83 3d
       0.22437638 -0.21849549 0.12259142 0.06408166
000220 c9 30 13 bc 38 bc cd bd 4b 26 36 bd 20 67 b4 3c
       -0.008983799 -0.100456655 -0.044470113 0.02202183
000230 37 3d 98 bd ef aa 11 be 73 64 4d bd a5 8c 13 be
       -0.07433551 -0.14225362 -0.050144624 -0.1440912
000240 aa be 06 3e f7 56 1a 3e dd b8 5d bd 1a 0d 7a bd
       0.1315867 0.15072237 -0.054131377 -0.06104765
000250 83 fb 08 be 42 f8 02 be 42 db 9f 3d e7 b5 66 bb
       -0.13377194 -0.12790015 0.07805492 -0.0035203637
000260 89 2c 38 bd a3 b9 93 3d 56 60 46 bd 27 3d 4c be
       -0.044964347 0.07213142 -0.048431717 -0.19945203
000270 51 6e 5c be 5b 39 e2 3b bf 86 89 bd 3e ae b3 3d
       -0.21526457 0.00690381 -0.06715154 0.087734684
000280 06 b1 41 3e f8 a5 12 bd a9 2e 16 be ce 73 05 be
       0.18915185 -0.03580281 -0.14666237 -0.13032457
000290 d5 8b 8b be 90 6e ba 3d ac c1 64 be ce 66 1c be
       -0.2725512 0.091031194 -0.22339505 -0.15273592
0002a0 ce ea d4 3c a1 7d b2 bd b4 5c 95 3b 8c 47 bc 3d
       0.02599087 -0.08715368 0.00455817 0.09193334
0002b0 38 e4 23 3e f1 1f 38 3d 92 3d a9 bb 20 9a 8a 3c
       0.16005027 0.044952337 -0.0051648105 0.016919196
0002c0 f8 af 41 be 64 b5 37 bd d3 6d 87 3d 8b 16 a0 bd
       -0.18914783 -0.044850722 0.06612744 -0.078168
0002d0 16 be 0d be 49 23 05 be 34 e9 ea bd c0 c2 e3 3c
       -0.13842043 -0.13001741 -0.11470261 0.027802825
0002e0 33 f4 67 3d f8 31 35 bd 26 75 eb 3c e5 4f 64 3e
       0.05662937 -0.044237107 0.028742384 0.22296102
0002f0 5f 86 c6 bd fe ea d0 3d 29 46 2e 3d 02 a3 e2 3c
       -0.09693598 0.10201071 0.04254738 0.027665619
000300 c8 8f b3 3d 20 3c 8e 3d c8 39 f2 3d fc 97 e5 3d
       0.087676585 0.06945062 0.11827427 0.11210629
000310 f4 74 8b 3c e6 af 40 be db cd 03 bd 4e 3d 4b bd
       0.017023541 -0.188171 -0.03217874 -0.04961901
000320 7e d7 3b 3e cd bb 1e bd 2a 42 8a bd 3a cd a6 bd
       0.18343922 -0.03875332 -0.06750901 -0.081446126
000330 e4 13 ba bd 7b d3 59 3d ff 35 a3 3d f5 4f a7 3c
       -0.09085825 0.0531802 0.07969283 0.020423869
000340 5b 55 cf bc 26 91 53 3c 82 de d7 bd 53 7f cb bd
       -0.025309255 0.012913024 -0.10540487 -0.099363945
000350 71 3e c3 bb b3 94 b5 bc aa 4c f9 3d 24 a3 a8 bd
       -0.0059583713 -0.022165632 0.12172826 -0.082342416
000360 0c 84 99 3d 77 f2 1d 3d 4c 25 65 bb b5 59 b1 bd
       0.07495889 0.03856131 -0.0034964858 -0.086596884
000370 e8 17 b5 bc ac ca 54 bd fc d8 92 3d 0f 15 55 3e
       -0.022106126 -0.051951095 0.07170293 0.20808814
000380 e5 43 e9 3d 4c a6 26 3d 39 a8 4c 3e 6b 2a 1a 3e
       0.11389903 0.040685937 0.19986047 0.15055244
000390 45 e2 14 bd 26 d9 b2 bd a9 e9 be 3b fc 33 a0 bd
       -0.0363486 -0.08732824 0.0058261943 -0.07822415
0003a0 f3 6a 1e 3e c2 fd f7 3d de a2 dd bd d1 96 c6 bd
       0.15470485 0.12108947 -0.1082208 -0.09696735
0003b0 ac d4 16 be b2 01 e8 3d 78 4d 08 3e de 26 bd 3d
       -0.14729565 0.11328448 0.13310802 0.09235929
0003c0 70 9a 94 bc 6d a6 fe bc dd 64 ff bd 75 73 e1 bd
       -0.018140048 -0.031085217 -0.1247041 -0.1100835
0003d0 71 f8 4d 3c 85 22 cf bd 59 bd 26 3e 25 bb 2f be
       0.01257144 -0.10114006 0.16283168 -0.17161234
0003e0 7d 6b 24 3d df 94 a0 bd 42 7f 29 3b 88 81 1a be
       0.04014157 -0.07840895 0.0025863205 -0.15088475
0003f0 ae d6 f1 bb a2 ec c4 bd f0 ae 21 3d 50 40 83 3e
       -0.007380328 -0.096154466 0.039473474 0.25635004

model.backbone.layers.0.channel.2.bias f4 [74]
000000 e2 b3 7c 3d 38 41 0a bc 3d 92 8d 3d 5a e3 82 3b
       0.061694987 -0.008438401 0.06912658 0.0039943876
000010 46 13 50 3d ee 7e 17 3d 79 a6 49 bd 44 48 62 bd
       0.05079963 0.036986284 -0.049231026 -0.0552447
000020 b5 29 de bd fd 5b 28 3d c5 3f 1a 3d 83 4d e3 3d
       -0.10847799 0.04110335 0.03765847 0.110987686
000030 7d 62 82 3c cf 3b d6 3c ee 0c 8e 3c b9 c3 b4 3d
       0.015916103 0.026151566 0.01734015 0.08826394
000040 9f c0 42 3e 79 18 a4 bd 47 5f 99 3c e7 05 e0 bd
       0.19018792 -0.0801248 0.01872219 -0.10938626
000050 d3 fe 9f 3c e5 b3 83 bd 34 72 93 bd 07 da 81 bc
       0.01953069 -0.064307965 -0.07199517 -0.015851034
000060 70 fd 8c bd 06 c0 c0 3c f6 9b 04 3d 65 b4 92 3d
       -0.06884277 0.023529064 0.0323753 0.07163314
000070 4a 41 e9 bc 9b 38 56 bc c8 cd 46 bd 37 88 2a bd
       -0.028473515 -0.013075019 -0.048536092 -0.04163381
000080 35 d8 c2 3d 70 e4 d7 bc 3a 56 92 3d 07 d1 27 bd
       0.095138945 -0.026354045 0.07145353 -0.04097083
000090 6e 6b c2 bd 1c 37 04 bd f0 c1 ea bd ef f1 7f bd
       -0.09493147 -0.03227912 -0.11462772 -0.062486585
0000a0 3d 78 ea bd 72 40 83 39 3b 43 9b bc d5 93 37 3d
       -0.11448715 0.00025034283 -0.018952956 0.044818718
0000b0 ec 85 5e 3d e0 9e d1 3b df 63 02 be 74 c5 de bd
       0.054326937 0.006397113 -0.1273341 -0.10877505
0000c0 18 24 d1 bd 3f 5d cf bd 05 31 11 be 12 11 32 3c
       -0.102119625 -0.10125207 -0.14178856 0.010868328
0000d0 b5 97 ff bd 38 e2 5a 3c 52 f5 e1 bd 63 b9 3a bd
       -0.12480108 0.013359599 -0.11033119 -0.045586955
0000e0 63 f8 80 bd fd 28 4c be 2e 92 20 3d bb be 60 3d
       -0.06297376 -0.19937511 0.039201908 0.054869395
0000f0 be 53 ea 3c 3c 2e d0 bc 11 eb 6e 3d 35 4c 46 3d
       0.028604385 -0.025412671 0.058329646 0.04841252
000100 c1 7c a3 bd 75 d9 c2 3d 76 ee 33 3d bd e3 d7 3c
       -0.07982779 0.09514133 0.043928586 0.026353711
000110 e7 ed b1 bd 30 fc 80 bb 3b 98 1d be 4d a6 ff 3d
       -0.086879544 -0.003936313 -0.15390103 0.12482891
000120 04 e3 0c bd ed d9 5e bc
       -0.034396186 -0.013601762

model.backbone.layers.1.temporal.0.weight f4 [32, 64]
000000 4e a1 8e 3d 73 34 15 3e 38 a7 69 3d 67 3f 04 bd
       0.0696436 0.14570789 0.057044238 -0.032287028
000010 24 d1 2a be cd da 6d 3b a1 6b 8e bd 31 1d 02 be
       -0.16681343 0.0036293746 -0.06954122 -0.12706448
000020 18 4c 9b bc 03 e4 c2 3d 8b c1 f7 3d 7b 0f f0 3c
       -0.018957183 0.09516146 0.12097462 0.029304257
000030 5a 30 77 bd 19 ff 42 bd 07 54 32 bd 42 62 a8 3d
       -0.060348846 -0.04760656 -0.043537166 0.08221866
000040 28 94 49 3e 6f 18 75 3d de 36 02 3d 19 e4 eb bd
       0.19685423 0.059837755 0.031790607 -0.115181156
000050 77 5a 9a 3d 90 9d 86 3e 69 bc df 3d a1 e2 09 3e
       0.07536786 0.26292086 0.10924608 0.13465358
000060 38 06 47 be 57 d5 1c be 46 08 9f bd 12 92 f7 bc
       -0.19435966 -0.15315758 -0.0776525 -0.030221019
000070 ca ff 7f 3d 67 09 07 be 1d 7c 0f be 21 71 2a bd
       0.0624998 -0.1318718 -0.14012189 -0.041611794
000080 21 e8 65 be 4a 1e 5b 3a 70 ad 19 3e e0 77 53 3e
       -0.22451831 0.00083587004 0.15007567 0.20651197
000090 23 5c 49 3e 81 c3 c9 3d 3f 95 0b 3e 21 93 53 bd
       0.19664054 0.098517425 0.13631152 -0.051653985
0000a0 79 cd 96 bd 77 ad 06 bd ee a4 11 3e df 5b 9d 3d
       -0.073634095 -0.032880273 0.14223072 0.07683539
0000b0 67 09 38 3e 40 0c f4 bd d4 e3 02 be f1 bb 37 be
       0.17972337 -0.11916399 -0.12782222 -0.17942788
0000c0 2a 0a 12 bd 20 72 b0 bd fd 94 04 3d 18 75 52 3e
       -0.035654224 -0.086155176 0.03236865 0.2055248
0000d0 ed 34 bf bc d7 4a 85 bd af 74 a9 be 82 22 a6 be
       -0.023340667 -0.06508415 -0.33096835 -0.32448202
0000e0 50 5e 8c be dc ff 8d 3d 54 1f 8b 3e 04 53 66 3e
       -0.27415705 0.06933567 0.2717234 0.22492605
0000f0 c7 ad 90 3d 8f bf 07 3e 4b cd 67 bc 93 0e a5 be
       0.070643954 0.13256668 -0.014148067 -0.32237682
000100 bd d7 ad bd 73 b2 fb 3d 1c bc 42 bd 34 d6 43 bd
       -0.084884144 0.12289896 -0.047542676 -0.047811702
000110 31 36 e8 bd cd 24 8b 3d f0 1b 81 bd 63 5d 58 3c
       -0.11338461 0.067941286 -0.06304157 0.013205859
000120 57 8f 49 3e 6e 01 77 bd 08 16 8b bd 5e 61 e0 bd
       0.19683586 -0.060304098 -0.067913115 -0.10956071
000130 96 35 8b 3c b9 22 98 3e b1 6b 74 3e 7a 11 57 3e
       0.016993325 0.2971399 0.23869206 0.2100276
000140 0f f3 08 3e 14 41 b5 3c 7a a4 9f bd 5d b2 2c 3d
       0.1337397 0.022125758 -0.07795043 0.042162288
000150 a9 00 6a be 36 84 67 be fb e6 29 bd bb 6b e8 bc
       -0.22851814 -0.22609028 -0.041480046 -0.028371682
000160 8d 8d 55 be 47 5a 20 bd 14 cf 54 bc e0 0c 07 3e
       -0.20854779 -0.039148595 -0.012988824 0.13188505
000170 6b 8f 45 3e e8 17 71 3d 1b 12 9e 3c de d7 5c 3b
       0.19292991 0.05886069 0.019295743 0.0033698003
000180 92 bc 2a 3d 34 f1 ed bd 35 67 29 be 39 37 64 be
       0.04168374 -0.116182715 -0.16543277 -0.22286691
000190 22 71 b8 bb e2 c8 02 be ba a2 b9 3d 73 87 5d 3e
       -0.005628721 -0.12771943 0.09064241 0.21633701
0001a0 d3 7e 21 3e 2c 74 da bc 4d db c6 bc 5c 3e 00 be
       0.15771036 -0.026666723 -0.024274493 -0.12523788
0001b0 e6 9d ab bd 06 18 e7 bd a4 5f 77 3d 2c 8f 67 3d
       -0.08379726 -0.11283879 0.060393944 0.056533024
0001c0 af 6d e2 bd 17 af 49 be e4 3f 9a bd cd f7 a2 bd
       -0.11056077 -0.19695698 -0.075317174 -0.079574205
0001d0 75 c3 10 be 93 4a 04 be 0f 25 0a be 5d 67 61 3d
       -0.14137061 -0.12919073 -0.13490699 0.055030216
0001e0 ca 47 e3 3b c2 86 5e 3d 6e 1e b2 3d 68 c4 31 bd
       0.006936048 0.054327734 0.0869721 -0.0434002
0001f0 1e 2f ce bc 90 44 13 3e 79 27 e2 3d 4a de c6 3e
       -0.025168952 0.14381623 0.11042685 0.38841468
000200 97 83 c7 3b d7 51 73 bd 20 fa d2 3c 72 11 d3 3d
       0.006088685 -0.05940422 0.025754035 0.10306062
000210 1b 88 6d 3d f0 3f f6 bc 84 8b 15 be 98 be eb 3c
       0.05799113 -0.030059785 -0.14604002 0.028777406
000220 8d e6 82 3c 2f 42 f8 bc a1 fe fc bc 96 30 37 be
       0.015979076 -0.030304996 -0.030883135 -0.17889628
000230 e5 a8 4c be 98 a7 13 be 6c 9d ad bd ff 76 40 bc
       -0.19986303 -0.144194 -0.084772915 -0.011747121
000240 21 3d 4b 3c ce a1 0b 3d 76 58 09 be cd ba 1c 3e
       0.012404711 0.034089856 -0.13412651 0.15305634
000250 4c 0a 62 3c 6e e0 4e bd 61 0e af bd ea 00 aa 3d
       0.0137964 -0.050507 -0.085476644 0.083009556
000260 48 fb 12 be 92 c3 6e bb aa 49 b0 3c eb c6 b1 3d
       -0.14353669 -0.0036432487 0.0215195 0.08680519
000270 56 73 a6 3c 3a 64 c0 bc fe df eb bd 3a 3c 21 bd
       0.020318668 -0.023485292 -0.115173325 -0.039364077
000280 87 ed e9 bd ef 2a 05 bc 18 5d fd bd bf 6f 95 3d
       -0.11422258 -0.008127912 -0.12371272 0.072967045
000290 a8 ba f4 bb 49 ba 96 3d db 17 b3 3d bd 29 12 3d
       -0.00746854 0.0735975 0.087447844 0.035684336
0002a0 f4 69 8a 3d 8f ec 74 bb b7 e0 39 3b c0 70 5b 3c
       0.0675849 -0.0037372445 0.00283627 0.013393581
0002b0 89 bd 24 3d ac 58 e7 bd e1 81 55 bd dc 1b 89 be
       0.040219817 -0.1129621 -0.052125815 -0.26779068
0002c0 3c de f2 bd 1f 7c de bd 5a 35 a9 bd 7a 5f 05 be
       -0.11858794 -0.10863518 -0.08262129 -0.13024703
0002d0 51 65 b6 bc 30 79 a7 bc 5d dc 01 be 21 26 82 3d
       -0.022265108 -0.020443529 -0.12681718 0.06354929
0002e0 71 11 9c bd 8c 6a 0b 3d 80 31 e9 bd a9 6e 11 bd
       -0.07620514 0.034037158 -0.113863945 -0.035505924
0002f0 55 c2 73 be d4 a4 49 3d ad 08 52 be 2b 10 50 3e
       -0.238046 0.049229458 -0.20511122 0.20318668
000300 ee 57 ef bd 1d d1 c9 bd 14 61 a8 bd f3 d2 cc bd
       -0.11686693 -0.09854338 -0.08221641 -0.10001173
000310 02 64 f2 bd b8 a2 ca bd 83 fe 6b bd da 67 a5 3d
       -0.11835481 -0.098943174 -0.05761577 0.08076449
000320 a4 5e 11 3e e0 e2 a4 3d 04 92 73 bd c6 3a d8 3d
       0.14196259 0.080510855 -0.059465423 0.10558085
000330 52 a0 cd bd d4 3d d2 bc 00 ed 9c bd 1f 1f 12 3d
       -0.10040344 -0.025664248 -0.07662392 0.03567421
000340 ac 1a 25 3e 99 e4 41 3e 1b 34 b8 3d e1 e9 d9 3d
       0.16123456 0.1893486 0.08994313 0.10640312
000350 8c 0b b1 3d 5e 21 d3 3d 6d e3 f8 bd e4 d4 1f be
       0.086447805 0.10309099 -0.12152753 -0.15608555
000360 aa d3 91 bd 7f dd 9a be 97 f1 97 be 43 9a f4 bd
       -0.0712045 -0.30247113 -0.29676506 -0.119434856
000370 d5 1c e0 bc c5 94 1b 3d af 7b f9 3d be 27 37 3e
       -0.027357498 0.037983675 0.12181794 0.17886254
000380 c0 0d 55 3e b2 56 81 bd 0e fd 8b 3c 02 27 bd bd
       0.20806026 -0.06315364 0.01708844 -0.09235956
000390 bf 34 2c bc d1 6c 97 be 1b ae 88 be c3 35 a2 be
       -0.0105106225 -0.29575208 -0.26695332 -0.31681642
0003a0 19 bb 38 be 9e 01 0e be 18 3d c3 bc 01 84 c0 3d
       -0.18040122 -0.13867804 -0.023832843 0.09400178
0003b0 f1 29 0b 3e da fd 5f 3e 80 d2 4f 3e e4 b5 1e 3e
       0.13590218 0.2187418 0.20295143 0.15499073
0003c0 ba f0 36 3e 2f e3 9a 3d fe 9e a1 3d 26 c6 b2 3c
       0.17865267 0.07562863 0.078916535 0.021823
0003d0 32 e6 0c be c5 0e 9c bd 7f 1e 32 bd 38 6c f6 bd
       -0.13759688 -0.076200046 -0.043486115 -0.1203236
0003e0 39 e2 86 bd bb 1e 99 bd 87 c8 c1 bd 92 31 ca 3d
       -0.06586117 -0.074765645 -0.09462076 0.09872736
0003f0 c5 0e a1 3d 75 1c b5 3d da 90 58 3d 1c 3d 0c 3e
       0.07864145 0.088433184 0.052872516 0.13695186
