experiments/AdversarialDomainAdaptation/saved_models/tsmixer_da_pretrained_3.pt (torch, 731036 bytes, 30 tensors)

model.backbone.static_proj.weight f4 [64, 10]
0	0xbe2e262e	-0.17006752
1	0x3e8716c0	0.26384544
2	0x3db46d4a	0.08809908
3	0x3e8f6f26	0.28014487
4	0xbe834181	-0.25635913
5	0x3d8104fa	0.06299777
6	0x3e55e6bd	0.20888801
7	0xbe8146a6	-0.25249213
8	0x3e1b74d8	0.15181291
9	0xbe80493d	-0.25055876
10	0xbe8b049c	-0.27151954
11	0xbe8aa158	-0.2707622
12	0xbd8ec2cc	-0.06970748
13	0xbe157b53	-0.14597826
14	0x3e5e1438	0.216874
15	0x3d2a9f72	0.041655965
16	0x3e0b645c	0.13612503
17	0x3def336c	0.1167973
18	0x3d50560c	0.05086331
19	0x3e923430	0.2855544
20	0xbe67698f	-0.22598861
21	0xbe59b543	-0.21260552
22	0xbcaf69f0	-0.02141282
23	0x3e8bcebf	0.27306172
24	0x3d5bbed1	0.053648774
25	0x3e1ce60b	0.1532213
26	0xbda88e7d	-0.082303025
27	0xbdf9ceee	-0.12197672
28	0xbde4dc07	-0.111747794
29	0x3e3d20a7	0.18469487
30	0xbd6a220e	-0.057161383
31	0x3d48d179	0.049027894
32	0x3e48c9f6	0.19608292
33	0x3e5aea64	0.21378475
34	0xbdbf691d	-0.09346221
35	0xbe8691b1	-0.2628303
36	0x3e5101bb	0.20410816
37	0xbdb1dfa8	-0.08685237
38	0xbe7a8a7c	-0.2446689
39	0x3cbf7ee9	0.023375945
40	0x3c6a9e19	0.01431992
41	0xbe8a6d19	-0.2703636
42	0x3e2235d6	0.1584085
43	0xbe34d01c	-0.17657512
44	0xbe692e3f	-0.22771548
45	0xbe3f09ee	-0.18656132
46	0x3cfd6d70	0.030935973
47	0x3d99da2d	0.07512317
48	0xbe7ecd59	-0.24883021
49	0x3d9f6e99	0.07784767
50	0xbdba4b79	-0.090964265
51	0xbdf9414f	-0.1217066
52	0x3d802a35	0.0625805
53	0x3df16c08	0.117881835
54	0xbe794845	-0.24343975
55	0x3e8ad12b	0.27112707
56	0xbdb6b91f	-0.08922028
57	0x3d23a398	0.039950937
58	0x3cd32125	0.02577264
59	0x3e42ad5f	0.19011448
60	0x3e3d57f1	0.18490578
61	0x3e38b93a	0.18039408
62	0xbdcab722	-0.09898211
63	0xbe403d65	-0.1877342
64	0x3e4e2721	0.20132114
65	0xbdf9db1c	-0.12199995
66	0xbe817a33	-0.25288543
67	0x3e14c53b	0.14528362
68	0xbe16d96f	-0.14731382
69	0x3c5df680	0.01354754
70	0xbeaa2f8c	-0.332394
71	0x3e3c63c1	0.18397428
72	0xbe390ba5	-0.18070848
73	0x3dc01187	0.09378343
74	0x3ddb724c	0.1071516
75	0x3e7c84e4	0.24660069
76	0xbcb0a9e6	-0.021565389
77	0x3d34de57	0.044157352
78	0xbe1e9697	-0.15487133
79	0xbd3ef0f1	-0.0466165
80	0xbea98e0a	-0.3311618
81	0x3db9dfc8	0.09075886
82	0xbd4aeeb6	-0.04954406
83	0x3e221145	0.158269
84	0xbdc1ed95	-0.09469143
85	0x3e352bbf	0.17692469
86	0x3d595698	0.053061098
87	0xbe78988f	-0.24276946
88	0xbe67a843	-0.2262278
89	0xbe4fa82b	-0.20278995
90	0xbe56dee8	-0.2098347
91	0xbc8ae24b	-0.016953608
92	0x3e5f586c	0.21811074
93	0xbe5f9b50	-0.21836591
94	0xbe1c2ca0	-0.15251398
95	0x3d7ff4c1	0.062489275
96	0xbe64d320	-0.22346163
97	0xbdb99575	-0.0906171
98	0xbe841dbc	-0.25803936
99	0x3e3e39d6	0.1857675
100	0xbe6edb0c	-0.23325747
101	0xbe01fae6	-0.12693366
102	0xbe96805c	-0.29394805
103	0xbdcf9a65	-0.1013687
104	0xbe677023	-0.2260137
105	0xbe8f9c21	-0.28048804
106	0x3d9c32e2	0.076268926
107	0xbd9a826f	-0.075444095
108	0xbe1ea320	-0.15491915
109	0xbde3df97	-0.11126631
110	0xbd8f83ab	-0.070075355
111	0xbe873339	-0.26406267
112	0x3e69dfe2	0.22839311
113	0xbdf4b68a	-0.11948879
114	0x3e51bd72	0.20482424
115	0x3c432a01	0.01191187
116	0xbe8eb5a9	-0.2787297
117	0x3d2a781b	0.041618448
118	0xbda0c92b	-0.0785087
119	0x3e4d03f4	0.20021039
120	0x3d5b2087	0.053497817
121	0x3d7ed445	0.062214155
122	0xbe8d9f86	-0.2766077
123	0x3dddca57	0.10829609
124	0x3cb9af9c	0.022666745
125	0x3e91bbc9	0.2846358
126	0xbe348cea	-0.1763188
127	0x3e823734	0.25432742
128	0xbd88d6d5	-0.06681601
129	0xbddb8f9a	-0.10720749
130	0x3e5affca	0.21386638
131	0x3e25214a	0.1612598
132	0xbe777a64	-0.24167782
133	0x3e88347d	0.26602545
134	0x3e4f620b	0.20252244
135	0xbde40c5e	-0.11135171
136	0x3e5865ec	0.2113263
137	0xbd9fb4c4	-0.0779815
138	0xbdee540b	-0.11637124
139	0xbc8fb362	-0.017541591
140	0x3e68347b	0.2267627
141	0x3de26fc8	0.11056477
142	0x3ddf02b4	0.108891875
143	0xbbd1d9d7	-0.0064041424
144	0xbe42a797	-0.19009243
145	0xbe644bf4	-0.22294599
146	0xbe1ef5cb	-0.1552345
147	0xbe1e9900	-0.15488052
148	0xbe848fcd	-0.2589096
149	0xbe92d39d	-0.28677073
150	0x3e5d9132	0.21637419
151	0xbe59bde2	-0.21263841
152	0x3e03c1a6	0.1286684
153	0x3e8468c5	0.25861183
154	0x3dfa2941	0.122149
155	0xbddea1b7	-0.108706884
156	0xbe7f28d1	-0.24917914
157	0x3e049ff9	0.1295165
158	0x3e8d21f1	0.27564958
159	0x3e2ce9d2	0.1688607
160	0xbd6548b8	-0.055977553
161	0x3c29a964	0.010355327
162	0x3e5a2a2b	0.21305148
163	0x3e1058e6	0.14096412
164	0x3e91a825	0.28448597
165	0x3d2ffbcc	0.04296474
166	0x3dff4fb8	0.12466377
167	0xbd59e0ac	-0.05319278
168	0x3e8df203	0.27723703
169	0xbe9788d1	-0.2959657
170	0xbdaa863a	-0.08326383
171	0x3e3115f8	0.17293537
172	0x3e727d83	0.23680691
173	0x3e9b513d	0.30335417
174	0xbe95a5c5	-0.29228035
175	0x3e45411b	0.19263117
176	0x3dd49814	0.10380569
177	0x3e82c668	0.25541997
178	0xbdebd5fa	-0.11515422
179	0x3e30c502	0.17262653
180	0xbdec7add	-0.11546872
181	0xbe8c63b9	-0.27419832
182	0x3e855251	0.26039365
183	0xbdea022f	-0.11426198
184	0x3e0a3473	0.1349657
185	0x3e8ed743	0.27898607
186	0x3e2d0f7b	0.16900437
187	0xbe8fea48	-0.2810843
188	0x3e01b94f	0.12668346
189	0xbdc45ced	-0.09588037
190	0xbe600269	-0.2187592
191	0xbe1dfbc1	-0.15428068
192	0xbe1583fe	-0.14601132
193	0xbda83be5	-0.08214549
194	0x3e60f9b7	0.21970259
195	0xbdadd8a7	-0.08488589
196	0xbea23748	-0.316828
197	0x3e6355c7	0.2220069
198	0xbe442c54	-0.19157535
199	0x3e5ca664	0.21547848
200	0xbe81e966	-0.2537338
201	0xbde57ea9	-0.11205799
202	0xbe28b827	-0.16476499
203	0x3b19389e	0.0023379694
204	0xbe47ef93	-0.19524984
205	0xbe77239f	-0.24134682
206	0x3e94e76b	0.29082808
207	0x3ea5d3f1	0.3238826
208	0xbdbe6d17	-0.09298151
209	0x3de3fee7	0.11132603
210	0xbe8be711	-0.27324727
211	0x3d2d4751	0.04230434
212	0xbd69c3bd	-0.057071436
213	0xbd1ae3d5	-0.037814934
214	0xbe8acec6	-0.2711088
215	0xbd87fbfd	-0.0663986
216	0xbe4d0eae	-0.20025131
217	0x3ea290e7	0.31751177
218	0xbe5fb8aa	-0.21847787
219	0xbde80c42	-0.11330463
220	0x3dac3f70	0.08410537
221	0x3e270b81	0.16312982
222	0xbdb77288	-0.08957392
223	0x3d850924	0.06495884
224	0x3e37066b	0.17873542
225	0x3e389d41	0.18028738
226	0xbe76a832	-0.24087599
227	0xbe119f07	-0.1422082
228	0xbe8879e9	-0.2665551
229	0x3e0268d0	0.12735295
230	0x3abc72f3	0.0014377519
231	0xbc8361a2	-0.016037766
232	0xbe016375	-0.12635596
233	0x3e57ef3f	0.21087359
234	0x3e8bdb6c	0.27315843
235	0x3e29e089	0.1658956
236	0xbd2e77dd	-0.04259478
237	0xbe5249f6	-0.20536026
238	0xbdf673f3	-0.12033834
239	0x3bdceaf8	0.0067418776
240	0xbea525a9	-0.32255295
241	0xbe5c843b	-0.21534817
242	0xbc40ac42	-0.011759819
243	0xbdf0fb0e	-0.11766635
244	0x3e31be61	0.1735778
245	0x3ca97dc6	0.020689856
246	0xbd2311dc	-0.039811954
247	0x3d2be8f2	0.0419702
248	0x3e5a5c99	0.21324386
249	0xbe32e0d6	-0.1746858
250	0x3e641d25	0.22276743
251	0x3e8b0f63	0.27160177
252	0x3e7fd448	0.24983323
253	0x3e6b3d30	0.2297256
254	0xbe829bd4	-0.25509512
255	0x3dafb5ab	0.08579572

model.backbone.static_proj.bias f4 [64]
0	0xbe99ff43	-0.30077562
1	0x3dc051ce	0.09390603
2	0xbe298c44	-0.16557413
3	0x3e300351	0.17188765
4	0x3e7789a1	0.24173595
5	0xbe7ffd88	-0.24999058
6	0x3e788474	0.24269277
7	0x3e393fcb	0.18090741
8	0xbe1821df	-0.14856671
9	0x3dc2f88f	0.09520065
10	0x3e195e2c	0.1497733
11	0x3dd12a09	0.10213096
12	0xbe932040	-0.28735542
13	0xbdcca2e0	-0.099920034
14	0xbe816d6b	-0.25278792
15	0xbe921546	-0.28531855
16	0x3d59f8cb	0.053215783
17	0x3a88bcf6	0.0010432291
18	0x3dbafdd9	0.09130449
19	0x3e7e94ab	0.248614
20	0x3ca3052b	0.019899925
21	0xbcf16f4c	-0.029472016
22	0xbc847c3d	-0.016172523
23	0x3e1a2c3f	0.15055941
24	0xbe763e5b	-0.24047224
25	0x3c6708f2	0.014101254
26	0xbe28d9a6	-0.16489276
27	0xbe4daba2	-0.20085004
28	0x3e8b2521	0.27176765
29	0x3e2b60b3	0.16736107
30	0x3e2ee93c	0.1708116
31	0xbaf064a8	-0.0018340545
32	0xbd329870	-0.043602407
33	0xbe6ab988	-0.22922337
34	0xbe45383f	-0.19259737
35	0x3d4af3db	0.049548965
36	0xbe840ad6	-0.25789517
37	0xbe851406	-0.2599184
38	0xbe7d9788	-0.24764836
39	0xbe258398	-0.1616348
40	0xbe9042af	-0.28175876
41	0x3e963a2c	0.29341257
42	0xbe39eae1	-0.18156005
43	0x3d91e09b	0.07122918
44	0x3e278697	0.16359936
45	0xbe22f3f5	-0.15913375
46	0xbe2b90c6	-0.16754445
47	0xbd89638b	-0.067084394
48	0x3e8cf13d	0.275278
49	0x3d9d10bc	0.076692075
50	0x3e55470f	0.20827888
51	0xbc903dde	-0.017607626
52	0x3e383d9b	0.1799225
53	0x3e89d77e	0.2692222
54	0x3d86ba33	0.065784834
55	0xbe83d624	-0.25749314
56	0x3c2b1c29	0.010443726
57	0xbd31f5f8	-0.043447465
58	0xbe836970	-0.2566638
59	0x3c951aa3	0.018201178
60	0xbe86bbea	-0.26315242
61	0x3dc2764f	0.09495222
62	0x3e11f011	0.14251734
63	0xbd210d5a	-0.039319374

model.backbone.layers.0.temporal.0.weight f4 [32, 64]
0	0xbd5ff745	-0.054679174
1	0x3df2c3a5	0.118537225
2	0x3dfd6671	0.12373055
3	0xbdaf6e71	-0.08565987
4	0x3dc93fea	0.09826644
5	0x3c6c46d4	0.014421184
6	0x3db9ae9b	0.090665065
7	0x3e07b4e1	0.13252594
8	0x3da9bc23	0.08287837
9	0x3c1fb222	0.00974706
10	0x3e0969a0	0.13419199
11	0x3d3a4a25	0.045480866
12	0xbd8bebfe	-0.06832121
13	0xbdb60a9f	-0.088887446
14	0x3dc94bc7	0.098289065
15	0xbcea6c72	-0.028616164
16	0xbd091daf	-0.033475574
17	0x3ab609c0	0.0013888404
18	0x3e091a7f	0.13389014
19	0xbbf563de	-0.0074887117
20	0xbd86754e	-0.06565343
21	0x3d33e9a7	0.043924
22	0x3dbefb77	0.09325307
23	0x3cc3c8a1	0.023899378
24	0x3e10024c	0.14063376
25	0x3ddb3042	0.10702564
26	0xbd8375c7	-0.064189486
27	0xbd12ddc6	-0.03585603
28	0x3dc756bb	0.097333394
29	0xbd86064b	-0.06544169
30	0xbd9ce86c	-0.076615185
31	0x3d97337b	0.07382866
32	0x3c3c1cb8	0.011481456
33	0x3df8beb6	0.1214575
34	0xbddcee70	-0.10787666
35	0x3c3cbbab	0.011519353
36	0x3e00b098	0.12567365
37	0x3d99bcb0	0.075066924
38	0x3e0a8c99	0.13530196
39	0xbc455a77	-0.012045494
40	0xbbe3a727	-0.0069474163
41	0xbd16210f	-0.03665262
42	0xbd9cec45	-0.07662252
43	0x3c1af2f1	0.009457336
44	0x3d7ab649	0.061208997
45	0x3dd4305e	0.10360788
46	0xbd6408ad	-0.055672336
47	0x3b592d05	0.0033138406
48	0xbd7d9274	-0.061907247
49	0x3d9087db	0.070571624
50	0xbd8cafd6	-0.068694755
51	0x3d7fa220	0.062410474
52	0x3d13136a	0.035907187
53	0xbd02a819	-0.03189859
54	0xbccd74c4	-0.025080092
55	0x399b0d4e	0.00029573817
56	0xbcad9044	-0.021186955
57	0xbd4f6eda	-0.050642826
58	0x3d9db6ac	0.077008575
59	0x3e0241f0	0.12720466
60	0x3c842a57	0.01613347
61	0x3ce3c625	0.027804444
62	0x3dad4578	0.08460516
63	0xbd9e40d6	-0.0772721
64	0xbca472f3	-0.020074343
65	0xbdca52d4	-0.098790795
66	0xbdff9e44	-0.12481359
67	0xbe02f747	-0.12789641
68	0x3d618a5c	0.05506359
69	0xbd39d7ee	-0.045371942
70	0xbdaa199d	-0.083056666
71	0xbd95e6ef	-0.07319438
72	0x3d40e08b	0.04708914
73	0xbd5669dc	-0.05234705
74	0xbe02b38b	-0.12763803
75	0xbdd181d1	-0.10229839
76	0x3d8763a2	0.066108
77	0xbd86b8f6	-0.06578247
78	0xbdc39197	-0.095492534
79	0x3d352d5f	0.044232722
80	0x3ced7056	0.02898423
81	0xbd8c2903	-0.0684376
82	0x3d491f47	0.049102094
83	0x3dca184c	0.098679155
84	0x3daf7fee	0.085693225
85	0xbdb52b51	-0.088461526
86	0x3d83e0a2	0.0643933
87	0x3cb9cbba	0.022680152
88	0xbd8098fb	-0.06279179
89	0x3daa092b	0.0830253
90	0x3d9bcbb7	0.07607215
91	0xbdf7ed18	-0.12105769
92	0x3d16ba5c	0.03679882
93	0x3c6fa0bb	0.0146257235
94	0xbdc914ea	-0.09818442
95	0x3cc0f5c9	0.0235547
96	0xbdcd9839	-0.100388
97	0xbc59d49d	-0.01329532
98	0x3d20f3c0	0.039294958
99	0x3d26ef3f	0.040755507
100	0xbce744f0	-0.028231114
101	0x3da62419	0.08112354
102	0x3d8983f3	0.067146204
103	0xbd8d3b6f	-0.06896102
104	0xbde96f72	-0.1139821
105	0xbd5e7e75	-0.054319818
106	0x3b69932d	0.0035640702
107	0x3db41a85	0.08794121
108	0xbbcbb148	-0.006216202
109	0x3d5b6aa2	0.05356849
110	0xbd28c80a	-0.041206397
111	0xbaa41d4e	-0.001252094
112	0x3db8fcf7	0.09032624
113	0xbbbceaeb	-0.005765309
114	0xbdb9e79d	-0.0907738
115	0x3db7678a	0.089552954
116	0x3d118b33	0.03553314
117	0x3de4b294	0.111668736
118	0x3dbd34d6	0.09238593
119	0xbcf7e039	-0.030258285
120	0x3d88d9fb	0.066822015
121	0x3d92f9b3	0.071765326
122	0x3d03e19a	0.032197572
123	0x3dc119de	0.09428762
124	0xbccd5679	-0.025065647
125	0x3dc51866	0.09623794
126	0xbdec371d	-0.115339495
127	0xbe0b6fa8	-0.13616812
128	0x3d684cfa	0.056714036
129	0x3de13658	0.109966934
130	0xbda7f7ad	-0.08201537
131	0x3a4ccc90	0.00078124646
132	0x3daa58bc	0.08317706
133	0x3ccccd71	0.025000306
134	0x3d7743db	0.060367446
135	0xbdc8a188	-0.09796435
136	0x3d8f252b	0.06989511
137	0xbd07be8f	-0.033140715
138	0x3cffc48c	0.03122165
139	0xbd42e3bd	-0.04758047
140	0x3d5e06a5	0.054205555
141	0x3cf623e2	0.030046407
142	0xbd953834	-0.072861105
143	0x3bdd701c	0.0067577492
144	0xba8d4ac0	-0.0010779724
145	0x3b6cd4c2	0.0036137556
146	0xbdd2e114	-0.102968365
147	0x3d9655c3	0.073405765
148	0x3dcdfe1a	0.10058232
149	0xbd1c7f8c	-0.038207576
150	0xbdc2a15e	-0.095034346
151	0x3dcabc55	0.09899203
152	0x3cf6967c	0.030101053
153	0x3d34c4d6	0.04413303
154	0x3dd353f0	0.10318744
155	0xbd8ed617	-0.06974428
156	0x3c0ec8e5	0.008714889
157	0x3db35e40	0.08758211
158	0x3e00841d	0.12550397
159	0x3ce12f46	0.027488362
160	0x3daa9310	0.08328831
161	0xbcbe00b0	-0.023193687
162	0xbd7de6a1	-0.061987523
163	0x3d849d23	0.06475284
164	0x3cbdc4cf	0.023165135
165	0xbcf70204	-0.030152328
166	0x3da83b58	0.08214444
167	0x3a342fb2	0.0006873562
168	0x3d3fd3f7	0.046833005
169	0xbc1a140a	-0.009404192
170	0xbd35c5bd	-0.04437803
171	0x3e0ef7d7	0.13961731
172	0xbd7fc0f2	-0.062439866
173	0xbdd644ab	-0.10462316
174	0x3db28f78	0.08718771
175	0xbdb1f2da	-0.086888984
176	0x3d8015ae	0.06254135
177	0x3d5d197c	0.053979382
178	0x3d6c3ede	0.057677142
179	0x3cc99e9c	0.024611764
180	0x3c4633af	0.012097283
181	0x3d00735d	0.03136002
182	0xbbdbed8e	-0.0067116683
183	0xbbf52fe3	-0.007482515
184	0x3d886147	0.06659179
185	0x3d664c72	0.056225248
186	0xbd5aeb37	-0.053446975
187	0x3dbb3689	0.09141261
188	0x3c9e9a44	0.019360669
189	0x3db00c85	0.08596138
190	0x3e093d74	0.13402349
191	0x3d9c51fd	0.076328255
192	0xbce518a9	-0.02796586
193	0x3d8aa95a	0.067705825
194	0xbd1206d2	-0.035651036
195	0x3d4c902f	0.04994219
196	0xbd81a41f	-0.06330132
197	0xbd2711c6	-0.040788434
198	0x3c365651	0.011128978
199	0xbd0be368	-0.03415242
200	0x3d51fa49	0.05126408
201	0x3ceff8c9	0.029293435
202	0xbdb153c8	-0.08658558
203	0xbd2d7063	-0.04234351
204	0x3d75d53e	0.060017817
205	0x3d27b222	0.040941365
206	0x3da96251	0.082707055
207	0xbdf1425a	-0.11780234
208	0xbd2d5699	-0.042318914
209	0xbd8d6cdd	-0.0690553
210	0x3d575ef2	0.05258078
211	0x3ba70066	0.005096483
212	0x3dc5a95e	0.09651445
213	0x3c963d77	0.018339856
214	0xbd3e87af	-0.046516117
215	0x3d140dc9	0.03614596
216	0x3d592f13	0.05302341
217	0x3bbb1941	0.0057097976
218	0x3d9638bd	0.07335041
219	0xbc34d145	-0.011036222
220	0x3d5a0ad8	0.053232998
221	0xbd4920ba	-0.049103476
222	0xbd224497	-0.039616194
223	0xbd1c7dfc	-0.038206086
224	0xbd8f9360	-0.070105314
225	0x3ce48070	0.027893275
226	0xbdb19335	-0.08670656
227	0xbde49627	-0.11161452
228	0x3dd52cdb	0.10408946
229	0x3d97d3e8	0.07413465
230	0xbca7bba8	-0.020475224
231	0x3d9fca7a	0.07802291
232	0x3d5d5706	0.05403807
233	0xbdf4d625	-0.11954907
234	0xbbd38336	-0.0064548505
235	0x3d8862cb	0.06659468
236	0xbd9254e1	-0.071450956
237	0x3d3f379e	0.0466839
238	0xbddf2d57	-0.1089732
239	0xbd1a7dc1	-0.037717585
240	0xbdabedf6	-0.08394997
241	0xbdb3aaf4	-0.08772841
242	0xbd24fb3b	-0.040278655
243	0xbcd3f705	-0.025874624
244	0x3d9ceee5	0.07662753
245	0xbde694dd	-0.11258862
246	0x3b5aeb6d	0.0033404485
247	0x3bced2c7	0.0063117477
248	0xbd83b146	-0.064302966
249	0x3c00bed8	0.007858001
250	0x3de73984	0.11290267
251	0x3d3e23cd	0.04642086
252	0xbd882a1d	-0.066486575
253	0x3cf683c7	0.030092133
254	0x3da57eaf	0.080808036
255	0x3dd65b69	0.10466654

model.backbone.layers.0.temporal.0.bias f4 [32]
0	0x3dc847ba	0.09779306
1	0xbd855e22	-0.06512095
2	0x3d9d7831	0.0768894
3	0xbe1944a0	-0.14967585
4	0xbdc8c282	-0.098027244
5	0x3d1a4630	0.037664592
6	0xbe061bd8	-0.13096559
7	0xbe46517c	-0.19367021
8	0xbe0c4384	-0.1369763
9	0x3dae4722	0.08509661
10	0x3d01dbe1	0.031703833
11	0x3cd7f94e	0.026363995
12	0x3d5b404e	0.053528123
13	0x3c15d535	0.009145071
14	0xbdbc67ce	-0.09199487
15	0x3de4e8c6	0.111772105
16	0xbdbdc037	-0.09265178
17	0xbcde2cc4	-0.027120955
18	0x3d3ade0d	0.04562192
19	0xbba844df	-0.005135163
20	0xbd86d88a	-0.0658427
21	0x3d64ad80	0.055829525
22	0x3ccc285b	0.024921587
23	0xbc45af1e	-0.012065677
24	0x3d2a1e1b	0.041532617
25	0x3e0c1881	0.13681222
26	0x3e012b82	0.12614253
27	0x3dd312cd	0.1030632
28	0x3dc1b172	0.09457673
29	0x3d4d61d3	0.05014212
30	0xbd2a0274	-0.041506246
31	0xbe17da41	-0.14829351

model.backbone.layers.0.temporal.2.weight f4 [64, 32]
0	0x3dded479	0.1088037
1	0xbd825ed0	-0.0636574
2	0x3b8261f4	0.003978962
3	0x3d85683e	0.06514023
4	0x3dc048cb	0.09388884
5	0x3dba89f7	0.09108346
6	0x3e2c1b66	0.16807327
7	0x3d1a8453	0.03772385
8	0xbdc1ddd9	-0.09466142
9	0x3d0b55cc	0.03401737
10	0xbd5f6ed8	-0.05454907
11	0x3e3592d8	0.17731798
12	0xbb9166a2	-0.0044372836
13	0x3e632015	0.22180207
14	0x3da7211a	0.081606105
15	0xbdc4af75	-0.09603778
16	0x3e332d26	0.17497692
17	0x3e0ddf8f	0.13854812
18	0xbe37ffef	-0.17968725
19	0xbd908f81	-0.07058621
20	0x3c65eb7a	0.014033193
21	0xbd941ec6	-0.07232432
22	0xbd608756	-0.054816566
23	0x3d944070	0.07238853
24	0x3d970520	0.073740244
25	0x3e24afa6	0.1608263
26	0xbdfcf9f7	-0.123523645
27	0xbdd4ef2f	-0.10397183
28	0xbd3d847b	-0.04626892
29	0x3dede452	0.11615814
30	0xbb7de9de	-0.0038744132
31	0xbdcee31e	-0.10101913
32	0xbe1b628f	-0.15174316
33	0xbe06d021	-0.13165332
34	0x3da612d1	0.08109058
35	0xbe26f7f2	-0.16305521
36	0x3dacf5d0	0.084453225
37	0xbe0c4b7d	-0.13700671
38	0xbddb88f9	-0.10719485
39	0xbc966c9a	-0.018362332
40	0xbe1a480c	-0.15066546
41	0xbe1362b3	-0.1439312
42	0x3d6d36f2	0.057913728
43	0xbe07150b	-0.13191621
44	0xbe017ab8	-0.1264447
45	0x3d03bfae	0.032165222
46	0x3c5e756d	0.013577801
47	0x3e1af0dc	0.15130943
48	0x3e209c9e	0.15684745
49	0xbd8e6ae4	-0.069539815
50	0xbe5cd082	-0.21563914
51	0xbdabf3e6	-0.08396129
52	0x3e193e15	0.14965089
53	0x3e080a7e	0.13285252
54	0xbccd39a1	-0.025051894
55	0xbda051b9	-0.07828087
56	0x3d84e021	0.06488062
57	0xbb7419b4	-0.0037246766
58	0x3c272cdb	0.0102035655
59	0x3e23d3b1	0.15998723
60	0xbde1d766	-0.11027412
61	0x3dce2814	0.10066238
62	0xbda61ed3	-0.08111348
63	0xbdeec619	-0.11658878
64	0xbe52ea0f	-0.20597099
65	0xbdf42a0e	-0.11922084
66	0xbdc4d12e	-0.0961021
67	0xbe2ad1a7	-0.16681539
68	0x3c4d472e	0.012529178
69	0x3e06db61	0.13169624
70	0x3e293b84	0.1652661
71	0x3d462884	0.048378482
72	0xbe0bb665	-0.13643797
73	0x3dba93b3	0.09110203
74	0x3e1e7abe	0.1547651
75	0x3d2e3755	0.042533237
76	0xbdf9155b	-0.12162276
77	0x3d2afac0	0.04174304
78	0x3e4cc033	0.19995193
79	0x3dd04524	0.101694375
80	0x3da3d58f	0.079997174
81	0x3db38c1a	0.087669566
82	0xbe25e618	-0.16201055
83	0x3d610514	0.054936484
84	0xbd71c468	-0.0590252
85	0xbda0c27a	-0.078495935
86	0x3e27888c	0.16360682
87	0x3de09eb4	0.1096777
88	0xbdb461d8	-0.08807725
89	0x3d6caf70	0.057784498
90	0x3cc8c323	0.024507111
91	0x3e0bf192	0.1366637
92	0x3e042930	0.12906337
93	0x3bcfe513	0.0063444464
94	0x3cc77041	0.024345519
95	0x3dbc9283	0.092076324
96	0xbe3318ca	-0.17489925
97	0x3de6ec53	0.11275544
98	0xbde46dab	-0.1115373
99	0xbdd87981	-0.1057005
100	0x3d5bf19c	0.053697214
101	0xbdd93a71	-0.1060685
102	0xbcd390fa	-0.025825966
103	0x3df335c9	0.11875493
104	0xbe0f45bf	-0.1399145
105	0xbe35a50e	-0.17738745
106	0xbe0eb351	-0.13935591
107	0x3da98b5f	0.08278536
108	0x3e1c70a1	0.1527734
109	0x3cb05876	0.021526556
110	0x3e56e926	0.20987377
111	0x3e089f57	0.13342033
112	0x3b1ff7fc	0.0024409285
113	0x3ce9fc20	0.028562605
114	0xbe4ddd5c	-0.20103973
115	0x3de1d9c6	0.11027865
116	0xbdff4b59	-0.12465543
117	0x3e03ac0c	0.128586
118	0xbc6a35d9	-0.014295065
119	0xbd34f0dc	-0.044175014
120	0xbcfa2a19	-0.030537652
121	0xbdf7dff6	-0.12103264
122	0xbd448877	-0.047981706
123	0x3de68410	0.11255658
124	0xbd8ea346	-0.06964736
125	0xbd7e37a5	-0.062064786
126	0xbe38290f	-0.17984413
127	0xbe054324	-0.13013893
128	0x3d94b8f2	0.07261838
129	0xbd45ab1e	-0.048258893
130	0xbe321cd1	-0.17393805
131	0xbda20ce8	-0.07912618
132	0xbe36833e	-0.17823502
133	0x3c9e2bc1	0.019307973
134	0xbb199d1b	-0.002343959
135	0xbdd59298	-0.10428351
136	0x3d4915e8	0.049093157
137	0x3d720129	0.059083138
138	0xbd8a42bb	-0.06751009
139	0x3d899eae	0.06719719
140	0xbda7a990	-0.08186638
141	0x3e2f4cfa	0.17119208
142	0x3dc99c02	0.09844209
143	0x3e48294f	0.19547008
144	0x3e357f12	0.17724255
145	0xbe04fb15	-0.12986405
146	0x3db83fd9	0.08996553
147	0x3d5ea106	0.054352783
148	0x3da8447d	0.08216188
149	0xbe1f9a28	-0.1558615
150	0xbcdc5725	-0.026897023
151	0x3e2a95e8	0.16658747
152	0xbd8b6e16	-0.068081066
153	0xbdafe194	-0.085879475
154	0xbe0bd460	-0.13655233
155	0x3da728c7	0.081620745
156	0xbd1fdf5f	-0.039031383
157	0x3c6fabfd	0.014628408
158	0x3ce9c4d3	0.028536236
159	0x3dfde82a	0.123977974
160	0xbd82cc6f	-0.06386649
161	0x3bbdee29	0.005796213
162	0x3c90a4f5	0.017656783
163	0x3d141b7e	0.03615903
164	0xbb22cae5	-0.0024840173
165	0x3e052975	0.13004096
166	0xbdf91148	-0.12161499
167	0xbdf20623	-0.11817577
168	0x3e0d450c	0.1379587
169	0xbe28539c	-0.16438144
170	0xbdf960d0	-0.12176669
171	0x3c662da0	0.014048964
172	0x3d6a0f53	0.05714352
173	0x3e1b006f	0.15136884
174	0xbaf1108a	-0.001839177
175	0x3dbbc387	0.09168153
176	0xbc8087ae	-0.015689697
177	0xbdd99c74	-0.10625544
178	0x3e0e01da	0.13867894
179	0x3c0564fb	0.008141751
180	0xbdbfc1a1	-0.09363104
181	0xbd81350e	-0.063089475
182	0xbdc9987f	-0.098435394
183	0xbd05defc	-0.032683358
184	0xbd8742b1	-0.06604517
185	0x3e4c4108	0.19946682
186	0xbd443381	-0.04790068
187	0x3d8e574d	0.06950245
188	0xbd1d0a91	-0.038340155
189	0xbc049e1a	-0.008094335
190	0xbdf470d6	-0.11935584
191	0xbe0d5071	-0.13800217
192	0xbe23e553	-0.16005449
193	0x3e24527c	0.1604709
194	0xbdc2c532	-0.09510268
195	0x3da18d76	0.0788831
196	0x3e0258c0	0.12729168
197	0x3bd3849c	0.0064550173
198	0x3cba625e	0.022751983
199	0xbc8e253a	-0.017351735
200	0xbdad6e15	-0.08468262
201	0xbe3d05aa	-0.18459192
202	0x3e1c9ca8	0.15294135
203	0x3d171f58	0.036895126
204	0xbd6c6ef7	-0.05772301
205	0xbdfddc9a	-0.12395592
206	0x3d100135	0.0351574
207	0xbda7517d	-0.081698395
208	0x3dccdc67	0.10002976
209	0xbe3b0e68	-0.18267214
210	0xbe2f09aa	-0.1709353
211	0x3e10c0f5	0.14136107
212	0xbe3519fb	-0.17685692
213	0xbd83384d	-0.06407223
214	0x3d6032b4	0.054735854
215	0xbca88ece	-0.020575907
216	0xbe0017ed	-0.12509127
217	0x3e28413a	0.16431132
218	0x3c6c0352	0.0144050885
219	0x3d9ca923	0.07649448
220	0xbde2f952	-0.1108271
221	0x3da21087	0.079133086
222	0x3d71b095	0.059006292
223	0x3e3166aa	0.1732432
224	0x3d653d59	0.05596671
225	0xbdaae8f0	-0.083452106
226	0xbdffc5a2	-0.12488867
227	0xbcc8c050	-0.024505764
228	0x3dc63b7a	0.09679313
229	0x3daa8f5c	0.08328125
230	0xbd0b159f	-0.033956166
231	0xbdbdbe9a	-0.0926487
232	0x3dcf323b	0.101170026
233	0x3dff1997	0.12456053
234	0xbe2d0f43	-0.16900353
235	0xbcf68005	-0.030090341
236	0x3cc88a21	0.024479927
237	0xbd896e8d	-0.06710539
238	0x3e428c60	0.18998861
239	0xbd56b767	-0.052421
240	0xbdf0f54d	-0.117655374
241	0x3cd97500	0.026545048
242	0xbd6017f9	-0.054710362
243	0x3e025131	0.12726285
244	0x3d6eb09f	0.058273908
245	0x3ca37199	0.019951629
246	0x3ba594cb	0.005053138
247	0xbe1e235d	-0.15443178
248	0xbe35c40d	-0.17750569
249	0x3d97aca2	0.07405974
250	0x3ca4a673	0.0200989
251	0xbdf54d44	-0.11977628
252	0xbdc60c29	-0.09670288
253	0xbe271cb3	-0.16319542
254	0x3dd182ca	0.10230024
255	0xbc6ea0a5	-0.014564668

model.backbone.layers.0.temporal.2.bias f4 [64]
0	0x3c949f5f	0.0181424
1	0xbc96d1ef	-0.018410651
2	0xbd1d1418	-0.03834924
3	0xbcc3048d	-0.02380588
4	0xbdf5e4ed	-0.12006555
5	0xbe1ee07d	-0.15515323
6	0xbda627bd	-0.08113048
7	0xbd7225d2	-0.0591181
8	0xbd8c6f38	-0.06857151
9	0xbdc65dc3	-0.096858524
10	0xbd5e639b	-0.05429421
11	0xbe3bbccc	-0.18333739
12	0x3cfa1163	0.030525869
13	0x3d47ca5c	0.04877697
14	0xbd972802	-0.07380678
15	0xbc73f3be	-0.014889656
16	0xbc4d12c3	-0.01251668
17	0xbd5afa31	-0.053461257
18	0xbdade190	-0.08490288
19	0x3df75cb8	0.120782316
20	0xbc958428	-0.018251494
21	0xbc8984a1	-0.016786875
22	0x3dc8c639	0.09803433
23	0x3deac0af	0.11462533
24	0x3d67213a	0.05642817
25	0xbdb5d31e	-0.08878158
26	0xbd7cdd26	-0.06173434
27	0x3d26a4b3	0.040684413
28	0x3e41fd50	0.18944287
29	0xbe03f98a	-0.1288816
30	0xbdb482d3	-0.08814015
31	0x3dd78494	0.10523334
32	0xbc4c2da8	-0.012462057
33	0x3dd73328	0.10507804
34	0x3db29221	0.08719278
35	0xbd84539b	-0.06461259
36	0xbd84bafc	-0.06480977
37	0x3c3bb33c	0.011456307
38	0xbd42f38e	-0.047595553
39	0x3c9d1cb5	0.019178728
40	0xbda3e056	-0.08001773
41	0x3d4cf8b8	0.050041884
42	0xbc005daf	-0.007834836
43	0xbbbd46dc	-0.0057762694
44	0x3d44ddb4	0.048062995
45	0xbdac5935	-0.084154524
46	0x3de3667f	0.11103534
47	0x3d591183	0.052995216
48	0xbcf0a0d9	-0.029373573
49	0xbdf938f6	-0.121690676
50	0xbd80e591	-0.06293786
51	0xbdadbd06	-0.08483319
52	0x3c0c70a1	0.008571775
53	0x3d382ba1	0.044963483
54	0x3be73f3b	0.007057098
55	0xbdd77ec5	-0.10522226
56	0xbddb0cba	-0.10695787
57	0xbe198f3a	-0.14996043
58	0x3d6b1d22	0.05740083
59	0x3dee0868	0.11622697
60	0x3b8372c8	0.0040114857
61	0xbd4260ad	-0.04745548
62	0x3d771dfb	0.060331326
63	0x3d921ebe	0.0713477

model.backbone.layers.0.channel.0.weight f4 [32, 74]
0	0x3bf48995	0.00746269
1	0xbc4b1ae3	-0.012396547
2	0xbc1f8260	-0.009735674
3	0xbdc28fdf	-0.095000975
4	0x3bbd91ab	0.0057851872
5	0xbe0e7706	-0.13912591
6	0x3dd24365	0.10266761
7	0x3d80cd3e	0.06289147
8	0x3d99ad13	0.075037144
9	0x3daf6b0a	0.08565338
10	0x3dcced0a	0.10006149
11	0x3de081b0	0.10962236
12	0xbdf4dbb9	-0.11955971
13	0xbd5a8306	-0.05334761
14	0xbd2f8e9d	-0.042860616
15	0xbd285c4c	-0.041103646
16	0xbdb562c0	-0.08856726
17	0xbc8414c2	-0.01612318
18	0xbd33be10	-0.04388243
19	0x3e070211	0.13184382
20	0xbd864444	-0.065559894
21	0x3d8e9693	0.069623135
22	0x3d9b0f9e	0.07571338
23	0x3d40e035	0.04708882
24	0xbb5df291	-0.0033866505
25	0xbd793af9	-0.060847256
26	0xbdfc5ebb	-0.12322756
27	0x3dadac64	0.084801465
28	0x3cbf1b14	0.023328342
29	0xbd81a3e5	-0.063300885
30	0x3b825478	0.0039773546
31	0xbd18f490	-0.037342608
32	0xbd63f532	-0.05565376
33	0xbe019316	-0.12653765
34	0x3ccb1504	0.024790294
35	0xbb89fddd	-0.004211171
36	0xbdb65fba	-0.08904977
37	0xbc05d26c	-0.008167844
38	0xbe0d5ecf	-0.13805698
39	0xbda5daff	-0.08098411
40	0xbd6bc6da	-0.057562687
41	0x3aafed8c	0.0013422235
42	0xbd59cabe	-0.053171866
43	0xbdc3024e	-0.09521924
44	0xbd1f21f7	-0.03885075
45	0xbe0de010	-0.13855004
46	0x3db3ae0a	0.0877343
47	0x3d729b50	0.05923015
48	0xbd3b68b5	-0.045754153
49	0x3cc60a50	0.02417484
50	0x3d3b1300	0.045672417
51	0x3e052d81	0.1300564
52	0xbd620453	-0.055179905
53	0x3d8a1c04	0.06743625
54	0x3e00f9b3	0.12595253
55	0xbd36710a	-0.044541396
56	0xbdbafc45	-0.09130148
57	0xbd02df3b	-0.03195117
58	0x3ddadaca	0.10686262
59	0xbdd35166	-0.1031826
60	0xbc72a0cc	-0.014808845
61	0xbd13ee58	-0.036115974
62	0xbd95b2d6	-0.07309501
63	0xbc797a4b	-0.015226911
64	0xbd3756fc	-0.04476069
65	0x3d14aa18	0.036295027
66	0xbd86b10c	-0.06576738
67	0xbbe4fd0e	-0.0069881743
68	0x3def152d	0.11673961
69	0x3ddc1955	0.10747019
70	0x3d87d05c	0.06631538
71	0xbd8a381e	-0.06748985
72	0xbd629aa6	-0.055323265
73	0xbda74db1	-0.08169115
74	0xbdc099ed	-0.09404359
75	0x3d842e0f	0.064540975
76	0x3cba2d5c	0.022726707
77	0x3c357df0	0.011077389
78	0xbce84f76	-0.028358202
79	0xbd8ece72	-0.0697297
80	0xbd491a3e	-0.049097292
81	0x3cca726b	0.024712762
82	0xbd805806	-0.06266789
83	0xbd71c687	-0.05902722
84	0x3dbfe10c	0.09369096
85	0xbd52cc9c	-0.051464662
86	0x3d05fd17	0.03271207
87	0x3c054035	0.008132984
88	0x3d9fb913	0.07798972
89	0xbdb13380	-0.08652401
90	0x3d1841d0	0.03717214
91	0x3cc153be	0.023599502
92	0xbda19873	-0.078904055
93	0x3dd1ec4a	0.10250147
94	0x3cb89839	0.022533523
95	0x3d3cb900	0.046074867
96	0xbdb49c34	-0.08818856
97	0x3da2b971	0.079455264
98	0xbcf7f979	-0.030270325
99	0xbdd70a56	-0.10500018
100	0xbd77b306	-0.060473464
101	0x3d5142cb	0.05108909
102	0xbdafcfb1	-0.08584536
103	0xbcb3ca9f	-0.021947203
104	0x3d32825e	0.04358136
105	0x3e0bd27d	0.13654514
106	0x3c36b60e	0.011151804
107	0xbc13bc58	-0.009017073
108	0x3d58a68d	0.05289321
109	0x3ddabe16	0.10680787
110	0xbd5d2df0	-0.053998888
111	0xbd62a373	-0.05533166
112	0xbc7fc0ca	-0.015609929
113	0xbd5b7b72	-0.053584523
114	0x3d9b0ae0	0.075704336
115	0x3db31f22	0.087461725
116	0x3cd065a5	0.025439093
117	0xbda9bac8	-0.08287579
118	0xbd6dd939	-0.058068488
119	0xbddebc08	-0.10875708
120	0xbd5031f9	-0.050828908
121	0x3d246279	0.040132973
122	0x3bd415ce	0.006472326
123	0xbd6b0f53	-0.05738766
124	0x3da45655	0.08024279
125	0x3da66294	0.08124271
126	0xbd341d3e	-0.0439732
127	0xbd8c212c	-0.068422645
128	0x3d6ed226	0.058305882
129	0xbdec21d5	-0.115298904
130	0xbdde7704	-0.10862544
131	0xbd9c5733	-0.076338194
132	0xbcfbce19	-0.030737923
133	0x3d973d98	0.07384795
134	0xbc8a50e5	-0.016884277
135	0xbdeb33f0	-0.11484516
136	0xbd8c57af	-0.06852662
137	0xbdb3f725	-0.087873735
138	0x3cee9bda	0.02912705
139	0xbb9754f9	-0.004618284
140	0xbd474317	-0.048647966
141	0xbe0000dc	-0.12500328
142	0xbbcbe20c	-0.0062220152
143	0x3d925525	0.07145146
144	0x3dc04dff	0.093898766
145	0x3c0c44d8	0.0085613355
146	0x3de789be	0.11305569
147	0x3d7834a2	0.06059707
148	0xbdad188a	-0.08451946
149	0xbdb6ae9c	-0.08920023
150	0x3cc74dd8	0.024329111
151	0xbd64267d	-0.055700768
152	0xbca0a762	-0.019611064
153	0x3d30dc32	0.043178745
154	0x3ce5e746	0.028064381
155	0x3d9eb621	0.07749582
156	0xbcc1d04b	-0.023658892
157	0x3d5346f1	0.051581327
158	0xbd92307e	-0.071381554
159	0x3d293c15	0.041317064
160	0xbd1addd8	-0.037809223
161	0xbd1b8e48	-0.037977487
162	0xbb55883a	-0.0032582418
163	0xbaba0b98	-0.0014194129
164	0x3d9abd3b	0.07555624
165	0xbd2c9c64	-0.042141333
166	0x3ba6d44b	0.0050912253
167	0x3ce1481a	0.027500201
168	0x3cb7141b	0.022348454
169	0x3cce16e8	0.025157407
170	0x3daba7d6	0.083816215
171	0x3d8b3db5	0.06798879
172	0xbda9e5bc	-0.082957715
173	0x3cae3c19	0.021268891
174	0x3cf5d84b	0.030010363
175	0x3d945118	0.0724203
176	0xbddb7fc0	-0.10717726
177	0x3d99ba9f	0.07506298
178	0x3dd37076	0.103241846
179	0xbcb6b45a	-0.022302795
180	0x3d17eeba	0.0370929
181	0xbb3da6bf	-0.00289385
182	0xbda6d775	-0.08146564
183	0xbce00ba0	-0.027349293
184	0x3c0b500f	0.008502974
185	0x3cfbdf5f	0.03074616
186	0x3da10ccb	0.07863768
187	0x3d1d02ed	0.03833287
188	0xbdee1573	-0.11625185
189	0x3c990cc6	0.018682849
190	0xbcef8c79	-0.029241787
191	0x3d65cd0c	0.05610375
192	0x3db13acb	0.08653792
193	0xbd82dc40	-0.063896656
194	0x3d990cb3	0.07473125
195	0x3d88171b	0.06645032
196	0x3d910eb3	0.07082882
197	0xbdb229d2	-0.08699383
198	0x3ddd5756	0.10807674
199	0xbd6d868d	-0.057989646
200	0xbd74a856	-0.05973085
201	0x3dc5113e	0.09622429
202	0xbd9c3f42	-0.07629253
203	0xbd403acc	-0.046931073
204	0xbd819294	-0.06326786
205	0x3d1656ba	0.036703803
206	0x3d7c8640	0.06165147
207	0xbcb062ae	-0.02153143
208	0x3d96f266	0.073704526
209	0x3cdb6a90	0.026784211
210	0xbdabff89	-0.08398349
211	0x3d320bdf	0.043468352
212	0xbc89d78e	-0.016826417
213	0xbd6d502f	-0.057937797
214	0x3d98eb3a	0.07466741
215	0x3def75e9	0.116924115
216	0xbc86e3c5	-0.01646603
217	0x3d02a8fe	0.031899445
218	0x3d61738e	0.055041842
219	0x3dedfa5d	0.11620019
220	0xbc6aa8f6	-0.01432251
221	0x3da33856	0.079697296
222	0xbb904678	-0.004402932
223	0xbd157c62	-0.036495574
224	0xbd14d2d8	-0.03633389
225	0xbe03fe64	-0.12890011
226	0x3da1cdc3	0.07900574
227	0xbb5fde83	-0.0034159727
228	0xbd7d4f41	-0.06184316
229	0xbd7a90fe	-0.06117343
230	0xbc3332e2	-0.010937424
231	0xbd04339f	-0.032275792
232	0xbdc83a25	-0.09776715
233	0xbe0529c5	-0.13004215
234	0x3c8035e1	0.015650691
235	0x3d5b7cf2	0.053585954
236	0xbd1587f2	-0.0365066
237	0x3b025884	0.0019889185
238	0x3cb52a1b	0.022114804
239	0x3db602ad	0.08887229
240	0x3dafce20	0.08584237
241	0x3dad76dc	0.08469936
242	0x3d67f365	0.056628603
243	0xbe0665b3	-0.13124733
244	0x3df781f1	0.12085331
245	0xbdaaca05	-0.083393134
246	0x3d492323	0.049105775
247	0xbd8d5cb4	-0.06902447
248	0x3d0a7a98	0.03380832
249	0x3dc96928	0.0983451
250	0x3dca2156	0.098696396
251	0x3d8778f9	0.066148706
252	0xbd9f5d3e	-0.077814564
253	0xbe0cbdfb	-0.13744347
254	0x3e03af0d	0.12859745
255	0x3db30463	0.08741071

model.backbone.layers.0.channel.0.bias f4 [32]
0	0xbd3829de	-0.044961803
1	0xbc52850b	-0.012849103
2	0xbdc934c6	-0.09824519
3	0xbd8d42b2	-0.06897487
4	0xbde54bd8	-0.11196107
5	0xbdb74d49	-0.08950288
6	0xbd773f45	-0.060363073
7	0x3d62315c	0.055222854
8	0xbd753630	-0.05986613
9	0x3da09942	0.078417316
10	0x3cebf39d	0.028802687
11	0x3c8120e4	0.015762754
12	0xbde3e450	-0.111275315
13	0x3b48a0aa	0.0030613341
14	0xbd309b94	-0.04311712
15	0xbd76a13b	-0.060212355
16	0xbd5cf499	-0.053944204
17	0x3db8deb0	0.09026849
18	0xbc889794	-0.01667384
19	0x3dc32799	0.09529037
20	0xbdcf14f3	-0.101114176
21	0xbd9b54c7	-0.07584529
22	0x3b8f2b37	0.0043691653
23	0xbdad42db	-0.08460017
24	0x3d974c70	0.07387626
25	0xbd2cd157	-0.04219183
26	0x3dd958de	0.10612653
27	0xbd4b14ce	-0.049580388
28	0x3d57d5a4	0.052693978
29	0x3d3e20e6	0.046418093
30	0xbdbc9654	-0.0920836
31	0xbd97c6a8	-0.074109375

model.backbone.layers.0.channel.2.weight f4 [74, 32]
0	0x3d460fa1	0.04835475
1	0x3d3bff98	0.04589805
2	0xbd3e818c	-0.046510264
3	0xbe4ff0ff	-0.20306776
4	0x3cd80c98	0.026373193
5	0x3d67ab6a	0.056559958
6	0xbe4abbd0	-0.19798207
7	0xbce9a8da	-0.028522898
8	0x3cfa98d8	0.03059046
9	0x3e02f1a3	0.1278749
10	0x3e2ec477	0.17067133
11	0x3e1641c6	0.14673528
12	0xbdd597d5	-0.1042935
13	0x3d53227b	0.051546555
14	0xbd970c75	-0.07375423
15	0x3dc2a074	0.0950326
16	0xbd6cd627	-0.05782142
17	0xbe0cce63	-0.13750605
18	0x3e22c438	0.15895164
19	0x3d89f9d8	0.06737107
20	0x3e49f0d4	0.19720775
21	0xbdae5999	-0.08513183
22	0x3e283aff	0.16428755
23	0xbd4ee1a4	-0.050508156
24	0xbe0b0772	-0.13577059
25	0xbc9c1816	-0.019054454
26	0x3d21d44b	0.0395091
27	0x3d5a740a	0.05333332
28	0x3daa13d4	0.08304563
29	0x3cb100ae	0.02160677
30	0xbd98721e	-0.07443641
31	0x3db0dbe5	0.086356916
32	0xbe444c7a	-0.19169798
33	0xbcf42d54	-0.02980677
34	0x3e0170ba	0.12640658
35	0xbd92d143	-0.0716882
36	0x3d953e18	0.07287234
37	0xbda79c7a	-0.081841424
38	0x3de7e730	0.113233924
39	0xbe36aeac	-0.1784007
40	0xbe0e8877	-0.13919245
41	0xbdcff1eb	-0.10153564
42	0x3db3786f	0.08763205
43	0xbda2d5f7	-0.07950967
44	0x3cbcb694	0.023036279
45	0xbc0f5ab0	-0.008749649
46	0xbdcbfbb8	-0.09960121
47	0xbe04445d	-0.12916704
48	0xbd1997ad	-0.037498165
49	0xbe0a23e8	-0.1349026
50	0x3d3422e9	0.043978605
51	0xbe1c7a93	-0.15281133
52	0xbd022d49	-0.03178147
53	0xbb7783e8	-0.0037767831
54	0x3e03e68a	0.12880912
55	0x3d6f7a7d	0.058466423
56	0x3ded26f0	0.11579692
57	0xbc89303d	-0.016746635
58	0x3d82d0a6	0.06387453
59	0x3d7d4a6a	0.061838545
60	0x3e0e8cfc	0.13920969
61	0xbe0e87f6	-0.13919052
62	0x3db8c19a	0.090213016
63	0xbce6d90a	-0.028179664
64	0x3de93ee9	0.11388952
65	0x3e25939c	0.1616959
66	0xbdd5df14	-0.104429394
67	0xbe29b797	-0.1657394
68	0xbd974c51	-0.07387603
69	0x3dd61c69	0.104546376
70	0xbdb7f3a0	-0.08982015
71	0x3d06c026	0.03289809
72	0xbd7cab08	-0.061686546
73	0x3e01eff4	0.12689191
74	0xbddcb40f	-0.10776531
75	0xbdd30fd9	-0.10305757
76	0x3dd6e913	0.10493674
77	0x3df78848	0.120865405
78	0xbdd0f2f7	-0.10202592
79	0x3c8c86a9	0.017154055
80	0xbcb75e22	-0.022383753
81	0xbe044228	-0.12915862
82	0xbd78ebdb	-0.060771804
83	0xbc68bd2f	-0.014205261
84	0x3d0ef9a2	0.034906037
85	0xbd289c08	-0.041164428
86	0xbd40d1f5	-0.04707523
87	0xbcef8d10	-0.029242069
88	0xbe03cf9c	-0.12872165
89	0x3e273521	0.16328861
90	0xbe31cd33	-0.17363434
91	0xbe00c3fb	-0.1257476
92	0xbdf94a34	-0.12172356
93	0x3db88caf	0.09011208
94	0x3d6c12a5	0.05763497
95	0xbe3dcf81	-0.18536188
96	0xbd9fec1a	-0.07808705
97	0x3d87a03e	0.06622361
98	0x3d6d8d36	0.057995997
99	0xbd8d773c	-0.06907508
100	0x3d920a8a	0.071309164
101	0xbe353959	-0.17697658
102	0x3d88c256	0.06677692
103	0x3dc067e6	0.09394817
104	0x3dcaa20a	0.09894188
105	0x3da4a9ef	0.08040225
106	0x3c4c2a15	0.012461205
107	0xbe25e559	-0.1620077
108	0x3cc1aab9	0.023640977
109	0xbe0f0258	-0.13965738
110	0xbc567865	-0.013090228
111	0x3beeee7b	0.0072916127
112	0xbd8a423a	-0.06750913
113	0xbd243d83	-0.040097725
114	0x3d6adfbf	0.057342287
115	0xbdb02a2c	-0.08601794
116	0x3e27a26e	0.16370556
117	0xbda5ccc2	-0.08095695
118	0x3dd3200c	0.10308847
119	0x3d8124bb	0.06305834
120	0xbd76896d	-0.060189653
121	0xbb7627c6	-0.0037560328
122	0xbde22872	-0.110428706
123	0x3b23fabe	0.002502128
124	0x3e062ce6	0.13103065
125	0x3d3bba72	0.045832105
126	0x3e1334fa	0.14375678
127	0xbdf37d59	-0.118891425
128	0xbdf982e1	-0.12183166
129	0x3d99ff77	0.07519429
130	0x3d9044d3	0.07044377
131	0xbe27c5b9	-0.16384019
132	0xbd34916b	-0.044083994
133	0xbe169f57	-0.14709221
134	0x3e1b2dd1	0.15154196
135	0xbdc5f822	-0.09666468
136	0xbdaa4022	-0.083130136
137	0xbe315536	-0.17317662
138	0x3dd81cc0	0.105523586
139	0xbcd83a95	-0.026395122
140	0xbe43c095	-0.19116433
141	0xbe27fc84	-0.16404921
142	0x3dfe1199	0.124057
143	0x3d7c4ab6	0.061594687
144	0x3e1d5678	0.15365016
145	0xbe0c553f	-0.13704394
146	0xbcdcb257	-0.026940508
147	0xbc5ac7f7	-0.013353339
148	0xbde76873	-0.11299219
149	0xbe02d8a3	-0.12777953
150	0xbda6aaed	-0.0813807
151	0x3c0e82c0	0.008698165
152	0xbb081df3	-0.0020769804
153	0x3d23c2ce	0.039980702
154	0x3e02f30b	0.12788026
155	0x3e31e7e0	0.1737361
156	0x3de5832e	0.11206661
157	0xbe1d6c05	-0.15373237
158	0xbcef6fae	-0.029228058
159	0xbda3f978	-0.08006567
160	0x3debaede	0.11507963
161	0x3dcf13ee	0.10111223
162	0xbd371d3e	-0.044705622
163	0xbdfe2a42	-0.12410404
164	0x3e09e904	0.13467795
165	0xbe0ea144	-0.13928705
166	0x3e3520c6	0.17688283
167	0xbc59b425	-0.013287579
168	0x3c9f06dc	0.01941245
169	0xbc05d159	-0.008167588
170	0x3c0019f2	0.007818686
171	0xbd8c06b1	-0.06837214
172	0xbd7709d3	-0.060312103
173	0xbdaffeb9	-0.08593506
174	0xbd9b6f57	-0.07589596
175	0x3e0bbeb6	0.13646969
176	0x3e219ec9	0.15783228
177	0x3d9d1e7b	0.07671829
178	0x3e34c4ad	0.17653151
179	0x3e1a802c	0.15087956
180	0xbdd39ff9	-0.10333247
181	0xbd9d9e1b	-0.07696172
182	0xbca47696	-0.020076077
183	0xbcb955f2	-0.02262399
184	0x3d79a905	0.060952205
185	0xbdb045d3	-0.08607068
186	0x3ddb02c9	0.106938906
187	0xbe20d26f	-0.15705274
188	0xbc39ef96	-0.011348626
189	0x3e3b8b42	0.18314841
190	0xbe3e29f6	-0.18570694
191	0x3e348806	0.17630014
192	0xbcf3fd7a	-0.029783953
193	0x3d475af8	0.04867074
194	0xbe10fd83	-0.14159207
195	0x3e09d561	0.13460304
196	0x3dbdfeaa	0.09277089
197	0xbd1a4798	-0.037665933
198	0xbe101d7b	-0.14073746
199	0x3d772337	0.060336318
200	0x3db3b66f	0.08775031
201	0x3d3dba37	0.046320166
202	0x3e26733a	0.16254893
203	0x3d5a78aa	0.05333773
204	0xbdbe176d	-0.09281812
205	0x3db8f870	0.09031761
206	0xbdd945eb	-0.10609039
207	0x3cae917b	0.021309605
208	0x3dd96804	0.106155425
209	0xbd2d8839	-0.04236624
210	0xbdf45312	-0.11929907
211	0xbe1592d4	-0.14606792
212	0xbdaf2153	-0.08551278
213	0x3d70220b	0.058626216
214	0x3da3c857	0.07997196
215	0xbdef8927	-0.116960816
216	0x3db87464	0.09006575
217	0x3e0d25ea	0.13783994
218	0xbe2a8518	-0.16652334
219	0x3e1354ae	0.14387771
220	0x3d3c8400	0.046024323
221	0x3df12adf	0.11775755
222	0xbd974637	-0.07386439
223	0x3e2b8f6d	0.16753931
224	0xbda343f8	-0.079719484
225	0x3d880187	0.06640916
226	0xbd84338b	-0.064551435
227	0x3e3843d8	0.1799463
228	0x3d675041	0.05647302
229	0xbe2f64e5	-0.17128332
230	0xbe006460	-0.1253829
231	0xbcef3b48	-0.029203072
232	0xbda91be1	-0.082572706
233	0xbe07b8b7	-0.13254057
234	0x3e49fe03	0.19725804
235	0x3c99bbed	0.018766368
236	0xbca0344f	-0.019556193
237	0xbe1e8722	-0.15481237
238	0xbd79ae15	-0.060957033
239	0x3e077812	0.13229397
240	0x3e5c607e	0.21521184
241	0xbd004ed7	-0.031325188
242	0x3df667f7	0.120315485
243	0xbdb54964	-0.08851889
244	0xbd71bb95	-0.059016783
245	0xbba74f27	-0.0051058712
246	0xbe0c285e	-0.13687274
247	0x3d6afde3	0.05737103
248	0xbd871bc0	-0.0659709
249	0xbe274ac6	-0.16337118
250	0x3de624d3	0.112374924
251	0x3d80c06b	0.06286701
252	0x3d2d7c8a	0.042355098
253	0x3d71a066	0.05899086
254	0xbe06458b	-0.13112466
255	0x3e2b389b	0.16720812

model.backbone.layers.0.channel.2.bias f4 [74]
0	0x3e2223c3	0.15833955
1	0x3dbfaa54	0.093586594
2	0x3e2bdd41	0.1678362
3	0xbc839744	-0.01606334
4	0x3de16dcb	0.110072695
5	0x3da24121	0.079225786
6	0xbd13f8f2	-0.036126085
7	0xbd624a3f	-0.055246588
8	0xbe03525b	-0.12824385
9	0xbe183029	-0.14862122
10	0x3da5df8d	0.080992796
11	0xbe016fcc	-0.12640303
12	0x3da359f1	0.07976139
13	0xbdddc330	-0.10828245
14	0x3d0f062f	0.034918007
15	0xbcde595c	-0.02714222
16	0xbe0e1b7f	-0.13877676
17	0xbd03c8f2	-0.03217406
18	0x3cda9a17	0.026684804
19	0x3de06a00	0.10957718
20	0x3e11956a	0.14217153
21	0xbe2806de	-0.1640887
22	0xbdf9a68a	-0.12189968
23	0xbe1a8b81	-0.15092279
24	0x3d5589b5	0.05213328
25	0x3d3597b4	0.04433413
26	0x3e1a7213	0.15082578
27	0xbe0a558d	-0.13509198
28	0x3d8aea83	0.06783011
29	0x3e205dc4	0.15660769
30	0x3d92a46b	0.071602665
31	0xbc236d5e	-0.009974806
32	0xbce9a8ed	-0.028522933
33	0x3d357c3b	0.04430793
34	0x3e3e3121	0.18573429
35	0xbdefaac0	-0.1170249
36	0x3dfd3ede	0.123655066
37	0x3b0731b4	0.002062899
38	0xbdbc0e1b	-0.09182378
39	0x3ba0e5f7	0.0049102264
40	0x3e18e12a	0.14929643
41	0xbe0ad0c4	-0.135562
42	0xbacd3928	-0.0015657293
43	0xbda35c4e	-0.0797659
44	0x3e0852b4	0.13312799
45	0xbd16ca4d	-0.036814023
46	0x3e0bd3cc	0.13655013
47	0xbdbc3275	-0.091893114
48	0xbd9b4e6d	-0.07583318
49	0x3d1fd57c	0.039021954
50	0x3d6bda58	0.057581276
51	0x3dc18b93	0.0945045
52	0xbcdf15e7	-0.027232124
53	0x3dfc0ba2	0.12306906
54	0x3dda4cc6	0.106591746
55	0xbddc76fe	-0.107648835
56	0xbe03f5a5	-0.12886675
57	0xbc911706	-0.017711174
58	0x3df74956	0.120745346
59	0x3de27801	0.11058045
60	0xbd66ec7a	-0.056377865
61	0xbde17f2d	-0.11010585
62	0x3d817c7a	0.0632257
63	0xbcfc4a36	-0.030797105
64	0x3dd6f6f5	0.10496322
65	0x3d78af97	0.06071433
66	0xbd67f7cb	-0.0566328
67	0x3d08b9ba	0.033380248
68	0x3d105fce	0.035247616
69	0xbdb260fd	-0.08709905
70	0x3d994511	0.074838765
71	0xbe135734	-0.14388734
72	0x3ccd9d3c	0.02509939
73	0x3dbeda53	0.09318986

model.backbone.layers.1.temporal.0.weight f4 [32, 64]
0	0xbcad7b01	-0.021176817
1	0xbd38b69d	-0.04509603
2	0xbe035151	-0.12823988
3	0xbdc28020	-0.09497094
4	0xbde6df66	-0.112730786
5	0x3dc9d05a	0.09854193
6	0x3d7066b4	0.058691695
7	0xbd99f444	-0.07517293
8	0xbd82aa33	-0.06380119
9	0x3d537a1e	0.051630132
10	0x3da73403	0.08164217
11	0x3dcceaa3	0.10005691
12	0x3b0a3541	0.002108887
13	0x3dc66ba7	0.09688502
14	0x3dbd1412	0.09232344
15	0xbdd1f6c1	-0.10252143
16	0x3ce077cb	0.027400872
17	0x3d5a237e	0.053256504
18	0x3d0ba470	0.034092367
19	0xbdf8d108	-0.121492445
20	0xbdae6dac	-0.08517012
21	0x3dd1963d	0.10233734
22	0x3d946cf5	0.072473444
23	0xbd6ee09d	-0.058319677
24	0x3dcf9d15	0.10137383
25	0xbcb3ec2e	-0.021963205
26	0x39d4c6cb	0.00040583903
27	0xbe07ed3a	-0.13274089
28	0x3d2ecfd3	0.042678665
29	0xbcacc0b4	-0.021087982
30	0xbe0eb106	-0.13934717
31	0xbd8eb7db	-0.069686614
32	0xbbd5b4b1	-0.0065217842
33	0xbe0dd7cf	-0.13851856
34	0xbdc32b23	-0.09529712
35	0x3ca250ef	0.019813983
36	0x3d44848d	0.047977973
37	0x3d80d743	0.06291058
38	0xbde4aaed	-0.11165414
39	0x3d847998	0.06468505
40	0x3b4579ac	0.0030132337
41	0xbdb93982	-0.09044172
42	0xbd8dbdf7	-0.069209985
43	0x3d8948b0	0.06703317
44	0x3d5ab184	0.05339195
45	0xbe0951b0	-0.13410068
46	0x3dd5f965	0.10447959
47	0xbd9f0496	-0.077645466
48	0xbde64339	-0.112432905
49	0x3d3b5443	0.045734655
50	0x3d17ab92	0.037028857
51	0x3d5639d0	0.052301228
52	0x3dc5b67c	0.09653947
53	0xbde27be5	-0.11058787
54	0x3d95b6a1	0.07310224
55	0xbe035141	-0.12823965
56	0xbd8d60f7	-0.0690326
57	0xbd87c6b1	-0.06629694
58	0xbc2e6ae8	-0.010645606
59	0x3d9c6c54	0.076378495
60	0xbc2aae60	-0.010417551
61	0x3d9fb9ba	0.077990964
62	0xbd11ef21	-0.03562844
63	0x3ddb979d	0.10722277
64	0x3e04f4db	0.1298403
65	0x3dcd5b88	0.10027224
66	0xbd682ae2	-0.05668152
67	0x3dff514a	0.124666765
68	0x3dd7a8f6	0.105302736
69	0xbd7e425b	-0.062075
70	0x3dea8c58	0.1145255
71	0x3d0192f8	0.0316343
72	0xbd0ad916	-0.033898436
73	0x3deff4d8	0.11716622
74	0xbcb3fdda	-0.021971632
75	0x3d93c233	0.07214775
76	0x3bae2a9b	0.0053151376
77	0xbd1fbcd7	-0.03899845
78	0x3daed31d	0.085363604
79	0x3d80ce5a	0.062893584
80	0x3d1669d8	0.036722034
81	0x3c3b79fc	0.011442658
82	0xbc08c603	-0.008347991
83	0xbd9d5336	-0.07681887
84	0xbd154776	-0.036445104
85	0xbc50deec	-0.012748461
86	0xbd7a684c	-0.06113462
87	0xbdc02dcd	-0.09383736
88	0xbd63b8ca	-0.05559615
89	0x3d95bc8d	0.07311354
90	0x3df02a1d	0.117267825
91	0xbcbfda67	-0.023419572
92	0x3dd54461	0.10413433
93	0x3d5c1a07	0.05373576
94	0x3d7c5c2b	0.061611336
95	0x3d2f007d	0.042725075
96	0x3d89fce6	0.0673769
97	0xbd009033	-0.03138752
98	0xbc5dc7cc	-0.013536405
99	0x3de79a9e	0.11308788
100	0x3de2f92f	0.11082684
101	0xbd8e8afd	-0.06960104
102	0xbd1f5b40	-0.038905382
103	0x3db092f5	0.0862178
104	0x3e233429	0.15937866
105	0x3d914331	0.07092894
106	0x3cebe4a6	0.028795552
107	0x3d501463	0.050800692
108	0x3d8dcbf2	0.06923665
109	0xbd4c2d6a	-0.049847998
110	0xbdcc091f	-0.09962677
111	0xbd884c81	-0.06655217
112	0xbc3f28cd	-0.0116674425
113	0x3a9ad9b9	0.0011814154
114	0x3cd57661	0.026057424
115	0xbd4e3e1f	-0.050352212
116	0x3c3fd235	0.011707832
117	0xbd9b43f0	-0.075813174
118	0x3dfac115	0.12243859
119	0xbd6e1b6b	-0.058131617
120	0x3d0e3b76	0.034724675
121	0x3d2610fc	0.04054354
122	0x3decdb10	0.1156522
123	0x39bddeb8	0.00036214828
124	0xbd211d5a	-0.039334632
125	0x3d698a7f	0.057016846
126	0x3d0a94d3	0.033833336
127	0xbda702ca	-0.08154829
128	0x3d2a0245	0.04150607
129	0x3c1715df	0.009221523
130	0x3c7ca331	0.015419767
131	0xbc35ea95	-0.011103292
132	0x3d9b2a43	0.0757642
133	0xbd7aefc2	-0.061263807
134	0xbd9b411d	-0.07580779
135	0xbe0130f5	-0.12616332
136	0xbd903344	-0.07041028
137	0x3b6fbbd6	0.0036580465
138	0x3c811deb	0.015761336
139	0xbd68e6e3	-0.056860816
140	0xbd8d4857	-0.06898563
141	0x3d8da605	0.06916431
142	0xbe138f8d	-0.14410229
143	0xbe001156	-0.12506613
144	0x3c6c7194	0.014431376
145	0xbda9e934	-0.08296433
146	0xbde0686d	-0.10957418
147	0xbd8e9ba4	-0.0696328
148	0xbe0be530	-0.13661647
149	0x3c83e82d	0.016101921
150	0xbe022e1b	-0.127129
151	0x3d93a70f	0.07209598
152	0xbd71d531	-0.059041206
153	0x3dc9b9e8	0.09849912
154	0x3d40454b	0.046941083
155	0x3dc83b86	0.09776978
156	0xbdae39b4	-0.085071
157	0xbdbde859	-0.092728324
158	0xbdcba4b9	-0.09943528
159	0x3dc84b2c	0.09779963
160	0x3d969f7c	0.07354638
161	0x3dafb8f0	0.08580196
162	0x3d80e1d6	0.06293075
163	0xbdb726a9	-0.08942921
164	0x3c991bee	0.018690076
165	0x3d336d91	0.043805663
166	0xbe194417	-0.1496738
167	0x3d7078fe	0.058709137
168	0x3d5ed36d	0.05440085
169	0xbd3ff53d	-0.046864737
170	0xbd6aab38	-0.057292193
171	0x3d2690a0	0.04066527
172	0x3d084b94	0.033275202
173	0xbd58e0af	-0.05294865
174	0x3d88a6d4	0.06672445
175	0xbde04e8a	-0.1095248
176	0x3d542872	0.051796384
177	0x3dfb3f03	0.12267878
178	0x3d530b18	0.05152425
179	0x3d6a046c	0.057133123
180	0x3d03ed74	0.032208875
181	0x3da83475	0.082131304
182	0xbdce94ff	-0.100870125
183	0xbdf3e6ef	-0.119092815
184	0xbd91b081	-0.071137436
185	0xbd6cf27b	-0.057848435
186	0xbd58fbbd	-0.05297445
187	0xbcf5f916	-0.030026
188	0xbda62f68	-0.08114511
189	0xbb95e323	-0.004574196
190	0xbd57d445	-0.05269267
191	0x3e838603	0.2568818
192	0xbdd94a9d	-0.106099345
193	0x3dd77731	0.10520781
194	0x3b1db4ee	0.0024064141
195	0xbd30ebad	-0.043193508
196	0xbdd2b288	-0.102879584
197	0xbdd0b7e3	-0.101913236
198	0xbdc04fd8	-0.09390229
199	0x3d8bdaa8	0.06828815
200	0x3de25e46	0.110531375
201	0xbda7d7e3	-0.08195474
202	0xbc8c1ae5	-0.017102668
203	0x3d2d5fce	0.042327695
204	0x3bf44dbf	0.007455557
205	0xbe0442d2	-0.12916115
206	0x3d78d694	0.060751513
207	0x3d56fc3a	0.052486636
208	0x3cc00b6f	0.023442952
209	0xbdf9b079	-0.121918626
210	0x3d3cbc5d	0.046078075
211	0xbdb19fed	-0.086730815
212	0xbd93a00f	-0.07208263
213	0x3d4bee88	0.049788028
214	0xbdcfa132	-0.101381674
215	0x3d796e33	0.06089611
216	0xbd98b0c7	-0.074555926
217	0xbd1a48fa	-0.037667252
218	0xbce0f3e2	-0.027460042
219	0xbdba8fe9	-0.0910948
220	0xbcf70469	-0.03015347
221	0x3da14a6c	0.07875523
222	0xbd9c1628	-0.076214135
223	0xbd862260	-0.06549525
224	0xbd181b0c	-0.03713517
225	0xbd00a50e	-0.03140741
226	0xbd8c36a0	-0.068463564
227	0xbdb2b8b2	-0.08726634
228	0x3dbe0445	0.09278158
229	0xbd91059a	-0.070811465
230	0x3cd39cf3	0.025831675
231	0xbe0b5c62	-0.1360946
232	0x3d258f6a	0.040419973
233	0xbe0dde99	-0.13854446
234	0x3cb4ac5b	0.022054842
235	0xbd120ca2	-0.03565658
236	0xbdba09fc	-0.090839356
237	0xbc82dbfa	-0.015974034
238	0x3d0fc8f8	0.035103768
239	0x3bc476e1	0.005995617
240	0x3d7d98f7	0.061913457
241	0xbcb4546c	-0.022012912
242	0xbde9b5ed	-0.11411653
243	0xbc0abe64	-0.008468244
244	0x3c8e96fc	0.01740598
245	0xbd8ada54	-0.06779924
246	0xbde2e02e	-0.11077915
247	0x3dcbfdd6	0.09960525
248	0xbdcd4566	-0.10023002
249	0x3d8fbca9	0.07018406
250	0x3dbd50d4	0.09243932
251	0x3d8b1249	0.06790597
252	0x3d25098b	0.040292304
253	0xbd969087	-0.07351785
254	0x3dd3e276	0.10345928
255	0x39d59e53	0.00040744487

model.backbone.layers.1.temporal.0.bias f4 [32]
0	0x3d086685	0.033300895
1	0x3d4d576d	0.050132204
2	0xbd64fc59	-0.05590472
3	0x3d4a59d1	0.04940206
4	0x3dacb633	0.08433189
5	0x3bbe930a	0.0058158683
6	0xbe278036	-0.16357502
7	0xbda6d7c0	-0.0814662
8	0x3da1de0c	0.0790368
9	0xbdf839f2	-0.12120427
10	0x3cf22d1e	0.02956253
11	0xbe070f02	-0.13189319
12	0xbd13629b	-0.03598271
13	0xbc86b132	-0.016441915
14	0x3dab6a78	0.08369917
15	0x3d548f43	0.051894438
16	0x3de2c13f	0.11072015
17	0xbdd62239	-0.10455746
18	0x3b9ededa	0.0048483433
19	0x3d800ec8	0.06252819
20	0x3d839a12	0.06425871
21	0x3d842dcb	0.06454047
22	0x3d37c2ac	0.044863388
23	0x3ba5c451	0.005058803
24	0xbe061060	-0.13092184
25	0x3d53dd4b	0.051724713
26	0x3d790693	0.060797285
27	0x3db3dbe0	0.08782172
28	0xbe113855	-0.14181645
29	0xbd257f91	-0.04040486
30	0x3da65874	0.0812234
31	0xbe15a21f	-0.14612626
