experiments/AdversarialDomainAdaptation/saved_models/tsmixer_da_pretrained_3.pt (torch, 731036 bytes, 30 tensors)

model.backbone.static_proj.weight f4 [64, 10]
000000 dd 82 19 bd 39 c2 ee 3d d1 bf cf 3c 3f b8 56 3e
       -0.037478317 0.11658139 0.02536002 0.20968722
000010 49 cd 58 be c0 91 c4 3d e1 1b 69 3e 55 9e 1c be
       -0.2117206 0.09598112 0.22764541 -0.15294774
000020 0a 7d 81 3d 24 93 98 bd 71 79 35 bd 90 f6 b8 bc
       0.063226774 -0.0744994 -0.04430527 -0.022578508
000030 dd 08 94 3d 1a bb c5 bd 4d 79 e7 3d 89 0e b3 bd
       0.07228253 -0.096548274 0.11302433 -0.08743007
000040 13 24 48 3d fe f4 9d bd c8 c0 90 bd 95 22 3c 3e
       0.048862528 -0.07712744 -0.0706802 0.18372567
000050 95 d1 a5 bd ac 47 00 bd 4d e5 c3 3d e3 90 46 3e
       -0.08096615 -0.03131835 0.0956522 0.19391207
000060 07 b4 ee 3d 1f 53 58 3e 84 6e 9e bc 6f 23 cf 3c
       0.11655431 0.21125458 -0.019339807 0.02528545
000070 70 a1 03 bd 5e 2d 56 bc 4c 73 d8 bc e8 78 6d 3d
       -0.03213638 -0.01307234 -0.026422165 0.057976633
000080 dc 87 e5 3d 04 49 0b 3e 8a 94 dc bd 6c 9b 35 be
       0.11207554 0.13602072 -0.10770519 -0.1773507
000090 84 50 71 3e 36 d2 4a be e7 d1 b1 bd 97 24 48 3e
       0.2356587 -0.19806752 -0.08682614 0.19545208
0000a0 06 7b 72 bb 91 02 3f be da df 5a 3d 0e 1e 5a be
       -0.0036999597 -0.18653323 0.053436138 -0.21300527
0000b0 e9 42 16 be 04 46 09 be 10 79 d8 bc 39 48 27 bd
       -0.14673962 -0.13405615 -0.026424915 -0.04084036
0000c0 c0 5c 82 bd ca 8b ea 3d 8b c7 2c ba e2 ba ef bc
       -0.06365347 0.11452444 -0.00065910135 -0.029263917
0000d0 83 bb 1b 3e 52 8c 56 3c dc 53 69 be 42 68 3a 3e
       0.15208249 0.013094978 -0.22785896 0.18203834
0000e0 ea a5 00 be bd ae e6 3d e9 4c 50 3d 6a 47 02 3e
       -0.12563291 0.112637974 0.050854597 0.12722555
0000f0 cc 03 3f 3e cb a8 8a 3d f2 38 e6 bd e7 eb 43 be
       0.18653792 0.06770476 -0.1124133 -0.19132958
000100 34 03 39 3e d3 02 c5 bd ab ba a7 be 23 1b 27 3e
       0.18067628 -0.09619679 -0.32759604 0.16318946
000110 0c e0 23 be 37 74 b7 bd 7f db 50 bd 67 81 e6 3d
       -0.16003436 -0.08957713 -0.050990578 0.1125515
000120 ad 82 6f be f1 4b 64 3e 82 91 40 3d f1 41 5e 3e
       -0.23389693 0.22294594 0.047013767 0.21704842
000130 d8 47 ae 3d 47 9e f0 3b 2d 36 05 be 66 23 69 bc
       0.08509797 0.007343087 -0.13008948 -0.014229631
000140 27 a1 e0 bd 16 5c f0 bc c9 98 fe bd b8 fa 52 3d
       -0.10968237 -0.029340785 -0.12431485 0.051508635
000150 bb 09 27 bd 35 b7 24 3e 9f 52 20 3e e6 d6 ef bd
       -0.040780764 0.16085513 0.15656517 -0.117109105
000160 23 93 22 be b0 72 30 be 21 07 5d be 7b 4c b7 3d
       -0.1587644 -0.1723125 -0.2158475 0.08950134
000170 87 61 3d 3c 17 d5 ff be 98 67 be be 5f 02 e7 3d
       0.011558897 -0.49967262 -0.3718841 0.11279749
000180 33 4c 57 be a6 48 dc bd ff f5 0d be a8 a0 1d 3e
       -0.21025161 -0.10756044 -0.13863371 0.15393317
000190 da 4f 9a bc 86 53 78 3d a6 0c c9 be d0 c1 f2 bd
       -0.018836904 0.06062653 -0.39267462 -0.11853373
0001a0 fe 9e 5a be 1e 35 22 be 87 07 8b 3d 04 99 95 bd
       -0.21349713 -0.15840575 0.06788545 -0.07304576
0001b0 15 3b 1e be 6c e2 7b bd 06 e3 f2 bd 3b 0d bb bd
       -0.15452226 -0.06149523 -0.118597075 -0.09133383
0001c0 ac 4d 7c 3e 41 00 15 be b8 dd 87 3d 78 2a 36 bd
       0.24639004 -0.14550878 0.06634086 -0.044474095
0001d0 25 97 01 be 9c 84 38 3d d4 55 6c 3d 0b 36 46 3e
       -0.12655313 0.04504834 0.05769904 0.19356553
0001e0 5b 27 ac 3d 8f 01 98 3d 75 96 93 be 84 65 ab 3d
       0.08405944 0.07422172 -0.28825727 0.08368972
0001f0 43 bc bb bc 5c f1 0f 3e 5f 0a ec bd 20 c6 2c 3e
       -0.022916919 0.14056915 -0.11525416 0.16872454
000200 99 f4 24 be 79 cb 40 bc 52 43 48 3d ba 2c 37 3d
       -0.16108932 -0.011767262 0.048892327 0.04472039
000210 7a 99 c9 be 1c e9 28 3e ac cd 26 3e be 4c 8e be
       -0.39374906 0.16495174 0.16289395 -0.27792925
000220 03 48 87 3e 44 9e 1b be 23 60 42 be b9 5e 02 bd
       0.26422128 -0.15197092 -0.18981986 -0.031828616
000230 d3 5d 2f 3e 82 e4 6b 3c 85 6d 87 bd 7c fc 99 bd
       0.17125635 0.014397742 -0.06612686 -0.07518861
000240 34 92 40 be 48 97 0e be 52 f3 1d be 85 5c 4b bd
       -0.18805772 -0.13924897 -0.1542485 -0.04964878
000250 f3 79 0f be bc 5b 22 be dc 0b 84 3b 1e 46 42 bd
       -0.14011364 -0.15855306 0.004029734 -0.04743015
000260 72 5f 51 3e 53 1a 22 3e 91 37 00 3e 84 ec 8a bc
       0.20446566 0.15830354 0.12521197 -0.016958483
000270 36 5a 33 be cd 4e 4a 3e 89 98 36 3e dd 3f 82 bc
       -0.17514881 0.19756623 0.17831625 -0.015899593
000280 a9 9c 72 3d 4b 11 84 3d 4e f6 c3 3e 2f b5 dc 3d
       0.059231434 0.06448611 0.38273853 0.107767455
000290 7b 6f 90 3e 05 b5 31 3e 96 57 54 3e c0 e4 a6 bc
       0.28210053 0.1735421 0.20736536 -0.020372748
0002a0 a8 d1 b2 3e ff 28 af be f4 5b 2e be ff 87 c0 bd
       0.3492558 -0.34210965 -0.17027265 -0.09400939
0002b0 15 45 49 3e 8f 4b 11 3e 08 f1 b7 be b3 a6 c3 3e
       0.19655259 0.1418898 -0.3592608 0.3821312
0002c0 b5 2a af bd a0 c7 0a 3e 04 4f ca bc 30 9b c7 3e
       -0.085530676 0.13552713 -0.02469588 0.38985586
0002d0 df 45 32 bd bb 84 62 bd 9a a9 b8 3e 26 a3 d5 b6
       -0.043523666 -0.055302363 0.36066896 -6.3668876e-06
0002e0 a9 a5 f8 3d 0f 35 2e 3e 2e 45 50 3d 53 9d 41 bc
       0.12140972 0.17012428 0.050847225 -0.011817294
0002f0 ff e0 78 3e 32 86 b4 bc 9e dd c7 bc 03 b5 48 bc
       0.24304579 -0.022036646 -0.024397667 -0.012250188
000300 a0 6d 63 bd aa 24 0f 3d 4d 20 18 3e f1 f5 e1 bd
       -0.05552447 0.034947075 0.14856072 -0.11033238
000310 2a 13 a8 bd 34 83 84 3d 88 86 8e bd 51 8b a1 3d
       -0.0820678 0.064703375 -0.069592535 0.078879006
000320 48 ae 8c bd 96 c3 d7 bd b3 f8 da bd a8 c3 17 bd
       -0.06869179 -0.10535352 -0.10691967 -0.037051827
000330 3c 81 5a be f7 61 0c be 7c 15 06 3e b0 ee c1 3d
       -0.21338362 -0.13709246 0.13094133 0.09469354
000340 96 99 50 be 84 bf 40 3e 0e 81 49 bd 28 8a 23 3c
       -0.20371088 0.18823057 -0.04919534 0.0099816695
000350 b3 94 e9 bd 88 a2 9b bd 9e 33 9a be c9 cb 86 3d
       -0.11405315 -0.0759936 -0.30117506 0.06581838
000360 2e 80 10 be 3a 44 b5 3d 2a c2 c6 3b cb 1d 11 3e
       -0.14111397 0.08850904 0.0060656266 0.14171521
000370 12 80 00 3d 63 95 c0 3d af 90 10 be c9 cb 03 3e
       0.031372137 0.09403493 -0.14117692 0.12870707
000380 59 4d 0e 3e 1d f6 25 3b c2 f4 84 bd a8 66 4b bd
       0.13896693 0.0025323697 -0.06491996 -0.049658448
000390 46 87 07 be 3b f8 fc 3d 37 18 04 3d ce 3f 6b bd
       -0.13235196 0.12352034 0.032249656 -0.057433896
0003a0 00 3a f0 bd 29 18 d1 3e 84 30 7b 3e cf 0e 89 3e
       -0.117298126 0.40838745 0.24530226 0.2676911
0003b0 46 56 ea 3c a5 7e ff bc e6 93 0c be 9a 9e ff bd
       0.028605592 -0.031188319 -0.13728294 -0.12481423
0003c0 4d 1a b5 bc e0 f8 e1 bd 44 e0 cc 3d 20 5f ea bc
       -0.022107268 -0.11033797 0.10003713 -0.028609812
0003d0 36 4d 7d 3e dc 9b a9 3d d2 eb d0 bd 09 1e 1c 3e
       0.24736485 0.08281681 -0.10201229 0.15245833
0003e0 89 bd e4 3d ba 19 32 be ca af ac 3d 8b de d4 3d
       0.111689635 -0.17392626 0.084319666 0.10394009
0003f0 3d 15 a3 3e bb 7a 43 3e bc 12 f1 bd e0 da 8d 3e
       0.3185214 0.19089787 -0.117711514 0.2770605

model.backbone.static_proj.bias f4 [64]
000000 a0 3a 4d be 33 8d 9b 3c b4 8d 5a bd 56 fa 41 3c
       -0.20041895 0.018988227 -0.053357795 0.01183947
000010 7e 81 d7 3d c5 56 fb bd 6a c9 89 3e f1 63 42 3e
       0.105227455 -0.12272409 0.2691148 0.18983437
000020 a9 9d 03 be 65 12 14 3e f2 40 9b 3c 82 b9 24 bd
       -0.12853111 0.14460142 0.018951867 -0.040215977
000030 fc e0 82 be 95 00 23 3c f9 f7 52 be 3a 19 81 be
       -0.25562274 0.009948869 -0.20602407 -0.2521456
000040 53 b6 ad 3d 31 c2 44 bd 52 a7 0a bc 88 18 db 3d
       0.08482041 -0.048036758 -0.008462744 0.10698038
000050 8e 24 31 bd 7a bd 9d bc 04 2f e7 3d 52 ad 5d 3c
       -0.043247752 -0.019255389 0.112882644 0.013530092
000060 ea 9b bd bd 71 33 43 bd 30 66 27 be 6d 2d c7 bd
       -0.09258254 -0.04765648 -0.16347575 -0.09725461
000070 13 e3 65 3e 39 5e b1 3c 11 7a ce 3d bd 75 bb 3c
       0.22449903 0.021651374 0.10081876 0.02288329
000080 13 33 81 3d a1 b5 8a be 22 a5 d8 bd 82 29 34 bd
       0.0630857 -0.27091697 -0.105783716 -0.043984897
000090 d2 c9 6b be f1 84 76 be 30 7f 39 be be 62 7e bd
       -0.23026207 -0.2407415 -0.18114924 -0.062105887
0000a0 58 0a f0 bd f1 79 0e 3d 28 50 70 bd dd 30 77 39
       -0.11720723 0.03478426 -0.058670193 0.00023573959
0000b0 87 46 03 bd 77 32 39 be 92 b8 04 bd 2e df 20 bd
       -0.032049682 -0.18085657 -0.032402582 -0.03927534
0000c0 d9 9d 7e 3e 6b 88 40 3a ed 43 c0 3d dd fd 90 bd
       0.24864902 0.00073445466 0.09387956 -0.070796706
0000d0 d8 70 a9 3d 46 27 6d 3e 2e 7d 56 3d 48 e2 d0 3c
       0.08273476 0.23159513 0.052365474 0.025498524
0000e0 81 0b a2 bd 49 f3 85 bc a2 25 75 be 88 5b 7e bd
       -0.079123504 -0.016351359 -0.23940137 -0.06209901
0000f0 94 87 78 be bb 09 d2 bc 08 a6 01 3d 78 40 bb bb
       -0.24270469 -0.025639405 0.03165248 -0.0057144724

model.backbone.layers.0.temporal.0.weight f4 [32, 64]
000000 05 92 a3 bd 24 e6 ba 3d e1 88 34 3d e0 d2 35 3e
       -0.079868354 0.09125927 0.04407585 0.17756224
000010 5a 72 8a bd ca a7 8c bd ff 88 5d bd e7 58 42 bd
       -0.06760092 -0.06867941 -0.054085728 -0.047448065
000020 d1 9f 88 3c 72 83 0c 3e 0b a8 92 3c 4a 3a 71 3d
       0.016677769 0.13722017 0.017902395 0.05889348
000030 55 18 d8 bd 96 75 8c be e4 94 3a 3c 87 29 52 3c
       -0.10551516 -0.2743346 0.011388037 0.012827284
000040 b0 5c 22 3e fa 35 18 3e c9 06 34 3e 15 d6 c2 bd
       0.1585567 0.1486434 0.17580713 -0.09513489
000050 d9 47 8b be e7 00 b1 bd 74 4a 00 3e 81 df 3d 3e
       -0.27203253 -0.0864275 0.12528402 0.18542291
000060 c7 15 07 3e b5 24 04 3d 70 63 7f bd d6 03 cb bd
       0.13191901 0.03226157 -0.06235069 -0.09912841
000070 7b 76 64 bc f8 b2 b8 3c a8 ed ff 3c 04 90 5f 3e
       -0.013944264 0.022546276 0.031241253 0.21832281
000080 aa a0 45 3d 2e c2 d7 bd d2 f1 4e be 15 b4 eb bd
       0.048248924 -0.10535084 -0.20209435 -0.11508957
000090 f6 c1 60 3d 19 c6 34 3e 57 86 4d 3e 65 03 15 3e
       0.054872476 0.17653693 0.20070778 0.14552076
0000a0 99 cf a1 bd 6d 77 99 be 33 33 2e be 77 c6 00 3e
       -0.07900924 -0.29973927 -0.17011718 0.12575708
0000b0 cf eb 41 3e 4d 28 74 3e 46 8d 39 3d 29 8f e3 bc
       0.1893761 0.23843499 0.045300744 -0.027778225
0000c0 54 ba 0c be 0e cc 58 be 66 df a4 bc 94 93 36 3d
       -0.13742954 -0.2117159 -0.020126056 0.044574335
0000d0 2d fa 68 3d da 66 a9 3d 11 66 fb 3c a9 c2 14 be
       0.05687921 0.082715705 0.030688317 -0.14527382
0000e0 9f 9d 15 be 7a 69 62 3b 7c fe ab 3d 1b 15 3e 3b
       -0.14610909 0.0034547732 0.083981484 0.002900428
0000f0 40 20 9a 3d ef 1c 3e 3d 08 a6 65 bd e0 d6 a6 be
       0.075256824 0.046414312 -0.056066543 -0.32585812
000100 b5 30 b3 3d 3f 54 7f bc 7c 15 e4 bb d1 b0 6d be
       0.087495245 -0.015584051 -0.006960569 -0.23211981
000110 5c 28 66 be e7 7b 94 3b 9b ed 06 bd d8 0d 4a 3e
       -0.22476333 0.004531372 -0.032941442 0.19731843
000120 13 e7 96 3e e2 f3 c0 3d e9 a5 14 be d0 fc f3 bd
       0.2947317 0.09421517 -0.14516415 -0.119134545
000130 05 0b aa 3d 5d a0 a6 3c eb 68 a1 bd 86 ad 1b be
       0.08302883 0.020340139 -0.0788134 -0.15202913
000140 4b 52 af bc a0 c8 68 3c 42 8a 7e 3e 6f 7c 01 3e
       -0.021401545 0.014207989 0.24857429 0.12645124
000150 0e 96 d7 3d b9 49 ea bd c2 0e 28 be 04 2e 75 bd
       0.105266675 -0.11439843 -0.1641188 -0.059858337
000160 fd c2 30 bd d4 ae 0c 3d fc 7d 72 3e 06 d9 57 3d
       -0.043154705 0.034346417 0.23680872 0.052697204
000170 30 76 3e 3d 22 e6 37 bd 14 12 98 bc 77 03 8a 3d
       0.04649943 -0.044897206 -0.018563308 0.06738942
000180 42 4e c8 bc c3 1c 7b be 8f 5f 67 3d 84 e4 a0 3c
       -0.024451379 -0.2452269 0.056487616 0.019640215
000190 17 d7 8d 3d cf ce 9f 3d 42 2e 1b 3e 9a 0c aa bd
       0.06925791 0.078031175 0.15154365 -0.08303185
0001a0 95 c0 8b be e1 cd 61 be 36 69 7d ba 16 f2 db 3d
       -0.27295366 -0.22051193 -0.0009666862 0.107395336
0001b0 50 24 b6 3c e8 e1 46 bb 36 46 89 bd af 87 d5 3c
       0.022234112 -0.0030347053 -0.06702845 0.026065676
0001c0 d9 8c f0 bc 3a 2a 49 be f5 4e 27 be 2e c1 02 bd
       -0.029364036 -0.19645014 -0.16338713 -0.03192251
0001d0 85 bd a3 3e 0f 14 97 3e 29 2f 3e 3d 02 7b 5d be
       0.3198053 0.2950749 0.046431694 -0.21628955
0001e0 4a 7c 56 be c7 d3 36 3e a6 54 43 3e e2 95 0b 3d
       -0.2094585 0.17854224 0.1907526 0.034078486
0001f0 99 3d 61 3c e5 8f 07 3e e6 5d e0 bd 4a 47 57 be
       0.013747596 0.13238485 -0.1095541 -0.21023288
000200 56 e5 4f 3e 00 1a 2e 3e 6f f1 75 3b fd 6c 86 bd
       0.20302328 0.17002106 0.003752794 -0.065637566
000210 06 ce 45 3d 49 19 1e be c3 4b b3 bd 8c 7b e2 3c
       0.048292182 -0.15439333 -0.08754685 0.027646802
000220 b3 9d 8b bc d7 51 b9 bd 40 0f 76 bd 4f 77 2e 3e
       -0.01704297 -0.09048813 -0.060073137 0.170377
000230 86 e3 20 3e 82 d6 5c 3e b2 5d 3e 3e 34 22 c5 3c
       0.15711793 0.21566203 0.1859043 0.02406416
000240 de 1c 8b 3c 8d 16 43 bd 9c cb 9b be 8f 61 9a bd
       0.016981538 -0.047628928 -0.3042878 -0.07538139
000250 35 5c ab bc 41 e7 9f bd 9d ca 23 3c 33 e6 2f be
       -0.020917991 -0.0780778 0.009997037 -0.17177658
000260 94 9e 91 be f5 fc 25 be 0f 0f 03 bd a4 6e 21 be
       -0.28441298 -0.16209777 -0.031996783 -0.15764862
000270 c0 83 10 bd d7 2e 37 3c 55 0d 70 3d 33 44 1d 3c
       -0.035281897 0.011180601 0.058606464 0.0095987795
000280 e6 da 3a 3d 58 a6 0e 3c 06 11 b4 3d 90 70 14 3d
       0.045618914 0.008706652 0.087923095 0.03624016
000290 9e d2 c3 3d af 7a 33 3e 1b f9 72 3d 06 90 0f 3d
       0.095616564 0.17527269 0.059319597 0.03504946
0002a0 74 e0 2f be c5 2a 87 3d e2 dd 97 3c 82 b4 34 3c
       -0.17175466 0.065999545 0.01853842 0.011029365
0002b0 d8 9e 9c bd 1c cc 22 be b2 3a 80 3d ee e3 2e 3e
       -0.076474845 -0.15898174 0.06261195 0.17079136
0002c0 56 1d 5c 3e 15 3c d2 3d d6 eb 2c 3e bb 0d 20 be
       0.21495566 0.10265366 0.1688684 -0.15630238
0002d0 dd f5 73 bd ec a5 48 be 78 20 4a bc be 33 21 bd
       -0.059560645 -0.19594544 -0.012336843 -0.039355986
0002e0 e3 58 05 be 16 f3 a0 3d 3f 0e a1 bd 46 75 99 bc
       -0.13022189 0.07858865 -0.07864045 -0.018732678
0002f0 97 d7 e0 bd 6a b1 03 3c 85 7f ba 3c 0e 9c 8c 3c
       -0.109786205 0.008037904 0.022765884 0.017164256
000300 97 74 bd bd 05 3b e9 3d e8 69 8a 3d ee d9 a5 bd
       -0.092507534 0.1138821 0.06758481 -0.080982074
000310 44 91 a8 3d b3 15 07 be 5e 74 2a be 3b 40 0f be
       0.08230832 -0.13191871 -0.16645953 -0.13989346
000320 16 61 8d 3d 4f 88 0f bd bf 7e 13 be c2 df 5c bd
       0.06903283 -0.035042103 -0.14403819 -0.05392433
000330 a0 8a 07 3e ec 30 4e 3e 86 98 f5 3b c3 49 ab bc
       0.13236475 0.2013585 0.007494989 -0.020909196
000340 9b 28 71 bd d5 28 88 bd 12 8f 7e 3c 69 da 50 bd
       -0.058876615 -0.06648413 0.01553704 -0.050989542
000350 4a 04 e2 3b f5 45 47 3e 77 a8 0a 3e 48 a6 29 3e
       0.006897484 0.1946028 0.13540827 0.16567338
000360 ea 75 2f 3e f9 04 93 3e 7f 6f 78 3e c0 cd d3 3d
       0.17134824 0.2871473 0.24261282 0.10341978
000370 36 20 de bc 36 9a 27 bd 22 ef 2e be 61 c4 ee bd
       -0.027114969 -0.04091855 -0.1708341 -0.1165855
000380 c3 61 a8 bc 51 ad 2d 3d 09 32 ce bc 87 ef f0 bd
       -0.020554429 0.042401616 -0.025170343 -0.11764436
000390 64 c2 38 3e 7d 4c 60 3e 7d df 19 bd 45 a8 9f bc
       0.18042904 0.21904178 -0.03756665 -0.019489417
0003a0 94 09 4a bd 52 9a 2f be 37 49 01 3e db 79 94 3d
       -0.04932554 -0.17148712 0.12625585 0.072498046
0003b0 7a 3a 40 be 8c 4c 45 be 7c cc ac bd dc 61 ab 3b
       -0.18772307 -0.19267482 -0.0843744 0.0052301716
0003c0 30 e8 ec 39 79 df 0b be a2 ab 5f 3b ba d4 8a 3c
       0.0004518642 -0.13659467 0.00341294 0.016947139
0003d0 a6 ed 84 bd b2 62 5e be 5a 90 96 3c 18 c2 62 3e
       -0.0649064 -0.21717337 0.018379379 0.22144353
0003e0 f9 24 7d bd 93 ab 14 bd 79 09 72 3e 25 32 22 3e
       -0.061802838 -0.03629644 0.23636426 0.15839441
0003f0 c2 52 7a 3d 23 c6 48 be 61 f6 68 be 01 1f 30 3e
       0.06111408 -0.19606833 -0.22750236 0.17199327

model.backbone.layers.0.temporal.0.bias f4 [32]
000000 57 ac 8c be d6 8f 0a bf 8f d5 b4 be c3 54 09 bf
       -0.27475235 -0.54125726 -0.35319182 -0.5364496
000010 4d 75 04 bf 50 e1 a0 be e3 c1 39 bf 00 47 07 bf
       -0.51741487 -0.314219 -0.7256147 -0.5284271
000020 c0 ae 82 be 81 76 18 3e 5b 40 f9 be f1 82 1d bf
       -0.2552395 0.14888956 -0.48681912 -0.61527926
000030 4b 96 c9 be ac 97 e2 bd ec f7 f2 be 81 07 7b bc
       -0.39372477 -0.11064085 -0.47454774 -0.015321613
000040 9a 72 0c bf f0 9e f1 be d6 18 38 be 2d af 21 be
       -0.5486237 -0.47191572 -0.17978224 -0.1578948
000050 16 b1 7f be f7 22 1e bf ef c3 5d bd bb 2e 07 bf
       -0.24969897 -0.617721 -0.054141935 -0.5280568
000060 2a 33 ec bd 37 6d 69 bd 20 df f0 bb be 81 b4 be
       -0.11533196 -0.05698892 -0.0073508173 -0.35255235
000070 1e 10 6d bc f5 1a 37 be a8 f7 d4 be 56 86 3d bf
       -0.014469175 -0.17881377 -0.41595197 -0.74033105

model.backbone.layers.0.temporal.2.weight f4 [64, 32]
000000 f1 9e a9 bd 9e 71 37 bd 45 2d 95 3c 71 25 09 bc
       -0.08282269 -0.04478609 0.018210063 -0.008370743
000010 02 b3 70 bd 85 e0 d3 3d f7 96 15 3e dd 4f c0 3d
       -0.058764465 0.10345558 0.1460837 0.09390233
000020 2b 14 f6 bd 80 76 bc 3c ad de 85 bd 43 7d a5 3c
       -0.120155655 0.023005724 -0.06536613 0.020201331
000030 1e 65 1f 3d 68 7e 7d 3d 30 b4 47 3e b3 5f a8 bd
       0.038914792 0.06188813 0.1950233 -0.08221378
000040 4f e8 94 3d 2c 63 c7 3d 11 9e 8f bc 3b e0 21 3d
       0.07270872 0.097357124 -0.017531427 0.039520483
000050 d5 a2 70 bd ab 34 79 bd c5 02 ab bc 59 53 43 3e
       -0.05874904 -0.060841244 -0.020875344 0.19074763
000060 a3 79 96 3d 9e 25 a0 3c ef f1 ca bd a7 8b 06 3d
       0.07347419 0.019549187 -0.099094264 0.032848027
000070 e6 e0 01 3d 05 1e 9b bd 39 4f 00 be e0 fe 8b 3b
       0.03170862 -0.07574085 -0.12530221 0.004272327
000080 d2 61 bd bc da 56 35 3c b7 e8 38 3d 83 9c ba bd
       -0.023117933 0.01106807 0.04514381 -0.091118835
000090 67 fe 9b 3c 37 82 4f be e2 f6 10 3d ab 7d 05 3c
       0.019042207 -0.20264517 0.035391696 0.008147637
0000a0 93 ef 42 be 1d b2 b9 bd 25 a5 22 3e ab 59 84 3b
       -0.19036703 -0.090671755 0.1588331 0.0040390096
0000b0 16 0e 1e 3d 73 09 fb bd 43 b0 0c 3d cf 75 37 bd
       0.038587652 -0.12257662 0.034347784 -0.044790085
0000c0 31 52 80 3e 83 6a a9 bd 63 ec 16 bd 42 1b 3b be
       0.25062707 -0.082722686 -0.03684653 -0.18272117
0000d0 e1 23 02 3e 63 c3 62 3e e9 9e 9f 3d 96 c0 1a bd
       0.12708999 0.22144847 0.077939816 -0.03778132
0000e0 c1 62 4b bb a3 cd 60 3d 7b 81 19 be f7 64 99 bd
       -0.0031034204 0.05488361 -0.14990799 -0.07489961
0000f0 ed a6 a5 bc 89 1b 2c 3d 18 2a 04 bd d5 2c c6 bc
       -0.020221198 0.042018447 -0.032266706 -0.0241913
000100 c2 52 33 be dd fc 91 3b 1b b9 44 ba a2 9b a4 3c
       -0.17512038 0.0044551925 -0.00075043895 0.020093743
000110 04 ee 43 be 98 b8 44 3e 12 4f 90 bd 90 0f 22 3d
       -0.19133765 0.19211042 -0.070463315 0.039565623
000120 81 e8 91 bd be 11 e0 bc 78 db 37 bc cf f9 e6 3d
       -0.07124425 -0.02735221 -0.011221759 0.11278116
000130 83 7a c5 bd 14 19 9f 3d e2 72 33 3b de f1 93 bd
       -0.09642508 0.07768455 0.0027381708 -0.07223867
000140 dd bc f3 bc a6 e9 a5 bd 0e 2d 04 be 8e cf 3f bc
       -0.029753143 -0.081012055 -0.12907812 -0.0117072
000150 ea e6 8e 3c cd c3 b4 3d a0 d1 38 3e 7d 40 1a bc
       0.017444093 0.088264085 0.18048716 -0.009414789
000160 85 f8 25 3e 5c 4f 4b 3d 56 c8 82 3d c7 a4 cd 3d
       0.16208084 0.04963623 0.06385867 0.100411944
000170 d0 11 69 3d 8d 6b 4f 3d 27 12 0c bd 5d 78 c7 3d
       0.056901753 0.050639678 -0.034197 0.09739754
000180 7a e7 ae 3b 9c b9 14 3e 17 f6 7b 3c a7 cc 66 be
       0.0053376528 0.1452393 0.015378497 -0.22539006
000190 42 fc bb bd ec 03 11 be 46 88 2a be 85 fd 33 3e
       -0.09178974 -0.14161652 -0.16653547 0.17577179
0001a0 06 c7 7e bd 3d a6 94 be 4e 3e 87 be 90 e2 ed 3e
       -0.062201522 -0.2903308 -0.26414722 0.46461916
0001b0 84 da 92 3d a6 b2 bd 3b 58 52 3c 3e 14 c6 3d bd
       0.07170585 0.005789119 0.18390787 -0.04633148
0001c0 85 f9 7b bd bb b1 56 3e 81 b7 a2 3c c8 f5 76 3e
       -0.061517257 0.20966236 0.019862892 0.24117196
0001d0 dc bd 3c be 8d 18 da 3d d9 24 61 be 01 4d 48 3b
       -0.184318 0.10649214 -0.21986713 0.0030563476
0001e0 bb f9 94 3d 1d ee a2 3d 91 38 61 bc f4 0c 3a 3d
       0.07274195 0.07955573 -0.013746397 0.04542251
0001f0 3f 42 83 bd 9d 8c b3 bc 46 e7 0e be 42 15 31 3e
       -0.0640912 -0.021917636 -0.13955411 0.17293265
000200 ce 86 84 3e 19 55 98 3d c2 0c 18 bc 42 57 54 be
       0.25884098 0.07438106 -0.009280385 -0.20736411
000210 03 a9 50 be 30 e3 1b be 02 b0 87 be af bc cc 3d
       -0.20376973 -0.15223384 -0.2650147 0.09996926
000220 0a e5 06 be 03 2b 35 3e 78 d0 30 3d 3c dd 14 3d
       -0.13173309 0.17692189 0.04316756 0.036343798
000230 7e d8 a1 3d 74 2d 01 3e 7c ad 48 be 2c 7c be bd
       0.07902621 0.12614995 -0.19597429 -0.09301028
000240 8f b3 d5 3d de 95 b6 3d 27 b7 c8 3d ec 5e 84 3d
       0.10434639 0.08915304 0.098005585 0.064634174
000250 9b 65 55 bd e9 a7 97 bd d2 c8 35 bd 71 e1 a8 3d
       -0.05209885 -0.07405073 -0.04438097 0.082461245
000260 8a 00 8f 3d 4f 09 c7 bd c5 99 6c bd 3a 2e 61 3d
       0.06982525 -0.09718572 -0.057763834 0.054975726
000270 25 62 41 bd ff a0 93 bc d8 06 a0 3d 7a 2d 14 bc
       -0.04721274 -0.018021105 0.07813805 -0.009044046
000280 c8 ac f0 3d 69 ab 4a 3c f2 f7 07 3e c3 51 92 bd
       0.117517054 0.012369969 0.13278177 -0.07144501
000290 6a 95 fa 3b 46 96 2b be 2e 01 0d 3e 01 d4 eb bd
       0.007647206 -0.16756544 0.13769981 -0.11515046
0002a0 ac df 44 3c 40 15 ef 3d 82 7e 88 be 28 55 90 3e
       0.012016218 0.11673975 -0.26659018 0.2818997
0002b0 7d bd c0 3e db 20 32 3e 15 20 1f be 3b 6e 20 3e
       0.37644568 0.17395346 -0.15539582 0.1566705
0002c0 f0 73 6b be d1 cf 35 3e 29 76 50 3e 2a 96 37 3c
       -0.22993445 0.17755057 0.20357575 0.0112052355
0002d0 ed 8c a9 bd e4 a2 b7 bd 04 38 38 3d 38 d2 88 bd
       -0.082788326 -0.08966616 0.044975296 -0.06680721
0002e0 f6 3a 96 bd b9 04 a3 3b 4e 21 15 be 92 65 83 bd
       -0.07335465 0.004974928 -0.14563486 -0.064158574
0002f0 a5 3d 06 be b9 c0 8d 3c 4c 7f 6d be 87 73 94 be
       -0.13109453 0.017303811 -0.23193091 -0.2899439
000300 fa 52 69 bd fd 63 24 3e 3b b2 9c bb 68 38 2c be
       -0.0569639 0.16053768 -0.004781989 -0.16818392
000310 3a 52 56 be 7d dc fb bc 3d 41 8b be 13 46 5d 3e
       -0.20929804 -0.030744785 -0.2719821 0.21608762
000320 ba ff d0 3b 62 a3 a9 ba 2c 6a a5 3d f7 4e 28 3d
       0.006378141 -0.0012942369 0.08076891 0.04109093
000330 94 60 6a 3d 9c 74 03 bd b2 f6 b3 bd 85 97 7a bd
       0.05722101 -0.03209363 -0.08787288 -0.061179657
000340 ca 0e ff 3d 4c e5 09 3e f3 61 8f bd d0 b6 89 3e
       0.12453993 0.13466376 -0.07001104 0.26897287
000350 8b 82 89 be ac b5 05 be 8e c8 08 3c 11 b6 ac bd
       -0.2685741 -0.13057584 0.008348597 -0.08433164
000360 0a 99 1a 3d ee 79 fc 3d a0 44 27 3e d4 b9 d9 3b
       0.037743606 0.12327944 0.16334772 0.006644467
000370 97 8b 21 bd 9f 78 5d 3d 6b 67 28 be 4f ce ac 3e
       -0.039439764 0.05407011 -0.16445701 0.3375115
000380 9d fa d0 3d 4e 23 29 3e 2d 1e 06 3d 6c 19 f6 bd
       0.10204051 0.16517374 0.03274362 -0.120165676
000390 83 79 79 3d 1a 6f 49 3c f9 46 11 be cd 1a 21 be
       0.0609069 0.012294555 -0.1418723 -0.1573288
0003a0 08 31 b2 3d 33 ff e0 3d 55 ef 26 be e8 1f 0e 3d
       0.08700758 0.109861754 -0.16302235 0.034698397
0003b0 45 a2 01 3e 0b 2a a1 3a 1c 6c 19 3d 4e 20 f2 3d
       0.12659557 0.0012295855 0.037456617 0.11822568
0003c0 6c ac be 39 53 82 86 bd 71 02 50 3e 90 3f 32 3e
       0.00036368088 -0.06567826 0.20313431 0.1740706
0003d0 7a 72 05 bd d5 4b 13 be 89 7b 6e 3d c4 bb c1 3d
       -0.032579876 -0.14384396 0.05822328 0.094596416
0003e0 9a e6 81 bd 70 b5 60 3d e1 02 c3 3c aa 54 a7 bd
       -0.06342812 0.054860532 0.023805084 -0.08170445
0003f0 78 fa 70 be a0 9f 4b 3c 76 2a fd bc 7f 80 75 bc
       -0.23533046 0.012428194 -0.030904036 -0.014984249

model.backbone.layers.0.temporal.2.bias f4 [64]
000000 e0 74 58 bc 35 79 7e 3d 83 91 f3 3b 3b 7b 59 3d
       -0.013211459 0.06212731 0.007433118 0.053096037
000010 c6 de a5 bc 03 72 94 bb dd e9 ae bc 8b e6 fd bc
       -0.020247828 -0.004530193 -0.02135175 -0.03099372
000020 ef 83 a4 3c 04 ae 45 3c 75 bb 86 36 be cf 4a 3d
       0.020082442 0.012065414 4.015334e-06 0.049514525
000030 dc a0 f3 3c fb 07 35 3c 51 cc a0 bd ff bd 89 3c
       0.02973979 0.011049266 -0.0785147 0.01681423
000040 33 58 56 bd 1e 49 81 3d 02 ed fa 3b f3 64 2a 3c
       -0.052330207 0.06312774 0.007657648 0.010400045
000050 6c b7 91 ba b5 b8 1e 3d 68 0e a4 3c b9 3b b5 3c
       -0.0011117286 0.03875037 0.0200264 0.022123205
000060 1b e6 1f 3d 09 ab d5 bc be 5e 14 bd ce 50 15 bb
       0.039037805 -0.026082532 -0.036223166 -0.002278376
000070 d2 41 0c 38 60 a3 3f 3d 85 84 37 bd 37 a4 b8 bb
       3.34399e-05 0.046786666 -0.044804115 -0.0056348103
000080 08 56 96 3c 77 1f 87 3a 1e 0a d1 3c 04 3c f7 bb
       0.01835157 0.001030906 0.02551752 -0.007544996
000090 7b cf 4c bc fc e7 11 3b 65 77 8d 3c 69 2c b5 bc
       -0.012500639 0.0022263518 0.017268846 -0.022115903
0000a0 2e d2 a3 bc f1 85 72 bc d4 0f 8c 3c 18 9d 8c bc
       -0.019997682 -0.014802442 0.017097391 -0.017164752
0000b0 eb 7e 3e 3b 59 7c d9 3b 73 cd 10 bc 5f 3c dd 3c
       0.0029067348 0.006637138 -0.008838045 0.027006326
0000c0 24 0e db ba 28 14 8f bd 2a 98 14 3d 82 ea a4 3c
       -0.0016712588 -0.069862664 0.036277927 0.020131353
0000d0 d3 03 be 3c cc 19 11 3c 21 92 23 bd cc 2a c1 3c
       0.023195183 0.008856248 -0.03993428 0.023579977
0000e0 bd e3 0f bd 75 f9 3c 3d a3 08 b2 3c 78 18 4c 3c
       -0.035129298 0.04613634 0.021732634 0.012457006
0000f0 9e 96 03 3d 16 b6 6c 3d 10 92 8a 3c 4b f7 c2 3c
       0.03212606 0.05779084 0.016915351 0.02379956

model.backbone.layers.0.channel.0.weight f4 [32, 74]
000000 bf 4c b6 3c e0 5a b2 bc 2b 9d 32 be 0e 19 25 be
       0.022253392 -0.021771848 -0.17442767 -0.16122839
000010 cb 09 57 bd d3 05 a1 bd 73 3c 80 3e 42 47 2a 3e
       -0.052499574 -0.07862439 0.2504612 0.16628745
000020 46 03 11 3e 51 04 17 3c 33 98 0f 3d 9e c3 23 3e
       0.14161405 0.009217338 0.035057258 0.15992591
000030 50 ab 3a bd f3 d3 5b be 27 e2 df bd e3 ce 00 be
       -0.045573533 -0.21467571 -0.10931807 -0.12578921
000040 1f 03 ea bd b8 3f a9 3c 5f ee 80 3d 4e 65 da 3d
       -0.114263766 0.020660266 0.06295466 0.106638536
000050 e1 74 5b 3d ab 82 7c bc b9 f2 4e 3e 0b 98 ae 3d
       0.05357826 -0.015412013 0.20209779 0.08525094
000060 4c 6f 7d bd cd 51 f7 bd b0 c7 ea bd 7f 0f 8e bc
       -0.06187372 -0.12076149 -0.114638686 -0.017341373
000070 74 ac df 3c c7 aa 09 bd 83 56 ab bd bc 42 f4 bd
       0.027303912 -0.03361013 -0.0836611 -0.11926791
000080 b7 4e 9a bb 8d b9 68 3c 45 09 e6 3d 33 09 9f bd
       -0.0047090906 0.014204395 0.11232237 -0.077654265
000090 9a fe 0b 3d 9b d6 2e 3d 7a 34 ab be 5c 30 6b bd
       0.034178354 0.042685132 -0.33438474 -0.057419166
0000a0 62 a4 60 be 10 e4 92 bd f8 95 cb bc 5a 89 b1 bd
       -0.21937707 -0.07172406 -0.024851784 -0.08668776
0000b0 11 c6 d1 3d b4 75 67 3d 70 72 a3 3d 96 d8 ec 3d
       0.10242856 0.056508735 0.079808116 0.11564748
0000c0 10 3c 2d 3d f7 b3 86 3d 76 e8 36 3d 75 fc 54 3d
       0.04229361 0.06577294 0.044655286 0.051998574
0000d0 e0 3f 8b bd f4 c0 02 3e 1f d9 f4 3d 98 e0 b4 bc
       -0.067992926 0.12768918 0.11955475 -0.02207975
0000e0 27 f9 de bd 1b 15 24 3e d3 f3 d7 3d 2b ac 0f bd
       -0.10887366 0.16023676 0.10544553 -0.0350763
0000f0 0e 9f 4f 3c 7c a4 be bd 77 70 14 be 1a bf 35 be
       0.012672199 -0.09308717 -0.14496027 -0.1774868
000100 dc 29 cf 3d 93 14 f1 3d be 12 c2 bb 49 b1 be b9
       0.10115406 0.11771502 -0.0059226444 -0.00036371712
000110 01 d4 fd 3d 0c d0 1b 3e 25 38 a7 bd 02 c8 1a bd
       0.12393952 0.15216082 -0.081650056 -0.0377884
000120 7b 4d 9b bd 62 7c 9d bd 3e 0a 05 3d de aa 05 3d
       -0.075831376 -0.0768974 0.03248047 0.032633655
000130 be eb 4d bc 7f 44 88 3d ba 24 cf 3d 89 07 4c be
       -0.012568412 0.066536896 0.10114427 -0.1992475
000140 04 42 86 be 2f d7 a3 be e1 99 b5 be 12 18 40 bd
       -0.2622224 -0.3200011 -0.35468963 -0.046897955
000150 f0 7a 07 3e c8 d7 90 3a c1 2b ec 3d 3a db 00 bd
       0.1323049 0.0011050636 0.11531783 -0.03145907
000160 8a 05 a9 bd 61 89 b2 bb 2d a3 3e bd 98 79 17 be
       -0.082530096 -0.0054485057 -0.046542335 -0.14792478
000170 ab 80 a5 3d 5e 64 92 bd b9 c0 83 3c 1c 1e e8 bd
       0.08081182 -0.0714805 0.016083108 -0.11333868
000180 b1 e6 56 3e fe db 5c 3d 2b 7e 59 3d 51 e7 31 bc
       0.2098644 0.05392074 0.05309884 -0.010858373
000190 cb f4 6e be 75 68 93 bd 51 33 f6 bd 29 f9 b5 bd
       -0.23335569 -0.07197658 -0.120215066 -0.08885414
0001a0 07 37 41 3e 49 ce 69 bc 02 4e a4 bd 9f c7 92 bd
       0.18868648 -0.014270374 -0.08022691 -0.07166981
0001b0 63 3e 82 3e 98 c6 93 3c 62 7a d6 3d 4b 22 94 bc
       0.25438222 0.018039033 0.104725614 -0.018082758
0001c0 27 93 5a bd 2c 51 f6 bd 31 0d 98 bd 05 38 70 bd
       -0.05336299 -0.12027201 -0.07424391 -0.058647174
0001d0 52 25 e0 bc 0f 24 a5 3c c1 46 b6 3d ed d6 0e bd
       -0.027361546 0.020158796 0.08900214 -0.034872938
0001e0 89 f6 94 3d 6a d5 8a 3e a0 54 73 3e 2e d5 8f 3d
       0.07273585 0.27115947 0.2376275 0.07023083
0001f0 d7 82 86 3e e3 41 21 be f8 fc 0a 3c 31 bd eb bb
       0.26271698 -0.1574779 0.008483164 -0.007194184
000200 72 6e 8f 3c c0 0d bc 3d 2b a5 f3 bd d4 ee 9b bc
       0.01750872 0.0918231 -0.11896738 -0.01903478
000210 92 84 2f 3c 5c ac 84 bd 9f ac eb bd e5 99 ed bb
       0.01071276 -0.064781874 -0.11507534 -0.0072510117
000220 1c 46 35 be 47 6e 5e be 3c 9f c4 bb cd fc b4 3d
       -0.17702526 -0.21721755 -0.0060004275 0.088372804
000230 07 03 86 3d ff d9 ec bd fc 21 f4 3d dc 3e 29 bc
       0.06543546 -0.11565017 0.119205445 -0.010329928
000240 e7 4f 9f 3d bb e0 b8 3d 3b 9b 61 3d 95 a7 d8 3c
       0.07778912 0.09027239 0.05507968 0.026447097
000250 bd d4 57 bc aa e0 b8 bc a6 96 45 3e 3d 75 e9 bc
       -0.013173279 -0.022568066 0.19295749 -0.028498286
000260 bd 40 23 3d ae 3f 78 bc d6 91 8f bd f9 e0 fa 3c
       0.03985666 -0.015151901 -0.07010238 0.030624853
000270 93 98 aa 3c e1 f9 fc 3c bc a9 76 be 9f b0 89 3e
       0.020824706 0.03088087 -0.24088186 0.26892564
000280 8f 5f a4 bd a0 56 a2 bd 66 10 64 3e 0b 0b c2 3d
       -0.08026039 -0.07926679 0.2227188 0.094747625
000290 0f 6d 5d bd 11 bc 21 bf 5b 76 10 be 27 6a a7 3d
       -0.054059085 -0.6317759 -0.14107649 0.08174544
0002a0 c3 c9 ad bd 76 dc d9 3e 86 26 f9 3c 0d 95 9d be
       -0.084857486 0.4255101 0.030413877 -0.3077778
0002b0 19 ed e2 bd ee df 99 3e fd 6f e7 be 6e ce 29 3e
       -0.11080379 0.30053657 -0.45202628 0.16582653
0002c0 e1 48 a9 3d 6d d6 55 3d 5c eb 98 3e d8 1b d0 3d
       0.08265854 0.052206445 0.29867065 0.10161561
0002d0 3a 0b 56 be c3 ba a4 be 8a 20 8e 3e 37 51 6e be
       -0.2090272 -0.32173738 0.277592 -0.23273169
0002e0 a3 63 0e 3e bb 08 a4 bc 92 c2 ef bd 26 20 ef bd
       0.13905196 -0.020023694 -0.11707033 -0.11676054
0002f0 06 ce 11 be 8d 3f 58 3e 0e 5a 98 be 21 63 29 3e
       -0.14238748 0.21117993 -0.29756206 0.16541721
000300 f2 5a ac 3d 0d 93 2b be cb 9f c7 3e 4b e0 d0 3d
       0.08415784 -0.16755314 0.389891 0.101990305
000310 a3 03 d1 3e 60 a7 be bd 8b 86 a1 bb 3c 19 06 3e
       0.40823087 -0.09309268 -0.004929369 0.13095564
000320 7b 10 b8 3c e4 b9 a2 bc 50 d5 02 be 12 35 0f 3e
       0.022468796 -0.01986403 -0.12776685 0.13985088
000330 85 31 5b be cc ad 86 3d 4f 5b 0b 3d fd d2 97 be
       -0.21405609 0.06576118 0.034022626 -0.2965316
000340 0b 6e 16 be 8e 41 3b bc e8 ea 25 be c1 e3 b6 bb
       -0.14690416 -0.011429204 -0.16202891 -0.0055813496
000350 c7 30 34 be 9a 29 7d 38 5b c0 34 3e cd 06 ee bd
       -0.17596732 6.0358645e-05 0.17651503 -0.11622391
000360 ed d7 54 3e 43 84 e0 bd 5f bc 10 3f a1 3d 3f 3e
       0.20785494 -0.10962727 0.5653743 0.18675853
000370 c2 da b3 3e 89 ea 95 3e 7e 24 16 3b a5 69 41 be
       0.35127836 0.292805 0.0022909935 -0.18887956
000380 6e d6 82 be 72 00 13 be 6b 3b 89 3c 7d da 88 be
       -0.25554222 -0.14355639 0.016751966 -0.26729193
000390 92 90 2a 3e 82 55 09 3e 87 59 c5 3d 2e ac b7 be
       0.16656712 0.13411525 0.096362166 -0.3587355
0003a0 3d bc 13 3e 52 69 77 bd 8f 76 5c bd 8f 9a 44 3d
       0.14427276 -0.060403176 -0.053824004 0.04799896
0003b0 f1 21 74 bd 43 4f ed 3d 8d f7 4d be 83 d6 f2 bc
       -0.05960268 0.115873836 -0.20113964 -0.029643303
0003c0 fc ad da bb ce 80 9b bc 95 e4 89 3d 45 8b f7 3c
       -0.0066735726 -0.018982317 0.06733052 0.030217776
0003d0 60 d5 e1 3d 12 0a 9d bd fa 6b 43 3d 9a 6d f8 3d
       0.11027026 -0.076679364 0.047710396 0.1213028
0003e0 5f 7d 47 3d 64 c6 de 3d 31 6e 66 3c 31 fe 9d 3c
       0.048703548 0.10877684 0.014064358 0.019286247
0003f0 cf 9e d6 bd fb 00 99 bc 06 bc 6d 3d 80 1b b7 bd
       -0.10479509 -0.018677225 0.05804064 -0.08940792

model.backbone.layers.0.channel.0.bias f4 [32]
000000 5e 20 75 be fa ef ad be b5 ea b9 be 58 9e 36 be
       -0.23938128 -0.3397215 -0.3631188 -0.17833841
000010 f1 9e 45 be b1 3c 76 be 8d dd bd bd 15 c0 77 bd
       -0.19298913 -0.2404659 -0.09270773 -0.060485918
000020 48 61 53 be 1b f3 58 bd 58 d3 93 bd 4c a1 08 be
       -0.20642579 -0.05296622 -0.07218045 -0.1334278
000030 14 8c 9c be 16 7a 15 3d 76 41 87 be 4d 02 ce bd
       -0.3057562 0.036493383 -0.2641713 -0.100590326
000040 ec 28 ce bd 87 ec a3 3c d8 f5 19 be 24 0e 98 bd
       -0.10066399 0.020010246 -0.15035188 -0.07424572
000050 87 a2 63 be 2e c8 93 be 80 8b 80 be 57 4e d6 bd
       -0.22229968 -0.28863662 -0.2510643 -0.10464161
000060 b8 a4 2e 3c 02 25 26 be 88 a4 ad bd d7 ba e1 be
       0.010659389 -0.16225055 -0.084786475 -0.4408786
000070 c6 00 b7 bd a2 98 36 be 2b 33 3e be df 91 4c be
       -0.089356944 -0.17831662 -0.18574207 -0.1997752

model.backbone.layers.0.channel.2.weight f4 [74, 32]
000000 26 07 b5 be 62 45 8a 3c cf a3 34 bd 5d 40 2c 3c
       -0.35357016 0.016878787 -0.044101533 0.010513392
000010 1e 1b c6 3d d6 a5 fc 3d d8 f0 9c bd 0a 4f c8 bd
       0.09673141 0.12336318 -0.07663125 -0.097807005
000020 4d ea 83 bc af 14 2b 3d 59 e5 c1 bc e2 2e b0 3e
       -0.016102934 0.041767772 -0.023668932 0.3441077
000030 dc f9 73 be 25 1b 64 bd e3 fe 12 be 90 7a 84 bd
       -0.23825783 -0.05568995 -0.14355044 -0.064686894
000040 62 dc 4a bd ee 2d 44 bd 8f ff 9b 3d 48 a6 53 bd
       -0.04952658 -0.047895364 0.07617103 -0.05167225
000050 bb a9 3a 3e 96 cb 9d 3d e2 2e 8f 3e 56 6e 7f be
       0.1822881 0.077048466 0.27965456 -0.24944434
000060 25 ae a1 3d ac 67 17 bd 50 4b 8e bd 88 f2 b0 3d
       0.078945436 -0.036964104 -0.069479585 0.08640009
000070 6a 4a 61 bc 1e 6f b5 bd 45 7b ee 3c dc fa 6a be
       -0.013750652 -0.088590845 0.029111514 -0.22947258
000080 4b 01 fc bc 06 4a 98 bc d9 3b da 3c ff 27 29 3e
       -0.030762335 -0.018589985 0.026639866 0.16519164
000090 88 10 8f bd f0 8c 15 3e a7 1b 3c bc 30 65 23 3c
       -0.06985575 0.14604545 -0.011481202 0.009972855
0000a0 b0 fa d5 3d 32 8f 1e 3c d6 61 28 3e 1f 0c 86 3d
       0.104482055 0.009677695 0.16443571 0.06545281
0000b0 7e b8 47 be d7 61 45 3d 65 2e 31 be 2e 6c be bd
       -0.19503972 0.04818901 -0.17302854 -0.092979774
0000c0 c7 50 0e bd 3b fd 70 bd c7 9d 04 3e 4b 8f 23 be
       -0.034745004 -0.05883525 0.12950812 -0.1597263
0000d0 c5 01 11 bd cb 82 86 3e bf 89 b8 3d bc 01 3f be
       -0.03540208 0.26271662 0.09010648 -0.18653005
0000e0 fa 1f 1a 3e d5 59 8a bd dc c6 26 3c 0e e4 6f 3e
       0.1505126 -0.06755415 0.010179248 0.2342684
0000f0 0a 33 29 3e 7a f2 0c be c0 ac 16 bd de 85 6c be
       0.16523376 -0.13764372 -0.03678584 -0.23097941
000100 b1 a5 1a 3e e3 50 2c 3d a1 bd da 3c c8 fa 10 3d
       0.15102269 0.042069327 0.02670175 0.035395414
000110 82 5b 3f 3d f9 8e d5 3d 80 6f 91 be 5c 7e d5 bb
       0.046718128 0.104276605 -0.2840538 -0.0065153074
000120 c8 c0 04 bd 61 08 60 bc 17 bb 66 be 8f b9 e0 bd
       -0.032410413 -0.013673873 -0.22532307 -0.109728925
000130 35 53 66 3e 2d 61 69 3c 77 c3 0c be 26 5d dc bd
       0.22492678 0.01424436 -0.13746439 -0.10759954
000140 e8 15 ee bd 6e a7 36 be c6 e9 25 bd ed 4e 2c bd
       -0.11625272 -0.17837307 -0.040506147 -0.042067457
000150 1d a1 25 3e b2 91 4a be c1 2f a7 bd fd 45 5d bd
       0.16174741 -0.19782141 -0.08163405 -0.054021824
000160 ef b5 25 be dc 23 91 3e 06 6d 91 be f1 da c0 be
       -0.16182683 0.2834767 -0.2840349 -0.3766704
000170 39 cb 42 be d7 a1 b1 3e 0c 13 9f 3d cd 67 5a be
       -0.19022836 0.34693787 0.07767305 -0.2132866
000180 fb fc 2f bc d4 15 81 3c bd 9c a8 3c 72 7d 22 bc
       -0.010741468 0.015757479 0.020582551 -0.009917604
000190 cd c2 10 3d de 0d 54 bd 48 a3 11 bd e3 dc 21 3c
       0.035342027 -0.051771037 -0.035556108 0.009879324
0001a0 d6 89 8c 3c 20 c5 b2 3b aa d1 c1 bc 4e c1 48 bd
       0.017155569 0.005455628 -0.023659546 -0.049012475
0001b0 5d 7d 35 bc b0 db be bb fb 32 00 bd 27 49 dd 3c
       -0.011077252 -0.0058245286 -0.03129862 0.02701242
0001c0 1e fe 23 bd 29 83 3a 3c f6 6b 61 3d 6a 16 38 bb
       -0.040037267 0.01138381 0.0550346 -0.0028089532
0001d0 99 cc b4 ba c0 7c 65 3c 72 79 19 3c a5 87 d4 bc
       -0.0013793885 0.0140067935 0.009367334 -0.025943587
0001e0 1c f0 f1 bc 95 30 1d bd c7 ac 5e bb 41 a2 76 3c
       -0.029533438 -0.03837641 -0.0033977495 0.015053333
0001f0 59 d6 fe 3a f8 61 99 3b bc a5 11 3b ea e2 f0 bb
       0.0019442543 0.0046808682 0.002222403 -0.007351269
000200 13 19 54 be 17 bc e7 bd de 5c 66 3d b6 03 5e 3e
       -0.2071269 -0.11315172 0.05624091 0.21681103
000210 4c 5c 21 bd 5e 60 48 3d 67 48 22 3e 83 f0 32 bd
       -0.03939466 0.048920028 0.15847932 -0.0436864
000220 c7 fd 44 3c d3 dc ed bc cd 48 2e 3d 17 30 00 bc
       0.012023396 -0.029035961 0.042549897 -0.0078239655
000230 2d f4 6f be 60 b8 b6 bd a6 2a 7a 3d c1 53 57 bc
       -0.2343299 -0.089218855 0.06107583 -0.013142527
000240 19 01 d3 bb c9 0c 16 3d 08 ad a6 ba 7b 68 47 3c
       -0.00643934 0.036633287 -0.0012716362 0.012170906
000250 bc d2 91 bd 54 14 77 bb b4 b5 5d be 7d b8 1e bd
       -0.071202725 -0.0037701325 -0.21651345 -0.03875016
000260 5b f1 25 bd 9b c6 a1 3b a5 c7 a5 3d 95 9b 82 3e
       -0.040513378 0.0049370057 0.0809472 0.25509325
000270 d4 61 51 3e 53 e1 3f be 2d 6a 77 3d 8f 5b 71 be
       0.20447475 -0.18738298 0.06040399 -0.23570083
000280 72 23 f7 3c b8 77 ce 3d c7 f6 a3 3e 22 2c 81 be
       0.030168269 0.10081428 0.32024214 -0.25228983
000290 82 65 33 bd e3 5c 80 be 52 6a 2e be 36 23 b0 bd
       -0.043797977 -0.25070867 -0.17032745 -0.08600466
0002a0 39 f1 51 3d 9b 05 a0 bd de 41 08 3d 7f f9 8f bd
       0.05125544 -0.07813569 0.03326594 -0.070300095
0002b0 e5 5f db bd 5c d0 0d bc 29 73 06 be 21 b7 fa bd
       -0.1071165 -0.008655634 -0.13129868 -0.1224196
0002c0 9a 73 d8 3d dc f4 16 3d d1 2d 90 3d 08 33 42 bc
       0.10568924 0.03685461 0.07039989 -0.011852987
0002d0 72 bd 92 bd 1c 8a b2 be 1b 2d 75 3d 90 96 f8 3b
       -0.0716504 -0.34870994 0.05985747 0.007586308
0002e0 19 12 51 3d 9e dd 79 3d 6a 3b 3c bd d2 b2 2a 3d
       0.05104265 0.061002366 -0.0459551 0.041674443
0002f0 41 84 30 be b9 dd 07 3e 6b ce 08 3e a6 82 6e 3e
       -0.17237951 0.13268174 0.13359992 0.23292026
000300 c8 87 bb 3c 2b 03 2c 3e ff 2f 50 be b8 8b 80 3c
       0.022891894 0.16798083 -0.20330809 0.015691623
000310 f6 f9 46 bd d0 42 8f 3c ab 7b 7a bd 6a 6a 0f 3d
       -0.048578225 0.017487913 -0.061153095 0.035013594
000320 f4 c7 dc bd 51 7d c3 3d 88 c0 e0 3d 1b 8b 92 3d
       -0.107803255 0.095453866 0.109742224 0.071554385
000330 4c 4d 39 3d 08 19 d0 3d 8e 93 66 be c9 12 93 3c
       0.04523973 0.10161024 -0.22517225 0.017953293
000340 9b 3e 05 bc cb 9f f6 3d b3 03 0f bb 1f 1c db bd
       -0.008132602 0.12042197 -0.0021822273 -0.10698723
000350 e3 84 17 bd f0 62 2f 3e 6b 29 95 bd 99 fb 09 be
       -0.036991965 0.17127585 -0.072832905 -0.13474883
000360 2e 11 21 3c 28 ae 8d 3d 21 46 a4 bc 9d cb 17 3e
       0.009830756 0.06917983 -0.020052971 0.14823766
000370 a8 37 2b 3e 41 c3 c9 bd 65 a8 03 be 0d 7b 03 bc
       0.1672045 -0.09851695 -0.12857206 -0.008024943
000380 a6 bd 33 bc 64 7e 2f 3e e4 c1 25 be 65 2a 66 3d
       -0.010970509 0.17138058 -0.16187245 0.056192774
000390 0c a5 a3 bc 93 2f 6c bd f5 66 9c bd 63 df 58 3d
       -0.019976161 -0.057662558 -0.07636825 0.052947413
0003a0 78 80 b0 bd 0a c3 42 3d 2e aa 32 3e 53 1f 2e 3a
       -0.086182535 0.047549285 0.17447731 0.0006642241
0003b0 c3 22 25 3d f2 a3 02 3e 88 d8 56 be 4f cf 77 3d
       0.040316354 0.12757853 -0.20981038 0.06050044
0003c0 93 62 1b bd 5a 6a 4d 3e f4 73 9e 3d fd b7 36 bd
       -0.037935805 0.20060101 0.0773696 -0.04460906
0003d0 f1 e6 aa bc d7 e6 2a 3e 57 40 4a bd c6 32 2e be
       -0.020862075 0.16689621 -0.049377766 -0.17011556
0003e0 3c 2a 2f bd 5c 4a c8 3d 0b e8 49 3d 9b c4 34 3d
       -0.042764887 0.09779808 0.04929356 0.04413281
0003f0 d5 87 17 3e c5 14 64 bd 26 16 07 be b4 ab a6 3d
       0.1479791 -0.05568387 -0.13192043 0.081382185

model.backbone.layers.0.channel.2.bias f4 [74]
000000 ae 24 6e 3d fa d3 f2 bc 00 b6 d2 3d 20 14 49 3c
       0.05814045 -0.029642094 0.1028862 0.012272865
000010 ac c5 e4 3c 67 cf 39 3d e1 70 b7 bc e0 17 33 bd
       0.027926289 0.04536381 -0.022392692 -0.04372394
000020 e2 fe c4 bd 40 49 d6 3c f7 ff 9e 3d a0 77 47 be
       -0.096189275 0.026157975 0.07763665 -0.19479227
000030 ae 6d b7 3d fe 34 7d bd 6b 66 91 3d b3 eb c0 3b
       0.089564666 -0.061818115 0.07099613 0.0058874725
000040 0a 48 18 be 68 37 1c be ab 7e 61 bd f6 94 1e 3d
       -0.1487123 -0.15255511 -0.05505244 0.03871628
000050 34 f0 40 3e fc 9b d4 bd 05 aa 1a bd cc f3 ee bd
       0.1884163 -0.10381314 -0.0377598 -0.11667594
000060 9f f2 78 3d ef b7 51 3d b4 9c ac 3d 89 ad 02 bc
       0.060778257 0.051200803 0.08428326 -0.007975944
000070 e5 62 45 3d 46 40 c7 3d e8 29 99 3d 8f 3f 06 bd
       0.048190016 0.09729056 0.07478696 -0.032775458
000080 2d d0 8c bd fc 2c 5d 3d 92 79 07 3e 2a 67 9a bd
       -0.06875644 0.05399798 0.13229969 -0.07539208
000090 d2 84 c3 3d a9 05 c1 3d ea 6b 00 bd f3 c4 09 3d
       0.09546818 0.09424908 -0.031352915 0.03363509
0000a0 fd 27 d6 3d f4 f9 12 be bb 2c 5f bd 40 27 7f bd
       0.10456846 -0.14353162 -0.054486018 -0.06229329
0000b0 99 64 33 3d 32 5e f6 bd 85 10 ba 3d e7 e9 24 bd
       0.04379711 -0.12029685 0.09085182 -0.04026213
0000c0 ae b4 5a bd fb 69 3d 3d 68 a2 6b 3d a1 15 03 3e
       -0.053394966 0.04624365 0.05752793 0.1280122
0000d0 a7 5f af bd 11 9d 86 3d 5b 6c bc 3d 62 37 8c bc
       -0.08563166 0.06572927 0.09200355 -0.017116252
0000e0 97 6d f0 bd e7 28 80 bd c6 75 bc 3d c0 3d 03 3e
       -0.117396526 -0.062578015 0.09202151 0.12816525
0000f0 cc 71 e3 bb 31 ba e3 bd d4 01 90 3d bd 28 8a bd
       -0.006941056 -0.111194976 0.07031599 -0.067460515
000100 1f cf 21 bd e6 8e 19 be 1c 8c e1 bd 29 11 44 3d
       -0.039504167 -0.14995918 -0.11013052 0.047867928
000110 5d b4 f6 3d 25 f0 b8 3c c5 b0 e1 bc a2 3b c1 bd
       0.1204612 0.022575447 -0.02755011 -0.09435202
000120 fc e2 fd bb bb 5d 10 3c
       -0.007748006 0.00881141

model.backbone.layers.1.temporal.0.weight f4 [32, 64]
000000 ab 90 77 bd d1 80 94 3c 62 ce ae be f0 2c b4 bd
       -0.0604407 0.01812783 -0.34141833 -0.08797634
000010 a3 27 a4 bd e9 f8 07 bd 3e b0 87 bb 6c 54 94 bc
       -0.080153726 -0.033196364 -0.0041408828 -0.018106662
000020 47 5b 3a 3e 65 4c 87 3d ae 55 1e 3e bc 3a 25 3e
       0.18198882 0.06606368 0.15462372 0.16135687
000030 ca 5b 68 3e ae 40 31 3e ca a5 5d 3d 64 53 0a be
       0.22691265 0.1730983 0.054113187 -0.13508373
000040 06 20 84 bd 38 51 fd 3c 83 ca 6c bd 9b 9f 31 be
       -0.064514205 0.030922517 -0.057810318 -0.17346041
000050 a5 a8 ac bd 5a 00 e4 3d 4d 11 65 3e 38 16 ad bc
       -0.08430604 0.111328796 0.22369881 -0.021128759
000060 f1 0c 13 3e 8c b4 52 bd a0 6c 99 3d 8d ed 8a bd
       0.14360406 -0.051441714 0.07491422 -0.067835905
000070 a7 59 02 3c b5 e4 17 be a8 29 82 be 74 8c 74 be
       0.007955945 -0.14833339 -0.25422406 -0.23881704
000080 c6 53 fe bd 75 fd 7a be 3a 09 16 be e9 d5 cd bc
       -0.12418322 -0.24510749 -0.14651957 -0.025126414
000090 7e d0 3b bd 13 11 02 3e 1f f5 a6 3d 30 06 16 bd
       -0.04585313 0.12701826 0.08152222 -0.036626995
0000a0 72 9a 0c be 04 1e bc bd 6f 18 a7 3c b3 6e e5 bd
       -0.13730791 -0.091854125 0.020397393 -0.11202755
0000b0 6c 76 1d 3b c5 85 f4 bd 46 94 4a 3e a7 79 a2 3d
       0.0024026884 -0.11939577 0.19783124 0.079333596
0000c0 98 63 8f bd 90 61 70 3c e7 c9 f0 3d 0c 00 d7 3c
       -0.07001418 0.014671698 0.1175726 0.02624514
0000d0 88 e5 45 be 8a f4 b0 bd 25 db b4 bd 5f 24 51 bd
       -0.1932584 -0.08640392 -0.08830861 -0.051060077
0000e0 02 84 0f bd 51 80 99 bd 5b 4f 84 bd 2f 11 b6 3d
       -0.035038 -0.074951775 -0.06460448 0.08889996
0000f0 cc 55 db 3d 30 52 a8 bc 17 f7 29 3d 5c 3c eb 3e
       0.10709724 -0.020547003 0.04149541 0.45944488
000100 84 16 d4 bc 71 9f af bc d5 1d 0d bd 3b 3c b8 bb
       -0.025889643 -0.021438332 -0.03445228 -0.0056224144
000110 07 1a 34 3c a2 ce 64 3d e3 65 c1 3d 2e b1 c1 3d
       0.0109925335 0.055861123 0.094432615 0.094576225
000120 4e c4 26 3e 10 da 2d bd 7f 41 28 bc 47 ca 70 bc
       0.16285822 -0.04244429 -0.010269522 -0.014696664
000130 f2 c7 78 3a 5f a7 4f 3d 74 42 0a 3e 9b fe 3d 3d
       0.00094902434 0.050696727 0.13501912 0.04638539
000140 04 e8 8c bc 22 5e 65 bd 9b 7a c5 bd e0 3b 1c be
       -0.017200477 -0.055997975 -0.09642526 -0.15257215
000150 0b 98 f8 3c bd 63 35 3d 63 3f 04 be d0 68 d4 bd
       0.030345937 0.04428457 -0.12914805 -0.10371554
000160 08 d0 fe bd b4 3f 51 bd 82 77 19 be fc fc a9 bd
       -0.124420226 -0.051086143 -0.14986995 -0.08300206
000170 58 4f 80 3d bc 42 01 bd 92 a3 97 3d 52 03 26 3e
       0.062651336 -0.031557783 0.074042454 0.16212204
000180 29 2b 09 3e 24 59 6a bd 20 c5 96 bd a6 a8 a3 3d
       0.1339537 -0.057213917 -0.07361817 0.079911515
000190 d8 ee 89 bd 74 c9 27 3d c2 41 88 3c cd 46 1f bd
       -0.06735009 0.040963605 0.016632918 -0.03888588
0001a0 8d 29 d3 3d 48 c1 12 3e 8c 08 b6 3d a5 6f e6 3d
       0.103106596 0.14331543 0.08888349 0.11251763
0001b0 f3 ca 80 3d d3 c8 bf bd 27 80 f5 bd e9 44 dd 3c
       0.062887095 -0.09364476 -0.11987334 0.027010398
0001c0 f6 38 d8 3d 0e cf 59 3d 72 83 f8 3d 47 54 0b ba
       0.105577394 0.05317598 0.12134446 -0.00053149875
0001d0 9c f0 c6 3c 53 4a 65 3d 5d fa 86 3e 87 4c 52 3e
       0.024284653 0.055979084 0.26362887 0.20537005
0001e0 22 97 4c 3e 8e 0f 39 3e 96 bc 3e 3e 28 ae f7 3c
       0.19979528 0.1807234 0.18626627 0.030234411
0001f0 93 fa 20 be 9d 31 e0 bd 31 7f 9e be 90 e6 46 bf
       -0.15720586 -0.10946963 -0.30956414 -0.7769556
000200 1e 17 2c bb 95 4f 16 3e 48 51 f9 3d 17 be 59 3e
       -0.0026258896 0.14678796 0.12173706 0.2126392
000210 9e 19 09 3e 34 d5 83 3c 2b d1 03 bd ed 71 8d bd
       0.13388678 0.016092874 -0.0321819 -0.06906495
000220 19 3f 13 bd ea ac cf bd ba cd 20 3d c7 de da 3c
       -0.035948846 -0.101404026 0.039258696 0.026717557
000230 7d 40 13 bd b7 37 8c bb 16 36 96 be 0a ff 1c be
       -0.035950173 -0.0042791027 -0.2933814 -0.15331665
000240 b5 34 7c bd ff 04 e3 3d 32 d6 d2 3d 58 29 de 3d
       -0.061573703 0.11084937 0.10294761 0.108477294
000250 65 fc 53 3d 58 d2 e8 3d f2 c7 4e 3e 09 23 b8 3d
       0.051754374 0.11368245 0.2019346 0.089910574
000260 18 42 1b bd 18 29 b0 3d 30 bb 01 be 36 20 ab bc
       -0.03790483 0.08601588 -0.12669063 -0.020889383
000270 f3 20 c5 bd 1a 8b ce be dd 27 65 be f2 11 6c bd
       -0.09625425 -0.403405 -0.22378488 -0.0576343
000280 f9 67 73 3c 7e 35 ff bd 77 6d c1 3d 86 cb 33 3e
       0.014856332 -0.12461375 0.09444707 0.17558107
000290 8a 00 3f 3e b2 40 50 bd fb 4e 09 be cd 8a 7a 3d
       0.1865255 -0.05084295 -0.13409035 0.061167527
0002a0 25 7e 7f 3e 4f 40 25 3e 43 5c a2 3d 76 7e af 3d
       0.24950464 0.16137813 0.07927754 0.085690424
0002b0 bf b3 fa 3d 4e ea f8 bd 33 0a ae bb 47 14 82 bd
       0.12241315 -0.12154065 -0.0053112744 -0.06351524
0002c0 d4 19 5d 3e cc de 12 3e bd f6 06 3e 3f 9d 45 3d
       0.21591884 0.14342803 0.1318006 0.048245665
0002d0 7d 9b e0 3d ad 36 e7 3d 6a be 4d bd 91 e5 21 be
       0.10967157 0.112897255 -0.05023042 -0.15810229
0002e0 66 aa af be ab ea a1 be 12 48 66 bd 78 22 bb bd
       -0.3430969 -0.3162435 -0.056221075 -0.09137434
0002f0 36 e0 d5 3c f0 82 24 3d d7 70 c3 bc 29 ff 95 3d
       0.026107889 0.040163934 -0.023857517 0.073240586
000300 d9 c2 61 be 00 56 0f 3e 06 27 99 bd 45 d7 a8 3d
       -0.22046985 0.1399765 -0.07478146 0.082441844
000310 3a c8 b1 be cb c5 0d be 1e 71 16 be c9 43 58 3e
       -0.34723073 -0.13844983 -0.14691588 0.21119608
000320 8d f6 e2 3d 67 5e 43 bd 51 3b 95 bd 2c 8c 96 bd
       0.11082182 -0.04769745 -0.07286704 -0.073509544
000330 b9 08 09 3d 32 64 d9 3d 91 2d df 3d 18 2b 41 3d
       0.033455584 0.10614814 0.10897363 0.047160238
000340 60 92 65 3e 9b ee a5 3d b4 e2 7b 3e 63 d6 c2 3c
       0.22419119 0.08102151 0.24598199 0.023783868
000350 23 3b 4f be ba b4 65 bd 49 61 ae bd 3c a6 b5 3c
       -0.20237403 -0.056080557 -0.085146494 0.022173993
000360 7a f4 0f 3e b5 ca 1f be 97 30 9c be cc 26 c7 bd
       0.14058104 -0.1560467 -0.3050582 -0.09724197
000370 0b 43 69 3e a9 76 af 3c 9e 22 51 3c 2a 23 4b 3e
       0.22779481 0.021418886 0.012764601 0.19837633
000380 ef be 5c 3e 62 4e 8b ba 9b dd ba bd 9c 9f e1 bd
       0.2155721 -0.0010628218 -0.09124299 -0.11016771
000390 9f 33 c5 3c ce 47 b7 bd 53 64 ce bd 07 b7 b1 be
       0.024072466 -0.089492425 -0.10077729 -0.3470995
0003a0 bf ab 6a 3e 47 77 cc 3a 26 6a f4 3c b4 64 70 be
       0.22917078 0.0015599512 0.029835772 -0.23475915
0003b0 43 88 bc bd 10 3a 3e bd bb b0 12 3e 28 88 8d 3d
       -0.09205677 -0.04644209 0.1432523 0.06910735
0003c0 8e 43 25 3e 46 77 19 3d 1b e7 32 be c0 d1 fe bd
       0.16139051 0.037467264 -0.17470972 -0.124423504
0003d0 72 fe 16 3d a0 48 bf bd 86 05 76 bd 34 34 4f 3e
       0.03686375 -0.09340024 -0.06006386 0.20234758
0003e0 63 27 99 bc 74 5b ce 3d d0 a0 89 3e 2c f1 c1 3c
       -0.018695539 0.10076037 0.26880503 0.02367457
0003f0 09 38 22 bd 1c 49 10 be 6c 56 12 be 5d 31 10 3e
       -0.03960422 -0.14090389 -0.1429078 0.1408133
