experiments/AdversarialDomainAdaptation/saved_models/tsmixer_da_finetuned_4.pt (torch, 731002 bytes, 30 tensors)

model.backbone.static_proj.weight f4 [64, 10]
0	0x3dac0303	0.08399012
1	0xbe855354	-0.26040137
2	0x3cecd4e4	0.028910108
3	0xbe6ec0c1	-0.23315717
4	0x3e12d998	0.14340818
5	0x3e493d5a	0.1965231
6	0xbe953c14	-0.29147398
7	0xbd28d10f	-0.041215
8	0xbe51d8fc	-0.20492929
9	0xbd9117ea	-0.07084639
10	0x3e8195a8	0.2530949
11	0xbe91d7f3	-0.2848507
12	0x3ea3e5aa	0.32011157
13	0xbd9dbd28	-0.07702094
14	0x3e5557ad	0.20834227
15	0x3e60f14b	0.21967046
16	0x3da107e3	0.078628324
17	0x3e370d9a	0.17876282
18	0x3c0cd1ce	0.008594943
19	0x3e2fc338	0.17164314
20	0xbe85dd84	-0.26145566
21	0x3dc1921c	0.09451696
22	0x3dea7a99	0.11449165
23	0xbe5a1259	-0.21296062
24	0xbe41abe7	-0.18913232
25	0xbdeac3a6	-0.11463098
26	0x3e949de6	0.29026717
27	0x3e0cb3fd	0.13740535
28	0x3e872b77	0.2640035
29	0x3e7da54d	0.24770088
30	0x3e809619	0.25114515
31	0x3e8b7e35	0.27244726
32	0x3d873a9c	0.06602976
33	0x3c9e14ff	0.019297121
34	0xbd9da12f	-0.07696759
35	0x3e3c2f71	0.18377472
36	0xbe78ef5a	-0.24310055
37	0xbe458d09	-0.19292082
38	0x3ddc2d6f	0.10750853
39	0xbca79594	-0.020457067
40	0xbe2f2a00	-0.17105865
41	0xbdf0204f	-0.117249124
42	0x3e285913	0.16440229
43	0xbe17ab70	-0.14811492
44	0xbe382108	-0.1798135
45	0x3ea32bcf	0.3186936
46	0xbdffcfa3	-0.124907754
47	0xbe7f068a	-0.24904838
48	0xbe5b03a5	-0.21388109
49	0xbe93c085	-0.28857818
50	0x3cc8370d	0.024440313
51	0x3ea986c7	0.3311064
52	0xbe46a59c	-0.19399112
53	0xbe77cd36	-0.24199376
54	0x3dfb43cb	0.1226879
55	0x3e2578b1	0.16159321
56	0x3d2a8747	0.041632917
57	0x3e1a7fb5	0.15087779
58	0x3b861fd0	0.004093148
59	0x3e4ab59a	0.19795838
60	0x3e550f12	0.2080653
61	0xbd3610d1	-0.04444963
62	0xbe627dac	-0.22118253
63	0x3d9cb295	0.07651249
64	0xbe5c0bd2	-0.21488884
65	0xbdb96375	-0.09052173
66	0x3dc3bd6b	0.09557613
67	0x3d71ad56	0.059003197
68	0x3d80fb97	0.06297987
69	0x3e8f8403	0.28030404
70	0x3e6c1ccb	0.23057859
71	0x3d895366	0.0670536
72	0xbe9bd6ad	-0.30437222
73	0x3e7d1a66	0.24717101
74	0xbe4c7f89	-0.19970526
75	0xbe8d147b	-0.27554688
76	0xbe33ddd6	-0.17565092
77	0xbe6b69a3	-0.22989516
78	0x3d4c4543	0.04987074
79	0x3e8083fb	0.25100693
80	0x3e9c6de5	0.30552593
81	0x3e4bc89f	0.1990075
82	0xbdd2aabd	-0.10286472
83	0xbdae22a3	-0.085027
84	0x3e8133b8	0.2523477
85	0xbe650a71	-0.22367264
86	0xbbf45189	-0.007456009
87	0x3e056d2b	0.13029926
88	0x399e380f	0.00030177875
89	0x3e912f21	0.2835627
90	0xbd4069ff	-0.046976086
91	0xbe91c137	-0.28467724
92	0xbcc6d9ea	-0.024273831
93	0xbe3f22a8	-0.18665564
94	0x3e84f1da	0.25965768
95	0x3d2d23c3	0.042270433
96	0xbe2aa380	-0.16663933
97	0x3e1aa334	0.1510132
98	0xbdafef88	-0.08590609
99	0xbe502eae	-0.20330307
100	0x3dbb0e0c	0.091335386
101	0x3d9020f8	0.07037538
102	0xbdc2e3b2	-0.09516086
103	0xbe4b42fc	-0.19849771
104	0x3d0f6ba8	0.03501478
105	0x3e87ea71	0.26546052
106	0xbc83edd4	-0.016104616
107	0x3e18e271	0.1493013
108	0x3e8c0fb0	0.2735572
109	0x3e89db3e	0.2692508
110	0xbe7f1ad1	-0.24912573
111	0xbe1e0581	-0.15431787
112	0x3e8aeb21	0.27132514
113	0xbe82efd2	-0.25573593
114	0x3d09375a	0.033500053
115	0x3e951f2a	0.2912534
116	0x3ea849b2	0.32868725
117	0xbe5c0f93	-0.21490316
118	0x3e130063	0.14355616
119	0x3c799141	0.015232385
120	0x3e43bd11	0.19115092
121	0x3d93c82d	0.07215915
122	0x3e83b5d4	0.2572466
123	0x3e99dc91	0.3005109
124	0x3d74fdab	0.05981223
125	0x3d74629a	0.059664346
126	0x3e2a4e09	0.1663133
127	0x3e01044a	0.12599292
128	0x3e5d5d9d	0.21617742
129	0x3e19906b	0.14996497
130	0x3d3da26e	0.046297483
131	0x3e84fae6	0.2597267
132	0xbdf616be	-0.120160565
133	0xbd660ba7	-0.056163456
134	0x3d0544cc	0.032536313
135	0x3e42adef	0.19011663
136	0xbe004143	-0.12524895
137	0xbd0bcb91	-0.034129683
138	0xbe4fa1c7	-0.20276557
139	0x3e216735	0.15762027
140	0x3e2f9e5e	0.17150256
141	0xbe1b7f3e	-0.15185258
142	0x3d4d0819	0.05005655
143	0xbe4ef037	-0.20208822
144	0x3d2a70ef	0.041611608
145	0x3d4626ad	0.048376728
146	0xbe9d44ce	-0.30716556
147	0xbd5d18a3	-0.053978574
148	0xbe6122cd	-0.21985932
149	0x3b208ea3	0.002449908
150	0x3e1fe7f4	0.15615827
151	0xbe637c99	-0.22215499
152	0x3da4b02a	0.08041413
153	0xbdda25cb	-0.1065174
154	0x3d82e4fd	0.06391332
155	0x3e485840	0.19564915
156	0x3e7cdcb3	0.24693565
157	0x3dc8a8d7	0.09797829
158	0xbde50604	-0.11182788
159	0xbe0d2242	-0.137826
160	0xbe95759a	-0.29191285
161	0xbd8b8d24	-0.0681403
162	0xbcef7441	-0.029230239
163	0xbd11d86d	-0.03560679
164	0x3d277fcf	0.040893372
165	0x3d34e0f3	0.04415984
166	0xbca8fa3f	-0.02062714
167	0x3e711189	0.23541845
168	0x3e401751	0.18758895
169	0xbe17696b	-0.14786308
170	0x3e3e6a1f	0.1859517
171	0xbe7deb5a	-0.24796811
172	0xbe9963ec	-0.29959047
173	0xbe9634b0	-0.29337072
174	0xbe5d6422	-0.21620229
175	0xbe0b03fb	-0.13575737
176	0xbbb0f599	-0.0054003713
177	0x3d5c1895	0.05373438
178	0x3cafbb34	0.02145157
179	0xbd82e93c	-0.06392142
180	0xbd79804f	-0.06091338
181	0xbe4c6e19	-0.19963874
182	0xbc37ff3e	-0.011230288
183	0xbbe1e01d	-0.0068931715
184	0x3e338396	0.17530665
185	0xbe279ec0	-0.16369152
186	0xbe82aaf9	-0.25521067
187	0xbd37c0b0	-0.044861495
188	0xbd909b16	-0.0706083
189	0xbe2b8d3d	-0.16753097
190	0x3daddb87	0.08489137
191	0xbcc92f45	-0.024558673
192	0x3dc1fd35	0.094721235
193	0xba5c97d1	-0.00084149564
194	0xbeaa1057	-0.3321559
195	0x3e29a971	0.16568543
196	0x3dea1c7f	0.114312164
197	0x3c49c3c3	0.01231474
198	0x3c9c7943	0.01910079
199	0xbe1634d1	-0.14668585
200	0xbe37cfae	-0.17950317
201	0x3c670511	0.014100329
202	0x3e9185b9	0.28422335
203	0xbe4778a6	-0.19479617
204	0xbe188ec6	-0.14898214
205	0xbd3fe194	-0.046845987
206	0x3e9d3488	0.3070414
207	0x3e9a10c9	0.3009093
208	0xbd44dd6d	-0.04806273
209	0x3e0e2e0b	0.13884751
210	0x3e63ef87	0.22259341
211	0xbe171597	-0.1475433
212	0x3df22320	0.11823106
213	0xbdfb04b4	-0.122567564
214	0xbc83513d	-0.016029948
215	0x3d406d94	0.0469795
216	0x3e80e280	0.25172806
217	0x3e7770b5	0.24164088
218	0xbdc7ccc6	-0.09755854
219	0xbe4cb0c7	-0.1998931
220	0xbe8b7ece	-0.27245182
221	0xbe058676	-0.13039574
222	0x3dc61977	0.09672826
223	0xbeaa02b2	-0.3320518
224	0xbda6b22a	-0.08139451
225	0x3e7e86cb	0.24856107
226	0x3e9105aa	0.28324634
227	0xbe843c0a	-0.25827056
228	0xbd66ae67	-0.056318667
229	0xbdc564f1	-0.09638394
230	0xbd773276	-0.060350858
231	0x3e37ef91	0.17962481
232	0xbe8076be	-0.25090593
233	0xbd2df07d	-0.042465676
234	0xbe6847ce	-0.22683641
235	0xbe90da33	-0.28291473
236	0xbda19fb4	-0.07891789
237	0x3e14a61c	0.1451649
238	0xbe00c41e	-0.12574813
239	0x3d3283fd	0.043582905
240	0xbe7b3ca2	-0.24534848
241	0x3e931731	0.2872863
242	0x3d67ca89	0.056589637
243	0x3e01ebcb	0.12687604
244	0xbe878e4c	-0.2647575
245	0xbe8d7948	-0.27631593
246	0xbde596d4	-0.11210409
247	0xbdc6456d	-0.09681211
248	0x3e8b3cc3	0.27194795
249	0xbe6a34dc	-0.22871727
250	0x3e5f590b	0.21811311
251	0xbe0f9138	-0.1402024
252	0x3d786b2a	0.060649075
253	0xbd464dd8	-0.04841408
254	0x3e30a8bb	0.17251866
255	0xbb0ffd6d	-0.0021971122

model.backbone.static_proj.bias f4 [64]
0	0xbd612aa0	-0.05497229
1	0xbdcbf54b	-0.09958895
2	0xbea33ca5	-0.31882206
3	0x3e404e79	0.18779935
4	0x3e435a1b	0.19077341
5	0xbdfb4535	-0.122690596
6	0xbe0aef09	-0.13567747
7	0x3e7e94a5	0.24861391
8	0xbdda2fca	-0.10653646
9	0xbe809b81	-0.2511864
10	0xbe3f4813	-0.18679838
11	0xbe0a1d1b	-0.13487665
12	0x3e5108c2	0.20413497
13	0x3b994171	0.0046769907
14	0x3d195960	0.03743875
15	0xbe32c993	-0.17459707
16	0xbe647f8e	-0.22314283
17	0xbe32e37a	-0.17469588
18	0xbe34af54	-0.17645007
19	0x3e1a9e29	0.15099396
20	0xbdf7b2ed	-0.12094674
21	0xbe823945	-0.25434318
22	0xbca992c7	-0.020699872
23	0xbd8da999	-0.06917114
24	0x3e91a2cb	0.28444514
25	0x3e40d890	0.18832612
26	0xbe72bc44	-0.2370463
27	0xbd057059	-0.032577846
28	0xbe5a6ebd	-0.21331306
29	0x3e04b16d	0.12958308
30	0xbdb0e442	-0.08637287
31	0x3e306db4	0.17229348
32	0xbe0dece4	-0.13859898
33	0xbcaa89ac	-0.0208176
34	0x3e502dcb	0.20329969
35	0x3e36341f	0.1779332
36	0xbd14e8cb	-0.03635482
37	0xbe19c9de	-0.15018412
38	0xbdb9f762	-0.09080388
39	0xbd51a426	-0.051181935
40	0xbdcf8cc9	-0.101342745
41	0xbdad85a1	-0.08472753
42	0xbe685b8b	-0.22691171
43	0x3df694a4	0.1204007
44	0xbdb9c465	-0.090706624
45	0xbe3dbdcc	-0.18529433
46	0x3e88eacd	0.2674164
47	0xbd34b72c	-0.04412
48	0xbe879345	-0.26479545
49	0xbe9b4a76	-0.30330247
50	0x3dbca309	0.09210784
51	0xbe3ed536	-0.18636021
52	0xbd841f05	-0.06451229
53	0xbe88bbd3	-0.26705799
54	0x3e9ff85e	0.31244177
55	0xbdd1a844	-0.10237172
56	0x3d863b82	0.06554319
57	0xbe0eb8b9	-0.13937654
58	0xbda275a3	-0.07932594
59	0xbe872fd8	-0.2640369
60	0x3d2c671f	0.04209053
61	0xbddd895c	-0.10817215
62	0x3e2c6a7d	0.16837497
63	0x3e87799b	0.26459965

model.backbone.layers.0.temporal.0.weight f4 [32, 64]
0	0x3dd5bede	0.10436796
1	0xbca783f4	-0.020448662
2	0xbd4f9904	-0.050683036
3	0x3c920249	0.017823355
4	0x3c3400d3	0.010986525
5	0xbda58316	-0.08081643
6	0x3acce113	0.0015631042
7	0x3b74c711	0.0037350098
8	0xbd7028bb	-0.058632594
9	0x3d32b761	0.043631915
10	0xbda6e066	-0.08148269
11	0xbc2c0de0	-0.010501355
12	0x3dc1a93b	0.09456106
13	0x3e05f92d	0.13083334
14	0x3d8fd921	0.07023836
15	0x3dacebfd	0.08443449
16	0xbcc06a46	-0.023488175
17	0xbd0a2ff1	-0.033737127
18	0x3d8b50c3	0.068025135
19	0xbd494d21	-0.04914582
20	0xbd7b1ec5	-0.06130864
21	0x3de31ff7	0.11090081
22	0xbd96e393	-0.07367625
23	0x3d81b698	0.06333655
24	0x3db6606f	0.08905112
25	0xbd87d196	-0.06631772
26	0x3cc49870	0.02399847
27	0xbd2d0494	-0.042240694
28	0x3d4495d4	0.04799445
29	0xbd598f95	-0.053115446
30	0x3d748cdd	0.05970465
31	0xbdbd7ad1	-0.09251941
32	0x3dbee794	0.09321514
33	0x3d7e0caf	0.062023815
34	0x3cf97581	0.030451538
35	0x3d17c7c5	0.03705575
36	0x3d084166	0.033265494
37	0xbd53afb6	-0.051681243
38	0x3d903eaa	0.07043202
39	0xbd4a0c9a	-0.049328424
40	0xbdec264e	-0.115307435
41	0x3ccb69f4	0.024830796
42	0x3d418358	0.0472444
43	0x3d936821	0.071975954
44	0x3d2d085c	0.0422443
45	0xbd02ff9d	-0.031982053
46	0xbdd43b7a	-0.10362907
47	0x3c11d5cd	0.008901072
48	0x3c1ad132	0.00944929
49	0x3dbeb2aa	0.09311421
50	0x3dba00cd	0.09082184
51	0x3ddb182a	0.10697968
52	0x3d86ac15	0.06575791
53	0xbdac9406	-0.08426671
54	0xbc91479b	-0.01773434
55	0x3c210c40	0.009829581
56	0x3dd57c41	0.1042409
57	0xbd4ad18b	-0.049516242
58	0x3dd03128	0.10165626
59	0xbdad9db8	-0.08477348
60	0x3c500b4a	0.012698004
61	0x3e0ab09f	0.13543938
62	0xbdc571e3	-0.09640863
63	0x3d3c799a	0.046014406
64	0xbc63d197	-0.013904951
65	0xbd105411	-0.035236422
66	0xbe06eb7e	-0.1317577
67	0xbd83a5a3	-0.06428077
68	0x3d4f1a2e	0.050562076
69	0xbc0c860c	-0.008576881
70	0x3d7159ea	0.05892364
71	0xbdbab8b7	-0.09117263
72	0xbdf85353	-0.12125268
73	0xbde40700	-0.11134148
74	0xbd2c4c96	-0.042065226
75	0xbc37822a	-0.011200467
76	0xbc8bcf9f	-0.017066775
77	0xbd53ebf8	-0.05173871
78	0x3d935e34	0.07195702
79	0x3d9966b8	0.07490295
80	0xbdcab306	-0.09897427
81	0xbaa3ffbf	-0.0012512131
82	0xbd6b8685	-0.057501335
83	0x3dd16ad8	0.10225457
84	0x3dd71dd3	0.105037354
85	0xbe0ec761	-0.13943245
86	0x3de052a3	0.10953262
87	0x3d3cd93e	0.046105616
88	0x3d2458d5	0.04012378
89	0xbda73488	-0.081643164
90	0x3dac91a5	0.08426217
91	0xbdb5c5e5	-0.08875636
92	0xbdec8677	-0.11549085
93	0x3cff9171	0.031197282
94	0xbda67492	-0.08127703
95	0xbdd26fd2	-0.10275234
96	0xbe0d7e9d	-0.1381783
97	0xbda297fe	-0.079391465
98	0xbc878467	-0.016542627
99	0xbe0ee741	-0.13955404
100	0xbdd3fd4c	-0.10351047
101	0xbd40d7c1	-0.04708076
102	0xbdedfd52	-0.11620583
103	0xbc770b72	-0.015078412
104	0x3d9d39ac	0.07677016
105	0xbdfd9a4e	-0.12382947
106	0xbd6908c5	-0.05689313
107	0xbdfb59b2	-0.122729674
108	0xbda84533	-0.08216324
109	0x3da52d49	0.08065278
110	0xbc620942	-0.013796153
111	0x3dbc75af	0.09202134
112	0xbe042b24	-0.12907082
113	0x3da492b6	0.080357954
114	0x3dcb0b3d	0.09914253
115	0xbdb71a9f	-0.089406244
116	0x3da1b5a6	0.07895975
117	0x3de023de	0.10944341
118	0xbcfb6efb	-0.030692568
119	0xbca77ed8	-0.020446226
120	0x3c568cb7	0.0130950725
121	0xbca2f6ff	-0.019893168
122	0xb9e0c644	-0.0004287233
123	0x3d1f5029	0.038894806
124	0xbd3d8b07	-0.046275165
125	0xbdd60015	-0.104492344
126	0x3da0ccd8	0.07851571
127	0xbdbd6491	-0.09247697
128	0x3dd3e5df	0.10346579
129	0x3d338cae	0.043835334
130	0xbd84d1fc	-0.06485364
131	0xbc831c5c	-0.016004734
132	0x3ce98896	0.028507512
133	0x3db04927	0.08607703
134	0x3e176de8	0.1478802
135	0xbd57fd22	-0.05273164
136	0x3d7e41eb	0.062074583
137	0x3dde1962	0.10844685
138	0x3c49f252	0.01232584
139	0x3dbb1c2c	0.09136233
140	0x3d7accfe	0.061230652
141	0xbd107eac	-0.035277054
142	0x3d35d295	0.04439028
143	0x3d8f8a0e	0.07008754
144	0x3c62b478	0.013836972
145	0x3c57ec4a	0.013178894
146	0x3b1f4cc2	0.0024307226
147	0xbd922998	-0.0713684
148	0x3ddf799f	0.10911869
149	0x3dbec6a3	0.09315231
150	0x3d7d3aba	0.061823584
151	0xbd03ecf7	-0.03220841
152	0xbdc0a523	-0.09406497
153	0xbda1af1b	-0.07894727
154	0x3d206fa9	0.039168987
155	0x3e17df07	0.14831172
156	0x3d8f03c0	0.06983137
157	0x3d67b922	0.05657304
158	0x3ddd4ccb	0.10805663
159	0xbb46a791	-0.003031228
160	0xbdc160e9	-0.09442312
161	0x3dc71d36	0.097223684
162	0xbd509943	-0.05092741
163	0x3d9c4639	0.076305814
164	0xbcd4a817	-0.025959058
165	0x3dcf504a	0.10122736
166	0x3bb8b406	0.005636695
167	0x3e072e38	0.13201225
168	0x3d39f03f	0.045395132
169	0xbbfa483f	-0.007638007
170	0xbd2fdcc5	-0.04293515
171	0x3da5677e	0.0807638
172	0xbd3a31bd	-0.04545759
173	0xbdd09cb2	-0.10186137
174	0x3db889a3	0.09010627
175	0xbdcebf30	-0.1009506
176	0x3e0bb79d	0.13644262
177	0xbc9908b9	-0.018680917
178	0x3d642d64	0.05570735
179	0x3dd4ce3e	0.103909
180	0x3de9b85e	0.114121184
181	0xbd25cd22	-0.040478833
182	0xbdc7fd5a	-0.0976512
183	0x3df26aef	0.11836802
184	0x3dad1315	0.08450905
185	0x3e0d41bc	0.13794607
186	0x3dbeb999	0.09312744
187	0x3e0639aa	0.13107935
188	0xbd8f94a6	-0.07010774
189	0x3d632297	0.05545291
190	0x3c8893cc	0.016672038
191	0x3ce3c7aa	0.027805168
192	0xbdf754a1	-0.120766886
193	0xbd224837	-0.03961965
194	0x3dd7cb38	0.10536808
195	0x3d9cac4d	0.07650051
196	0x3d711ddf	0.058866378
197	0x3da5f91a	0.08104153
198	0xbc60ef4c	-0.013728928
199	0xbb8509b4	-0.0040599946
200	0xbd51f512	-0.051259108
201	0xbd8d9db4	-0.06914845
202	0xbd828676	-0.06373303
203	0x3d244f88	0.04011491
204	0x3d14a81f	0.036293145
205	0x3d3630ff	0.04448032
206	0xbdb0551b	-0.086099826
207	0x3dad633e	0.084661946
208	0xbd8d0d49	-0.068872996
209	0xbce01111	-0.027351888
210	0x3dd46b84	0.103720695
211	0xbdc6e3be	-0.09711407
212	0x3d64ea5e	0.055887572
213	0x3dd6ad49	0.1048227
214	0xbce5b7fd	-0.028041834
215	0xbc7d60bf	-0.015464961
216	0xbd66c8df	-0.05634391
217	0xbdf4b2b1	-0.11948145
218	0xbe0b4154	-0.1359914
219	0x3cfab652	0.030604515
220	0xbd9e8734	-0.07740632
221	0xbdba6933	-0.091020964
222	0xbd5c86f7	-0.05383965
223	0xbdc000fb	-0.09375187
224	0xbda11061	-0.07864452
225	0x3d467bf8	0.04845807
226	0xbd1b7f7f	-0.037963387
227	0xbdfade15	-0.1224939
228	0xbd7284a7	-0.05920854
229	0xbdf14ee1	-0.11782623
230	0xbddf212a	-0.108949974
231	0xbd23a2c5	-0.03995015
232	0x3d5cf5fd	0.05394553
233	0xbdc3ce86	-0.095608756
234	0xbdcdde6b	-0.100521885
235	0xbdb68793	-0.089125775
236	0xbde589d7	-0.112079315
237	0xbd9333c5	-0.07187609
238	0x3d8c3cd2	0.06847538
239	0x3dbcbc32	0.09215583
240	0xbd207b5c	-0.039180145
241	0xbdf6c7ea	-0.12049849
242	0x3db05a28	0.08610946
243	0x3d43744c	0.04771833
244	0xbde3ee3a	-0.111294225
245	0xbd6a890a	-0.057259597
246	0x3dbcb00c	0.09213266
247	0xbda1d078	-0.079010904
248	0x3be7a2b0	0.0070689544
249	0x3d335a03	0.043787014
250	0xbd739413	-0.059467386
251	0x3dbaec0a	0.09127052
252	0xbdabdd59	-0.08391828
253	0x3d90f364	0.07077673
254	0x3ddc936f	0.10770308
255	0xbe034ef9	-0.12823094

model.backbone.layers.0.temporal.0.bias f4 [32]
0	0xbd746019	-0.05966196
1	0x3defd9ff	0.11711501
2	0xbdad99eb	-0.08476623
3	0x3d005900	0.031334877
4	0xbda336a6	-0.07969408
5	0xbd970202	-0.0737343
6	0x3bbc18de	0.005740269
7	0x3cc8dc07	0.02451898
8	0xbdd2e619	-0.10297794
9	0x3c9c8fe5	0.019111583
10	0x3d8626cb	0.06550368
11	0x3b46c626	0.0030330508
12	0xbd120af6	-0.035654984
13	0x3def6133	0.11688461
14	0xbdbab46f	-0.09116446
15	0x3ca5014d	0.020142222
16	0x3d71b1b9	0.05900738
17	0xbd6a648f	-0.057224806
18	0x3e0e6d75	0.13908942
19	0x3e09a525	0.13441904
20	0x3d13109c	0.03590451
21	0x3bfacf9a	0.0076541426
22	0xbd293647	-0.04131153
23	0x3c773ded	0.015090448
24	0x3cc03324	0.023461886
25	0x3ccd03bc	0.025026195
26	0x3d9701e2	0.07373406
27	0x3da4fc89	0.0805598
28	0xbde225db	-0.110423766
29	0xbc5c1a8a	-0.013434062
30	0x3d0ba723	0.03409494
31	0x3ce2f3a1	0.027704062

model.backbone.layers.0.temporal.2.weight f4 [64, 32]
0	0x3dece283	0.11566641
1	0xbe1daef5	-0.15398772
2	0xbda80a32	-0.082050696
3	0x3c3d73bf	0.011563241
4	0xbd5ffcff	-0.054684635
5	0x3dc5e769	0.096632786
6	0xbcf8a49b	-0.030351928
7	0xbe019b56	-0.12656912
8	0x3e012c3e	0.12614533
9	0x3e2faf21	0.1715665
10	0x3df33549	0.11875398
11	0x3d51736a	0.051135458
12	0xbdedd89a	-0.11613579
13	0xbe21180f	-0.15731834
14	0x3d86c232	0.065800086
15	0x3e1a08df	0.15042447
16	0x3de6a48c	0.112618536
17	0x3e1fb294	0.15595466
18	0xbd730c4d	-0.059337903
19	0xbd9ce645	-0.07661108
20	0x3cc892c2	0.024484042
21	0x3c9a2261	0.018815221
22	0xbde380ef	-0.111085765
23	0xbe3f8cfb	-0.18706124
24	0xbe5fde23	-0.21862082
25	0xbd3be1e5	-0.045869727
26	0x3e2e4cc7	0.17021476
27	0x3e0406ca	0.12893215
28	0xbe139600	-0.14412689
29	0xbe1b67be	-0.15176293
30	0x3d1cebef	0.03831094
31	0xbc35db25	-0.011099611
32	0x3d41f025	0.04734816
33	0x3e0fbe68	0.14037478
34	0x3d908542	0.07056667
35	0xbd12c83b	-0.035835486
36	0x3e20e56a	0.15712515
37	0x3df49995	0.11943356
38	0x3cbd48ef	0.023106067
39	0xbcdcd4d7	-0.026956959
40	0xbcd76bbe	-0.026296493
41	0xbbfb46d2	-0.0076683545
42	0xbde8df34	-0.113706976
43	0xbd427bfb	-0.04748152
44	0xbdc0ff8f	-0.09423744
45	0xbe4a2d68	-0.19743884
46	0xbc1edd2a	-0.009696284
47	0x3e2903ea	0.165054
48	0xbe322c2b	-0.17399661
49	0x3dc670e1	0.09689499
50	0x3d91278c	0.07087621
51	0xbe36c465	-0.17848356
52	0x3e1d0114	0.15332443
53	0xbd7285e6	-0.059209727
54	0xbdfd627b	-0.12372299
55	0x3d8ec2d5	0.06970755
56	0x3defa0ab	0.11700567
57	0x3dbc289c	0.09187433
58	0x3dd3e8dd	0.103471495
59	0x3d983fad	0.0743402
60	0xbce887c8	-0.028385058
61	0x3df3944a	0.11893518
62	0x3e1fe6b2	0.15615347
63	0xbe18a2b6	-0.1490582
64	0xbdebe7af	-0.115187995
65	0x3e1fa40c	0.15589923
66	0xbe13832c	-0.14405507
67	0x3e2dc187	0.16968356
68	0x3c7d7ef4	0.0154721625
69	0x3c07ab10	0.008280531
70	0x3e035f59	0.12829341
71	0xbde7dbd8	-0.11321229
72	0xbda2a3e3	-0.07941415
73	0xbe079f49	-0.13244356
74	0x3e133b95	0.14378197
75	0xbe1bac94	-0.15202552
76	0x3c87c1db	0.01657193
77	0x3e0743b3	0.13209419
78	0xbda73030	-0.08163488
79	0xbe0e2471	-0.13881089
80	0xbe10b395	-0.14131005
81	0x3e0ca57c	0.13735002
82	0xbdd35c70	-0.103203654
83	0xbd9cf434	-0.076637655
84	0xbdc5302c	-0.09628329
85	0x3bb62857	0.005559008
86	0xbdefe1b3	-0.117129706
87	0xbd29dcc0	-0.04147029
88	0x3d578a9a	0.052622415
89	0x3e1082a4	0.14112335
90	0x3da330b1	0.079682715
91	0xbc35e748	-0.011102505
92	0x3e17ead3	0.14835672
93	0xbdf2b7ce	-0.11851464
94	0xbe0396e1	-0.12850524
95	0x3dbf8ba9	0.0935281
96	0x3df0bce9	0.11754782
97	0xbdd278c5	-0.10276941
98	0xbdd97ffe	-0.10620116
99	0xbda123e9	-0.078681774
100	0x3de88cc5	0.11354975
101	0xbe041634	-0.12899095
102	0x3c78a042	0.015174927
103	0x3d91054d	0.07081089
104	0x3d4ffade	0.050776355
105	0xbb221de7	-0.0024737061
106	0x3c7b0b10	0.015322462
107	0xbcb875b2	-0.022517059
108	0xbc91f1cb	-0.017815491
109	0xbe28df22	-0.16491368
110	0x3cf018ee	0.029308762
111	0xbd4f435a	-0.05060134
112	0xbca2e245	-0.019883284
113	0xbe1da3ce	-0.15394518
114	0xbe27e539	-0.16396035
115	0x3d8c1f69	0.068419285
116	0x3e127675	0.14303
117	0xbde39705	-0.11112789
118	0xbe304e04	-0.1721726
119	0x3d5d9415	0.0540963
120	0x3e3d1544	0.18465143
121	0x3e4e58e6	0.201511
122	0xbdb8d693	-0.09025302
123	0x3cfd35c9	0.030909436
124	0x3da2f697	0.079571895
125	0xbd400f58	-0.046889633
126	0x3da6005f	0.081055395
127	0xbe21d9bf	-0.1580572
128	0xbda220c1	-0.079164036
129	0x3ad696f3	0.0016371891
130	0xbe1baee1	-0.1520343
131	0x3e39d647	0.18148147
132	0x3d912b53	0.070883416
133	0xbd90fae1	-0.07079101
134	0x3e096882	0.13418773
135	0xbe0a10fb	-0.1348304
136	0xbe0aa7ad	-0.13540526
137	0x3d223bc2	0.03960777
138	0x3e3985a1	0.18117382
139	0xbd2e58d9	-0.0425652
140	0xbd98b28b	-0.07455929
141	0x3dcf00a5	0.10107545
142	0x3d6ea52f	0.058263
143	0xbd000d35	-0.031262595
144	0xbe61c67b	-0.2204837
145	0x3d048f5d	0.032363284
146	0xbe2fdfbf	-0.17175196
147	0x3bf8a54f	0.0075880657
148	0xbdd985c7	-0.10621219
149	0x3dfe9e6f	0.124325626
150	0x3d950c91	0.072777875
151	0xbc134e44	-0.008990828
152	0x3c923f73	0.01785252
153	0xbc9a5650	-0.018839985
154	0x3e5d9656	0.2163938
155	0xbdeed313	-0.11661353
156	0xbe14d404	-0.14534003
157	0x3da8200e	0.08209239
158	0x3e31146d	0.17292948
159	0xbd82b142	-0.063814655
160	0x3d4579f5	0.04821201
161	0x3e180192	0.14844349
162	0xbc8956a0	-0.016764939
163	0xbd28d78f	-0.041221198
164	0x3e2099a3	0.15683608
165	0x3dee707e	0.1164255
166	0xbdd3abd4	-0.10335508
167	0xbe15e4be	-0.1463804
168	0x3e190dd2	0.14946678
169	0xbdfa7350	-0.12229025
170	0x3cf699af	0.030102579
171	0x3d90ee50	0.070767045
172	0xbc13a0fa	-0.009010548
173	0xbe0b0ffb	-0.13580315
174	0x3e2e5fb8	0.17028701
175	0x3e4ad1cc	0.19806594
176	0xbe28fb49	-0.16502108
177	0xbe17461e	-0.14772841
178	0xbc42f615	-0.011899491
179	0x3e0fd337	0.14045416
180	0xbde8e5de	-0.11371969
181	0x3b7eb5ee	0.0038865763
182	0xbddbe0b7	-0.1073622
183	0x3e0b925d	0.13630052
184	0x3dbbbaff	0.09166526
185	0xbd16fc82	-0.036861904
186	0x3d282cbf	0.0410583
187	0xbe108e37	-0.1411675
188	0x3c0dac8f	0.008647098
189	0xbe11c595	-0.14235528
190	0xbddc83ba	-0.10767312
191	0xbe15e047	-0.14636336
192	0xbe3a8c50	-0.18217587
193	0x3d4743e1	0.04864872
194	0x3da464ee	0.08027063
195	0x3deea06e	0.11651693
196	0xbcba6e9c	-0.02275782
197	0xbd99ca7d	-0.07509325
198	0x3d5bcecc	0.053664014
199	0xbd280b1b	-0.041026216
200	0xbe206e0c	-0.1566698
201	0xbd20f0a4	-0.039291993
202	0x3e35d840	0.17758274
203	0x3e122761	0.14272834
204	0x3ddffbe4	0.10936716
205	0xb816f973	-3.5995105e-05
206	0xbdddacac	-0.1082395
207	0xbb877eab	-0.004134973
208	0xbbdab5cc	-0.006674504
209	0xbe1e5404	-0.15461737
210	0x3df9e5eb	0.122020565
211	0x3d7ef9f6	0.0622501
212	0xbd790517	-0.06079587
213	0x3e25754d	0.16158028
214	0xbd059038	-0.03260824
215	0x3e1a3bc2	0.15061858
216	0xbdad7778	-0.084700525
217	0xbdd00d5f	-0.101588
218	0x3d088ca4	0.03333725
219	0x3b879e8c	0.0041387733
220	0xbe08ed94	-0.13371879
221	0xbe393846	-0.18087873
222	0x3dcf0efe	0.101102814
223	0xbe4dd2d8	-0.20099962
224	0xbdfd4170	-0.12365997
225	0xbde530b9	-0.11190934
226	0x3d6ebdb3	0.05828638
227	0xbdacb744	-0.08433393
228	0x3dfd8d06	0.12380414
229	0x3bc7c3d5	0.006096343
230	0xbd559607	-0.05214503
231	0x3d11deb3	0.035612773
232	0x3ca3f9a9	0.020016508
233	0x3dd9b4f9	0.10630221
234	0x3da03f15	0.07824532
235	0x3e065761	0.1311927
236	0xbc226e62	-0.009914013
237	0xbe2d9e13	-0.16954832
238	0x3cbd1920	0.02308327
239	0xbd7dd9ff	-0.061975475
240	0xbe13ad36	-0.14421543
241	0x3cc28185	0.0237434
242	0x3ceabcfe	0.028654572
243	0xbe3163d0	-0.17323232
244	0xbbab8fd3	-0.005235651
245	0xbdae560a	-0.085125044
246	0xbe3910b1	-0.18072774
247	0x3d2aa650	0.041662514
248	0xbcee232d	-0.029069507
249	0x3e05796e	0.13034603
250	0xbcbe3695	-0.023219386
251	0xbdf7e8dc	-0.12104961
252	0x3d8b0530	0.06788099
253	0xbdd4ce5e	-0.10390924
254	0x3db46bd4	0.08809629
255	0x3dd71636	0.10502283

model.backbone.layers.0.temporal.2.bias f4 [64]
0	0x3d8e07ec	0.06935105
1	0xbd9fb639	-0.07798428
2	0x3de02ba8	0.10945827
3	0xbd28dff6	-0.04122921
4	0x3d76b112	0.06022746
5	0x3e103a27	0.14084683
6	0xbd10524a	-0.035234727
7	0x3e1ea251	0.15491606
8	0xbda8a821	-0.08235193
9	0xbde7f4d7	-0.11325996
10	0xbcdb744c	-0.026788853
11	0x3d55da96	0.052210413
12	0xbdc49888	-0.095994055
13	0xbdd7858c	-0.10523519
14	0x3d93cd55	0.07216898
15	0x3cb5b739	0.022182094
16	0xbdd2ab94	-0.10286632
17	0x3d1a76e5	0.037711043
18	0xbc9032fe	-0.01760244
19	0x3dbe2c8a	0.09285839
20	0x3ccfa59b	0.025347522
21	0x3cdf5bad	0.027265394
22	0xbe2b18bd	-0.16708656
23	0x3de74ad4	0.11293569
24	0xbd96dc2e	-0.07366215
25	0x3d8c4a8a	0.06850155
26	0xbcfc39e5	-0.030789325
27	0xbd1bf1c4	-0.038072363
28	0x3da83c2a	0.082146004
29	0x3e1b4085	0.15161331
30	0xbd4933ef	-0.049121793
31	0xbd65e235	-0.05612393
32	0xbd4a007d	-0.049316872
33	0xbd4724a0	-0.048618913
34	0x3e1c3813	0.15255766
35	0xbdbad144	-0.091219455
36	0xbdc58b41	-0.09645701
37	0x3cc06484	0.02348543
38	0x3e159938	0.1460923
39	0x3d3aa55c	0.045567855
40	0x3d8c26d4	0.068433434
41	0xbce49df2	-0.027907345
42	0xbd9f40c1	-0.07776023
43	0xbe12560f	-0.14290641
44	0xbcfddd03	-0.030989176
45	0xbc0efb6c	-0.008726936
46	0xbd6d4580	-0.05792761
47	0x3df2af13	0.11849799
48	0x3dac3610	0.08408749
49	0x3e1481d4	0.1450265
50	0x3df16454	0.11786714
51	0xbd2d3f88	-0.042296916
52	0xbe39900a	-0.18121353
53	0x3df16cf9	0.11788363
54	0x3e0c7c5f	0.13719319
55	0x3c332ac7	0.010935492
56	0x3c07d50d	0.008290541
57	0xbcc92eda	-0.024558473
58	0xbd2404d3	-0.040043663
59	0xbc3447ec	-0.011003476
60	0x3dec17fc	0.11528012
61	0x3da2154d	0.07914219
62	0xbe34c46f	-0.17653058
63	0x3de2ddcd	0.110774614

model.backbone.layers.0.channel.0.weight f4 [32, 74]
0	0x3bd96d4d	0.006635344
1	0xbd89f5a0	-0.067363024
2	0x3d8b6155	0.06805674
3	0x3e30efcc	0.17278975
4	0xbdbf995c	-0.09355423
5	0x3e10b0a7	0.14129888
6	0x3dad203a	0.08453412
7	0xbcb08645	-0.0215484
8	0x3dce80b4	0.10083142
9	0xbdc103f0	-0.09424579
10	0xbddf7ebd	-0.10912845
11	0xbdc6d6b2	-0.09708919
12	0x3d3ddfb5	0.04635592
13	0x3d648ca2	0.05579818
14	0xbcc77597	-0.024348063
15	0x3a2fa121	0.00066997303
16	0x3d7fa2bb	0.06241105
17	0x3d12ae4d	0.035810757
18	0x3d4dee78	0.05027625
19	0xbe021d55	-0.12706502
20	0x3c043198	0.008068465
21	0x3beef02f	0.0072918157
22	0xbda3ac02	-0.07991792
23	0xbd8f869e	-0.07008098
24	0x3d97e206	0.074161574
25	0x3d21060c	0.039312407
26	0xbd53d2fa	-0.051714875
27	0x3dc50324	0.0961974
28	0x3d0478cc	0.032341763
29	0x3da696fd	0.081342675
30	0x3d7798f5	0.060448606
31	0xbd7cc0f4	-0.061707452
32	0xbd95b7a5	-0.07310418
33	0xbcfc4f2e	-0.030799475
34	0xbdb665ef	-0.08906161
35	0x3da25e9c	0.079282016
36	0xbd6a700a	-0.057235755
37	0x3d1aec15	0.0378228
38	0x3dd6b5f3	0.10483923
39	0x3d1da5af	0.038488086
40	0xbe13f67d	-0.14449497
41	0x3da430db	0.08017131
42	0xbde8bc36	-0.113640234
43	0x3d334264	0.043764487
44	0x3dfc4c0a	0.12319191
45	0xbd9c95aa	-0.07645734
46	0xbde0e3bc	-0.10980937
47	0x3cbbd759	0.022929834
48	0x3c9bb8b0	0.019008964
49	0xbc2f26e2	-0.010690423
50	0x3bb09cd1	0.0053897877
51	0xbd39eec8	-0.045393735
52	0xbdd502fe	-0.10400961
53	0x3d0facb3	0.03507681
54	0xbcab52ad	-0.020913446
55	0x3d1d4817	0.03839883
56	0x3d44b8e6	0.048027895
57	0xbd5e5294	-0.05427797
58	0x3a511ed6	0.0007977312
59	0xbda0f1bd	-0.07858608
60	0xbdbaea80	-0.091267586
61	0xbd35819c	-0.04431306
62	0xbb649cbf	-0.0034883467
63	0xbde2b7e3	-0.1107023
64	0xbcbe20af	-0.023208944
65	0xbe02486f	-0.12722944
66	0xbd1635bc	-0.03667234
67	0xbd96166b	-0.07328495
68	0x3dac9be4	0.08428171
69	0xbde57f08	-0.1120587
70	0xbe0937d0	-0.13400197
71	0x3dbda276	0.092595026
72	0xbd9b9111	-0.075960286
73	0x3d93390d	0.07188616
74	0x3c177928	0.0092451945
75	0x3d70330c	0.058642432
76	0xbc5233c2	-0.012829723
77	0xbd4a09f8	-0.049325913
78	0x3d0fbc59	0.03509173
79	0xbd6cac78	-0.057781667
80	0x3c3f2ee5	0.011668895
81	0xbd5fb7bb	-0.05461858
82	0x3d0de9b6	0.034646712
83	0xbe0c6c0c	-0.13713092
84	0xbb8fefc2	-0.004392595
85	0xbba2ad0d	-0.004964477
86	0x3da51fff	0.080627434
87	0xbcdbbc70	-0.026823252
88	0xbda822be	-0.082097515
89	0x3cade95a	0.021229435
90	0x3d3b22b9	0.04568741
91	0x3cd0941f	0.025461255
92	0x3dc11b22	0.09429003
93	0x3dc5b5a8	0.09653789
94	0xbd82ec54	-0.06392732
95	0x3d4ca74b	0.04996423
96	0xbd863f1b	-0.06555005
97	0x3d11e948	0.035622865
98	0xbd5c7ab5	-0.05382796
99	0x3df43484	0.11924079
100	0xbde26195	-0.110537685
101	0x3d95c790	0.07313454
102	0x3c1e09fa	0.009645933
103	0xbc537509	-0.012906321
104	0x3d741a14	0.059595183
105	0x3d89e5f3	0.067333125
106	0xbdb19d5f	-0.08672594
107	0xbd13435a	-0.035952903
108	0xbdae6326	-0.08515005
109	0x3be0951a	0.006853712
110	0x3d69a3c8	0.05704096
111	0x3d59accd	0.05314331
112	0xbde9c1d1	-0.11413921
113	0x3c60349d	0.013684419
114	0x3cedb2b8	0.029015884
115	0x3db28ad6	0.08717887
116	0x3dc0d355	0.094153084
117	0x3d8e51f9	0.06949229
118	0xbe020835	-0.12698443
119	0xbc8b781c	-0.017025046
120	0x3d825237	0.063633375
121	0x3cd9bbb6	0.026578765
122	0xbd6faed8	-0.058516353
123	0xbd00da57	-0.031458225
124	0x3c7310d8	0.014835559
125	0xbdbb14af	-0.091348045
126	0x3c15323b	0.009106214
127	0xbddc7795	-0.10764996
128	0xbd58be8f	-0.052916106
129	0x3dcd4b3a	0.10024114
130	0xba257d69	-0.0006312938
131	0xbdc59f0a	-0.09649475
132	0x3d9107a4	0.070815355
133	0x3cfca0ae	0.030838337
134	0xbcc25135	-0.023720363
135	0x3d07399d	0.03301393
136	0xbcbcf3c2	-0.023065452
137	0x3d78df2c	0.06075971
138	0x3d9ae751	0.07563651
139	0x3c96fdd5	0.018431583
140	0x3df30788	0.11866671
141	0xbbacde76	-0.005275543
142	0x3d001342	0.031268366
143	0x3dbf0628	0.09327346
144	0xbc5f5eeb	-0.01363347
145	0xbcbe9607	-0.023264898
146	0x3c8586c5	0.016299615
147	0x3d1a6ac2	0.03769947
148	0x3de56f56	0.11202876
149	0xbd55c993	-0.05219419
150	0xbdddfe54	-0.10839525
151	0x3d360a94	0.04444368
152	0xbd637b5f	-0.055537578
153	0xbbc306a7	-0.0059517208
154	0x3ba2efc2	0.004972429
155	0x3c7a3e90	0.015273705
156	0xbd1401a5	-0.03613438
157	0xbdd60c20	-0.104515314
158	0x3dbb42e9	0.091436215
159	0xbd87d0a5	-0.06631593
160	0x3d0eea6b	0.034891527
161	0xbde2533e	-0.110510334
162	0xbca4b50d	-0.020105863
163	0xbd67bb5e	-0.05657517
164	0xbcbd4214	-0.023102798
165	0xbbb30253	-0.0054629236
166	0x3b1a4e77	0.0023545304
167	0x3dc751a1	0.09732366
168	0xbdddf524	-0.108377725
169	0x3d29b8d8	0.041436046
170	0x3def0395	0.11670605
171	0xbd9a0af3	-0.0752162
172	0xbced6de7	-0.02898307
173	0xbd62b8f4	-0.055352166
174	0xbdfc97ba	-0.12333627
175	0x3da7fdc9	0.082027026
176	0xbd1244c4	-0.03571011
177	0x3e04fb9e	0.1298661
178	0xbd9ba41e	-0.07599662
179	0x3ce719f7	0.028210623
180	0x3c633471	0.0138674835
181	0xbd49f519	-0.04930601
182	0xbdb3ded4	-0.087827355
183	0xbd43017d	-0.04760884
184	0xbcc13974	-0.023586966
185	0x3dba7c01	0.09105683
186	0xbd263668	-0.04057923
187	0xbdbf6727	-0.093458466
188	0x3d13f71e	0.03612434
189	0xbc81f182	-0.01586223
190	0x3ce64670	0.02810976
191	0x3d8290fc	0.0637531
192	0x3da8aff8	0.082366884
193	0x3d567cc6	0.052365087
194	0x3d55ced5	0.052199204
195	0x3d8b42ea	0.06799872
196	0x3b730b88	0.003708573
197	0xbdd691fa	-0.104770616
198	0x3d2aa7a7	0.041663792
199	0xbcab8445	-0.020937094
200	0x3d72745d	0.059193004
201	0x3d966982	0.07344343
202	0xbd932e5e	-0.07186578
203	0x3e0acae2	0.13553956
204	0x3dbc4cc2	0.09194328
205	0xbda14e48	-0.07876259
206	0xbcdfc729	-0.027316647
207	0x3c8f38e8	0.01748319
208	0xbd87a9bc	-0.06624171
209	0x3e060545	0.13087948
210	0xbd9ea658	-0.07746571
211	0x3d8ce8d4	0.06880346
212	0xbcef8121	-0.029236378
213	0x3df5d0fa	0.1200275
214	0x3cd1b83e	0.025600549
215	0x3dcc6348	0.09979874
216	0xbc226f43	-0.009914222
217	0x3e02360c	0.1271593
218	0xbd446b50	-0.047953904
219	0xbbca8e99	-0.0061815497
220	0xbb717835	-0.003684533
221	0x3d3a43ef	0.045474943
222	0xbda71d7c	-0.081599206
223	0xbd112794	-0.035438135
224	0x3d831a17	0.064014606
225	0xbe0dceb9	-0.1384839
226	0xbdc3a1be	-0.09552334
227	0x3dacd1d8	0.08438462
228	0xbde0dfa7	-0.10980158
229	0x3cedb3d0	0.029016405
230	0x3c1bca6b	0.009508709
231	0x3c42eed5	0.011897762
232	0x3da82d0e	0.082117185
233	0x3da65b9d	0.081229426
234	0xbcf68fac	-0.030097805
235	0x3dc1024d	0.09424267
236	0xbd03f7ee	-0.032218866
237	0x3dc9c4ad	0.09851966
238	0x3dc1e60c	0.09467706
239	0xbd2405cb	-0.040044587
240	0xbbbd1267	-0.005770016
241	0x3e032962	0.12808755
242	0xbdf294b6	-0.118447706
243	0xbd15b693	-0.03655107
244	0x3cea24dd	0.02858203
245	0x3d849269	0.06473238
246	0x3ce14dda	0.027502943
247	0xbda969e9	-0.08272154
248	0xbc8e2aa7	-0.017354323
249	0xbd042613	-0.032262873
250	0xbda2cdd6	-0.07949416
251	0xbd118c78	-0.035534352
252	0xbcff0239	-0.03112899
253	0xbdbcc7ff	-0.09217834
254	0x3da8aea7	0.08236437
255	0xbd7389a2	-0.05945743

model.backbone.layers.0.channel.0.bias f4 [32]
0	0x3d9f7d80	0.07787609
1	0xbd9d00f8	-0.076662004
2	0x3cd731ab	0.0262688
3	0xbda7a678	-0.08186048
4	0x3d911468	0.0708397
5	0xbdc48ffe	-0.09597777
6	0x3d32a624	0.043615475
7	0xbced60c6	-0.02897681
8	0xbdc7519e	-0.09732364
9	0xbcd054f1	-0.025431128
10	0xbd137a01	-0.036005024
11	0xbccde68e	-0.025134351
12	0x3d3a9ec8	0.04556158
13	0x3dac01fe	0.083988175
14	0x3b317424	0.0027077282
15	0xbda43d01	-0.08019448
16	0xbd010ba5	-0.031505246
17	0xbca1ea0d	-0.019764924
18	0x3de376ea	0.111066654
19	0xbe00db6f	-0.12583707
20	0x3da51b1f	0.080618136
21	0xbda58c1a	-0.08083363
22	0xbd89c58f	-0.067271344
23	0x3ded15a7	0.115763955
24	0xbde8642c	-0.11347231
25	0xbd322e73	-0.04350133
26	0xbd302de1	-0.043012504
27	0xbbc1ce65	-0.0059144967
28	0x3db43e53	0.0880095
29	0x3d02e7b6	0.031959258
30	0x3b4d230d	0.003130141
31	0x3de79cda	0.11309214

model.backbone.layers.0.channel.2.weight f4 [74, 32]
0	0x3e02062a	0.12697664
1	0xbd297432	-0.041370578
2	0x3e245d07	0.16051112
3	0xbd613888	-0.054985553
4	0xbd46c22e	-0.048525028
5	0x3cbe3dac	0.023222767
6	0xbde76a6f	-0.112995975
7	0x3e02b6d5	0.12765057
8	0x3e0c536e	0.13703701
9	0x3d861a02	0.06547929
10	0xbdd1a24c	-0.10236034
11	0x3d3f4ff6	0.046707116
12	0x3b78df40	0.0037974864
13	0xba8ee25c	-0.0010901201
14	0x3e2ec2b9	0.17066468
15	0xbd8cf557	-0.06882732
16	0x3dd3a5d7	0.10334366
17	0xbe094617	-0.13405643
18	0xbdc133c2	-0.094337
19	0x3e03b7de	0.12863109
20	0x3cad4149	0.021149294
21	0xbd732f5c	-0.059371337
22	0xbe2cde9d	-0.16881795
23	0x3cf51f19	0.029922055
24	0x3c349861	0.011022658
25	0xbd99ecb0	-0.07515848
26	0xbe38a09d	-0.18030019
27	0x3d747101	0.05967808
28	0x3daeaaee	0.08528696
29	0x3d24455d	0.040105212
30	0x3ca60122	0.020264212
31	0x3e01505d	0.12628312
32	0x3ddb87fb	0.107192956
33	0x3e133965	0.14377363
34	0xbe43362a	-0.1906363
35	0x3d6c37d9	0.057670448
36	0x3dd5a34a	0.104315355
37	0x3d851fa2	0.06500174
38	0xbdc251c1	-0.094882496
39	0x3dfa1d87	0.12212663
40	0x3e44ae00	0.19207
41	0x3df37db1	0.11889208
42	0x3e09f63c	0.13472837
43	0x3de63168	0.11239892
44	0xbdbcba47	-0.09215217
45	0xbcd18676	-0.025576811
46	0x3defa23a	0.11700864
47	0x3e240424	0.16017205
48	0xbbe6ee45	-0.007047447
49	0xbdd91ebd	-0.10601566
50	0xbda95b49	-0.082693644
51	0xbcd606f9	-0.026126372
52	0xbe26b389	-0.16279425
53	0xbe1bcfff	-0.15216063
54	0x3d6c8103	0.057740223
55	0xbdd3d4f2	-0.103433505
56	0x3d82eca0	0.06392789
57	0xbdb7b3ef	-0.089698665
58	0x3dc3b94a	0.095568255
59	0xbde06f6f	-0.10958754
60	0x3da54abb	0.08070894
61	0xbde690a9	-0.112580605
62	0xbca08feb	-0.019599875
63	0xbe20b003	-0.15692143
64	0x3e27d625	0.16390283
65	0xbe47d192	-0.19513538
66	0xbd8107c3	-0.063003086
67	0xbdad684e	-0.0846716
68	0xbddd718c	-0.10812673
69	0xbd995896	-0.074875996
70	0x3deddf81	0.116148956
71	0x3c979415	0.018503228
72	0xbdb17bfd	-0.08666227
73	0x3e033164	0.1281181
74	0xbde4f9e0	-0.111804724
75	0xbd3df402	-0.046375282
76	0x3d8f5486	0.069985434
77	0xbd6b77f1	-0.057487432
78	0xbd2c5dde	-0.042081706
79	0xbdb36d14	-0.087610394
80	0x3df61aed	0.120168544
81	0xbdcc9402	-0.09989168
82	0x3e0bf5bc	0.13667959
83	0x3da822a6	0.08209734
84	0xba35e69f	-0.0006938967
85	0x3dfd0f86	0.123564765
86	0x3d8e2679	0.06940932
87	0xbcbdf4e6	-0.023188066
88	0xbd5bd9e9	-0.053674612
89	0xbd6cc880	-0.0578084
90	0x3db5661e	0.08857368
91	0xbc9e337a	-0.019311655
92	0xbe54a593	-0.20766287
93	0x3d3563b8	0.044284552
94	0x3d7248d2	0.059151478
95	0x3e23e094	0.16003639
96	0xbd0903cc	-0.033450887
97	0x3d874d4c	0.0660654
98	0xbc0033ad	-0.0078248205
99	0x3d346ef1	0.044051114
100	0x3c592910	0.013254419
101	0x3d0c5b6c	0.034266874
102	0x3a9c5fa0	0.0011930354
103	0x3d6e5bd5	0.058193047
104	0xbba0d663	-0.0049083694
105	0x3dae83e4	0.0852125
106	0xbdc64bfb	-0.09682461
107	0xbe00c8d6	-0.12576613
108	0xbe17fe77	-0.14843164
109	0xbde541d1	-0.11194194
110	0x3e42b88a	0.19015709
111	0xbc539c0b	-0.0129156215
112	0x3e257078	0.16156185
113	0x3e22d578	0.15901744
114	0xbd700e97	-0.058607664
115	0xbe53334a	-0.20625034
116	0x3d892836	0.06697123
117	0x3dfb4af5	0.12270156
118	0xbcf3078a	-0.02966668
119	0xbd7b767e	-0.0613923
120	0x3d791855	0.06081422
121	0x3c5c92a0	0.0134626925
122	0xbbd64ad0	-0.00653968
123	0xbd0ef6b3	-0.03490324
124	0xbdc6bfda	-0.097045615
125	0x3da304dd	0.07959912
126	0xbd15404b	-0.036438268
127	0xbd615b24	-0.05501856
128	0x3996258e	0.0002863821
129	0x3dbba68e	0.09162627
130	0xbe2cf53d	-0.16890426
131	0x3e0a14fa	0.13484564
132	0xbd9e7ae4	-0.07738283
133	0x3d823db5	0.06359426
134	0xbdca7a93	-0.098866604
135	0x3c20095f	0.009767859
136	0xbd0a0c21	-0.033702973
137	0x3d519d53	0.051175427
138	0xbcad0c54	-0.021124043
139	0xbd911f89	-0.07086093
140	0xbdda17a2	-0.10649039
141	0x3c82db62	0.01597375
142	0xbe0a57de	-0.13510081
143	0x3ddc9c01	0.10771943
144	0xbdf37592	-0.11887659
145	0x3b292a0e	0.002581242
146	0xbe15b4ae	-0.14619705
147	0xbd422523	-0.047398698
148	0x3d989ff7	0.07452386
149	0xbe0aba1b	-0.13547556
150	0xbd8b6d56	-0.068079636
151	0x3e35ae93	0.17742376
152	0x3d924c21	0.07143427
153	0xbe343a76	-0.17600426
154	0xbd7fda41	-0.062464003
155	0x3b9a8604	0.004715683
156	0x3dca541d	0.098793246
157	0xbdb4332d	-0.087988235
158	0x3e2719f7	0.16318499
159	0x3d259019	0.040420625
160	0xbdb0f1df	-0.08639883
161	0x3e15ebcd	0.14640732
162	0xbcab8037	-0.020935161
163	0xbda922e1	-0.08258606
164	0x3d25abab	0.04044692
165	0x3d0673e4	0.032825366
166	0xbc98be09	-0.018645303
167	0xbd8c85b7	-0.068614416
168	0xbdb7e32a	-0.08978875
169	0x3e01d121	0.12677433
170	0x3e23d638	0.15999687
171	0xbda1f1a5	-0.07907418
172	0xbdaacd3c	-0.083399266
173	0xbe44269d	-0.19155355
174	0xbe3dc730	-0.18533015
175	0xbc9e6d66	-0.019339275
176	0x3d1e2d6c	0.038617536
177	0x3cfb130a	0.030648727
178	0x3df6b3fb	0.12046047
179	0x3e33117d	0.1748714
180	0x3de17c96	0.11010091
181	0xbe1de9b0	-0.15421176
182	0xbd63e21f	-0.055635568
183	0x3dfd75c7	0.1237598
184	0xbd8d766d	-0.069073536
185	0xbc0af886	-0.008482104
186	0xbe4628bb	-0.19351475
187	0xbe20c82d	-0.15701361
188	0xbe3d4557	-0.18483482
189	0xbd84b3a6	-0.06479578
190	0x3d0d76e1	0.0345372
191	0xbdcc389c	-0.09971735
192	0x3d8a405b	0.06750556
193	0x3d58eacd	0.0529583
194	0xbd5def17	-0.054183092
195	0x3d5d45da	0.054021694
196	0xbd09e83c	-0.03366874
197	0xbd4b2f5f	-0.049605723
198	0x3daf7ec5	0.08569101
199	0x3d0751ec	0.03303711
200	0xbc6f3f29	-0.014602461
201	0x3dab5f3a	0.083677724
202	0x3d661a25	0.056177277
203	0xbd9654d9	-0.07340402
204	0xbd145bf5	-0.03622051
205	0xbe0ddc61	-0.13853599
206	0xbe035740	-0.12826252
207	0x3e0c4b7e	0.13700673
208	0xbd2a0085	-0.0415044
209	0xbbcdcf51	-0.0062808176
210	0xbe0c62bc	-0.13709539
211	0x3e0498fd	0.12948985
212	0xbcd9395c	-0.026516609
213	0xbdbdc913	-0.092668675
214	0x3c9cb871	0.019130917
215	0x3e2828ee	0.16421863
216	0x3e287a9d	0.16453023
217	0xbd150c70	-0.036388814
218	0xbe371f1c	-0.17882961
219	0xbdc6e376	-0.097113535
220	0x3dce3afb	0.100698434
221	0xbdff833e	-0.12476204
222	0x3d84ef83	0.06490996
223	0xbd397485	-0.045277137
224	0x3e20d947	0.15707885
225	0x3c3e9ebb	0.011634524
226	0x3db70032	0.08935584
227	0x3d2d900b	0.0423737
228	0x3e270c8c	0.1631338
229	0xbca86d62	-0.02055997
230	0x3ccee6b6	0.025256496
231	0x3cadbed5	0.02120916
232	0x3e5ed608	0.21761334
233	0x3d732976	0.059365712
234	0xbe1341d2	-0.14380577
235	0x3dcf0472	0.1010827
236	0xbe2f31cf	-0.17108844
237	0x3c827a72	0.015927527
238	0xbd800a36	-0.062519476
239	0xbce0f6e0	-0.02746147
240	0x3e1b7d76	0.15184578
241	0xbe004dfb	-0.12529747
242	0xbdb870b2	-0.0900587
243	0x3da20ad1	0.07912219
244	0xbdf9352a	-0.12168343
245	0x3a7a5fd7	0.00095510244
246	0xbe2eed89	-0.170828
247	0x3cd4a97f	0.025959728
248	0x3d9b5d0b	0.07586106
249	0xbb6040e5	-0.0034218368
250	0xbe6162d0	-0.2201035
251	0x3dde7645	0.10862402
252	0x3e32c0fb	0.17456429
253	0x3ce77420	0.028253615
254	0xbcf8e9f3	-0.030384993
255	0xbcbb4f5f	-0.022864996

model.backbone.layers.0.channel.2.bias f4 [74]
0	0xbcd81a1c	-0.026379637
1	0xbd73b358	-0.059497207
2	0x3de024eb	0.109445415
3	0x3d443207	0.047899272
4	0xbd5458a0	-0.051842332
5	0xbdeb2b1f	-0.11482834
6	0xbc806bb1	-0.015676351
7	0xbe2ed203	-0.170723
8	0xbe1fc697	-0.156031
9	0x3d1ba6d8	0.03800091
10	0xbd89807b	-0.06713959
11	0x3ca08b39	0.019597637
12	0x3c8803f6	0.016603451
13	0x3daf344c	0.08554897
14	0x3dbf2f69	0.09335215
15	0x3e0037de	0.12521312
16	0x3d5204ea	0.051274218
17	0xbd42d4c4	-0.04756619
18	0x3e035f76	0.12829384
19	0xbe111aae	-0.14170334
20	0xbda1820c	-0.078861326
21	0xbdfb7e92	-0.12280001
22	0xbe168706	-0.14699945
23	0xbdb02aa1	-0.08601881
24	0x3e0925a6	0.13393268
25	0xbe0702be	-0.1318464
26	0xbd080717	-0.033209886
27	0x3df8abdc	0.121421546
28	0xbcf5841a	-0.029970217
29	0x3df61f82	0.120177284
30	0xbc1d3418	-0.00959494
31	0x3dfa7908	0.12230116
32	0x3dc7fa7d	0.09764574
33	0xbbbcbd14	-0.0057598446
34	0x3c8d8c88	0.017278925
35	0x3da7fd58	0.08202618
36	0x3e19b4c8	0.15010369
37	0xbde7270e	-0.11286746
38	0xbdc4114f	-0.09573614
39	0xbdf97475	-0.121804155
40	0xbe149e50	-0.14513516
41	0x3bdbc9c7	0.0067074033
42	0xbe11a78d	-0.14224072
43	0x3e01f12b	0.12689655
44	0xbc4588b8	-0.012056522
45	0x3d9fedd2	0.078090325
46	0x3d9b581e	0.075851664
47	0xbdb9e917	-0.090776615
48	0xbe284b30	-0.16434932
49	0xbdefd598	-0.11710662
50	0xbe3b6476	-0.18300042
51	0x3dac375c	0.084089965
52	0xbc0cbee7	-0.008590437
53	0x3de49f41	0.11163188
54	0xbd87a617	-0.06623476
55	0x3dfcb6d6	0.12339561
56	0x3c3e7336	0.011624148
57	0x3debba19	0.11510105
58	0xbd76f142	-0.060288675
59	0xbd6a4e6d	-0.0572037
60	0x3df63d41	0.12023402
61	0x3e113661	0.141809
62	0xbd46fded	-0.048582006
63	0x3e10237c	0.14076036
64	0xbd3a3c89	-0.045467887
65	0xbda0face	-0.07860337
66	0xbdcf729a	-0.101292804
67	0x3e34739d	0.17622228
68	0x3e1fae0c	0.15593737
69	0xbdf82502	-0.12116434
70	0x3c7a5cf6	0.015280953
71	0x3d7992ec	0.06093113
72	0x3dfc92c4	0.12332681
73	0x3dca3c67	0.09874802

model.backbone.layers.1.temporal.0.weight f4 [32, 64]
0	0x3db5786a	0.08860858
1	0xbd92f5e1	-0.07175804
2	0x3d022ea7	0.031782772
3	0x3e2fdbc6	0.1717368
4	0x3b3e8dea	0.0029076287
5	0x3b19107e	0.0023355777
6	0x3d811d37	0.063044004
7	0x3d84571b	0.064619265
8	0xbd926594	-0.07148281
9	0x3d5796d1	0.052634064
10	0x3dd947e6	0.10609417
11	0x3c87584c	0.016521595
12	0xbd6b314b	-0.057420056
13	0x3ddf5260	0.10904384
14	0xbd26c28d	-0.04071288
15	0xbd3f0cb4	-0.046642974
16	0x3dd49528	0.10380012
17	0x3caf6404	0.021409996
18	0x3d94b6a5	0.07261399
19	0xbda4bca0	-0.0804379
20	0x3ca2d836	0.019878488
21	0xbdc14804	-0.09437564
22	0x3d2b802d	0.041870285
23	0xbb50f56c	-0.0031884564
24	0x3dec58ed	0.11540399
25	0xbdf9193b	-0.121630155
26	0x3d960b23	0.07326343
27	0x3d675339	0.05647585
28	0x3d556692	0.05209977
29	0x3cd63119	0.026146458
30	0xbd83fee0	-0.06445098
31	0x3d049d18	0.03237638
32	0xbda8ac02	-0.08235933
33	0xbd8204e4	-0.06348589
34	0xbe0e6129	-0.13904251
35	0x3dd1ad7f	0.1023817
36	0xbcf156af	-0.02946028
37	0xbda60e9a	-0.08108254
38	0xbc267537	-0.010159782
39	0x3d80f729	0.06297142
40	0xbdfde7d7	-0.123977356
41	0xbc8781ec	-0.016541444
42	0xbd9ce12a	-0.07660134
43	0x3d1f3b6a	0.03887502
44	0xbde27ee1	-0.110593565
45	0xbdde6e52	-0.10860886
46	0x3d9a5db1	0.075374015
47	0xbcc7914a	-0.024361271
48	0x3c86353c	0.016382806
49	0xbdf34191	-0.1187774
50	0xbc382ee0	-0.011241645
51	0x3db91a94	0.090382725
52	0xbe05a939	-0.13052835
53	0xbdfeb9f6	-0.12437813
54	0x3d88d015	0.066803135
55	0xbdf5c34f	-0.12000143
56	0x3c978dba	0.018500198
57	0x3d83b183	0.06430342
58	0xbda32c17	-0.07967394
59	0x3d94acf3	0.0725955
60	0x3dabd3ee	0.08390032
61	0xbd2d4a77	-0.042307343
62	0x3c0fdaa5	0.008780156
63	0x3d2dd82f	0.042442497
64	0xbdeca75e	-0.1155536
65	0x3dc79298	0.097447574
66	0x3e227830	0.1586616
67	0x3de186e4	0.110120565
68	0x3db381ef	0.08765017
69	0xbd8d5f7f	-0.0690298
70	0x3bb53f88	0.005531255
71	0x3e08807a	0.1333026
72	0x3db67170	0.08908355
73	0xbca782ef	-0.020448176
74	0x3dcdb7fd	0.100448586
75	0xbc94f52f	-0.018183319
76	0x3e1ac158	0.15112817
77	0xbca19059	-0.01972215
78	0xbd7899b4	-0.060693458
79	0x3cf6055b	0.03003185
80	0x39afcf6c	0.00033533142
81	0x3dfb8cd8	0.12282723
82	0xbd883c63	-0.06652143
83	0x3df5f57e	0.120097145
84	0xbd5d7840	-0.054069757
85	0x3a624bd3	0.00086325145
86	0x3e01c7b7	0.12673841
87	0x3ddb0d05	0.10695843
88	0xbdc35ae2	-0.09538819
89	0x3dc2d74c	0.09513721
90	0x3e04542b	0.12922733
91	0xbd2fb15b	-0.04289375
92	0xbde368ef	-0.11103999
93	0xbdedcc8d	-0.116112806
94	0x3d9c1701	0.07621575
95	0xbd85e758	-0.06538266
96	0xbdfb52d4	-0.122716576
97	0x3dc515d9	0.09623308
98	0x3cffbd6e	0.031218257
99	0xbdcffeb3	-0.10156002
100	0xbde75f9d	-0.11297534
101	0xba836b80	-0.0010026544
102	0x3d8d8157	0.06909435
103	0x3cbb44ff	0.022860048
104	0xbd7d55af	-0.061849292
105	0xbd5670e2	-0.052353747
106	0x3d21d541	0.039510015
107	0x3cc3e499	0.023912715
108	0xbd75552b	-0.059895676
109	0xbce2a57f	-0.027666805
110	0x3dcfae4e	0.10140668
111	0xbccbad43	-0.024862891
112	0x3cc0e491	0.023546489
113	0x3d0c21e3	0.034212004
114	0x3db1e5c7	0.08686405
115	0xbdd52543	-0.10407498
116	0x3dcc2437	0.09967845
117	0xbdb4bf12	-0.08825506
118	0xbb984f6c	-0.0046481397
119	0x3dadfa55	0.08495013
120	0xbcf0baa2	-0.029385868
121	0xbd0ed373	-0.034869622
122	0x3dcac355	0.09900538
123	0xbcc935df	-0.02456182
124	0x3d54f603	0.051992428
125	0x3d5143bc	0.051089987
126	0xbd74d298	-0.05977115
127	0x3e4640e4	0.19360691
128	0xbde89a33	-0.11357536
129	0x3ccd2354	0.02504126
130	0xbd4123ea	-0.04715339
131	0xbce58ddc	-0.028021745
132	0x3d85e5b0	0.0653795
133	0x3e14eb48	0.14542878
134	0x3c20fc9e	0.009825854
135	0x3e07931f	0.13239716
136	0x3d4869c7	0.048929002
137	0x3da8714c	0.08224735
138	0xbd6a73be	-0.057239287
139	0x3cb97e3d	0.022643203
140	0xbd9c9d5c	-0.076472014
141	0xbcf843c6	-0.030305754
142	0xbb1a64b1	-0.0023558552
143	0xbdd2789f	-0.10276913
144	0xbbe5a171	-0.0070077707
145	0xbbbc7f5e	-0.005752488
146	0x3d90ef4f	0.070768945
147	0xbd116dbc	-0.03550504
148	0x3dcc635d	0.099798895
149	0xbdd49a1b	-0.10380956
150	0x3e0e81b9	0.13916673
151	0xbc082f16	-0.008312007
152	0x3a25b01d	0.00063204934
153	0x3c6ee9db	0.014582123
154	0xbd9f619e	-0.07782291
155	0xbcb516c0	-0.022105575
156	0x3ddb874d	0.10719166
157	0xbd11510e	-0.03547769
158	0xbd86aa96	-0.065755054
159	0x3c4e0141	0.012573541
160	0xbd9f3cf5	-0.077752985
161	0xbd214ce3	-0.039379966
162	0x3dfdd417	0.123939686
163	0x3d9dc44a	0.07703455
164	0x3d5b1256	0.053484283
165	0x3da23490	0.07920182
166	0xbdc763f0	-0.097358584
167	0xbd13a474	-0.036045507
168	0x3c43f08a	0.011959204
169	0x3d762383	0.06009246
170	0x3ce8f674	0.02843783
171	0x3c26ccdd	0.010180679
172	0xbdc798cc	-0.097459406
173	0x3c8a8e08	0.016913429
174	0x3d588a02	0.05286599
175	0xbde1630b	-0.11005219
176	0xbddcb3a6	-0.10776453
177	0xbe103b49	-0.14085115
178	0xbde66580	-0.11249828
179	0xbdc62adc	-0.096761435
180	0xbd51b880	-0.051201344
181	0x3d4efd3d	0.050534476
182	0x3dc50c6d	0.09621511
183	0x3dd9053b	0.10596701
184	0xbc979002	-0.018501285
185	0x3dc334a1	0.095315225
186	0x3e06b409	0.13154615
187	0xbcd5874b	-0.02606549
188	0xbd1e504d	-0.0386508
189	0x3decca67	0.11562043
190	0x3d21d60d	0.039510775
191	0x3e910ae3	0.28328618
192	0x3cc1125b	0.023568323
193	0x3d3d1572	0.04616303
194	0xbd778ae5	-0.060435195
195	0xbd993e85	-0.07482628
196	0xbda5aff3	-0.080902
197	0xbd771909	-0.06032661
198	0x3d858da1	0.06521154
199	0x3c6cf515	0.014462729
200	0x3d629a44	0.0553229
201	0x3b82b9b6	0.0039894236
202	0x3d51df71	0.05123848
203	0xbd523949	-0.051324163
204	0xbd55290d	-0.052041102
205	0x3ddb12b4	0.10696927
206	0x3db90ec3	0.09036019
207	0xbd9fc80d	-0.078018285
208	0xbd889ba5	-0.06670312
209	0xbd919711	-0.07108892
210	0xbcc6c87d	-0.024265522
211	0x3bddce9b	0.006769014
212	0x3d9a7a1b	0.07542821
213	0x3d9d95d3	0.07694592
214	0xbd5f3e25	-0.054502625
215	0xbd21feb3	-0.03954954
216	0xbd86ba2b	-0.065784775
217	0x3cc0cdf9	0.023535715
218	0xbda37fe4	-0.079833776
219	0x3bf418bc	0.0074492376
220	0x3d933525	0.07187871
221	0x3d2099df	0.039209243
222	0xbdc383e2	-0.09546639
223	0x3d1f5361	0.038897876
224	0xbcabf388	-0.020990148
225	0x3bffa307	0.007801417
226	0x3d532dc9	0.051557336
227	0x3cd65dc0	0.02616775
228	0xbd64a627	-0.055822518
229	0x3d9042bb	0.07043978
230	0xbd22b8e2	-0.0397271
231	0x3c5751ea	0.013142088
232	0xbd635f62	-0.055510886
233	0xbdbc805c	-0.0920417
234	0xbc7b4bee	-0.015337927
235	0x3de776dd	0.11301968
236	0x3dbfb74e	0.093611345
237	0x3d3b284d	0.04569273
238	0xbd5e44f1	-0.054264966
239	0xbd1d394c	-0.03838472
240	0x3dadb5c8	0.08481938
241	0x3cedf0e0	0.029045522
242	0xbceeaada	-0.029134203
243	0x3d51fed3	0.05126841
244	0x3d933765	0.071883
245	0x3dc491c9	0.09598119
246	0xbd78b32a	-0.06071774
247	0x3db24815	0.08705155
248	0xbd063039	-0.032760832
249	0x3d0436d3	0.032278847
250	0x3c915c66	0.017744254
251	0xbdb3f8e1	-0.08787704
252	0xbddd8148	-0.10815674
253	0x3d523197	0.051316824
254	0x3dc0960d	0.0940362
255	0x3dec8ebe	0.115506634

model.backbone.layers.1.temporal.0.bias f4 [32]
0	0x3da06d0d	0.078333
1	0xbd9ad6a5	-0.075604714
2	0x3c2dbab1	0.010603593
3	0x3caa3643	0.020777827
4	0x3db9caca	0.09071882
5	0xbceaebe4	-0.028676935
6	0x3d96d9fb	0.07365795
7	0xbc23ab9d	-0.009989646
8	0xbd14c854	-0.03632386
9	0xbe0b7219	-0.13617744
10	0xbabd7f73	-0.0014457538
11	0x3d6068f0	0.054787576
12	0x3e0df1a3	0.13861708
13	0x3dff4bad	0.12465606
14	0xbdbc5a3e	-0.091969
15	0x3dbe56c5	0.09293894
16	0xbd2534e5	-0.040333647
17	0xbc56a366	-0.013100481
18	0xbd86aee0	-0.065763235
19	0xbd1f6ff8	-0.03892514
20	0xbe059263	-0.13044123
21	0x3c2bf69b	0.010495807
22	0xbd45f984	-0.04833366
23	0x3e0248f2	0.12723139
24	0x3e139a51	0.14414336
25	0x3cc13c16	0.023588222
26	0xbd21651d	-0.03940307
27	0x3d4b36bc	0.049612746
28	0xbe109911	-0.1412089
29	0x3d8d6b5f	0.06905245
30	0xbd9aa1e3	-0.07550409
31	0x3d3b1bb9	0.045680735
