experiments/AdversarialDomainAdaptation/saved_models/tsmixer_da_finetuned_3.pt (torch, 731002 bytes, 30 tensors)

model.backbone.static_proj.weight f4 [64, 10]
0	0xbd1fa92d	-0.038979698
1	0x3dedeec6	0.11617808
2	0x3c57846e	0.013154132
3	0x3e552034	0.20813066
4	0xbe62a002	-0.2213135
5	0x3dd0079a	0.101577
6	0x3e6a2420	0.22865343
7	0xbe28c65d	-0.1648192
8	0x3db68077	0.089112215
9	0xbd9544d1	-0.07288516
10	0xbd3fd66c	-0.046835348
11	0xbce58206	-0.028016102
12	0x3d897e4b	0.067135416
13	0xbdc1b1fa	-0.094577745
14	0x3e0582e8	0.13038218
15	0xbda71578	-0.08158392
16	0x3d644c74	0.055736974
17	0xbda0fa92	-0.078602925
18	0xbd927dc4	-0.07152894
19	0x3e4abc6f	0.19798444
20	0xbd6f58f9	-0.05843446
21	0xbcd91b33	-0.026502227
22	0x3dcdf73d	0.100569226
23	0x3e482970	0.19547057
24	0x3e0abbdd	0.13548227
25	0x3e670dc0	0.22563839
26	0xbcc79bba	-0.024366248
27	0x3ce762db	0.02824538
28	0xbd6512a1	-0.05592597
29	0xbb767b5a	-0.0037610144
30	0xbc849f34	-0.016189195
31	0x3d9226ba	0.07136293
32	0x3e06aa83	0.13150983
33	0x3e200489	0.1562673
34	0xbe157fc6	-0.14599523
35	0xbe4825d7	-0.19545685
36	0x3e781ab1	0.24228932
37	0xbe46fb25	-0.19431742
38	0xbdb7af98	-0.08969039
39	0x3e425757	0.1897863
40	0xbbdcc726	-0.0067376075
41	0xbe293df2	-0.16527537
42	0x3d80947b	0.062783204
43	0xbe53c306	-0.20679864
44	0xbe2da841	-0.16958715
45	0xbe11b62e	-0.14229652
46	0xbcbead11	-0.023275884
47	0xbd0af447	-0.033924367
48	0xbd7e1121	-0.062028054
49	0x3dd85022	0.10562159
50	0x3c7281cd	0.014801455
51	0xbd07e51b	-0.033177476
52	0x3e27d207	0.16388713
53	0x3c674034	0.014114428
54	0xbe6c23f5	-0.23060592
55	0x3e370f45	0.17876919
56	0xbe03094d	-0.12796517
57	0x3de41505	0.11136822
58	0x3d3aa851	0.045570675
59	0x3df54d29	0.11977608
60	0x3e28c56b	0.16481559
61	0x3db15d7e	0.0866041
62	0xbdd82b37	-0.105551176
63	0xbe451433	-0.19245987
64	0x3e302092	0.17199925
65	0xbdc234e8	-0.09482747
66	0xbea844e8	-0.3286507
67	0x3e2a4a0c	0.16629809
68	0xbe19273d	-0.14956374
69	0xbdb1d359	-0.086828895
70	0xbd658918	-0.056038946
71	0x3de74118	0.112917125
72	0xbe780494	-0.24220496
73	0x3e60f7f9	0.21969594
74	0x3d6601bb	0.056153994
75	0x3e66c8ec	0.22537583
76	0x3db92a3a	0.09041257
77	0x3c2e27c8	0.010629602
78	0xbe02ba2c	-0.12766331
79	0xbb4fc575	-0.0031703387
80	0xbe0e1412	-0.13874844
81	0xbd0585b1	-0.0325982
82	0xbe003af2	-0.12522486
83	0x3d53886f	0.051643785
84	0xbd17b51c	-0.037037954
85	0x3e28c258	0.16480386
86	0x3e1c1602	0.1524277
87	0xbe028a1a	-0.12747994
88	0xbe23a6d9	-0.15981616
89	0xbe491336	-0.19636235
90	0xbe77083a	-0.24124232
91	0x3d9bf74d	0.07615528
92	0x3b5035ee	0.0031770426
93	0xbf0136e9	-0.5047441
94	0xbec39733	-0.38201293
95	0x3df1780d	0.11790476
96	0xbe583252	-0.21112946
97	0xbdf654c0	-0.120278835
98	0xbdfd86ec	-0.1237925
99	0x3e1e3bde	0.15452525
100	0x3c6b54aa	0.014363447
101	0x3d67524d	0.056474973
102	0xbec6c5f6	-0.38822907
103	0xbdf3f0a9	-0.11911137
104	0xbe61aa7f	-0.22037695
105	0xbe1f887e	-0.15579411
106	0x3da449d7	0.08021896
107	0xbd9914ef	-0.07474696
108	0xbe31304b	-0.17303579
109	0xbd891dec	-0.0669516
110	0xbe0fcad0	-0.1404221
111	0xbda797c6	-0.08183245
112	0x3e7bd724	0.24593788
113	0xbe0f8117	-0.14014088
114	0x3d87e906	0.066362426
115	0xbd410a11	-0.04712874
116	0xbdefdaa4	-0.11711624
117	0x3d3e9ea4	0.04653801
118	0x3d80f35b	0.06296416
119	0x3e4efb3c	0.20213026
120	0x3db0776d	0.08616529
121	0x3da194e6	0.07889728
122	0xbe94000d	-0.2890629
123	0x3d8b8fe7	0.068145566
124	0xbbb2e084	-0.0054588933
125	0x3e179159	0.1480154
126	0xbdc9cc8e	-0.09853469
127	0x3e402727	0.18764935
128	0xbe32e1cd	-0.17468949
129	0xbbcd63ad	-0.006267986
130	0x3d48ceaf	0.049025234
131	0x3d66f6bd	0.05638765
132	0xbec73925	-0.38910785
133	0x3e3de727	0.18545209
134	0x3e150f89	0.14556707
135	0xbe98261a	-0.2971657
136	0x3e8a1e7a	0.26976377
137	0xbe17f6aa	-0.14840189
138	0xbe4639bc	-0.19357961
139	0xbd4ab976	-0.049493276
140	0x3e406368	0.1878792
141	0x3cc58a9f	0.024113951
142	0xbd7b6894	-0.06137903
143	0xbda8ff89	-0.082518645
144	0xbe45de5b	-0.19323103
145	0xbe09c71e	-0.13454863
146	0xbe0e86e2	-0.13918641
147	0xbd19f062	-0.037582763
148	0xbe0e1cdb	-0.13878195
149	0xbe207251	-0.15668608
150	0x3cc827f9	0.024433123
151	0xbd6f67c9	-0.058448587
152	0x3e46a970	0.19400573
153	0x3e21578d	0.15756054
154	0x3e142914	0.14468795
155	0xbbce95b0	-0.0063044652
156	0xbe393c88	-0.18089497
157	0x3e4ce1d3	0.2000802
158	0x3e33a846	0.1754466
159	0xbaed3801	-0.0018098356
160	0x3d5c730f	0.053820666
161	0x3d5fe8e7	0.054665472
162	0x3eca330c	0.3949207
163	0x3df0839a	0.11743851
164	0x3e87916d	0.2647814
165	0x3e3062ae	0.17225143
166	0x3e4db30e	0.20087835
167	0xbcb4856f	-0.022036282
168	0x3eb3af32	0.350946
169	0xbeb28ea5	-0.34874454
170	0xbe21e800	-0.15811157
171	0xbdb61aba	-0.088918164
172	0x3e45bbac	0.19309872
173	0x3e1dac5d	0.15397783
174	0xbec344be	-0.38138384
175	0x3ec29429	0.38003662
176	0xbd986c83	-0.07442572
177	0x3e1bd4b7	0.15217863
178	0xbcca53e7	-0.02469821
179	0x3ecaa140	0.3957615
180	0xbc96d525	-0.018412182
181	0xbd5f67f4	-0.054542497
182	0x3ebe8b5e	0.37215704
183	0xbc6d8122	-0.01449612
184	0x3e088af0	0.1333425
185	0x3e2a42fb	0.16627114
186	0x3d7732d6	0.060351215
187	0x3c214a45	0.009844367
188	0x3e5ed9de	0.21762797
189	0xbc94362c	-0.018092237
190	0xbcea6a1f	-0.028615056
191	0xbc512652	-0.012765484
192	0xbd27e87b	-0.040993195
193	0x3d7249f6	0.059152566
194	0x3e0ff785	0.14059265
195	0xbdfbee59	-0.123013206
196	0xbdbb4ef0	-0.091459155
197	0x3d67ee0f	0.056623515
198	0xbd8d3723	-0.06895282
199	0x3d935193	0.071932934
200	0xbd6d4ee6	-0.05793657
201	0xbdb8a329	-0.09015495
202	0xbdcb3ccf	-0.09923708
203	0xbcce6708	-0.025195614
204	0xbe6a069e	-0.22854087
205	0xbe1bb0d7	-0.15204178
206	0x3e09bbd7	0.13450561
207	0x3dbd0600	0.0922966
208	0xbe529b0f	-0.20566963
209	0x3e42b672	0.1901491
210	0xbd42697d	-0.047463883
211	0x3beb4701	0.007180095
212	0xbde9e1eb	-0.114200436
213	0xbd8b57e1	-0.06803871
214	0xbea6857b	-0.32523713
215	0x3d63577a	0.055503346
216	0xbe09efa6	-0.13470325
217	0x3dd1d05f	0.10244822
218	0x3c971e2f	0.01844701
219	0x3e12f697	0.14351879
220	0x3cd4c4cd	0.025972748
221	0x3db74e9d	0.08950541
222	0xbe0e0fa3	-0.13873152
223	0x3e14b365	0.14521559
224	0x3df81d7e	0.12115
225	0xbc34fd61	-0.011046738
226	0xbd931547	-0.07181793
227	0xbd5acfa4	-0.053420678
228	0xbdf99673	-0.12186899
229	0x3de6d334	0.112707525
230	0x3d65ae7c	0.056074604
231	0xbd91a608	-0.07111746
232	0xbde277c1	-0.110579975
233	0x3edcf427	0.43155023
234	0x3e78a84e	0.24282953
235	0x3e8b78d7	0.2724063
236	0x3c69accf	0.014262392
237	0xbd18a5ae	-0.03726738
238	0xbe2112bf	-0.15729807
239	0xbe0e1d04	-0.13878256
240	0xbba42761	-0.005009577
241	0xbe0b48e8	-0.1360203
242	0x3dde38f4	0.10850707
243	0xbc7aaef1	-0.015300498
244	0x3e803be1	0.25045684
245	0x3d94e2fa	0.07269855
246	0xbdfd0639	-0.123547025
247	0x3e193fce	0.14965746
248	0x3dd3bc2c	0.10338625
249	0xbe4115c4	-0.18855959
250	0x3da0d769	0.07853586
251	0x3df097e1	0.117477186
252	0x3ea75054	0.32678473
253	0x3e3f4e38	0.18682182
254	0xbdf5d9ea	-0.120044544
255	0x3e94d801	0.29071048

model.backbone.static_proj.bias f4 [64]
0	0xbe30d54d	-0.17268868
1	0x3cfeb75e	0.031093296
2	0xbc577450	-0.01315029
3	0x3c5bd47f	0.013417362
4	0x3dc467d4	0.09590116
5	0xbdef4ec0	-0.11684942
6	0x3e851191	0.25989965
7	0x3e4facd6	0.20280775
8	0xbe0265f0	-0.12734199
9	0x3e0de7ee	0.13858005
10	0x3d2676a1	0.040640477
11	0xbcaf3842	-0.02138913
12	0xbe6465e5	-0.22304495
13	0x3d3adb75	0.045619447
14	0xbe33a0f2	-0.17541865
15	0xbe7b98c6	-0.24569997
16	0x3d8b5ebd	0.06805179
17	0xbd362e3b	-0.044477683
18	0x3c5f6c4c	0.01363666
19	0x3dbd37eb	0.09239181
20	0xbd1fb163	-0.03898753
21	0xbd25ea84	-0.040506855
22	0x3dd2e4f1	0.10297573
23	0x3cc322d6	0.023820322
24	0xbdb7693e	-0.0895562
25	0xbd302757	-0.043006267
26	0xbe2481a1	-0.16065075
27	0xbd9dd446	-0.077065036
28	0x3e5f93eb	0.2183377
29	0x3c812b50	0.015767723
30	0x3dbef0b8	0.09323257
31	0x3c9a1a91	0.018811496
32	0x3d761ef4	0.060088113
33	0xbe866b9f	-0.26253983
34	0xbddb0735	-0.10694734
35	0xbbabd3b9	-0.005243745
36	0xbe524f03	-0.20537953
37	0xbe84fdc8	-0.2597487
38	0xbe35d0d0	-0.17755437
39	0xbd838a00	-0.06422806
40	0xbe057bb4	-0.1303547
41	0x3c8f62f1	0.017503234
42	0xbd6870b8	-0.056748122
43	0x3bb39043	0.005479844
44	0xbc2aa7b4	-0.01041596
45	0xbe2a9ddd	-0.16661783
46	0xbd98d004	-0.07461551
47	0xbd88f27a	-0.06686874
48	0x3e6e3a09	0.23264326
49	0xbaab8997	-0.001308727
50	0x3dc93166	0.09823875
51	0xbda7ac45	-0.08187155
52	0x3d91c137	0.07116931
53	0x3e5fe6a4	0.21865326
54	0x3da23344	0.079199344
55	0x3d482154	0.04885991
56	0xbd894606	-0.06702809
57	0xbaf2a799	-0.0018513083
58	0xbe61a2b0	-0.22034717
59	0xbd54bb75	-0.051936585
60	0xbe81f179	-0.25379542
61	0xbd53b31c	-0.051684484
62	0x3d4a81b7	0.049440112
63	0x3b914223	0.004432933

model.backbone.layers.0.temporal.0.weight f4 [32, 64]
0	0xbd8ff66c	-0.07029423
1	0x3db75e88	0.08953577
2	0x3d253cb8	0.04034111
3	0x3e311f8d	0.17297192
4	0xbd6e19fd	-0.058130253
5	0xbd3bd19d	-0.0458542
6	0xbd10668d	-0.03525405
7	0xbce01ed2	-0.027358446
8	0x3cc88162	0.024475757
9	0x3e160923	0.14651923
10	0x3c200cdd	0.009768692
11	0x3d5bd34b	0.0536683
12	0xbde1a442	-0.11017658
13	0xbe8b594b	-0.27216563
14	0x3b9b4ede	0.0047396263
15	0x3c862ac7	0.01637782
16	0x3e21bba4	0.15794235
17	0x3e1a1575	0.15047248
18	0x3e2f8da6	0.17143878
19	0xbdd3a751	-0.103346474
20	0xbe89d653	-0.2692133
21	0xbd9fc270	-0.07800758
22	0x3df5bef9	0.11999316
23	0x3e4a6e8c	0.19768733
24	0x3dfc1509	0.123087
25	0x3d1f2672	0.038855024
26	0xbd8134f7	-0.0630893
27	0xbdb0d0ec	-0.08633599
28	0xbb1c7f73	-0.0023879677
29	0x3c63eba0	0.013911158
30	0x3cec5ce6	0.028852891
31	0x3e48107a	0.19537535
32	0x3ce11f98	0.027480885
33	0xbdd17292	-0.10226931
34	0xbe507342	-0.20356467
35	0xbe094eb7	-0.13408934
36	0x3d8e5f73	0.06951799
37	0x3e3fb9c4	0.18723208
38	0x3e506977	0.20352732
39	0x3e15d00a	0.14630142
40	0xbd86b38d	-0.06577215
41	0xbe90cce6	-0.28281325
42	0xbe160b15	-0.14652665
43	0x3e053f6c	0.13012475
44	0x3e38da51	0.18052031
45	0x3e617611	0.22017695
46	0x3d35797e	0.044305317
47	0xbcaa6a22	-0.020802561
48	0xbdff1433	-0.124550246
49	0xbe527f8d	-0.2055647
50	0xbc94799c	-0.018124394
51	0x3d49f021	0.04930127
52	0x3d70e029	0.058807526
53	0x3da0ceed	0.07851968
54	0x3cf62b97	0.030050082
55	0xbe07509c	-0.13214344
56	0xbe1323ac	-0.14369076
57	0x3b8f0ce8	0.004365552
58	0x3dc641e5	0.09680537
59	0x3bb4e62c	0.0055206027
60	0x3d5844db	0.05280004
61	0x3d55064c	0.05200796
62	0xbd79dd7f	-0.06100225
63	0xbea05db7	-0.313215
64	0x3d897ec6	0.06713633
65	0xbc815162	-0.015785877
66	0x3b3d222d	0.0028859482
67	0xbe5cc9d6	-0.2156137
68	0xbe56ab4a	-0.20963779
69	0x3b181261	0.0023204314
70	0xbcf7d05d	-0.030250723
71	0x3e4b2a4f	0.19840358
72	0x3e9a7ecd	0.30174866
73	0x3db28664	0.08717039
74	0xbe2a56da	-0.16634694
75	0xbe1986df	-0.14992855
76	0x3d9f7a29	0.07786972
77	0x3c2fcde8	0.010730244
78	0xbdd58e2b	-0.10427507
79	0xbe26d465	-0.1629196
80	0xbd0c01a3	-0.03418125
81	0x3c292bb6	0.010325363
82	0x3e791127	0.2432295
83	0x3e10303d	0.14080901
84	0x3df2184c	0.118210405
85	0xbde1136c	-0.109900326
86	0xbe152cc8	-0.14567864
87	0xbd5fece4	-0.054669276
88	0xbd136212	-0.0359822
89	0x3d1db1c6	0.038499616
90	0x3e5d3594	0.2160247
91	0x3d0590c8	0.032608777
92	0x3d6f877f	0.05847883
93	0xbd82bbd1	-0.063834794
94	0xbc990baf	-0.018682329
95	0x3d9906de	0.07472013
96	0xbc89713d	-0.016777629
97	0xbe7863d6	-0.24256834
98	0x3d6bd14e	0.057572655
99	0x3cd51b25	0.02601392
100	0x3da01a0c	0.07817468
101	0x3da07c15	0.07836167
102	0x3e1b7b7d	0.15183826
103	0xbdb13014	-0.08651748
104	0xbe90888b	-0.28229174
105	0xbe5c52fd	-0.21516033
106	0xbc3a8bdc	-0.011385884
107	0x3dc31bff	0.09526824
108	0x3c1d8721	0.009614737
109	0xbbef3ce2	-0.007300959
110	0xbd8ae5c3	-0.06782105
111	0x3cdf3bdb	0.027250221
112	0xbce3c39c	-0.027803235
113	0xbe54c46e	-0.20778057
114	0xbe1f2875	-0.15542777
115	0xbc926986	-0.017872583
116	0x3e99ed90	0.30064058
117	0x3e9b5387	0.30337164
118	0x3d5a6a7c	0.053324208
119	0xbe5293dc	-0.20564216
120	0xbe58d445	-0.21174724
121	0x3e2e1ef2	0.17003992
122	0x3e492094	0.19641334
123	0x3d77b606	0.060476325
124	0x3c80ebef	0.015737502
125	0x3e130a57	0.14359413
126	0xbdc898ee	-0.09794794
127	0xbe4cbc39	-0.19993676
128	0x3e5628c1	0.20913984
129	0x3e2925ed	0.16518374
130	0x3c6004e8	0.013673045
131	0xbd874379	-0.06604666
132	0x3d41160a	0.04714016
133	0xbe12e815	-0.14346345
134	0xbda96e94	-0.08273044
135	0x3d197f76	0.03747507
136	0xbcc931fc	-0.024559967
137	0xbd9e0bc0	-0.07717085
138	0xbcf66e92	-0.03008202
139	0x3e3ce8c9	0.18448175
140	0x3e2fd5da	0.17171422
141	0x3e6449df	0.22293805
142	0x3e3741a3	0.17896132
143	0x3c804bc6	0.015661132
144	0x3c60f63d	0.013730583
145	0xbd68b9a6	-0.056817673
146	0xbe987af9	-0.2978132
147	0xbd9c9221	-0.076450594
148	0xbc864df8	-0.0163946
149	0xbd9ed2c7	-0.07755046
150	0x3c752ef2	0.014964806
151	0xbe23e17f	-0.16003989
152	0xbe8b1683	-0.27165613
153	0xbe17ffde	-0.148437
154	0xbcfbd6d6	-0.03074209
155	0xbe26f2b3	-0.1630352
156	0xbcf7bf58	-0.030242607
157	0x3cf69c70	0.030103892
158	0x3db8765e	0.09006952
159	0x3ca1d80a	0.019756336
160	0x3d8b5ea8	0.068051636
161	0x3ce79d45	0.028273234
162	0x3df38424	0.11890438
163	0x3d331fc2	0.04373146
164	0x3dc3b8e1	0.09556747
165	0x3e3152ba	0.17316714
166	0x3d90459e	0.070445284
167	0x3d124f45	0.03572013
168	0xbe215338	-0.15754402
169	0x3daae1e4	0.083438665
170	0x3d0523d8	0.032504886
171	0x3c8c2228	0.01710613
172	0xbd810446	-0.06299643
173	0xbe18a485	-0.14906509
174	0x3d80ccc6	0.062890574
175	0x3e2c7f9f	0.16845559
176	0x3e530ee6	0.20611152
177	0x3dbf5b88	0.0934363
178	0x3e22f947	0.15915404
179	0xbe2fe90d	-0.17178746
180	0xbd7efef8	-0.062254876
181	0xbe3f99f3	-0.1871107
182	0xbcd9c8ef	-0.02658507
183	0xbd27dd0c	-0.04098229
184	0xbdfdd8f5	-0.12394897
185	0x3dd4352a	0.10361703
186	0xbd9a98b3	-0.07548656
187	0xbb4ef3a3	-0.0031578324
188	0xbdca67cb	-0.09883078
189	0xbbba6b20	-0.00568904
190	0x3cbfcc39	0.02341281
191	0x3cb27c70	0.021787852
192	0xbdbba986	-0.091631934
193	0x3ddb802f	0.107178085
194	0x3d9d42db	0.07678767
195	0xbdb20eb7	-0.08694213
196	0x3d737827	0.059440758
197	0xbe0bfc0d	-0.13670368
198	0xbe38e1f6	-0.18054947
199	0xbe1325cc	-0.14369887
200	0x3d868a3a	0.065693334
201	0xbce07bf0	-0.027402848
202	0xbe008046	-0.12548932
203	0xbd4ebec5	-0.0504749
204	0x3e074a07	0.13211833
205	0x3e473a86	0.19455919
206	0x3c9bd795	0.019023696
207	0xbcc72b51	-0.024312647
208	0xbd5c997a	-0.053857304
209	0xbd7240a0	-0.059143662
210	0x3b56017f	0.00326547
211	0xbd3e357e	-0.046437733
212	0x3c5a42c0	0.0133215785
213	0x3e3d5675	0.18490012
214	0x3e0000c1	0.12500288
215	0x3e195c37	0.14976583
216	0x3e2cc65b	0.16872542
217	0x3e938f43	0.28820238
218	0x3e808ae2	0.2510596
219	0x3dc9a5ff	0.09846114
220	0xbd1fa127	-0.038972046
221	0xbd348126	-0.044068478
222	0xbe37d1a3	-0.17951064
223	0xbe15beff	-0.1462364
224	0xbceb57b5	-0.028728345
225	0x3d696f8d	0.05699115
226	0xbc62b55a	-0.013837183
227	0xbdfbe4ca	-0.122994974
228	0x3e1bd1e0	0.1521678
229	0x3e56fab6	0.20994076
230	0xbd09ae3e	-0.033613436
231	0xbca0b163	-0.019615835
232	0xbd5db574	-0.054128125
233	0xbe3f5200	-0.18683624
234	0x3de1b5ac	0.11020979
235	0x3d8dd7bb	0.06925913
236	0xbe49e381	-0.19715692
237	0xbe453eb7	-0.19262205
238	0xbdbb9277	-0.09158795
239	0xbbee3d2b	-0.0072704754
240	0xbc41fd04	-0.011840109
241	0xbe0f6370	-0.14002776
242	0xbc2eb0ac	-0.010662239
243	0x3bfe6d8f	0.0077645252
244	0xbd8240d1	-0.06360019
245	0xbe649e96	-0.2232612
246	0x3cc67a10	0.024228126
247	0x3e522917	0.20523487
248	0xbd863685	-0.065533675
249	0xbcf0cefa	-0.02939557
250	0x3e791c9e	0.24327323
251	0x3e29c8ce	0.16580507
252	0x3d61d42a	0.055133976
253	0xbe607cfc	-0.21922678
254	0xbe716930	-0.23575282
255	0x3e348656	0.1762937

model.backbone.layers.0.temporal.0.bias f4 [32]
0	0xbe9cc176	-0.3061635
1	0xbf05ef13	-0.52317923
2	0xbeb45e00	-0.35227966
3	0xbf04cbfe	-0.5187377
4	0xbef666be	-0.4812526
5	0xbe9714a2	-0.2950793
6	0xbf38240e	-0.71930015
7	0xbf0110c6	-0.5041622
8	0xbe798d37	-0.24370275
9	0x3e2a8c3b	0.16655056
10	0xbeecc768	-0.46245885
11	0xbf1632dd	-0.5867136
12	0xbec39cb9	-0.38205507
13	0xbdacc5f0	-0.08436191
14	0xbeeb4ef2	-0.45958668
15	0xbc54a8a7	-0.012979663
16	0xbf093271	-0.5359259
17	0xbeee1542	-0.46500593
18	0xbe08fd42	-0.1337786
19	0xbe0cad42	-0.13737968
20	0xbe7ba2ce	-0.24573824
21	0xbf19b106	-0.6003574
22	0xbd84ecc3	-0.06490471
23	0xbef8f317	-0.48622963
24	0xbdbcb01c	-0.09213278
25	0xbd778b78	-0.060435742
26	0xba1b5b73	-0.0005926408
27	0xbea4f1f8	-0.32215858
28	0x3c3f21c2	0.011665763
29	0xbe07eaac	-0.13273114
30	0xbecc3f46	-0.39892024
31	0xbf3d13d4	-0.7385838

model.backbone.layers.0.temporal.2.weight f4 [64, 32]
0	0xbd74b98b	-0.05974726
1	0xbc66f450	-0.014096335
2	0x3d4570d9	0.048203323
3	0xbc521db9	-0.012824469
4	0xbd4c94d3	-0.049946617
5	0x3dccb780	0.09995937
6	0x3e1f9529	0.15584244
7	0x3d9e3395	0.07724682
8	0xbe1c60e2	-0.15271333
9	0x3be05984	0.0068466086
10	0xbd9c9231	-0.07645071
11	0x3cb3124e	0.021859314
12	0x3cbda52b	0.023150047
13	0x3da326b1	0.07966364
14	0x3e4665ac	0.19374722
15	0xbd838125	-0.06421117
16	0x3dc4a52b	0.09601816
17	0x3dcc9a91	0.09990419
18	0xbcade733	-0.021228408
19	0x3ce017ce	0.027355101
20	0xbd51b029	-0.05119339
21	0xbd862092	-0.06549181
22	0xbc06ef2c	-0.008235734
23	0x3e2f2ece	0.17107698
24	0x3d8324e2	0.06403519
25	0x3c0a512d	0.008442205
26	0xbdb9f6d6	-0.09080283
27	0x3d210fa9	0.039321575
28	0x3d12b11f	0.035813447
29	0xbdd874b7	-0.105691366
30	0xbe0b0057	-0.13574348
31	0x394be39c	0.0001944438
32	0xbcbebaab	-0.02328237
33	0x3d7ba8fe	0.06144046
34	0x3d8050e6	0.0626543
35	0xbd878b7c	-0.066184014
36	0x3cc8ee77	0.024527771
37	0xbe3d6c71	-0.18498398
38	0x3d48ed6f	0.04905456
39	0xbaa73860	-0.001275789
40	0xbe4cdf88	-0.20007145
41	0xbdbdba31	-0.09264029
42	0x3e2184e4	0.1577335
43	0x3d2b36f0	0.04180044
44	0x3d574a43	0.052561056
45	0xbe0a5198	-0.13507688
46	0x3cffaebf	0.031211255
47	0xbd3a799f	-0.045526143
48	0x3e6a4fed	0.22882052
49	0xbd7f6078	-0.06234786
50	0xbd0f1997	-0.034936514
51	0xbe4761ef	-0.19470952
52	0x3e1d701f	0.15374802
53	0x3e57803c	0.21045011
54	0x3dd8033d	0.10547493
55	0xbcb615cb	-0.022227189
56	0xbd0b3a0c	-0.033990905
57	0x3d80d86c	0.06291279
58	0xbe15ca61	-0.14627983
59	0xbd69c87c	-0.057075962
60	0xbc9559b8	-0.018231258
61	0x3c587837	0.013212255
62	0xbd563db9	-0.052304957
63	0xbc86e28d	-0.01646545
64	0xbe3a2161	-0.18176796
65	0xba676dac	-0.0008828293
66	0xbcd142b1	-0.025544496
67	0xbc5dfd36	-0.01354914
68	0xbe4aabbb	-0.19792072
69	0x3e27ffd0	0.16406178
70	0xbd632cd0	-0.05546266
71	0x3ced425b	0.028962305
72	0xbd87c0c9	-0.06628568
73	0xbd3f7637	-0.046743598
74	0x3b471b4e	0.0030381265
75	0x3de09e53	0.10967698
76	0xbde11e50	-0.1099211
77	0x3db992eb	0.090612255
78	0x3b965e80	0.004588902
79	0xbd973483	-0.07383063
80	0x3c7377ad	0.014860076
81	0xbdadd1d4	-0.08487287
82	0xbe153688	-0.14571583
83	0xbc4f960a	-0.012670049
84	0xbbc91655	-0.0061366954
85	0x3cb67cdd	0.022276336
86	0x3e3f5254	0.1868375
87	0xbcd2b0ba	-0.025719035
88	0x3e1887c3	0.14895539
89	0x3d5c118a	0.053727664
90	0x3d17eb56	0.03708967
91	0x3da9942b	0.08280214
92	0x3cb15f60	0.021651924
93	0x3d2a92bb	0.04164384
94	0xbd86b023	-0.06576564
95	0x3de74e97	0.11294287
96	0xbc0e2786	-0.008676415
97	0x3e039403	0.1284943
98	0xb9ddb55a	-0.00042287522
99	0xbe6db736	-0.2321442
100	0xbda5e23d	-0.08099792
101	0xbe097167	-0.13422166
102	0xbe21e079	-0.15808286
103	0x3e45c619	0.1931385
104	0xbce186ca	-0.027530093
105	0xbe9caac8	-0.30599046
106	0xbe89b8be	-0.2689876
107	0x3eef5ce8	0.4675057
108	0x3da8a3c0	0.08234358
109	0x3c9331dc	0.01796811
110	0x3e450263	0.19239192
111	0xbcd24054	-0.02566544
112	0xbd1a1c52	-0.037624665
113	0x3e444c91	0.19169833
114	0x3d39a333	0.045321655
115	0x3e8caf64	0.27477562
116	0xbe45a378	-0.1930064
117	0x3dc6ff56	0.0971667
118	0xbe664216	-0.22486147
119	0x3c8882ae	0.016663875
120	0x3da804b3	0.08204021
121	0x3d996533	0.07490005
122	0x3bbf62e8	0.005840648
123	0x3d68ce81	0.056837562
124	0xbd972cd5	-0.07381598
125	0xbd11e9ed	-0.03562348
126	0xbe2834ef	-0.16426443
127	0x3e2d824b	0.16944234
128	0x3e8043e7	0.25051805
129	0x3db1cddd	0.086818434
130	0x3ba2d42e	0.0049691414
131	0xbe486b2f	-0.19572137
132	0xbe45caa6	-0.19315585
133	0xbe1ef6bb	-0.15523808
134	0xbe89cca1	-0.26913932
135	0x3ded5688	0.1158877
136	0xbe1a5485	-0.15071304
137	0x3e26e08f	0.162966
138	0x3cced8fd	0.025249952
139	0x3d68bce0	0.05682075
140	0x3da16d07	0.078821234
141	0x3df6e21b	0.12054845
142	0xbe37e22f	-0.17957376
143	0xbd972468	-0.07379991
144	0x3dc41a4e	0.0957533
145	0x3df26a93	0.11836734
146	0x3db9fa84	0.09080985
147	0x3db74a58	0.08949727
148	0xbda0b8e4	-0.07847765
149	0xbdaf5838	-0.08561748
150	0xbcede195	-0.02903823
151	0x3db63f8d	0.0889884
152	0x3d96fdfb	0.07372662
153	0xbdd0af85	-0.10189728
154	0xbd6958fd	-0.05696963
155	0x3d872c03	0.066001914
156	0xbd647403	-0.0557747
157	0xbd1fd76d	-0.039023805
158	0x3d827758	0.06370419
159	0xbcaa34bc	-0.020777099
160	0x3da206fb	0.07911488
161	0xbc3422c0	-0.010994613
162	0x3e0c43a1	0.13697673
163	0xbdc2e3c7	-0.09516101
164	0x3ceac44a	0.028658051
165	0xbe2b14c1	-0.16707136
166	0x3de40e8b	0.11135586
167	0xbdc58842	-0.0964513
168	0x3c7466fd	0.014917132
169	0x3dc1eb4c	0.094687074
170	0xbe91e838	-0.2849748
171	0x3e900881	0.28131488
172	0x3ec314e2	0.3810187
173	0x3e1d673d	0.15371414
174	0xbe1161be	-0.14197442
175	0x3e3018a8	0.17196906
176	0xbe3d2f93	-0.1847518
177	0x3e2020a3	0.1563745
178	0x3e4592ed	0.19294329
179	0x3d118840	0.03553033
180	0xbdf10502	-0.11768533
181	0xbdc21e32	-0.094784155
182	0x3d570e29	0.05250374
183	0xbdcf4118	-0.101198375
184	0xbda7d3b3	-0.08194675
185	0xbb286af4	-0.0025698515
186	0xbde675ff	-0.11252975
187	0xbdd72805	-0.1050568
188	0xbe0555eb	-0.13021056
189	0xbc0437b8	-0.008069925
190	0xbe8e5eda	-0.2780674
191	0xbe831e07	-0.25608847
192	0xbda1d8a9	-0.07902653
193	0x3e318b83	0.17338376
194	0x3c867f2a	0.016418058
195	0xbe1c6e64	-0.15276486
196	0xbe3f63f6	-0.18690476
197	0xbd816143	-0.06317379
198	0xbe883d97	-0.2660949
199	0x3e598a9a	0.21244279
200	0x3c7b6049	0.01534278
201	0xbc251414	-0.010075588
202	0x3d94893c	0.07252738
203	0x3d4bcc95	0.04975565
204	0x3d68378e	0.056693606
205	0xbc3ffe0c	-0.011718284
206	0xbdd2be11	-0.102901585
207	0xbd939b13	-0.072073124
208	0x3e1093e3	0.14118914
209	0x3e10a949	0.14127077
210	0xbd60a8c3	-0.054848444
211	0x3e82365e	0.25432104
212	0xbe935ceb	-0.28781828
213	0xbe0c12b8	-0.13679016
214	0xbc7170e9	-0.014736393
215	0xbdc3eb21	-0.09566332
216	0x3d7e2aec	0.062052652
217	0x3de8c095	0.11364857
218	0x3e30bf3a	0.17260447
219	0x3cf5b0e4	0.029991575
220	0xbd1f12b4	-0.038836196
221	0x3d61843f	0.05505776
222	0xbe2cc8e3	-0.16873507
223	0x3ea6423a	0.32472402
224	0x3db2118c	0.08694753
225	0x3e2cb681	0.16866495
226	0x3d28d089	0.0412145
227	0xbdbbd052	-0.09170593
228	0x3d65ee6d	0.056135584
229	0xbc374505	-0.011185889
230	0xbe08601e	-0.13317916
231	0xbe263626	-0.16231593
232	0x3da1d677	0.07902234
233	0x3de204fb	0.11036106
234	0xbe3147b7	-0.17312513
235	0x3d2602d8	0.040530056
236	0x3e0de54c	0.13857001
237	0xbbf9f084	-0.0076275486
238	0x3cf80583	0.030276066
239	0x3ddd83b7	0.10816138
240	0xbce22378	-0.027604803
241	0xbd630738	-0.055426806
242	0x3e443729	0.19161667
243	0x3e33ae6f	0.1754701
244	0xbcef61dc	-0.029221468
245	0xbe0b2de8	-0.1359173
246	0x3d88e06f	0.06683432
247	0x3d9a0dca	0.07522161
248	0xbd9c9f8f	-0.07647621
249	0x3d2e4fd4	0.0425566
250	0x3d0483df	0.032352325
251	0xbda83e00	-0.082149506
252	0xbe7aaf59	-0.24480952
253	0x3bfb17dd	0.007662757
254	0xbd17bef1	-0.03704733
255	0xbbba9643	-0.005694182

model.backbone.layers.0.temporal.2.bias f4 [64]
0	0xbc314c4a	-0.010821411
1	0x3d6222ff	0.055209156
2	0xbc4a5892	-0.012350218
3	0x3d4e84b6	0.05041953
4	0xbcaa5aac	-0.020795189
5	0x3bf1d13b	0.0073796785
6	0xbc3fa21d	-0.011696366
7	0xbcc2a8de	-0.023762163
8	0x3cb81c64	0.022474475
9	0x3c29eddb	0.010371651
10	0x3c0b5992	0.008505242
11	0x3ca3f942	0.020016316
12	0xbb7651a3	-0.003758528
13	0x3a877a5c	0.0010336149
14	0xbd1de181	-0.038545135
15	0x3c3dd1dd	0.01158568
16	0xbd2059fb	-0.039148312
17	0x3cffd34e	0.031228688
18	0x3c99a3e8	0.018754914
19	0x3c402b49	0.01172907
20	0xbcb86262	-0.02250785
21	0x3d0ac54d	0.033879567
22	0x3cbb0459	0.022829222
23	0x3d382b2f	0.044963058
24	0x3d1b7dce	0.037961774
25	0xb9ca6ea5	-0.0003861088
26	0xbd0d81fd	-0.034547795
27	0xbc32d30d	-0.010914576
28	0xbc80950e	-0.015696075
29	0x3ce35d3c	0.027754419
30	0xbcca291f	-0.024677811
31	0x3c14afb5	0.009075095
32	0x3d3f9378	0.046771497
33	0x3c34c3fc	0.011033054
34	0x3c10ebd1	0.0088452855
35	0xbaf437f1	-0.0018632394
36	0xba77c0e4	-0.0009451045
37	0x3c784cbc	0.015155014
38	0x3c762522	0.015023502
39	0xbc496174	-0.012291301
40	0xbb9fc479	-0.0048757163
41	0x3a021ff2	0.00049638667
42	0x3b927fa5	0.004470783
43	0xbc2c6343	-0.010521713
44	0x3be06e4f	0.0068490873
45	0x3b931c36	0.004489447
46	0xbc81de7b	-0.015853157
47	0xbc1eee26	-0.009700334
48	0xbce837f8	-0.028347
49	0xbd8a1d59	-0.06743879
50	0x3c9ddf85	0.019271621
51	0x3ccba449	0.02485861
52	0x3cb2837f	0.021791218
53	0xbb6d951f	-0.0036252213
54	0xbc6a1eaf	-0.014289542
55	0x3c71a7e3	0.0147495
56	0xbcf1aabd	-0.02950036
57	0x3ccbee69	0.024893956
58	0x3c7a7991	0.015287773
59	0x3cfdd69f	0.030986128
60	0x3c42678d	0.011865509
61	0x3c9bda15	0.019024888
62	0x3cd570f6	0.02605484
63	0x3ca05b8c	0.019574903

model.backbone.layers.0.channel.0.weight f4 [32, 74]
0	0x3d794faf	0.060867008
1	0xbcecb7f7	-0.028896315
2	0xbea50b50	-0.32235193
3	0xbe180e2a	-0.14849153
4	0xbd6c299c	-0.05765687
5	0xbdb00c7f	-0.085961334
6	0x3e82b962	0.2553206
7	0x3e3126e3	0.1729999
8	0x3e1841b0	0.14868808
9	0x3d378489	0.04480413
10	0x3d457601	0.04820824
11	0x3e245c8f	0.16050933
12	0xbc873262	-0.016503517
13	0xbe4cf952	-0.20016983
14	0xbde176b1	-0.11008967
15	0xbe0240ba	-0.12720004
16	0xbe001dd2	-0.12511376
17	0x3c9e9c52	0.019361649
18	0x3da55169	0.080721684
19	0x3dd63b8c	0.104605764
20	0x3d4a2191	0.049348418
21	0xbbd057f2	-0.00635814
22	0x3e48bb62	0.19602731
23	0x3dd68a94	0.104756504
24	0xbd5c578c	-0.05379443
25	0xbdd51356	-0.10404079
26	0xbde44927	-0.11146765
27	0xbca56d81	-0.020193817
28	0x3d0d1088	0.034439594
29	0xbc4e3bbb	-0.012587483
30	0xbdc3e606	-0.09565358
31	0xbe03c06b	-0.1286637
32	0x3c718372	0.014740812
33	0x3d43a40c	0.04776387
34	0x3e02b7e8	0.12765467
35	0xbdaef8b7	-0.08543532
36	0x3d0364bf	0.0320785
37	0x3d7360cd	0.05941849
38	0xbea77221	-0.3270426
39	0xbd91931e	-0.071081385
40	0xbe492ed0	-0.19646764
41	0xbd8a4de9	-0.067531414
42	0xbd27f625	-0.041006226
43	0xbd81d2a6	-0.06339006
44	0x3defb0bb	0.117036305
45	0x3d3198ca	0.0433586
46	0x3da9bbd3	0.08287778
47	0x3dd41cbc	0.10357043
48	0x3d64981e	0.055809133
49	0x3d9018ba	0.07035966
50	0x3d84df5b	0.06487914
51	0x3d681d3d	0.05666851
52	0xbd24f08b	-0.040268462
53	0x3df07fa8	0.117430985
54	0x3e1573b5	0.1459492
55	0xbc209049	-0.009800025
56	0xbdc26a9b	-0.0949299
57	0x3e0e8f23	0.1392179
58	0x3dc10dc8	0.09426457
59	0xbcc62e01	-0.024191858
60	0x3b9aa68d	0.0047195614
61	0xbd7e87e1	-0.062141303
62	0xbe183ab2	-0.1486614
63	0xbe2509f6	-0.16117081
64	0x3de9316b	0.11386379
65	0x3dee1c12	0.11626448
66	0xbcc1a14f	-0.023636488
67	0xba5dfb25	-0.00084679044
68	0x3e1d15ad	0.153403
69	0x3e1e122e	0.15436623
70	0xbd7a3c87	-0.06109288
71	0xbccab7de	-0.024745878
72	0xbdb5ce4c	-0.08877239
73	0xbd35b079	-0.04435775
74	0x3d707fc5	0.0587156
75	0x3a559076	0.00081468315
76	0xbe08a6ea	-0.13344923
77	0x3dca424f	0.098759286
78	0x3df2d57e	0.11857127
79	0xbe8b42fd	-0.27199546
80	0xbe83f023	-0.25769147
81	0xbea00c5b	-0.31259426
82	0xbeb2619d	-0.34840098
83	0x3cfb13f8	0.03064917
84	0x3e075704	0.13216788
85	0x3c52dc94	0.012869973
86	0x3e0179e2	0.12644151
87	0xbd9809b5	-0.074237265
88	0xbdd0de5f	-0.10198664
89	0xbc64a0fa	-0.013954395
90	0xbd83039b	-0.06397172
91	0xbdebf02c	-0.115204185
92	0x3df1a673	0.11799326
93	0xbd54b974	-0.051934674
94	0x3d34addc	0.044111118
95	0xbdec8018	-0.115478694
96	0x3e66cbce	0.22538683
97	0x3d665fb5	0.056243617
98	0x3ca56316	0.02018885
99	0xbd095569	-0.03352872
100	0xbe600c05	-0.21879585
101	0xbd789045	-0.06068446
102	0xbdab6907	-0.08369642
103	0xbdeb5c66	-0.11492233
104	0x3e3e885b	0.18606703
105	0xbba4c99c	-0.0050289165
106	0xbdbcdb87	-0.09221559
107	0xbd96a8ae	-0.07356392
108	0x3e8b6a3e	0.27229494
109	0x3cd4dd65	0.025984475
110	0x3dfbcc27	0.12294798
111	0xbcd6ecb4	-0.026235916
112	0xbd902199	-0.07037658
113	0xbd9440ae	-0.07238899
114	0xbdd1dd81	-0.10247327
115	0xbd6ba7db	-0.057533126
116	0x3bee96db	0.007281167
117	0x39a66476	0.00031736837
118	0x3daa8788	0.08326632
119	0x3a8b8b76	0.0010646421
120	0x3d95cc73	0.07314386
121	0x3e928bb2	0.28622204
122	0x3e8692f7	0.26284
123	0x3daa5074	0.083161265
124	0x3e6911d0	0.22760701
125	0xbe48e8f8	-0.1962012
126	0xbc02134a	-0.007939169
127	0x3a7f14f7	0.0009730602
128	0x3bd4d608	0.006495241
129	0x3dbcad1d	0.09212706
130	0xbdc062e2	-0.093938604
131	0x3d1e3fb9	0.03863499
132	0x3d2952e5	0.04133882
133	0xbd548fc1	-0.051894907
134	0xbdd1c7f6	-0.10243218
135	0xbcb2337a	-0.021753062
136	0xbe1e4627	-0.15456448
137	0xbe71656b	-0.23573844
138	0x3c6f659f	0.014611631
139	0x3dcf8085	0.10131935
140	0x3d954f29	0.07290489
141	0xbe04d03b	-0.12970059
142	0x3def0e20	0.11672616
143	0x3943777f	0.00018641165
144	0x3d3a3f41	0.04547048
145	0x3da079b5	0.07835714
146	0x3ce9ad4b	0.028525015
147	0x3b40d0e4	0.0029421384
148	0xbbfd5475	-0.0077310153
149	0xbc9e5006	-0.019325268
150	0x3e2440d5	0.16040356
151	0xbced261f	-0.028948842
152	0x3ced8c00	0.028997421
153	0xbc2a62f6	-0.010399571
154	0xbd92061d	-0.07130072
155	0x3d056302	0.032565124
156	0x3cce4fb4	0.02518449
157	0x3c5db3b4	0.013531614
158	0xbe6a26e1	-0.22866394
159	0x3e8950de	0.2681951
160	0xbdc35299	-0.09537239
161	0xbd8b715a	-0.068087295
162	0x3e605d96	0.219107
163	0x3df0d3ce	0.117591485
164	0xbd720da2	-0.059095033
165	0xbf281ec4	-0.65671945
166	0xbe106009	-0.14099135
167	0x3db779fb	0.08958813
168	0xbda79bff	-0.08184051
169	0x3ed7f864	0.42181695
170	0x3d103b75	0.035212953
171	0xbea22a6b	-0.31672987
172	0xbdc1a68d	-0.09455595
173	0x3e9bf3f6	0.30459565
174	0xbef50e69	-0.47862557
175	0x3e22704e	0.15863153
176	0x3d66da3f	0.05636048
177	0x3d190042	0.03735376
178	0x3e9691e2	0.29408175
179	0x3dcb138e	0.09915839
180	0xbe55ba34	-0.20871812
181	0xbea931da	-0.33045846
182	0x3e86bc98	0.2631576
183	0xbe6332f8	-0.22187412
184	0x3e1d15b0	0.15340304
185	0xbb61fa5f	-0.0034481508
186	0xbe0a9029	-0.13531555
187	0xbe08930b	-0.13337342
188	0xbe198fb2	-0.14996222
189	0x3e58456b	0.21120231
190	0xbe9a574b	-0.30144724
191	0x3e34eeee	0.1766927
192	0x3dca9db4	0.09893361
193	0xbe26d41f	-0.16291855
194	0x3ed0afae	0.40759033
195	0x3df5f1ed	0.12009034
196	0x3ec789b5	0.3897225
197	0xbdb030b4	-0.086030394
198	0x3c537e58	0.012908541
199	0x3e0f8cda	0.14018574
200	0x3cc55e76	0.024092894
201	0x3b9218d9	0.0044585285
202	0xbe04a1c1	-0.12952329
203	0x3e07e901	0.13272478
204	0xbe5d438b	-0.21607797
205	0x3d7f4523	0.062321793
206	0x3cab68a8	0.020923927
207	0xbe99a731	-0.3001037
208	0xbe1705fc	-0.14748377
209	0xbc87be1d	-0.016570145
210	0xbe2e6ca2	-0.17033628
211	0xbca1edea	-0.019766767
212	0xbe486901	-0.19571306
213	0xbc4432a6	-0.011974966
214	0x3e3e623c	0.18592161
215	0xbde40bb7	-0.11135047
216	0x3e62430e	0.22095892
217	0xbdd7158b	-0.10502156
218	0x3f140e77	0.5783457
219	0x3e37c927	0.17947827
220	0x3eb4b60b	0.35295138
221	0x3e960735	0.29302374
222	0x3c069ca6	0.008216059
223	0xbe30cd66	-0.17265853
224	0xbe75fd8b	-0.240225
225	0xbe03626c	-0.12830514
226	0x3d134a9d	0.03595983
227	0xbe91000d	-0.2832035
228	0x3e32e566	0.17470321
229	0x3e189661	0.14901115
230	0x3dda8a71	0.10670937
231	0xbec34c0e	-0.38143963
232	0x3e08fe38	0.13378227
233	0xbd5e2a4e	-0.054239564
234	0xbd3b43cc	-0.045718953
235	0x3d3f706a	0.046738066
236	0xbd2e0c4e	-0.042492203
237	0x3e038f67	0.12847672
238	0xbe4e2429	-0.20130982
239	0xbcd18ce9	-0.025579887
240	0x3c075b9f	0.00826159
241	0xbcc7cc1b	-0.024389317
242	0x3d98912f	0.074495666
243	0x3d26a26c	0.04068224
244	0x3df6008e	0.120118245
245	0xbd819e9d	-0.06329081
246	0x3d40986a	0.047020353
247	0x3e0252de	0.12726924
248	0x3d16edd6	0.03684791
249	0x3e072301	0.13196947
250	0x3c2d9b43	0.010596099
251	0x3d157321	0.03648675
252	0xbda2fd0d	-0.07958422
253	0xbb2360ee	-0.00249296
254	0x3d490973	0.049081277
255	0xbda5068f	-0.080578916

model.backbone.layers.0.channel.0.bias f4 [32]
0	0xbe7b518d	-0.24542828
1	0xbeafd58b	-0.34342608
2	0xbec2dadf	-0.3805761
3	0xbe3c0404	-0.18360907
4	0xbe44a527	-0.19203626
5	0xbe738fc3	-0.2378531
6	0xbda0e6ef	-0.07856547
7	0xbd31119f	-0.043229695
8	0xbe4dfd13	-0.20116071
9	0xbd641af2	-0.05568976
10	0xbd20cd88	-0.03925851
11	0xbe01f3be	-0.12690637
12	0xbe8a440d	-0.27005044
13	0x3d4ae34a	0.049533166
14	0xbe8dd808	-0.2770388
15	0xbdb785f7	-0.08961099
16	0xbd3c0208	-0.045900375
17	0x3d254156	0.040345512
18	0xbe194a7d	-0.14969821
19	0xbd81510d	-0.06314287
20	0xbe6a3d29	-0.22874893
21	0xbe9b5203	-0.30336007
22	0xbe821ca1	-0.25412467
23	0xbdce6a78	-0.10078901
24	0x3ce54512	0.027987037
25	0xbe24cb09	-0.16093077
26	0xbd97ab72	-0.074057475
27	0xbeecc820	-0.46246433
28	0xbdbb7e24	-0.09154919
29	0xbe2324c1	-0.15931989
30	0xbe31e3f7	-0.17372118
31	0xbe3ea468	-0.18617404

model.backbone.layers.0.channel.2.weight f4 [74, 32]
0	0xbee6c11f	-0.45069215
1	0x3d0e2d52	0.03471119
2	0xbd1a4df7	-0.03767201
3	0xb9b3a2c5	-0.00034262813
4	0x3dc3359f	0.09531712
5	0x3e238a37	0.15970694
6	0xbddb11c4	-0.10696748
7	0xbda5af01	-0.0809002
8	0x3c617909	0.013761767
9	0x3d64cc4d	0.0558589
10	0xbdadc0a4	-0.08484009
11	0x3ec0c09f	0.37646958
12	0xbebc4078	-0.36767936
13	0xbd84c031	-0.0648197
14	0xbe1e0bfe	-0.15434262
15	0xbcef0b6d	-0.029180253
16	0xbe0035e7	-0.12520562
17	0x3d021b54	0.031764343
18	0x3dc448ee	0.09584223
19	0xbd447c18	-0.047969908
20	0x3e55d92c	0.20883626
21	0x3dde9ddc	0.10869953
22	0x3e94b497	0.2904403
23	0xbea0522a	-0.31312686
24	0x3d8eadf3	0.06966772
25	0x3d4bf2d3	0.049792122
26	0xbd563a2b	-0.052301567
27	0x3e2455c1	0.16048338
28	0x3c87b52a	0.016565878
29	0xbe08d131	-0.1336105
30	0x3d3afbbf	0.04565024
31	0xbeaa4fe9	-0.33264092
32	0x3c9b9e49	0.018996375
33	0x3c3640aa	0.011123816
34	0x3bdcd124	0.0067387987
35	0x3e2bd1f4	0.1677931
36	0xbd6388f3	-0.055550527
37	0x3de0f7e4	0.109847814
38	0x3c2a15c0	0.010381162
39	0x3d5b06e4	0.05347337
40	0x3dc6d575	0.097086824
41	0xbd3f64b8	-0.046726912
42	0x3e234d3b	0.1594743
43	0x3da8a2f5	0.082342066
44	0xbe114418	-0.14186132
45	0x3d1a9d6f	0.037747797
46	0xbe501715	-0.20321305
47	0xbd6cc5ce	-0.05780583
48	0xbd1d7db0	-0.038449943
49	0xbd3f36c1	-0.046683077
50	0x3e1a48a6	0.15066776
51	0xbe09337d	-0.13398547
52	0xbd133afd	-0.035944927
53	0x3e894a69	0.26814583
54	0x3d9e1211	0.0771829
55	0xbe0aa64c	-0.1354
56	0x3e112de5	0.14177664
57	0xbdaaff17	-0.08349436
58	0x3b93d9ac	0.0045120325
59	0x3e6c3210	0.23065972
60	0x3dfde0e8	0.12396413
61	0xbd538e20	-0.051649213
62	0x3a1a2e25	0.000588151
63	0xbe49eff4	-0.19720441
64	0x3e79635e	0.24354312
65	0x3d5816bf	0.052756067
66	0x3cc1bc68	0.02364941
67	0x3dcd7f6e	0.10034071
68	0x3d6e1e8a	0.058134593
69	0x3cd8adaa	0.026449997
70	0xbeae58d8	-0.34052157
71	0x3d1af559	0.037831638
72	0xbbb382b3	-0.005478227
73	0x3d492d38	0.04911539
74	0xbeba257a	-0.36356717
75	0xbdd3bcc3	-0.10338738
76	0x3eaf1796	0.34197682
77	0x3bf9a0e5	0.007618057
78	0xbd87182b	-0.065964065
79	0xbdc64166	-0.096804425
80	0xbdf26637	-0.11835902
81	0xbed31572	-0.412273
82	0xbc9115c7	-0.01771058
83	0xbcce4ff5	-0.02518461
84	0x3e39cdf9	0.18144979
85	0xbdf1cafe	-0.11806296
86	0xbdb9f5c7	-0.090800814
87	0x3d2953ea	0.041339792
88	0xbea772d6	-0.327048
89	0x3e753681	0.23946573
90	0xbe8abbf0	-0.2709651
91	0xbec27100	-0.37976837
92	0xbe31f0bc	-0.17376989
93	0x3ee1e580	0.44120407
94	0x3dc4ef0f	0.09615909
95	0xbebfd13a	-0.37464315
96	0xbcd446cd	-0.025912667
97	0x3c215f53	0.009849387
98	0x3be1acd4	0.006887058
99	0xbcf65f00	-0.030074596
100	0x3ce76d09	0.028250234
101	0xbd3e7bdb	-0.046504837
102	0xbce00688	-0.027346864
103	0xbabf0795	-0.0014574403
104	0x3c46eef0	0.012141928
105	0x3b5cd047	0.003369348
106	0xbcc741fc	-0.024323456
107	0xbca253d3	-0.019815361
108	0xbcaa20e0	-0.02076763
109	0x3b70959f	0.0036710275
110	0xbca9257e	-0.02064776
111	0x3cfcc3b9	0.030855047
112	0xbcc89821	-0.024486603
113	0x3cbda1c0	0.023148417
114	0x3c6aa98d	0.014322651
115	0xbb6ffa13	-0.0036617562
116	0xbbbcd384	-0.0057625193
117	0x3ca3c4fe	0.019991394
118	0x3c1b593c	0.009481724
119	0xbd702a11	-0.058633868
120	0xbce79d90	-0.028273374
121	0xbd0444a4	-0.032292023
122	0x3b6afc31	0.0035855884
123	0x3c52fb2d	0.012877268
124	0x3b928bba	0.004472223
125	0xbcb99e8e	-0.022658613
126	0x3b7b7980	0.003837198
127	0xbc748ba4	-0.014925871
128	0xbe34fd54	-0.17674762
129	0xbdb2fed5	-0.087400116
130	0x3d767439	0.060169432
131	0x3e510a13	0.20414
132	0xbc806a26	-0.015675616
133	0x3d416f77	0.04722544
134	0x3e1fe49b	0.1561455
135	0xbd2443c6	-0.040103696
136	0x3ca89ba5	0.02058203
137	0xbd118a01	-0.035532
138	0x3d0cf70c	0.03441529
139	0xbc7b8e95	-0.015353818
140	0xbe4852d4	-0.19562846
141	0xbdc05964	-0.0939205
142	0x3d1156ee	0.035483293
143	0x3c04e609	0.008111485
144	0xbc364106	-0.011123901
145	0x3d772cc7	0.060345437
146	0x3d48fb7f	0.04906797
147	0x3d06c36a	0.032901205
148	0xbd4bc36a	-0.04974691
149	0x3d1f728b	0.038927596
150	0xbe4bd0f9	-0.19903935
151	0xb95bb004	-0.00020951038
152	0xbd1be6aa	-0.038061775
153	0x39747f7a	0.00023317142
154	0x3da84208	0.082157195
155	0x3e8b049b	0.2715195
156	0x3e395abf	0.18101023
157	0xbdf5a0a7	-0.11993533
158	0x3d90d8a0	0.07072568
159	0xbe6f7dae	-0.23387787
160	0x3d856118	0.0651266
161	0x3e9e94f6	0.30973023
162	0x3eabbab9	0.33540896
163	0xbe89c715	-0.269097
164	0xbd8ceb77	-0.06880849
165	0xbe900e97	-0.2813613
166	0xbe222ebe	-0.15838143
167	0xbd1ff253	-0.039049458
168	0x3d84386e	0.064560756
169	0xbd19c8ce	-0.037545018
170	0xbd4bf125	-0.04979052
171	0x3ce18801	0.027530672
172	0x3aaa8e82	0.0013012441
173	0xbd052c97	-0.032513227
174	0xbd9839b6	-0.074328825
175	0xbdd46b04	-0.10371974
176	0x3d559b13	0.052149843
177	0xbd532b5b	-0.05155502
178	0x3e302ac6	0.17203817
179	0xbc513669	-0.01276932
180	0xbdd01587	-0.10160356
181	0xbe6041f3	-0.21900158
182	0x3cf12f39	0.029441463
183	0x3d2585eb	0.040410917
184	0x3db9a3e6	0.09064464
185	0x3d94d431	0.07267035
186	0xbd64dcee	-0.055874757
187	0x3bff1de7	0.007785547
188	0xbe082b9e	-0.13297889
189	0x3e545a6f	0.20737623
190	0x3df1c09e	0.11804317
191	0x3ea1d156	0.31605023
192	0x3c1339d2	0.008985953
193	0x3e755b90	0.2396071
194	0xbe3d1c10	-0.18467736
195	0x3d2c16f1	0.042014066
196	0xbc2eb8c1	-0.010664166
197	0xbd0fcf57	-0.035109844
198	0xbce986d4	-0.028506674
199	0x3c4b0bb3	0.012392926
200	0xbdeb268a	-0.1148196
201	0x3de636c7	0.11240917
202	0x3cba5af4	0.022748448
203	0x3d220cd7	0.039563026
204	0x3da206ee	0.07911478
205	0x3db47da9	0.0881303
206	0xbe4a8d84	-0.19780546
207	0x3c97261f	0.018450795
208	0xbd3ad677	-0.045614686
209	0x3d8f9d87	0.07012468
210	0x3dc050b2	0.093903914
211	0xbd9b7511	-0.07590688
212	0xbd0d8472	-0.034550138
213	0x3e7bd8b6	0.24594387
214	0xbd3d99e7	-0.04628935
215	0xbe10990f	-0.14120887
216	0xbd1779e8	-0.036981493
217	0x3d922e08	0.07137686
218	0xbd15a00e	-0.036529593
219	0x3e1d4a6f	0.15360425
220	0x3e0c98e4	0.13730198
221	0xbe01e5af	-0.12685274
222	0xbdf1cad0	-0.118062615
223	0xbc2e522f	-0.010639711
224	0x3d7d07a8	0.06177488
225	0x3e45f4dc	0.19331688
226	0xbe207734	-0.15670472
227	0x3da51133	0.08059921
228	0xbc554656	-0.013017258
229	0xbdc58825	-0.09645108
230	0xbd056009	-0.03256229
231	0x3d340572	0.043950506
232	0xbdbaf516	-0.09128778
233	0x3d995201	0.07486344
234	0x3e08b38b	0.1334974
235	0xbc9b4174	-0.018952109
236	0x3df529fe	0.119709
237	0x3e1470a6	0.14496097
238	0xbe4820fc	-0.19543833
239	0x3d4f4d13	0.050610613
240	0xbd011e71	-0.03152317
241	0x3e0bb29c	0.13642353
242	0x3e04c83b	0.12967007
243	0xbd12eb03	-0.035868656
244	0xbd0ae7df	-0.033912536
245	0x3e4629e1	0.19351913
246	0xbccbaee3	-0.024863666
247	0xbdbbaa11	-0.09163297
248	0xbd9857ba	-0.074386075
249	0x3d83d2c7	0.06436687
250	0x3d1184dd	0.0355271
251	0x3d553acb	0.052058022
252	0x3e0436a0	0.12911463
253	0xbd886415	-0.06659714
254	0xbddece26	-0.108791634
255	0x3daee4dc	0.08539745

model.backbone.layers.0.channel.2.bias f4 [74]
0	0x3d229ed0	0.039702237
1	0xbd43c6df	-0.04779708
2	0x3c29d8af	0.010366603
3	0x3c9918b6	0.01868854
4	0x3c6fd0ae	0.014637155
5	0x3c82aeab	0.015952429
6	0xbcbf1115	-0.023323575
7	0xbd2e18a2	-0.04250396
8	0xbdc78998	-0.09743041
9	0x3d6d6d94	0.05796583
10	0x3db1c0dc	0.08679363
11	0xbe400fea	-0.1875607
12	0x3dc60863	0.096695684
13	0xbd8d15d0	-0.06888926
14	0x3d38c278	0.045107335
15	0x3bc16d0e	0.005902893
16	0xbe23be15	-0.1599048
17	0xbe136e9e	-0.14397666
18	0xbd496705	-0.049170513
19	0x3cb5f419	0.022211121
20	0x3e48a2a0	0.19593287
21	0xbd866f2d	-0.06564174
22	0xbc961837	-0.018322093
23	0xbdd1ead1	-0.10249866
24	0x3d983653	0.074322365
25	0x3d7c0b74	0.06153436
26	0x3d8cd607	0.0687676
27	0xba4ec074	-0.0007886954
28	0x3d9d625b	0.076847754
29	0x3dbd7406	0.09250645
30	0x3d9d6cf3	0.07686796
31	0xbdad1194	-0.084506184
32	0xbdba6c83	-0.09102728
33	0x3d8c790b	0.068590246
34	0x3e2baf73	0.16766147
35	0xbd6764f9	-0.05649278
36	0x3daddad7	0.08489006
37	0x3de78fd0	0.11306727
38	0xbd150004	-0.036376968
39	0x3c841cba	0.01612698
40	0x3dd657a1	0.10465933
41	0xbe17f44c	-0.14839286
42	0xbd95e6fd	-0.07319448
43	0xbd023c9d	-0.031796087
44	0x3d7b8184	0.061402813
45	0xbdb6b865	-0.08921889
46	0x3df3de3c	0.11907622
47	0xbd7a4c08	-0.061107665
48	0xbd2d75d0	-0.042348683
49	0x3d120593	0.035649847
50	0x3d467744	0.048453584
51	0x3dba3b7e	0.090933785
52	0xbdd2ceec	-0.102933735
53	0x3d76ab83	0.06022216
54	0x3de40213	0.11133208
55	0x3b84430f	0.0040363143
56	0xbe22eeea	-0.15911451
57	0xbdaddc03	-0.084892295
58	0x3d8ff377	0.07028859
59	0x3e030d77	0.12798105
60	0xbc1c2643	-0.009530607
61	0xbdfacf3c	-0.12246558
62	0x3d84aeb0	0.064786315
63	0xbd988814	-0.0744783
64	0xbbd0a54e	-0.006367362
65	0xbe1da875	-0.15396293
66	0xbdcf3530	-0.101175666
67	0x3d63cd3b	0.055615645
68	0x3df8dd31	0.12151564
69	0x3ccdb86f	0.025112359
70	0xbd1512fc	-0.036395058
71	0xbdd69a9e	-0.1047871
72	0x3c6107f9	0.013734811
73	0x3cc5f689	0.024165409

model.backbone.layers.1.temporal.0.weight f4 [32, 64]
0	0xbcda56aa	-0.026652653
1	0x3d8e18a3	0.06938293
2	0xbe9eab99	-0.30990294
3	0xbd899604	-0.06718066
4	0xbd6fc0f2	-0.058533616
5	0xbc3aef85	-0.011409645
6	0x3c9cbdb0	0.019133419
7	0xbcb936ac	-0.022609077
8	0x3e444fa4	0.19171005
9	0x3d886848	0.06660515
10	0x3e24b213	0.16083555
11	0x3e286c47	0.16447555
12	0x3e6c93a7	0.231032
13	0x3e3b86db	0.18313162
14	0x3d955fec	0.07293686
15	0xbdef529d	-0.11685679
16	0xbd2099b8	-0.039209098
17	0x3d5fd94e	0.054650597
18	0xbd507706	-0.05089476
19	0xbe3233f1	-0.17402627
20	0xbdb104dc	-0.08643505
21	0x3de051cd	0.10953102
22	0x3e5d565f	0.21614979
23	0xbcb638d5	-0.022243896
24	0x3e1da5fb	0.15395348
25	0xbd052fa5	-0.03251614
26	0x3dd7e9c6	0.105426356
27	0xbd73c9bd	-0.059518564
28	0x3ca212b1	0.019784303
29	0xbe06b815	-0.13156159
30	0xbe7443a9	-0.23853935
31	0xbe6fc516	-0.23415026
32	0xbde15287	-0.11002069
33	0xbe7407fc	-0.23831171
34	0xbe1c470f	-0.15261482
35	0xbd08178e	-0.03322559
36	0xbd4ede44	-0.050504938
37	0x3dfe771e	0.124250636
38	0x3dad7e83	0.08471396
39	0xbd0a0c1e	-0.033702962
40	0xbe06f3f2	-0.13178995
41	0xbd9df5f6	-0.07712929
42	0x3c13dbec	0.009024601
43	0xbde70338	-0.11279911
44	0x3cec052f	0.028811065
45	0xbdfd4552	-0.123667374
46	0x3e3c5cf2	0.18394831
47	0x3da02509	0.07819564
48	0xbd4c4bd2	-0.049876995
49	0x3c95c65e	0.018283065
50	0x3dd77a06	0.10521321
51	0x3c629321	0.013829024
52	0xbe4c9e1d	-0.1998219
53	0xbda942ca	-0.08264692
54	0xbd98498a	-0.074359015
55	0xbcfe0ad7	-0.031011028
56	0xbd02d5cf	-0.031942185
57	0xbd84395d	-0.06456254
58	0xbd781182	-0.06056357
59	0x3d9a926e	0.075474605
60	0x3de028a9	0.10945255
61	0xbc3a1ff9	-0.011360162
62	0x3d42209f	0.04739439
63	0x3ee48d26	0.44638938
64	0xbd0e1a2e	-0.034692936
65	0xbc765845	-0.0150356935
66	0xbcca9ad3	-0.024732029
67	0x3be87464	0.007093953
68	0x3c6df6c3	0.014524165
69	0x3d7697a6	0.060203217
70	0x3ddae9c1	0.10689116
71	0x3db66e7e	0.089077935
72	0x3e1d2df9	0.15349568
73	0xbd4e75d0	-0.050405324
74	0xbc2edd44	-0.010672871
75	0xbb96b723	-0.0045994683
76	0x3c9f3f4b	0.01943936
77	0x3d787f8a	0.060668506
78	0x3e069f1f	0.13146637
79	0x3d81ad1c	0.06331846
80	0xbc7fdf1f	-0.015617161
81	0xbd78b31a	-0.06071768
82	0xbdf221c5	-0.11822847
83	0xbe2b2286	-0.16712388
84	0x3c14b395	0.009076019
85	0x3d1bc762	0.038031943
86	0xbe129905	-0.14316185
87	0xbe035029	-0.12823547
88	0xbe086b0b	-0.13322084
89	0xbd57cc8e	-0.052685313
90	0xbe1c24f2	-0.15248469
91	0xbd98e6f4	-0.07465926
92	0x3d90d1e0	0.070712805
93	0xbd237563	-0.03990687
94	0x3da9c803	0.08290102
95	0x3e2fd4a1	0.17170955
96	0x3e0a514f	0.1350758
97	0xbd54c5f6	-0.051946603
98	0xbda51632	-0.08060874
99	0x3dbdd974	0.092699915
100	0xbd90e6bb	-0.07075258
101	0x3d1df421	0.038562898
102	0x3c95f0ec	0.018303357
103	0xbd2cf9f5	-0.042230565
104	0x3dd6b33c	0.10483405
105	0x3e0e1e9d	0.13878866
106	0x3dbb1344	0.09134534
107	0x3de9b411	0.11411298
108	0x3d9d9919	0.07695217
109	0xbdaa092d	-0.083025314
110	0xbde23961	-0.110461004
111	0x3d1f8381	0.03894377
112	0x3de640cc	0.11242828
113	0x3d8ee309	0.06976897
114	0x3e0c22e4	0.13685185
115	0x3c898231	0.016785713
116	0x3d14c018	0.036316007
117	0x3d8181db	0.06323596
118	0x3e88504f	0.2662377
119	0x3e423b82	0.18968013
120	0x3e57a63a	0.21059504
121	0x3e391d58	0.180776
122	0x3e304506	0.1721383
123	0x3ceca014	0.028884925
124	0xbe1dacdc	-0.15397972
125	0xbdf197be	-0.11796521
126	0xbe9eab63	-0.30990133
127	0xbf40107a	-0.7502514
128	0x3bcad22c	0.006189605
129	0x3e169f3a	0.14709178
130	0x3e10ac55	0.1412824
131	0x3e4e4329	0.20142807
132	0x3dde28fa	0.108476594
133	0x3be4e542	0.0069853375
134	0xbc0feb3d	-0.0087841125
135	0xbd648c5f	-0.05579793
136	0xbc98be4a	-0.018645424
137	0xbdc9d539	-0.09855122
138	0x3cbe3929	0.023220615
139	0x3caf6c69	0.021413999
140	0xbd3a080a	-0.045417823
141	0xbc84bb4b	-0.01620259
142	0xbe8b5989	-0.27216747
143	0xbe10a325	-0.14124735
144	0xbd303434	-0.043018535
145	0x3dee2f08	0.11630064
146	0x3db202fe	0.08691977
147	0x3dfe058b	0.12403401
148	0x3d462f5f	0.04838502
149	0x3deb0fb2	0.11477603
150	0x3e3da5de	0.18520305
151	0x3d985b30	0.07439268
152	0xbd4a13f8	-0.04933545
153	0x3dac007f	0.08398532
154	0xbde83310	-0.113378644
155	0xbac2122c	-0.0014806441
156	0xbdd60838	-0.10450786
157	0xbece8f32	-0.40343624
158	0xbe454724	-0.19265419
159	0xbd8a3624	-0.06748608
160	0x3c924c45	0.017858634
161	0xbdf943ac	-0.121711105
162	0x3da2591b	0.07927152
163	0x3e3bfcae	0.18358108
164	0x3e3c7002	0.18402103
165	0xbd3ac112	-0.045594282
166	0xbe112163	-0.14172892
167	0x3d6a7fda	0.057250835
168	0x3e716741	0.23574544
169	0x3e221ff2	0.15832499
170	0x3db41600	0.08793259
171	0x3dc5b357	0.09653347
172	0x3de5810a	0.11206253
173	0xbe065748	-0.13119233
174	0xbc3f2157	-0.011665664
175	0xbd81e58e	-0.06342612
176	0x3e576e7b	0.21038239
177	0x3e10dc0e	0.14146444
178	0x3e03ddd5	0.12877591
179	0x3d7fb56b	0.062428873
180	0x3dcbbc09	0.09947974
181	0x3da731f2	0.08163823
182	0xbd849880	-0.064743996
183	0xbe3dc110	-0.18530679
184	0xbeb14e2c	-0.34629953
185	0xbe9f5c36	-0.3112504
186	0xbdc96089	-0.09832866
187	0xbdebe988	-0.11519152
188	0x3be19ac8	0.0068849064
189	0x3cfabac4	0.030606635
190	0xbcded114	-0.027199306
191	0x3d685f0e	0.056731276
192	0xbe52a0e0	-0.20569181
193	0x3e15f9a5	0.14646013
194	0xbd7df076	-0.0619969
195	0x3dac1028	0.08401519
196	0xbeaa49b4	-0.33259356
197	0xbdf92bb2	-0.12166537
198	0xbe135e13	-0.14391355
199	0x3e622153	0.22083025
200	0x3df9b112	0.121919766
201	0xbd852339	-0.06500859
202	0xbd8f23fc	-0.06989285
203	0xbdbb17a6	-0.0913537
204	0x3cf15cd1	0.029463204
205	0x3daf5a4a	0.08562143
206	0x3dd6ece8	0.10494405
207	0x3d261eb1	0.040556613
208	0x3e5c24db	0.21498434
209	0x3d9ef240	0.07761049
210	0x3e852654	0.26005805
211	0x3d4f14a7	0.050556805
212	0xbe4f4611	-0.20241572
213	0xbd137cb5	-0.0360076
214	0xbdb3cb82	-0.087790504
215	0x3d2b48ce	0.04181748
216	0x3e13bf4f	0.14428447
217	0xbe190cea	-0.14946333
218	0xbe97d357	-0.29653427
219	0xbda21248	-0.07913643
220	0x3e7fd47f	0.24983405
221	0x3d328d5e	0.04359185
222	0x3cf9aa52	0.030476723
223	0x3e4c78a2	0.19967893
224	0x3e5f586e	0.21811077
225	0xbca4dd92	-0.020125184
226	0xbdb21cc0	-0.0869689
227	0xbdce5b7f	-0.10076045
228	0x3cba500b	0.022743246
229	0xbdb318c1	-0.08744956
230	0xbde033c7	-0.10947376
231	0xbea827fe	-0.32843012
232	0x3e751556	0.2393392
233	0x3c57bb79	0.013167256
234	0x3d18002b	0.037109535
235	0xbe695b44	-0.22788721
236	0xbdadcb8d	-0.0848609
237	0xbd01ebac	-0.031718895
238	0x3e1789dc	0.14798683
239	0x3d8e8e0a	0.069606856
240	0x3e45c451	0.1931317
241	0x3d87154d	0.0659586
242	0xbe20e640	-0.15712833
243	0xbe180537	-0.1484574
244	0x3cb452d8	0.02201216
245	0xbdd65c43	-0.10466816
246	0xbd0a9daa	-0.033841766
247	0x3e6457d9	0.22299136
248	0x3b6fc940	0.003658846
249	0x3deabc2a	0.11461671
250	0x3e84ccab	0.259374
251	0x3c66a74d	0.014077974
252	0xbd3b8114	-0.045777395
253	0xbe1ba49c	-0.15199512
254	0xbe217c26	-0.15770015
255	0x3e08307a	0.13299742

model.backbone.layers.1.temporal.0.bias f4 [32]
0	0xbdc16dd1	-0.09444774
1	0xbd4cc26f	-0.049990114
2	0xbe7db515	-0.24776109
3	0xbe8c1c71	-0.2736545
4	0xbeb9e411	-0.36306813
5	0xbd596d61	-0.053082827
6	0xbedf6e45	-0.43638816
7	0xbf1a3f2f	-0.6025266
8	0xbe6327ba	-0.22183123
9	0xbdf43269	-0.119236775
10	0xbeacd4fa	-0.33756238
11	0xbf489c6a	-0.7836367
12	0xbe157c53	-0.14598207
13	0x3cb70074	0.022339083
14	0xbea4ca8e	-0.32185787
15	0xbe9c4f58	-0.30529284
16	0x3ce961ac	0.028488956
17	0xbdf5fe50	-0.12011397
18	0xbea96e08	-0.3309176
19	0xbdd7ac4b	-0.10530909
20	0xbe6511a3	-0.22370009
21	0xbf0409a7	-0.5157723
22	0xbd4f1ac1	-0.050562624
23	0xbde33fcd	-0.110961534
24	0xbee0d7da	-0.43914682
25	0xbee8b281	-0.45448688
26	0xbed422e4	-0.4143287
27	0xbee630fb	-0.44959244
28	0xbf15ad43	-0.584675
29	0xbf3b0b44	-0.73064065
30	0xbe2cff8d	-0.1689436
31	0xbd5decc4	-0.054180875
