experiments/AdversarialDomainAdaptation/saved_models/tsmixer_da_finetuned_2.pt (torch, 731002 bytes, 30 tensors)

model.backbone.static_proj.weight f4 [64, 10]
0.16336907 0.12140499 0.18283334 -0.2067703 0.10541922 0.1697812 -0.10945754 -0.15817371
0.28135124 0.21093555 0.3160431 0.15749158 0.17258614 -0.2558333 0.16271271 -0.08215667
0.044080768 0.15579514 0.16646455 -0.16205192 0.27733412 0.07942877 0.22212617 -0.005247051
0.014281391 -0.064560734 -0.2589917 0.18399616 0.15072702 -0.072229154 -0.21609011 0.18707108
-0.030166863 -0.060198937 0.18499199 -0.2324801 0.016815124 0.0239205 0.122487545 -0.095513016
-0.26500148 0.13759698 0.04391837 -0.22699784 -0.012496094 -0.26503956 0.16505583 -0.031472288
-0.24584948 0.107662015 -0.1604201 0.16045614 0.18983631 -0.27669176 -0.2216273 0.20707025
-0.2152479 0.1033046 0.12603244 -0.021945514 -0.1827632 0.045815676 0.11381202 0.21436234
0.25421464 -0.020656683 -0.01366999 -0.15035175 -0.024506442 -0.046087567 0.06879063 0.07704948
-0.236385 0.089986235 0.048385974 -0.04616301 -0.32448608 0.25957665 -0.24035677 0.027716517
-0.31904086 0.059728254 0.06763674 0.27423248 0.2552734 0.08368944 0.2060905 0.28006795
-0.071661286 -0.14243758 0.17027338 -0.08777683 0.058115177 -0.024132077 -0.2805001 -0.06430866
0.10017789 0.24146262 -0.08686471 -0.05932604 0.2065193 -0.1625021 -0.20633322 0.26887304
0.22810937 -0.16262592 -0.114172965 -0.11465662 0.3246129 -0.1593341 0.03294594 0.11619959
0.087398745 0.19207458 -0.26767862 -0.18880682 0.26336485 -0.26358718 -0.18355297 0.24012658
0.101846345 0.13194162 -0.26229775 0.1261398 0.123918936 0.08061859 -0.07073883 0.21436204
-0.042997085 0.1667354 -0.16184005 -0.2658568 0.19869082 -0.012672722 -0.13655402 0.106084354
0.19500627 -0.18982388 -0.25442186 -0.19003156 0.05358974 -0.11701216 0.26126954 -0.22089154
0.11904928 -0.2551596 -0.23228619 -0.19731545 -0.0595824 0.17270271 -0.23868825 -0.1638875
-0.15842837 -0.15117711 0.2790874 0.13292637 -0.09703967 -0.2565083 0.10365215 -0.02018245
0.13367976 0.16448775 0.21905653 -0.15695342 -0.06388793 0.17144261 0.26349255 0.10196059
0.09167721 0.21347865 0.1840395 -0.18217921 0.23932675 -0.11728756 -0.05575573 0.007940388
-0.08101662 0.09881297 0.24422675 -0.2159334 0.15746966 -0.19359912 0.19743526 -0.07097443
0.26093644 0.10300549 -0.062474012 -0.14911468 0.08774727 0.21795087 -0.24269009 -0.04621444
0.1309315 0.00017409623 -0.04701212 -0.1898236 0.092608534 -0.01867886 0.1382212 -0.042107396
-0.1426252 -0.03159076 -0.12035527 -0.14757462 -0.062056504 0.040634863 0.054597393 0.078905
0.12504174 -0.28561527 0.011473784 0.08112835 0.2861259 0.013479732 -0.1445298 -0.06694705
0.13121097 0.009453886 -0.12803711 -0.07041296 -0.21481916 -0.1948326 0.19399315 -0.1893543
0.21443316 -0.081830174 -0.054043937 0.17766154 -0.009716285 -0.23592508 -0.017993523 -0.20351475
-0.2386553 0.096509956 -0.04326328 -0.20638537 0.18849635 0.13919075 -0.03208123 -0.2520412
-0.24125057 0.2873967 0.11166355 0.23486921 0.00160763 0.041982807 0.29697818 -0.06537056
-0.1808457 0.27927104 0.25654766 -0.03529826 0.16451491 -0.029343838 -0.30639192 0.26145038
00000000: 394a 273e 2ea3 f83d aa38 3b3e 98bb 53be
00000010: 08e6 d73d 1fdb 2d3e 462b e0bd 4af8 21be
00000020: 450d 903e 7dff 573e 67d0 a13e 7945 213e
00000030: 6cba 303e 95fc 82be 299e 263e c241 a8bd
00000040: 098e 343d c388 1f3e af75 2a3e f0f0 25be
00000050: bdfe 8d3e 8dab a23d 0b75 633e 74ef abbb
00000060: 7ffc 693c 6b38 84bd 8f9a 84be 7d69 3c3e
00000070: 2f58 1a3e e1ec 93bd ba46 5dbe 908f 3f3e
00000080: 7f20 f7bc 2993 76bd 8a6e 3d3e 430f 6ebe
00000090: dfbf 893c edf4 c33c c0da fa3d 549c c3bd
000000a0: 46ae 87be 39e6 0c3e c0e3 333d 1f72 68be
000000b0: 6bbc 4cbc 44b3 87be 6504 293e 16e9 00bd
000000c0: f7bf 7bbe e77d dc3d 2b45 24be 9d4e 243e
000000d0: 7364 423e 8baa 8dbe 44f2 62be 390a 543e
000000e0: f269 5cbe 5d91 d33d a60e 013e 14c7 b3bc
000000f0: 4726 3bbe 38a9 3b3d 4716 e93d cd81 5b3e
00000100: 6c28 823e 3438 a9bc 18f8 5fbc cff5 19be
00000110: bcc1 c8bc 51c6 3cbd 1ae2 8c3d 1ecc 9d3d
00000120: e90e 72be b44a b83d 5f30 463d 6d15 3dbd
00000130: 0a23 a6be 3be7 843e 1620 76be c00d e33c
00000140: 5359 a3be 9da5 743d 2285 8a3d 3368 8c3e
00000150: 32b3 823e 5e65 ab3d 6309 533e 1165 8f3e
00000160: 27c3 92bd 28db 11be 255c 2e3e 57c4 b3bd
00000170: 2e0a 6e3d a2b0 c5bc b69d 8fbe 42b4 83bd
00000180: 112a cd3d fa41 773e 20e6 b1bd ddff 72bd
00000190: cc79 533e f366 26be 0449 53be baa9 893e
000001a0: 8195 693e 6987 26be 84d3 e9bd 17d1 eabd
000001b0: a933 a63e 7a28 23be 52f2 063d 0dfa ed3d
000001c0: 1dfe b23d 33af 443e 2c0d 89be 9356 41be
000001d0: c2d7 863e e6f4 86be 4ff5 3bbe bee3 753e
000001e0: d194 d03d b41b 073e e44b 86be cb2a 013e
000001f0: 36c9 fd3d 5c1b a53d 85df 90bd b981 5b3e
00000200: b61d 30bd afbc 2a3e 66b9 25be 621e 88be
00000210: 9b75 4b3e 40a1 4fbc d1d4 0bbe c142 d93d
00000220: b9af 473e 3161 42be 9543 82be a297 42be
00000230: ea80 5b3d 12a4 efbd 1fc5 853e 6431 62be
00000240: 1cd0 f33d 47a4 82be 6edc 6dbe 100d 4abe
00000250: ad0c 74bd fbd8 303e b16a 74be 20d2 27be
00000260: 0c3b 22be 2cce 1abe 8be4 8e3e da1d 083e
00000270: bcbc c6bd 0e55 83be 9447 d43d aa55 a5bc
00000280: 59e3 083e 7a6f 283e 5b50 603e 66b8 20be
00000290: add7 82bd a78e 2f3e 7fe8 863e b7d0 d03d
000002a0: 43c1 bb3d 269a 5a3e da74 3c3e 308d 3abe
000002b0: 1212 753e 7634 f0bd 1f60 64bd 6718 023c
000002c0: 0bec a5bd 745e ca3d 9416 7a3e a51d 5dbe
000002d0: ba3f 213e d93e 46be 782c 4a3e 0b5b 91bd
000002e0: 7699 853e 8bf4 d23d c0e4 7fbd 85b1 18be
000002f0: d7b4 b33d 832e 5f3e c083 78be 5a4b 3dbd
00000300: e812 063e 9a8d 3639 c88f 40bd 1e61 42be
00000310: 8ba9 bd3d 6904 99bc dc89 0d3e ce78 2cbd
00000320: 570c 12be 5065 01bd d37c f6bd cd1d 17be
00000330: f62e 7ebd be70 263d 84a1 5f3d f298 a13d
00000340: f10a 003e 2a3c 92be 8afc 3b3c 9f26 a63d
00000350: 187f 923e 18da 5c3c 9fff 13be 891b 89bd
00000360: 2b5c 063e 79e4 1a3c 291c 03be ac34 90bd
00000370: 8ef9 5bbe 3282 47be 24a6 463e 18e6 41be
00000380: 5e94 5b3e 9496 a7bd 2d5d 5dbd e8ec 353e
00000390: 0e31 1fbc 5896 71be 2767 93bc 2c66 50be
000003a0: 0e62 74be 03a7 c53d d634 31bd b056 53be
000003b0: 3005 413e 0588 0e3e 9c67 03bd 8b0b 81be
000003c0: 640a 77be a925 933e dcaf e43d 8e81 703e
000003d0: 1db7 d23a 2af6 2b3d 860d 983e 00e1 85bd
000003e0: 9d2f 39be 9dfc 8e3e 375a 833e e994 10bd
000003f0: 9976 283e 7d62 f0bc 67df 9cbe d3dc 853e

model.backbone.static_proj.bias f4 [64]
0.11451763 0.26624596 -0.2935751 -0.32970798 0.07177363 0.27649617 0.30801243 -0.019563776
-0.28333476 0.23760772 0.21684815 -0.10108124 -0.18242416 0.12510665 0.19287178 -0.28735137
0.2776327 0.022857359 0.11799601 -0.16511987 0.02549642 0.2494918 0.25844622 -0.14900967
0.24295995 0.1037969 0.061027244 0.19080734 -0.24383658 -0.09518705 0.19969782 -0.2061903
0.03608409 -0.02559793 -0.15309617 -0.06971689 0.18512699 -0.043218583 -0.11940179 -0.1045092
0.31225252 -0.16071461 -0.19191024 0.0046069976 -0.019238418 -0.037076626 -0.1655558 -0.22575025
0.051458016 -0.041511443 -0.13351572 0.048197825 0.13154739 0.06250617 0.073023856 0.12879537
0.23986207 -0.099862635 -0.10349438 0.1913215 0.017679846 0.19744395 0.09106664 0.20430899
00000000: 3888 ea3d 6451 883e 7a4f 96be 7ccf a8be
00000010: 0efe 923d e890 8d3e ceb3 9d3e 3644 a0bc
00000020: 4111 91be 704f 733e 710d 5e3e ae03 cfbd
00000030: 66cd 3abe f51b 003e 2e80 453e b81f 93be
00000040: e025 8e3e 5b3f bb3c e4a7 f13d 2f15 29be
00000050: dedd d03c c77a 7f3e 1053 843e fe95 18be
00000060: 7eca 783e 7893 d43d b4f7 793d 0063 433e
00000070: 4cb0 79be 6ef1 c2bd 967d 4c3e 8d23 53be
00000080: e9cc 133d c0b2 d1bc 3ec5 1cbe bbc7 8ebd
00000090: ee91 3d3e f805 31bd ed88 f4bd eb08 d6bd
000000a0: 90df 9f3e 5f92 24be 1e84 44be 4cf6 963b
000000b0: e399 9dbc a9dd 17bd 7687 29be 132b 67be
000000c0: a4c5 523d e707 2abd 58b8 08be 156b 453d
000000d0: 5cb4 063e 3c03 803d 888d 953d efe2 033e
000000e0: 679e 753e c884 ccbd ddf4 d3bd c9e9 433e
000000f0: 53d5 903c bf2e 4a3e 2681 ba3d 6036 513e

model.backbone.layers.0.temporal.0.weight f4 [32, 64]
-0.12844266 0.040499505 0.026384307 -0.0069651236 0.036512315 0.010625383 -0.0918197 0.023540622
0.03102749 0.02953684 -0.019056173 -0.06650264 0.0101235965 -0.09270779 -0.060765292 0.058664925
0.01703062 -0.117749445 -0.05292751 -0.13083364 0.096847996 -0.023238866 0.019887216 -0.09360647
-0.03717341 0.014121219 0.09617431 0.0227706 -0.025937531 0.047878187 -0.067433774 0.06458638
-0.08941481 -0.08761366 0.009549643 -0.07270403 0.071385436 -0.11656235 -0.03970799 0.008911805
-0.010128148 -0.1001669 0.098702036 -0.008866428 -0.12082533 -0.0062314356 0.08171944 0.089740016
-0.052744433 -0.15099928 0.021338284 -0.09434336 -0.13988739 0.0025664726 0.079884045 -0.12412466
0.083330184 0.085031755 -0.057538707 -0.14626822 -0.0038446866 -0.08854671 -0.047706127 0.05426974
-0.060972475 -0.055863146 -0.011882088 -0.001491806 0.044168085 -0.051059246 -0.10062573 -0.06997714
-0.0947895 -0.04552549 0.038100097 -0.10987968 -0.09022841 0.05341801 -0.05516841 -0.1027072
0.09788778 0.01572733 -0.10011338 -0.120878205 0.07724764 0.049490567 -0.050044704 -0.13980083
-0.09088415 -0.058969766 -0.076318644 -0.1333705 0.015027198 0.0510475 -0.12424725 0.03607862
-0.12698321 -0.03200903 0.04350389 0.016074779 -0.06710632 0.0138094155 0.106765434 -0.121946454
-0.011894048 0.0035393927 0.10642239 0.029830303 -0.029364087 0.10303786 0.011941717 0.009317986
-0.0482733 -0.051795438 -0.13119148 -0.1210922 0.08357108 0.05600983 0.049242806 0.09801935
0.03944461 -0.0601337 0.02307244 -0.04978969 0.038798586 -0.08625844 -0.075498186 0.08507766
0.06991567 -0.050667208 -0.11625145 0.05208666 -0.0006530857 -0.01405613 -0.08121242 0.048961632
-0.0057128775 -0.04507644 0.0932651 -0.05034444 0.10359121 0.010748482 -0.11345642 -0.07381804
-0.0906787 -0.0048840772 -0.031587243 -0.07652657 -0.07416452 -0.031972624 -0.07069622 -0.0051234993
-0.035703246 0.044026468 -0.12385432 -0.031630024 -0.006420148 -0.0494552 0.092919745 -0.12158899
0.06170592 -0.09355156 -0.09721246 -0.08607644 -0.010250003 0.029577715 -0.13042481 -0.028952919
0.061164178 0.07417448 0.043524437 0.050090823 -0.040528145 -0.09421185 -0.062518 -0.082878
0.05101709 -0.11192069 -0.004190985 -0.091036946 -0.1411223 0.050694853 -0.08080945 0.090096295
0.02857698 0.10089506 -0.11427542 0.044465363 0.010818173 -0.07045407 0.013515808 -0.03536391
0.063126 0.04580606 0.053149097 0.0003228727 -0.08939922 0.09117867 0.03554309 -0.0838622
0.00055771397 0.029690467 -0.11334973 -0.039847728 0.085838966 -0.09102582 -0.11149514 -0.043214593
-0.030143421 -0.0794629 -0.05577252 -0.008927667 0.097298555 -0.015665475 -0.09021545 -0.04686416
-0.080587745 -0.029587416 -0.03699061 -0.095058545 -0.12690292 0.02460288 0.059167985 -0.037041906
-0.074417956 0.07801558 -0.14039698 0.05010664 0.037655145 0.09953963 -0.14521271 -0.012976897
-0.135628 0.07597254 -0.10825324 -0.009228021 -0.09416874 -0.13968085 -0.089052245 0.0155454185
0.009674672 0.07057517 -0.056260962 -0.06453083 0.05124302 0.0021712917 -0.12099408 -0.074816376
0.07704635 -0.112160884 -0.046077266 -0.01745951 0.09935711 -0.12957926 -0.07439541 0.058739305
00000000: 7986 03be cfe2 253d e723 d83c b13b e4bb
00000010: f08d 153d 1616 2e3c f80b bcbd 43d8 c03c
00000020: 5d2d fe3c 3ef7 f13c b11b 9cbc 8932 88bd
00000030: 71dd 253c 95dd bdbd 07e5 78bd a24a 703d
00000040: cc83 8b3c 9f26 f1bd 84ca 58bd 41f9 05be
00000050: 3e58 c63d 6f5f bebc 84ea a23c c0b4 bfbd
00000060: 2543 18bd af5c 673c 09f7 c43d 6989 ba3c
00000070: f27a d4bc eb1b 443d b81a 8abd dd45 843d
00000080: 1d1f b7bd ca6e b3bd 1b76 1c3c dae5 94bd
00000090: 8732 923d 3eb8 eebd d8a4 22bd d202 123c
000000a0: 88f0 25bc 4e24 cdbd 4b24 ca3d 7f44 11bc
000000b0: 4573 f7bd 1231 ccbb 865c a73d 9dc9 b73d
000000c0: 8c0a 58bd 8e9f 1abe a0cd ae3c 1737 c1bd
000000d0: a43e 0fbe 4432 283b 3f9a a33d 1235 febd
000000e0: 04a9 aa3d 2125 ae3d b5ad 6bbd 56c7 15be
000000f0: 23f7 7bbb fa57 b5bd 8067 43bd f249 5e3d
00000100: 46be 79bd c1d0 64bd 17ad 42bc b488 c3ba
00000110: 98e9 343d 8023 51bd dd14 cebd 2d50 8fbd
00000120: ff20 c2bd f078 3abd d90e 1c3d 9908 e1bd
00000130: acc9 b8bd d8cc 5a3d 45f8 61bd 2758 d2bd
00000140: 6379 c83d 9ad6 803c 3e08 cdbd fe8e f7bd
00000150: 0334 9e3d 9fb6 4a3d adfb 4cbd f327 0fbe
00000160: 7821 babd 488a 71bd f34c 9cbd 4792 08be
00000170: a334 763c 2f17 513d 5875 febd 2dc7 133d
00000180: e307 02be e71b 03bd 2331 323d 41af 833c
00000190: 0a6f 89bd e340 623c d6a7 da3d 10bf f9bd
000001a0: 41df 42bc 28f5 673b fbf3 d93d ae5e f43c
000001b0: f48c f0bc 8305 d33d 31a7 433c 77aa 183c
000001c0: 39ba 45bd 7427 54bd 0f57 06be 30ff f7bd
000001d0: 5027 ab3d 906a 653d d3b2 493d 5ebe c83d
000001e0: ac90 213d c14e 76bd 6a02 bd3c 46f0 4bbd
000001f0: 44eb 1e3d 44a8 b0bd cb9e 9abd 323d ae3d
00000200: f22f 8f3d 6b88 4fbd 3d15 eebd d258 553d
00000210: d733 2bba af4b 66bc b252 a6bd fe8b 483d
00000220: 1733 bbbb 13a2 38bd c601 bf3d f935 4ebd
00000230: a127 d43d 671a 303c d75b e8bd ea2d 97bd
00000240: c1b5 b9bd 9c0a a0bb a061 01bd f6b9 9cbd
00000250: 91e3 97bd baf5 02bd 2ec9 90bd 07e3 a7bb
00000260: 913d 12bd 1955 343d 55a7 fdbd 7c8e 01bd
00000270: 1b60 d2bb 8991 4abd b54c be3d a603 f9bd
00000280: 59bf 7c3d f697 bfbd 5417 c7bd d848 b0bd
00000290: a1ef 27bc f74c f23c 158e 05be ac2e edbc
000002a0: 4a87 7a3d cae8 973d ae46 323d 092c 4d3d
000002b0: d700 26bd 24f2 c0bd 7009 80bd f1bb a9bd
000002c0: 4cf7 503d ad36 e5bd 8854 89bb 9471 babd
000002d0: 5d82 10be 68a5 4f3d 6d7f a5bd 6884 b83d
000002e0: 451a ea3c 12a2 ce3d 3b09 eabd 5021 363d
000002f0: b53e 313c 394a 90bd 6871 5d3c bfd9 10bd
00000300: 3448 813d 239f 3b3d deb2 593d 3d47 a939
00000310: f016 b7bd e2bb ba3d a295 113d f2bf abbd
00000320: 8d33 123a 6c39 f33c e723 e8bd 5f37 23bd
00000330: 57cc af3d bf6b babd 9057 e4bd c901 31bd
00000340: 56ef f6bc 72bd a2bd ba71 64bd 5945 12bc
00000350: 7744 c73d e254 80bc e1c2 b8bd a2f4 3fbd
00000360: 300b a5bd 4f61 f2bc 7783 17bd 0eae c2bd
00000370: d7f2 01be fb8b c93c 215a 723d 41b9 17bd
00000380: 7168 98bd a2c6 9f3d 3ac4 0fbe 9f3c 4d3d
00000390: 483c 1a3d 6fdb cb3d a4b2 14be 0d9d 54bc
000003a0: 11e2 0abe 7e97 9b3d e0b3 ddbd 2031 17bc
000003b0: 8adb c0bd 7f08 0fbe 0661 b6bd 36b2 7e3c
000003c0: 8482 1e3c b789 903d e571 66bd bd28 84bd
000003d0: 33e4 513d 3b4c 0e3b bfcb f7bd 5439 99bd
000003e0: 7aca 9d3d 9bb4 e5bd 84bb 3cbd 3f07 8fbc
000003f0: be7b cb3d 6db0 04be 9f5c 98bd a098 703d

model.backbone.layers.0.temporal.0.bias f4 [32]
-0.06838679 -0.09936676 0.10348746 0.111995414 0.053200062 0.11283817 -0.07200292 -0.05785864
0.07643249 -0.10858898 0.11596645 -0.015086799 -0.04784909 -0.0013617175 -0.06376264 0.08996374
-0.09640849 -0.095396355 0.069948204 -0.022985052 0.029698702 0.052170932 0.03242327 0.0007299152
-0.12042146 0.13865206 -0.00797648 0.07101536 -0.012086266 0.020648308 0.00036116788 -0.04864049
00000000: 600e 8cbd cd80 cbbd 3cf1 d33d da5d e53d
00000010: 4fe8 593d b317 e73d 4476 93bd 2efd 6cbd
00000020: a388 9c3d e663 debd d17f ed3d 9f2e 77bc
00000030: 68fd 43bd a87b b2ba fd95 82bd e93e b83d
00000040: d071 c5bd 2a5f c3bd 0141 8f3d 264b bcbc
00000050: b14a f33c 30b1 553d 43ce 043d c857 3f3a
00000060: 879f f6bd cefa 0d3e c8af 02bc 8070 913d
00000070: 7905 46bc a426 a93c 225b bd39 403b 47bd

model.backbone.layers.0.temporal.2.weight f4 [64, 32]
0.15287575 0.00027980423 0.17366265 0.039841194 0.13006668 0.15662543 0.0538293 0.07819474
0.060105473 0.022891104 -0.16665071 -0.06374427 -0.049455952 0.06646219 -0.20041592 -0.20167823
-0.05448229 0.057377394 -0.1732376 0.12961046 -0.0600292 0.0034977216 0.10785378 0.13177024
0.0072840746 -0.17017917 0.01803687 -0.108818226 -0.0019166518 -0.12804426 0.16370879 -0.032343272
0.13517372 0.06000083 0.08139415 0.19302835 0.05038221 -0.1369519 0.14007485 -0.052137505
0.03320217 0.08213413 0.13469033 0.06714465 -0.13920668 0.0020224182 -0.041031677 -0.024947397
0.08356842 0.10934403 -0.17816484 -0.069936596 -0.07614807 -0.033343002 -0.19759348 0.15440214
-0.16898085 0.11967257 -0.14664505 0.18558234 -0.101600505 0.07348532 0.11426127 -0.0042958613
-0.134399 -0.02855734 -0.07633088 -0.0695884 0.04500026 0.17425466 -0.029259713 -0.06642387
0.046444047 -0.10722457 -0.045565125 0.12743245 0.063690566 0.13345417 0.113025546 0.15315586
-0.04106707 -0.039109614 -0.18542242 -0.16359925 0.12491171 -0.13825913 -0.09152356 0.03047949
0.024023624 -0.11966461 0.002905671 -0.11965208 -0.03260048 -0.09764017 -0.12372615 0.105941154
0.03321828 -0.0103557855 0.09511017 0.036854673 0.16769722 0.008144026 0.15360475 -0.13178003
0.12831959 0.033229303 -0.006338234 -0.027501198 0.11823275 0.18389773 -0.15770987 0.085543014
-0.0715708 0.1363723 -0.015972557 0.047991343 -0.074822925 -0.021484401 -0.027304228 -0.11431064
-0.11655048 -0.18553306 0.1187755 0.09076155 -0.014622582 0.09137395 0.020261928 -0.10929494
-0.07889854 0.022085385 0.15157983 0.14733417 -0.046799675 -0.051275212 0.16965097 -0.030067734
0.09631644 -0.05900172 0.062030345 -0.19762492 -0.043078363 0.07030968 -0.16403928 0.14955811
-0.15014382 0.04488695 -0.08038461 -0.14726935 -0.15683821 -0.20814441 0.1283226 0.117162704
0.076245554 0.113829136 0.088204876 0.0053399904 0.12199544 0.14161533 -0.028821839 0.103201374
0.10174887 0.085056715 -0.13657822 0.052838627 -0.028957056 -0.014481678 0.08885606 -0.13828258
-0.1425668 -0.061605353 -0.06895297 -0.058830027 0.05828739 0.16557159 -0.041947003 0.0501386
-0.02724738 0.14498512 -0.05457055 0.14554194 0.06442232 -0.16235676 0.10802514 0.11116115
-0.022362806 -0.07832123 -0.067150764 0.07038212 -0.06077133 -0.1477361 0.11275075 -0.06564604
0.062106866 0.19978423 -0.01392339 0.14521241 0.17949319 -0.054696336 0.1398319 0.0585545
0.1324953 0.062870815 -0.1006366 -0.16471666 0.048560902 -0.028887408 -0.092836134 -0.15095286
-0.078521036 0.06573994 0.05774366 -0.14125635 0.07465604 -0.062102813 -0.008240007 0.06325022
0.06769651 -0.0135514885 -0.0750537 0.012616374 0.1204617 0.09816037 0.06336335 0.031891204
-0.13277315 0.10608363 -0.0558987 0.077559754 0.09093186 0.12595333 0.059669234 -0.022716146
-0.025262251 0.1807065 -0.18461038 -0.035448764 0.16471982 0.16915894 -0.1353778 0.0146165015
-0.0543207 0.070644036 0.13481888 0.08800929 0.11627937 -0.111817665 -0.12198851 -0.11966276
-0.07881003 0.09570705 -0.006482527 -0.05143878 0.087417796 -0.011227417 -0.039870683 0.015928214
00000000: 768b 1c3e b0b2 9239 9fd4 313e 8530 233d
00000010: 3330 053e 6b62 203e 1d7c 5c3d 9024 a03d
00000020: 2831 763d 2086 bb3c 7ca6 2abe 5b8c 82bd
00000030: 5392 4abd 541d 883d d539 4dbe bd84 4ebe
00000040: d228 5fbd 8f04 6b3d 3365 31be 9bb8 043e
00000050: 2ee1 75bd 083a 653b 71e2 dc3d c7ee 063e
00000060: 3faf ee3b 7343 2ebe 0fc2 933c 17dc debd
00000070: 2a38 fbba 091e 03be 47a3 273e 617a 04bd
00000080: fb6a 0a3e 6ec3 753d fab1 a63d 39a9 453e
00000090: 945d 4e3d 1e3d 0cbe c86f 0f3e 238e 55bd
000000a0: 00ff 073d f035 a83d 43ec 093e 2283 893d
000000b0: 328c 0ebe 8c8a 043b d510 28bd 7c5e ccbc
000000c0: eb25 ab3d c3ef df3d d870 36be eb3a 8fbd
000000d0: 85f3 9bbd ac92 08bd f255 4abe 981b 1e3e
000000e0: 5109 2dbe e416 f53d 1f2a 16be 4c09 3e3e
000000f0: ed13 d0bd 797f 963d d001 ea3d 4cc4 8cbb
00000100: e49f 09be 15f1 e9bc 5d53 9cbd 5d84 8ebd
00000110: 3152 383d d06f 323e 11b2 efbc 3d09 88bd
00000120: 1d3c 3e3d 8e98 dbbd 7fa2 3abd a77d 023e
00000130: 3370 823d 36a8 083e f079 e73d e4d4 1c3e
00000140: f235 28bd 6731 20bd 60df 3dbe 9086 27be
00000150: b6d1 ff3d cd93 0dbe b470 bbbd 20b0 f93c
00000160: 31cd c43c b812 f5bd 126d 3e3b 260c f5bd
00000170: 1588 05bd 92f7 c7bd 2364 fdbd adf7 d83d
00000180: e40f 083d 50ab 29bc 1fc9 c23d edf4 163d
00000190: d2b8 2b3e 856e 053c 904a 1d3e 58f1 06be
000001a0: 3666 033e 731b 083d f6b0 cfbb 314a e1bc
000001b0: 0324 f23d b04f 3c3e b27e 21be 2d31 af3d
000001c0: b693 92bd 2ea5 0b3e e1d8 82bc 9292 443d
000001d0: c33c 99bd 0e00 b0bc 1ead dfbc b21b eabd
000001e0: 05b2 eebd 61fc 3dbe 9240 f33d 31e1 b93d
000001f0: 8e93 6fbc 4422 bb3d 58fc a53c 07d6 dfbd
00000200: 8f95 a1bd 69ec b43c be37 1b3e c5de 163e
00000210: 04b1 3fbd f505 52bd fcb8 2d3e 9c50 f6bc
00000220: 8e41 c53d caab 71bd 8813 7e3d 305e 4abe
00000230: f072 30bd 86fe 8f3d eaf9 27be c325 193e
00000240: 4dbf 19be 61db 373d b0a0 a4bd c7cd 16be
00000250: 329a 20be cf23 55be 0067 033e 00f3 ef3d
00000260: a126 9c3d 401f e93d c2a4 b43d 16fb ae3b
00000270: bfd8 f93d 9c03 113e c71b ecbc 3e5b d33d
00000280: b661 d03d 3732 ae3d 29db 0bbe 516d 583d
00000290: 5937 edbc 8f44 6dbc 2afa b53d f399 0dbe
000002a0: 08fd 11be e555 7cbd 3737 8dbd c1f7 70bd
000002b0: c2be 6e3d 998b 293e 9fd0 2bbd 225e 4d3d
000002c0: e635 dfbc fb76 143e 5e85 5fbd f208 153e
000002d0: d9ef 833d da40 26be 493c dd3d 75a8 e33d
000002e0: 3432 b7bc e266 a0bd 5786 89bd 8024 903d
000002f0: 5ceb 78bd 2248 17be dde9 e63d 6e71 86bd
00000300: c563 7e3d 3d94 4c3e ee1e 64bc 90b2 143e
00000310: 10cd 373e 4409 60bd 1830 0f3e d8d6 6f3d
00000320: d9ac 073e 6ac2 803d 901a cebd 7cab 28be
00000330: cce7 463d 49a5 ecbc df20 bebd 6393 1abe
00000340: a3cf a0bd a9a2 863d 9e84 6c3d 81a5 10be
00000350: 44e5 983d 855f 7ebd 1801 07bc 5589 813d
00000360: 78a4 8a3d 1007 5ebc c1b5 99bd e8b4 4e3c
00000370: a0b4 f63d 4e08 c93d a5c4 813d 5aa0 023d
00000380: aff5 07be 6042 d93d 09f6 64bd a6d7 9e3d
00000390: 7c3a ba3d e9f9 003e ba67 743d 3617 babc
000003a0: c8f2 cebc 200b 393e 810a 3dbe b932 11bd
000003b0: 50ac 283e 0038 2d3e 7aa0 0abe 0d7a 6f3c
000003c0: 627f 5ebd d2ad 903d f60d 0a3e 373e b43d
000003d0: e123 ee3d a900 e5bd 1dd5 f9bd c011 f5bd
000003e0: 2767 a1bd 0f02 c43d 616b d4bb 78b1 52bd
000003f0: 1a08 b33d 33f3 37bc 714f 23bd e37b 823c

model.backbone.layers.0.temporal.2.bias f4 [64]
-0.007941101 -0.060587358 0.16160479 -0.08144876 -0.10907673 0.069276154 -0.017347617 -0.14466769
-0.025720464 0.041235182 0.077936925 0.16503584 -0.17992252 -0.09193955 0.016981564 -0.09688122
-0.015687905 -0.11166296 -0.13962965 0.06033876 -0.042370953 -0.082641214 -0.13201194 0.086632036
-0.04918011 -0.08534697 0.03555871 0.14765567 0.13043503 -0.040159848 0.03275118 -0.07955921
-0.06567961 -0.19644049 0.122762464 6.276328e-05 0.051294982 -0.015950833 0.04991183 0.065437086
0.09094396 0.079006255 -0.035555862 0.13056897 0.15421338 -0.10214888 -0.032822706 -0.1873198
0.09907327 0.09369653 0.16947725 -0.1360199 -0.07747255 0.10887198 -0.16441663 0.17337574
0.09294616 0.1734791 -0.16216289 0.0213507 0.014638655 0.10942086 -0.011746553 -0.037751853
00000000: 641b 02bc 732a 78bd ba7b 253e 9cce a6bd
00000010: 9f63 dfbd a8e0 8d3d 971c 8ebc c423 14be
00000020: b9b3 d2bc 39e6 283d 659d 9f3d 28ff 283e
00000030: 9c3d 38be ce4a bcbd ec1c 8b3c a969 c6bd
00000040: ec83 80bc 8daf e4bd 13fb 0ebe c725 773d
00000050: 2a8d 2dbd cc3f a9bd 232e 07be 236c b13d
00000060: 1571 49bd 64ca aebd 03a6 113d 0c33 173e
00000070: c390 053e a77e 24bd 1a26 063d f0ef a2bd
00000080: 0883 86bd b227 49be e36a fb3d c89f 8338
00000090: b01a 523d 52ab 82bc 5970 4c3d e103 863d
000000a0: d440 ba3d 08ce a13d 06a3 11bd dfb3 053e
000000b0: 1dea 1d3e 6f33 d1bd 1a71 06bd c3d0 3fbe
000000c0: ede6 ca3d f7e3 bf3d 728b 2d3e cd48 0bbe
000000d0: eea9 9ebd 46f8 de3d d55c 28be 6989 313e
000000e0: 8e5a be3d 81a4 313e 070e 26be aae7 ae3c
000000f0: f8d6 6f3c 0b18 e03d 9d74 40bc b0a1 1abd

model.backbone.layers.0.channel.0.weight f4 [32, 74]
0.022499483 0.08230134 0.058361057 0.20732994 0.00052211236 -0.062156837 0.045201905 0.026610745
-0.014479016 -0.13283606 0.033965163 -0.083238535 0.03937317 -0.09391069 0.12149443 -0.05134502
0.008159904 0.032433517 -0.045615505 -0.07996464 -0.08028997 -0.057285633 -0.13289854 -0.08269713
-0.04567061 -0.10296987 0.086701274 0.014028713 -0.023432378 0.10668359 0.04468459 -0.00739206
0.0969576 -0.11378464 -0.062670164 0.025625614 -0.049941685 -0.04774593 0.026413905 -0.019387608
-0.040377088 -0.08852298 -0.06014428 0.022402696 -0.1274659 -0.06698662 -0.067296006 -0.14432853
-0.19009483 0.11334063 -0.106719755 -0.09961786 0.07739767 -0.08014235 0.06350318 -0.09216897
-0.03597983 0.07212246 0.011633072 -0.031728473 0.075992435 0.08600172 -0.0001375203 -0.06309309
0.04379321 -0.019268226 -0.019530762 0.05788798 -0.0016416862 0.089468144 -0.10536154 -0.04343184
0.1378835 -0.004070861 -0.008797909 -0.014228428 0.017136626 -0.14688496 -0.032388348 0.06025115
-0.06523054 0.13130102 -0.026528522 -0.07231889 -0.030182755 0.06701354 -0.047133 0.09124338
-0.053905528 0.020427804 0.0717887 0.029994635 -0.13388386 -0.1412724 -0.1447298 0.05324994
0.063660294 0.033212215 0.010647631 0.09628074 0.11974347 -0.10853748 -0.07233609 0.0056780092
-0.026384301 0.04903792 -0.07284393 -0.097924046 -0.040556002 -0.032868583 0.12098386 -0.063780695
-0.04478795 -0.062193986 -0.06333329 0.07138776 0.087222494 -0.028786931 -0.09582063 0.0040529543
-0.013692918 -0.13554555 -0.070031114 0.0026065079 0.015323966 -0.028087337 0.018164653 -0.084263034
-0.10142943 -0.10523761 0.0997385 0.09700939 0.10408425 -0.07511032 -0.092754774 -0.002778552
0.054071847 0.07335986 -0.09129897 -0.04288853 0.011940719 -0.0795364 0.0067929523 0.08655182
-0.0696533 0.13150603 0.097531185 -0.0036206362 0.10535643 -0.0887541 -0.08859835 0.032268032
-0.08334989 0.054004747 -0.03196563 0.024275096 0.11849002 0.056147497 -0.04018005 -0.027336027
-0.10780951 -0.05767482 -0.0016966407 -0.09215206 -0.025689417 0.07455187 -0.077041134 0.09363229
0.10918749 -0.048657868 0.084664516 -0.06420143 -0.0044527156 0.08845651 -0.01627054 0.13475986
0.09533629 0.042079836 -0.086360045 -0.07942111 -0.057872612 0.058299273 0.01871835 0.11619701
-0.078578025 0.11812703 -0.04580605 -0.03200304 0.045045216 -0.037789587 0.02628066 0.06319592
-0.04286914 -0.01986112 0.097098686 0.11951329 -0.03545827 0.017153362 0.06709022 -0.03357888
-0.054348987 -0.08588911 0.04440725 -0.045454975 -0.03349143 0.08106104 -0.05549048 -0.0184258
0.033083413 0.07382863 -0.04635963 -0.05718992 -0.04283034 -0.04329607 0.09691838 0.09233257
0.03390432 0.06813853 0.12933852 0.037869498 -0.055742536 0.033301376 0.039642453 0.012418911
-0.026140453 -0.08234988 0.120303236 -0.020093009 -0.030175548 -0.020442829 -0.038719002 -0.004933766
0.023003155 0.05277389 0.089055784 0.036545586 0.0077719362 0.09621343 -0.09601153 0.034757752
0.075581424 0.014272173 0.058054116 -0.09226928 -0.020959683 -0.1094936 0.06561258 0.111265026
0.04039732 -0.04860345 -0.021671897 -0.090925425 -0.0055784057 -0.037186597 -0.09404192 0.07619911
00000000: d650 b83c 9b8d a83d 010c 6f3d 4d4e 543e
00000010: 5ede 083a 2b98 7ebd a225 393d c7fe d93c
00000020: 6539 6dbc 2d06 08be 0e1f 0b3d f778 aabd
00000030: c345 213d 3f54 c0bd 12d2 f83d 284f 52bd
00000040: 1eb1 053c 02d9 043d 53d7 3abd 80c4 a3bd
00000050: 116f a4bd 57a4 6abd 8e16 08be 1d5d a9bd
00000060: 1b11 3bbd dee1 d2bd 7090 b13d b0d8 653c
00000070: 42f5 bfbc ed7c da3d 3007 373d 1839 f2bb
00000080: b591 c63d ec07 e9bd 3759 80bd cfec d13c
00000090: a78f 4cbd 3c91 43bd f961 d83c c3d2 9ebc
000000a0: 7262 25bd 894b b5bd d959 76bd dc85 b73c
000000b0: 6c86 02be 4830 89bd 7dd2 89bd dcca 13be
000000c0: 38a8 42be 221f e83d e38f dabd 7304 ccbd
000000d0: ab82 9e3d ac21 a4bd f50d 823d 16c3 bcbd
000000e0: 965f 13bd f1b4 933d a498 3e3c b7f5 01bd
000000f0: eca1 9b3d ab21 b03d 5333 10b9 f336 81bd
00000100: 8260 333d 66d8 9dbc fafe 9fbc f21b 6d3d
00000110: d92d d7ba 133b b73d cbc7 d7bd 96e5 31bd
00000120: 5531 0d3e db64 85bb 1b25 10bc 5a1e 69bc
00000130: 1c62 8c3c 0369 16be a5a9 04bd e9c9 763d
00000140: 9797 85bd c673 063e 5852 d9bc ed1b 94bd
00000150: d341 f7bc 653e 893d 880e 41bd cfdd ba3d
00000160: 0bcc 5cbd 3658 a73c f405 933d 4fb7 f53c
00000170: da18 09be b6a9 10be 0c34 14be 9c1c 5a3d
00000180: 5460 823d 8809 083d 6773 2e3c d62e c53d
00000190: 103c f53d e648 debd f224 94bd 980e ba3b
000001a0: e423 d8bc fcdb 483d 332f 95bd 678c c8bd
000001b0: 0d1e 26bd 35a1 06bd 63c6 f73d 749f 82bd
000001c0: 9273 37bd 1fbf 7ebd e2b4 81bd bf33 923d
000001d0: b5a1 b23d 92d2 ebbc 9b3d c4bd a5ce 843b
000001e0: 4358 60bc 74cc 0abe 796c 8fbd f2d1 2a3b
000001f0: 5f11 7b3c 6a17 e6bc 0ace 943c 1992 acbd
00000200: 3cba cfbd d186 d7bd b343 cc3d dcac c63d
00000210: 202a d53d 70d3 99bd 37f6 bdbd 5e18 36bb
00000220: 717a 5d3d b23d 963d f4fa babd e2ab 2fbd
00000230: 01a3 433c fbe3 a2bd 6a97 de3b 1542 b13d
00000240: 64a6 8ebd 84a9 063e 6ebe c73d 3248 6dbb
00000250: 1dc5 d73d b6c4 b5bd 0d73 b5bd 7c2b 043d
00000260: 59b3 aabd 1534 5d3d 64ee 02bd 91dc c63c
00000270: e5aa f23d ebfa 653d d693 24bd ceef dfbc
00000280: 3bcb dcbd 6f3c 6cbd d161 deba 38ba bcbd
00000290: 9d72 d2bc a7ae 983d bec7 9dbd 49c2 bf3d
000002a0: b19d df3d 794d 47bd 9764 ad3d 0a7c 83bd
000002b0: 16e8 91bb b028 b53d cc49 85bc 7dfe 093e
000002c0: ac3f c33d e85b 2c3d 89dd b0bd 89a7 a2bd
000002d0: d50b 6dbd 38cb 6e3d 3a57 993c b3f8 ed3d
000002e0: 84ed a0bd 96ec f13d 209f 3bbd 9f15 03bd
000002f0: 5581 383d 41c9 1abd 8a4a d73c dd6c 813d
00000300: 8d97 2fbd cab3 a2bc addb c63d 62c3 f43d
00000310: b13c 11bd 3585 8c3c 9966 893d 028a 09bd
00000320: 0b9d 5ebd a1e6 afbd 60e4 353d ff2e 3abd
00000330: 4f2e 09bd 5503 a63d fc49 63bd b4f1 96bc
00000340: 7982 073d 7733 973d 98e3 3dbd fa3f 6abd
00000350: de6e 2fbd 3857 31bd 257d c63d dc18 bd3d
00000360: 42df 0a3d 378c 8b3d 5171 043e 0c1d 1b3d
00000370: 4952 64bd 0667 083d 2060 223d b078 4b3c
00000380: 8124 d6bc 0ea7 a8bd 8b61 f63d 189a a4bc
00000390: b632 f7bc b877 a7bc d197 1ebd 6eab a1bb
000003a0: 1d71 bc3c 6f29 583d e162 b63d d3b0 153d
000003b0: baab fe3b 8c0b c53d b1a1 c4bd 255e 0e3d
000003c0: 6fca 9a3d d5d5 693c 27ca 6d3d adf7 bcbd
000003d0: a4b3 abbc 2e3e e0bd e35f 863d ebde e33d
000003e0: a977 253d 6914 47bd 4389 b1bc 1c37 babd
000003f0: 0fcb b6bb f950 18bd 0d99 c0bd 470e 9c3d

model.backbone.layers.0.channel.0.bias f4 [32]
-0.02706524 0.066018924 -0.061633546 -0.072353505 -0.025110317 0.012838824 0.06323947 -0.007331798
-0.026991535 -0.097179845 0.03640424 -0.019608382 0.013405354 -0.053302255 -0.032902338 0.006349124
0.12128056 -0.09883892 0.06740695 -0.040598378 -0.14789599 -0.00041313763 -0.042549722 -0.059876
-0.031687412 -0.028931865 0.065419585 -0.024440454 -0.062866926 0.11945573 0.03432175 -0.049581777
00000000: ecb7 ddbc ee34 873d 7573 7cbd 132e 94bd
00000010: 27b4 cdbc ee59 523c b283 813d 943f f0bb
00000020: 5a1d ddbc 3a06 c7bd 9d1c 153d c2a1 a0bc
00000030: 21a2 5b3c 7753 5abd 9ac4 06bd 500c d03b
00000040: f161 f83d 0f6c cabd a80c 8a3d 7c4a 26bd
00000050: 0c72 17be 659a d8b9 9e48 2ebd 8940 75bd
00000060: a9ca 01bd 8502 edbc b4fa 853d 5937 c8bc
00000070: 60c0 80bd 35a5 f43d f794 0c3d 4316 4bbd

model.backbone.layers.0.channel.2.weight f4 [74, 32]
0.11129106 -0.08298298 0.052989513 -0.11970219 -0.09932447 -0.08120612 -0.1044028 0.20889202
0.015507161 -0.19121812 0.07300208 0.083643585 0.04987181 0.11883171 -0.076584816 0.08496188
-0.16006485 0.062573545 0.07249429 0.002929671 0.06822959 0.110085115 -0.08599526 -0.105904005
-0.18354322 0.06850691 -0.08941245 -0.13119046 -0.08130869 -0.010121527 -0.0361397 0.15491694
-0.05088825 -0.0440407 0.0032444634 0.04381799 0.11806765 0.112274095 -0.026602913 0.11593047
0.1729503 -0.17635866 0.097081326 0.13112442 -0.08014932 0.09221708 -0.05212185 0.14244533
-0.021520177 0.0118080685 0.013967015 0.084431864 0.08392861 0.071543954 -0.0033506325 -0.04238319
-0.18403882 -0.12241111 0.15249914 -0.12691508 -0.062141642 -0.07570765 0.007823492 0.011749903
0.2188256 -0.0879579 -0.00819976 0.12177286 0.091763884 -0.0033643004 -0.047752883 -0.04954005
-0.16062236 0.17646995 0.0029755603 -0.09341876 0.09685661 0.06557999 0.05848929 0.02084832
-0.10749002 0.078248 0.073349215 -0.152719 -0.05319976 0.03705583 0.1369718 0.05643785
-0.0058081886 0.105948366 0.028818622 0.0031013505 -0.12275137 0.05207284 -0.1237146 0.11767764
-0.016148342 -0.07494118 -0.11738061 0.00833175 0.06570777 -0.036243655 -0.13259757 0.100705184
0.10835118 0.12973331 -0.16491327 0.1229016 0.10592651 -0.020991528 -0.046547905 -0.1909788
-0.019251077 -0.023710696 -0.09982697 0.009431916 -0.042664163 0.057433072 -0.1842917 -0.18695237
-0.0024681913 0.11984933 0.087281905 -0.028339868 -0.02168784 0.01917703 0.10530062 0.119895436
-0.025235226 -0.13556695 0.0022212327 0.00755353 0.043379236 0.0030565003 0.19071886 -0.06848164
-0.0457729 -0.2059831 -0.18374543 -0.13215333 0.050507188 0.029177709 -0.012434603 -0.08060228
0.17536876 -0.04816025 -0.14118566 0.07013657 -0.13478555 0.21000881 0.018315619 0.033861306
-0.17479709 0.038017377 0.04679719 -0.07979406 -0.14002216 0.026204789 0.038531072 0.013628632
0.04432863 -0.12884533 -0.03827119 -0.024414452 -0.14767767 0.08940201 -0.11386914 -0.14393593
-0.13678098 -0.10604606 0.045238998 0.117121994 -0.004082493 0.021908676 -0.03801507 -0.08330224
-0.1541543 0.03666374 -0.043101158 0.11290022 0.13407269 0.004095203 0.18119912 -0.15510243
0.18042143 -0.112266645 -0.08773809 -0.101752 -0.0037091803 0.010714765 -0.12823547 0.03949944
0.079228826 -0.16622527 0.05961404 0.0671737 0.17451778 -0.12660202 0.111575946 -0.12607035
0.1345041 -0.04003743 -0.13603018 -0.011239572 -0.12343425 -0.16399889 0.15108132 -0.00377574
-0.1699682 -0.15779476 0.06004683 -0.053831697 -0.086194 -0.075374395 0.15077245 -0.11793715
-0.14918497 0.1362345 0.13506743 -0.055411924 -0.091242164 0.07839699 0.1046202 -0.14871174
0.041457914 0.09431608 -0.05612174 -0.03740393 0.12034612 -0.023960857 -0.002620719 0.1675919
0.05554898 0.12133488 -0.06132478 0.16289477 -0.032735392 -0.017014591 0.20200723 0.14506714
-0.1700769 0.14578764 -0.03347369 0.18177451 -0.05642176 0.016060302 0.049703047 0.08296117
-0.09808219 -0.09715533 -0.15627122 -0.08262681 0.06642853 0.083794 -0.12493882 -0.10916711
00000000: 91ec e33d fbf2 a9bd 880b 593d 6c26 f5bd
00000010: a16a cbbd 654f a6bd 23d1 d5bd cae7 553e
00000020: bf11 7e3c afce 43be 1d82 953d 544d ab3d
00000030: 6246 4c3d 0a5e f33d 80d8 9cbd 7f00 ae3d
00000040: 0ae8 23be 8f26 803d e377 943d b9ff 3f3b
00000050: f5bb 8b3d 4e74 e13d 481e b0bd 33e4 d8bd
00000060: c1f2 3bbe 5a4d 8c3d e01d b7bd cb56 06be
00000070: 2c85 a6bd c3d4 25bc 3907 14bd 8ca2 1e3e
00000080: 3370 50bd 0564 34bd 10a1 543b 7e7a 333d
00000090: 74cd f13d f6ef e53d 5aee d9bc f46c ed3d
000000a0: e219 313e 5d97 34be 93d2 c63d 7b45 063e
000000b0: 5425 a4bd 4fdc bc3d b97d 55bd 30dd 113e
000000c0: 154b b0bc a176 413c e8d5 643c 9dea ac3d
000000d0: c3e2 ab3d a385 923d 4996 5bbb ff99 2dbd
000000e0: ac74 3cbe adb2 fabd bc28 1c3e 07f6 01be
000000f0: 3c88 7ebd 9d0c 9bbd 1b2e 003c aa82 403c
00000100: d113 603e 4523 b4bd 4958 06bc 0d64 f93d
00000110: b4ee bb3d 987b 5cbb 8798 43bd 82ea 4abd
00000120: 307a 24be 8ab4 343e 9e01 433b 5652 bfbd
00000130: c25c c63d cd4e 863d 7792 6f3d 19ca aa3c
00000140: ba23 dcbd 7d40 a03d 1d38 963d 5f62 1cbe
00000150: fee7 59bd dbc7 173d 5642 0c3e 602b 673d
00000160: 9e52 bebb 75fb d83d 0815 ec3c 0740 4b3b
00000170: 1265 fbbd 554a 553d 155e fdbd f900 f13d
00000180: 8749 84bc c37a 99bd 3f65 f0bd e481 083c
00000190: cc91 863d 3a74 14bd a8c7 07be 853e ce3d
000001a0: 39e7 dd3d cfd8 043e 06df 28be d6b3 fb3d
000001b0: 00f0 d83d 6df6 abbc 04a9 3ebd f28f 43be
000001c0: 6fb4 9dbc ef3c c2bc 1572 ccbd 5388 1a3c
000001d0: 9ec0 2ebd f13e 6b3d f7b6 3cbe 7170 3fbe
000001e0: 61c1 21bb 9173 f53d dbc0 b23d 0329 e8bc
000001f0: b2aa b1bc 2619 9d3c daa7 d73d bd8b f53d
00000200: 1bba cebc 10d2 0abe 1a92 113b 9a83 f73b
00000210: 6dae 313d 914f 483b ce4b 433e 1a40 8cbd
00000220: 5d7c 3bbd 3ced 52be c327 3cbe 3453 07be
00000230: a0e0 4e3d 1706 ef3c 81ba 4bbc cf12 a5bd
00000240: de93 333e af43 45bd f992 10be c3a3 8f3d
00000250: 3905 0abe 8d0c 573e a30a 963c 27b2 0a3d
00000260: 02fe 32be 1cb8 1b3d 69ae 3f3d 116b a3bd
00000270: f861 0fbe 6dab d63c c2d2 1d3d a04a 5f3c
00000280: f091 353d 08f0 03be 40c2 1cbd d100 c8bc
00000290: d138 17be 6718 b73d 3934 e9bd f163 13be
000002a0: 5010 0cbe ad2e d9bd 874c 393d a8dd ef3d
000002b0: 6fc6 85bb d379 b33c b1b5 1bbd 5d9a aabd
000002c0: a0da 1dbe b82c 163d d78a 30bd 3b38 e73d
000002d0: 5a4a 093e 0d31 863b 438c 393e 2cd3 1ebe
000002e0: 65c0 383e 0eec e5bd 07b0 b3bd 5a63 d0bd
000002f0: b815 73bb fb8c 2f3c 2950 03be 2aca 213d
00000300: b942 a23d f536 2abe da2d 743d 5d92 893d
00000310: cab4 323e f6a3 01be ee81 e43d 9618 01be
00000320: 71bb 093e 4afe 23bd 7f4b 0bbe 2f26 38bc
00000330: 19cb fcbd 53ef 27be 10b5 1a3e 6872 77bb
00000340: 250c 2ebe f394 21be aaf3 753d a07e 5cbd
00000350: 7b86 b0bd e45d 9abd 1864 1a3e 0889 f1bd
00000360: f2c3 18be 0f81 0b3e 1e4f 0a3e 9df7 62bd
00000370: 2cdd babd 9a8e a03d 1e43 d63d e447 18be
00000380: c6cf 293d ca28 c13d e9df 65bd dd34 19bd
00000390: 0778 f63d 8f49 c4bc 5ec0 2bbb 369d 2b3e
000003a0: 5487 633d 6c7e f83d b12f 7bbd e3cd 263e
000003b0: 8c15 06bd 2f62 8bbc fcda 4e3e 7b8c 143e
000003c0: a428 2ebe 5b49 153e b51b 09bd 1923 3a3e
000003d0: 811a 67bd e590 833c 6c95 4b3d 8ce7 a93d
000003e0: 51df c8bd 60f9 c6bd 9005 20be 3f38 a9bd
000003f0: ae0b 883d 309c ab3d eddf ffbd 0193 dfbd

model.backbone.layers.0.channel.2.bias f4 [74]
-0.049971476 -0.18345289 0.13104206 -0.16850337 -0.06548724 0.15158628 0.12490173 0.15518759
-0.10383855 0.07418914 0.076214515 0.08250453 -0.07462382 0.024416933 -0.048458327 -0.13354748
0.16926534 0.007985489 0.052684586 -0.00863202 -0.0020515602 -0.16436708 0.0040743677 0.017606305
-0.12091892 -0.007827993 0.13396008 0.0017270134 0.017541692 0.021268712 -0.10234602 -0.14560027
0.11352407 -0.058856443 -0.10170504 -0.11755475 -0.101006724 -0.12740292 -0.1451249 -0.04663187
-0.17444462 -0.16240908 0.04671575 0.0056805704 0.15560752 -0.041264877 -0.05419163 0.1320802
0.062489938 0.08327146 -0.121428706 -0.1505519 0.09968773 0.00396879 -0.15189925 0.11499345
-0.17113878 -0.09189305 0.06368974 0.101346344 -0.040315833 0.09811807 0.033672716 -0.032964434
0.07612208 -0.038352948 0.002438636 -0.08619466 -0.054232564 0.11804166 -0.13661888 0.0010363052
-0.015224176 0.05222991
00000000: e4ae 4cbd 13db 3bbe e42f 063e 268c 2cbe
00000010: 2d1e 86bd 6f39 1b3e 7acc ff3d 7fe9 1e3e
00000020: 4ea9 d4bd 7af0 973d 5b16 9c3d 23f8 a83d
00000030: 60d4 98bd 0506 c83c 3d7c 46bd acc0 08be
00000040: e553 2d3e 92d5 023c cbcb 573d 516d 0dbc
00000050: 7873 06bb d84f 28be 4682 853b 193b 903c
00000060: 57a4 f7bd fb40 00bc d52c 093e f45c e23a
00000070: 98b3 8f3c b93b ae3c ca9a d1bd 3d18 15be
00000080: 4f7f e83d 7413 71bd bb4a d0bd 8bc0 f0bd
00000090: 9ddc cebd e975 02be 9f9b 14be 0f01 3fbd
000000a0: 9ca1 32be 914e 26be 0459 3f3d 1424 ba3b
000000b0: 9457 1f3e 5c05 29bd 0bf8 5dbd 0840 073e
000000c0: 73f5 7f3d 3a8a aa3d 9daf f8bd 472a 1abe
000000d0: 1529 cc3d a00c 823b 7a8b 1bbe b081 eb3d
000000e0: 013f 2fbe 6c32 bcbd c46f 823d ac8e cf3d
000000f0: 3722 25bd 20f2 c83d 67ec 093d b705 07bd
00000100: e5e5 9b3d fb17 1dbd 86d1 1f3b d386 b0bd
00000110: f722 5ebd d3bf f13d d2e5 0bbe a2d4 873a
00000120: d36e 79bc 08ef 553d

model.backbone.layers.1.temporal.0.weight f4 [32, 64]
0.028012289 -0.050803542 -0.09410567 0.020238409 -0.12800579 -0.09189778 -0.034391187 -0.079954386
0.015468474 0.03624717 0.020068292 -0.013246804 0.009728906 -0.1156391 -0.09938014 -0.05490874
0.06344196 0.043918785 0.04222711 -0.09674239 0.0915575 0.06490482 0.039002452 -0.09116256
-0.115623534 -0.027477523 0.092664026 -0.12991643 0.006591406 -0.09144804 -0.1577517 0.031310357
-0.020890713 0.13261414 -0.0160035 -0.068226166 -0.003042723 0.039131593 0.07433662 -0.07839923
-0.04029995 -0.14510311 0.092196815 0.016711583 0.019789917 -0.008027555 0.028410845 0.027051847
-0.02909103 -0.0249593 -0.038246494 0.121114634 -0.056533333 0.09620371 0.07454389 -0.027333548
0.022530587 -0.077232696 0.08677436 0.097657 0.1341991 0.11436007 0.048407998 -0.048498675
0.058601845 -0.005212747 0.08336499 0.13618593 -0.034278523 0.13670458 -0.027863065 -0.056571238
0.10706224 0.088383175 0.09744535 -0.08561303 -0.06635755 0.020240404 0.12938857 -0.015584067
0.08979106 -0.0377987 -0.054604474 0.04812299 0.005100414 -0.059492428 -0.05198024 0.13238752
-0.055055544 -0.03018499 0.002845353 0.015892724 0.13373762 -0.011499861 0.049567867 -0.03780242
0.1175273 0.114209354 -0.0040618195 -0.10593544 0.0714293 -0.09206124 0.069321886 0.03784421
0.03637643 -0.050236717 -0.05993232 -0.021477174 -0.08360258 -0.02906844 0.07486266 0.08786503
-0.03443545 -0.076133244 -0.041438524 -0.11301155 -0.07742884 0.061909825 -0.0005408356 0.051756788
-0.03870913 -0.029493295 0.099586606 0.030700227 0.110595085 0.053007517 0.0055898153 0.24506173
0.010868151 -0.10584038 0.081105195 0.06317762 -0.13357937 0.00865295 -0.14937896 0.06621153
0.01605394 0.041502066 0.07607816 -0.08542037 -0.019260151 -0.047690205 0.05244843 -0.030545793
0.014010722 -0.060185827 -0.1260275 -0.026641846 -0.117126554 -0.06670995 -0.09888079 -0.025322104
0.11256909 -0.086652145 0.061728574 -0.034952812 -0.09112059 0.083673745 -0.053275328 -0.06613353
0.098928876 -0.10349469 0.08445177 0.03798848 -0.12712234 0.07495168 0.040719908 -0.008952038
-0.069963105 -0.15477045 0.06609335 0.012804521 0.012288614 0.010609727 -0.079390466 -0.12826295
0.013033064 -0.08041435 -0.115056306 -0.10043616 0.07063695 -0.02296776 -0.06953125 0.033947203
0.0062138485 -0.05997573 -0.08991901 0.104087666 -0.092990845 0.044188898 0.025914347 0.15024136
-0.02818229 0.0070937597 -0.12660338 0.03580456 -0.09751062 -0.12317727 -0.10339293 0.049375936
0.033278923 0.06717293 -0.1193411 -0.030083485 -0.012158024 0.09958556 -0.07071252 0.08133261
0.05755555 -0.025922762 0.005322869 -0.005394391 -0.14184843 -0.008953498 -0.088290624 -0.029638112
-0.0753533 -0.03950908 0.004058799 -0.011138128 -0.141374 -0.13429527 0.0040179286 0.09282359
-0.038692012 -0.13567786 -0.051781658 -0.082264856 0.051990185 -0.06359055 -0.08516072 0.015745325
-0.14202343 0.017554848 0.02511307 0.08532672 -0.10276576 0.0131489495 -0.09234669 0.09170543
0.009701875 -0.009869691 0.07729895 -0.038192883 -0.11747106 -0.10225192 0.019035297 -0.034129106
-0.107479006 0.048170745 0.073586166 -0.035837296 0.022538813 0.028848717 -0.0051811314 0.075271726
00000000: 077a e53c 6017 50bd 79ba c0bd 05cb a53c
00000010: f313 03be e734 bcbd c6dd 0cbd 20bf a3bd
00000020: 7b6f 7d3c ea77 143d 4266 a43c 1f09 59bc
00000030: fd65 1f3c 31d4 ecbd d187 cbbd fde7 60bd
00000040: dced 813d 2fe4 333d 56f6 2c3d e020 c6bd
00000050: 8082 bb3d d1ec 843d 09c1 1f3d 70b3 babd
00000060: 08cc ecbd 8b18 e1bc a3c6 bd3d d008 05be
00000070: b9fc d73b 1c49 bbbd a989 21be 4a3f 003d
00000080: 0023 abbc 00cc 073e c619 83bc 29ba 8bbd
00000090: 6c68 47bb 7348 203d cc3d 983d c78f a0bd
000000a0: 8f11 25bd e995 14be afd1 bc3d bbe6 883c
000000b0: 771e a23c 0286 03bc dcbd e83c d69b dd3c
000000c0: 5050 eebc 7277 ccbc 5ba8 1cbd f30a f83d
000000d0: 7f8f 67bd 7306 c53d 78aa 983d 9bea dfbc
000000e0: 1192 b83c 2d2c 9ebd c1b6 b13d 6500 c83d
000000f0: 7d6b 093e 9d35 ea3d 7747 463d 8ca6 46bd
00000100: 7d08 703d b1cf aabb 44bb aa3d 5374 0b3e
00000110: a367 0cbd 49fc 0b3e 1541 e4bc 3eb7 67bd
00000120: 7343 db3d 3d02 b53d 6d91 c73d e255 afbd
00000130: 78e6 87bd 34cf a53c 707e 043e 5154 7fbc
00000140: 60e4 b73d cfd2 1abd f1a8 5fbd 9d1c 453d
00000150: 6021 a73b 55ae 73bd 3be9 54bd 9890 073e
00000160: ec81 61bd 8346 f7bc 1a79 3a3b 7531 823c
00000170: 84f2 083e ea69 3cbc ad07 4b3d b6d6 1abd
00000180: 27b2 f03d 98e6 e93d 0319 85bb aef4 d8bd
00000190: 8649 923d 9a8a bcbd a2f8 8d3d 8802 1b3d
000001a0: 74ff 143d 04c5 4dbd 987b 75bd e6f0 afbc
000001b0: d437 abbd f020 eebc 9851 993d 95f2 b33d
000001c0: 300c 0dbd bfeb 9bbd 71bb 29bd 9972 e7bd
000001d0: 0393 9ebd 2895 7d3d ddc6 0dba edfe 533d
000001e0: 778d 1ebd ec9b f1bc 10f4 cb3d 0b7f fb3c
000001f0: ad7f e23d 691e 593d c52a b73b 76f1 7a3e
00000200: 5410 323c d7c2 d8bd 7b1a a63d 4563 813d
00000210: 08c9 08be 1ac5 0d3c ccf6 18be e999 873d
00000220: 8d83 833c 12fe 293d dece 9b3d e0f0 aebd
00000230: 77c7 9dbc ce56 43bd 2ad4 563d 2c3b fabc
00000240: 3a8d 653c 6a85 76bd 5a0d 01be 0040 dabc
00000250: 0ce0 efbd 3a9f 88bd 0382 cabd 4d70 cfbc
00000260: a08a e63d ae76 b1bd 1ad7 7c3d ae2a 0fbd
00000270: 6f9d babd 245d ab3d 3b37 5abd 0471 87bd
00000280: 399b ca3d 06f5 d3bd 0df5 ac3d cf99 1b3d
00000290: 5c2c 02be 4480 993d ebc9 263d 92ab 12bc
000002a0: d148 8fbd 257c 1ebe f35b 873d 0eca 513c
000002b0: 2f56 493c 6cd4 2d3c 7897 a2bd 5d57 03be
000002c0: a288 553c 47b0 a4bd a4a2 ebbd 79b1 cdbd
000002d0: 1baa 903d e226 bcbc 6666 8ebd 390c 0b3d
000002e0: 8a9d cb3b 1ca9 75bd 7527 b8bd ea2b d53d
000002f0: fc71 bebd 6bff 343d 534a d43c dfd8 193e
00000300: 8cde e6bc c572 e83b 51a4 01be cda7 123d
00000310: a6b3 c7bd 5d44 fcbd acbf d3bd 6c3e 4a3d
00000320: 7b4f 083d f691 893d 1b69 f4bd a471 f6bc
00000330: 7332 47bc 84f3 cb3d bad1 90bd b691 a63d
00000340: 5ebf 6b3d f95b d4bc 766b ae3b 6ec3 b0bb
00000350: b740 11be b1b1 12bc b7d1 b4bd a0cb f2bc
00000360: d552 9abd 46d4 21bd acff 843b b27c 36bc
00000370: 59c4 10be b384 09be d4a8 833b 4b1a be3d
00000380: 847b 1ebd 23ef 0abe 0119 54bd 7a7a a8bd
00000390: a9f3 543d c33b 82bd be68 aebd 57fc 803c
000003a0: 976e 11be 2fcf 8f3c edb9 cd3c c6bf ae3d
000003b0: db76 d2bd b16e 573c 4320 bdbd 0ed0 bb3d
000003c0: 9df4 1e3c 7cb4 21bc e94e 9e3d 2470 1cbd
000003d0: ab94 f0bd 7469 d1bd e9ef 9b3c f6ca 0bbd
000003e0: f41d dcbd b04e 453d 58b4 963d 21ca 12bd
000003f0: 51a3 b83c 2554 ec3c 7bc6 a9bb 1028 9a3d

model.backbone.layers.1.temporal.0.bias f4 [32]
-0.063167125 -0.05213941 0.012740274 -0.055656653 -0.08009993 0.096888855 0.079955414 0.013626117
0.020001233 -0.07039268 0.056095924 -0.022398664 -0.013151477 0.09040332 -0.0048334594 0.07338819
-0.09805851 0.10646014 0.109618366 -0.011992971 0.12357574 -0.028849103 -0.06906059 0.08586316
-0.11902143 0.032976624 -0.0066929543 -0.028187094 0.07512253 0.04691959 0.07260124 0.046077833
00000000: c45d 81bd 2290 55bd 95bc 503c 3bf8 63bd
00000010: 6f0b a4bd aa6d c63d aabf a33d 1440 5f3c
00000020: a0d9 a33c 0a2a 90bd d7c4 653d 677d b7bc
00000030: 4b79 57bc 6025 b93d ff61 9ebb 8c4c 963d
00000040: e6d2 c8bd c607 da3d 987f e03d 2b7e 44bc
00000050: 4715 fd3d f454 ecbc a36f 8dbd 06d9 af3d
00000060: 82c1 f3bd 7f12 073d 9250 dbbb 9fe8 e6bc
00000070: d7d9 993d c22e 403d f5af 943d 1cbc 3c3d
