experiments/AdversarialDomainAdaptation/saved_models/tsmixer_da_finetuned_1.pt (torch, 731002 bytes, 30 tensors)

model.backbone.static_proj.weight f4 [64, 10]
00000000: 3e58 7abd 0eed 59bd 3488 c83e 75aa cebd
00000010: ca3a dd3d d3df 0cbe 789b ac3d 31c5 24be
00000020: 7f3d 373e c6e0 363e cee4 35bd 07e6 0dbd
00000030: 1c18 253e cc1d 88bb 1d8f aa3d e5f8 453d
00000040: 06fb d43d 4488 e9bc 6aa1 023e d960 28bb
00000050: 0264 acbd e609 593d de33 b0bd b653 c93d
00000060: 1d6d 6bbe 2cb2 323e 9545 c53d d6aa 99bd
00000070: a6ed 9ebb e9ce e8bc 1588 95bc cd60 8d3d
00000080: 51b8 873e cc6a 953e 74f1 523e ab65 edbd
00000090: db66 ad3e 1dd0 20bd d2f6 863e 07dd febc
000000a0: c1fa 663c dd28 bb3c d283 9c3d 06d9 823b
000000b0: 3a72 a43d b72d 0ebd 1c7c 433d d6a0 ecbb
000000c0: b7ae b33c 7404 673d e80a 3fbd 259a a93d
000000d0: 04a5 cbbe 79c6 923d 5bae 1e3c 7a6e 8abd
000000e0: 2633 83bc 2d8a c83d c0a1 3ebe 9799 47be
000000f0: a80e 99bc ea34 193c 0bcd 87be 2acc a53e
00000100: 9738 f33d 9d78 d7be ef34 8e3e 90c5 0cbe
00000110: a3bc 18be 2db2 163e 7037 d2bb 92c5 ad3d
00000120: ffcf 8a3e fcb9 193d aaa3 493d 0931 583c
00000130: 9f89 223e c477 02be 1d1d 903d 08ac e7bd
00000140: 54ca 523e 62e8 a7bd 7b17 41bd 4682 6bbe
00000150: 90fe 563c da80 1f3e 2397 41be 19c6 1e3e
00000160: 377e bd3e 53a1 0bbf e489 f9bc a4e8 8bbc
00000170: 1951 a13a 378a f53d b016 983e c200 3a3c
00000180: 92d7 db3d 5fa7 d53d d9f0 fabc f55c e3bd
00000190: bdef bfbc 8ee1 9ebc 0394 103e 7296 323e
000001a0: b978 cb3d 8253 e73d 60f1 2b3d 6b49 60ba
000001b0: f562 6abd 542d 833d 6b16 15be 9f36 633d
000001c0: 9bb2 af3d 71bd 423e d82b 11be c736 943e
000001d0: 1668 44be 3744 8c3c 72e7 22bd 130f b13e
000001e0: 6c84 b23d 2a0b 75bd 877c c93e e1a5 933c
000001f0: 2a01 413e e10d e93c f57b 4bbe 72a0 293d
00000200: 2e3b 8d3e 2b73 92bd f9fd 563c 72c4 fabd
00000210: f90d 413e 180d adbd 248f edbc c0a1 0fbe
00000220: 00ac 2ebd 7ace d63d 04b0 eabd b357 2e3e
00000230: df1c 5a3d 7464 723d 4d4b 983e 8ab1 76bd
00000240: 9b6e 7d3d c055 e73d 7651 e83d 3817 793b
00000250: 365e 1a3e b8cc 17be fb93 253d 4ff7 bc3d
00000260: a733 be3d 0f84 2fbe c19d b43e f9a7 71be
00000270: 1491 e4bc 489e f9bd 8fa8 7c3e 8682 e1bd
00000280: f54d abbd 4a5c 0fbd b096 47be 1cb9 413d
00000290: 41c6 59bc 9cf7 adbd bb58 42bc 3ff5 53bd
000002a0: e1fe 1bbe 5987 1dbe 89db 4f3d 4dda 8c3c
000002b0: 0044 61be a1f5 62be 1842 6a3e 15c8 58bc
000002c0: f2c0 1dbe 7926 fc3d 794a 34be b613 9dbd
000002d0: 6b25 0d3e b184 afbc 9d4f c6be dafc a3bd
000002e0: 7cc0 38be 46ba 93be 70b4 60bd 8550 dcbd
000002f0: bec1 a9be ce96 223e f5ec c2bb be3f 66bd
00000300: 0ceb ab3e c2b4 52be bdc4 0fbe 9d0e 93be
00000310: 1c9d 8d3d 9b6c 4cbe 9307 5c3e 4cfa 483e
00000320: 6c27 61bc 0cc5 803d 4e7b 21bd 19c4 983d
00000330: 7720 f93c 7ab8 293e 2d41 033e f57f 8ebc
00000340: e0f0 1e3c 6a1b 5d3d 1627 4a3c 9ec7 08bd
00000350: 88b2 47be 9d8f b93c 8f31 433e 337d 3fbe
00000360: 8176 ddbc 5d54 1e3c 7645 04be ac68 a3bd
00000370: 9276 a43d 4153 d9b9 7d34 7fbd abcb 663e
00000380: defe 9bbe 13d7 fa3e 8c32 a03c a72e cd3d
00000390: fd36 0f3e 9095 30be e354 e33c c6c3 c73b
000003a0: 0920 353e 2aaa 06be 48e1 833e a1e0 2bbe
000003b0: 5d7d c6bd ca47 d03c 2d2b 303e 3f2a e4bd
000003c0: 5893 6f3e 7289 413e e0e2 24be 1e2b de3e
000003d0: 1dd5 903e 2ac2 4c3d 40a8 88be 85aa 4b3d
000003e0: 667d 413e bc28 a43d 82fb 13be 9d90 b93d
000003f0: 985f 4dbe f336 a53d 3767 4b3d 3e14 22be
-0.06111931 -0.05320459 0.39166415 -0.10091106 0.10802229 -0.13757257 0.08428091 -0.16090848
0.17894553 0.17859182 -0.04440766 -0.0346432 0.16122478 -0.0041539427 0.08328078 0.048333067
0.103994414 -0.02850736 0.12756887 -0.0025692491 -0.084175125 0.052987956 -0.08603643 0.0983042
-0.22990842 0.1745078 0.09632412 -0.075032875 -0.0048501072 -0.028418975 -0.018253366 0.06903229
0.2650781 0.29183042 0.2059992 -0.11591657 0.33867535 -0.039260972 0.26360184 -0.031111253
0.01409787 0.022846634 0.0764233 0.0039931564 0.080295995 -0.034711566 0.04772578 -0.0072213216
0.021933896 0.05640073 -0.04664126 0.08281354 -0.39774334 0.07166762 0.009685124 -0.06759353
-0.0160156 0.0979198 -0.1861639 -0.19492184 -0.018683746 0.009350995 -0.26523623 0.32382327
0.11876028 -0.42084208 0.2777476 -0.13747239 -0.14915709 0.14716406 -0.0064153 0.08484949
0.27111813 0.037530884 0.049228348 0.013195285 0.15872811 -0.12741 0.07036803 -0.11312109
0.20584995 -0.081986204 -0.047141533 -0.22998914 0.013122216 0.15576497 -0.1890531 0.15505256
0.37010357 -0.54543036 -0.03046126 -0.017078705 0.0012307494 0.11989253 0.2970481 0.01135272
0.10734476 0.10432314 -0.030632423 -0.111017145 -0.023429746 -0.019394662 0.14118962 0.17440203
0.099351354 0.11295225 0.04197824 -0.0008555862 -0.05722328 0.0640513 -0.14559333 0.055472013
0.08578988 0.19017579 -0.14176881 0.28948042 -0.1918033 0.017122371 -0.039771505 0.34581813
0.08716664 -0.0598251 0.3935282 0.018023433 0.188481 0.028449 -0.19871505 0.04141278
0.27584213 -0.07150873 0.013122075 -0.122445 0.18852986 -0.08449763 -0.028998919 -0.14026546
-0.0426445 0.10488601 -0.114593536 0.17025642 0.05325019 0.05917783 0.2974495 -0.06022791
0.06187306 0.112956524 0.113436624 0.0038008224 0.15075001 -0.14824188 0.04042433 0.09226858
0.09287196 -0.1714022 0.35276607 -0.23599233 -0.02790121 -0.12188393 0.24673675 -0.110112235
-0.083644785 -0.035000123 -0.19491076 0.047295675 -0.013291896 -0.08494493 -0.011861975 -0.051747557
-0.15233947 -0.15383662 0.050746474 0.017193938 -0.21998596 -0.22164012 0.22876775 -0.013231297
-0.15405634 0.123120256 -0.17606534 -0.07669775 0.13783805 -0.021425577 -0.38732615 -0.08007212
-0.18042177 -0.28853053 -0.05485958 -0.107575454 -0.33155626 0.1587784 -0.0059486576 -0.056213133
0.33577764 -0.20576766 -0.14039893 -0.28722087 0.06914732 -0.19963305 0.21487264 0.1962673
-0.013742309 0.06287584 -0.039424233 0.07459278 0.030410988 0.16574278 0.12817831 -0.017394999
0.009700984 0.053981222 0.01233842 -0.033393495 -0.19501698 0.022651488 0.19061874 -0.18700103
-0.027034046 0.009663668 -0.12917122 -0.07978949 0.08030428 -0.00041451494 -0.062305916 0.2253863
-0.30467886 0.48992214 0.019555353 0.10018664 0.1398582 -0.17244554 0.027750438 0.006096336
0.17688002 -0.1315085 0.25757813 -0.16784908 -0.0969188 0.025424857 0.1720397 -0.1114087
0.23396051 0.18900087 -0.16102171 0.4339227 0.28287593 0.049989857 -0.26690865 0.049723167
0.18895492 0.08015582 -0.14451411 0.09060786 -0.20055997 0.08067121 0.04965898 -0.15828034

model.backbone.static_proj.bias f4 [64]
00000000: 47c2 f4bc 67cd 62bc c98f fd3c a92d 333e
00000010: d5ec 3d3c 10a4 a2bd 88a7 02be 1cc5 47be
00000020: 4965 b63d ccfd 713d 013a ef3c 0e6c a53d
00000030: b764 c8bc 9472 77be 228e 923c b2a9 a7bd
00000040: 6e57 c33e 8021 723e 9158 29be 6029 bebe
00000050: d0a3 38be de42 63bc 1e9e cabd 86ba c3bc
00000060: 7b8d f63d 1877 9fbd 8811 183c aa09 fdbd
00000070: 8b97 443e f9e3 483e cc0a 5cbc 3ff9 61be
00000080: 577b 64bc 74af 933d 1729 89bd d0b4 e4bd
00000090: 3246 2e3e 085d c9bb 4cf5 bdbd ec86 093e
000000a0: 196f 37bd 76ea 59bd d1a3 bcbd 6740 3cbe
000000b0: 9d38 4e3d 1a63 413d bc62 1a3e bf48 643d
000000c0: cae8 04bd 40fb 343e 5792 4cbd 6479 e53d
000000d0: da58 353e c136 863d 9556 19be 633f 353e
000000e0: 5d02 5ebe 9936 c63d f252 103d 1884 573c
000000f0: 64de 043e 2cf7 b93d 0041 6d3e 5a01 413c
-0.029877795 -0.013842917 0.030952351 0.17497887 0.01159211 -0.07941449 -0.1275922 -0.19508785
0.08906037 0.05907993 0.029202463 0.080772504 -0.024462087 -0.24164802 0.01789004 -0.08186664
0.3815264 0.23645592 -0.16537692 -0.37140942 -0.1803124 -0.013870923 -0.0989344 -0.023892652
0.12038704 -0.07786387 0.0092815235 -0.12355359 0.19198434 0.19618215 -0.013430309 -0.22067736
-0.013945422 0.072111994 -0.066972904 -0.111673 0.17018965 -0.0061451234 -0.09275302 0.13430375
-0.044783685 -0.053202115 -0.09210933 -0.18383943 0.05034696 0.04721365 0.15076727 0.05573344
-0.032448567 0.1767397 -0.049944248 0.11204794 0.17709675 0.06553412 -0.14974435 0.17699961
-0.21680589 0.096783824 0.035235353 0.013154052 0.1297546 0.090803474 0.23169327 0.011780107

model.backbone.layers.0.temporal.0.weight f4 [32, 64]
00000000: a88a acbd b638 ba3c d0ff 943d f8b2 413d
00000010: 6e69 a23d c57e a6bb 48f5 603d d4bd b93d
00000020: c41e c13c 2553 d0bd 32b6 c4bd f13c 50bc
00000030: 1d1d abbc 094b 413d 7476 8f3d fa3d 153e
00000040: c9cf d83d 922f ad3d c306 9e3e 71a7 4b3e
00000050: e29b 2a3e c1f9 9f3d 2578 923d 39d3 9fbc
00000060: ca75 943b e451 c8bd 7730 81b9 95e1 53bd
00000070: ac82 f8bc 6aba a63d c7c3 383e b410 e13d
00000080: b4ef 1e3d f5fb ab3d 15e4 4d3e 8763 5e3e
00000090: 9d47 da3d 6ecd 263e 212b 36be a720 4ebe
000000a0: 274b f3be 2dc6 8ebe bcb4 babe b653 b8be
000000b0: a916 71be 49f4 95be f178 05be 8701 c63b
000000c0: 36e5 b9bc d928 223c a4e2 3cbd 6368 8dbd
000000d0: 78bd d13a 11b7 29be d44f 84be 9d1e 21be
000000e0: 04f7 e8bc 8e68 b83d 25e6 333e 0907 da3d
000000f0: dd35 a83d 6f59 013e 5dfc 303e 7049 2b3e
00000100: 675c 9e3e e602 4b3e 39f2 093e 8e7f 2d3d
00000110: 9bcc b0bc e1c0 edbd efc3 82be 80a9 6dbe
00000120: d71e 11be b1fe 83be 3d1e 3cbd 17a1 e13d
00000130: 1621 2f3e b443 333e 03e4 9d3d 3a71 913d
00000140: 7a74 b93d 319d 03be eafc d3bd 4652 7dbe
00000150: 79fa 82be 4e34 5ebc 56c9 343d 0dcb f23d
00000160: aa00 863d c26e 1fbe 5d85 79be a680 6dbe
00000170: 13b7 2bbe 72ee 65bd 2bc4 5f3e 79a4 5d3c
00000180: a486 5d3e 4a94 723e b443 8a3e ceb2 b13d
00000190: 620c 113e 18eb 473e 54c7 323d 7427 003d
000001a0: 6799 49bd 52eb bb3d 7a98 bfbc 5301 793d
000001b0: 412c 043e cc9d 753d 8fc3 453d a251 dcbd
000001c0: e470 58be 30bc 1fbe d199 84be 0059 57be
000001d0: b78f 2cbe 13e1 1cbe aecb 33be 2783 39bd
000001e0: 73dd c63c c91a 223d 2d9f a3bc db9d a03d
000001f0: 81a0 ef3d ac0d 573e a833 523e 645f 983e
00000200: 751c 223d 4e00 8e3d 5071 9e3d 8433 7d3d
00000210: 238d c43d e130 5d3d 48f3 b53b 1637 afbc
00000220: de70 063c 545f 4b3d fbe2 653d 7fba 0e3e
00000230: 3bd1 033d d031 9e3d 7769 6a3e 5c59 bb3d
00000240: c169 3d3e 3c50 04bd a061 c9bd cbc9 d4bb
00000250: 5146 d53d e574 333d c590 0e3e f6cf 3c3e
00000260: bdc5 013e 4431 1b3d 0de0 a8bd 2123 43be
00000270: 9da5 0cbe e18e 20be e933 c53d 4a85 edbd
00000280: 65ed 6c3b 630e 9c3d 7841 8f3d 83b4 95bd
00000290: 5759 803c 18c0 55bd eb82 18be 7f85 773d
000002a0: 6d51 783d e577 7abd dfae 0abe 4076 f3bd
000002b0: 1726 653e 365d 2dbd 3719 e1bd 4269 023e
000002c0: ebc0 113e 87d4 263e cf0a 37be 263b d73d
000002d0: 3e24 d43d 5126 20bd 1465 07ba 30a5 573e
000002e0: 1cdf 193d 9971 023e c312 1d3e c7d7 7fbd
000002f0: 29c6 aebe 6159 82be 0ac3 91be 897f 893d
00000300: 02fd c1bd 498e dbbb b832 243d 042c 3bbd
00000310: 172f 253d dccc 5d3d 3541 573d fd4d c4bc
00000320: d97a 81bd 4c0c 90bd c7c0 403d b591 6c3d
00000330: 43cd b13d bfd6 1a3c 8971 1f3d 1914 6cbd
00000340: 440e 483d cdd3 c63d d002 183e 3570 453e
00000350: 6a22 673d 348b 6cbc 874a b23b 6b21 cfbd
00000360: 8ada 56be 1fb7 4abe e78a 5bbd ee54 33bd
00000370: 7832 b53b 220c 033e 62b4 a63e 14ef 723e
00000380: fb40 9c3d 07b9 d13c 4817 27bd b9b4 03be
00000390: 4aa9 99bc 3003 8dbd ed5c 89bc c148 15be
000003a0: b6da 23be f009 fbbb d679 0fbe 8da0 79bd
000003b0: 0931 a53d e459 f93d 0f44 083d 55fb 97bd
000003c0: a00c 5abd 2664 073e 9060 0f3e 54ec dc3d
000003d0: 6325 a9be e421 57be 9f5b 4dbe d6b4 9cbc
000003e0: 5832 c5bd 1a85 4f3e 647f f33d 3e6b 963d
000003f0: f3e6 a43c efe0 1e3d 953d 9e3d e13d 863e
-0.08424884 0.02273212 0.07275355 0.04728982 0.07930265 -0.00508103 0.05492142 0.0906941
0.02357424 -0.101721086 -0.096050635 -0.012709842 -0.020887906 0.0471907 0.07005015 0.14574423
0.10586507 0.08456339 0.30864534 0.19888093 0.16661027 0.07811309 0.07151822 -0.019509898
0.004530643 -0.097812444 -0.00024640906 -0.051728804 -0.030335747 0.081410244 0.18043433 0.10989514
0.038802817 0.08397666 0.20106538 0.21717654 0.106581904 0.16289303 -0.1778989 -0.20129643
-0.47518274 -0.2788557 -0.36466014 -0.36001366 -0.235438 -0.29287937 -0.13034417 0.0060426625
-0.022692304 0.009897434 -0.04611458 -0.06904676 0.0016001901 -0.1657374 -0.25842154 -0.15734334
-0.028438099 0.09004317 0.17568262 0.10645873 0.082133986 0.12631772 0.17283769 0.16727233
0.30929872 0.19825324 0.13471307 0.042357974 -0.021581938 -0.11609054 -0.2554011 -0.2320919
-0.1417192 -0.25780252 -0.045927275 0.110170536 0.17102465 0.17506295 0.077095054 0.071016744
0.09055419 -0.12852933 -0.10350974 -0.24738416 -0.2558172 -0.013562275 0.04413732 0.11855135
0.065430954 -0.15569595 -0.2436728 -0.23193607 -0.16769056 -0.056135602 0.21852176 0.013527983
0.21633393 0.2368938 0.27004778 0.086766824 0.1416488 0.19523275 0.043647125 0.031287625
-0.04921856 0.09175743 -0.023388136 0.06079228 0.12907507 0.05996494 0.048282202 -0.10757758
-0.21136814 -0.15599132 -0.25898603 -0.21030045 -0.16851698 -0.15320234 -0.17558166 -0.045291092
0.024275517 0.039576326 -0.019973362 0.078426085 0.117005356 0.21001309 0.20527518 0.29760277
0.03957792 0.06933652 0.077364564 0.061816707 0.09597232 0.054001693 0.005552683 -0.021388572
0.008205621 0.04965146 0.05612467 0.1393833 0.03218196 0.07724345 0.22891794 0.09147903
0.18497373 -0.03230308 -0.098330736 -0.006493782 0.104138024 0.04381265 0.13922413 0.18438706
0.12673087 0.03788878 -0.08245859 -0.1905637 -0.13735051 -0.15679504 0.09629042 -0.115976885
0.003615224 0.076199315 0.06994909 -0.073098205 0.0156676 -0.052185148 -0.14893691 0.060430046
0.06062453 -0.061149497 -0.1354327 -0.11887789 0.22377811 -0.04232522 -0.109911375 0.12735465
0.14233749 0.1629201 -0.17875217 0.105093285 0.10358475 -0.03909904 -0.0005164903 0.21059108
0.03756629 0.12738647 0.15339188 -0.06246164 -0.3413556 -0.25458816 -0.28469115 0.067137785
-0.094720855 -0.0067003113 0.04008743 -0.045696273 0.04032811 0.054150447 0.05255242 -0.023962969
-0.063222595 -0.070335954 0.047058847 0.057756145 0.08681729 0.0094506135 0.038926635 -0.057636354
0.04884173 0.097083665 0.14844823 0.19281085 0.056429304 -0.0144374855 0.0054410133 -0.10113796
-0.20981804 -0.19796418 -0.053599264 -0.043782167 0.005529698 0.12797597 0.32559496 0.23724014
0.076295815 0.025600923 -0.040793687 -0.12861909 -0.018757481 -0.068853736 -0.016767943 -0.14578535
-0.160014 -0.0076610968 -0.1401132 -0.06094413 0.08065993 0.121753484 0.03326803 -0.07420985
-0.053234696 0.13221797 0.1400168 0.107872635 -0.33036336 -0.21009022 -0.20054482 -0.019129198
-0.09628743 0.20265618 0.11889532 0.073446736 0.020129656 0.038788732 0.077265896 0.26219085

model.backbone.layers.0.temporal.0.bias f4 [32]
00000000: 3586 8fbf 0c5d 4fbf f69e 95bf 3442 a23c
00000010: e83a a5be 6f27 eebd 885d 04bf be95 01bf
00000020: f722 1ebf 1b6a 83be 3b4e d3be 0689 2bbf
00000030: 885f 82bf 0b21 b8be 3e4c b2bc a565 32bf
00000040: 3eb3 9cbd dedb 0abf 31b0 a0bd 64e5 0dbf
00000050: f0e6 e9be 3784 973d 7428 c0be 2028 41bd
00000060: a93e b8be df29 27bf 1346 a8bd 64ac 683d
00000070: 7759 0abf 885e 69bf 56db 34bf 361b ae3e
-1.1212832 -0.81001353 -1.1689136 0.019806959 -0.32271504 -0.11628615 -0.5170522 -0.50619113
-0.617721 -0.2566689 -0.41270623 -0.67005956 -1.0185404 -0.3596271 -0.02176487 -0.6968635
-0.07651375 -0.5424174 -0.07846106 -0.5542815 -0.45684004 0.07398265 -0.37530863 -0.047157407
-0.35985306 -0.65298265 -0.082164906 0.05680503 -0.5404276 -0.9115987 -0.7064718 0.34005135

model.backbone.layers.0.temporal.2.weight f4 [64, 32]
00000000: 0a6a c6bd dc0b c4bb 3e61 64be 7458 3b3d
00000010: 8db9 7a3d f3e2 4b3c c21d d33d d5b7 f03d
00000020: ae56 e33b 09c5 14ba 97e6 3dbe 563f 8d3d
00000030: 6a6a 8abc d25d 09be e1a8 f8bd 7e63 c53c
00000040: 12cf b13d 7a96 d03d a9a5 8c3c 66d2 86bd
00000050: 99d1 6c3d b985 fcbd dbe7 d8bd 7ab6 0b3e
00000060: 1030 263d 8831 fabd 9c8e 103e 87a0 033e
00000070: 485e 433d dccd c73c ea8f bf3d ae12 9cbd
00000080: a524 d4bd ac1c 503d 4097 72be d8de b3bb
00000090: fd62 c03d 08a5 a2bd f2e8 bfbd 483d 123d
000000a0: 621d ec3b 1079 6f3c 06cd 8c36 4eae 713e
000000b0: d432 31bc 87bc 043e 09c0 e83d cbf9 02be
000000c0: 4a9f 8cbe 59d7 103d 194d 43bd 7995 8b3d
000000d0: c987 47be 86da a3bd 2e1e 8b3e e25b 0d3c
000000e0: dc30 5cbe a0a0 353d 86da bf3d aebf c9bb
000000f0: 841d 33be 89e0 c7bb 5e30 cfbc 7250 173e
00000100: ee01 c13d f2bc 36bd 44d8 1e3d fd64 44be
00000110: 0421 b2bd e9c9 e23d 3740 2e3e bf26 853e
00000120: af23 f93c 1bfb 27be f55b a73e 0b1f 033e
00000130: 8982 3c3e 921d 10be a72b 6c3d 818a b3bc
00000140: ebf0 0f3e b1d8 68bd 77bb 62bc df12 263e
00000150: d22c c13d 08b9 3abe 6400 96be 9654 84bd
00000160: 408c eabc e4b4 96be 7445 b7bd 962d dd3d
00000170: 4594 fb3d 9691 c5bc 84d3 58bd 0382 64bd
00000180: 2a30 0dbe 137f db3e 7dd5 f9bd 0b09 88bb
00000190: 8b59 843c f25e c83d 6dba 863e 52d4 75bd
000001a0: e642 76bd 94f8 2cbd 614b 1fbe 97fe 2dbe
000001b0: 2553 afbd bcf8 54bd d1af 9b3d 2324 5bbe
000001c0: f06e dfbd 2f82 98be a6c4 de3d acd2 bc3d
000001d0: 5889 e5bd 7f4f 363e 751e ff3c 97e9 6c3e
000001e0: d5b8 4c3e e845 05be 80c7 bd3c 0e26 b9bc
000001f0: 539a 5bbe 8552 d93c e9ec 19be 7ca8 22be
00000200: e5b9 5bbd 95c2 5d3e 7510 8bbd 78bc 803c
00000210: 9a47 ad3c 9fde aa3e 1861 193e edf2 b83d
00000220: c3a3 423e f041 24be ba67 f33d 67a2 ab3d
00000230: c7c3 2a3e 5378 553d af59 3dbd aacc fabd
00000240: e0fb dfbd a3fd 9dbc cb2e 9b3d 1af6 e2bd
00000250: 39c9 30be 0c63 9dbd 276c 17bb 66a4 0f3e
00000260: 83a6 2d3d adef 983d 2941 a4bd d77e 0abd
00000270: ffcd 8fbd c300 d23e 75f2 68be b45b 3bbd
00000280: 1bb2 403e ca0b dfbc 54f0 35be 4259 30bd
00000290: 0439 41be 454f be3d a88e 28be bcdb 0a3e
000002a0: 1ffa 323e 3e4b 853e 05e6 3f3c 7335 433d
000002b0: a17c 013d ce0f 8fbd 064d c33d fd14 623c
000002c0: 737d 8abd 7ad7 b4bb c391 b1bd f1ef 4fbe
000002d0: fa12 1bbe 3381 4dbe bbed 45bd 90f4 dbbd
000002e0: 1fb5 613d b66c 7cbd 802d 873d 0878 0a3d
000002f0: 74f2 843e d19c 6fbd a185 fd3d 5d68 b63a
00000300: c083 c13e f325 023d b859 f8bd 6e25 7bbd
00000310: ef55 d2bd f75c 47be 7c7b 29be 7def e2bd
00000320: 9679 5ebd 2fcd b3ba 194a 2b3e 12c2 c2bd
00000330: 9e5e 8f3c 39f4 c43b 6058 353d c39c 24be
00000340: 21f3 36bb 0755 193e 0daa 053e 92c9 98bd
00000350: 61eb d5bd fd86 50be 5708 9a3e 3cb4 073e
00000360: 4456 c53e 7704 febd 7762 9ebd c88f fa3d
00000370: 6892 aabe 3b3e 35be ab86 14bc d381 3a3c
00000380: d542 babd 21f1 87bc 0944 8fbe a371 efbd
00000390: 913d 3d3d dd98 723e 4678 8ebd 6262 963e
000003a0: 3fe3 a43d 4d85 2f3e f6fe 023d f6b1 5fbd
000003b0: 9c98 7c3c 965e 75be 8899 3f3e 6033 1b3e
000003c0: de9b 663d 8f48 923e 6d22 853d cf40 32bd
000003d0: 973d 54be 0197 8abd e748 57bd 4bef bdbc
000003e0: 97d2 51be 0964 9c3e c43c 893d a2d8 32be
000003f0: 483a 9dbb f33d 1abe 91fb 5a3d 39f2 17be
-0.09688194 -0.005982859 -0.2230272 0.045738652 0.06121211 0.012444246 0.1030841 0.11753813
0.0069378233 -0.00056751125 -0.18544994 0.06896846 -0.016896445 -0.13414696 -0.12141586 0.024095293
0.08682074 0.10184951 0.017168837 -0.06583099 0.057817075 -0.12330193 -0.10591098 0.13643828
0.04057318 -0.122164786 0.14116901 0.12854205 0.047697335 0.024390154 0.09353621 -0.0762075
-0.10358552 0.050808594 -0.2369051 -0.0054892115 0.093938805 -0.079416335 -0.09370603 0.035702974
0.007205651 0.014616266 4.196193e-06 0.23601648 -0.010815341 0.12962542 0.11364753 -0.12790601
-0.27465278 0.03536162 -0.047680948 0.06815619 -0.19485392 -0.080006644 0.27171463 0.008627864
-0.21503013 0.044342637 0.09367852 -0.006156883 -0.17491728 -0.0060997647 -0.025291618 0.14776781
0.09424196 -0.044613786 0.038780466 -0.19179149 -0.086977035 0.110736676 0.17016684 0.26006123
0.030412523 -0.16404383 0.32687345 0.1280481 0.1840917 -0.1407378 0.057658818 -0.02191663
0.14056747 -0.056847278 -0.01383864 0.16218136 0.09432377 -0.18234646 -0.29297173 -0.06461446
-0.02863133 -0.29434884 -0.08948794 0.107997105 0.122841395 -0.024117272 -0.052936092 -0.05578805
-0.13787904 0.42870387 -0.12198923 -0.0041514686 0.016155979 0.097837344 0.26314107 -0.060016938
-0.060122393 -0.04222925 -0.15556099 -0.1699165 -0.085607804 -0.051995024 0.07601894 -0.21400504
-0.109098315 -0.29786822 0.108773515 0.0921987 -0.11207837 0.17803763 0.031142453 0.23135982
0.19992383 -0.13014948 0.023166418 -0.022601154 -0.21445589 0.026528606 -0.1503178 -0.15884584
-0.05364408 0.21656258 -0.06790248 0.015714869 0.021152306 0.3337297 0.14978445 0.090307094
0.19007783 -0.16040778 0.11885019 0.08380585 0.16676246 0.052116703 -0.046228107 -0.12246068
-0.10936713 -0.019285982 0.075772844 -0.110820964 -0.1726426 -0.07684907 -0.0023105235 0.14027557
0.042395126 0.074675895 -0.08020241 -0.03381237 -0.070217125 0.41016206 -0.2274874 -0.04574175
0.18817942 -0.027227301 -0.17767459 -0.043053873 -0.18869406 0.09292463 -0.16460669 0.13560385
0.17478226 0.26033968 0.011712556 0.047658395 0.031612996 -0.069854364 0.095361754 0.013798949
-0.06762209 -0.005518851 -0.0867038 -0.20306374 -0.15143958 -0.20068817 -0.04832242 -0.10740006
0.05510437 -0.061627112 0.06600475 0.033805877 0.25966227 -0.05849916 0.12379003 0.0013916601
0.3779583 0.031774472 -0.121264875 -0.061314993 -0.10270297 -0.19469057 -0.16551012 -0.11080835
-0.054315172 -0.0013717766 0.16727485 -0.09509672 0.017501172 0.006010559 0.044273734 -0.16075425
-0.0027915912 0.14973842 0.1305315 -0.074603215 -0.104452856 -0.20363994 0.30084488 0.13252348
0.38542378 -0.12403195 -0.077336244 0.12234455 -0.33314824 -0.1769952 -0.0090653105 0.011383492
-0.090947784 -0.016594471 -0.27981594 -0.11691596 0.046201292 0.23691125 -0.06956534 0.29371935
0.08051156 0.17140694 0.03198143 -0.054613076 0.015417244 -0.23961863 0.18710911 0.15156317
0.05630099 0.28570983 0.06500707 -0.043518838 -0.2072662 -0.06767083 -0.05255976 -0.023185393
-0.2049049 0.3054507 0.06701043 -0.17465451 -0.0047982074 -0.15062694 0.05346257 -0.14838494

model.backbone.layers.0.temporal.2.bias f4 [64]
00000000: 86ad 1fbc 956f 8cbd 0fff da3c 9eef cdbb
00000010: 0e56 24bd b0eb 813b b205 3b3d 979d 183d
00000020: 7966 ccbd 5142 8ebd d879 b13d 712f dd3d
00000030: 0d76 abbd 8306 3fbd 8d36 ffbb 79d5 e239
00000040: 162d 183d ac40 153c a47a 033c a70e 1cbd
00000050: 20e5 aabd eade 013c 995a 6f3d 2abb 9fbb
00000060: 0a7f f9bc e4f8 87bd ac54 aa3c f566 da3c
00000070: 6789 c6bd 71aa a0bc acfc ac39 599f a2bc
00000080: 6bbc cd3b 5a8a 4ebb 805b 8abd f488 023d
00000090: 39aa 003d 5ae3 d2bd cd51 703b df11 afbd
000000a0: 2319 cabc d473 c3bc 8695 77bd 23b2 043d
000000b0: 04bf 663d 04bc 783c 104a bfbb aac4 a33b
000000c0: 1b5c 05bd 76c3 bf3d e9be 4fba c09a b63d
000000d0: 01d5 a4bc 6942 1bbd 4b1a 86bd 0fc9 313d
000000e0: 3115 c63c adc4 823d 6c9c 06bd 2f62 bbbd
000000f0: 3611 c43d b847 4f3d eeb2 26ba ed9a ba3d
-0.009745961 -0.0685722 0.02673295 -0.006284668 -0.04012113 0.0039648637 0.04565973 0.037259664
-0.099804826 -0.069462426 0.08665818 0.10800064 -0.08372126 -0.04663707 -0.0077884854 0.0004326513
0.037152372 0.009109657 0.008024845 -0.03809991 -0.083444834 0.007926682 0.05843601 -0.0048746066
-0.030456085 -0.06639269 0.020792328 0.026660422 -0.09694176 -0.019612523 0.00032994652 -0.019851374
0.0062785647 -0.003151557 -0.067557335 0.03186889 0.031412337 -0.1029727 0.003666985 -0.085483305
-0.02467019 -0.023858942 -0.06044533 0.032396447 0.05633451 0.015181545 -0.0058376864 0.0049978094
-0.03255854 0.09363453 -0.0007924871 0.08916235 -0.0201211 -0.03790513 -0.06547984 0.043404635
0.024180027 0.06385169 -0.03286402 -0.091495864 0.09573595 0.050605506 -0.000635906 0.09111581

model.backbone.layers.0.channel.0.weight f4 [32, 74]
00000000: d5fa 75be a91e eb3d 474a 133e 949a 4bbe
00000010: 8286 3c3e ac75 4f3d 048c b4bc 1490 123d
00000020: b6cf cf3d 4291 02be a2f3 793e ad69 913d
00000030: 7cd7 563b 62f8 27be 7984 69bc a1da 0bbe
00000040: 57ca 55be 3f3e 143e 2574 debd dee2 33be
00000050: 5e51 013e bd8f cf3e efe1 6f3e b792 0c3e
00000060: 2b02 5abd 7287 bcbc b2ee 11be 009a 4cbe
00000070: 4b41 45be d146 9b3e bf9d b13d 33de 6bbe
00000080: 97c6 0e3e e033 863c 816b 1e3e da51 73be
00000090: f924 e73d 1db3 65bd 49f2 79be a62a 42be
000000a0: 568a d1bd 3d93 85be 4213 b93b f310 a83d
000000b0: 5ce2 a1be 8e3f 86bb cc66 18be 92b1 38bd
000000c0: f82d 013f cd30 2bbf c2db 43be 67e1 853e
000000d0: 4e70 503e 5190 913e b29e 843d e768 9cbc
000000e0: 9397 0cbe c9cd 05be 7810 ac3e 2894 ec3d
000000f0: ae1b 143e 5191 8abc 873a bb3d 68fb 343e
00000100: cdb9 04bd 4bb0 32be a66d 713e 42b4 74bd
00000110: 31ed b93e 30c4 1bbe e54d 3f3e e1b3 823d
00000120: b4b8 82be a096 993d 6b49 1abe 3377 39be
00000130: 2ef4 c73d db49 2cbd 8d0e 88be 8315 e8be
00000140: d00d 6bbe 63c8 d7be 7fd1 9abe 021a 153e
00000150: 0607 94bc 1dba ae3d 8a94 073e 8d79 abbd
00000160: 7fa4 28bd f426 243e ce87 003e 6092 943e
00000170: 210e bfbd d5b0 45be 9fb4 273d 85f2 9e3d
00000180: ecf8 813c 0230 e83e b92a e6bc b26c ef3d
00000190: 2db4 f0bd c8b1 b0be 43bf 7e3e 7cb6 d43e
000001a0: d771 003e 88e7 d73c c9d3 8a3e 8c53 5fbd
000001b0: 821e fd3c 0b8d b43d e10c 68bd 7b3a ad3d
000001c0: 0515 73be bc05 8dbe 5c59 373d 22a0 7b3e
000001d0: 80ee 7a3b 8cd8 993d c35b 003e 4904 4a3e
000001e0: 0e5e 75be eacc 6ebd 1259 8a3e 6c23 8fbe
000001f0: 2b3e a4bc 444b f43d 28dc 803d 6b9a 973e
00000200: 347a 263a d91b b33d 34f1 b5be 28a5 23bd
00000210: 521f a53d ce55 59be 4fd6 2ebd 6b67 4abe
00000220: 947b 7b3d f0ef 11be d3c1 2a3e 03e6 78be
00000230: 76ad 9f3e b11f 9fbd e8ba 01be 216e b9bd
00000240: c9a4 00be e3f8 02bd 526e 9abe 97d3 683d
00000250: 1f65 123d af9a 4abe 6f63 9ebe ade2 72be
00000260: 43fc d83d 29ae 363e efba 36bf 45ba b3be
00000270: 1039 de3d 4d63 03be d91d a4ba b071 d33d
00000280: a66c bb3d c732 f5bd edac 86bd f305 6d3d
00000290: 1a70 f73d 36a2 133e d4c2 93bd 9545 29be
000002a0: 3728 a33c 8154 9ebb 2e4d c53d d68a 523e
000002b0: 49c9 70bd e7c0 7fbd f246 cdbd 0012 89be
000002c0: 5270 113e 34f4 d33e d35a 003e 23f4 843d
000002d0: 3cf0 6c3e 1315 1bbe b416 04bd f26b 58bb
000002e0: 1686 493b d98c aa3d c17d 9ebe 6c07 7ebe
000002f0: 2975 223d 6401 243e 918e aa3d 5ebb 38bd
00000300: e418 173e 729b 213e b439 67be 702e f53b
00000310: fcbc 7f3e 6e31 bcbe 21ce 063d f7ef 373e
00000320: 57d2 373b bed1 343e 20c6 ce3d 0077 66bd
00000330: 5b67 70be cb7d 2ebe 001c 353d 97d0 32be
00000340: 6356 41bd 1aaa 1abe 5de7 8a3d 9529 f1bd
00000350: 4161 8f3d d40e 02be 73fe c03e 9c61 e13c
00000360: f78d c1bd c632 acbd 384e 99bd 360b 933c
00000370: a69e d7be 5197 d6bd b618 413d 2e0b 8bbd
00000380: 9003 79bd 58d0 bdbd 838c 173e cf51 823d
00000390: 92ce f0bd e4ec 98bd 22d0 a03d 4e22 d4bc
000003a0: 3ffd 38be e885 f838 07b0 9fbd ebbd c3be
000003b0: b496 0fbe 5ac5 ca3e c61d d03c 09e9 15bd
000003c0: 1055 1e3e fa02 bdbd cf02 22be 30bf 1fbc
000003d0: 1d7d 8cbd d69c b23e d1de 34be 40a9 0fbe
000003e0: 55d1 7fbd 3c5b 153e ca08 2a3f 9bde 653d
000003f0: dc5e 0abe ef70 773e 2d08 03bc 080f e23c
-0.24021466 0.11480457 0.14383803 -0.19883186 0.18410686 0.05064933 -0.02203942 0.035781935
0.101470396 -0.12750724 0.24409345 0.07100234 0.0032782247 -0.16403344 -0.014252775 -0.13657619
-0.20877968 0.1447687 -0.108619966 -0.17567012 0.12628695 0.4053935 0.2342603 0.13727842
-0.053224724 -0.023013804 -0.14251211 -0.19980621 -0.19263189 0.30327466 0.08672666 -0.23033981
0.13942944 0.016382158 0.15470697 -0.23761693 0.11286349 -0.05607902 -0.2440883 -0.18961582
-0.102314636 -0.26088896 0.0056480477 0.08206358 -0.3161801 -0.004096932 -0.14882964 -0.04509122
0.5046077 -0.6687134 -0.191268 0.2614853 0.20355341 0.28430417 0.06475581 -0.01909299
-0.13729696 -0.13066782 0.33606315 0.11551696 0.14463684 -0.016914995 0.091420226 0.17674029
-0.032403756 -0.17450063 0.23576984 -0.05974222 0.36313775 -0.15211558 0.18682058 0.063819654
-0.25531542 0.074994326 -0.15067069 -0.18111877 0.097633705 -0.04206262 -0.265736 -0.45328912
-0.22954488 -0.4214507 -0.30237958 0.14560702 -0.018069755 0.08531592 0.13240257 -0.08372793
-0.0411725 0.16030484 0.12551805 0.29017925 -0.09328867 -0.19305737 0.040943738 0.07761101
0.015865766 0.45349127 -0.028096544 0.11690654 -0.11753116 -0.34510636 0.24877648 0.41545475
0.12543426 0.02635552 0.27114704 -0.054523036 0.030898336 0.08815964 -0.056652907 0.0845842
-0.23738487 -0.27543437 0.044762954 0.24572805 0.003828913 0.07512006 0.12535004 0.19728197
-0.2396166 -0.05830089 0.2702108 -0.27956712 -0.020049175 0.11928418 0.062919915 0.2961
0.0006350607 0.08745546 -0.35535586 -0.039952427 0.080626145 -0.21224138 -0.04268485 -0.19766013
0.06139715 -0.14251685 0.166755 -0.24306493 0.31187028 -0.077697165 -0.12668955 -0.090542085
-0.1256286 -0.031975638 -0.30162293 0.056842413 0.035740968 -0.1978557 -0.30935237 -0.23719282
0.1059499 0.17839874 -0.7137899 -0.3510305 0.108507276 -0.12830849 -0.0012521102 0.103244185
0.091515824 -0.11972576 -0.06575952 0.057867 0.120819286 0.14417347 -0.07214895 -0.1653045
0.019916637 -0.004831851 0.096338615 0.20560774 -0.05878571 -0.062439825 -0.10023297 -0.26771545
0.14203003 0.4139725 0.12534647 0.06491878 0.23138517 -0.15144758 -0.032248214 -0.0033023325
0.0030750087 0.08327646 -0.30955318 -0.24807519 0.039662514 0.16016155 0.08327974 -0.045100562
0.14755589 0.15781954 -0.22580606 0.0074823424 0.24974436 -0.36756462 0.032911424 0.17962633
0.0028048956 0.17658135 0.10096383 -0.05626583 -0.23476927 -0.17040174 0.044216156 -0.17462383
-0.047201525 -0.15103951 0.0678241 -0.11775509 0.070009716 -0.12700969 0.3769413 0.027512364
-0.09450906 -0.08408122 -0.07485622 0.017949682 -0.42113227 -0.1047808 0.047142707 -0.06789242
-0.060794413 -0.09268254 0.14799695 0.0636326 -0.1175815 -0.07467058 0.07852198 -0.025895264
-0.18065356 0.000118505035 -0.077972464 -0.38230833 -0.14022332 0.39603692 0.025404822 -0.036599193
0.15462136 -0.09229083 -0.15821384 -0.0097501725 -0.06859801 0.3488528 -0.17663123 -0.14029408
-0.062455494 0.14585584 0.6641966 0.056120496 -0.13512748 0.24164174 -0.007997555 0.027595058

model.backbone.layers.0.channel.0.bias f4 [32]
00000000: c9b8 a2be 9d4b ebbe 8f26 bcbd 753a 60be
00000010: daee 9fbe 7298 91be 9aa8 38bd 3ca6 7cbe
00000020: 47e8 8fbe 846e b0be de27 35be daa2 00bf
00000030: 373d 5fbe d47e 89be ee52 c6be 8988 00be
00000040: 35ab bebe 2ad4 e3be e7da 09be a158 8fbe
00000050: 0a77 0ebd 85d1 76be de4f 9cbe 9835 08bf
00000060: 35d9 40be 2ecb d0be f8f8 79bc 4120 5cbe
00000070: 8c93 24bf 8bce 90bd 1f7f 2bbe 197a 8dbe
-0.31781605 -0.45956126 -0.09187042 -0.218973 -0.31236917 -0.2843662 -0.045082666 -0.24672788
-0.281069 -0.34459317 -0.1769099 -0.5024849 -0.21800695 -0.26854575 -0.38735145 -0.12552084
-0.37239996 -0.44497806 -0.13462411 -0.27997306 -0.034781493 -0.24103363 -0.30529684 -0.5320678
-0.18832858 -0.40780014 -0.015257113 -0.21496679 -0.6428764 -0.07070645 -0.16747712 -0.27632216

model.backbone.layers.0.channel.2.weight f4 [74, 32]
00000000: 3441 49bd e5eb bf3d 5903 203e 0cd8 cb3d
00000010: f795 b3bd c93c 703e 4f8d d6bd 2e16 debc
00000020: 4cb4 a63d 8484 e7be ffc9 46be 2982 da3e
00000030: 5bb5 80be 34cd 84bc 1fb8 a5bd b32e 013e
00000040: 1dec aa3d da70 8b3d 1108 993e 6d90 12be
00000050: 59dd d63e 6be2 8e3d ba35 0bbe 3dfd c23e
00000060: 7d5b 1b3c 050b f3be a155 183d 9186 03bf
00000070: ea74 90be 392a 583e 6eec 16be 53d1 97be
00000080: 5135 233d ea9d 953d 99fd 2d3e cfb0 1cbe
00000090: ecbb b93d 92b3 043e c75e c1bd d442 2b3e
000000a0: f13c 33be 75f3 32be d404 4ebe 5ea7 4ebd
000000b0: 0020 3f3e 4373 2bbe e23c 843e d55c a8bd
000000c0: 524c dabc 47d3 b63d 6d19 c63d fed9 0c3d
000000d0: a8cc 543e 7a07 90bd 3271 bcbd c013 013e
000000e0: 2bb0 8b3e 34c5 99bd 5660 e83d e545 1ebe
000000f0: e867 563e b511 833d b272 e33d 2185 e9bd
00000100: 69bd 7d3d b814 c4be ae12 1e3e f0c1 243e
00000110: d12e a1bc 71c9 2dbe c173 a53c 0924 703e
00000120: 3e64 8a3d 2289 5bbe db1b c0be eddf 9fbe
00000130: 88b1 abbd e71b 9e3d fdde 8bbe c817 a53d
00000140: 7f94 8b3e da17 55bd 79bb 953b 7cc6 cf3d
00000150: 20b3 073f 6b73 40bc 0d1a 3abe 7a95 f53d
00000160: 76a1 393d 9bc7 b4be a44b 443b df05 263e
00000170: ddde 843d f4d1 733e 00cd 72be 3098 273e
00000180: 6eb9 b73d 1b9f 973d e2a2 363d 8ee1 093d
00000190: 96ce 03be 427b 7a3b cbeb 62bd ec2c 56bc
000001a0: 7966 883d df77 143d 3982 03bc 0a3b 81bd
000001b0: fcd2 873d c525 f43c ff0b 39bc 78a2 75bc
000001c0: 2d14 9ebb b738 b6bb bbb4 e4bd 2b61 f33c
000001d0: c2d2 5fbd 016f a7bc 8197 2d3d c640 e3bb
000001e0: fb28 bf3c e474 153d b8db fa3c 27c4 2a3b
000001f0: e3ac 313d 2678 883b a735 3bbc b99c a4bc
00000200: 2342 3c3e e510 413d a5fb 81bc 9668 ee3b
00000210: 19e6 97bd ecf4 203e bb73 a6bc 5cac cabe
00000220: 67e3 03be e31c 75bd 25d3 25bd 7dc1 0ebe
00000230: 4298 d63c 80d1 b3bd 0975 363e b6b0 cb3d
00000240: c920 173e 931d c5bc 3478 92bd 1dd0 283c
00000250: 8a4f 01be 4d2e e3bd 8ccc 70be f83b 4a3d
00000260: d83b 383e 29e1 3fbe c132 20bd 6fdf 86be
00000270: 0b4f 9cbd 5853 5ebd 1f8f cf3d 05a1 623d
00000280: 4f14 7dbe 4e4f 1d3e 8bce 733d 196a 603d
00000290: 4753 673b 5c9d 80be a427 64be c408 7c3d
000002a0: 0c8a 503d 1b23 cbbd c321 31bc ee8b 043d
000002b0: 780a 49bd 25c5 10bd 64f7 bfbd ab8b 883d
000002c0: 21cd 0cbe 9d16 88bc 2bd5 babd 4989 cabd
000002d0: 809b bdbd 4d84 103e 8e1d 96bd fb66 0e3e
000002e0: 3f1b 9fbe b81d 5dbc 92b0 7dbd a23f c73e
000002f0: 2e1b 20be 18da ba3d 17f5 49be 15a5 1dbe
00000300: 6a17 3f3d 1c4e 7dbd aefd 25bd 7a50 46bd
00000310: c66e 1d3e 4ac7 b63d ce33 2a3d a734 093e
00000320: 178c 38bd def2 a3bd b05f be3d ac62 1e3d
00000330: 9c39 463e 6139 28be 725b 183e c4f5 aa3c
00000340: c3d0 fa3d 5250 b8bc f3e2 593c 9454 7fbb
00000350: 7d98 103e 8820 0bbd d48b 11be b958 60be
00000360: 1486 ac3b 8174 71bd 50f2 4a3e a0c4 bbbd
00000370: 0cb0 0b3e eeaf 453d 7f74 ac3c 5324 37bd
00000380: e783 0c3d 02e9 cdbd db4e 073e 7560 80be
00000390: bed6 253e 874e 413e 9d91 b5bc b4bd a33e
000003a0: b8e3 51bd 429c 63be f9f1 e23d ed22 05be
000003b0: f73e d43e 1fa8 1ebe c4fa 3c3e 7d59 b13c
000003c0: 959c 273e 2a2e c4bd 154c fd3d feb3 24be
000003d0: 623e 4bbd 5827 8ebd 9614 a3be 0cb0 543c
000003e0: 7a73 c0bd 837c 3fbd 4f83 903e 689a 83bd
000003f0: b080 403d de5b fd3c ce26 9dbd 65f4 20be
-0.04913445 0.09371165 0.15626277 0.09953317 -0.08768838 0.23460688 -0.10476171 -0.027110185
0.08139858 -0.4521829 -0.19412993 0.4267743 -0.25138363 -0.01621113 -0.08091759 0.1261547
0.08345816 0.06808634 0.29888967 -0.14312907 0.4196575 0.069767796 -0.13594714 0.3808383
0.009482262 -0.47469345 0.037191037 -0.5137721 -0.28214198 0.21109857 -0.14738628 -0.2965189
0.03984577 0.0730551 0.16991271 -0.15301822 0.090690464 0.12959126 -0.094419055 0.16724712
-0.17503716 -0.17475684 -0.2011903 -0.050452583 0.18664551 -0.16743188 0.258277 -0.08220831
-0.02664772 0.08927017 0.09672818 0.03438758 0.20781195 -0.07032676 -0.09201278 0.1260519
0.27282843 -0.07508317 0.113464996 -0.1545635 0.20938075 0.06399862 0.11105861 -0.114023454
0.061948214 -0.38297057 0.15436813 0.16089606 -0.019675644 -0.16971375 0.020196797 0.23451246
0.06757401 -0.21439031 -0.37521252 -0.3122553 -0.08383471 0.07720166 -0.27318564 0.080611765
0.2726173 -0.0520247 0.0045694676 0.1014528 0.530077 -0.011746268 -0.18174 0.11991401
0.045319997 -0.35308537 0.0029952312 0.16213177 0.0648782 0.2381056 -0.23711014 0.16366649
0.08970915 0.07403394 0.04458893 0.03366237 -0.12871775 0.003822044 -0.05540065 -0.013072234
0.0666017 0.03624713 -0.008026653 -0.06310089 0.06632039 0.029803166 -0.011294364 -0.014992349
-0.0048241825 -0.00556096 -0.11167284 0.02970942 -0.054644354 -0.020438673 0.042380814 -0.006935212
0.02333497 0.03648843 0.030622348 0.0026056857 0.04337777 0.0041647134 -0.011426366 -0.020094262
0.18384604 0.047135253 -0.015867064 0.007275651 -0.074169345 0.1571843 -0.020318856 -0.39584625
-0.12879716 -0.059842 -0.040484566 -0.13940997 0.026195649 -0.08780193 0.17818083 0.09945814
0.147586 -0.024061954 -0.07151833 0.010303524 -0.12627998 -0.110928155 -0.23515528 0.049373597
0.17991579 -0.18738236 -0.039110903 -0.2634234 -0.07632264 -0.0542787 0.1013472 0.05532934
-0.24714778 0.15362284 0.059523147 0.054788683 0.003529744 -0.25120056 -0.22280747 0.061531797
0.0509129 -0.09918805 -0.010811272 0.03236001 -0.04908225 -0.03534426 -0.09373358 0.066672646
-0.13750125 -0.016612345 -0.0912269 -0.09889466 -0.09258175 0.14112969 -0.07329856 0.13906471
-0.31075475 -0.013495855 -0.06193597 0.38915735 -0.15635368 0.09123629 -0.197224 -0.15395005
0.04665319 -0.06184207 -0.04052513 -0.048416592 0.15374288 0.0892473 0.04155331 0.13398992
-0.045055475 -0.080053076 0.09295595 0.03866832 0.19357914 -0.16428138 0.14878634 0.020869143
0.122468494 -0.022499237 0.013298738 -0.0038960325 0.1412067 -0.03396657 -0.14213496 -0.21908845
0.005265007 -0.058948997 0.19818997 -0.091683626 0.13641375 0.048263483 0.021051643 -0.044712376
0.03430548 -0.10054208 0.13213675 -0.2507359 0.16195199 0.18877612 -0.02216416 0.3198067
-0.05124256 -0.22227576 0.11081309 -0.13001604 0.41454288 -0.1549382 0.18455034 0.021649117
0.16368325 -0.095791176 0.12368027 -0.16084287 -0.04962004 -0.06941098 -0.31851643 0.012981426
-0.093970254 -0.046749603 0.2822518 -0.06425935 0.046997726 0.030927595 -0.07673417 -0.15718229

model.backbone.layers.0.channel.2.bias f4 [74]
00000000: 2e66 1dbe 7b4c 4bbd 119f 07be ef76 4d3d
00000010: 09bc 083e 65a7 ba3d c799 cfbd 156b afbd
00000020: 9216 993c 4117 7f3d ed17 123e 7434 f93b
00000030: 6192 99bc ab5b 9abd 5417 06bd e18a d3bd
00000040: 46b6 e7bd 044f 483d 72b0 2f3b d12e 1ebe
00000050: 179e ca3c 3046 623c a285 edba 7062 aabd
00000060: ac76 ae3a 1db0 103c d942 b43d 57f5 70bd
00000070: c467 c9bd f492 503e 677c 60bc 6636 e53d
00000080: 33f9 19bd f729 f53c bd66 f8bc 8bbd 273d
00000090: 7cd3 813e 287b 3abd 38fa 52be eb73 13be
000000a0: f5bd 203e 8b66 33bc 3dcd aa3b 6a41 3c3d
000000b0: 602f 9d3d 780c 8bbd 352f 5dbd fe06 403c
000000c0: e625 45bc fb07 813d 252c 3cbd a7a3 c33d
000000d0: 90f5 8a3e 5e6c d8bd 3b1c 4c3d a9f5 6cbd
000000e0: 7b1b 923c 3a92 a33c b526 dd3a 4e6a e7bd
000000f0: 1fdd 0f3d 896d 4bbd 0fcb 4d3e ac77 f13d
00000100: 60fa 3dbe bd8f afbb 26ad 88bd d948 1ebd
00000110: 0fb8 c03c c01b 66bd 3747 a9bc 3537 13bd
00000120: 221a 6cbc 9245 283e
-0.1537101 -0.049633484 -0.13244273 0.050162252 0.1335298 0.09113959 -0.101367526 -0.08565346
0.01868752 0.062278036 0.1426694 0.00760513 -0.018746557 -0.075370155 -0.03273709 -0.103292234
-0.11314063 0.04890348 0.002680805 -0.15447547 0.024733586 0.013810679 -0.0018121491 -0.08319557
0.0013310513 0.008831051 0.08801813 -0.058827724 -0.09834245 0.20368558 -0.013701535 0.11192016
-0.03759117 0.029927237 -0.030322427 0.040952247 0.25356662 -0.045527607 -0.20603263 -0.14399688
0.15697463 -0.010949741 0.0052124546 0.04596082 0.07675052 -0.067894876 -0.0540001 0.011720417
-0.0120329615 0.0630035 -0.045940537 0.095526986 0.27140474 -0.105675444 0.04983161 -0.057851467
0.01783537 0.019967187 0.0016872498 -0.11299573 0.035122987 -0.049665008 0.20096992 0.11790404
-0.18552542 -0.005357711 -0.066736504 -0.03864369 0.023525266 -0.05617881 -0.02066384 -0.03594132
-0.014410527 0.16432789

model.backbone.layers.1.temporal.0.weight f4 [32, 64]
00000000: bb2f aabe c5c7 5cbe 48db 3ebe dd19 b3bd
00000010: 0e3f 003d fde1 403d f596 c53d e6ff 793e
00000020: 99a9 e83d 0c80 dc3e 0539 783d 2739 7ebd
00000030: fe9f bdbe 4fcd b5be 38c7 a2be 3ab6 48be
00000040: 7279 6cbe 95b8 223d 4558 343e cb59 503e
00000050: 7d97 313e 0b78 353e 9228 333d 156b 773e
00000060: e6b9 1cbe f66a 0f3e 8610 b5bd e012 49be
00000070: 75b6 57be e232 89bc 7a08 91bb b08c 473e
00000080: 4a77 453e f0f1 2d3e 6dbb 08be 6cae e0bd
00000090: dd16 c2be 15f0 87be df3c 1bbe 43f8 15be
000000a0: 1dbb d5bd e3a1 6b3d 9603 8f3e 3442 03bd
000000b0: 33f1 cabc 8973 7a3d 77bc 113b 9321 b0bd
000000c0: 4be8 4a3d 09c1 cdbc 0d47 0e3e 327b 1e3e
000000d0: 41a6 583d 5cdc 6f3c bbc6 6e3e d753 773e
000000e0: 6185 543e 626b e7bb 49b7 ef3d 4107 b6bd
000000f0: 12f8 b03c 5741 54bc 8f24 d9bd 3356 48bd
00000100: 9873 1bbe 6a5e 41bd 8cf9 bebd 8054 f93d
00000110: 11ed 003e 0a55 9cbb a8d8 7c3d 0584 27be
00000120: 8e5c 7dbd a053 253e 6fd1 c0bc 7a03 cfbc
00000130: b0d9 93bd c921 893a 1c92 a73b e2d1 84be
00000140: 71ba a0be d556 c63c 2e90 673d 447b 02be
00000150: b8a5 c1bd 048e 51bd 9ce9 aebd 9bc7 fbbd
00000160: 665a c53d ba33 b8bc 7e6a 64bd 3365 563d
00000170: bf14 f03d 4e57 ac3e ecbb dd3e 22b8 b03e
00000180: 3337 303e 724d 223e 3f36 8f3d f404 b7bd
00000190: 1e33 48bd 8c8f 89be aed3 87be 9483 6fbe
000001a0: cddb debd 86c5 4c3e c993 863e 028f 3c3e
000001b0: b775 773e 3a7c 993e 5eff 60bc e13c 8f3c
000001c0: 54ca acbb 54a3 76be 523b ffbd 336c 1abe
000001d0: 4f7a 58be 275b b7bd 4203 08bc 5b14 5cb9
000001e0: 42ad a6bd e4ef 103d b9cf 76be d607 05bd
000001f0: 33b9 e83d bb6d 803e c4c2 493e 65db 81be
00000200: 5225 223d 7f99 d53d 6cb8 833e 7e5a 363e
00000210: d4b5 063e 82f5 863e 8726 a23e 5a09 2d3e
00000220: 8892 363c 9e44 6e3d deb5 cdbd ae78 df3d
00000230: 487f d6bd 58cf e5bd 7fe8 39be 0a1d 35be
00000240: b190 74bd 1fdd 273d db98 6abd 1d40 62bd
00000250: 1206 cb3d 6a75 9abc 90d3 dcbd 188f 9abe
00000260: ca95 37be 2d0b 46bd 7513 3abc 2e6a 17be
00000270: 0958 87bd de79 00bd 0702 12bc ce8a 7e3d
00000280: daf8 0bbe e7f8 153c dde7 b6bd 5811 a4be
00000290: 0c3f 34bd a52c e53d 771a b13e 595c 413d
000002a0: 7079 e3bd 4a12 8dbe ee7d 9abc a7dd 1b3e
000002b0: 0dc9 cb3d 078c b03d e4b1 89bd 5410 303e
000002c0: d3e5 3c3d 8b48 803d 1ce8 3abe 59f7 16be
000002d0: 2e4e 79be 81f0 23be 7bbd 0ebd 35eb 83bd
000002e0: 59df e53d b638 b9bc 1f3b 913e 0d87 8d3e
000002f0: 9bc2 3e3e 338a c1bc 1a25 1abe d94e f0bd
00000300: a804 1cbe c0df 253d d0fc 49be 5d24 82bd
00000310: b8f2 fdbd 5c00 c1bc fad5 47be e250 873d
00000320: 26bc 1ebc 0243 05bc 8b3c 3f3d 8b24 8fbc
00000330: a9bd 1fbe 74da 1abe 1a0c 89be 8f31 63be
00000340: ad2e 9f3d 2cc2 0f3e 65fe 5cbd e304 913b
00000350: b445 e5bd e46a 18bc f8ae fd3d af3e 2d3d
00000360: 056f ebbc 86f6 d23d c0e5 9f3e 53a2 b03d
00000370: e857 253e 6707 143e 2827 ac3d d116 5abd
00000380: 4826 febd 764a c83d 16f4 f7bb 1c53 6dbc
00000390: fa82 47be 9f90 27be b85e f83d 6430 f5ba
000003a0: 360d 55be 6ddc 7fbe 6c9c 17be 5aac 56be
000003b0: 6770 1ebd 3c93 7cbd 47ba 88be 1d79 47be
000003c0: 2aee 6bbe ba8c 41be 4e7c eabd fee1 0bbc
000003d0: 05dc 74bd a2ca d1bd 22ac 703c 34da 4d3e
000003e0: 947f 4f3e b06f 493d bc4b 983d 1b7e 9bbd
000003f0: 86fd 483d 2407 06bd 2242 2abe e545 0c3e
-0.3323954 -0.21560581 -0.18638337 -0.087451674 0.031310134 0.04709052 0.096479334 0.24414024
0.11360473 0.43066442 0.060601253 -0.062066223 -0.37036127 -0.355082 -0.31792617 -0.19600764
-0.23093203 0.039726812 0.17611797 0.20346753 0.17342944 0.17721574 0.043739863 0.24161942
-0.1530529 0.14005646 -0.08841042 -0.19636106 -0.21065696 -0.016747896 -0.0044260593 0.19487262
0.19283786 0.16986823 -0.13352747 -0.10970768 -0.37908068 -0.26550356 -0.15159939 -0.14645486
-0.1043608 0.057527434 0.27932423 -0.032045558 -0.024773216 0.06114534 0.0022237578 -0.08600154
0.049537938 -0.02511646 0.13894291 0.15476683 0.052892927 0.01463994 0.23317997 0.24153076
0.20754005 -0.0070623616 0.11704881 -0.08888102 0.021602664 -0.012955031 -0.10602676 -0.04891033
-0.15180814 -0.04720918 -0.09324941 0.1217432 0.12590434 -0.0047708796 0.061730057 -0.16358955
-0.061855845 0.16145182 -0.023537366 -0.025270212 -0.07219255 0.0010462339 0.005113853 -0.25941378
-0.31392244 0.024211327 0.056533985 -0.12742335 -0.094554365 -0.051160827 -0.08540651 -0.12293931
0.09636383 -0.022485603 -0.05576562 0.052342605 0.11722707 0.33660358 0.43307436 0.34515482
0.17208557 0.15849856 0.069927685 -0.089364916 -0.048876874 -0.2686733 -0.26528686 -0.23390037
-0.108817674 0.19997224 0.26284626 0.18413928 0.24165998 0.2997759 -0.013732759 0.017485084
-0.005273143 -0.24085742 -0.12462486 -0.15080337 -0.21140407 -0.08952933 -0.008301558 -0.00020988418
-0.08138515 0.035385028 -0.24102677 -0.032478176 0.11363449 0.25083718 0.19703203 -0.25362697
0.039586373 0.10429668 0.2572664 0.17807958 0.131553 0.26359183 0.3167002 0.16898099
0.011143334 0.058170907 -0.10044454 0.1091169 -0.10473496 -0.11221188 -0.18155096 -0.17686859
-0.0597083 0.040982362 -0.05727468 -0.055236924 0.09913267 -0.018854816 -0.1078254 -0.30187297
-0.17928234 -0.0483505 -0.011357178 -0.14786598 -0.06608588 -0.03136622 -0.008911616 0.062144093
-0.13669148 0.009153581 -0.08930943 -0.32044482 -0.04400544 0.11190156 0.34590504 0.04720721
-0.11107147 -0.27553016 -0.018858876 0.15221272 0.09950457 0.08620458 -0.06723383 0.17193729
0.046117615 0.062638365 -0.18252605 -0.14742793 -0.2434623 -0.16009714 -0.03484867 -0.064413466
0.11224241 -0.02261005 0.28365418 0.27642098 0.18628924 -0.023625469 -0.15053216 -0.11733789
-0.15236151 0.040496588 -0.19725347 -0.06354592 -0.123998106 -0.023559742 -0.1951522 0.06607224
-0.009688413 -0.008133652 0.046688598 -0.01747348 -0.15599693 -0.15122396 -0.26767045 -0.22186874
0.077725746 0.14038914 -0.053953547 0.0044256314 -0.111949354 -0.009302828 0.12386888 0.042296108
-0.028739462 0.10300927 0.31229973 0.08624711 0.16146815 0.14455949 0.08405906 -0.053244416
-0.12409645 0.09779827 -0.007566939 -0.014485147 -0.19483557 -0.16363762 0.12127441 -0.0018706438
-0.20805821 -0.2498643 -0.14805764 -0.20964184 -0.038681414 -0.06166385 -0.26704618 -0.19479795
-0.23040071 -0.18901339 -0.114494905 -0.008537767 -0.05978014 -0.10243727 0.014689477 0.20102769
0.20263511 0.04917878 0.0743632 -0.07592412 0.049069904 -0.032721654 -0.1662679 0.13698538

model.backbone.layers.1.temporal.0.bias f4 [32]
00000000: 4e46 e3be fe73 bebe 3d88 33bf 6378 c7be
00000010: 4a6b 02bf 22d5 43bf 7028 f9be 58c2 333d
00000020: b162 6fbe cd45 f9be 2492 0abf e5a9 e9be
00000030: 8f29 a1be ca00 02bf 41d3 92be 82de 16be
00000040: 8897 93be af59 cebe da5e 94be 397d 14bf
00000050: ff27 49bf 53e8 75be f73c 17bf 285c 1cbe
00000060: 8c16 9abe 5cee 4abf 5d15 f2be 2129 47bf
00000070: fb09 d0be d707 3bbf 2d6a 91be eb39 69bf
-0.44389576 -0.3719787 -0.7012976 -0.38959035 -0.5094496 -0.7649709 -0.48663664 0.043886513
-0.23377492 -0.48686066 -0.5412924 -0.45637432 -0.3147702 -0.50782454 -0.286768 -0.14733317
-0.28826547 -0.40302798 -0.28978616 -0.58003575 -0.78576654 -0.24014406 -0.590774 -0.1526953
-0.30095327 -0.7926996 -0.47281924 -0.7779713 -0.40632614 -0.7305884 -0.28401318 -0.91104
