experiments/AdversarialDomainAdaptation/saved_models/tsmixer_da_pretrained_4.pt (torch, 731036 bytes, 30 tensors)

model.backbone.static_proj.weight f4 [64, 10]
000000 08 9f b3 3d 11 7c 44 3d 7f 84 a5 3b 21 65 52 be
       0.08770567 0.04796988 0.005051195 -0.2054639
000010 1c fc ce bb c1 34 79 3e 33 4f a2 be 74 19 47 3e
       -0.006316675 0.2433653 -0.3170105 0.19443303
000020 8d fb 3f 3c 7f 45 2c be 13 53 50 bc 14 37 b4 bd
       0.011717689 -0.16823386 -0.012715119 -0.08799568
000030 ab 45 ce 3e 8c 14 b0 3d 57 14 2d 3e 0a a8 b7 3d
       0.40287527 0.08597669 0.1690229 0.08967598
000040 8b 4b 21 3d 43 84 ab 3c b2 23 17 3e ec e7 f8 3d
       0.039378684 0.02093709 0.1475971 0.121536106
000050 f7 c9 77 bc 86 bb 69 bc 47 cc 78 3e 94 ef 4d bd
       -0.015123836 -0.0142659005 0.24296676 -0.050277308
000060 13 dc 84 be d9 13 13 bd 4a 33 13 3e aa cd bb bd
       -0.25949153 -0.0359076 0.14375034 -0.09170087
000070 9d 0e 2d 3e d8 e4 8e 3e 1b 79 93 3d fd 55 d1 3d
       0.16900106 0.2790897 0.072008334 0.10221479
000080 a6 83 bc 3d cb 1b 76 3d 3a 45 9a 3d 3b 5b 61 3e
       0.092047974 0.0600851 0.07532735 0.22007458
000090 2d a1 db bd 09 5a ff bd 09 3e 4b 3e 08 f1 7b bd
       -0.10724101 -0.12468345 0.19847883 -0.061509162
0000a0 48 18 91 bc 5b fa 44 bd 8a da 99 3e fb 5c e6 bd
       -0.017711774 -0.04809032 0.30049545 -0.11248203
0000b0 16 fd 1a be 25 c8 9f 3e 29 8d 22 be b9 d4 dc 3b
       -0.15135607 0.31207386 -0.15874161 0.0067392257
0000c0 18 ad e3 bc 41 c0 9b bd b6 ac 77 bd 9f a3 4b 3d
       -0.027792498 -0.07605029 -0.060467444 0.049716588
0000d0 34 2b 0f be 6c 08 45 bd 3d 11 c7 3c 65 56 89 bb
       -0.13981324 -0.048103735 0.024300212 -0.0041912072
0000e0 6a 7f 76 3c 85 08 dd 3d aa 18 96 bd b6 98 8e 3d
       0.015045026 0.107926406 -0.07328923 0.06962721
0000f0 12 8b aa bc d3 0c a7 bc 2e 38 79 be f6 7f 21 3e
       -0.020818267 -0.020391857 -0.24337837 0.1577147
000100 29 81 98 be d2 1d f9 bc 2a b7 55 3d 34 bd 04 bd
       -0.2978604 -0.030409727 0.052176632 -0.032407
000110 d7 26 3c bc 6b 92 46 3e 6f c3 0a 3d 38 2c c2 3d
       -0.0114838695 0.19391792 0.033877786 0.0948109
000120 8c cb bb be 12 66 bf 3d 8e e5 4a be 23 20 5e be
       -0.3667873 0.0934564 -0.1981413 -0.21691947
000130 3b ee 1b bd bb d0 83 bd d9 5c 05 be 1c 57 2b 3e
       -0.03806899 -0.064362966 -0.130237 0.16732448
000140 83 69 49 3c 99 19 98 3c aa 8b b0 bd f6 83 0f bc
       0.012293222 0.018566893 -0.08620389 -0.008759489
000150 81 7a 8c 3e 5c c0 83 be 93 3a 42 bd 51 55 22 3c
       0.27437213 -0.25732696 -0.047419142 0.009908036
000160 32 54 5c bc 28 7e f7 3d 80 ba b3 bc 81 79 af bc
       -0.013447808 0.12084609 -0.021939516 -0.021420242
000170 85 d8 df bd ce 82 71 bc cf 8c 21 3e ba 1f 21 bd
       -0.1092997 -0.014740659 0.1577637 -0.039336897
000180 68 28 9a bd b2 f9 2e 3d 79 29 a0 bd db 64 dd bd
       -0.07527238 0.042718597 -0.0782041 -0.10810252
000190 a0 15 bd 3b b6 5d 4a 3d f3 da ae 3d 06 6a 66 bc
       0.0057704 0.049405776 0.08537855 -0.014063364
0001a0 df 94 d9 bd d3 a0 30 3e 60 39 ad bd 5c ea fd 3d
       -0.10624098 0.1724885 -0.08458209 0.12398216
0001b0 38 01 03 3e 17 ad 3d 3e 76 eb cb bd 20 52 14 bc
       0.12793434 0.1852306 -0.0995702 -0.009052783
0001c0 b0 68 09 3f 23 85 0e be 47 b1 b2 bc 26 9e a7 3d
       0.53675365 -0.13917975 -0.021813048 0.08184461
0001d0 30 ad 6f 3e a2 1b 5c be 5c 55 3a 3e d6 8a 32 3e
       0.2340591 -0.21494916 0.18196625 0.17435774
0001e0 8c 0b cf 3d 06 45 9b 3d d6 8e 2f 3e 52 ce bf 3e
       0.10109624 0.075815246 0.17144331 0.37462097
0001f0 d3 22 4e 3e 84 ce 34 3e cf 03 ad 3e 27 f1 33 bd
       0.20130472 0.17656904 0.33791968 -0.043931153
000200 e3 e1 5d 3e 39 7a b3 3d 57 4d de bd d5 75 1e 3e
       0.216682 0.087635465 -0.10854595 0.15474637
000210 87 c1 fb bd 99 03 10 be 20 d9 ff bd 66 01 58 3d
       -0.12292772 -0.14063872 -0.12492585 0.05273571
000220 58 0c 1e be 03 31 8c bc 06 07 0a be 4c a2 1a 3e
       -0.15434396 -0.017113214 -0.13479242 0.15100974
000230 a4 a4 00 bd 04 ee fc bd 44 ba 3e bd 30 f8 b8 be
       -0.031407014 -0.123500854 -0.046564355 -0.36126852
000240 11 40 8d bb 57 b1 ef bd 2b a6 36 be f3 3c 18 3c
       -0.004310616 -0.11703747 -0.17836826 0.009291875
000250 07 02 31 be c6 44 04 3d f0 8b 1d bc 1c c8 8e bd
       -0.1728593 0.03229215 -0.009615883 -0.069717616
000260 a9 16 a8 3d 82 38 22 bd 42 8c 2f bd 12 95 87 3d
       0.08207447 -0.03960467 -0.04285837 0.0662023
000270 cf 7e 35 3e ee 50 46 bd 1d db ab bd 7c c9 88 bc
       0.17724155 -0.048417024 -0.08391402 -0.016697638
000280 8d a1 0c be fe ca c2 bc 9f e3 1f 3d 42 5d 54 3d
       -0.13733502 -0.023778435 0.039035436 0.05184675
000290 d1 fc 85 3d 39 97 22 3d 87 a4 75 bd 1b 08 d5 3d
       0.065423615 0.039695 -0.05997136 0.104019366
0002a0 06 b3 c0 3d f6 f7 b7 bd 21 a4 81 bb 61 8f 0c be
       0.09409146 -0.08982842 -0.0039563333 -0.1372657
0002b0 7c c4 b1 be 74 b2 c7 be 38 f9 cc be 51 98 b4 bd
       -0.34720218 -0.39003336 -0.4003389 -0.088181145
0002c0 6d 85 28 bd d5 71 eb 3c 7f 96 4d bd 4f 47 9b bd
       -0.04114287 0.028740803 -0.050192352 -0.075819604
0002d0 35 35 24 bd 9a 51 c2 bc 96 3d e5 bc f5 ee 09 bd
       -0.040089805 -0.023720551 -0.027983468 -0.033675153
0002e0 28 b2 84 3e 47 17 34 be c9 ee 20 be 77 2f 12 3d
       0.25917172 -0.17587005 -0.1571609 0.035689797
0002f0 a3 73 bd 3d 50 07 99 bd 45 dc fd 3b b5 ae ef ba
       0.092505716 -0.07472098 0.0077472054 -0.001828632
000300 55 83 8d 3d 48 96 ee 3c d9 15 87 be 36 d7 68 3e
       0.06909815 0.029124394 -0.26383856 0.22738346
000310 bc f5 36 3d 4b 05 0c bd e4 1c ce bd 05 80 e5 3b
       0.044667944 -0.034184735 -0.10064104 0.0070037865
000320 72 b9 15 be 6c ee 96 3d 46 4a f8 3d af 61 90 be
       -0.14621523 0.07369694 0.121235415 -0.28199527
000330 67 34 98 be d8 43 8e bd a7 f9 8c 3d b4 9d 20 3d
       -0.2972748 -0.06946534 0.06883555 0.039212897
000340 5e 5b ff 3c 8c 4b 4d 3e ea 52 e1 3d 6d 9f 25 bc
       0.031171497 0.2004835 0.11002143 -0.010108811
000350 9a 54 02 3e 03 41 d4 bc 7a 85 31 bc 92 b6 0b 3d
       0.12727585 -0.025909906 -0.010835046 0.03410966
000360 90 18 a4 3d fa 22 49 3d 0f 75 ca 3d f1 68 0f be
       0.080124974 0.049105622 0.098856084 -0.14004876
000370 b1 3b 9a bd 2b a2 4d bc fc 04 6d 3d b6 0d 2d be
       -0.075309165 -0.012550871 0.05786608 -0.16899762
000380 16 95 78 be 1d bb cc 3d e9 ec 8a 3e 8e 45 52 be
       -0.24275622 0.099966265 0.27133873 -0.20534346
000390 28 7d 09 be 55 c3 f3 3d 54 ed 1f 3d aa b1 cb 3d
       -0.1342665 0.11902491 0.039044693 0.09945996
0003a0 61 8a 8e be fa 7d 13 be ff 38 fd bd 05 0b 8d be
       -0.2783995 -0.14403525 -0.12364387 -0.2754747
0003b0 2d 6a ad bc 2d 40 77 bd f6 69 56 be f3 11 ae 3d
       -0.021168793 -0.060363937 -0.20938858 0.08499517
0003c0 53 cf 28 3d 9d 3f 27 3e b7 f8 da 3d 61 b9 aa bc
       0.041213345 0.1633286 0.1069197 -0.020840349
0003d0 20 a2 b1 bd 69 4b 2a bd 05 ca 4e bd ce 72 28 3c
       -0.08673501 -0.041575823 -0.05048563 0.010281278
0003e0 77 72 4e 3e 81 96 29 be 3a 72 eb 3d 95 ac 6e 3d
       0.20160852 -0.16561319 0.11496396 0.058270056
0003f0 97 ca 9c 3d 0e 95 11 bd a0 19 99 3e 40 2c c6 bd
       0.076558284 -0.03554254 0.29902363 -0.09676409

model.backbone.static_proj.bias f4 [64]
000000 1f 32 a1 3d e5 57 31 bb 83 5d a4 be 79 4f 10 3e
       0.07870888 -0.0027060446 -0.32102594 0.14092816
000010 f7 ed 19 3e 1a 02 86 3d 1e b3 39 be 53 78 3a 3e
       0.15032183 0.065433696 -0.18134734 0.18209963
000020 1b 3d 75 3d 95 b7 e7 bd a0 66 22 be 50 f6 74 bc
       0.059872728 -0.11314312 -0.15859461 -0.014951304
000030 0c 9e bd 3d bb 7f b9 3d 6e bf 5d 3e 72 e2 c8 bd
       0.09258661 0.09057566 0.21655056 -0.09808816
000040 ed fb fa bd 0c a1 3c be 9b 3d 8a bd 99 79 0f bc
       -0.12255082 -0.1842081 -0.067500316 -0.0087570185
000050 6c 2f b8 bb ea dc d2 bd bc 4e 1a 3e 0c 83 f7 bd
       -0.0056208875 -0.10296042 0.15069097 -0.12085542
000060 eb 8d 84 3e d3 d5 48 3d 42 70 44 bd ee 13 86 bd
       0.25889525 0.049032044 -0.04795862 -0.0654677
000070 5f 91 4c be 51 b1 d2 3d 33 c2 1c be 26 d4 5b 3e
       -0.1997733 0.10287727 -0.15308456 0.21467647
000080 14 9e 1d bd 4b 8c 96 3d 3d f2 0e 3e e5 35 f7 3d
       -0.038480833 0.073509775 0.13959594 0.120708264
000090 ca 19 be bd 34 9e 3d bd 7a 59 11 be 23 3a cc 3c
       -0.092822626 -0.046293452 -0.14194289 0.024930065
0000a0 f5 f0 92 bd e8 11 06 bd fc ca 74 be ef cf da 3d
       -0.07174865 -0.03273192 -0.23905557 0.106841914
0000b0 ca 90 36 3d 79 bf 9b bd 16 02 f5 3a 84 ed 2a be
       0.044571675 -0.0760488 0.0018692638 -0.16692168
0000c0 fc d5 b3 be 99 f0 26 be e6 07 91 3d 83 81 19 bc
       -0.35124195 -0.16302718 0.07081585 -0.009369257
0000d0 0b 04 25 be 55 66 63 be a6 57 a3 3e ff 79 67 bd
       -0.16114824 -0.22207005 0.31902808 -0.05651283
0000e0 54 7b 57 3d a8 b7 d7 bc ec e1 55 bc 2c ca 2e be
       0.05260785 -0.026332691 -0.013054352 -0.1706931
0000f0 12 f4 ec 3c 70 32 82 bd af bb 21 3e 1a 41 24 3e
       0.028924976 -0.063572764 0.15794252 0.1604046

model.backbone.layers.0.temporal.0.weight f4 [32, 64]
000000 36 b7 43 3e 0c 7d 2d 3d 0f 17 11 3e 53 e3 69 bc
       0.19112858 0.042355582 0.14168952 -0.01427539
000010 70 02 a1 bd 56 7e 1b bd a0 fc f3 3d ec bc d1 3c
       -0.07861793 -0.03796228 0.11913419 0.02560278
000020 cb e0 25 3c 6a f6 d7 3c b7 ce 05 bb 4e 00 35 bd
       0.010124396 0.026362617 -0.00204174 -0.044189744
000030 70 cd bc 3d 35 27 82 3d da ac a2 3d 15 07 2b 3c
       0.092188716 0.063551344 0.07943125 0.0104387
000040 37 79 0c be a0 65 39 be d9 0b c4 bd fd 5f 2f bd
       -0.13718115 -0.18105173 -0.09572572 -0.04281615
000050 6e ca 5a 3b 06 42 db 3b 25 83 9c 3a bc 22 f6 bc
       0.0033384818 0.00669122 0.001194094 -0.03004586
000060 f2 8a 0b bc 7b 92 86 3d bd 45 96 bd 76 2e 5c bd
       -0.008517014 0.06570908 -0.0733752 -0.053755246
000070 d9 16 37 bd 98 39 a1 bc 95 2b 22 bc b2 74 bd bd
       -0.044699524 -0.019680783 -0.009898086 -0.092507735
000080 b5 0e 87 bd f9 a3 2b be be b2 dc bc 64 e8 d3 bb
       -0.06594602 -0.1676177 -0.0269407 -0.006466912
000090 0f 0e fc bd f7 3e a3 bd 30 37 10 be 88 5e 9e 3c
       -0.12307369 -0.07970994 -0.14083552 0.019332185
0000a0 7a 61 b5 3d bf 5b 27 3e 2a 7d 2b 3e e4 df 2d 3e
       0.08856483 0.16343592 0.16746965 0.16979939
0000b0 95 01 4c 3d 66 ad 09 3d bb 63 f3 bd b4 7a 11 be
       0.049806196 0.03361263 -0.118842565 -0.14206964
0000c0 cc d8 0a bd b4 df 8b 3d 04 71 02 3e 03 ff 32 3e
       -0.03389816 0.06829777 0.12738425 0.17480092
0000d0 ee aa a4 3d c1 52 17 3e f5 44 75 3d 8f 49 60 3c
       0.08040415 0.14777662 0.059880216 0.013689413
0000e0 61 e2 0a bc 0e a1 45 3c 71 c7 fc 3d 4a 5b 41 bd
       -0.0084768245 0.012062324 0.12342728 -0.0472062
0000f0 b0 8f 01 3e e5 fe bd 3d 40 0f bf 3d 78 61 ec 3d
       0.12652469 0.09277133 0.093290806 0.11542028
000100 e5 dd 9a bd 72 61 fc bd c4 e2 36 be ab 97 bc bc
       -0.07561854 -0.12323274 -0.17859942 -0.02302154
000110 b8 3c 14 3d f1 bc 65 39 32 e1 66 3d 2a 37 1e bd
       0.03619072 0.00021909528 0.056367107 -0.038626827
000120 65 b0 07 be 32 6c ae bd a8 ed 90 be da d7 31 be
       -0.13250883 -0.0851673 -0.28306317 -0.17367497
000130 02 f3 85 bb 45 3c cb 3d 37 38 96 bd f0 ef be 3d
       -0.0040878067 0.09923605 -0.07334941 0.09323108
000140 00 ea 48 3c ee 4e 0a 3c f5 2b a0 3d fa 53 91 3d
       0.012262821 0.00844167 0.07820884 0.070960954
000150 aa 49 40 3e ec 84 ef 3d 95 7b af 3d cb 87 0e 3e
       0.187781 0.11695275 0.08568493 0.13918988
000160 cb e4 bb 3d 37 6f 11 3d 77 d0 e5 bc 18 f2 50 3d
       0.09174498 0.035506453 -0.028053505 0.05101213
000170 f1 8c e1 bd a0 c4 5f bc dd c0 e8 bc 5b 0f 08 bc
       -0.110132106 -0.013657719 -0.028412277 -0.008304442
000180 c3 53 93 bd 23 ae 18 bd 84 84 22 be e7 e9 af be
       -0.07193711 -0.037275445 -0.15870863 -0.3435814
000190 7e 0c 54 be e2 34 d5 bd 5a fa 04 bd 00 25 4d 3b
       -0.2070789 -0.10410477 -0.032465316 0.0031302571
0001a0 b5 24 78 3d bc 68 ec 3d 4b b8 03 3e 79 b3 24 3e
       0.06058188 0.11543414 0.12863271 0.16084088
0001b0 02 ac e5 3d 61 fd e2 3d f4 7c 07 3d 78 7f ff 3d
       0.112144485 0.110834844 0.03307815 0.124754846
0001c0 5e 63 25 bd c6 e1 14 bd 6d 5f 73 bd 77 32 ae bd
       -0.040377967 -0.036348127 -0.059417177 -0.08505719
0001d0 08 81 a6 bd bc fe 74 3d 7e d8 b1 bb a1 97 d6 3b
       -0.081300795 0.059813246 -0.005427419 0.0065488373
0001e0 c2 66 80 bb fe 80 e4 3d 3b e6 c7 3d 91 29 13 3e
       -0.0039184997 0.11157416 0.0976071 0.14371325
0001f0 cb 69 bd 3d 51 09 23 3d f0 bf c4 3d 0e 04 57 bd
       0.09248694 0.039803807 0.09606922 -0.0524941
000200 1a 54 9a 3d 2d c8 87 bd 55 14 59 bc 17 4d fd 3c
       0.07535572 -0.066299774 -0.013249476 0.030920548
000210 50 e1 9a 3d e2 eb f3 bc e1 d6 e0 3d 7e 5b f1 bb
       0.07562506 -0.029775564 0.10978485 -0.007365643
000220 4d f4 ab bc 79 23 f2 bc 20 fc c5 bd 33 ce 9c bc
       -0.020990515 -0.02955793 -0.0966723 -0.019141292
000230 5f f4 93 bc 86 53 c5 bd 22 bf b2 3c bc b7 7c 3d
       -0.018060861 -0.096350715 0.021819655 0.06169866
000240 bc 07 35 3d 71 e5 21 3d 17 9c f5 3c 83 e0 87 3d
       0.04419683 0.039525453 0.029981656 0.06634619
000250 44 07 42 3e e4 35 00 3e da 41 e5 3d 95 48 33 bd
       0.18948084 0.12520558 0.11194201 -0.04377039
000260 8d 31 e8 bd f1 5e c6 bd 03 37 88 bc b3 6a 73 3d
       -0.11337576 -0.096860774 -0.016627794 0.05942793
000270 2b 26 cc 3d 44 ad bf 3d ed c1 ee ba ec d3 bb bd
       0.099682175 0.0935922 -0.0018215753 -0.0917128
000280 1c 6d 78 3d e4 24 df bb e1 ce a1 3c b3 54 9c bc
       0.06065093 -0.0068098176 0.019751968 -0.019083356
000290 1e a6 e0 bc 86 43 19 3d 32 44 9e bd ce c9 85 3c
       -0.02742296 0.03741791 -0.07727851 0.01633158
0002a0 8e 34 92 bd 3e f9 77 bd 64 db cf bd 1c 55 cb 3c
       -0.0713893 -0.06054043 -0.10149267 0.024820857
0002b0 90 fb 07 3d 17 fa 04 be ae 66 d0 3d 84 b9 80 bd
       0.033198893 -0.12986027 0.101758346 -0.06285384
0002c0 3b f8 7a 3d 00 84 b1 3d 5a c3 c8 bc 66 c3 92 bd
       0.061271887 0.08667755 -0.024507213 -0.071661755
0002d0 9f ba 15 bd 4f 5a 2a bd 00 88 08 bd 49 f1 a0 3d
       -0.03655493 -0.04159003 -0.033332825 0.078585215
0002e0 72 fb 40 3e f6 4b 2c 3e a9 b0 30 3d a8 38 11 3e
       0.18845919 0.16825852 0.043137226 0.14181769
0002f0 d7 75 1a 3e 1f 4a 5f 3e 58 f4 2d 3e a8 01 37 be
       0.15084015 0.21805619 0.16987741 -0.17871726
000300 ee 2e 9d bd f8 22 f2 bd d5 51 32 3e cf 2f 9a 3e
       -0.07674967 -0.11823076 0.17414029 0.301146
000310 7b a5 f4 3d 3a 14 01 3e a5 41 9f 3d 62 6d b2 3d
       0.119456254 0.12605372 0.077761926 0.08712269
000320 65 e0 5a be 7f 48 3f be ca 63 aa 3d 6d 39 4d 3e
       -0.21374662 -0.18679999 0.083198145 0.20041437
000330 d6 99 79 bd b0 df f9 3d 67 2b b9 bc 00 f1 20 be
       -0.060937725 0.12200868 -0.022603704 -0.15716934
000340 de 6a 8c bd ce 45 9a bd 57 63 ee 3d 8d 0b 02 bd
       -0.06856321 -0.075328454 0.11640041 -0.031749297
000350 85 8d 83 bd 76 fa b4 3d 78 66 93 bd 35 a3 f5 3d
       -0.06423477 0.08836834 -0.07197279 0.1199402
000360 78 14 ea 3c 39 61 af 3d 4d b8 35 be ae ab 83 bd
       0.028574213 0.085634656 -0.17746086 -0.0642923
000370 a8 a5 4b be 0c 36 8f bd 58 93 75 be 98 2d 47 3e
       -0.19887412 -0.069927305 -0.23981988 0.19450986
000380 87 7d 2b 3d b6 89 ed 3a ac 65 0f 3e db f2 bd bd
       0.04186776 0.0018122706 0.14003628 -0.09274837
000390 70 a1 d8 3c e5 08 05 be 5a 04 c3 3d a0 17 ea bc
       0.026444167 -0.12991674 0.09522314 -0.028575718
0003a0 b0 aa 81 bc d2 b3 e1 bc 96 3e 51 be 72 4c 33 be
       -0.01582846 -0.027551565 -0.20434031 -0.1750963
0003b0 08 ab 4c be f9 e5 e3 3d 66 13 4d 3c 06 75 31 3e
       -0.19987118 0.11127848 0.012516832 0.17329797
0003c0 5c 57 78 3d c1 69 37 3e 65 36 1d 3e 7f ef 57 3d
       0.060630187 0.17911436 0.15352781 0.052718636
0003d0 50 a7 72 3c 9a 3e 7c be 74 00 ae 3d c0 d0 b1 bd
       0.014810398 -0.24633256 0.0849618 -0.08682394
0003e0 ad 96 f4 3d 79 55 a1 bd 6b 0b cc bd 7c c6 28 bd
       0.119428016 -0.07877631 -0.09963115 -0.041204914
0003f0 b1 cf 2f bd ad 9e 6d 3d 33 ae b4 bc a5 78 c7 bd
       -0.04292268 0.058012653 -0.02205572 -0.09739808

model.backbone.layers.0.temporal.0.bias f4 [32]
000000 a6 92 2a bd 8a 04 09 bf 8b ee 9f bd a8 c7 18 be
       -0.04164376 -0.5352255 -0.0780917 -0.14919913
000010 14 00 13 bf e2 5a ce bd bf 99 19 bf c8 4c e6 be
       -0.57421994 -0.10075928 -0.6000022 -0.44980454
000020 9d 22 4a bf 0d cf a1 be ad 7c 2e bf 66 43 b4 3e
       -0.78959066 -0.3160328 -0.6815899 0.3520767
000030 8d b2 72 be 97 ef a5 3c 40 a4 f7 3c ee 00 80 be
       -0.23700924 0.020255847 0.030229688 -0.2500071
000040 3b 59 75 3d 4b ae b3 be 4e fd 1b 3e 92 bc 8f be
       0.05989955 -0.35093912 0.15233347 -0.28073555
000050 26 b3 7b bd 46 fa 14 be 91 89 97 be 76 26 92 be
       -0.061450146 -0.14548597 -0.29597142 -0.28544968
000060 a2 99 02 bf ab 7b 7f be bd 93 be 3c 55 53 68 bd
       -0.51015675 -0.2494952 0.023263806 -0.056720097
000070 7c 05 ba be f6 0c bf be 72 61 c0 be 4a fd cd bc
       -0.3633231 -0.37314576 -0.37574345 -0.025145192

model.backbone.layers.0.temporal.2.weight f4 [64, 32]
000000 24 09 1a 3e fe 9c bb bc df 8d aa bd ba 77 da 3d
       0.1504255 -0.022902008 -0.08327841 0.10667367
000010 9b 98 57 3e ef 68 03 3e 69 70 35 3d bd 40 22 be
       0.21054308 0.12832998 0.044296656 -0.15845008
000020 f7 bc 9d bd 1b 2d a4 3c e4 d5 08 3e f4 59 b6 3d
       -0.07702058 0.02004104 0.13362843 0.08903876
000030 9e 2f 91 bb c8 37 27 3d 68 7b aa 3d b7 52 66 3d
       -0.0044307252 0.04082468 0.08324319 0.056231227
000040 52 9c 83 bd 70 c4 45 3e 91 17 d8 3a b7 db d3 bd
       -0.064263 0.19313216 0.0016486516 -0.10344642
000050 43 61 40 3c 45 41 ea bd fe 89 18 be c3 a9 27 be
       0.011741939 -0.114382304 -0.1489639 -0.16373353
000060 91 c5 39 bd 10 83 2c bd 66 7c 14 3e 4b 06 33 3d
       -0.04535443 -0.04211718 0.14500579 0.043707173
000070 9d ee 8a bd 82 22 64 be 0f 44 89 bc 47 2f 19 3e
       -0.06783793 -0.22278789 -0.016756086 0.14959441
000080 eb fd d4 3d b7 e2 8b 3d 31 66 f3 3d 0d 3b bf 3d
       0.103999935 0.06830352 0.11884726 0.09337435
000090 20 bd 13 3e f9 ca db ba f9 96 43 be f5 12 99 bd
       0.14427614 -0.0016768865 -0.1910056 -0.07474319
0000a0 3d 56 9a be f6 1f ba bd cd 54 ed bd 17 91 46 bd
       -0.3014392 -0.09088127 -0.1158844 -0.048478212
0000b0 cc f2 73 3d a9 01 cd 3c f5 34 c4 bd 25 cb 00 3e
       0.05955772 0.025025206 -0.09580413 0.12577493
0000c0 e7 06 24 bd 01 58 2a bd 55 31 26 3e da 82 f6 bd
       -0.040045645 -0.041587833 0.16229756 -0.12036677
0000d0 73 02 30 be a0 2d 5f bd 9f f1 43 be ce 8b 1f be
       -0.17188434 -0.05448687 -0.1913514 -0.15580675
0000e0 b5 d4 59 3c 70 62 8e 3e c3 bd 88 3e a0 92 f3 3d
       0.013295342 0.27809477 0.26707277 0.11893201
0000f0 2f 89 dd 3d c4 b4 49 3c bf 96 01 bd 03 c4 e7 bd
       0.10817181 0.012311164 -0.031637903 -0.11316683
000100 5f c4 09 be 13 f5 d9 3d c7 9e 80 be 7e fb 1d 3d
       -0.13453816 0.10642447 -0.25121137 0.03856992
000110 bc ac 54 be de 4b a2 3d 14 e9 2f 3e b0 ac 0e be
       -0.20769018 0.07924627 0.17178756 -0.13933063
000120 40 dd b8 bd 5f 15 80 bd b9 8c 8f 3e 87 31 9d bc
       -0.09026575 -0.06254076 0.2803705 -0.019188656
000130 a9 0e a0 bd 70 80 a7 3d 3c 9a 7a be a7 85 3a bd
       -0.07815296 0.081787944 -0.24472898 -0.045537617
000140 b6 32 bd 3d 7e 5e b9 3d 42 9a b6 bd c6 6d 20 bc
       0.09238188 0.09051226 -0.08916141 -0.009791797
000150 42 10 1c 3e 46 e7 3f 3d 50 db f9 bc 18 7e 9a bc
       0.15240577 0.04685142 -0.030500084 -0.018858954
000160 5a 72 02 3e 9b 50 83 3d ba 90 42 3c 68 35 3f bc
       0.12738934 0.06411859 0.011875326 -0.011670448
000170 01 9d 4c bd 0f d3 fa bd 81 ff ee 3c 03 3f fa 3c
       -0.049954418 -0.122472875 0.029174568 0.030547624
000180 77 59 a2 3d c8 3e 01 b9 f7 3b 86 bd 20 94 e6 bd
       0.0792722 -0.00012325787 -0.06554406 -0.11258721
000190 a1 7c 25 bd 73 e2 ee 3c cc 7c e1 3c d1 a1 20 be
       -0.04040206 0.029160714 0.027525328 -0.15686728
0001a0 11 be b2 bd 5e 46 dd bd 04 86 05 3e e7 2f 15 3e
       -0.087276585 -0.10804437 0.13039404 0.14569055
0001b0 46 81 7f be 5c 19 64 3a fc c0 09 3e f7 31 28 39
       -0.24951658 0.00087012886 0.13452524 0.00016040342
0001c0 87 d4 cd 3c c2 99 68 3c b1 bb 58 be fb 59 24 3e
       0.025125755 0.014196815 -0.21165349 0.1604995
0001d0 6c a5 b7 bc 17 5b 9e 3c 16 e4 8e 3d 8a 60 65 bd
       -0.022417746 0.019330544 0.06977098 -0.05600027
0001e0 ae 89 da 3d 8f 1d d4 3e 07 d9 d1 3d 6d 14 a4 3a
       0.106707916 0.414288 0.10246473 0.0012518294
0001f0 ba b4 ae bd c4 29 59 be 2e 3d e3 bb 42 8a 05 bd
       -0.085305646 -0.21207339 -0.0069347834 -0.032602556
000200 b5 62 49 3e b5 f0 32 3e ad 59 c7 bd fb d5 2f 3e
       0.1966656 0.17474635 -0.09733901 0.17171471
000210 4f d6 71 3e 17 d4 15 be 7a 1b 57 3d 63 4d 8a be
       0.23616908 -0.14631687 0.052516438 -0.27012166
000220 01 21 1c be a4 fd 1c bd 12 24 33 3e f9 a6 a3 3d
       -0.15246965 -0.038327828 0.17494228 0.07990832
000230 77 9a 9e 3d 4b 2e 5b 3e a0 b7 60 3d 9c 26 17 3d
       0.077443056 0.21404378 0.05486262 0.036902055
000240 97 c3 69 bd 44 21 40 bd e9 ad 18 bd 2a 20 47 bd
       -0.057071295 -0.046906725 -0.03727523 -0.04861466
000250 6b 6d e4 bd 1c e0 20 be ab 19 b5 bd 25 68 92 bd
       -0.11153682 -0.15710491 -0.088427864 -0.0714877
000260 8d 09 2e 3d 73 a6 82 bd 45 c0 fa 3d 70 e2 b5 bd
       0.042489577 -0.06379404 0.12243704 -0.0888108
000270 f7 cf 80 be 3d b3 50 3d ab 41 25 3e ab 71 2e 3d
       -0.25158665 0.050952185 0.16138332 0.04258887
000280 82 27 c0 3c 14 2c a9 bd 98 c9 8e 3d 24 d7 81 3b
       0.023456339 -0.0826036 0.06972045 0.0039624143
000290 e7 70 62 3d 93 2e a0 3e 05 0e 63 3d 5a 56 53 bd
       0.055283453 0.31285533 0.055433292 -0.051596023
0002a0 fd 95 50 bd 03 c3 8c bd cc dc 7a 3e c1 44 9a bd
       -0.05092429 -0.06873133 0.2449829 -0.07532645
0002b0 06 02 64 3c db e4 32 bd a2 15 97 3e 80 08 1c 3e
       0.013916498 -0.043675285 0.29508692 0.15237617
0002c0 f4 a8 e1 bd ef fe 4b be 5c 38 89 bd 39 07 fd 3d
       -0.110185534 -0.19921468 -0.06700203 0.12354893
0002d0 75 3e 06 be 7e 77 36 be 14 07 a8 3d fc 23 2c 3e
       -0.13109763 -0.1781902 0.08204475 0.16810602
0002e0 01 b4 3b 3b c3 e2 37 3e 35 f2 29 3e 3c fc a4 bd
       0.0028641226 0.17957596 0.16596301 -0.080559224
0002f0 e5 53 dc bd d9 b1 00 be ec 1f a3 3b b8 2f 3c 3b
       -0.10758189 -0.12567843 0.0049781706 0.0028714966
000300 a5 56 f7 bd 63 d6 05 3d a0 da 89 bc f5 fb 2d 3e
       -0.12077073 0.03267516 -0.016827881 0.16990645
000310 6d 38 1b 3e c5 06 d7 bc b2 f7 34 be 89 af 7c bd
       0.15158243 -0.026248345 -0.17672613 -0.06169084
000320 dd 82 a8 bd 56 ee 5a be 38 d1 4c 3e 02 1c e2 3d
       -0.08228085 -0.2137998 0.20001686 0.11040498
000330 1b ba c9 bc 64 49 ce 3d a6 57 50 3e 48 3f ea 3d
       -0.024624875 0.10072592 0.20345935 0.11437851
000340 69 6c 8d 3d 4b f3 5a 3d ae fd 8d 3e 0d fc e6 bd
       0.06905443 0.05345468 0.27732605 -0.112785436
000350 f7 19 15 bc 22 b2 1b be f0 40 3f 3e 49 dc 3e bd
       -0.009100429 -0.15204671 0.18677115 -0.0465968
000360 38 fa 69 be e6 f7 89 3d 0c 6c 32 bd f1 6f 2e 3e
       -0.22849357 0.06736736 -0.043560073 0.1703489
000370 d9 00 65 be 66 3c 12 bd 66 7c 69 3d 58 97 20 be
       -0.22363605 -0.03570213 0.0570034 -0.15682733
000380 4d 73 c4 bc f5 d1 82 be 48 cb 7e 3d 07 f5 de bc
       -0.023980761 -0.2555081 0.062205583 -0.027216448
000390 83 9b 3f 3e 93 72 23 be 22 c8 b2 be d1 9b 25 be
       0.18711667 -0.15961675 -0.34918314 -0.1617272
0003a0 2c 80 2f be 83 e4 25 bd de 91 c8 bd 11 6f 4a 3d
       -0.17138737 -0.04050113 -0.09793447 0.049422327
0003b0 30 55 15 3e ff 27 48 bd e4 a3 38 3d a9 f6 73 3e
       0.14583278 -0.04886627 0.045078173 0.23824562
0003c0 20 20 ab bd c9 f6 7a bd 07 1f 30 3d 4f 8e 1d 3e
       -0.08355737 -0.06127051 0.04299834 0.15386318
0003d0 80 ad 0f 3d 5e 8f b1 bd 59 9b 35 be b5 3e 3a be
       0.035077572 -0.08669923 -0.17735042 -0.18187983
0003e0 30 9a e4 bd 22 0a 35 3e 80 2c 2c 3d 54 c5 11 3e
       -0.111622214 0.17679647 0.042034626 0.14235431
0003f0 c5 15 54 3e 93 77 b7 3d 5a 37 2b 3e 18 02 51 be
       0.2071143 0.08958354 0.16720334 -0.20410955

model.backbone.layers.0.temporal.2.bias f4 [64]
000000 83 ec 67 bd 5b 7e 43 bd 88 6c aa 3d 1f 68 58 bd
       -0.05662204 -0.047727924 0.08321482 -0.052833673
000010 e7 51 1a bd 41 79 8a bd e4 db 8e bd 2a f9 8d bc
       -0.037675764 -0.067614086 -0.069755346 -0.017330725
000020 36 3a 00 bc 7f a9 68 bc 86 15 a3 3c 46 c1 6a 3c
       -0.007826379 -0.014200567 0.019907724 0.014328307
000030 ec b0 2f bc 9a 99 19 3b ba 7e 21 bd 24 af f1 3d
       -0.010723334 0.00234375 -0.039427496 0.118009835
000040 8a 83 f7 bd b0 7c 90 bb ce 46 65 bd 65 f5 eb 3c
       -0.12085636 -0.004409395 -0.055975728 0.028803537
000050 9c d9 1d 3d 18 d1 7e bb c8 75 00 3c 6f c0 ba 3d
       0.038537607 -0.0038881954 0.007840581 0.09118735
000060 f6 bf d0 bd 01 5e 9a 3d 19 9c f6 bc 1e 32 49 3a
       -0.10192864 0.07537461 -0.03010373 0.00076750095
000070 3f b9 b9 3c 78 5d 9e 3d 7d 5f d4 bd 68 29 69 3d
       0.02267134 0.077326715 -0.103697754 0.056924254
000080 67 87 e4 bd 3a f2 76 3b 29 45 88 3d 62 65 da 3d
       -0.111586384 0.0037681 0.06653816 0.106638685
000090 3e 68 95 bd 31 51 fa bc 32 e6 6b 3c d5 62 f0 bc
       -0.07295273 -0.030556293 0.014398145 -0.029344002
0000a0 13 06 71 3d 9d 26 4a ba 7c 72 39 bd dd ea 5a 3d
       0.058843683 -0.00077114423 -0.045275196 0.05344664
0000b0 ca 64 b7 3c 4a fd d1 bd 75 07 09 3b a7 ea db ba
       0.022386927 -0.10253389 0.0020908986 -0.0016778306
0000c0 0b e1 94 3c 9f 0b 54 bd a5 d6 28 3e 4b 0b 16 bd
       0.018173715 -0.051768895 0.1648813 -0.036631864
0000d0 dd 2e 93 bd 12 b9 c8 3d be 99 58 3c 7b 6a ca 3c
       -0.07186673 0.09800924 0.013220249 0.024708977
0000e0 eb 8f 2b bc 53 ee c7 3c a3 4c 13 3e 0d e6 d7 ba
       -0.010471324 0.024405634 0.14384703 -0.0016471759
0000f0 b9 8f b7 3d 31 0d a1 3d d3 a3 f5 3c 56 d1 25 3d
       0.0896296 0.07863844 0.029985344 0.04048284

model.backbone.layers.0.channel.0.weight f4 [32, 74]
000000 a8 12 22 3d ef 8b 80 3d 6f f4 78 bd cf bf 64 3e
       0.039568573 0.0627669 -0.060779985 0.22338794
000010 fe 54 3f bd d3 4c 97 3e f5 3a b4 3d e0 ea 99 3d
       -0.046711914 0.295508 0.08800308 0.07515502
000020 53 ac 41 3d 06 74 ac 3c e0 43 ad 3d d8 35 c7 bd
       0.04728348 0.021051418 0.08460212 -0.09727067
000030 f7 9b 08 3d 04 2b 50 bd 6d fc a7 bd e5 8f bf 3d
       0.033351865 -0.050822273 -0.08202443 0.093536176
000040 d5 be 1c 3e d6 8a 0e bd d4 1c 20 3e 54 39 ed 3d
       0.15307172 -0.034800373 0.15635997 0.115832
000050 eb f0 82 3d 71 4b e8 3b ae 9d 20 be 57 1e 1c be
       0.06393608 0.0070890714 -0.1568515 -0.15245949
000060 d8 4d 8f 3d 20 84 35 3e 7b d3 7e bd 82 c3 11 3e
       0.069972694 0.17726183 -0.062213402 0.14234737
000070 d3 be e8 3c 8a 9a bc 3b 11 36 ac 3d 09 30 86 bb
       0.028411305 0.005755727 0.0840875 -0.0040950817
000080 99 d8 26 3c af f9 11 3d 10 98 ad be 5d 61 1f 3d
       0.010183477 0.035638507 -0.33905077 0.038911212
000090 e3 da 02 3e 36 7e bc 3d 3d b4 b6 3d aa 54 86 bc
       0.12778811 0.0920376 0.089210965 -0.016397793
0000a0 89 f4 e9 bc 1b 2e f2 bd 9b e7 43 bd 7f 29 c2 3c
       -0.028558986 -0.118252 -0.047828298 0.023701428
0000b0 df 09 96 bc b6 47 9c bb 8a f8 0a be f4 86 b6 bc
       -0.018315254 -0.004769291 -0.13571373 -0.022281148
0000c0 32 1c 92 bc 2f 22 8a 3c 00 49 97 bd 7b 5d 9c 3d
       -0.01783571 0.016862003 -0.073869705 0.076350175
0000d0 f8 85 f0 bd 95 13 de bb f4 a4 6e 3e 6c 67 35 3e
       -0.117443025 -0.0067772367 0.23305112 0.17715234
0000e0 10 5a f7 bc a3 f8 98 bd ca 43 a0 3d 63 12 18 be
       -0.030194312 -0.07469299 0.0782543 -0.14850764
0000f0 5e 17 b0 be 1f 1f 7d 3d ec 74 13 3e 68 9a a2 3d
       -0.34392828 0.061797258 0.14400071 0.07939607
000100 7a 0c af bd db c7 52 3d 7e b7 2a bd 58 e7 a5 3d
       -0.085473016 0.05146013 -0.041678898 0.08100766
000110 17 3b 1e 3e d6 29 fb 3c 45 ad e5 3d 34 a6 39 3e
       0.15452228 0.030659597 0.11214689 0.18129808
000120 5b cf 35 be e8 58 a1 be 22 41 55 3d 47 b0 75 bd
       -0.17754881 -0.31513143 0.05206407 -0.059982564
000130 b6 0f 82 bd 2c 99 2a bd bc 24 bf bc c0 fb 31 bd
       -0.06350653 -0.041649982 -0.023332946 -0.043452978
000140 59 2f 78 3e b2 06 80 3e 55 1f 70 3e 15 86 24 bd
       0.24236812 0.25005108 0.23449452 -0.040166933
000150 5b 3b 34 3e d9 61 3d bd 8d 56 c4 bd 69 22 56 bd
       0.17600767 -0.046235893 -0.09586821 -0.05227891
000160 48 1a 92 be 52 f9 21 bb f8 06 da 3d d4 29 9f bd
       -0.28535676 -0.0024715257 0.106458604 -0.0777165
000170 1d f1 65 3d e4 f6 f4 3e 63 82 91 3d 35 fc 25 be
       0.056138147 0.47844613 0.071049474 -0.1620949
000180 01 b9 c6 be 44 ce 96 3d 8a f2 8f bd 9f e2 3b 3e
       -0.38813022 0.07363561 -0.070286825 0.18348168
000190 76 0a 10 3d c2 a2 f7 3e 2e fe 84 3e b0 e2 05 bf
       0.035166226 0.48366362 0.25975174 -0.5229902
0001a0 f5 a1 7a be 2b 4f ea bd 87 ee 64 be 51 ca 44 3d
       -0.24475844 -0.11440881 -0.22356616 0.048044506
0001b0 da e1 bf be 5e f2 f4 bd ac fe 9f 3e a6 d4 27 3e
       -0.37477 -0.1196029 0.31248987 0.16389713
0001c0 ff f4 2f be 4e b1 79 be dd 28 ab 3d 88 e5 c9 be
       -0.17183302 -0.24384043 0.083574034 -0.3943293
0001d0 f2 2b d7 bc 15 7e 6c 3d 6e e5 bd be e5 35 67 bd
       -0.026266072 0.05773743 -0.37089103 -0.056447882
0001e0 10 9d ca bd 29 6b 2e 3e 83 18 18 be 52 de 90 3d
       -0.098932385 0.17033066 -0.148531 0.07073654
0001f0 36 43 55 3e 20 af 61 bd b7 ae 53 3d 5f 3a 9e bd
       0.2082642 -0.055098653 0.051680293 -0.07725977
000200 01 67 82 bd 9c 2d 58 3e 8a 5f 63 3e e1 98 f9 bd
       -0.06367303 0.21111149 0.22204414 -0.121873625
000210 90 1f 4f 3d 06 05 cf bd 2d 9b ac be f2 c5 83 3d
       0.05056721 -0.1010838 -0.3371214 0.064342394
000220 88 b4 e2 3e 18 39 d6 3d ab f9 d6 3d e5 c2 50 3e
       0.4427836 0.104601085 0.10496839 0.20386846
000230 47 63 92 bc 96 73 a4 3c 64 b0 91 3e 19 4d 93 3e
       -0.017869605 0.020074647 0.28454888 0.28769758
000240 59 c3 94 3d 97 02 6c 3d ce ba 42 3d 33 1c 5c 3e
       0.07263822 0.057619657 0.047541432 0.21495132
000250 d4 f6 fb 3d 22 18 d2 3c f6 e5 e6 be 0b f6 c6 3d
       0.12302938 0.025646273 -0.4509732 0.09714898
000260 33 85 5e be 67 bb 79 3d 32 5e 6e 3e 67 29 d8 3d
       -0.21730499 0.060969736 0.2327812 0.10554772
000270 f3 31 66 be 77 18 3c 3c e6 21 80 3d 6b ff 64 be
       -0.22479992 0.011480442 0.062564656 -0.22363059
000280 ca c4 4b 3b 34 c9 fd 3d d9 2a cf 3d b5 94 04 be
       0.0031092637 0.12391892 0.101155944 -0.12947352
000290 d9 ad b7 3d f3 37 70 3d e8 bb 8d bd 4f ca cd 3c
       0.08968706 0.058647107 -0.06920606 0.025120882
0002a0 61 c9 ab bd 17 dd 73 bd f1 64 4b be ff b6 0c 3e
       -0.08388019 -0.05953702 -0.19862725 0.13741682
0002b0 b6 77 39 bd e2 ab 2d be 45 21 91 3d 36 0b a2 bc
       -0.04528018 -0.169601 0.07086424 -0.019780736
0002c0 84 8d 54 3e b8 fb 4b 3d 59 cb 5e be 57 65 74 be
       0.20757109 0.049800605 -0.21757258 -0.23866783
0002d0 06 ca 07 be 6b 79 ae 3d 6a a5 85 bc be 4f e1 bc
       -0.1326066 0.085192524 -0.016314227 -0.027503844
0002e0 be a6 14 3e 22 d4 da 3d 1f 67 55 3e 49 1d 65 bd
       0.14516732 0.106849924 0.20840119 -0.05593613
0002f0 d2 be ba 3d a1 a6 aa bd d7 8d 75 3e 1e 66 52 bd
       0.09118427 -0.08332563 0.23979889 -0.051366918
000300 c1 1f 26 bd 73 33 61 bd 3b 45 8a 3b e2 dd 2a be
       -0.040557627 -0.054980706 0.0042196787 -0.16686204
000310 eb d2 34 3e d1 85 9b bd ee 07 75 3e 9a c6 af 3d
       0.17658584 -0.07593883 0.23928806 0.08582802
000320 43 87 54 3e aa 2b ff bd da b7 37 be 29 67 3e 3d
       0.20754723 -0.124595 -0.17941228 0.0464851
000330 4d ab 91 3e e4 f5 3a 3d 8a 02 01 3d 03 0a 65 3e
       0.28451005 0.045644656 0.031496562 0.223671
000340 35 d7 85 3d 56 5a 9c 3d 83 dc 06 be 40 9e 5b 3e
       0.06535188 0.07634418 -0.13170056 0.21447086
000350 db 40 4e be fb 58 80 3d 29 a1 45 be 18 01 b4 3d
       -0.20141928 0.06266972 -0.19299759 0.08789271
000360 c6 8b 3b 3e 58 a3 1a 3e 54 38 28 be 39 03 34 3d
       0.18315038 0.15101373 -0.16427737 0.043948386
000370 6e bc a0 bd 83 06 c8 3d 74 b2 22 bd 07 c3 07 bd
       -0.0784844 0.09766867 -0.039720967 -0.033144977
000380 81 ed 3c 3d 36 81 ec be 9e bd 89 be 26 95 b4 bc
       0.04612494 -0.4619233 -0.2690248 -0.022043776
000390 e0 73 da bd 99 af a9 3d d7 5e ff 3d 4b 9b 6c bd
       -0.10666633 0.08285446 0.12469261 -0.057765286
0003a0 ab c9 06 3e f0 17 8c 3c f1 d1 c0 3d a8 a4 b5 3d
       0.13162868 0.017101258 0.09415043 0.08869296
0003b0 0b af 11 be f4 0a 1b 3e fb f4 29 3e 4b 6e f3 bd
       -0.1422693 0.15140897 0.16597359 -0.11886271
0003c0 15 a2 4e 3e b1 bd 23 3e ef 0a 2b 3b 51 f2 af bd
       0.20179017 0.1599033 0.0026099046 -0.0859114
0003d0 16 e6 01 bd cb 9c e5 3d a7 1b ca bd 07 4c 7c bd
       -0.031713568 0.112115465 -0.098685555 -0.061595943
0003e0 27 c8 26 3b 76 77 a3 3d c1 59 df bc 70 08 df bd
       0.002544889 0.0798177 -0.027264478 -0.10890281
0003f0 6b c6 be 3b 30 98 13 3d bd 7f e3 bd 60 1f 2a 3d
       0.005821993 0.03603381 -0.111083485 0.041533828

model.backbone.layers.0.channel.0.bias f4 [32]
000000 08 68 3c be ce dc b8 be f7 6d 7c bd 5e 01 4a be
       -0.1839906 -0.3610596 -0.06162831 -0.19727084
000010 f0 30 a5 bd eb df 95 be e3 66 bf bd 61 ef 4d be
       -0.08065975 -0.29272398 -0.09345796 -0.20110847
000020 9c a3 3f be 8f 0f 48 be ac 7c 25 be 87 75 f5 be
       -0.18714756 -0.19537185 -0.1616084 -0.4794123
000030 fc 18 04 be 3f 73 81 3d 1f f7 87 bd 98 ae 9b be
       -0.12900156 0.063208096 -0.066389315 -0.30406642
000040 5e 51 5e be be 8d 2d be b5 01 c0 3c bb e6 2a be
       -0.21710727 -0.16948602 0.023438314 -0.16689579
000050 50 0e 3a be 06 15 33 be a6 2f 1a be e0 fc 21 bd
       -0.18169522 -0.17488489 -0.15057239 -0.0395478
000060 80 91 83 be 1f ee 31 be b4 84 05 be 15 eb bd bd
       -0.25696945 -0.17375992 -0.13038903 -0.09273354
000070 1b b9 1f be af 30 27 bc fd 33 fb bd 52 58 53 bd
       -0.15597956 -0.010204478 -0.12265775 -0.0515979

model.backbone.layers.0.channel.2.weight f4 [74, 32]
000000 cd 92 2a bd 8b 26 39 3e fd 19 d2 3d fd 9c 3f 3d
       -0.041643906 0.18081109 0.10258863 0.046780575
000010 68 05 6e bd aa 0b 69 3c 37 a6 41 3d 85 f8 4c bc
       -0.058110625 0.014223972 0.047277655 -0.012510424
000020 7b 8d 24 be 9c 9d b4 3d da 59 04 be e6 a4 c9 3d
       -0.16069596 0.08819124 -0.129249 0.09845905
000030 2b 57 0a bd 9d 45 2e bd 7a 1f 8b 3e 34 f3 d4 3d
       -0.033774536 -0.042546857 0.27172452 0.1039795
000040 7d e6 0d 3e 77 03 ad bd 89 1e 9a 3d 5f cd c2 bd
       0.13857456 -0.084479265 0.07525355 -0.09511828
000050 7c b7 ab 3c 20 30 04 3e 73 47 b4 3c 34 94 58 be
       0.020961516 0.12908983 0.022006726 -0.21150285
000060 9e fe 33 be 25 f4 5c bd 39 d1 72 bd f3 73 22 be
       -0.17577597 -0.053943772 -0.05928156 -0.15864544
000070 cb 1b 13 3d d6 cb 7d be 82 17 48 3e 45 05 e3 bc
       0.035915177 -0.24784788 0.19540218 -0.027712474
000080 64 b8 f0 3d 59 ed 53 3e 8d bf 39 3c b8 43 10 3e
       0.1175392 0.2069601 0.011337173 0.14088333
000090 53 db cf 3d eb d2 31 bd 1b 1d 0d 3d 05 ed cb bb
       0.10149255 -0.043414038 0.034451585 -0.0062233233
0000a0 2a 4a 80 3c c8 92 96 bd a2 34 9d bc a7 49 8c 3d
       0.015660364 -0.07352215 -0.019190136 0.068499856
0000b0 04 2f 31 bb 91 3b 8e bd ac ff 8c bd 2c e6 fb bc
       -0.002703608 -0.06944955 -0.06884703 -0.030749403
0000c0 40 df a9 3d 79 76 ab bd b1 8e 98 bd 08 88 86 bd
       0.08294535 -0.08372206 -0.07449091 -0.06568915
0000d0 c2 39 a2 3d da 1d a0 3d 98 f4 80 3d 09 84 b5 bd
       0.07921173 0.07818194 0.062966526 -0.08863074
0000e0 74 2f be bd 63 a1 8f bc 8f bd 17 3e 47 60 a2 bd
       -0.09286395 -0.01753301 0.14818405 -0.0792852
0000f0 31 84 09 3a fe ca 2d be b8 06 5b 3d 16 ce 7b bd
       0.00052458333 -0.16971967 0.053473204 -0.061475836
000100 0f 71 42 bd 11 c3 89 bd 75 18 28 be 23 36 1c be
       -0.047471102 -0.06726659 -0.1641558 -0.15255027
000110 91 bf b0 3c 14 be e2 b9 3b 39 21 3e 37 e2 c5 38
       0.021575721 -0.00043247698 0.15744488 9.435828e-05
000120 21 c1 0b be 39 1a 39 3d 5e 16 66 be bb 51 89 be
       -0.13647892 0.045191023 -0.2246947 -0.26820168
000130 bf 8a 07 bd f2 23 52 be 61 69 c4 3d 7c 4d 45 be
       -0.033091303 -0.20521525 0.09590412 -0.19267839
000140 19 90 24 b8 c7 f8 72 bd cc a7 18 3e fd c7 43 be
       -3.923485e-05 -0.059319284 0.1490776 -0.19119258
000150 53 96 3d 3c ff 30 98 3d e8 b5 e9 bd 10 e0 75 be
       0.011571485 0.0743122 -0.11411649 -0.24011254
000160 fc 7a 92 bc d5 94 0b bd 6c 13 36 3e e5 42 fb 3c
       -0.01788091 -0.034077484 0.17780846 0.030671546
000170 31 b0 af 3b b6 66 4f 3d b3 be c0 3d ff 49 9f 3e
       0.00536158 0.050635062 0.09411373 0.31111142
000180 1f 00 97 bd 48 5b 51 bc b9 4f 50 bd 78 09 28 3d
       -0.0737307 -0.012778111 -0.05085728 0.041024655
000190 34 e1 97 39 72 12 57 bc fb 68 b4 3c 70 eb 8a 3c
       0.00028968754 -0.013126956 0.022022715 0.016957968
0001a0 c0 66 11 3c 80 fd b1 3c 05 6b d6 bc 40 16 a5 3a
       0.008874595 0.021727324 -0.026174078 0.0012595132
0001b0 cd 3e 17 bd e6 16 49 bd 20 bb 52 3c 59 35 79 bb
       -0.036925126 -0.049094103 0.012861997 -0.0038026182
0001c0 3c a4 ac bc 98 09 04 3d cc d7 53 3c e6 99 0c bd
       -0.021074407 0.03223571 0.012929868 -0.034326456
0001d0 05 eb 92 bc 0b 37 63 3b 0f 45 32 bd 0e 1d b8 bc
       -0.017934332 0.003467026 -0.04352289 -0.022474792
0001e0 fa b7 c6 3c 4b 6f 9f 3c 90 06 c8 3c 5d b0 1a bc
       0.024257649 0.019462248 0.024417192 -0.009441462
0001f0 25 2d a9 bc c3 d5 de bc 06 09 0c bd 83 3d a0 bc
       -0.02065141 -0.027201539 -0.034188293 -0.019560581
000200 b7 36 25 3e 2c 20 7f bd ce b2 bb bd e0 12 08 be
       0.16134153 -0.06228654 -0.09164964 -0.1328845
000210 cc 68 fe bc db 16 81 3d 88 c5 5a 3d 56 4c f6 3c
       -0.03105583 0.063031875 0.053411037 0.030065697
000220 11 4c 0e be d5 cd 76 bc c7 fe 97 bd 00 4b 5b 3c
       -0.13896205 -0.015063723 -0.07421642 0.013384581
000230 e3 cf c7 bc 19 44 70 3d ad 2a 9e bd 72 67 ab 3d
       -0.02439112 0.058658693 -0.077229835 0.0836934
000240 b2 da 0f bd 37 7e 1e ba a7 d9 ae bd 58 a6 be bd
       -0.035120673 -0.0006046029 -0.08537608 -0.09309071
000250 02 7d 18 3e 11 64 5f 3d 35 b7 20 bd df 3c 94 3d
       0.14891437 0.05453879 -0.03923722 0.07238173
000260 60 a6 5e bd b1 87 f2 bd 09 c7 e6 3c 75 6e a5 bc
       -0.054357886 -0.11842287 0.02817108 -0.020194272
000270 4d 01 93 3c e4 c7 9b be 14 9b 29 3e 44 eb 2c 3d
       0.017944956 -0.30425942 0.16563064 0.042216554
000280 f1 05 f2 bd ba 2c c4 3d fb 8a 06 3c c6 ab c3 bb
       -0.118175395 0.095788434 0.008211846 -0.0059714047
000290 8d 6b 0e 3d 50 f2 84 3c bf c4 ce bd dd 70 94 bd
       0.034770537 0.016228825 -0.1009612 -0.072480895
0002a0 5b e8 e9 3d 10 d0 a1 3c 57 4d f6 3d cc 2d a1 bd
       0.114212714 0.019752532 0.1202647 -0.07870063
0002b0 1e e9 ae bc 46 e1 d8 bc 4d 84 ee 3d 14 89 69 be
       -0.021351393 -0.026474606 0.11646328 -0.22806197
0002c0 6d 93 40 be e6 86 06 3e 4a 4e 00 3e 02 c3 48 bd
       -0.18806238 0.13137397 0.12529865 -0.0490141
0002d0 8f d2 9f bc 02 cd eb bd ef 0b 5f 3d ed 3a eb bc
       -0.019509582 -0.115137115 0.05445474 -0.028714621
0002e0 d6 23 9c 3d cc f4 3b 3e 53 d4 e2 3d 47 07 57 be
       0.07624023 0.18355101 0.11075654 -0.2099887
0002f0 af 3f 81 bc 8a d4 c4 3d 96 3f 45 be 09 be c0 3d
       -0.015777437 0.09610851 -0.19262537 0.09411246
000300 b8 28 2f 3d 4e 5c 5f 3d 01 91 fb 3d 2c cc b8 bc
       0.04276344 0.054531388 0.12283517 -0.022558294
000310 9f a9 1c 3b 3f 2d 79 bd 15 67 37 3d 96 ed b7 3d
       0.0023904813 -0.060834166 0.04477604 0.08980863
000320 c6 d1 43 3e 2d 2f 80 bd 06 33 65 bc a5 dc 1a 3d
       0.19122991 -0.06258998 -0.013989216 0.03780808
000330 66 49 db 3c 59 50 1f be a3 16 0d be 20 5e 1f be
       0.026768398 -0.15557994 -0.13778166 -0.1556325
000340 d2 d9 05 3e 12 74 17 be 64 75 43 be b0 1a ae bc
       0.13071373 -0.14790371 -0.1908775 -0.02125296
000350 01 52 20 3e 6e 84 94 3c f8 67 f4 3c 1e 34 f0 3d
       0.15656282 0.018129554 0.029834732 0.117286906
000360 1a 1c 9a bd 9e 0d ff 3d 93 04 36 bd 7b ef 07 3e
       -0.07524891 0.12453769 -0.044437956 0.13274948
000370 61 9a 9b bc bb 35 71 3b 72 6c 82 bd 8b 7c 48 bd
       -0.018994512 0.0036805707 -0.063683406 -0.0489469
000380 58 20 76 3d 2f a1 ce bc f9 01 4c 3e 43 0c 77 bd
       0.06008944 -0.025223343 0.19922628 -0.060314428
000390 c1 84 f5 bb 04 52 17 be 1c 95 e2 3d d1 52 3c 3d
       -0.007492632 -0.1477738 0.110635966 0.045977417
0003a0 ba 0c 91 3d 05 58 81 bd a2 50 f4 bd 9a d3 77 3d
       0.070825055 -0.063156165 -0.11929442 0.060504533
0003b0 2e dd 80 bb e1 67 36 be 5f a0 c1 bd 5d 5f 42 be
       -0.0039326167 -0.17813064 -0.094544165 -0.1898169
0003c0 4c 33 dc 3d 40 8b f1 bd 07 72 5c be ce 23 8a bd
       0.107519716 -0.11794138 -0.21527873 -0.067451105
0003d0 3c 22 8c 3e 63 c5 97 3b b4 65 88 3d db b5 59 3e
       0.2736987 0.0046316846 0.06660023 0.21260779
0003e0 10 94 24 3c 80 7d 43 3e 68 e9 98 3c c5 53 49 3e
       0.0100450665 0.19090843 0.018665984 0.19660862
0003f0 c2 20 a6 bd 8f 0e 65 3d ae 4b ef bd dc 1a 29 bc
       -0.08111717 0.055922087 -0.11684357 -0.010321345

model.backbone.layers.0.channel.2.bias f4 [74]
000000 44 16 0f 3d e8 a2 f0 3b 51 ff 4f 3d 78 85 1b 3d
       0.034933344 0.0073436387 0.050780598 0.037969083
000010 06 1f 7b 3d 24 58 9c 3d 77 4f 75 bc 5d b5 2f bd
       0.061308883 0.07633999 -0.014972559 -0.04289757
000020 e1 0d 44 bd c4 c9 ce 3d 5c 35 1e bd 09 f9 b3 3d
       -0.0478648 0.100970775 -0.038625106 0.08787734
000030 01 74 d7 3d 54 67 33 3d 45 f2 aa 3d 7b 25 1f 3e
       0.10520173 0.043799713 0.083469905 0.15541641
000040 26 6e 11 3e e7 85 72 bb 39 40 02 3e aa 61 9b bd
       0.14202175 -0.0037006082 0.12719811 -0.07586987
000050 e5 69 0b be 5f 69 ee bc 26 5f fa bd 75 13 70 bc
       -0.13614614 -0.02910298 -0.122251794 -0.014653076
000060 90 95 8a 3d 89 2a 51 bd 7f f3 15 3d 0c c3 f9 bc
       0.06766808 -0.051065955 0.03660917 -0.030488513
000070 af cb 7c 3c 80 10 4f 3d 3c 5f f1 bc 32 9f 22 3e
       0.015429421 0.050552845 -0.029464357 0.1588104
000080 1c 69 e6 3d c7 dc 1e 3d b9 82 06 3c 09 ec 11 3e
       0.11250517 0.03878477 0.008209878 0.14250197
000090 3c 73 81 3d 1b 50 56 3d 47 da 16 3d 0e b5 89 bd
       0.06320807 0.05232249 0.03682926 -0.067239866
0000a0 95 1b 13 be 20 1d d3 bd 93 68 c1 bd 49 84 43 bd
       -0.1436599 -0.103082895 -0.09443774 -0.04773358
0000b0 61 9b b6 3b 65 e6 7c bd 3e 86 04 3d 19 21 9b 3d
       0.005572722 -0.06174316 0.032354586 0.07574672
0000c0 d2 ae 32 be 7c f7 dc bd f1 1a ea ba b1 72 8c 3d
       -0.17449501 -0.107893914 -0.0017860812 0.06857813
0000d0 99 59 a7 3b c8 00 2d 3c 6f 2a 3b be 90 95 be 3d
       0.0051071164 0.010559268 -0.18277906 0.093058705
0000e0 0e 50 a1 3c e0 d0 8e 3d 80 e9 b5 bd ac 11 06 3d
       0.019691493 0.069734335 -0.08882427 0.032731697
0000f0 f7 1a e4 3c 2d 2c 4f bd df ab 76 bd f5 06 dc 3d
       0.02784489 -0.05057924 -0.060222503 0.107435144
000100 b4 87 00 bd d4 b4 c7 3c ab 88 a9 bd 8a 86 08 3d
       -0.031379417 0.024378218 -0.082780205 0.03333143
000110 b5 66 a2 3d c2 ba 9d bd f5 4c 71 bd ff 50 83 3d
       0.07929746 -0.07701637 -0.058911283 0.06411933
000120 c5 d9 d2 3c bc 65 82 3d
       0.025738606 0.063670605

model.backbone.layers.1.temporal.0.weight f4 [32, 64]
000000 ff e7 41 3e 1e aa 2b 3c 4f d7 0f 3e 69 76 46 3e
       0.18936156 0.010477571 0.14046977 0.19381107
000010 ff 6f 30 3d 4d 05 24 3d 6d 50 ce 3c 20 85 41 be
       0.043075558 0.040044118 0.025184834 -0.1889844
000020 af 5f 74 3d 4c f2 5a 3e 7d b7 68 3e c1 e9 87 3d
       0.059661563 0.21381491 0.22726245 0.06636382
000030 f2 fe fa bb 6a 11 ab bd 5c 0d 2c bd 55 0d 79 3d
       -0.0076597864 -0.08352931 -0.042004928 0.06080373
000040 f8 94 7a 3c 37 30 01 3e 90 c6 c1 bc 97 28 02 be
       0.015294306 0.12616049 -0.023654252 -0.12710796
000050 a5 60 e6 3d 4b 2f 36 be a1 cc 23 3c d5 01 a9 3d
       0.11248902 -0.17791478 0.009997518 0.082523026
000060 9b 8d 8b 3e b0 c2 00 be 8c 1a e9 3c 09 43 f4 b9
       0.27256474 -0.12574267 0.028455041 -0.00046589252
000070 91 36 88 bd 51 91 fd bd 7e a9 56 be 5b 5b 8a bd
       -0.06651033 -0.123812325 -0.20963094 -0.06755706
000080 b0 60 4a be 19 0c 72 bd 7f 3c 23 be fc 0c 9e 3d
       -0.19763446 -0.05909357 -0.15941046 0.0771732
000090 04 08 09 be 2a 21 57 be aa 2b 48 be 46 c2 cb 3d
       -0.13381964 -0.21008745 -0.19547907 0.09949164
0000a0 e3 84 4e 3e aa cb a1 3e d2 91 6d 3d d0 0a 83 3e
       0.2016788 0.31600696 0.058000393 0.25594187
0000b0 7b 87 aa bd 02 8b 70 be 15 9d 22 bd ac e5 52 3e
       -0.08326622 -0.23490527 -0.039700586 0.20595425
0000c0 b8 2b c6 bd ea 93 ac be 5a 69 c0 3d e6 7a 6c 3d
       -0.096763074 -0.337066 0.09395094 0.057734393
0000d0 47 fe 29 be 3b 74 53 bd 94 b5 9c 3e 40 99 1a 3d
       -0.16600905 -0.051624518 0.30607283 0.037743807
0000e0 19 d6 45 3d 95 83 c9 3c 81 ac 2b ba 42 70 95 bd
       0.048299883 0.024598876 -0.00065488374 -0.07296802
0000f0 09 a9 34 bd 2c b6 44 be cd d6 07 3d 13 1b be bd
       -0.044106517 -0.19210118 0.033163834 -0.09282508
000100 ca 71 90 3d 7d 78 a4 3c 87 02 e4 3d 02 8a 37 bd
       0.070529535 0.020076985 0.111332946 -0.04480935
000110 dd 82 6d bd 90 16 36 be f0 4e b7 3d be f3 c4 3c
       -0.05798613 -0.17782044 0.08950603 0.024042007
000120 9e 84 28 3e 30 00 6f 3d e0 32 cd 3d ad 50 4d 3e
       0.1645684 0.05834979 0.10019469 0.20050307
000130 e3 c2 09 3e c1 c7 47 bc 41 0e 39 be 41 08 94 3d
       0.1345325 -0.012193621 -0.18071844 0.07228137
000140 82 8e 67 bd f1 0a b2 bd 8a 10 ab ba a9 d6 a2 3d
       -0.05653239 -0.08693493 -0.0013051194 0.079510994
000150 1c 6b 33 bc 15 a9 01 3e 64 c5 fc 3d 4c 36 d7 bc
       -0.01095083 0.12662156 0.12342337 -0.026271008
000160 fa 44 cf bc 7c 7c 09 bd 3b 8a 9c bc ca 8b 16 be
       -0.025301445 -0.033565983 -0.019108882 -0.14701763
000170 c7 09 0e 3d ed 57 27 be 29 03 9b 3c 5b ef 12 bd
       0.034677293 -0.16342135 0.018922405 -0.0358728
000180 c2 e2 b0 bc 3b fd ff bd c7 4f 64 3c 0e 6d 94 3d
       -0.021592502 -0.12499472 0.013935036 0.07247363
000190 da 43 01 be 4e 4a 0e 3d 11 86 f1 3b 5e 0a a9 3d
       -0.1262354 0.03473883 0.0073707183 0.082539305
0001a0 4e 6d 19 3b 39 cc 2e bd 9d 08 19 3d 42 56 ed 3d
       0.0023411098 -0.04267523 0.03736173 0.11588718
0001b0 af 9a b8 3b 6b b5 ab bd b9 ac 7e 3d 74 b0 f8 bc
       0.005633674 -0.08384212 0.06217644 -0.030357577
0001c0 ef 16 44 bd 85 ab aa 3d 34 28 e4 3d b9 a4 10 bd
       -0.047873434 0.08333496 0.11140481 -0.03531334
0001d0 b7 1a b3 3d 29 04 2f bd 75 a3 1b 3d 7b cb 44 3d
       0.0874533 -0.042728577 0.03799768 0.048045617
0001e0 96 59 d7 3d 63 de 22 bd 66 b7 f5 3d ee ff 1c 3e
       0.10515134 -0.039762866 0.11997871 0.15332004
0001f0 f9 31 39 3e 18 e1 14 3e 3e d0 4d 3e 4b e1 18 3f
       0.1808547 0.14538991 0.2009897 0.5971877
000200 ce 38 9d 3d 41 1f 35 3c 19 fe c7 bc 24 2a 38 bd
       0.0767685 0.011054815 -0.024413155 -0.044962063
000210 eb 57 d9 3d 9d 03 9e bd 28 61 be 3d df 9f 5a 3d
       0.10612472 -0.07715533 0.09295875 0.05337512
000220 20 7f 80 bc ec 6f 7f bd c7 58 5f bc dd 15 41 3e
       -0.015685618 -0.062362596 -0.013632006 0.18855996
000230 9d ca 5f 3d 0b 0e 74 3d 51 f9 17 bc 67 a4 8d bd
       0.054636586 0.059583705 -0.00927575 -0.06916123
000240 55 2f c2 bc 01 6a c4 bd 54 46 aa 3b 8e 32 45 3e
       -0.02370421 -0.09590531 0.005196372 0.19257566
000250 08 0b 2a 3e 09 39 52 be 2d 2b 55 3d 09 94 de bc
       0.1660577 -0.2052957 0.05204313 -0.027170198
000260 e1 4e c7 bd 23 ae ff bd c6 10 a9 be 2d 00 c5 bd
       -0.09731842 -0.12484386 -0.3302061 -0.09619174
000270 f6 72 22 3e 96 2c 3a bd 1a b8 77 be 77 07 7b bd
       0.15864167 -0.045452677 -0.24191323 -0.061286416
000280 dd 5c 0e 3d 34 67 15 bd 8e f6 7e 3e a3 02 81 3e
       0.03475653 -0.036475375 0.2489874 0.25197324
000290 70 e7 80 3d ca 18 f6 3d a3 1e 15 3d 67 50 81 3c
       0.06294143 0.12016447 0.03640617 0.01578541
0002a0 39 38 c7 bc 13 68 78 bc 24 4b 38 bc 86 6b 82 3d
       -0.024318801 -0.015161532 -0.011248384 0.06368165
0002b0 20 04 b8 bc 91 76 3c bd 5c 29 ca bd 86 e6 90 be
       -0.022462904 -0.04601151 -0.0987117 -0.28300875
0002c0 2a 8a a4 bd de 39 14 be 27 0b 6d be 8f 0f 18 be
       -0.08034165 -0.144752 -0.23148786 -0.14849685
0002d0 ef d2 ab 3c f4 c4 f5 3d b4 5f 3f 3d cf 30 77 3e
       0.020974604 0.120004565 0.04672213 0.24139713
0002e0 8d 7e 85 3e be c5 2f 3e 14 98 d0 3d 07 fa 12 be
       0.26073113 0.17165276 0.101852566 -0.1435319
0002f0 e1 f0 76 be ce 1a 12 be a5 fb 59 be 3b df 23 3e
       -0.24115326 -0.14268038 -0.21287401 0.16003124
000300 dd d0 fe bc 42 35 8f bd 83 6a c0 bd 88 cb ba bd
       -0.031105453 -0.0699258 -0.093953155 -0.09120852
000310 ed 62 7f be 98 22 09 be 3f a9 79 be fb 92 f8 3c
       -0.24940081 -0.13392103 -0.24380969 0.030343523
000320 5b d5 59 bd 3b 2c 27 be 9d 4a 3b bd 1d 93 90 bd
       -0.053181987 -0.16325466 -0.045725454 -0.0705931
000330 30 84 83 bd af 36 0f bd a7 0e c5 bc 7c e1 01 be
       -0.06421697 -0.03496426 -0.024054838 -0.12683672
000340 b3 9e 4d bd 95 2b c4 3c d0 07 c1 bd 17 c6 49 3c
       -0.050200175 0.023946563 -0.09425318 0.012315295
000350 ff 35 5e bc 5f 0f 3b bd d9 5a c8 bd 60 b4 ca bd
       -0.013562678 -0.045668956 -0.09782953 -0.09897685
000360 84 d4 02 be 02 05 28 be a0 ea 42 be 32 a1 a7 bd
       -0.12776381 -0.1640816 -0.19034815 -0.081850424
000370 d2 50 89 3d c0 75 2b be e4 72 24 bd 05 36 82 bc
       0.067048684 -0.16744137 -0.04014863 -0.0158949
000380 79 15 bd bd b0 94 ee bd 72 f5 9e 3d d8 71 2d 3e
       -0.09232611 -0.11649454 0.07761659 0.16937959
000390 df f4 3b be fc 22 f0 bd 24 a1 b5 bd 41 11 06 bd
       -0.1835513 -0.11725423 -0.08868626 -0.0327313
0003a0 95 c9 7c bd fb b5 d8 bb 72 53 99 3d 88 f3 17 3e
       -0.06171568 -0.0066134906 0.07486619 0.14838994
0003b0 d9 1f 40 3e be 55 ea 3d 41 67 8d bd 8d 5a 0b 3e
       0.18762149 0.11442135 -0.0690446 0.13608761
0003c0 0b f1 42 3d e3 4f 38 3d 1c 7d c5 bd 82 01 91 bd
       0.047593158 0.04499806 -0.09643003 -0.07080366
0003d0 9b 1c ab 3c 72 1f de 3d 06 79 f2 bc 76 c9 01 3e
       0.020887664 0.108458415 -0.029598724 0.12674507
0003e0 89 15 6b 3e 41 88 b9 3c cc 7c eb 3c 32 bb 91 3a
       0.22957434 0.022647979 0.028746031 0.0011118411
0003f0 8b 66 9b 3d 77 d0 81 bd e0 db c4 3b 03 65 aa 3e
       0.07587918 -0.0633859 0.0060076565 0.3328019
