experiments/AdversarialDomainAdaptation/saved_models/tsmixer_benchmark_2.pt (torch, 730836 bytes, 30 tensors)

model.backbone.static_proj.weight f4 [64, 10]
00000000: fa73 9cbd b29a 933d e730 733e 95a6 49be
00000010: 8f86 20bd 05d9 253c 5b52 26bd 7798 fdbd
00000020: 05b7 823e ad03 3d3e 87b6 f63d 7a0a d23d
00000030: 01c6 503c 6a6a 83be 5d66 543e cfcd 58be
00000040: 6047 e7bc 7255 763e 6597 873e fb69 e9bd
00000050: 8d11 333d d50f 2cbd c1a4 973e b1fd 563b
00000060: 46a1 693e 3e9c dcbc b10c 17be 1517 113e
00000070: 3534 8a3e e7dc 20bd 3ed1 03bd 5a30 773e
00000080: e296 bb3d ea4b 87be 7be9 0a3e e93f e3bd
00000090: 87b3 b1bd 0b30 963d f56a 813e 72f2 ebbd
000000a0: 454a 03bd d08b 3d3e 733a 58bd ed49 7dbe
000000b0: c091 9abd feed 73be 2592 b03b 3ebe 03bd
000000c0: 0657 d6bc 39f6 2b3d 3ca7 96be b429 113e
000000d0: 5b8c 853e ede3 a2be 1457 9fbe c75d f93d
000000e0: 383a 47be 7cee b33b ee64 673e c2a3 303d
000000f0: 6a00 03be 32a8 b2bd 6a7f 4c3d 35f2 663e
00000100: 549a 9c3e 371d 263e f89d b93c 9bf6 84bd
00000110: 330f 8ebd 5440 8bbd 1c0f 033d 819a 933d
00000120: 2b85 c5be e8c0 f53d 2bbe 833e c8cc 0cbe
00000130: 111c 69be 33c3 863e e73b 38be d194 e9bc
00000140: 1eae cabd cbed c4bd 16d5 c6bd 0a33 ae3e
00000150: 9b88 143f 720a ab3d c7c2 9abc 7f0b 583e
00000160: b7a2 8bbc c88d 6abe 6363 433e beac 66be
00000170: 1439 8abd ff48 2f3c 27c4 5cbe ecda 20be
00000180: 2c35 ed3d 3b6c 053e 2c07 e0bd 123a 533b
00000190: 2290 b93e dfc4 b3bd c658 adbe 496c 913e
000001a0: 65d0 bc3e f3b5 ebbd 15db 4c3d abec edbc
000001b0: e825 193e 8b65 b9be 1be1 6e3d 7a9e d9bd
000001c0: 0ccc 5c3e ad05 7cbd 7c54 1cbf 0882 2c3d
000001d0: 8864 263e 305e b1be d1f1 9dbe 4698 e03e
000001e0: 2c9c 0c3e cab7 71bd 0e2b 87be 14a4 743e
000001f0: 89b2 663e dacc 82bc 78b4 01be 0f86 653e
00000200: 0423 04be f84e 91bb 534d dbbd 920a 82be
00000210: db31 323e b4b4 333d 9a7f 24be 2759 1c3e
00000220: 36c4 303e c3a7 91be 9000 f1bd 1cef bcbd
00000230: a5bd b7bc d77d a8bd cea2 a73e d1ea 51be
00000240: c580 d33b 2188 8abd a202 2cbe 7e18 b1bc
00000250: b5c6 11bc 96bb 8e3d aa98 893d b840 333e
00000260: 9470 4a3c 2639 b6bd a3b6 8a3d f5d1 0d3d
00000270: 27b8 21bc 6a4a 08be c043 a03d b843 4cbd
00000280: 4b80 9f3d 4007 263e 7ef5 6a3e 664a 83be
00000290: 7a13 10be 7c26 cfbd 7083 173b 9dee 2b3e
000002a0: 0868 7c3e e0ee 983e 9720 cd3a c3f6 12be
000002b0: bb50 543e 4a29 bcbd 2ea2 703d feed 143d
000002c0: a92c 503d 4aeb a03d 9870 503e 393e 85bd
000002d0: 6b22 ee3c edfa 10be 912f b13d 49ee 3a3e
000002e0: 40fb b33d b553 523e f8c6 b93d 169b adbd
000002f0: ce10 ee3d 52f1 4b3e 3c24 98bc bedb 6bbd
00000300: 0830 923e 6198 94bd 2a61 493d e938 71be
00000310: a8ff b1bd b6fa 883d daf4 f43d a0e6 8e3d
00000320: eb0b 843d c648 183d 8f24 58bd 3019 24be
00000330: 0b1d 083e d92c fcbd 07e2 1cbb f55a 8b3e
00000340: 3e71 273e 1dfc b7bd 181e 2bbd 9ec1 413b
00000350: 0d92 553e 588b 9bbd 8e79 91be 7c3f a53d
00000360: b73b cb3d 3b15 78be 71d2 fb3d 3d3a 31bc
00000370: bca5 0fbe 4f40 ecbd 3c55 973c e5ab 2cbe
00000380: beef 193e 8435 e2bd 24e1 853b 0e4a 6e3e
00000390: ab57 ecbd 4eb1 3cbe cda3 583d 6b26 fbbd
000003a0: 8208 96be 4f3d da3d 228f a73d da0e 23be
000003b0: dee4 033e 1226 0b3e e3c3 a3bd cf18 2bbe
000003c0: 211d 70be 55fc 823d 40ca 473d 84b1 ce3d
000003d0: 8f7c d1bb 3d7d ac3d 922d 973e 022d 75be
000003e0: 6493 debd c0c7 303e 3072 dbbc bd70 b1bd
000003f0: 1299 733e 3e19 44bd c1f6 febc 302f 813d
-0.07639308 0.0720724 0.23749124 -0.19692452 -0.039190825 0.010122542 -0.040605884 -0.12382596
0.25530258 0.18458433 0.12046533 0.102559045 0.01274252 -0.25667125 0.20742173 -0.2117226
-0.028232276 0.24056032 0.26482692 -0.11397167 0.04371791 -0.042007286 0.29617885 0.003280502
0.22815427 -0.02692997 -0.14750935 0.14168961 0.26992956 -0.03927317 -0.03218197 0.24139538
0.09159638 -0.26425105 0.13565628 -0.11096174 -0.0867682 0.07333382 0.25276914 -0.11520852
-0.03205325 0.18510365 -0.052790117 -0.24735232 -0.07547331 -0.23821256 0.0053885155 -0.03216385
-0.026164543 0.041982863 -0.29424465 0.14176065 0.26083645 -0.3181452 -0.31121123 0.1217609
-0.19455802 0.005491076 0.22597095 0.04312492 -0.12793127 -0.08723487 0.0499262 0.22553332
0.30586493 0.16222082 0.022658333 -0.06492349 -0.06936493 -0.06799379 0.03199683 0.07207204
-0.38578162 0.119996846 0.25731024 -0.13749993 -0.22764613 0.263208 -0.17991601 -0.028513344
-0.098964915 -0.09615668 -0.09708612 0.34023315 0.58020943 0.08351602 -0.018891705 0.21098135
-0.017045362 -0.22905648 0.19080882 -0.22526833 -0.06749168 0.010698556 -0.21559201 -0.15708512
0.11582407 0.13029568 -0.10938868 0.0032230658 0.36242777 -0.087777846 -0.3385679 0.28402928
0.36877742 -0.115093134 0.05001362 -0.029043516 0.14955866 -0.36210284 0.058320146 -0.1062593
0.21562213 -0.06152885 -0.6106641 0.042116195 0.16249287 -0.34642172 -0.30848554 0.43866175
0.1373145 -0.059013166 -0.26400036 0.23890716 0.22529043 -0.015966821 -0.126665 0.2241442
-0.12903982 -0.0044344626 -0.10708108 -0.2539869 0.17401831 0.043873504 -0.16064301 0.15268384
0.17262349 -0.28448305 -0.117676854 -0.09225294 -0.022429297 -0.08227127 0.32741398 -0.20499732
0.0064545595 -0.06764246 -0.1679788 -0.021618124 -0.008897473 0.06969373 0.067185715 0.17505157
0.012355942 -0.08897619 0.067731164 0.03462406 -0.0098705655 -0.13309637 0.07825422 -0.04986927
0.07788142 0.16213703 0.2294521 -0.256427 -0.1406993 -0.10114762 0.0023119114 0.16790242
0.2464906 0.29869747 0.0015649971 -0.14351945 0.20733921 -0.09187563 0.058748417 0.03635978
0.05082384 0.07857378 0.20355451 -0.06506009 0.029069146 -0.1415822 0.08651651 0.18254961
0.087881565 0.20539744 0.090711534 -0.08476846 0.11624299 0.19916275 -0.018571965 -0.05758261
0.2855227 -0.072556265 0.04916493 -0.23556866 -0.08691341 0.06688444 0.11960764 0.06977582
0.06447586 0.037178777 -0.05276924 -0.16025233 0.13292329 -0.123132415 -0.0023938434 0.27217832
0.16351792 -0.08983634 -0.041776747 0.0029564868 0.20856495 -0.07594937 -0.2841305 0.08068749
0.09923499 -0.24226849 0.12295998 -0.010817108 -0.14028066 -0.115357034 0.01847326 -0.16862448
0.1503286 -0.110453635 0.0040856767 0.23270437 -0.11540159 -0.18427011 0.052890588 -0.12263187
-0.29303366 0.10656225 0.08181597 -0.15923634 0.12880275 0.13588741 -0.07996347 -0.16708682
-0.23448612 0.06395785 0.048776865 0.10092452 -0.0063930224 0.08422325 0.29526955 -0.2394295
-0.10867956 0.17263699 -0.026787847 -0.08664081 0.2378886 -0.047875635 -0.03112352 0.063078284

model.backbone.static_proj.bias f4 [64]
00000000: f279 5fbd ad03 8c3d 5513 67be 7b6f 75be
00000010: 836b e1bc 4ebb a83e 7084 833e 4cc6 5c3c
00000020: 1683 cbbd 8851 743e 3abf b53e c88c 98bc
00000030: f4d7 01be 108c f03d 3438 883e ee92 a9bd
00000040: 57c8 743e 67b9 20bd cd44 933e 5a5a 8ebd
00000050: 9a66 d9ba 6c2e 493e 5c20 473e 3ed9 9ebd
00000060: 2a6f 3b3e f04f f63d 511b 7b3e 4a40 003d
00000070: 072d 16be a1f4 2e3d 3944 293e f62c 03be
00000080: a881 3f3e 9744 85bd 517e 8cbc 33f5 86bd
00000090: 1acb 823e 1a79 023e 2b32 8bbd 64d0 cc3c
000000a0: 3840 1b3f 9172 8c3d 5f19 2fbe ba5d b83e
000000b0: 39ec 67bc 01f4 9d3e 87be 25bc e8b5 c93c
000000c0: fa3b b03d 4041 74bd ea61 13bd 04cf 0c3e
000000d0: 610e 413e 2247 d63d 021a 483e fce3 63bd
000000e0: aeb3 6d3e 24b7 9cbd 828c 2bbd c8a4 b03e
000000f0: 8c58 b13d 5e15 613e d203 b33c 4995 423e
-0.054559655 0.068366386 -0.22565968 -0.23968308 -0.027517086 0.32955402 0.2568698 0.013475012
-0.09937112 0.23859227 0.35497457 -0.018621817 -0.12680036 0.11745465 0.2660538 -0.08279978
0.23904549 -0.039239313 0.28763428 -0.06950827 -0.0016586364 0.19646615 0.19445938 -0.077562794
0.18304124 0.120269656 0.24522139 0.03131131 -0.14665614 0.042713765 0.16529931 -0.1281012
0.18701804 -0.06507223 -0.017150076 -0.06589737 0.2554558 0.12741509 -0.06796678 0.025001712
0.60644865 0.06857789 -0.17099522 0.36009008 -0.014155441 0.30850223 -0.010116226 0.024622872
0.086051896 -0.05963254 -0.03598205 0.13750845 0.18853141 0.10462786 0.19541171 -0.055637345
0.23213074 -0.07652119 -0.041882046 0.34500718 0.08659467 0.21980807 0.021852408 0.1900226

model.backbone.layers.0.temporal.0.weight f4 [32, 64]
00000000: 0add 51be 1499 373d 3987 2abd 36c4 97bd
00000010: 0b12 9cbd af8f f7bc 2dd5 3cbe e06a 43bd
00000020: c5ef e5bd c22c 17bb da62 1ebe a561 c5bd
00000030: b193 13bd d9ad 7dbd 8ab0 2d3d 5978 2c3e
00000040: 9481 563e 2641 173e 0d1a 5c3e 5b38 0a3d
00000050: db8e 0c3e 1273 233c a3cf 8c3d 03d7 813d
00000060: 7816 083e 412d f13d 41e4 6b3e d2b0 bd3d
00000070: 28e5 12bd 2749 a63d 8d36 8fbd 6728 183e
00000080: 8006 ed3c f060 0b3c f5c5 3c3d bbcc 473b
00000090: 1c2f 4f3c a785 79be dc05 34be 4f20 4ebe
000000a0: 7440 563c af8b bdbd 32a9 743d 1316 9cbd
000000b0: e8f4 4dbd 4eb8 c13d 429a 253e 6f43 c13d
000000c0: 8c80 b0bd 8744 83be 574c 24be 5d1c 84be
000000d0: 44ce c5be 5e29 9fbd 4ead b2bd f8fc 8fbe
000000e0: dce9 0f3c 65e3 523e cce6 47bd 323b 2bbe
000000f0: 9c3f a23d 3aa7 b33d 51cf 3f3d 0141 ce3d
00000100: 2db1 22be f3f5 17be 3a6b 8bbd e974 c9bd
00000110: 9321 65bd 8960 7cbd 7aa5 03be 04c1 a4bd
00000120: 18dd 0dbe 8147 c1bd 4858 82bd 5fdb 20be
00000130: 2fce b9bd 8a04 1a3d 5123 9ebd 6a4e c6bd
00000140: 8dce 743d bac9 ad3d 4e45 20bc b7a4 c2bd
00000150: fe3c 8f3d f241 973c 10a4 15be 2a1e 03be
00000160: 28f7 66bd c112 f4bc 93b4 19bd f0fe 0dbe
00000170: 8c8d 7ebd 3fca 513c 1955 37bd cb06 a03c
00000180: 7fd1 29be 8e87 4c3d c293 353d 58db 883d
00000190: 5f94 0bbd 22b4 e1bd c54b aa3c 18c9 213c
000001a0: da17 82bd 1dd1 89bd d91f 0a3e 40f5 d33d
000001b0: 27ec c83d 1265 453e f75a 893e 978b 0e3e
000001c0: 66dd a43c fa7e 383d 7b03 13bd a09a 56bd
000001d0: a20b d83d ac73 dbbc c74d 9dbc 1ed0 f33d
000001e0: a004 07bd 9727 a2bd fbed d33d b9cb 22bc
000001f0: ee8c 7dbc 2649 98bd eae2 95bd 52c3 183f
00000200: fae1 abbc 1136 e4bd 1771 cebc 4a2c 143e
00000210: d7d6 cb3c 46f6 e83d 3195 8cbd 2180 ae3d
00000220: 40fa 933d 33cb b63d 735e ab3d a456 273e
00000230: 7174 4a3e a175 b03d a660 bc3d c159 b23d
00000240: 6477 87bd 3fae 1039 ef51 e2bd 93f5 debd
00000250: f353 373d be71 e4bc f841 85bd 0259 f1bb
00000260: 8179 c3bb e84b 183d bc30 45be bd7d 89be
00000270: 29dd f3bc 576f aabc 7ae9 113d 1550 88bd
00000280: 5d90 1e3e 6d0d 8f3b 69c6 403c 341f 3dbc
00000290: 4bb5 8abd 6c35 e1bc 9caa ebbd d4bf 6cbd
000002a0: 99ee ba3d aca4 95bd a1b7 8bbd d697 093e
000002b0: c01b 9ebd 42fe d0bd 9930 82bd 6e47 c1bd
000002c0: 5819 d0bd 5211 e9bd c56b 12bd 6247 943d
000002d0: 95d3 52bd 2f5d 103e d66b fa3d 345b 763e
000002e0: 2cee b93c 6f1e 103d 8d75 26be 928f 88bd
000002f0: 6bc8 28bd 2d21 0abe f172 4fbd 13fe 683e
00000300: a40f 34bb bf9f b73d 94b6 d33d 2c03 dcbc
00000310: d2d4 ffbd f871 df3c 3024 01be e86b 72be
00000320: fc6b 383d 9b74 753d 9dd2 52be ae28 35be
00000330: 2317 5a3d e767 6f3d 2ff2 413d 49ab 93bd
00000340: cd9b 4f3d 2c22 69bc fffb 2bbc 8921 2b3e
00000350: 9ad5 4f3e 7020 b9bd 17ba 7f3c c2f7 533e
00000360: 5bf3 c73d c798 6a3c ee0b 58bd 7cd0 04be
00000370: ec13 823d b14a d7bc 792e fbbd cc34 b5bd
00000380: d437 43be 594e 113e 4f52 d8bc 2c31 8ebb
00000390: 2faa 583e 60e7 a03e 1f0b 97bd b6cb bb3a
000003a0: 8703 5f3d 9d48 e53d cac7 d3bd 74eb f9bc
000003b0: f39b 1fbd 77ba 84be eb3b cd3d 902c 51bc
000003c0: 082a 16be d360 56be f377 2bbe b77a 69be
000003d0: f673 d1bc 5e36 cdbc 2c6c 46bd c1f9 053e
000003e0: 773f 213e 5676 9dbd d488 083c 062e 1e3e
000003f0: 4f88 3d3d 81cb 85be a7d8 91be e68e a83e
-0.20494476 0.04482372 -0.041632865 -0.07410471 -0.07620629 -0.03021988 -0.18440695 -0.047709346
-0.11227373 -0.002306745 -0.15467396 -0.09637765 -0.03602952 -0.061933372 0.04240469 0.16842784
0.20947868 0.14770946 0.21494313 0.03374515 0.1372637 0.009976165 0.06875541 0.06339838
0.13289821 0.117762096 0.2303629 0.092622414 -0.03586307 0.081194215 -0.069928266 0.14859162
0.028933764 0.008506998 0.046087224 0.003048702 0.012645509 -0.2436739 -0.1758036 -0.20129512
0.01307689 -0.09255158 0.05973167 -0.07621398 -0.05028239 0.094589815 0.16172126 0.0943669
-0.08618268 -0.2563822 -0.16044746 -0.2580289 -0.3863393 -0.07771562 -0.087244615 -0.28122687
0.008783784 0.20594557 -0.04880409 -0.167218 0.07922289 0.0877213 0.04682857 0.10070992
-0.158879 -0.14839916 -0.06807561 -0.09836752 -0.055940222 -0.0616155 -0.12856093 -0.08044627
-0.13853872 -0.094374664 -0.063644946 -0.15708683 -0.090725295 0.037601985 -0.0772158 -0.09682925
0.059767295 0.08485742 -0.0097821485 -0.09504073 0.06994055 0.018464062 -0.14613366 -0.12804475
-0.05638805 -0.029794099 -0.037525725 -0.13866782 -0.06214671 0.012804567 -0.04475889 0.01953449
-0.16583823 0.049933963 0.044330366 0.066824615 -0.034077045 -0.11020686 0.020788083 0.009874605
-0.063522056 -0.06729338 0.13488711 0.10349512 0.098106675 0.19276837 0.26827213 0.13920437
0.020125102 0.04504297 -0.03589199 -0.052393556 0.10549094 -0.026788555 -0.019202126 0.119049296
-0.032963395 -0.079177074 0.103481255 -0.009936267 -0.015475495 -0.07435827 -0.07318671 0.59673035
-0.020981777 -0.11143125 -0.02520041 0.1447002 0.024882717 0.11375098 -0.068643935 0.085205324
0.07225466 0.08925476 0.08367624 0.16341645 0.19770981 0.08616186 0.09198122 0.087085254
-0.06614569 0.00013797822 -0.11050784 -0.10886683 0.044757795 -0.027886268 -0.06506723 -0.007365347
-0.005965412 0.037181765 -0.19256872 -0.26853743 -0.029768543 -0.020805044 0.03562305 -0.066558994
0.15484758 0.004365614 0.011766055 -0.011543084 -0.0677286 -0.027491294 -0.115071505 -0.05780013
0.0912754 -0.07306799 -0.06822134 0.13436827 -0.07720137 -0.10204746 -0.063569255 -0.09437452
-0.10161084 -0.11380257 -0.03574731 0.07240178 -0.05147131 0.14098047 0.12227599 0.24058229
0.022696577 0.035185274 -0.1625578 -0.06668009 -0.04120676 -0.13489218 -0.050646726 0.22753172
-0.0027475143 0.08966016 0.103375584 -0.026856981 -0.12491764 0.027276024 -0.1261146 -0.23673975
0.045024857 0.059925657 -0.20588155 -0.176913 0.05324472 0.0584487 0.047350105 -0.072104044
0.050685693 -0.014229339 -0.010497092 0.16712011 0.20296326 -0.0903939 0.015608332 0.20699981
0.09763213 0.0143186515 -0.052745752 -0.12970155 0.06351456 -0.026280733 -0.12264723 -0.08847961
-0.19064265 0.14190044 -0.026406435 -0.004339358 0.2115867 0.31426525 -0.07375168 0.0014327678
0.054446723 0.111954905 -0.10340841 -0.03050778 -0.038967084 -0.2592351 0.10021194 -0.012766972
-0.14664471 -0.20935373 -0.16744976 -0.22800718 -0.02556799 -0.025050338 -0.048443004 0.13083555
0.15746866 -0.076885864 0.008333404 0.15447244 0.046272572 -0.26131824 -0.28485605 0.32921523

model.backbone.layers.0.temporal.0.bias f4 [32]
00000000: 1d6a 73bf b31e 61bf 1258 c6be 497c 50bf
00000010: 0639 99be 35cd b0be fb0e 4dbf ada4 5dbf
00000020: b1af 32bf 6e38 81bf 8d45 33bf cb53 fb3d
00000030: f13f a8bd 4930 43bf 1fec 85bf 3e6c 0cbf
00000040: 0925 83bf 6ded 3cbf 93f5 6bbf b939 5dbe
00000050: 45cf 28bf c0f9 7fbf 8f7d f7bd ca58 efbe
00000060: 9908 56bf 464b f0be ded1 6fbf b342 01bf
00000070: 220d f2bd a6ee 82be 2862 f7be fcac 76be
-0.9508379 -0.8793747 -0.38739067 -0.81439644 -0.29926318 -0.3453156 -0.80100983 -0.865794
-0.69799334 -1.0095346 -0.70028 0.122718416 -0.08215321 -0.7624555 -1.0462683 -0.54852664
-1.0245677 -0.73799783 -0.9217159 -0.2160405 -0.6594127 -0.99990463 -0.12084495 -0.46747428
-0.8360687 -0.4693243 -0.93679607 -0.504924 -0.11818911 -0.255727 -0.48317075 -0.24089426

model.backbone.layers.0.temporal.2.weight f4 [64, 32]
00000000: 1f06 983d 8d1f 3e3e 2cbc 0c3e ba64 6e3d
00000010: c97e f53d 0b3e 9c3d c350 a73c aed2 6a3e
00000020: 37b0 c03d a58d 533d 3de8 56be cd1f 1fbe
00000030: 974d a53d 04f7 863d 9cba 37be 7587 663d
00000040: 01e6 ab3c 068c ff3c 69d1 13bc 208f 253e
00000050: 97f5 433e f94d d0be 1555 c2bd 92f8 3cbe
00000060: 5404 813d b6e8 13be c57d ba3d 0106 453e
00000070: cc94 5c3e fd36 8cbd cfdf ec3c 44d6 a8bb
00000080: 792a 6f3e db56 ca3d 3c41 403e e01e 6f3e
00000090: aaa9 673e 47f7 debd f8cb 403d 32e5 5c3e
000000a0: 1c8a 4cbc 4ad9 b83e b21b 283d 66c7 22be
000000b0: e26e dd3d 3b04 5fbe 4065 45bd 3a90 313d
000000c0: b91f 7a3d 393e 3eba 79c6 73bc 1f56 00bc
000000d0: 147f 4d3e d213 05bd ebda 28be 0422 b73d
000000e0: 3f53 513e 9d5f 1dbe ddcd 7a3e 42eb 7e3e
000000f0: ff1d 643d cfef 193e 0800 d83d 7c06 00bc
00000100: 1ffd 823e 103e c9bc e258 f6ba 4ad3 e13d
00000110: 5f6d 0e3e ec5c 5c3d 294e edbb 4918 0d3e
00000120: 422d 4abd 0007 153e 922d f2bd b4aa a7bd
00000130: 1a1e a83e 0bdf 7e3e 6957 c1bd 6d74 113e
00000140: 21f7 1dbe d26b 4dbd 6f8e 6dbe c385 8bbe
00000150: d857 733e 5b30 bdbd 9385 59be c736 ccbb
00000160: 7188 bb3d 3f36 84bd 15c0 4f3e 59ad 873c
00000170: 4ade a53d 20f1 94bc 4ade b63d be22 663c
00000180: deef 8fbb 305d 413e a32e 4d3d 6763 983d
00000190: 10e5 e63d 1371 243d d012 383e a8d1 bcbd
000001a0: e67a 023e 981a 3c3e aefb aa3d dedd f4bd
000001b0: 6c9d 533d 5f6d 083d f881 88bd e1bc 793e
000001c0: ff60 81bd f0bd 713e 9f2a 05be 34d2 10be
000001d0: 7c4d 133e 9298 e33c 4bf5 5fbd fd07 90be
000001e0: cc7f 1d3e 759d 4fbd 6058 543e 287b 203e
000001f0: a3c0 933d 82db a63e 8035 c7bd 42c5 dc3b
00000200: dd2a bf3d 4adb 863e c40f 113e d59e e23d
00000210: 7156 22bd 8cdf 473e 1ad8 fe3d 575f 51bd
00000220: 6853 123d e9ad aabb 82b2 133e 4c68 953a
00000230: a28c 0f3e 2ae7 ed3d 365e 4bbe 5777 bc3e
00000240: e1ba 9fbd d4c3 443e 361b e4bd bd44 f8bd
00000250: 98e4 1a3e 4243 09be 4517 8a3d 0591 0b3c
00000260: 932b e03e e21b c53d 6ac0 543e b8bd 833d
00000270: 95c6 0f3e aff7 5d3e d2e9 58bd aaae ba3b
00000280: c47b 5d3e d9ca 6cbb 3468 af3d e474 ec3c
00000290: 1d2e 90be c74e 5e3d 2580 bd3d 7b38 8fbe
000002a0: 4484 ab3c e5be 50be 8dbf 44be adcd 91be
000002b0: f080 273e 4c75 4eb9 74bd a0bc df3e 803e
000002c0: 0eaa 3bbe e589 523d 3c8a 1abe b103 10be
000002d0: d7fa 633c f514 15bd 69c1 a5bd a02e b2bd
000002e0: 4b16 893e 1477 b7bd 2e60 f2bd 7a8c 823d
000002f0: c3f4 4f3d 7187 88bd 0e21 393e fc2d 413e
00000300: f114 ae3e 4398 383e 747e c63d 35c8 803e
00000310: ff14 41bd f3ac de3d 97c2 913e 5f26 e33d
00000320: a47a 003e d899 94bd a885 09be 6d9d 04be
00000330: e340 133d 3e26 1cbd f776 86bd 795b bf3d
00000340: 34c9 ae3d 432c 17bd 151b 643d 4f3a 94bd
00000350: a0bc bd3d d67a 16be 36e5 cbbd 565f 863d
00000360: 4af7 a73e 219a a13b 9d82 2fbc f6c0 01ba
00000370: ff0b 223e 7d6a 6c3e 8a1b ab3c 479a 01be
00000380: c654 6dbd 9d93 323e 2bca f33d 8b15 103e
00000390: 608c 8f3b 0a82 883b 314c 843e ae2f cbbd
000003a0: 2e1a 80bd ecfe 203d 15a4 dbbd d3c8 32be
000003b0: 3b20 3f3e be68 233c f297 11be 8d51 693d
000003c0: 6093 52bd ea60 833e f864 94bc 087c 07be
000003d0: e658 eebc 1883 53bd c9f7 8fbd a465 cabd
000003e0: d888 9dbd 1750 4f3d c7e9 f83d 0e50 783d
000003f0: 54ed 1a3d 38cb 983b 96c5 e0bc e198 a73d
0.074230425 0.18566723 0.13743657 0.05820153 0.11987073 0.07629021 0.020424252 0.2293193
0.0940861 0.051648755 -0.2098703 -0.15539475 0.0807144 0.06590083 -0.1794228 0.056281526
0.020983698 0.031194698 -0.009022095 0.16167879 0.19136654 -0.40684488 -0.09488884 -0.18454197
0.06299654 -0.14444241 0.0910602 0.19240572 0.21541137 -0.06846426 0.028915314 -0.0051524956
0.23356046 0.098798476 0.18774885 0.23351622 0.22623315 -0.10887008 0.04706952 0.21571806
-0.0124841 0.36103278 0.041042037 -0.15896377 0.10812165 -0.21778958 -0.048192263 0.043350436
0.06106541 -0.00072571967 -0.014878863 -0.007833033 0.20068008 -0.032489605 -0.1648976 0.08942035
0.20441912 -0.15368505 0.24492593 0.24894431 0.05569267 0.15032886 0.10546881 -0.007814046
0.2558374 -0.024565727 -0.00187948 0.11026628 0.1390891 0.053799555 -0.0072419834 0.13778795
-0.049359567 0.14553452 -0.11825098 -0.08186856 0.32835466 0.24889772 -0.094405 0.14204569
-0.15426303 -0.050151654 -0.23198865 -0.2725049 0.23763978 -0.09237739 -0.21242361 -0.006232116
0.091568835 -0.06455659 0.20288117 0.01656215 0.08099039 -0.018181384 0.08929117 0.014046369
-0.004392608 0.18883204 0.050093304 0.074408345 0.11274159 0.0401469 0.17975926 -0.09219676
0.12742195 0.1836952 0.08348785 -0.1195638 0.0516638 0.03330743 -0.066654146 0.24388458
-0.06317329 0.23607612 -0.1300454 -0.14142686 0.14385027 0.027782712 -0.05467729 -0.28131095
0.15380782 -0.050687272 0.20736837 0.1567198 0.07214477 0.32589346 -0.09727001 0.006737382
0.093343474 0.2633918 0.1416617 0.11065451 -0.03963322 0.1951887 0.12443562 -0.051116314
0.035724074 -0.00520872 0.14423564 0.0011398881 0.14018491 0.11616357 -0.19860157 0.368098
-0.07799316 0.19215328 -0.111380026 -0.12122486 0.15126264 -0.13404563 0.067427196 0.008518462
0.43783244 0.09624459 0.20776525 0.0643267 0.14040597 0.21676515 -0.052957363 0.005697091
0.21629244 -0.0036131649 0.08564797 0.028864332 -0.28160182 0.054274347 0.09252957 -0.2797278
0.020937093 -0.2038532 -0.19213696 -0.2847723 0.1635778 -0.00019689387 -0.019621588 0.25047967
-0.1832659 0.051401038 -0.15091795 -0.14063908 0.013914785 -0.03639694 -0.08093531 -0.08700299
0.2677482 -0.08958259 -0.11834751 0.0637445 0.050770532 -0.066664584 0.18079016 0.18865198
0.34000352 0.18026833 0.09692088 0.25152746 -0.047139164 0.10872831 0.28468773 0.11091303
0.12546784 -0.07255906 -0.13429892 -0.12950678 0.035950553 -0.038122408 -0.065656595 0.09343619
0.0853447 -0.036907446 0.05568989 -0.07237684 0.09264493 -0.14695296 -0.09955828 0.06561153
0.32805854 0.0049317037 -0.010712293 -0.0004949713 0.15824889 0.23087497 0.020887155 -0.12656508
-0.057942174 0.17439122 0.11903795 0.14070718 0.0043807477 0.0041658925 0.2583938 -0.099212036
-0.062549934 0.039305612 -0.107246555 -0.17459421 0.18664639 0.009973703 -0.14218119 0.05696254
-0.05141008 0.25659877 -0.018114552 -0.13230908 -0.029095124 -0.051638693 -0.07029683 -0.09882668
-0.076921165 0.05061349 0.121539645 0.06062322 0.03782399 0.0046628974 -0.027437966 0.08183456

model.backbone.layers.0.temporal.2.bias f4 [64]
00000000: 22bb a3bb df25 cc3d a02c a33c e436 b03d
00000010: c569 c63d 6aaa b83d 4534 9e3d b919 1b3d
00000020: d686 09bd 77f8 763d 02f3 443e 37da 693d
00000030: a4fa 363d 31fd 3a3e b630 063e 45e2 1a3e
00000040: a25d aa3d 4b85 113e 8a65 473d 40f3 793d
00000050: 53d0 883d e3a6 4b3d d9b2 00be bf86 0a3e
00000060: 209d e03d 4c75 113e aeec 003d 47a5 f13d
00000070: 67cf b43d 3798 c5bb 8880 e53d dd65 353d
00000080: bc67 8e3d 7867 223e c896 f63c 430f aa3d
00000090: 1353 1c3e d737 a1bd a0c1 093e cc71 103e
000000a0: cbd1 d03d 0ece 99bc 9169 0d3d 7fdb b63d
000000b0: 9750 0a3d afa8 0d3e 6c13 ad3c 6704 07bc
000000c0: dbe6 863c 3c55 c03c dc1d e13d bac5 1fbd
000000d0: f419 82bc 1f07 e13d 2312 22bd 0b03 763d
000000e0: caa2 b23d 8b5b bd3b 421b 1fbd 2a39 583c
000000f0: 301c 833c 7a0a 713d 7b83 893d da5f f0bc
-0.004996673 0.09968161 0.01991874 0.086042196 0.09688143 0.09016879 0.07724813 0.037866328
-0.033575855 0.06029555 0.19233325 0.05709287 0.044672623 0.18260647 0.13104519 0.15125377
0.0831864 0.14211003 0.04868082 0.061022997 0.0668036 0.049719702 -0.12568225 0.13527964
0.10967469 0.14204901 0.031475715 0.11799102 0.08828621 -0.0060301083 0.11206156 0.044286598
0.069533795 0.15859783 0.030101195 0.08303692 0.15266065 -0.07871979 0.13452768 0.1410591
0.10196265 -0.018775012 0.034524504 0.08928584 0.033768263 0.13833879 0.021127425 -0.008240796
0.016467502 0.023478143 0.10992023 -0.039006926 -0.015881516 0.10987686 -0.039568078 0.060061496
0.08722456 0.005778735 -0.038844354 0.013197223 0.016004652 0.05884788 0.06714531 -0.02934258

model.backbone.layers.0.channel.0.weight f4 [32, 74]
00000000: e35c 99be ecee 8f3e 8076 f4bc 36a0 253e
00000010: a593 0dbd b75b 5abd 44ed f33d 8925 dd3d
00000020: b255 35be 810d 0dbd 158e a33d cfd1 dcbd
00000030: 900b 513d 76be b3bb 570c 1f3e fc69 a3be
00000040: 1ccb 81be 84d6 fa3d 7749 4ebd 9e39 07be
00000050: a48d f3bc 8625 e4bd b3ed 8ebd 9788 4dbe
00000060: c159 3fbe c292 c5bc f615 d3bd 2dc6 bcbd
00000070: d312 d3bc d191 9d3d a666 0e3e 8f5a a2be
00000080: 41b9 1ebe 1533 783c f3d3 ccbe 0921 29bd
00000090: aebf 26bf 19ee cfbd 4680 ec3d 0207 98bb
000000a0: 6285 6cbe 999d 80be be43 65be eec2 f93d
000000b0: e3bf 55bd d305 00bd 78ed 2fbe 0ca9 c63c
000000c0: 1f61 50be bdea 413e a1e2 70be ed16 61bc
000000d0: 76b4 a03e 55f1 36be e7c5 0b3e 8e0b 55be
000000e0: 1460 dd3d 458e 5cbb 744a 0ebe 67f4 483d
000000f0: 0dad 86bc 5869 513d 4c0f 90be e60c 8bbd
00000100: 79dc 49bd 1663 8fbd 6d82 49be 4f8e 88bd
00000110: 0257 48bd a1e3 a2bc 33e5 d8bd 7aff 04bf
00000120: ef4d 5f3d 31b1 e53d e7fc 09bd 0467 643c
00000130: 660d 61be 47f0 06be 7335 23be f769 a63e
00000140: 9de1 bbbd 5e90 3ebe 2f48 96be 5f88 05be
00000150: 56cc d83d aefd 89bd ba6e 8c3e 742b 4f3e
00000160: 452a 0abe 6dc2 b33d e6a4 cabd bdba 163e
00000170: cfd4 e13d bc27 1c3c 1a45 eabe 3b08 753d
00000180: 688d 3f3e 3d93 8ebe 72ed 8abe 96ee 623d
00000190: 0a5d 6f3e 1417 cabc 7549 4abe 8d9c b13d
000001a0: d801 6f3d 3ac0 97bd 6805 39be f882 a83d
000001b0: a92e c93d dff8 6ebb 5036 953d 6419 0f3b
000001c0: 571f 383c 77f2 9c3d c60e dfbb 7223 843e
000001d0: 2617 cabd bb6c 47be ddd4 51be 0c32 7dbc
000001e0: 2635 68be 9d14 583d 55e8 a33e 4c9f 94bb
000001f0: ec3f cc3c 6a71 74bc dadc 2abe 7595 98be
00000200: a152 40be 4609 d1bd 096b 863d b76e ad3d
00000210: 36d5 84bd 37f9 303e ec71 5c3c 696a 0abe
00000220: b53b 203e 7a43 7b3d 6ad1 83be 361c 25bd
00000230: 5dfc 05be e125 b33d 3d7d 233d 6483 58bd
00000240: 48ef fb3d 8d0f fd3b fc31 973e 1224 2dbe
00000250: 5389 b2bd ff1a 68be da10 6dbe 15c7 373d
00000260: ad64 82be 7004 c13e 1351 46bc 1e6f 223d
00000270: 0638 1c3e d5fc 9c3c 3cb5 c0bc 24c4 9bbd
00000280: 2d6f a43e 4ba7 d83e 8097 403e 9856 8cbe
00000290: ffdf 4dbd 8b3c 6a3d 9363 ea3d d8ab 8ebe
000002a0: 1d93 023d dad7 97bd 82de 833e 1642 99bd
000002b0: a696 993b b708 003f f2a2 b9be c794 273e
000002c0: f6e0 e1bd 1b02 7c3e 74c9 3e3c 9f65 d0be
000002d0: a8c3 c9bd b3e1 2d3e 8a19 88be 1a5b 8abd
000002e0: 8553 91be 8c30 d73c 1074 fd3d b1a0 d23d
000002f0: be35 ba3c b1e8 dc3d 2d93 d53d edee f43d
00000300: 1190 363e 53ef dbbc 2e17 ec3d c0aa 9b3d
00000310: 1711 0bbe f07f 2a3c 5822 75be 8a75 2f3e
00000320: 4249 763e d8ae 24be 2466 5f3e a17b 9dbe
00000330: 00d2 643e 6ea9 903e 04fb 44bd be59 ccbc
00000340: 5956 8abd d579 0e3e edf5 a1be 335b 88be
00000350: bf62 3ebd b821 0b3e bada 613b e991 993d
00000360: d922 633e 01b3 6fbe d144 18be b0a4 f7bd
00000370: 593f d1bd dc46 d13c eea9 683d 24d7 81bd
00000380: f728 0bbe 12b7 33be a808 9e3d acbf 573e
00000390: 7e8e 64bc 7028 b4bd e5d5 edbd 428f b2bd
000003a0: 3175 a0bd 1e6a 13bc 21b7 9c3c 66d1 243e
000003b0: 26fc 313b 0aa2 e43d 6103 5ebe 6d78 503d
000003c0: f57a fb3d a6ba 3d3e c96d 8d3e 4b12 6ab9
000003d0: 2d3d 6f3d 4b1b 863d ee42 ec3c 95f2 95bd
000003e0: b861 92be 29ee cabd 46cf 93bd 716a 9bbd
000003f0: 344b 4abd f329 0abc b498 e4bc 54f7 a73d
-0.2995368 0.2811197 -0.029841661 0.16174397 -0.034564633 -0.053310122 0.11910489 0.10798175
-0.17708471 -0.034436706 0.07986084 -0.10782205 0.051036417 -0.005485351 0.15532051 -0.31916797
-0.25350273 0.12247947 -0.05036303 -0.13205573 -0.029730625 -0.111399695 -0.06978931 -0.20071636
-0.18686582 -0.024117831 -0.10306923 -0.092174865 -0.025765812 0.07693828 0.13906345 -0.31709716
-0.15500356 0.015148898 -0.40005454 -0.04129127 -0.6513623 -0.101528354 0.11547904 -0.0046395073
-0.23097757 -0.25120237 -0.22389123 0.12195383 -0.05218495 -0.031255554 -0.17180431 0.02425053
-0.20349549 0.18937202 -0.23523952 -0.013738376 0.3138768 -0.17865498 0.13649713 -0.20805189
0.10809341 -0.0033654135 -0.13895589 0.049061205 -0.016439939 0.051125854 -0.2813667 -0.067895696
-0.049282525 -0.07001321 -0.1967866 -0.06667768 -0.048911102 -0.019883933 -0.10590591 -0.51952326
0.054517683 0.11215437 -0.033688452 0.013940576 -0.21977767 -0.13177596 -0.15938358 0.3250272
-0.09173892 -0.18609759 -0.29351947 -0.13040303 0.10585849 -0.06737839 0.27428228 0.2023142
-0.13492687 0.08777318 -0.09894733 0.14719673 0.11026918 0.009530958 -0.45755845 0.059822302
0.18706286 -0.2784671 -0.2713428 0.055403315 0.23375335 -0.024669208 -0.19754584 0.08672438
0.058351368 -0.07409711 -0.18068469 0.08228105 0.09823353 -0.0036464257 0.0728575 0.0021835202
0.011237941 0.07663434 -0.006807181 0.25808293 -0.098676965 -0.19475071 -0.20491357 -0.015453827
-0.22676525 0.052754033 0.32013193 -0.004535591 0.024932824 -0.014919618 -0.1668581 -0.29801527
-0.1878152 -0.10206847 0.06563384 0.08468383 -0.06485979 0.17282568 0.0134548955 -0.13517155
0.15647776 0.061343648 -0.25745708 -0.040310107 -0.1308455 0.08747459 0.03991436 -0.05285968
0.12301499 0.007722801 0.29530323 -0.16908291 -0.08717599 -0.22666548 -0.2315096 0.044867594
-0.25467435 0.37698698 -0.012104291 0.03965675 0.15255746 0.019163528 -0.02352392 -0.0760577
0.3211607 0.42315134 0.18807793 -0.27409816 -0.050262447 0.057186645 0.114447735 -0.2786548
0.03187858 -0.07414217 0.25755697 -0.07483308 0.004687148 0.500133 -0.3625713 0.16365348
-0.11029236 0.24610178 0.01164471 -0.4070253 -0.098517716 0.16980629 -0.26581985 -0.067556575
-0.28384033 0.026268266 0.12375653 0.10284556 0.022730704 0.1078657 0.10428462 0.11959634
0.17828394 -0.026847517 0.11527859 0.07600927 -0.13580738 0.010406479 -0.23938882 0.17134681
0.24051383 -0.16082323 0.21816307 -0.30758384 0.22345734 0.28254265 -0.04809095 -0.024945136
-0.06754751 0.13913663 -0.3163294 -0.2663208 -0.04648089 0.13587081 0.0034462647 0.07498533
0.22181262 -0.23408128 -0.14870001 -0.120919585 -0.10217161 0.025546484 0.056802683 -0.06339863
-0.13589846 -0.17550305 0.07716495 0.21069211 -0.013949988 -0.08796775 -0.11613063 -0.087187305
-0.078348525 -0.008997468 0.019130291 0.16095504 0.0027158349 0.11163719 -0.21680976 0.050896097
0.122793116 0.18528232 0.27622822 -0.00022322794 0.05840795 0.065481745 0.028840508 -0.073216595
-0.28590178 -0.09908707 -0.07217269 -0.075886615 -0.049388126 -0.008432853 -0.027904846 0.08201471

model.backbone.layers.0.channel.0.bias f4 [32]
00000000: cbbd e3be 0294 84bd 8d20 adbe a213 95bd
00000010: f77f 4ebe 9f32 08bf 08ff 50be 772d 8ebe
00000020: cee9 01bf 5c17 dfbe bccb 88be 2e15 e5be
00000030: 9e83 7dbe ad68 9bbe 8a92 a7be 17fb 3fbe
00000040: 1f41 9cbe 7464 89be 5444 95be b174 8dbe
00000050: 1294 14bf edeb 66be 91c1 29be d672 8fbe
00000060: 4a81 a3be 515f 91be dbc5 81be 308d 0cbf
00000070: 9fbc 8ebe db25 8b3c d22d abbe cd8c 97be
-0.44480738 -0.06473543 -0.33813897 -0.07279135 -0.20166002 -0.5320224 -0.20409787 -0.27769062
-0.5074738 -0.4357251 -0.26717937 -0.4474272 -0.24757239 -0.303533 -0.32728988 -0.18748127
-0.30518433 -0.26834452 -0.29153693 -0.2762809 -0.5803844 -0.22550936 -0.16577746 -0.280173
-0.31934577 -0.28393033 -0.25346264 -0.54902935 -0.2787828 0.016985824 -0.33433396 -0.2959961

model.backbone.layers.0.channel.2.weight f4 [74, 32]
00000000: 1df3 883d 875e 303e 6e37 503d 0b80 e53e
00000010: 1df8 b13d bbcb babb fd84 9b3c 57d5 813e
00000020: 17ce 85bd 948b d1be fee3 383b 7702 683e
00000030: 21da 8c3d 2c2b b73d 9e6c 98bd 948e bb3d
00000040: 135d 23ba d7a8 553e 2589 903e 81d3 5ebd
00000050: ce1f f43d 56c9 873c 8b59 63bd 1c73 59be
00000060: 04e4 97be af2f 443e a921 033e cf1d bf3d
00000070: 03b5 70bc 6909 97bd 9a0c 893e f022 463d
00000080: c2f0 993d 52d9 e93d 1b07 043e 0354 ab3d
00000090: 0eb6 a73e 495f 1b3e d2dd 1a3e 5750 c03e
000000a0: a63f c73e cc54 f8bd c6bf 02bc 8e26 7b3e
000000b0: ad36 813c e640 553e a02a c2bd 718b 5a3e
000000c0: c3d8 123d 55e0 843e 3bc6 8fbe 39c3 003e
000000d0: 4586 303e 907c 51bd 6e32 623e 8d44 63bd
000000e0: 196a 87be 4870 283e f7e1 bbbc b1cf 8d3e
000000f0: dee1 c3be e52b 7cbe 5d65 843e ce11 f9bd
00000100: ff9c c43d 35a0 67be 4e5d 863d de54 cbbe
00000110: 719f debd 9f16 963d 8d02 48be fdd1 8bbe
00000120: d1b7 78bd 0dc5 313e c042 853d 8853 09bf
00000130: 98a4 4fbe 1c2e aabd 292c 193d 8986 5d3d
00000140: c99b fabe 1cfa b73e 1a2e f43c 1970 f83c
00000150: c150 97bd 4fbe 88bd 25a1 8e3c 0e1e df3d
00000160: ead5 5ebe 5669 79bd 0cdd aabc 5acc 083d
00000170: 2909 ad3d 00c0 3f3e 8d66 4cbd 8333 9a3d
00000180: 4390 0dbb 9921 1c3d 209c a5bd 7700 06bd
00000190: f30b 97bc 252f 09bd 2b67 2ebd 3ce3 133d
000001a0: ff43 f53c ae03 b43b e15b f5bc 3759 97bd
000001b0: 88d0 e6bc ae5f 4a3c 487b e53b a4e5 08bd
000001c0: 08f3 42bd 7794 a73c 2a5e 4fbd d0c9 a93d
000001d0: 0dec 223e 7110 723d 31e7 9bbd 40ba c7bd
000001e0: 4487 583d 5e58 413d 1ae1 4a3b ebb4 773c
000001f0: d49f 193c f5ad 8cbb a482 34bc 0b19 68bb
00000200: 07f9 d5bd 43b7 5cbe a9c5 243e 90ce 223e
00000210: f214 d63d 1716 b8be 976d 493e 2a55 dd3c
00000220: 4416 bd3d 9af8 c3be 88ba 98be f47b 5fbe
00000230: 1cd2 f8bb 97ec fcbc 18c1 1b3e c77c a6bd
00000240: ee97 013e db90 723e f234 96bd 30c4 ba3e
00000250: 3d3b dabd 44f5 933e 7fb4 72be 816d 27bd
00000260: b63b 99be be25 3f3e ae6f 59bd 3510 e33d
00000270: 090f 60be 39b6 0bbe 411b 19bd 44f4 10be
00000280: 02e1 9c3e 7447 6fbe 7be1 743d 8b38 9bbc
00000290: 52c0 abbd c805 e23e 6aa3 3bbe 9a4d 1bbe
000002a0: d87e 04be 5c94 c93d 0722 843e 84d6 3d3d
000002b0: 2918 06ba 3b85 bebc 7158 42be cc3b 86bd
000002c0: 1116 d53a 1e70 89be f9da 0b3e 051c e63e
000002d0: 2a1e e93d 239f dd3d b663 9c3e 01b5 a0bd
000002e0: 70e0 e63d b88d 23be 7880 a83d 15cc 9abd
000002f0: 7e75 673e 6121 e73d 7a90 04bf e113 ac3d
00000300: 525d cfbc 0e52 7dbd 0816 303d 9e48 d33b
00000310: bf6b 253e 2830 ab3d e8f4 8c3e 2048 313e
00000320: 8970 023e d7a6 1b3e ccec 91bd c18f debc
00000330: dac6 e13d 4070 b2bd e571 a53e 8d50 453c
00000340: 12f5 1ebe 0d82 0bbe 1eb9 5abe b6fb b9bc
00000350: 6676 c83b be30 273e 61d5 b93e 64ea 08be
00000360: 3819 85bd 84c1 d53d c2bb 0ebe 1956 95bd
00000370: 65c6 5ebe 17e1 a9bd 5bef d43d d3e0 c1bd
00000380: d87d 12bc 3a47 033e ed71 903c 9477 ab3d
00000390: 72c2 f23d 788a cd3d ba73 023e e06e 113e
000003a0: e145 d83d b6c4 c83e 4142 c33d 8e13 823e
000003b0: 3e93 0f3e 5e0d 64bc 34c0 833e 22a5 0ebd
000003c0: 2809 9ebe c2e7 a2bd a4ad 42be b8be b3bc
000003d0: 68f2 81bc d677 a93e 0f82 caba 2786 a13d
000003e0: a970 dabd 945b 43bd 78f9 1ebe 6ec2 e7bd
000003f0: 256b 6cbe f0a6 4bbe 20db 87be acdb 39be
0.06686995 0.1722356 0.050834112 0.44824252 0.08689902 -0.005700556 0.018984312 0.25358078
-0.06533449 -0.40926802 0.0028212066 0.2265719 0.06877542 0.08943781 -0.07442592 0.09158054
-0.00062318257 0.20865189 0.28229633 -0.054400925 0.11920129 0.016575497 -0.055505317 -0.21235317
-0.2966615 0.19158815 0.12805809 0.093318574 -0.014691594 -0.07374842 0.26767427 0.048373163
0.07516624 0.11418404 0.12893336 0.08365633 0.32756084 0.15173067 0.1512368 0.37561294
0.38915747 -0.12125549 -0.007980293 0.24526426 0.015773142 0.20825538 -0.09480786 0.21342255
0.03585125 0.25952402 -0.28080925 0.12574472 0.1723872 -0.051144183 0.2208955 -0.055485297
-0.26448134 0.16449082 -0.022934897 0.27697518 -0.3825826 -0.2462612 0.25858584 -0.12161599
0.09600257 -0.22619708 0.06560765 -0.39713186 -0.10870255 0.073285334 -0.19532223 -0.27308646
-0.060722176 0.17360325 0.06506872 -0.53643084 -0.20277631 -0.08309576 0.03739563 0.05408338
-0.4894698 0.35933006 0.02980714 0.03032689 -0.073884495 -0.066769235 0.017410824 0.10894404
-0.21761289 -0.06089147 -0.020857356 0.03339801 0.08449013 0.18725586 -0.049902488 0.07529356
-0.002160088 0.03811798 -0.08086419 -0.032715287 -0.018438315 -0.033492226 -0.042578857 0.03610538
0.02993965 0.0054936027 -0.029951038 -0.07390063 -0.028175607 0.012351913 0.0070032217 -0.033422127
-0.047595054 0.020456536 -0.05062691 0.08290446 0.15910359 0.05909771 -0.07612456 -0.09752321
0.052863374 0.047203414 0.0030956925 0.015118818 0.009376485 -0.004293198 -0.011017475 -0.0035415317
-0.10447889 -0.21554284 0.16091026 0.1589911 0.10453214 -0.35954353 0.19670711 0.027018148
0.092327625 -0.38275605 -0.29829812 -0.21824628 -0.0075934064 -0.030874534 0.15210378 -0.08129268
0.12655613 0.2368807 -0.07334317 0.36477804 -0.1065583 0.2889806 -0.23701666 -0.040875915
-0.29928368 0.18666741 -0.05308502 0.110870756 -0.21880735 -0.13643731 -0.037379507 -0.1415568
0.30640417 -0.23367101 0.059785347 -0.01894786 -0.083862916 0.44145036 -0.18324056 -0.15166321
-0.12939012 0.098427504 0.2580721 0.046347156 -0.00051152945 -0.023256889 -0.1897905 -0.06554374
0.0016257187 -0.2684335 0.1365775 0.44943252 0.113827065 0.108213685 0.30544823 -0.07847024
0.11273277 -0.1597203 0.082276285 -0.07558457 0.22603413 0.112856634 -0.51782954 0.08402229
-0.025313053 -0.06184583 0.04298976 0.0064478656 0.16154383 0.083587945 0.275306 0.1731267
0.12738241 0.15200363 -0.071252435 -0.027168157 0.11024256 -0.08712816 0.32313457 0.012043131
-0.15523174 -0.13623829 -0.21359679 -0.022703033 0.00611763 0.16327187 0.36295608 -0.13370663
-0.06498951 0.10437301 -0.13938811 -0.072918124 -0.21755369 -0.082948856 0.10397216 -0.0946671
-0.008941136 0.1282014 0.017632449 0.08372417 0.11853494 0.100361764 0.12739459 0.14202452
0.10560203 0.3921258 0.09534121 0.25405544 0.14021012 -0.013919203 0.25732577 -0.03482545
-0.3086636 -0.079543605 -0.19011551 -0.021941528 -0.015862659 0.3309924 -0.0015450137 0.07886916
-0.106660195 -0.047694758 -0.15524852 -0.113163814 -0.23087747 -0.198879 -0.26534367 -0.18150204

model.backbone.layers.0.channel.2.bias f4 [74]
00000000: 4313 253e 85df 2abd 0078 563d 6fe4 5b3b
00000010: 2b63 da3d 3624 bebd c2ae 4cbb 67e4 e83c
00000020: b28d d7bb 5018 573e c1c8 683b 1c17 8c3d
00000030: d381 953d 0eae 663c aa39 073e 5724 f3bc
00000040: ca8b ec3c 68b9 d23d 6225 7a3c b8dc bfbc
00000050: 328a 60bb 2ca8 c03c 07e8 3a3d f54c eabd
00000060: 84ea 3b3c 6d57 353d 3e42 bbbc 65c0 823c
00000070: ba2c 0ebd 3380 063e ed12 103d 6514 eabd
00000080: b98c 12bd e7c1 a83c 09c8 eebc 265d 143d
00000090: efc0 bcbd 6b40 7e3c 36aa 033d 0945 19bd
000000a0: 5df0 b8bc 3b11 2a3d a2d4 7dbd e824 fb3d
000000b0: c84e fe3c 8715 87bc ec95 25bc 07d0 19bd
000000c0: 37b2 863b 9d87 bb3d ce21 f6bd 0c87 c03c
000000d0: c336 b0bd 7970 1dbd 6f82 10be d9c5 6f3d
000000e0: 9c87 523c f729 1dbd 8145 873c 48d8 b63d
000000f0: a2c2 acbd 641a 413c 2eb0 293c 9cde ef3c
00000100: 5754 86bd ec06 673c 0d36 bdbd fa85 b6bc
00000110: 0beb 37bd 45b7 013d e1cb f23c 32e7 58bc
00000120: c9a0 36bd 4e22 5fbc
0.16120629 -0.04171707 0.052360535 0.0033552905 0.10663446 -0.092842504 -0.0031232093 0.028429223
-0.0065781707 0.21005368 0.003552005 0.06840345 0.07300153 0.014079584 0.13205591 -0.029680414
0.02887525 0.1028927 0.015267702 -0.023420677 -0.0034262058 0.02351769 0.045631435 -0.1144046
0.011469487 0.04427283 -0.022858735 0.015960881 -0.034710623 0.13134842 0.0351743 -0.11429671
-0.035778735 0.020600272 -0.029148119 0.036221646 -0.09216487 0.015518288 0.032144748 -0.037419353
-0.022575552 0.04152034 -0.06197036 0.12262899 0.031043425 -0.016489757 -0.010106545 -0.037551906
0.0041106003 0.091567256 -0.120181665 0.023501895 -0.08604195 -0.03843734 -0.14112256 0.05853829
0.012849715 -0.0383701 0.016512634 0.08927971 -0.08435561 0.011786077 0.010356946 0.029280953
-0.06559055 0.014100771 -0.09238825 -0.022280682 -0.04490189 0.03166892 0.029638233 -0.013238715
-0.04458693 -0.013619019

model.backbone.layers.1.temporal.0.weight f4 [32, 64]
00000000: 1a16 fa3e a6ca b03d feee 453d 99fb cf3c
00000010: 7f36 72be 4232 66bd 90a8 a5bd b355 8e3d
00000020: 2d74 08be 3e1d 84bd c0fc d63c 1694 77bd
00000030: 1981 b53e ff89 b1be 978b d33c d1d6 c9be
00000040: 2840 893e b515 cbbb 7635 83be 9e8f 83be
00000050: 16f8 7cbd cc86 103d 5448 ab3c d7f4 cc3e
00000060: 3831 ddbd 8110 97bd 453d 083e 48af 8ebe
00000070: 1a6b c33d 41bb 4d3d 67ea 0d3e c990 f13d
00000080: 7edd ebbd b229 0d3e 13b2 e93c b6a1 9a3e
00000090: 165f 5dbe 843f 24bd b9c2 2cbe 8c14 83be
000000a0: d2b8 e4bd f98d e5bc a2b5 a93e 311b 4b3e
000000b0: 1a45 18be fbe0 a8be 1588 47be 1f27 9cbc
000000c0: 3919 aebd 5f7b f2bb 7e49 efbd a138 05be
000000d0: 143b 93be e453 f33d 1362 e3bd 5eec 373d
000000e0: a08c 48bd c22a a8be 065e b33d 1fae 72bc
000000f0: f9ad 4d3d 07e9 3d3c 342f a23d b460 dc3d
00000100: 892b a13c 57cf 5cbe 1f32 e2bc 024a 483e
00000110: dfa9 26bd ae3b 86bb 2455 82bc 5871 283e
00000120: 3c5b 57bd cea5 723d 1f98 6c3d 630d 44be
00000130: 2e91 43bd aafc 17bd f1ad 13bd 94a6 b6be
00000140: b3df 6bbe c52c ffbb 0b7a 3abe 978c 54be
00000150: 8316 79bd f84a 5e3e eda9 023c 0eb3 953e
00000160: 3db4 f13d b92a dd3c 1005 cfbd 1b57 febd
00000170: 10df a73e bcee 163d 7720 08be a339 37be
00000180: 75ff bc3d 4cb1 46bc 0575 cd3d f6b4 b5bd
00000190: 2a76 77bd 45fd 4cbe e7cc d43d a27d 47be
000001a0: 5dbe 9b3d 6a3d 80bd 06bc bb3d f8ce 51be
000001b0: dac4 68be 82ae 1cbe 002e ba3e eb67 5e3d
000001c0: c1bd ff3a 3c8b 4cbe 958b 7bbe 22f8 88bd
000001d0: 77e5 193d d289 f33d 4517 5fbe e084 19be
000001e0: aab0 00bd 0475 cfbd eae3 923e 37ca da3c
000001f0: dfa1 dabd 0a4c 0dbe 0308 d0bd 18b3 893e
00000200: f108 8cbd edc0 9abe 8770 18be f622 1abb
00000210: 42b4 0fbe fa4a dd3d 4c4c 1abe d77c da3d
00000220: eb7f cbbd 4f87 1c3e fa0a 48bd baf4 c5bd
00000230: 9302 5a3d 8f75 dabe 5a42 c13a f16d dbbd
00000240: da6b ebbc 1b28 c13d ef79 10bd 342f 2c3e
00000250: 718c c63d d8e2 323e 36f2 7cbe 3826 193d
00000260: a006 21be b5bb 963d dce3 153d d8d5 bb3c
00000270: 20e5 193e 6d5b f73d 160b 12be 469d 90bd
00000280: b234 ea3d fa4a 1e3c c81b 133e 846a 283e
00000290: 5edb 50bc 32cf 80bc dbd0 703e b11d 55bd
000002a0: 7e64 81bc b2ed 8cbd da90 303c a8e2 083e
000002b0: 396d d8bc 3875 09be 063d 883d f095 91be
000002c0: 91aa 013c 09b8 0fbe 4711 6dbe cfbc 47be
000002d0: 930f d7bd abd9 78be a1c8 96bd 7e1a fcbd
000002e0: ff36 fcbd 13be 87be 33ec 17bd 7285 193e
000002f0: 043c 16bc 3505 29bd 5133 76bd 5919 e23e
00000300: af1d 21be 9b54 45be d9e4 a9bd f42a 2139
00000310: 67f6 ab3c 87b4 efbd 85ae 0fbd bd5c a8bc
00000320: 919d 253e d0c2 853d e700 a6bd 704c 10be
00000330: 0d6a 60be 1002 19be aeda efbd cd5a 783d
00000340: 398a 523e 11ef aa3d 60e6 38be 3987 22bb
00000350: 665e c4bd 3779 1abd 8032 a0bd ee36 36be
00000360: bffb edbd 9d59 67be 151f 6c3d a697 f63c
00000370: 5e95 e0bd 6651 09be 252b 8abe c0ca 813c
00000380: 38f0 04be 6c9b 55be b24e 57be b249 15be
00000390: 27a9 033e 6ab1 04bd fb6a 8dbb 2db4 b3bd
000003a0: 3e64 36bd f5c6 9dbd 522e 50bd 83d5 33bd
000003b0: 2435 4cbe db96 64bd 3504 a7bd 121f 0a3d
000003c0: 1222 e9bd 02db 273d 5e61 6abd 0b26 c8bd
000003d0: 7eef 95be a49d 49be 01b6 01be 1f87 35be
000003e0: 4d0b cabd 0cde ae3c d484 763d f4bd b23d
000003f0: d5d8 c9bb 93ef 5f3d 4610 9d3d d24f 113f
0.48844987 0.08632402 0.048323624 0.025388526 -0.23653601 -0.056200273 -0.08088791 0.069499396
-0.13325568 -0.0645089 0.026243567 -0.06044396 0.35450056 -0.34675595 0.025823398 -0.39421704
0.2680676 -0.006197656 -0.25626725 -0.2569551 -0.06176003 0.035284802 0.020908512 0.40030548
-0.10800403 -0.07376195 0.13304622 -0.27868104 0.095419124 0.050227407 0.13858949 0.11795194
-0.11516856 0.13785437 0.028527295 0.302015 -0.21618304 -0.040099636 -0.16871156 -0.25601614
-0.11168064 -0.0280218 0.33146387 0.19834591 -0.1487011 -0.32984146 -0.19485505 -0.019061623
-0.085009046 -0.007399961 -0.116839394 -0.13009883 -0.2875601 0.11881235 -0.111026905 0.04490315
-0.048962235 -0.32845122 0.08758168 -0.0148120215 0.05021474 0.011591203 0.079191595 0.10760632
0.01967408 -0.21563469 -0.02761179 0.19559482 -0.040689345 -0.00409647 -0.015909739 0.16449487
-0.052577242 0.059240155 0.05776226 -0.19145732 -0.047745876 -0.037106194 -0.036054555 -0.35673964
-0.23034553 -0.0077873194 -0.18210618 -0.20756756 -0.060812484 0.21708286 0.007975084 0.2923817
0.11801956 0.02699791 -0.101083875 -0.12418958 0.3278737 0.03684877 -0.13293634 -0.1789308
0.09228412 -0.012127232 0.10032085 -0.08872406 -0.060415424 -0.2001849 0.103906445 -0.19481519
0.07604668 -0.06261714 0.09166722 -0.20489109 -0.22731343 -0.15300944 0.3636322 0.054298323
0.0019511507 -0.19974989 -0.24564965 -0.066879526 0.03757235 0.118915215 -0.2178622 -0.14992094
-0.03141848 -0.10129741 0.2868951 0.026707752 -0.10675406 -0.13798538 -0.10157778 0.2689445
-0.06837643 -0.30225316 -0.14886676 -0.0023519373 -0.14033607 0.10805316 -0.15068167 0.106683426
-0.09936508 0.15285991 -0.048838593 -0.096658185 0.05322511 -0.42667815 0.0014744506 -0.10714329
-0.028737951 0.09431478 -0.035272535 0.16814882 0.09694756 0.17469347 -0.24701771 0.037389964
-0.15725183 0.07360021 0.036594257 0.022929117 0.1502881 0.12077985 -0.14262041 -0.070612475
0.11435832 0.0096614305 0.14366066 0.16446882 -0.012747614 -0.015723798 0.23517172 -0.05203027
-0.015794989 -0.06881274 0.010776723 0.13367712 -0.026419269 -0.13423622 0.06652264 -0.28434706
0.007914201 -0.14035048 -0.23151122 -0.19505619 -0.105010174 -0.24301784 -0.07362486 -0.123097405
-0.12315177 -0.26512203 -0.03709049 0.14992312 -0.009169582 -0.04126473 -0.060107533 0.44159964
-0.1573398 -0.19270556 -0.08295602 0.00015370158 0.020991517 -0.11704355 -0.035078544 -0.020552034
0.16173388 0.06531298 -0.08105641 -0.14091659 -0.21915455 -0.14942193 -0.11711632 0.06063347
0.2056054 0.083463795 -0.18056631 -0.0024799837 -0.095883176 -0.037713256 -0.07822132 -0.17794392
-0.116202824 -0.22592779 0.05764683 0.030101608 -0.109659895 -0.13409957 -0.26986042 0.015843749
-0.12982261 -0.2086007 -0.21026114 -0.14578894 0.12857495 -0.032395758 -0.0043157316 -0.087746
-0.044529192 -0.07703964 -0.050825424 -0.043904793 -0.19942147 -0.05580793 -0.08155099 0.033721037
-0.113834515 0.040980347 -0.057221763 -0.09772881 -0.2928428 -0.19689041 -0.12667085 -0.17727326
-0.09865437 0.021346115 0.06018527 0.08727637 -0.0061598816 0.054671835 0.076691195 0.5676242

model.backbone.layers.1.temporal.0.bias f4 [32]
00000000: 0d09 3abf 52fc 1fbf 517f 933c 5cab 13bf
00000010: b218 20bf 0eaa 8cbc a776 41bd f5ef 20bf
00000020: 554c 3dbe 6b42 eebe 47c1 f3be a68c 0bbf
00000030: 3582 c8be 3415 1cbf b02f d7be f16e 58bf
00000040: 24bd dcbe 962a 9fbd fa32 903c 4544 05bf
00000050: d0e4 5ebe f23b 13bf 3f46 00bf cd88 8dbd
00000060: adb1 34bf fed1 41bf 36aa 5ebf fbf8 43bf
00000070: 3933 efbe 5e2b 07bf e53c 13be 7a57 11bf
-0.7267006 -0.62494385 0.018005045 -0.5768335 -0.6253768 -0.017170932 -0.047232296 -0.62866145
-0.1848615 -0.46535048 -0.47608396 -0.5451149 -0.3916184 -0.60969853 -0.4202857 -0.84544283
-0.43113053 -0.077717945 0.017602433 -0.52057296 -0.21766973 -0.57513344 -0.5010719 -0.06910858
-0.7058361 -0.7571105 -0.8697847 -0.7655179 -0.46718767 -0.5280055 -0.14378698 -0.56774104
