experiments/AdversarialDomainAdaptation/saved_models/tsmixer_da_pretrained_0.pt (torch, 731036 bytes, 30 tensors)

model.backbone.static_proj.weight f4 [64, 10]
00000000: 5a57 6b3e 0e80 8c3e 1387 7ebd c69d 8e3e
00000010: b15b a6bd 7574 543d b0e1 29be 55f1 313e
00000020: 1cd8 943e f754 61be 8f0c 823e afef a33d
00000030: 024d 823e c8ef b33c 35c7 063e 632a 86bd
00000040: 7143 643e d400 d43c e2ce 01be 6fce cf3d
00000050: 693a f8bd b638 7cbd fc99 1cbe 31e4 6f3e
00000060: ff87 66be cb67 f8bd 05b7 84bd 389f 29be
00000070: 7370 af3b 3174 acbe e10b 853e 0cb9 78be
00000080: 322c 8a3e 5f51 dc3c 9d7e 03be d5c0 2d3e
00000090: a7f0 c03c 6a48 6b3e 37ff 763d 138c 97bd
000000a0: a796 733d 38d2 76bd 6063 223e 8280 833e
000000b0: 1214 213e d6ab 27be 2cd2 203e 39a8 fe3c
000000c0: 908d 3e3e d042 2bbe 0d76 abbe 9479 cdbd
000000d0: a100 62be f354 733e 24cb 8d3d 7683 df3d
000000e0: 7e13 a03d fe0b e0bc c0e5 893e 2bb4 4fbe
000000f0: 9f43 f53a ac8b 4abe 04a5 ec3d 57fd 01be
00000100: 2280 a13d d5df abbd 4519 7a3e 5766 52be
00000110: baa6 2ebe b6a9 2ebe efac 9d3e fda1 a73d
00000120: aabf 8f3e 8124 73be 998b 94be 2b3f 65be
00000130: 71bb 41be 4e41 1b3e cbb5 b73d b6f8 743e
00000140: bd33 2fbe 7ec6 54be f7c8 333e f0dc 0abe
00000150: c78e 3c3e 22a2 a9bd 7f43 313e 01c9 81be
00000160: 8b70 1bbe d465 d53d ae14 8e3d 3a49 aabd
00000170: 446f 3e3e 85b7 5e3e 9e3d 68be f44a 2abe
00000180: 8a8b 953e f05d d5bd 54c3 eabd 14f4 9dbe
00000190: 9445 22be 70e3 663d 10d2 83bd bce2 53be
000001a0: 581d f63c 5d06 46be 868e 7bbe 3625 1bbe
000001b0: e749 99be ff5a 65be 2b15 ae3e abbe 123d
000001c0: 1ea0 963d b1c5 8abe 2633 3cbe 989e a6bd
000001d0: 8438 963d bd3a 82be bdff 23be 8655 5abe
000001e0: 8c9d c73c 4b8c 10be 8df9 39bd a35f 43be
000001f0: 4536 46be 68dc 24be 0f93 adbd 3587 67be
00000200: d874 773e 2da4 b0bd ab9b 973e e894 983d
00000210: fa67 95be 9fb2 783e d0fb 80bd a80b c7bd
00000220: b32f 74be 27a9 94be e215 883d 70ae bebd
00000230: 772d d73d ad43 77be 3372 813e 0917 80be
00000240: 69ca 94bd a59e 443d ccb0 143e bdf0 723e
00000250: 8abb 9c3e ff47 6ebe 311b 783d 19a1 efbd
00000260: 8124 80bc bceb 82be f4bd 893e 1391 80be
00000270: d598 193e 52ab bc3d 4963 f93d 609a 1bbe
00000280: e206 883e f8e0 ba3d d5be 7f3d acd2 99be
00000290: 044f e33d 2ab8 8dbd 03a1 2abe 7fdc 7f3e
000002a0: 3ef3 bc3d 49e1 1cbe 6282 fdbd 866c 52bd
000002b0: 47aa 0f3e e76a 36bd bf9e 13be 817e 93bd
000002c0: 1bc6 4cbe 28a0 183e 7581 553e 89ff aabe
000002d0: 1274 a93d f3c2 1d3e 74ca 443d 4799 d3bd
000002e0: 9e88 323e a6b0 333e 9a9a 023e ea86 3dbd
000002f0: c788 bebd a5fa c83c 0f42 12bd 2646 eabd
00000300: d858 3a3e b976 953e c7af 36bc 3b73 4fbd
00000310: 3aea ca3c 54fc a63a 3ad7 643d ef35 8c3d
00000320: a7a6 86be e84e 10be 7fe3 773e bbf3 163e
00000330: 2139 0b3c 806c 2abe 3a4e 2dbe f6a0 84be
00000340: 115c 02be 2518 a93d cf75 363e ab84 2d3e
00000350: a31c 83be 84be 5abe 983b 96bd ae9d 903e
00000360: bba3 b63c 61be d7bd 16fb 1d3e 8fa5 c6bd
00000370: d919 69be e7ed 813e ac76 f7bd a1d8 b0bd
00000380: 5ad2 acbe 8236 413e a3d3 5d3e 1f03 bd3d
00000390: ed47 4abe 2e0a 94be 0fa3 93be 99df 883e
000003a0: 23be 3b3e a637 703e a55c 093e a0b7 463d
000003b0: 0dca 0dbd 4845 8bbe 4c29 75be 864d 87be
000003c0: bdac 183e a619 33be 2392 aabd 023e 26be
000003d0: 1b90 1bbd 2dcc 4fbe 9078 3fbe 610f ff3d
000003e0: 16b5 e8bd 41ca 333e 58a7 a8bd 9b8c 80be
000003f0: 8d61 99bd b969 09be 7206 9fbd a55b 90be
0.2298254 0.27441448 -0.062140536 0.27854747 -0.081229575 0.051868875 -0.16589999 0.17377217
0.29071128 -0.22005068 0.25400206 0.080047004 0.25449377 0.021964923 0.13161929 -0.065510534
0.22291352 0.025879301 -0.12676576 0.10146796 -0.12120516 -0.06157752 -0.15293115 0.23426892
-0.22512816 -0.12129172 -0.06480221 -0.16564643 0.005353981 -0.33682397 0.25985625 -0.2428934
0.26986843 0.02689427 -0.12841268 0.16968091 0.023552252 0.22976843 0.060301986 -0.07399764
0.059469845 -0.060259074 0.15858221 0.2568398 0.15730312 -0.16374144 0.15705174 0.031086074
0.1860869 -0.16724706 -0.33488503 -0.10032955 -0.22070552 0.23762874 0.069235116 0.10913746
0.07816218 -0.027349468 0.26933098 -0.20283572 0.0018712169 -0.19779843 0.11554912 -0.12694298
0.078857675 -0.08392302 0.24423702 -0.20546852 -0.17055789 -0.17056927 0.30796 0.08185194
0.28075916 -0.23744394 -0.29012755 -0.22387378 -0.1891916 0.1516163 0.08970221 0.23923
-0.1710958 -0.20778844 0.17557131 -0.13560843 0.1841384 -0.082828775 0.17310904 -0.25348666
-0.1517965 0.10419813 0.06937538 -0.08314748 0.18597132 0.21749695 -0.22679755 -0.16630155
0.29208022 -0.10418308 -0.11463037 -0.3085028 -0.15846854 0.056369245 -0.064365506 -0.20691961
0.030043289 -0.19338365 -0.24566087 -0.15150914 -0.29939196 -0.22397994 0.34000525 0.035826366
0.07354759 -0.27103952 -0.18378887 -0.08135718 0.07334998 -0.2543544 -0.16015525 -0.21321687
0.024367116 -0.14116018 -0.045404006 -0.19079451 -0.1935664 -0.16099703 -0.08475315 -0.22610171
0.24165666 -0.08625064 0.29610953 0.074502766 -0.2918089 0.24286889 -0.062980294 -0.0971902
-0.23846321 -0.29035303 0.06644799 -0.09310615 0.105067186 -0.2414691 0.2528244 -0.25017574
-0.07265169 0.048002858 0.14520568 0.23724647 0.3061183 -0.23269652 0.060572807 -0.11700649
-0.015642406 -0.25570476 0.26902735 -0.25110683 0.14999707 0.09212364 0.1217714 -0.15195608
0.2656775 0.09124941 0.06243785 -0.30043542 0.110990554 -0.06919892 -0.16662984 0.24986456
0.09226082 -0.15320314 -0.12378384 -0.051373027 0.140298 -0.044535544 -0.14416026 -0.07201863
-0.19997446 0.14904845 0.20850165 -0.33398083 0.08274092 0.15406398 0.048044637 -0.1033197
0.17434928 0.17547855 0.12754288 -0.046271242 -0.09303432 0.02453358 -0.03570753 -0.11439161
0.18197954 0.2919214 -0.011150307 -0.050647 0.024769891 0.0012739995 0.05586932 0.068462245
-0.2629902 -0.140926 0.24207877 0.14741413 0.008497507 -0.16642952 -0.16924372 -0.25904053
-0.12730433 0.08256558 0.17818378 0.1694514 -0.25607786 -0.21361738 -0.07335585 0.282453
0.02229487 -0.10534359 0.15427813 -0.096995465 -0.22763766 0.25376818 -0.12083182 -0.08635069
-0.33754236 0.1886845 0.21662764 0.09229111 -0.19754 -0.28914016 -0.2883534 0.2673309
0.1833425 0.23458728 0.13414247 0.048514962 -0.03461652 -0.27201295 -0.23941535 -0.26426333
0.14909644 -0.17490253 -0.083286546 -0.16234592 -0.037979227 -0.2029273 -0.18698335 0.12454105
-0.113626644 0.17557622 -0.08235043 -0.25107273 -0.074893095 -0.13419236 -0.07764901 -0.2819492

model.backbone.static_proj.bias f4 [64]
00000000: 4f51 943d 8db3 86be 9883 923e f471 603e
00000010: 93f9 91be 4189 f0bd e028 ee3d f9b1 b3bd
00000020: d03c 26bc bc35 17be 9d11 6d3e c34f 47be
00000030: ff27 7d3e b451 7ebb 4f63 9d3d a072 843e
00000040: a423 13bd 61c7 4bbe 1704 85bd b3b6 6c3e
00000050: 458d 82be 664d ab3d 0709 96be 4918 373e
00000060: fbaa c03d 5933 263a d4cd 213e 1515 423c
00000070: ab5c 1b3e 7db8 68be 2490 19bd 748a 213e
00000080: 500a 973e 03c3 2c3e 31cd 6bbe 80dd 4b3e
00000090: 80b1 6dbd 0ffa a9bd 5fa2 87be ea28 02bd
000000a0: 49fd 4d3e 5953 b33c c8de 38be 29b6 ed3d
000000b0: 2ab1 a3bd 31a4 9b3e 6b35 94be 37bc efbd
000000c0: b157 9ebe cc75 e1bd b306 e63d d304 943e
000000d0: 6c2a 813d ef3d 943e 1c70 9f3d ca78 253e
000000e0: 0d7e 6b3e 0600 933e 6b92 10be e945 843e
000000f0: dc28 303e cb14 cbbd 762f 26be b378 8fbe
0.07242071 -0.2630886 0.28616023 0.2191847 -0.28510723 -0.11744929 0.1162889 -0.0877418
-0.010146335 -0.14766592 0.2315125 -0.1946402 0.24722289 -0.0038806023 0.07684957 0.25868702
-0.03592266 -0.19900276 -0.06494921 0.23116569 -0.25498405 0.08364372 -0.29303762 0.17880358
0.09407612 0.0006340049 0.15801173 0.011845847 0.15172069 -0.22726627 -0.03749098 0.15775472
0.29500055 0.16871266 -0.23027493 0.19908714 -0.058030605 -0.08299648 -0.26491067 -0.0317773
0.20116152 0.02189033 -0.18053734 0.1160701 -0.07992776 0.30398706 -0.28947005 -0.11705821
-0.30926278 -0.11008796 0.112317465 0.2890993 0.063069195 0.28953502 0.07785055 0.16159359
0.22997303 0.28710955 -0.14118354 0.25834587 0.17203087 -0.09916075 -0.16229042 -0.28021774

model.backbone.layers.0.temporal.0.weight f4 [32, 64]
00000000: 741e 973c 65a1 eabd 0ea2 223d 98c0 d93c
00000010: 16b6 f6bd a7e6 b53c 144e b1bc 8590 373d
00000020: fcaf 733d dad0 0bbe a7de d03d cec3 bd3d
00000030: a5f7 183d efc6 00be 32d8 67bd a005 47bd
00000040: 6367 36bd 8cf7 6a3d edc4 063d 3b26 b33d
00000050: fd8e 6cbd 1110 fe3c efb9 023d 6e26 efbd
00000060: b217 09be 1c7e 9ebd 871d 953d 3ac4 05be
00000070: 0284 f9bd 76a0 613d 8e79 573d d32b b53d
00000080: 7039 debd fc28 d5bd f36a 543d 5432 c53d
00000090: e9a9 7a3d 20cc d93b 13ee e73c 879c d73d
000000a0: dae5 bebd 83a1 8dbd 59ca 963d 11f2 cdbd
000000b0: cc52 adbd d8e6 9a3d 1c97 c23c ae8a cd3c
000000c0: 8f17 8abd 2f8d 88bc 6b0b cd3d cef2 b5bd
000000d0: 6dc6 59bc c1e7 343d bc76 d0bd cdd7 d63d
000000e0: 16de a1bd f966 45bd 4732 54bd 7583 cabd
000000f0: 0d98 0fbe d56c 563d ecc5 6c3c bc42 0ebe
00000100: 06cf 8dbd 893d 0a3e a1c8 743d 3be6 803d
00000110: 1e89 81bd 49f1 2ebd 6bd9 debb 02ee 27bc
00000120: a905 95bd 6cc2 b33c 6578 c83c a824 6dbb
00000130: fe41 ef3c 5926 1bbd c0bb 383d 12fb 723d
00000140: 4f61 5fbd e432 e5bd 83b4 9d3d 5f0f 273d
00000150: 7661 58bd c092 063e c7d2 3abd 1db1 c23d
00000160: 98d7 973d 21fb c0bd 0791 b93d 2f3f d3bd
00000170: 8095 70bd f60a 30bc eebc 97bd 9fb0 073e
00000180: b812 78bc b4f2 723d a8dd d0bd 3ac9 a63d
00000190: 51d8 eabc 9727 aebd c983 e53c a474 903d
000001a0: 28b2 ef3d 3b7e 8bbd 368a 57bd 18cf 093d
000001b0: 6d3c 343d 7314 6d3d a45c a03d 0788 a0bc
000001c0: a9f7 9b3d a916 ca3d d1cc cebc ce7c c53d
000001d0: dc9c 8c3d aace f03d df4d 87bd 602b 6cbd
000001e0: 7c0f 05bd c1bf 273c fbd4 a43d e42d 85bd
000001f0: ad69 8f3d baef 17bd 233f b13d 4745 3b3c
00000200: 4f8d c5bd 9498 6cbd 5449 9fbd c82a 923d
00000210: 04e9 98bd b887 1e3b 10d7 2d3d 5104 5fbd
00000220: ed2d 523d 5def d6bd c93c 9abd ea41 cfbd
00000230: 7dba b4bc 94ce e1bc 519d 123d 6fcc 57bc
00000240: defe 883d c505 fb3d cd14 793d 699f 08bd
00000250: 2178 d1bd 3974 663d 09dd 52bd c998 983d
00000260: 2356 bd3d b8fd 663d 804d 043e 10f4 fb3d
00000270: 6f20 f93c 43ca acbd 254f ee3d c2bc 6bbd
00000280: e8b6 6bbd 407a dd3d e7b9 d43d 1c07 243d
00000290: 6a35 063c 6a16 ccbd b4e0 78bb 34c0 033e
000002a0: 328c 223d aa60 553c a4ea bebc 94a3 26bd
000002b0: f00a 9b3d fd50 773a 4c16 9d3d 7121 a2bc
000002c0: a166 7f3d 51cc 803d 1e5e f43c 0acc b73d
000002d0: 8afa bb3d d35d 073e a1e6 f43d 4bf3 38bc
000002e0: d48b a9bd 57b3 3f3d 2dac d43c 4f64 bbba
000002f0: 13aa 733c 2966 163d 6356 e23d 95ab f23c
00000300: 1a51 64bd eee8 85bd 89e7 3bbd ecdf 84bd
00000310: 38a2 c73d 84f2 573d 2263 ca3d 1039 7dbc
00000320: 85af 153c fcbc d63c d1a5 0bbe 22d1 94bb
00000330: a9f8 bebc 3bef abbd 75c5 e8bd 6412 bf3d
00000340: 0cef ab3d 8058 293d 4a24 d33d 535c 88bd
00000350: d073 11bd 0e86 043d 7ba3 17bd ecb9 2ebd
00000360: 6126 f9bd 67b7 8d3c c751 bcbd dec6 3fbc
00000370: 8bba d63d e92a 65bd 88dd 6dbd fda2 683d
00000380: 28b5 7dbd 9108 d3bc c85d d13d c0d6 89bd
00000390: ce7c d9bd 08ce b5bd 83b5 50bd 1a70 97bd
000003a0: 4d48 a1bd e1aa 173d 83f2 e63b d9d8 6abd
000003b0: 1edc ddbd 1370 4bbd 6936 7abd 2058 4dbd
000003c0: 351b f9bd e715 883c 98b1 d4bd a993 e2bd
000003d0: 6f97 e8bd 3ebc 2c3d e90a b9bd 0ac0 82bd
000003e0: 74f1 aa3d 3ef3 303d 73ea 5a3d ebf8 0bbe
000003f0: 378b dabd 8f59 83bd 27a1 9a3d a3fd adbc
0.018447138 -0.11456565 0.03970533 0.026581094 -0.12046449 0.02220471 -0.021643676 0.04481556
0.059494004 -0.1365389 0.101987176 0.092658624 0.037345547 -0.12575887 -0.056602664 -0.04858935
-0.04453219 0.057364985 0.032902647 0.08747526 -0.05775355 0.03101352 0.0319156 -0.11677252
-0.13387945 -0.07738897 0.072810225 -0.13063136 -0.121833816 0.055084668 0.052606158 0.088462494
-0.10850799 -0.10408208 0.051859807 0.0962874 0.061197195 0.006646648 0.028311765 0.10527902
-0.093211845 -0.069155715 0.073628135 -0.10055936 -0.08463058 0.07563561 0.023753695 0.025090542
-0.06742775 -0.016668884 0.100119434 -0.08884202 -0.013291937 0.04416633 -0.10178897 0.104903795
-0.07903688 -0.048193906 -0.05180576 -0.09888355 -0.14022847 0.052349884 0.014451485 -0.13892645
-0.06924252 0.13500036 0.059761647 0.06293913 -0.06324981 -0.042710576 -0.0068008206 -0.010249617
-0.0727647 0.021943294 0.024471471 -0.003618518 0.029206272 -0.037878368 0.045100927 0.05932147
-0.05453616 -0.11191347 0.077004455 0.040786143 -0.05282732 0.13141918 -0.04561117 0.09506438
0.07414168 -0.09422899 0.09060865 -0.10314786 -0.058736324 -0.010744801 -0.07409082 0.1325097
-0.015141182 0.05931349 -0.101985276 0.0814385 -0.0286676 -0.08503645 0.028016942 0.070534974
0.117039025 -0.06811186 -0.052622043 0.033644766 0.04400294 0.05788083 0.0783017 -0.019596113
0.07615597 0.09867603 -0.025244148 0.09642945 0.06865856 0.11758168 -0.066066496 -0.057658553
-0.03248547 0.010238589 0.08048435 -0.065028936 0.07002578 -0.037093855 0.086546205 0.011430091
-0.09646093 -0.057762697 -0.07777658 0.07137066 -0.07466319 0.0024189781 0.042441428 -0.054447476
0.05131333 -0.10494874 -0.07531125 -0.10119994 -0.02206158 -0.027564324 0.03579456 -0.013171299
0.06689237 0.1225696 0.060810853 -0.03335515 -0.10227991 0.056263182 -0.051480327 0.074510165
0.09244945 0.05639431 0.12920189 0.123024106 0.030410973 -0.08437016 0.11636189 -0.05755306
-0.05754748 0.10814333 0.103870206 0.040045843 0.008191446 -0.09965213 -0.003797573 0.12866288
0.039684482 0.013023535 -0.023305245 -0.040683344 0.075704455 0.00094343704 0.076702684 -0.019791337
0.062353734 0.0628897 0.029830035 0.08974464 0.09178646 0.13219385 0.119580515 -0.011288474
-0.08278623 0.04680189 0.025961006 -0.0014296862 0.014872092 0.03671852 0.11051633 0.029622832
-0.055741407 -0.065385684 -0.045875106 -0.06488022 0.09747738 0.052721515 0.09882189 -0.015455499
0.009136085 0.026213162 -0.13637473 -0.004541532 -0.02331193 -0.08395239 -0.11365787 0.093296796
0.08395204 0.041344166 0.10309656 -0.066582344 -0.035510838 0.032354407 -0.03702114 -0.042657778
-0.12165523 0.017299367 -0.09195285 -0.0117051285 0.10484799 -0.055949125 -0.058072597 0.056796063
-0.061940342 -0.02576092 0.102229655 -0.067304134 -0.10619508 -0.08877188 -0.050954353 -0.073944286
-0.078751184 0.037028197 0.0070479526 -0.05733571 -0.10833 -0.04966743 -0.061087046 -0.05013287
-0.121633925 0.016612006 -0.10385436 -0.1106332 -0.11357009 0.04217171 -0.09035284 -0.06384285
0.08346835 0.043200724 0.053446244 -0.13669173 -0.106710844 -0.06413566 0.075502686 -0.021239107

model.backbone.layers.0.temporal.0.bias f4 [32]
00000000: 6193 c33d b39d 943d 8bc2 973d ef90 aebc
00000010: b209 ad3d 5b74 d33c b34a c03d df8b 3bbc
00000020: 8283 aa3c 0025 073e d199 dcbd 89cd bf3d
00000030: 3e24 88bd db87 81bd 2927 a8bd 6980 683c
00000040: 007e 99bd dc07 a5bd aa10 adbc d107 b83c
00000050: f4a1 cdbd 6301 93bd 62ce 89bc 079c 253d
00000060: c050 19bd 3743 853d 12d7 cfbd 3782 06be
00000070: 5eee 25bb 86cd 1fbd 0931 623d 4291 c8bd
0.09549595 0.07256641 0.07410153 -0.021309344 0.08449115 0.025812319 0.09389248 -0.011446922
0.020814661 0.13197708 -0.10771526 0.093653746 -0.06647538 -0.063247405 -0.08210594 0.014190772
-0.07494736 -0.0805814 -0.02112611 0.022464665 -0.10040656 -0.07177999 -0.016822044 0.040432002
-0.037430525 0.06506961 -0.10148443 -0.1313561 -0.002531908 -0.03901436 0.055222545 -0.09793331

model.backbone.layers.0.temporal.2.weight f4 [64, 32]
00000000: ded4 dfbc 723b 933d 0b19 34be 506d 243e
00000010: 91f5 67bd ea6c 1ebc db61 9dbd 81a1 c0bd
00000020: fdf3 b9bd c844 39be 35e2 a03d 1104 8f3c
00000030: 3d4d 1f3e 06dc be3d e105 373e ce12 2a3d
00000040: 4156 a93d 657c 593e ccb4 263e 5e77 07be
00000050: a86d 6ebc 92a8 3ebe 18d7 6fbc 4f59 13bd
00000060: 2455 373e 1da2 18bb c038 d13c 4923 17be
00000070: db8a 24be 5327 da3b e088 8ebd 8146 d2bd
00000080: c63f d73d 9739 efbd b0c0 d8bd 5dc8 1a3e
00000090: 13c1 aa3d 7406 d2bd 2f41 843d baf8 7a3d
000000a0: 73be 37be b647 913b 84a2 603d 1625 f6bc
000000b0: 9245 133e 12fb 34be 13fd df3d ee48 f2bd
000000c0: 4b7f 41be e474 d83d ea55 a9bd 9b19 bc3b
000000d0: c258 e33d 99b0 31be 85ce 30be ca63 9d3d
000000e0: 7018 303e bced 63bd 07df 133e 0b8f 84bc
000000f0: 9c94 c63c a002 0dbe d630 3e3e 64ad 743d
00000100: 0a49 163c 375a db3d 7315 33be 9036 543d
00000110: f45c 94bd f3dc a5bc 5e1c 893d c759 453d
00000120: 7002 8c3c eb57 29be 5ec9 c3bd bfa3 16bd
00000130: 1a2c 57bd 451b 47be 41ce 393e 96df 613b
00000140: 1ea5 1cbe 7ab8 923d f7b6 ac3d 7b31 c3bd
00000150: 9005 d73d 7dd0 0fbe 2f39 273d 7e5e 373e
00000160: 4df4 033e 933e 4a3d ad83 74bc 2dad f63b
00000170: c564 153d 5110 993c c455 d9bc f052 113b
00000180: 70c4 8bbd 8f63 f5bd 99ce 34be 7536 e4bd
00000190: b8e3 b2bd bc76 4e3e 4dbe b33d b68b 3bbe
000001a0: fdf7 d2bd 542d b43c 55be 2ebd f68d 37bd
000001b0: 8bb8 9bbd 7525 91bd d490 5f3d 8390 373c
000001c0: f8b6 c73d 6b07 0c3e 3e0c 173e 32c6 0fbc
000001d0: 6246 41bd e456 2b3c e4d5 03be 50cd de3d
000001e0: 5d0c 493c ac0d aabd e5b1 ffbd f9e5 9b3d
000001f0: 2044 a03d ae2a 153e d245 29bd fdc6 173d
00000200: a18f 93bb 142f 1ebe bf7b 03be cd42 d33d
00000210: 5016 c4bd 1b81 203e 3e35 ad3d a7c3 1c3d
00000220: 38b5 cf3d a67c 843d 5f40 8e3d 0990 8c3d
00000230: c5b5 bcbd baf9 15be 3f77 a2bc b780 b53d
00000240: bb9e be3d 4764 283e 2966 5dbd 8d12 04bd
00000250: f7d1 dabd 2b82 c33d b7df 06be 2552 4dbd
00000260: e66c 2c3e 5136 853c ccae 70bd ecfc 15be
00000270: acef 10be 7678 f63d ad69 1cbe 6aa0 0c3e
00000280: 0964 fb3d 8b4a 263c 57b8 07bd 83f5 1a3e
00000290: 4e78 b43d be7f 413e 9db2 1e3e ee2f 0dbe
000002a0: 374d c03d 9d23 893d 80c9 e6bd 70c5 a83d
000002b0: 0f4d dfbd d224 22be 9337 8b3c 7ab6 05bd
000002c0: f030 96bd 94d1 aebd 58f8 e23d 4d78 323e
000002d0: 010a c3bc b794 03be 1384 c1bc e0ed 0dbe
000002e0: 0a72 03be 16d3 bdbd 1337 013e 099c 08be
000002f0: ca90 3abd 7a17 e4bd 30bb 19be 710e 5fbd
00000300: bf77 d5bc b862 6bbd b243 e53d b3b3 b83d
00000310: d3ae e53d d6cc 273e 05eb 3f3d ef11 a33d
00000320: 5d4e ffbd aeb8 943d bfd5 af3d f7ce a0bd
00000330: b93b 9ebc bafc 24be a241 04be 03af 12bc
00000340: e928 2c3c 0183 493d a5bc 073d 02a5 0ebe
00000350: 7e09 9dbd 7d4c fa3d 108b 3ebe 81d3 513d
00000360: 7056 1f3e 33c7 ec3d 6933 993d e9ba 2fbe
00000370: 0f03 013c 4eb3 9bbd 74c7 1fbd a1fb f93d
00000380: 2285 8ebd be40 09be ebab 21be 2602 083e
00000390: 7eab da3c bc9d 533e 1dcb 833d 6d64 41be
000003a0: c421 ba3c 57cf 0f3e 7e07 f63d ea9f 103d
000003b0: 0042 18be 2e50 07be 6236 123e e07e 04be
000003c0: 39b5 d23c d2fa b63b df2c 933d 3c47 333c
000003d0: 6f41 eabd f29e aebd 02a6 083e c9a0 353d
000003e0: 04bd e43d ebf6 edbd bd56 1e3e 56b3 19bd
000003f0: 8ff7 a3bd 35b6 813c 279a 54bd e458 bdbd
-0.027323183 0.07189073 -0.17587678 0.16057324 -0.056630675 -0.009669522 -0.0768468 -0.094058044
-0.0907974 -0.18092644 0.078556456 0.017457994 0.15556808 0.0931931 0.17873336 0.04152184
0.08268405 0.21238859 0.16279906 -0.13229129 -0.014552511 -0.18618992 -0.014638685 -0.035973843
0.17903572 -0.0023289986 0.025539756 -0.14759554 -0.16068594 0.00665752 -0.069597006 -0.10267354
0.10510211 -0.11680906 -0.10583627 0.15115495 0.08337607 -0.10255137 0.06457745 0.06127236
-0.17943744 0.0044335974 0.054842487 -0.03004698 0.14382008 -0.176739 0.10936942 -0.118303165
-0.18896215 0.1056917 -0.0826834 0.005740357 0.111009136 -0.17352523 -0.17266281 0.07685049
0.17196822 -0.055646643 0.14440547 -0.01618149 0.024240784 -0.13770533 0.18573317 0.05973567
0.009172687 0.107105665 -0.17488651 0.051809847 -0.07244292 -0.020246958 0.06694864 0.04818132
0.017091006 -0.16537444 -0.09559892 -0.036777254 -0.052532293 -0.19443996 0.18145086 0.0034465543
-0.15297362 0.07164092 0.08433335 -0.09530922 0.10499108 -0.14044376 0.04082602 0.1790714
0.12886162 0.04937608 -0.014923972 0.0075279684 0.036473054 0.018684538 -0.026530154 0.0022174679
-0.06824577 -0.1198188 -0.17656936 -0.11143199 -0.0873484 0.20162481 0.08776531 -0.18315014
-0.10301206 0.02199427 -0.042661984 -0.04481312 -0.07603558 -0.070872225 0.05458148 0.011203888
0.097516954 0.13674705 0.14750764 -0.008775281 -0.047186263 0.010457728 -0.12874562 0.10879004
0.012271014 -0.08303389 -0.124851026 0.07612223 0.07825494 0.14567062 -0.04132635 0.037055004
-0.004503206 -0.15447646 -0.12840174 0.103154756 -0.09574568 0.1567425 0.08457421 0.038272526
0.101419866 0.06469087 0.069458716 0.0686341 -0.09214357 -0.14646044 -0.019832252 0.08862441
0.09307619 0.16444503 -0.054052506 -0.032244254 -0.10684579 0.09546312 -0.13171278 -0.050127167
0.16838416 0.016261252 -0.05876045 -0.14647263 -0.14153928 0.12034695 -0.15274687 0.13733068
0.122749396 0.010149608 -0.033134785 0.15132718 0.08812009 0.18896386 0.15497823 -0.13787815
0.093897276 0.06696246 -0.11268902 0.08240783 -0.1090337 -0.15834358 0.016994273 -0.032644726
-0.07333553 -0.085360676 0.11082524 0.17428704 -0.023808481 -0.12849699 -0.023622548 -0.13860273
-0.12836471 -0.09268777 0.12618665 -0.13340773 -0.045548238 -0.1113729 -0.15012813 -0.05445713
-0.026058076 -0.057467192 0.111945525 0.0901865 0.11214986 0.16386732 0.04685499 0.07962405
-0.124661185 0.07261787 0.08585691 -0.078519754 -0.019315587 -0.16112033 -0.12915662 -0.008952859
0.010507801 0.0491972 0.03313889 -0.13930133 -0.07667826 0.1222162 -0.18607736 0.051227096
0.15560317 0.11561432 0.07480509 -0.17161144 0.007874264 -0.07602559 -0.039008573 0.122061975
-0.06958987 -0.13403603 -0.15788238 0.1328207 0.026693102 0.2066564 0.06435225 -0.18885966
0.022721179 0.14043938 0.12013148 0.035308756 -0.14868927 -0.1321418 0.14278558 -0.12939024
0.02572118 0.0055840993 0.07186293 0.010942277 -0.11438262 -0.0852641 0.13344577 0.04434279
0.11168864 -0.116193615 0.15462776 -0.037524544 -0.080062024 0.015833953 -0.051904824 -0.0924547

model.backbone.layers.0.temporal.2.bias f4 [64]
00000000: a35a 30bd d9ef b8bd b346 113e e347 ba3b
00000010: a7fb 013e 1900 0e3e a646 aabd b92e 35be
00000020: 424e 1c3e 7ed1 eabd 44a9 053e 4b3f 03be
00000030: b5c2 9d3c 2d07 843d f3cc 85bd c5af 213e
00000040: 41be 12be a2c1 81bd a998 2dbc fbd1 003e
00000050: 1242 ba3d 9e0a 9b3d 0061 783d 46cb 003e
00000060: 987c 7bbd 8f3f 66bd a161 77bd fda5 293d
00000070: 75a6 7bbd 57f5 783d e450 0e3d a785 013d
00000080: b84c 023e 2e09 973d bdb0 943d 4cf1 87bd
00000090: 3eda 2fbe 5e02 3b3d a82f 923d ddab 133e
000000a0: 93cb df3c de76 b4bc 0233 03be f978 37be
000000b0: b5ff 0f3d b8eb 273e d7af 4ebd 141a 93bd
000000c0: 5f23 923d c9ac cbbd 8bc6 3f3d a573 0abe
000000d0: a8f7 1fbe 08d9 d8bd 3739 24bb fd97 3c3d
000000e0: bc49 b53d 3f9b d0bd fdbf 42bd 1356 323d
000000f0: d005 dfbc f135 aa3c dc15 143e c0d3 23bd
-0.043055188 -0.09030122 0.14187126 0.005684839 0.12693654 0.13867225 -0.08314256 -0.17693605
0.15264228 -0.11465739 0.13052851 -0.12817113 0.019257883 0.06446681 -0.065332316 0.15789707
-0.14330389 -0.06335761 -0.010595479 0.12580101 0.09094633 0.075703844 0.06063938 0.12577543
-0.06139812 -0.056212958 -0.06039584 0.041418064 -0.061438043 0.06078085 0.034745112 0.0316216
0.12724578 0.07374798 0.07260273 -0.066378206 -0.17173097 0.045656554 0.07137996 0.1442103
0.027318751 -0.022029337 -0.12812427 -0.17917241 0.03515597 0.16398513 -0.050460663 -0.071827084
0.07135653 -0.099450655 0.046820205 -0.13520677 -0.15621817 -0.105882704 -0.0025058517 0.046043385
0.08851954 -0.10185861 -0.047546376 0.043539118 -0.027224451 0.020777674 0.14461464 -0.039996862

model.backbone.layers.0.channel.0.weight f4 [32, 74]
00000000: 1954 6c3d 936c ac3d fe67 7ebc bc2f b6bd
00000010: e8f6 92bd 523f e0bd 7723 2dbd 28a3 8f3c
00000020: 0215 793d f431 bb3c b81c db3d 4d22 05bd
00000030: e3df 103d bf61 24bd 8ecc 333d 892d e63d
00000040: bccf 763d be6a 0abc 7bdb 70bd 82ce a8bd
00000050: 2b05 c5bd 5b43 efbd 0e78 853d 4509 8fbd
00000060: a667 86bb 1b87 adbd f914 8dbc 4a7e a63d
00000070: 37a1 153d 50c7 ccbb 435d 333d 7cc4 d13d
00000080: 1d94 db3d 890c 95bd 3155 47bc d877 e4bd
00000090: 6571 79bd ebc3 d23d 70b0 e1bd d001 92bd
000000a0: 6fd7 8e3d 5126 073e 6949 04be 5b6d 65bd
000000b0: c1a0 71bd 8b0a 923d d5ba b13d a5b9 b43d
000000c0: e77e bc3d 118e 3ebd 82b6 8c3d 1ae7 293c
000000d0: b585 c03c 186d 8fbc 0529 823d 92ae 943d
000000e0: 6c2f eabc 5d8f ae3d 20f2 3dbd 6204 483d
000000f0: 80c7 f33d 4c24 413d 24b9 d7bc a378 04bd
00000100: e5cb 293d 350d 94bc 0d87 26bc 002d c13d
00000110: b173 5e3d 6306 aabd 1cd1 e2bd 923f 043e
00000120: dce1 a63b 1f88 7cbd ca93 64bd 8f94 0f3e
00000130: 3648 2d3d 6fd6 99bd 940d 8dbd 0846 853d
00000140: ffaa 993d cd73 053c 2095 9dbd 611f 5a3d
00000150: b5a2 cbbd e76e 2b3d 7953 cbbd 274f febd
00000160: b3e5 01be 953a b93d cd69 ba3d 2943 afbd
00000170: 41e0 cf3d f741 b0bd 9d16 c1bd 2908 9c3d
00000180: 37b7 a23d be70 a53d 6193 4bb9 b871 ba3d
00000190: 6552 ebbd c66f 8a3d 6035 52bd 268b 973c
000001a0: d2ae c03d 916d d4bd cd58 133d fa78 36bd
000001b0: b910 b73d c62b 313c 0dbf 2f3d 8a8b c63d
000001c0: 50f9 e1bc 0390 c3bd 9521 c03d 36d9 a0bd
000001d0: da05 253d 7025 543d 61a8 d83a 6493 d63d
000001e0: d35c 773d a9b3 22bd 0c26 7a3c 901e bc3c
000001f0: d1a7 023e 0107 873d 6b08 bdbd 73ff 19bc
00000200: 89a0 3d3d ae32 8c3d 89d6 5a3d 9519 823d
00000210: 250e daba 08bc 4cbc 8a96 cebd 3402 e03d
00000220: b786 c43d a014 adbd a9f6 e9bd 3ba5 d53d
00000230: 2048 b7bd 3e5c 5d3d ef4d 03be 2c4d 3bbd
00000240: 1547 12bd b588 c13d 309c 10bd 0732 f63d
00000250: dd08 ec3c a11c e33d 6c63 b43d d023 a83d
00000260: 9880 c73d d68b a7bc 85ed 1bbd 4a9f fb3c
00000270: d971 c03d ce93 4abd 4a9d b9bd 975c 9bbd
00000280: 3683 8ebd 4d95 813c aab1 a6b8 aa3b cbbc
00000290: e8fa 5bbd f718 fe3c 05bb 8dbd 7fb8 eb3d
000002a0: b771 c6bc 5c59 a93c d516 0e3d bfc4 85bd
000002b0: 9392 c03d b95a 2cbc 8e04 b83c ac0a dfbd
000002c0: 0bf9 0d3c 6711 cb3c 8378 a33c 172f 1abc
000002d0: 98e9 d43d 511c d73d cc09 923d fdb5 bebc
000002e0: 13e1 a13c c5ec a1bd 5d1c c0bd ce50 873c
000002f0: 4444 78bb a9e5 8bbd 5be4 d0bd 73d6 3f3d
00000300: 47f7 f93d 2ddf aebd a637 a63d 1f57 c1bd
00000310: 8cda d83d 90f8 633d be5f 2dbd 7aa9 ee3d
00000320: 9e6a 6cbd 6ae3 63bd d063 de3d 2184 0bbd
00000330: 7b2e 35bd 73b0 8d3c fe45 843b 33b7 a13d
00000340: def9 a13d 8938 3c3d 7f84 f53c 3483 a63b
00000350: c738 9b3b b2a1 033c e267 57bb cc12 9c3d
00000360: 0778 923d 1a00 87bc e3bf 2d3d 4816 513c
00000370: 4e1c 683d 718f fd3d 38a7 5fbd 82e5 b73c
00000380: 0b34 d43b a6b7 29be 73c9 cbbd 53e1 67bd
00000390: ca8b 9c3d f1f4 95bd c25e 143d 5af2 3c3d
000003a0: 7710 76bd 762c 953d 4ed6 8ab9 990f a7bd
000003b0: c687 a93c 77df afbd bfc4 003e 4302 ec3c
000003c0: 7d56 843c 5630 e83d 50f1 853d 023c b63d
000003d0: d209 c23c b980 d8bd 4bb6 083e 9da9 783d
000003e0: 94f5 b5bc 2228 8ebd d7c4 073e d40e 693b
000003f0: 25f7 6c3d 76a7 103d d8f3 043e 87fb 47bd
0.05769739 0.084191464 -0.015527723 -0.08895823 -0.07176 -0.109495774 -0.04227015 0.017533854
0.06081105 0.022850968 0.10698837 -0.032503415 0.035369765 -0.04013228 0.04389625 0.11239154
0.060256705 -0.008448301 -0.058803063 -0.08242513 -0.09620126 -0.11682769 0.06517039 -0.0698419
-0.0041017113 -0.08473035 -0.017221915 0.081295565 0.0365307 -0.006249346 0.043790113 0.102425545
0.1072161 -0.072777815 -0.012166307 -0.11155671 -0.060899157 0.10291275 -0.11019981 -0.07129252
0.069746844 0.1319821 -0.12918629 -0.056012493 -0.058991197 0.07130917 0.086782135 0.088244714
0.09203892 -0.046522204 0.06870748 0.01037004 0.023501256 -0.017508075 0.0635548 0.07259859
-0.028587066 0.08523438 -0.046373487 0.048832305 0.11903286 0.047153756 -0.0263334 -0.03234161
0.041454215 -0.018072704 -0.010164035 0.09432411 0.05430955 -0.083019994 -0.11075041 0.12914875
0.0050928425 -0.061653253 -0.055805005 0.14021514 0.042305194 -0.07511603 -0.068873554 0.06507498
0.07503318 0.008145285 -0.07694459 0.05325258 -0.09943143 0.04185381 -0.099280305 -0.12417441
-0.1268528 0.09044377 0.09102211 -0.08557732 0.10150195 -0.08606332 -0.09428141 0.07618744
0.07945102 0.080781445 -0.00019414492 0.091037214 -0.11490325 0.067596 -0.051320434 0.018498968
0.09408344 -0.10372461 0.03597336 -0.044548966 0.089387365 0.010813659 0.04290681 0.09694584
-0.027584702 -0.095489524 0.09381405 -0.0785393 0.040288784 0.051793516 0.0016529673 0.10477331
0.06039126 -0.03972212 0.01526786 0.022963792 0.1275933 0.06593133 -0.09230121 -0.009399283
0.046295676 0.06845604 0.053427253 0.06352536 -0.0016636295 -0.012496002 -0.10087307 0.1093792
0.09596007 -0.084511995 -0.11424 0.10431906 -0.089493036 0.054043047 -0.12822698 -0.045727894
-0.03571232 0.09449903 -0.035305202 0.12021261 0.02881282 0.11089445 0.08808026 0.08209956
0.09741324 -0.020452421 -0.038068313 0.030715603 0.09396715 -0.049457364 -0.09063204 -0.075860195
-0.0695862 0.015818262 -7.948589e-05 -0.024808723 -0.05370608 0.031017764 -0.06920437 0.11509799
-0.024224145 0.020672493 0.034689743 -0.06531667 0.09402957 -0.010519677 0.02246311 -0.108907074
0.0086653335 0.024788572 0.019954925 -0.009410641 0.10396117 0.10503448 0.07130775 -0.023280138
0.019760644 -0.07906488 -0.0938041 0.016518023 -0.0037882486 -0.068309136 -0.10199805 0.046835374
0.122053675 -0.08538661 0.08116083 -0.09440445 0.105885595 0.05565697 -0.042327635 0.11653419
-0.057718866 -0.0556368 0.108588815 -0.034061555 -0.04423378 0.017296052 0.004036664 0.078962706
0.079089865 0.045952354 0.029970406 0.0050815586 0.004736993 0.008034157 -0.0032868315 0.07620773
0.071518 -0.01647954 0.042419326 0.01276166 0.05666762 0.12380875 -0.05460283 0.022448305
0.0064759306 -0.16573963 -0.09950533 -0.05661137 0.0764385 -0.073221095 0.03622318 0.046129562
-0.060074296 0.07283871 -0.0002648108 -0.08157272 0.020694625 -0.085875444 0.12575053 0.028809672
0.016154522 0.11337344 0.06540167 0.08898164 0.023686323 -0.10571427 0.13350789 0.06070863
-0.022211827 -0.069412485 0.13258682 0.0035561817 0.057852883 0.035315953 0.12983644 -0.04882386

model.backbone.layers.0.channel.0.bias f4 [32]
00000000: cde4 b0bc 0b39 9a3d 87a2 a13d b7d2 fabd
00000010: efc3 13be fc55 66bd 4bf6 84bc 5876 653d
00000020: fee8 663d dbf1 bc3d 0eaf 91bd 96cc 4d3d
00000030: a21a f63c ebd6 7dbd 986d b0bd be36 d13c
00000040: d20e 003e 90e0 48bd e218 d33b 279e c1bd
00000050: 0dfb 9e3d e0fd ba3c 5973 3bbd ce80 0a3d
00000060: 7c07 893d 0045 c13d c83a f53c 7909 113c
00000070: f978 85bc 5d8c c03b 910e afbd a7b7 79bd
-0.021593476 0.07530411 0.07892328 -0.12247222 -0.14430211 -0.056234345 -0.016230723 0.056021065
0.056374542 0.09225818 -0.07113467 0.050243936 0.030041996 -0.06197254 -0.08614653 0.025538798
0.12505654 -0.049042284 0.0064421752 -0.09453993 0.07762728 0.022826135 -0.0457643 0.033814244
0.06690881 0.09436989 0.029935256 0.008852356 -0.016293036 0.0058761076 -0.085477 -0.06096616

model.backbone.layers.0.channel.2.weight f4 [74, 32]
00000000: cb15 f13d 75d1 7bbd 5bc7 003e 0d0f 71bd
00000010: 6554 173e 0822 cabd b411 133e 3e35 d0bd
00000020: 64e7 1c3e 95aa a33d c249 513d 7755 8f3d
00000030: ab9f e53d 5893 c4bd 2b17 82bd a1e1 7c3d
00000040: 6daa 13be 861b ec3c a6ab a43d 4d97 17be
00000050: 2842 083c 4f76 b23c b243 f4bd aaeb e63d
00000060: 9d2e 16bc be8d 3ebe bf66 cbbd 6d5a 703d
00000070: 8b34 c23d cf55 43bd 09a5 2a3e 55c4 48bd
00000080: e666 04be 594e 56bd f506 f1bd 446e 033d
00000090: ad4a d33d 9f8e 18be 57b6 febd 9ea1 9e3d
000000a0: 1774 c83c 5ed5 123e 7d20 173e f0c7 cbbd
000000b0: 09a3 e43d a993 4cbe b952 803d dcb9 b4bd
000000c0: 7162 88bc c58f 5e3e 3b17 ff3c 66a4 95bd
000000d0: 07af d43d a958 3ebc a654 383e 3c19 11be
000000e0: 3b80 24bd f5d1 26be 5ba0 1ebe 5000 cabc
000000f0: 96d2 f5bd e7c9 f7bd 9af6 c6bc 515d 35bd
00000100: 4143 34be 8a82 043d 3f41 0fbe d760 cb3d
00000110: 4a9f c73d 06b1 193e 1b70 cf3c b059 953b
00000120: f3ea 84bd d69e 7abd 88d4 033e dbf1 0d3d
00000130: aa73 c73d f434 93bc 8fd3 b9bd 5bc3 323d
00000140: b9ad 3e3e eca1 d3bd b4d0 fa3d 6b76 8c3d
00000150: 3f9a f93c 8bbb cabd b7a8 36bd 97d1 b1bc
00000160: ea35 323c 7424 71bc 74d7 1ebe e4e2 bcbd
00000170: 124b 8cbd dc70 f33d 3a41 453c 3c3d c1bd
00000180: 7a77 e3bd 1809 a6bd efce 463e 4693 093c
00000190: 5420 fa3d c4f4 0fbe 4ed0 3f3e eb57 e43d
000001a0: f8af 253d a65b bfbd b952 583d 644b a4bd
000001b0: 2c80 7bbd 718c 2f3d 5ee1 1bbe 4847 873d
000001c0: b211 0cbd c172 2d3d eed4 0b3d 98ac 6e3d
000001d0: 7191 97bd 69bf c03d 4f8a 04be 01e1 6b3d
000001e0: e4e6 1abe a25f 1f3e d1cd 36bd 8e03 b83d
000001f0: 5457 463d 6c85 273d cf1c 33bd cbe0 fdbd
00000200: 5a54 f53d cb21 e13d c150 febc 6184 a0bc
00000210: c1db 0fbd 1191 51bd dd57 f93d 707c 04be
00000220: 4daf cbbd 4d98 31bd 2d7f fcbd a76f 96bd
00000230: 5bbd 57bd 5fe1 a8bc f162 d43d c4dd 043e
00000240: be96 ff3d bab1 423e 29a8 553d dc04 973c
00000250: f25f 003d 8eff e6bd 622a 5e3d ae48 85bd
00000260: 086c 84bd 07c5 043e 0855 093d c04a 093e
00000270: 5af3 bc3d 9672 bfbd 319a 913d 347d 583d
00000280: b1d9 603d 9c4a e73d f139 86bc ec0c 103e
00000290: 3708 fe3b 3d64 0dbd c169 d13d d53a 153e
000002a0: 2438 bbbd e33c ef3d 1b08 d4bc 210c 18bd
000002b0: df0c 01be def9 88bd d9d2 203d 7a99 4bbd
000002c0: d2c0 16bc cb79 cc3c 5e17 6cbd 8c67 a63d
000002d0: e1ea 163e c293 0c3e b5f1 243e 351f cabc
000002e0: 8824 b63c d3fe 37bd ad7e f0bd f9d3 dabb
000002f0: 286b 173e 577e 3cbe 9f46 c8bd 6a3d c43d
00000300: 4607 c63d e079 2bbd cae1 2bbd 9c4c 66bd
00000310: 3e0f d33d 5a4d f93d 22df b2bd 22ed 553b
00000320: b97b 12be ce8a 0dbe ad9a 16bd d015 45bd
00000330: 4a67 acbd bb87 ea3d e364 993d 4eb3 cf3c
00000340: a339 97bd 4f6b 293d 7f21 183e db85 babc
00000350: 16ed 093d 0b22 893d 6020 f53d 15a5 a73d
00000360: 8896 c0bd 499b 603d 84fb bbbc c248 253d
00000370: 6195 32be c5d8 293e 4d68 ba3d e022 863d
00000380: d6bf 9c3d f197 60bc 98fa e8bd 070c 9ebd
00000390: 4ab8 41be 04a1 1e3e aea1 9b3d f494 ea3c
000003a0: 5602 c1bd 2c88 03be ee0b ae3d b5b6 02be
000003b0: f0b6 2c3d 1cd1 e93d c04d 20be 211c 123e
000003c0: e20e 22be fc6a 573a 81c5 073e 1174 163e
000003d0: d729 353e 96b4 273e 05d9 19be 5af0 243c
000003e0: 61ae 2abe 8e81 b33d c064 963c 7397 213e
000003f0: c4fd 023d 1320 083e 06f3 1d3c 4616 ccbd
0.11771735 -0.06147905 0.12576048 -0.058852244 0.14778288 -0.09869772 0.14362222 -0.10166405
0.15322644 0.0799152 0.05109573 0.06998723 0.11212095 -0.09598416 -0.06352075 0.061738614
-0.14420481 0.028821718 0.08040552 -0.1480381 0.008316554 0.02178493 -0.11926974 0.11275418
-0.009166387 -0.18608758 -0.09931707 0.058679987 0.09482678 -0.047689255 0.16664518 -0.04901536
-0.12929878 -0.052320812 -0.11768905 0.03208758 0.10316978 -0.14898156 -0.12437122 0.0774567
0.024469418 0.14339206 0.14758487 -0.099502444 0.11163909 -0.19978203 0.06265778 -0.08824512
-0.016648503 0.21734531 0.031139007 -0.07306747 0.10384946 -0.011617818 0.18001041 -0.14169782
-0.040161353 -0.1629103 -0.15490858 -0.024658352 -0.12003057 -0.12099057 -0.02428751 -0.044278447
-0.1760378 0.032351054 -0.13989733 0.0993058 0.09747179 0.15008935 0.02532201 0.0045578107
-0.064901255 -0.061186634 0.12874043 0.03465448 0.09738858 -0.017969586 -0.09073555 0.043643337
0.18620957 -0.103336185 0.12246838 0.06858524 0.030469058 -0.09899052 -0.044594493 -0.021706386
0.010877112 -0.014718164 -0.15511876 -0.092229635 -0.06850256 0.118867606 0.012039477 -0.09435508
-0.11106773 -0.08107203 0.19414876 0.008396929 0.12213197 -0.14058214 0.18731806 0.111495815
0.04045102 -0.093436524 0.052813265 -0.08022192 -0.06140153 0.042858545 -0.1522269 0.06605393
-0.034196563 0.042345766 0.034138612 0.058270067 -0.074007876 0.094115086 -0.12943386 0.057587627
-0.1512714 0.15563825 -0.044629876 0.08985053 0.048423126 0.040898725 -0.043728646 -0.123963915
0.119789794 0.109927736 -0.031044366 -0.019594373 -0.035121683 -0.051163737 0.12174962 -0.12938094
-0.09945545 -0.043358136 -0.12328944 -0.07345515 -0.052670818 -0.020615278 0.10370434 0.12975222
0.12479924 0.1901311 0.052162323 0.018434934 0.0313415 -0.11279212 0.05423964 -0.06508003
-0.06465918 0.12965785 0.033528358 0.13407421 0.09226103 -0.093480274 0.07109488 0.052853778
0.054895107 0.112935275 -0.01638505 0.1406743 0.007752444 -0.034519423 0.10225249 0.14573224
-0.09141567 0.11681535 -0.025882771 -0.037120942 -0.12602566 -0.066882834 0.03926358 -0.049706914
-0.009201245 0.02496042 -0.057639472 0.08125219 0.14738037 0.1372824 0.16107829 -0.024673084
0.022234216 -0.044920754 -0.117429115 -0.006678101 0.1478697 -0.1840757 -0.09779095 0.09582026
0.09669356 -0.041864276 -0.041963376 -0.056225404 0.103056416 0.12172957 -0.087339655 0.0032642563
-0.14305009 -0.13822481 -0.036768604 -0.048116505 -0.08418138 0.1145167 0.07489946 0.025354054
-0.0738404 0.041362103 0.14856528 -0.022768905 0.03367337 0.06695946 0.11969066 0.08185784
-0.094037116 0.05483559 -0.02294708 0.04035259 -0.17439796 0.16586597 0.09101925 0.06549621
0.07653777 -0.013708101 -0.11375922 -0.07717138 -0.18917957 0.1549111 0.07599197 0.02863548
-0.09424274 -0.12844914 0.08498369 -0.1276501 0.04216665 0.114168376 -0.1565466 0.14268543
-0.1582599 0.0008217541 0.13258936 0.14692713 0.17691742 0.16377482 -0.15024193 0.01006707
-0.16668083 0.08764945 0.018358588 0.1578043 0.03198029 0.13293485 0.009640461 -0.09965186

model.backbone.layers.0.channel.2.bias f4 [74]
00000000: fc70 dcbd a309 c33d e2ae 103e 705f cebd
00000010: c601 38be a42d eb3d 0059 81bd a0d5 39be
00000020: c445 793c f04a 5a3b 86e3 0d3e c2d9 633d
00000030: 0b04 d1bd 7197 29bc 6773 d1bd 17c0 dd3d
00000040: 6b0c 8a3d 2ae7 a23d f880 d6bd 366b cabd
00000050: 86c0 04be 3231 1fbe 9c6b 36be 726d 2abe
00000060: d77c 0d3e 2e2d 29bd d7ab 97bc c0d7 b73c
00000070: 166a 2a3d 4323 753d 0bd1 13be e0ec 2d3e
00000080: e614 a43c 23c4 91bd f895 c13d d49b 21be
00000090: abe2 8abd f60e e13d b196 403d 29bf 3ebd
000000a0: 42e0 65bb c0a5 2fbc e718 593d 8dae 2e3d
000000b0: 1d3b 803d a9c0 9d3d 9141 c8bd 774c 18be
000000c0: 7cc8 92bc bab3 81bd 0644 0fbe 9891 263e
000000d0: 37ac 2d3e 39b0 213e ba76 aabd 3947 eabb
000000e0: 4728 1ebe e76e a4bd a098 113e e34c 103d
000000f0: 4fce 933d 77c6 42be 8a1e a83d ec7d ba3d
00000100: 8d6e 98bd fde5 d73d 2c47 783d 7e7a d4bd
00000110: 601a d7bd f93e 28bd 21b7 41be 667a 85bd
00000120: f98a 7a3d c735 8cbd
-0.107637376 0.095233224 0.14129212 -0.10076797 -0.17969427 0.11483315 -0.063158035 -0.18147898
0.015214387 0.0033308826 0.13856325 0.055627592 -0.10205849 -0.010351048 -0.102270894 0.10827654
0.0674065 0.07954247 -0.104738176 -0.0988373 -0.12964067 -0.1554611 -0.17814487 -0.16643313
0.13817154 -0.041302852 -0.018514557 0.022441745 0.041605078 0.05984808 -0.14435212 0.16984892
0.020029496 -0.07117488 0.094524324 -0.157821 -0.06781515 0.10989182 0.04701871 -0.046569023
-0.0035076295 -0.01072067 0.053002264 0.042646933 0.06261275 0.07702763 -0.09778131 -0.14872919
-0.017917864 -0.06333108 -0.13990793 0.16266477 0.16960226 0.1578988 -0.083234265 -0.0071496037
-0.15445052 -0.080289654 0.14218378 0.035229575 0.072170846 -0.19021021 0.0820895 0.09106049
-0.07442961 0.10541914 0.06061475 -0.10374926 -0.105030775 -0.04107568 -0.18917514 -0.06517486
0.06116769 -0.06846195

model.backbone.layers.1.temporal.0.weight f4 [32, 64]
00000000: deac f13c 8468 0ebd 0174 ba3d 6498 f63d
00000010: 05ff e33d dee4 acbd 0588 4cbc 5208 ab3d
00000020: 7a31 c53d 2b28 97bb 8e5e bc3d d1cb b13c
00000030: 4545 313d 5621 d93d d750 e53d 3a94 7dbd
00000040: 4cd8 4ebd 04c8 643d 57c6 b93d 3f9b 993b
00000050: 8a00 213e 4dd5 9f3c a0c7 f1ba e674 c93c
00000060: 3040 89bd 0945 9d3d 9308 99bd 5c7a 1f3e
00000070: 6140 64bd 155c d33d 60d1 56bd 12e8 6c3c
00000080: bdd6 39bd 485f cf3d cb75 e93d 1b10 c6bd
00000090: 2c01 c4bd f7f9 1b3d 1639 033d 95c2 dd3c
000000a0: 9d7f 803d d3e1 923b c563 113e 18ca ea3c
000000b0: 9026 1cbd 2009 a03d e64e 82bd 21a8 b2bc
000000c0: 4d8f 923d 3cea 1b3b 8633 9ebd 70c5 af3d
000000d0: e58b 873d df7b 753d 7465 a23d 3f86 80bd
000000e0: 3639 cdbc d890 0bbd de71 0d3e f366 07bd
000000f0: 52e9 8ebd 5c86 43bd 31d5 7dbc f86b 03bc
00000100: 8298 903d 27b3 8b3d 9848 26bc bf25 c13d
00000110: 753d 323d 9285 403d 6b9b 02be e87b fdbb
00000120: 8e92 4cbd fe6b 0cbe 795d abbd 384b 9e3d
00000130: 0280 d53c 392d bf3d be90 8b3d 3f43 b4bc
00000140: 39be ca3d 63e0 fe3b 0d9c 25bd 8c56 96bd
00000150: 8a5c 7c3d a51a 0f3d 1d16 913d 570b 28bd
00000160: 5436 09be 89cd bd3b b08b 00bc 914e ccbd
00000170: 6e1e 453c 63e4 0abd 76aa b13d 73aa 79bc
00000180: 766f acbd ee33 aa3d a45d 5ebc 04c5 20bd
00000190: e768 283d 5a5f cc3d 7bcf 133d 7ff7 95bc
000001a0: 9b70 ac3d 1664 95bd 78b9 c73d 0980 b5bd
000001b0: d616 87bc 8573 c03d 1514 ef3c f258 37bd
000001c0: 8203 663d a489 6f3d 1806 05be 35f1 f2bc
000001d0: 9e7a dbbd 320b 1dbd 66b1 0abd 2875 8dbd
000001e0: 91b3 85bd 7fdc 413d 0201 c7bc 1f70 16be
000001f0: c372 3fbb 1ed4 0dbe b844 dabd 961e 683d
00000200: 4e7b f33d 1884 9dbc 5f32 4fbd 3edf a93d
00000210: 7478 c1bd 69f4 ce3d 23db db3d 2620 973d
00000220: 8503 803d a8a5 483d c07c 8dbd b7ab d9bc
00000230: 36c4 d43d 253d 023e 0baf c73c a330 623d
00000240: 99b2 babd d255 e13d 832c 4ebd b75f 2cbd
00000250: 84d9 143e 061f 5bbc 2f5f 3bbd 3251 203d
00000260: 3f4f f93d 3298 093e 4ebb 013d 8c3d d93d
00000270: ec63 dd3d f1f8 e5ba e458 9dbd 3e2e d13c
00000280: 8517 a5bc 7830 863d b76f 8fbd 9fcd 79bd
00000290: 5737 97bd 146e 91bd d0db ea3d bf47 d3bd
000002a0: 75b7 7a3c 1703 67bd fe5a 10bd a80d 91bc
000002b0: 7b65 a33d 6985 da3d 06ea bebb fa9c ca3c
000002c0: 3bb6 9d3c b28f 023e 043f 9b3d d97d aebb
000002d0: 973a c43d 5aef b0bd 4435 8a3d 82bb e93d
000002e0: cd9a 42bd d539 823d 03ed 9d3d b856 acbd
000002f0: 1295 683d 09d5 f03d 9aa9 263d dd87 fb3b
00000300: 72f2 e5bc d0fc 73bd 8e3a 563d b9f5 c5bd
00000310: b292 acbd 0f22 c3bc 7465 c7bd a985 0c3e
00000320: 150d 81bc d416 3bbd 80c9 633d 7338 993d
00000330: 75aa ee3d 2bf4 ebbc b432 22ba 836e 94bd
00000340: 2f83 b5bd b944 09bd 2908 0d3d 29a4 23bd
00000350: 630c 65bc 60b0 8b3d 1fdd 3c3d 718e c83d
00000360: 9930 9e3d ef2d b13d 6998 2dbd 9feb b53d
00000370: eea5 bcbd 2435 783d 89ec 6dbd d81a 633d
00000380: b4c0 b5bd 2cb4 34b9 6b65 c53d 6d13 2dbd
00000390: be20 c83d aeeb 013b 828c 0d3e 1458 0e3e
000003a0: 6215 59bd b0f8 0abc 49f1 bdbb f4fd dfbc
000003b0: fb54 7d3d 80ee b8bd dfe3 56bd a184 de3a
000003c0: 5ca8 b8bd 8f9e cbbd cc96 933d 6000 aebd
000003d0: 9ece d23d 3c11 57bd 9fc9 293c 1366 c13d
000003e0: b44c d4bd e90a d0bd 6aee ce3c d0fb 00bd
000003f0: 0a5a a33d e5e5 813d 3ad5 123d 2ecf 8c3d
0.029501375 -0.034767643 0.09104157 0.12040785 0.111326255 -0.084420905 -0.012483601 0.08351196
0.096285775 -0.0046129427 0.091977224 0.021703633 0.04327895 0.106020615 0.111970596 -0.061908938
-0.050499246 0.055854812 0.090710334 0.004687696 0.15722862 0.01951089 -0.0018446334 0.024591874
-0.06701696 0.07679183 -0.074723385 0.1557402 -0.05572546 0.10320298 -0.05244577 0.014459627
-0.045370806 0.10125595 0.1139942 -0.096710406 -0.09570536 0.038080182 0.032036863 0.027070323
0.0627434 0.0044824868 0.14198215 0.028660819 -0.038122714 0.078142405 -0.06362705 -0.021808686
0.07156239 0.0023790738 -0.07724671 0.0858258 0.0661848 0.059932586 0.07929507 -0.062756054
-0.025051694 -0.03407368 0.13812968 -0.033057164 -0.06978096 -0.047735557 -0.015492723 -0.008021347
0.070603386 0.0682128 -0.010149144 0.094310276 0.04351564 0.047002383 -0.127546 -0.007735718
-0.049944453 -0.13713071 -0.08367438 0.077291906 0.026062015 0.093347974 0.06814717 -0.022004722
0.09899563 0.007778214 -0.040432025 -0.07340726 0.06161169 0.03493752 0.07084296 -0.04102644
-0.13399631 0.005792324 -0.007845804 -0.09975923 0.012031181 -0.033909213 0.08675091 -0.015238392
-0.08419697 0.08310686 -0.01357213 -0.03925039 0.041115668 0.09979124 0.03608654 -0.018306492
0.08419915 -0.072944805 0.09752172 -0.088623114 -0.016490381 0.093970336 0.02918438 -0.04476256
0.05615569 0.058480874 -0.12990606 -0.029656032 -0.10716747 -0.038340755 -0.033860587 -0.069071114
-0.0652839 0.047329422 -0.024292473 -0.14691208 -0.002921269 -0.13850448 -0.10657638 0.056669794
0.11888753 -0.019228026 -0.050585147 0.08294533 -0.09446803 0.10105211 0.107351564 0.07379179
0.06250671 0.048986107 -0.0690856 -0.026571138 0.10388987 0.12718637 0.02437546 0.055222165
-0.09116096 0.11002697 -0.05033542 -0.04208347 0.145361 -0.013374096 -0.04574507 0.039139934
0.12173318 0.13436964 0.03167277 0.10607442 0.10810074 -0.0017545504 -0.0768297 0.025534745
-0.020152817 0.065522134 -0.0700373 -0.06098711 -0.07383602 -0.07101074 0.11467707 -0.10316419
0.015302529 -0.05639943 -0.035243027 -0.017706707 0.0797834 0.10669977 -0.0058262376 0.024733055
0.019251933 0.12750128 0.07580379 -0.005325061 0.095814876 -0.08639403 0.06748441 0.114127174
-0.04751091 0.06358687 0.07711222 -0.08414978 0.05678279 0.11759383 0.04068909 0.0076761083
-0.028069708 -0.059567273 0.052301936 -0.096660085 -0.084264174 -0.023819951 -0.097361475 0.13722862
-0.015753308 -0.045676067 0.055612087 0.0748147 0.11653606 -0.028802952 -0.0006187365 -0.07247641
-0.08862912 -0.033512805 0.03443161 -0.039951477 -0.013980004 0.0682075 0.046109315 0.097927935
0.07724113 0.08651339 -0.042381678 0.08882832 -0.09211336 0.060597554 -0.058086906 0.055445522
-0.08874646 -0.00017233257 0.096384846 -0.042254854 0.0977187 0.0019824314 0.1382313 0.13900787
-0.052998908 -0.008482143 -0.0057965857 -0.027342774 0.06184862 -0.09029865 -0.05246341 0.0016976782
-0.09016487 -0.09942352 0.072064966 -0.08496165 0.10293315 -0.05250667 0.010363012 0.09443297
-0.103661925 -0.10158331 0.025260169 -0.031490147 0.07976158 0.06342677 0.03584788 0.06875454

model.backbone.layers.1.temporal.0.bias f4 [32]
00000000: 4483 c4bc 9ebe 973d e974 bc3d 71dd 273d
00000010: 57dd 173e b43a b1bd 8824 92bd 63f2 e83d
00000020: 13c5 723d 227f 573d 87aa 293d 571c 333d
00000030: accd b03b d48b 28bd aaad 823d 2179 eebd
00000040: 1724 123e fe33 9abd 5f30 1cbd eb93 f13d
00000050: 70a4 c0bd 1410 bdbd c63d 1fbd 24a1 d2bd
00000060: 420d 3fbc 83d5 b93b 628b 1ebc 9878 24bc
00000070: 72f4 d4bd 8e12 2bbd 3447 ab3c 5fa8 17be
-0.023988374 0.07409404 0.09201986 0.040982667 0.14830528 -0.08653775 -0.07135874 0.113743566
0.059269976 0.052611478 0.041422393 0.0437282 0.0053956117 -0.041148975 0.0638078 -0.11644197
0.1427158 -0.07529448 -0.038132068 0.11795791 -0.09406364 -0.09231582 -0.03887727 -0.102846414
-0.011660876 0.0056712045 -0.009676786 -0.010038517 -0.10398187 -0.041765742 0.020907976 -0.14810322
