experiments/AdversarialDomainAdaptation/saved_models/tsmixer_da_finetuned_1.pt (torch, 731002 bytes, 30 tensors)

model.backbone.static_proj.weight f4 [64, 10]
000000 d0 c6 83 3b 0d 7e 66 be 63 bf 6e 3e 47 61 83 bd
       0.004021503 -0.22509022 0.23315196 -0.064150386
000010 17 fb 41 be ef 4e 6a be d3 a7 b9 3d 59 2f 77 be
       -0.1894344 -0.22881673 0.09065213 -0.24139155
000020 a9 d8 fc 3d f5 ea 3c 3d f0 c8 8f 3e 7f 4d 70 be
       0.12346012 0.04612251 0.2808299 -0.23467062
000030 1c cc 13 3c bb c5 c6 3c a3 76 db 3c 8e 6e 08 3e
       0.009020831 0.024264207 0.026789969 0.13323423
000040 97 32 2f bd ac dd 0d be bd c8 58 3e 3d bd 61 be
       -0.042772856 -0.13854092 0.21170326 -0.22044845
000050 cf ed 78 be 75 ff 0c 3e ba cd ee bd e6 c5 80 3e
       -0.24309467 0.13769324 -0.11660333 0.25150985
000060 e3 fe 68 be 25 01 60 3e 1c da 37 3d 2c 63 49 bd
       -0.22753482 0.21875437 0.04488574 -0.049166843
000070 dc 04 65 3e 6e 63 14 be b3 c6 d2 3c 99 74 a6 bd
       0.22365135 -0.14491054 0.025729513 -0.08127708
000080 3b 81 0e 3e 85 9d d1 3d 42 c7 74 3e f9 1c 48 be
       0.13916485 0.102351226 0.23904136 -0.19542302
000090 e5 c8 56 3d e7 1c 50 bd b1 33 84 3e e1 64 3a be
       0.05243768 -0.050808813 0.25820687 -0.18202545
0000a0 52 b5 9e bd 98 7c 4d 3e 79 20 bd 3d 2b 52 5e bd
       -0.07749428 0.2006706 0.09234709 -0.05427758
0000b0 35 1d 05 3e 47 fb 16 3e e2 1a 84 bd 10 7f 65 be
       0.12999423 0.14744292 -0.0645044 -0.22411752
0000c0 c0 d4 8c be 0b 5a 23 3e 3f f8 78 bd e2 ba 46 3e
       -0.27506065 0.15952317 -0.06078362 0.19407228
0000d0 32 8c 58 be 79 1d 80 3e 31 93 90 3d 71 4d 44 bd
       -0.2114723 0.25022486 0.070593245 -0.047925416
0000e0 8f 43 26 be f9 7c aa bd d4 1a 45 be bf d7 74 be
       -0.16236709 -0.08324618 -0.19248515 -0.23910426
0000f0 73 53 1b be bf fa 64 3e 24 bc 7a be 5b 11 50 3e
       -0.15168552 0.22361277 -0.24485832 0.2031912
000100 fa 4f 01 3e e5 90 85 be 0a 48 68 3e ed 19 60 3d
       0.12628165 -0.26087108 0.2268373 0.054712225
000110 21 8b 8a bc 05 3d 8a 3d f2 72 93 3d dc b4 52 3e
       -0.016912045 0.0674992 0.071996585 0.20576805
000120 90 e2 a2 3e e1 0c ac 3d 67 d4 c6 bc 5f 11 ee 3c
       0.31813478 0.08400894 -0.024271203 0.029061018
000130 29 f0 a1 3d fe 39 e9 bd 16 c9 eb bd f3 1a 9c be
       0.07907135 -0.11388014 -0.115129635 -0.3048931
000140 dc 14 93 3e 5b d6 f6 bd b8 46 25 bc d8 48 92 be
       0.28726852 -0.12052604 -0.010087661 -0.285712
000150 2d 79 4e bd f7 b2 75 3e 45 a6 90 be d1 d6 f7 3d
       -0.05040853 0.23994051 -0.28251854 0.1210152
000160 fa b8 9f 3e 57 c8 91 be 39 6a 0d 3b 95 f9 03 3e
       0.31195813 -0.2847316 0.0021578206 0.12888177
000170 7f 82 8a 3d d6 ec 82 bc 85 7a 89 3e 0c 6d 86 3e
       0.067631714 -0.015982073 0.26851287 0.2625507
000180 89 75 f6 bb 6d 9d e7 3d c9 0c 89 bd f5 bd cb bd
       -0.0075213355 0.113093235 -0.06691892 -0.09948341
000190 6c 95 95 bd 57 51 41 3e 52 aa 80 3e 5a c6 73 3e
       -0.073038906 0.18878685 0.25129944 0.23806134
0001a0 48 8e 30 3d fd ba 00 3e 41 6c e9 bd 03 2c d4 bc
       0.04310444 0.1257133 -0.11397601 -0.025899893
0001b0 cc 10 8b be 20 73 ce 3d d7 0a 2a be 1b e8 8e 3e
       -0.27161252 0.10080552 -0.16605698 0.27911457
0001c0 1e 5f 12 3c bb 71 40 3e ed ec 00 bd b2 19 d5 3d
       0.0089338105 0.18793385 -0.03147595 0.104052916
0001d0 79 a5 84 be 1b fd 6b be 3d 8b 3e be 71 0a 8f 3e
       -0.25907496 -0.23045771 -0.18607803 0.27937654
0001e0 e5 0f 3f 3e 61 f3 18 3e c6 d5 90 3e 6b 76 34 3e
       0.18658407 0.14936592 0.28288096 0.17623298
0001f0 45 1a 20 3e b9 b4 ac bd 7e 1f b1 bd e8 36 80 3e
       0.15635021 -0.084329076 -0.08648585 0.2504189
000200 f1 8d 7b 3e 61 2a 74 be 5d 7f 15 3e 0c f8 af bd
       0.24565865 -0.23844291 0.14599366 -0.08592233
000210 50 27 94 3e a4 33 9a bc 05 a3 16 bd 3a d4 04 bc
       0.28936243 -0.018823452 -0.03677656 -0.008107239
000220 b4 e8 d9 bc 22 e8 98 3e 6b dd 0d be e0 d5 e2 3d
       -0.02660022 0.29864603 -0.13853996 0.1107595
000230 98 d5 94 3d 5d 34 5f 3e d3 5a 20 3e a5 64 2b be
       0.07267302 0.21797319 0.15659647 -0.16737612
000240 57 a1 d8 bb b3 61 db 3c 50 e9 54 bd 30 2b 89 3e
       -0.00661103 0.026779985 -0.051980317 0.26790762
000250 7b 1c 8a 3e e3 9f 99 be b4 91 bd bd 0f c2 89 3e
       0.26974854 -0.30004796 -0.09256306 0.26905867
000260 c6 45 59 3c 59 6b 6e bd 9d 9c 83 3e d4 67 98 bb
       0.013261264 -0.058207843 0.25705424 -0.004651049
000270 a0 0d ab bd d9 40 7e be 5d 8c 38 3e 99 e0 de bd
       -0.08352208 -0.24829425 0.18022294 -0.10882682
000280 2c 55 6c be 0c 2d 45 be f2 bb 49 be d4 f2 8c 3d
       -0.23079365 -0.19255465 -0.19700602 0.06882253
000290 2d 1d 9f 3d c4 66 f2 3c d1 09 67 be d0 49 a1 be
       0.07769237 0.029590018 -0.22562338 -0.31501627
0002a0 dc 02 1d be 26 ac 38 be 9d a7 a9 3d 90 af cb 3d
       -0.15333122 -0.1803442 0.08283923 0.09945595
0002b0 ef ca 0a be 12 40 8b be 9b 12 63 3e d6 21 1b 3e
       -0.13553976 -0.2719732 0.22175066 0.15149626
0002c0 67 aa de bd 59 e0 cc bd ff bc cd bc b5 7b 1d be
       -0.108723454 -0.100037284 -0.025114534 -0.15379222
0002d0 ef fd 44 3e a4 09 03 3d 50 6f 59 be af c3 74 be
       0.19237493 0.031991616 -0.21233869 -0.23902772
0002e0 a3 b5 ca bd 06 14 6a be 69 0c 14 bd ee 7f 2a bd
       -0.09897926 -0.22859201 -0.036144648 -0.04162591
0002f0 ec ae 22 be 9d 82 93 3c 0f cb d8 bd 0c 68 14 3e
       -0.1588704 0.018006617 -0.10585605 0.14492816
000300 66 62 18 3e 82 3d 47 bd 0c 67 c6 bd e8 b5 84 be
       0.14881286 -0.048642643 -0.096876234 -0.25920033
000310 5e eb de 3c 4f d6 5e be 34 ad 76 3e c4 08 fe 3d
       0.027211841 -0.2176144 0.24089509 0.12404016
000320 12 b1 0e bd ad d3 c1 bc d1 bc 40 bc cb 55 91 3e
       -0.034836836 -0.023660505 -0.011763767 0.28385767
000330 10 be 32 bd b6 c0 46 3d 86 86 2a 3e e0 a1 15 3e
       -0.04363829 0.048523627 0.16652879 0.14612532
000340 49 db b7 3c c5 68 82 3e 49 78 53 be b8 66 b7 3d
       0.02244343 0.25470558 -0.20651354 0.08955139
000350 ef 7c 97 be b7 43 50 3e ac 2c 7d 3e 58 2f 34 bd
       -0.29587504 0.20338331 0.24724072 -0.043990463
000360 18 2a 80 be e4 6f 02 be 00 33 d8 3d d0 c6 6d be
       -0.25032115 -0.12737995 0.105566025 -0.23220372
000370 0f 04 6e bd b3 13 f6 bd c2 f5 17 be 3b 89 5f 3e
       -0.05810934 -0.12015476 -0.14839843 0.21829693
000380 c6 7b 4b be b3 88 02 3e ee b5 26 be 74 74 4f 3d
       -0.19871435 0.12747459 -0.16280338 0.050648168
000390 1a 1c 7a 3e 5e 6b 8f be b8 af 4a be 8c 7e 23 3e
       0.24424782 -0.28011602 -0.19793594 0.15966243
0003a0 64 5f 0e 3e 58 53 47 be e2 8d 23 3e b2 12 3a be
       0.13903576 -0.19465387 0.15972093 -0.18171194
0003b0 0c 3a 6f be 3b a4 d4 bd 2c c8 37 3e 62 7a 8a bb
       -0.23361987 -0.10382887 0.17947453 -0.004226015
0003c0 7b 42 98 3e 10 d5 ff 3d 15 07 8a bd 85 ef 8d 3e
       0.2973822 0.1249181 -0.06739632 0.277218
0003d0 7a b9 0e 3e ef 17 e4 3d e7 ec 91 be ce 27 5a be
       0.13937941 0.111373775 -0.28501055 -0.21304247
0003e0 4b 11 69 3e 2c 2d 90 3e 01 ca cd 3d f4 e8 04 3e
       0.22760503 0.28159463 0.10048295 0.1297949
0003f0 aa 9e 81 be bf 42 6c bd c1 b6 54 bc 2b 4c 0a be
       -0.25316364 -0.05768084 -0.012983025 -0.13505618

model.backbone.static_proj.bias f4 [64]
000000 19 39 f0 bc 32 15 64 be 17 30 ee bd 5d 57 59 3e
       -0.029324101 -0.2227371 -0.11630266 0.21224733
000010 33 dd e1 3d fd 39 ca bd 9e 05 97 be ed dc 59 be
       0.110285185 -0.09874342 -0.29496473 -0.21275683
000020 10 a4 6a 3e 9d 14 37 3e 98 7b 7c 3d dd 7b 80 3e
       0.22914147 0.17878957 0.061641306 0.250945
000030 f9 53 58 bd 84 49 85 be 82 a6 70 3e 39 c5 7d be
       -0.052814458 -0.2603265 0.23501018 -0.24782266
000040 b2 64 88 3e e2 eb e4 3d 72 3e 5c be 95 01 52 be
       0.26639324 0.111778036 -0.21508196 -0.20508416
000050 20 6c 15 be 0f 20 6a bd 4c f3 90 be 01 42 0a 3e
       -0.14592028 -0.05715948 -0.2831062 0.13501741
000060 2b 8e 13 3e e7 89 48 bd 14 e1 32 3e 87 97 89 be
       0.14409702 -0.04895964 0.17468673 -0.2687342
000070 88 ff 46 3e 7a bb 11 3d 16 82 b3 3b 0e 17 3c be
       0.19433415 0.035579182 0.005478154 -0.1836817
000080 a8 4d e2 bd 58 70 6b 3d 45 0b 8d be ea 73 2c be
       -0.11049968 0.057480186 -0.2754766 -0.16841093
000090 5b f1 00 3e c4 3b 69 3d 60 65 61 be 40 d0 86 3e
       0.1259207 0.056941763 -0.22011328 0.26330757
0000a0 0a f5 5d bc a0 0c 40 bc b5 b3 e0 bc ec 4e 5e be
       -0.013547191 -0.01172176 -0.027429441 -0.21709794
0000b0 c5 5a 5c 3e 3c 97 4c 3e 73 e1 85 3e 63 c8 32 be
       0.21519001 0.19979566 0.26148567 -0.17459254
0000c0 cf 7a 1d be c6 7e 88 3e 13 33 77 3d a5 ec 2d 3e
       -0.15378879 0.2665922 0.060351443 0.16984804
0000d0 9f c4 0d 3e 2f b2 d2 3d 43 30 80 be 23 45 b2 bc
       0.13844536 0.10287892 -0.2503682 -0.021761483
0000e0 7c fa d6 bd e3 7c 9d 3d b6 5d 05 3d 2b ab ce 3c
       -0.10496995 0.07689836 0.032560073 0.025228104
0000f0 5b ff e8 3d ad b0 54 3e a8 49 09 3e b0 24 89 3d
       0.1137683 0.20770521 0.13407004 0.06696451

model.backbone.layers.0.temporal.0.weight f4 [32, 64]
000000 1d ec 6f 3d 62 c0 4e 3c 88 5a 84 3d 5f a7 96 3d
       0.058574785 0.01261911 0.0646258 0.07356142
000010 28 e0 fe 3c 2b 7e 0b 3e 84 62 3b 3d dd a0 72 bb
       0.031112745 0.13622348 0.04574825 -0.0037022152
000020 6d eb 13 3d 9f 3d e5 3d 24 89 45 bd ac a5 be 3d
       0.03611319 0.11193394 -0.04822649 0.09308943
000030 4a 52 85 bd 7b 9c c1 bd 23 63 bd 3d 56 82 9b 3d
       -0.06509836 -0.094536744 0.092474245 0.07593219
000040 c4 7c 3e bb 24 c3 29 bd 38 61 f6 3d c3 b0 d7 3d
       -0.0029066065 -0.041445866 0.12030262 0.105317615
000050 25 d9 ad bd 10 9b dd 3d f0 03 b1 bd 6b 1e f8 3d
       -0.08488683 0.108205914 -0.08643329 0.12115177
000060 9c 46 5e 3d 7a 7d c5 bd 2f a7 a0 bd 15 7b 1d bd
       0.054266557 -0.096430734 -0.07844388 -0.03844746
000070 7a 74 01 3d a0 22 b0 3d fe 5e b8 bc 82 c6 8e 3c
       0.03160522 0.08600354 -0.022506233 0.01742864
000080 2c 11 ef 3c 39 d4 49 bd 2a 5d e5 bc d9 81 95 bd
       0.029182993 -0.049274657 -0.027998526 -0.07300157
000090 90 31 48 3c b8 1a ab bd 0b 5f bf 3c 39 93 b4 bd
       0.012218848 -0.083547056 0.02336075 -0.08817143
0000a0 e0 c7 6d 3c e5 d0 17 bd 75 4f ad bd 5b 41 9c bd
       0.014512986 -0.03706445 -0.08462421 -0.07629653
0000b0 af 92 e5 bc 0f bc 27 bd a8 ae ad bd 1e 48 e8 bd
       -0.028024046 -0.04095083 -0.08480579 -0.1134188
0000c0 75 6d 9c 3d c8 54 7d bb cc e1 a3 bd 6b 58 d9 3b
       0.07638065 -0.003865527 -0.08002052 0.0066328547
0000d0 6a b4 b9 bc 53 3f d8 3d 79 6b bd bd 98 5f 68 3d
       -0.022669036 0.10558953 -0.092490144 0.05673179
0000e0 a9 ed bb bd 28 dd ac bd e4 15 08 3e 51 49 5b bd
       -0.091761895 -0.0844062 0.132896 -0.053536717
0000f0 6a 87 7c 3d a7 e1 90 3d 7e d0 49 bd b1 34 d7 3d
       0.06165258 0.0707429 -0.0492711 0.10508097
000100 8d fe 33 3c 69 14 90 3d 89 d7 31 3d 27 fc ee 3d
       0.010985983 0.07035143 0.04341844 0.11669188
000110 a9 47 3c 3c 7e ff 4c bc 94 0a 85 bd c9 5e 8a bd
       0.0114916945 -0.012512086 -0.06496158 -0.0675636
000120 05 6e a5 bd 4d 3a 07 3e 27 71 0c 3e 4d 54 16 3e
       -0.08077625 0.13205834 0.13715039 0.14680596
000130 be 15 fa bb 08 75 41 3d a3 bb 09 bc 25 f5 b4 bd
       -0.0076319864 0.04723075 -0.0084065525 -0.0883582
000140 f6 8a 8c 3d 43 5e dc 3d d7 f0 03 3e 7c 17 67 bc
       0.06862442 0.107601665 0.12884842 -0.01410472
000150 60 88 be 3d 49 ef 8f 3b fc f1 6f bb 41 5b 8f b8
       0.09303355 0.0043925387 -0.003661274 -6.835769e-05
000160 ed 72 05 3e 9e 20 fb bc ba d2 86 bd bb ad a7 3d
       0.13032122 -0.030655202 -0.06583162 0.08187433
000170 22 18 91 3d 44 36 73 3d 70 c3 10 bd 13 cb 94 3c
       0.07084681 0.059377924 -0.035342634 0.01816324
000180 ee 39 15 3e 2c 0f 7c bc aa e9 a2 3d 3b 28 cb bd
       0.1457288 -0.015384477 0.07954724 -0.09919783
000190 05 bb 5c bd c5 37 0b 3d 4d d7 a6 bd 5d 10 9a 3d
       -0.053889293 0.033988733 -0.08146534 0.07522652
0001a0 0a a5 8e 3d 12 41 b6 bd 0a 85 c4 3b fa c0 85 3d
       0.069650725 -0.0889913 0.005997305 0.06530948
0001b0 4d 47 6a bd 44 e4 04 3d d5 a7 9a bd 7f af bf bd
       -0.057196904 0.032444254 -0.07551543 -0.09359645
0001c0 1e a4 7c bd 79 d9 1b bc c2 ad 79 bd e3 34 31 bd
       -0.06167995 -0.009512299 -0.060956724 -0.043263327
0001d0 fe 76 9a bd db fd 7a 3d 6e 30 bd 3d b9 0a 3c bd
       -0.07542227 0.06127725 0.09237753 -0.045908663
0001e0 ad 64 a5 bd 10 73 95 3d c5 46 1d 3d ef ed b9 bd
       -0.08075843 0.07297337 0.03839757 -0.09078585
0001f0 a9 15 2f bd 7a ee a4 3d 9a c9 ed 3d e3 64 a6 3d
       -0.042745266 0.08053298 0.11610718 0.08124711
000200 11 79 96 bd bf 70 06 3e 43 f5 82 bc b2 44 bc 3d
       -0.0734731 0.13128947 -0.01598609 0.0919279
000210 29 94 c0 bd 09 0a bb 3b 45 f7 7f 3d 38 ae ac 3d
       -0.09403259 0.0057079834 0.062491674 0.08431667
000220 8d a9 fb bc 5b 35 13 3d 81 a2 6c 3d 0e a0 5b 3d
       -0.030720497 0.035939556 0.057772163 0.053619437
000230 28 79 37 3d 55 a3 b1 3d ed 8a a6 3d 1e 21 81 3c
       0.044793278 0.08673731 0.08131967 0.015762862
000240 75 27 de 3d 46 0d 9b bd 53 63 cf bc 29 f4 b0 bc
       0.108473696 -0.07570891 -0.025315916 -0.0216008
000250 74 82 32 3d 58 06 f6 3c a4 ba d9 3d b5 b2 ac 3d
       0.04358144 0.030032322 0.10631302 0.08432523
000260 92 1e 21 3d 07 b3 c7 3d e3 26 04 bc 7b 17 5d bc
       0.039335795 0.09750944 -0.008065912 -0.013494368
000270 6d c5 10 3c 4a 6a 6e bd 68 fd 27 3d 27 ba 04 3e
       0.0088361325 -0.058206834 0.04101315 0.12961636
000280 4d 88 a1 3d 8e 77 0d 3d 16 0d 4b bc e0 37 db 3c
       0.078873254 0.034537844 -0.012393257 0.026760042
000290 1a 1b 2b 3c ac 97 6d bd 1a 05 ee 3d 72 f7 27 3a
       0.010443473 -0.058005974 0.11622067 0.00064074167
0002a0 c3 fb 05 3e 2b 30 aa bd 63 f5 15 bd 6b 53 b3 3d
       0.1308432 -0.083099686 -0.036610972 0.08756145
0002b0 41 e4 94 3d 63 c3 e0 b9 45 c1 a6 bd 82 0e aa 3d
       0.072700985 -0.00042870184 -0.08142332 0.083035484
0002c0 65 10 0c 3d f6 01 9d bd ff ac 85 3d ef 41 45 3d
       0.034195323 -0.0766639 0.06527137 0.048158582
0002d0 bf 7f c7 3d 11 fb 88 bd 8e ff 57 bd d3 ba a3 3d
       0.097411625 -0.06688512 -0.05273395 0.07994618
0002e0 e1 94 b8 3d 48 40 e3 3d 9a ed bb 3c 8f e5 aa 3c
       0.090127714 0.11096245 0.022940446 0.020861415
0002f0 3b 64 3a 3d 30 18 5c 3c 43 57 9f bd cc 96 d5 bc
       0.045505743 0.013433501 -0.07780316 -0.026072882
000300 e4 96 62 3d 2f 27 6d 3d 25 6c 43 3d 61 de c0 bd
       0.05531968 0.057898697 0.047710557 -0.094174154
000310 1b fb 5c 3d 71 2a ba 3d 13 30 24 bd aa 6b 88 bd
       0.05395041 0.09090126 -0.04008491 -0.0666116
000320 bb 6c e0 3d 4a 05 26 3c 43 87 8c ba ac 81 4d 3c
       0.10958239 0.010133097 -0.0010721463 0.012543123
000330 04 98 0f 3d 4a bd 9d 3c 87 33 7d 3d 37 db 3e bd
       0.035057083 0.0192553 0.06181672 -0.04659578
000340 f0 68 c8 3d 3d 50 9a 3c 19 1a 03 3c c8 c2 f4 3d
       0.0978564 0.018837089 0.008001828 0.11951214
000350 04 44 3a 3d ef fe 8b bd 4d 9b 8a bb 8c bf 14 bd
       0.04547502 -0.06835734 -0.004229939 -0.036315486
000360 71 b8 dc 3d a3 b0 cd bd 56 bf b5 3d 51 2d f5 3c
       0.10777367 -0.100434564 0.08874385 0.029928835
000370 ae 20 3b 3d cf dd 98 3d 8b e6 ca 3d a5 56 97 bd
       0.045685463 0.07464182 0.09907254 -0.07389573
000380 f3 a1 c4 3d bc de 92 bb 34 04 e9 3d b3 34 89 3d
       0.09601202 -0.0044821184 0.11377755 0.06699505
000390 d4 c7 9e bd 46 04 ac 3d 55 11 b6 3d da 2c 10 bd
       -0.07752958 0.083992526 0.088900246 -0.035199024
0003a0 6d 27 99 3d 33 5f 1e 3d 8e cd 3a bb 58 c0 98 bd
       0.07478223 0.038665008 -0.0028503868 -0.07458562
0003b0 8e 7f 2f 3d fb b6 9c bd 0c 10 dd 3d 4e ce a2 3d
       0.042846255 -0.07652088 0.10794076 0.07949506
0003c0 b8 f8 c7 bd 80 53 84 3c 22 c2 e0 3d d7 c6 a8 3d
       -0.09764236 0.016153097 0.10974528 0.08241051
0003d0 9c 82 92 bd 52 37 92 bd 3f 87 69 bd dd a6 08 bd
       -0.07153818 -0.07139458 -0.057013746 -0.03336226
0003e0 df ab ee bd 3c 7f fe 3d 20 5c 88 3b 08 42 9f bd
       -0.116538756 0.12426612 0.004161373 -0.07776266
0003f0 5a 9f 36 bd e9 4f f0 3d 4f 83 a4 3d f5 09 1b 3e
       -0.044585563 0.11733992 0.080328576 0.15140517

model.backbone.layers.0.temporal.0.bias f4 [32]
000000 7b 51 42 bd d5 17 d3 bd 30 8a 7f bd 27 fb ce bc
       -0.047440987 -0.1030728 -0.062387645 -0.025266243
000010 c8 82 09 be 99 ea 88 3d 50 3e 93 3c b2 97 0b be
       -0.13428795 0.06685371 0.017974049 -0.13632086
000020 70 f8 d8 bd 06 95 a7 3d f6 ec b0 3d ac 87 dc 3d
       -0.10594261 0.08182721 0.08638947 0.10768065
000030 41 6e 4f 3c ef 03 60 bd 3b f8 a0 3c 56 4c e3 bd
       0.012660564 -0.05469125 0.019649616 -0.11098544
000040 2a 0b b7 3d 8a 68 3d bc 67 82 01 bd 7b 8a b4 bc
       0.08937676 -0.011560569 -0.031618502 -0.022038689
000050 f7 ea 83 bd 47 fa d3 3c 74 c3 a2 bd 7a d3 eb bc
       -0.064413 0.025876177 -0.07947436 -0.028787363
000060 14 53 85 3c d5 70 42 ba 87 f9 0a 3d 6f 45 8c 3d
       0.016274966 -0.0007417326 0.033929374 0.06849181
000070 ac d6 97 bc 0a e5 a8 3c ce 42 85 3d 10 69 eb 3d
       -0.01853498 0.020617027 0.065068826 0.114946485

model.backbone.layers.0.temporal.2.weight f4 [64, 32]
000000 83 ae 21 be b3 af a4 bd c3 21 eb bd d3 ae 2a bd
       -0.15789227 -0.080413245 -0.11481049 -0.04167063
000010 31 0b 14 3e 5c 91 b1 3d 9f d7 98 3d ea 62 b8 3d
       0.14457394 0.08670303 0.074630015 0.09003241
000020 a2 ee 04 be 12 ab f2 bc 18 9b cd 3d 10 89 56 bd
       -0.12981656 -0.029622588 0.100393474 -0.052376807
000030 6b 02 8e bd a0 6c 70 bc 9a 46 84 3d d5 d8 9a bd
       -0.06934055 -0.014674336 0.06458779 -0.07560889
000040 8c a7 e3 3d f5 2c 66 bc b0 29 e3 bd f3 f9 92 3c
       0.111159414 -0.0140488045 -0.11091936 0.01794145
000050 32 60 55 bd 87 67 f0 bc b9 c5 02 3e 5f 0a 06 bd
       -0.052093692 -0.02934624 0.12770738 -0.032724734
000060 df ce 67 3d 95 59 d7 3d 23 b0 b7 3d 5c 3c dc bd
       0.056593772 0.10515133 0.08969142 -0.107537
000070 37 02 32 3e a9 3b e2 3d 92 9a 07 3d 7f cc 2a 3d
       0.17383657 0.110465355 0.033106394 0.04169893
000080 2b 23 03 3d ab 2a ea 3d f6 d9 b2 3c 36 e5 2a be
       0.03201596 0.114339195 0.021832447 -0.16689
000090 e3 d6 1a 3e 64 80 e2 bd b6 b7 ee 3d bc 3a 9f bc
       0.15121035 -0.11059645 0.11656134 -0.019437186
0000a0 e3 a7 c5 3c 69 2a 4a be 00 c8 77 bd 00 fc 31 3e
       0.024127906 -0.1974274 -0.06049347 0.17381287
0000b0 a0 72 97 bd 77 b8 0c 3e 88 21 99 3d 9e b1 80 bd
       -0.0739491 0.13742243 0.07477099 -0.06283878
0000c0 4c 6b 28 be 5e 55 f1 3d e4 32 c8 bd 04 60 17 be
       -0.1644718 0.117838606 -0.097753316 -0.14782721
0000d0 47 19 35 3d 33 68 f7 bd 90 22 13 3e 99 d0 ba bb
       0.04421356 -0.12080421 0.14368653 -0.0057011363
0000e0 a1 44 ba bc 46 09 50 bd a5 a4 68 3d 90 ec 9c 3d
       -0.022737803 -0.050790094 0.056797642 0.07662308
0000f0 3e ac ec 3d 22 1f 4e bd b3 b9 01 be 20 4d 43 3e
       0.1155629 -0.05032266 -0.12668495 0.1907239
000100 38 bd b4 3d db ee 40 bd e6 47 e5 bd 83 d9 27 be
       0.08825153 -0.04710279 -0.11195354 -0.16391568
000110 1c f2 51 3d d9 30 b8 bd 6e ab 73 3d 2f 02 e5 3d
       0.051256284 -0.08993692 0.05948966 0.11182057
000120 7a ef 58 3b a1 0a c0 bd 5c 15 90 3d 1a 58 b5 36
       0.0033101724 -0.09377027 0.07035324 5.4044767e-06
000130 9f b3 86 3c a4 04 03 be e9 72 9e bb 36 9f 92 3d
       0.016443072 -0.12794739 -0.0048354757 0.07159273
000140 91 f2 55 3d 02 52 1f 3d 17 4c 37 bd 4e af be bd
       0.052233282 0.038896568 -0.0447503 -0.093107805
000150 27 ee b0 3c 92 5a b1 bd a7 ce 13 3e c8 dc 1d bd
       0.021597935 -0.08659853 0.144343 -0.03854063
000160 04 34 90 bc bf b1 16 3e 2f a8 b6 bd 23 f0 2c bc
       -0.017602928 0.14716242 -0.08918797 -0.0105553
000170 5d 1e ce 3d 9e 94 8b 3d eb 0b c8 3d 1c 61 d3 bd
       0.10064385 0.06815456 0.09767898 -0.103212565
000180 c5 7d 86 3d 0d 62 34 bd a6 d8 0b be f8 23 3d be
       0.065669574 -0.04403882 -0.13656864 -0.18470752
000190 ab 92 0d 3e c0 4e 28 3e fa f6 c7 3d ab 56 82 bd
       0.1382548 0.1643629 0.09763904 -0.06364187
0001a0 2b e1 1e bd 1a d6 4f bd 95 3e 4c be cf d6 c2 bd
       -0.038788956 -0.050741293 -0.19945748 -0.09513628
0001b0 8a 4d 02 3e cf a7 4a bd 40 02 21 3e 9e 9d e8 bd
       0.12724891 -0.04947644 0.15723515 -0.11358188
0001c0 88 45 53 bd b0 ec db bc f1 0a 38 3e 0d 69 af 3d
       -0.051579982 -0.02684626 0.17972924 0.08564959
0001d0 6d 2a 31 3e 2c d8 c2 3d f9 bc f4 3d e7 64 04 3e
       0.1730134 0.09513888 0.11950106 0.12929116
0001e0 01 3b 04 be 90 ec 01 be fd dd 86 3d 87 ba c8 3d
       -0.12913133 -0.12687898 0.0658531 0.09801202
0001f0 4a a3 11 be 19 10 15 3c 5f 39 00 3d da 1e 1c be
       -0.14222446 0.009098076 0.031304713 -0.15246144
000200 f1 03 c9 bd 96 59 18 3d 38 f2 94 3d 9b 97 b1 bc
       -0.09815205 0.03719481 0.07272762 -0.021678736
000210 af ec 5d 3d dc a5 07 3e 7c a6 fd 3c 87 24 18 3e
       0.054180797 0.13246864 0.030963175 0.14857684
000220 d8 67 1c 3e c9 52 2d bd 7e 90 ab bc 09 12 2a 3d
       0.15273988 -0.04231528 -0.020942923 0.041521106
000230 dd 0a 3c 3e 0a aa ad bd 63 bd f9 bd b7 e3 d1 3d
       0.18363519 -0.08479698 -0.12194326 0.10248511
000240 97 f6 1b bd 44 5f a5 bd 05 ba 43 3e 11 05 97 3d
       -0.038076963 -0.08074811 0.1911393 0.07374013
000250 c3 c8 76 3d 0b 93 f8 bc 1f c4 32 3e 4d 61 9c 3d
       0.060250055 -0.030343553 0.17457627 0.07635746
000260 a4 83 0f be 59 06 c4 3d 42 68 b9 bd 3e a3 cd bd
       -0.1401506 0.09571523 -0.09053089 -0.100409016
000270 1b ba 53 3c 7d fd 0e 3e 05 e2 10 be 99 ac 23 3e
       0.012922789 0.13963886 -0.1414872 0.1598381
000280 7c 0c 9b 3d 14 9e f7 bd 51 02 14 be 5d 46 28 be
       0.075707406 -0.12090698 -0.14454009 -0.16433091
000290 4a 67 a8 3c d4 19 a0 3c 4a 72 24 3d ae 74 e9 3c
       0.020557065 0.019543566 0.040148057 0.02849802
0002a0 2f cf 87 bd 95 67 ea 3d e2 bc a3 bd 99 74 c7 3d
       -0.06631314 0.11445538 -0.07995011 0.09739036
0002b0 b1 4e 0c 3e 19 49 81 bd ef 8f db bc ee be f9 3c
       0.13701893 -0.063127704 -0.026802031 0.03048655
0002c0 fc 1b a1 3d 15 69 ac 3d 0a 9a 0f 3e da 70 1b 3d
       0.07866666 0.0841848 0.14023605 0.03794942
0002d0 6b c0 ec bd d5 11 4c 3d 44 1e 51 3e d9 4b 06 bd
       -0.11560138 0.049821693 0.20421702 -0.032787178
0002e0 18 6b e9 bd bc 17 c0 bd 4c 60 25 3e aa 05 a7 3d
       -0.1139738 -0.09379527 0.16150016 0.08155377
0002f0 16 72 56 3e b4 3b 62 bd 9b d6 ee bd dc be 5f bd
       0.20941958 -0.05523272 -0.116620265 -0.054625377
000300 a1 67 32 3e 9e c9 66 3d e3 81 b3 bd 53 9a 0b be
       0.17422344 0.05634462 -0.08765008 -0.13633089
000310 92 77 e1 bd c8 5d 73 bd 96 9a 04 be 01 7b 76 3c
       -0.11009134 -0.05941561 -0.12949595 0.015043975
000320 d6 a1 ee bd 26 80 21 be 4a 2d 87 3d 5d 5a e5 3d
       -0.116519615 -0.15771541 0.06600435 0.11198876
000330 81 1a 24 3e e6 a6 00 3e 5d 65 b7 3d b0 d6 48 bd
       0.16025735 0.12563667 0.089548804 -0.049032867
000340 37 60 db bd 01 a0 79 bd be 86 4c 3e 7c d4 64 3c
       -0.10711711 -0.060943607 0.19973275 0.013966676
000350 a4 9c 1c bc bd 8d 09 be b8 5f 44 3e 0d 5b f3 3d
       -0.00955883 -0.13432975 0.19177139 0.11882601
000360 85 45 fb 3d 2f 5c c2 bd bc df 04 3d eb 77 ae 3d
       0.12269119 -0.09490239 0.032439932 0.08518966
000370 c0 18 1b be 8c 6b 5a be 1f c4 f0 3d e8 f4 4b 3e
       -0.1514616 -0.21330088 0.11756157 0.19917643
000380 f0 0c b0 bc 67 b7 02 be 60 52 07 3e 23 80 06 be
       -0.021490544 -0.12765275 0.13215017 -0.13134818
000390 4b df 0c 3e e7 bc c5 3d 55 25 ba bd a6 a2 f7 3d
       0.13757055 0.09655171 -0.09089152 0.120915696
0003a0 76 70 18 bc fc e4 e5 3d 07 56 15 be 71 ec fb bd
       -0.0093041565 0.11225316 -0.14583598 -0.12300957
0003b0 53 d3 39 bd 0c 50 00 be b5 1d b6 bd 79 00 03 bc
       -0.04536755 -0.12530535 -0.08892385 -0.007995718
0003c0 9c dd c7 3d 13 78 0f bc ea c8 a5 bb 15 ef 52 bc
       0.097590655 -0.008756655 -0.005059351 -0.012874384
0003d0 f1 67 ac 3c 75 3d 31 bd 91 3e c0 3d 46 09 0a be
       0.021045657 -0.0432715 0.093869336 -0.134801
0003e0 ea 46 bc bd 4f 89 99 3d 86 76 07 3e 8b ba 7f bd
       -0.09193213 0.07496893 0.13228807 -0.06243376
0003f0 05 24 be bd e0 6f 1f be 3b 3b 4b 3c a1 66 48 3e
       -0.09284214 -0.1557002 0.012404258 0.195704

model.backbone.layers.0.temporal.2.bias f4 [64]
000000 3e a5 c2 3d 3b d9 ab bd bb 2f 8e 3d 99 95 5a 3d
       0.09504174 -0.08391043 0.069426976 0.053365324
000010 62 7b b4 bc 2d 05 a9 bd 12 a5 ec bb 78 f4 2c bd
       -0.02203149 -0.0825294 -0.0072218264 -0.04222533
000020 1f cd e3 bd 18 5a b0 3d 33 b8 3e bc 28 69 36 bd
       -0.11123108 0.08610934 -0.011640596 -0.04453388
000030 2b 93 7e bd 31 75 0a be 49 ff 0f bc f4 7f 26 3e
       -0.06215207 -0.13521267 -0.008788892 0.16259748
000040 96 d6 91 bb 12 99 ec ba 61 40 82 3c c6 91 a8 bd
       -0.0044506295 -0.001805099 0.015899839 -0.08230929
000050 72 cb 0e be 81 72 2b 3d 77 26 ed 3d 2a ad b4 bd
       -0.13944796 0.041857246 0.11579602 -0.08822091
000060 ca 0e db 3d f4 bd 4c bd e5 01 e8 bb a7 fa a4 bd
       0.1069618 -0.04998584 -0.007080304 -0.08055621
000070 d1 1f 88 bc 5f a6 1f 3d aa 5d 2f 3d 96 e3 c7 3d
       -0.016616734 0.038977023 0.042813934 0.097602054
000080 db 42 72 3d be d4 7d 3d 7c 88 09 3e 49 67 2e bd
       0.05914579 0.061970465 0.13430971 -0.04257897
000090 aa 8d 0f 3e ad 57 12 be cb 35 fd 3d 65 42 42 be
       0.14018884 -0.14291258 0.12363776 -0.1897064
0000a0 d1 62 50 bd 8c c4 be bc c8 33 a6 bd bb f8 61 bd
       -0.05087549 -0.02328708 -0.08115345 -0.05516885
0000b0 a7 81 20 3d f4 31 9a bd db dc 29 bd 38 d2 e9 3b
       0.039186146 -0.07529059 -0.04147039 0.0071356557
0000c0 59 41 05 be 09 70 00 3d ef da 5b 3d d9 04 f8 3d
       -0.1301321 0.031356845 0.05367559 0.121102996
0000d0 d1 f5 07 bd a5 b0 07 be 80 0a a4 bd c1 09 07 bd
       -0.033193413 -0.13250978 -0.08009815 -0.032968286
0000e0 1b d7 9d 3d af a0 24 3d 90 72 a0 bd c4 5c 42 3d
       0.07707044 0.040192302 -0.07834351 0.04745175
0000f0 01 9f 85 3d 98 56 42 bd 73 e6 f4 3b c7 9f 20 3e
       0.06524468 -0.047445863 0.0074737608 0.1568595

model.backbone.layers.0.channel.0.weight f4 [32, 74]
000000 c5 95 62 bd 68 a5 d5 3c 9c 4e 1d be f7 de 07 be
       -0.055318613 0.026079848 -0.15362018 -0.13268648
000010 80 43 c5 3c 67 bb 0a bd 71 2c f9 bc 94 92 36 3d
       0.024080038 -0.033870127 -0.0304167 0.04457338
000020 93 d3 34 3a 36 18 b8 bc 99 61 8d 3d ee 9f 35 bd
       0.0006897982 -0.022472482 0.06903381 -0.044341974
000030 99 7b 5b bc 03 7b 75 bd 7d d7 1a bd 8a 82 a0 3d
       -0.013396167 -0.059931766 -0.037803162 0.07837398
000040 a1 53 9c 3d 41 d3 ac 3d 68 5d 97 bc b4 83 dc bd
       0.076331384 0.08438731 -0.018477157 -0.10767308
000050 a4 5d 8f bd 2e d9 ef 3d bc 1e 3c bd 1c 0f c6 3d
       -0.070002824 0.117113456 -0.045927748 0.09670851
000060 b0 ac 05 bc 5b 96 9d 3d 69 25 1f be 06 6d 99 bc
       -0.008158848 0.07694694 -0.15541615 -0.018728744
000070 c3 66 78 3d a7 8d a4 3d 5b e6 5f bd 37 a1 b3 bd
       0.060644876 0.080348305 -0.054663043 -0.08770984
000080 a7 a9 ec bd 71 10 cb 3d 3c 12 89 3d 7b b4 a6 3d
       -0.11555796 0.09915245 0.06692931 0.08139893
000090 38 b0 35 bc a0 b9 2b 3d d7 65 8b bc d0 20 0e 3d
       -0.011089377 0.041925073 -0.017016334 0.03469926
0000a0 9c ea 07 3e f6 ae af 3c 13 9b a2 3c 92 31 94 3c
       0.1327309 0.021445733 0.019849336 0.018090043
0000b0 41 18 8f bd 72 99 d9 3c ab 98 9e 3c e9 8a 20 3d
       -0.06987048 0.026562426 0.019359907 0.039194975
0000c0 ed 98 ed 3d 47 2c 98 bd d0 ff bc bd 04 bb 02 3c
       0.11601434 -0.0743032 -0.0922848 0.007979158
0000d0 97 86 55 3d 08 9d 7a bd 3e 44 d5 3d 89 8a 4a bc
       0.052130308 -0.061184913 0.10413407 -0.012362131
0000e0 46 e1 6f bd 75 30 cc bd 3c 06 b7 3d 43 f8 d7 bc
       -0.058564447 -0.0997018 0.08936736 -0.026363498
0000f0 2a 71 85 3d 7d 25 d7 3c f2 20 1e 3b 57 b1 e9 3d
       0.06515725 0.026262993 0.0024128524 0.11410778
000100 cc af eb bc 70 a8 7a 3d 38 65 11 be 36 e6 57 3d
       -0.02877035 0.06119579 -0.14198768 0.05270978
000110 2f 0d d2 3d 81 84 6e bd 47 ba b0 bc 60 df 52 bd
       0.10256421 -0.058231834 -0.021573199 -0.05148256
000120 7d 64 b9 3d 98 c0 a9 3c f2 83 de 3c 71 90 62 bc
       0.0905237 0.020721719 0.027162526 -0.013828383
000130 60 b7 6b 3d fd dd 42 3d 0f fb f2 bd fc f9 08 be
       0.057547927 0.047574986 -0.11864292 -0.13376611
000140 4d 79 97 3d c8 eb 9a bd c7 6b 70 bd 9a b4 9b 3a
       0.07396183 -0.07564503 -0.058696534 0.0011879385
000150 ac e4 4d bd c6 ee b5 3d 2a 4e 75 3d ba 0d 52 bd
       -0.050266907 0.08883433 0.059888996 -0.051282622
000160 c8 08 e6 3d 4c ad 80 bd 3c bd d6 bd b3 2c c4 3d
       0.11232144 -0.06283054 -0.10485312 0.09578838
000170 42 92 ad bd 7f 0a 84 3d 7e 61 74 bc 8e 23 d4 3d
       -0.08475162 0.064473145 -0.014915822 0.10358344
000180 f6 58 28 3e b3 73 93 bb 76 2e 91 bd ce 21 0a bd
       0.16440186 -0.0044998764 -0.0708894 -0.033723645
000190 b3 b6 0e bd db 30 0b bc 0e 2b 6d bd 98 44 b5 3d
       -0.034842204 -0.008495535 -0.05790239 0.08850974
0001a0 84 a8 8a bd 56 b0 c7 bd bb 0a 05 bd b4 94 9e bb
       -0.06770423 -0.0975043 -0.032480936 -0.004839504
0001b0 fe 90 85 3a 42 9a be 3d d9 9c 64 3d 2b 4c 82 bc
       0.0010190306 0.09306766 0.055813644 -0.01590546
0001c0 16 2a d2 3b fb a0 f9 bc 96 61 a1 3c 86 43 61 3d
       0.0064137084 -0.03047227 0.019699853 0.054996036
0001d0 62 c5 01 3e b4 b9 64 3d fa 51 fd 3d a2 80 c7 3c
       0.12672952 0.055841163 0.123691514 0.02435333
0001e0 e5 c7 9f bd 75 9e 28 bd 72 49 88 bc f8 83 1e bd
       -0.07801799 -0.04116674 -0.016636584 -0.038700074
0001f0 ad 20 2d bd 71 ee 2a 3d 17 b4 d5 3c 00 06 7d bd
       -0.04226749 0.0417313 0.02608685 -0.0617733
000200 0c 22 fc 3b 83 c6 66 3d 86 9d 9b 3b 2c f3 64 3c
       0.0076944884 0.05634166 0.004749003 0.013973992
000210 ab 21 9f 3d 69 1d 7e 3d 15 47 cf 3b fe 78 25 3d
       0.077700935 0.062039766 0.0063256123 0.04039859
000220 5e a9 e4 3d cf ec 41 bd 8d 33 94 bc ff c6 a5 bc
       0.11165117 -0.04734498 -0.018090988 -0.02023649
000230 07 ae 8f bd d0 a2 c0 bd 93 67 04 3c e5 d1 80 bd
       -0.07015615 -0.09406054 0.008081335 -0.06290034
000240 e0 f7 de bd 47 c4 18 3b 3b 69 42 bd cc 72 bd 3c
       -0.10887122 0.002331035 -0.047463637 0.023126028
000250 68 d2 67 3d bb 45 15 3d 06 4d 76 bd a1 f0 86 bd
       0.056597143 0.036443453 -0.06013205 -0.06588865
000260 98 14 a5 3d 3d e3 af 3b a3 87 72 bd b1 20 f2 bd
       0.080605686 0.005367665 -0.059211385 -0.11822642
000270 38 96 af bd 89 95 b5 bd 76 e6 fc 3d 68 6f d4 3d
       -0.08573574 -0.08866412 0.123486444 0.103728116
000280 9e 5d 15 3d c1 15 65 bd 90 c0 17 3d d4 c5 f6 3d
       0.036466233 -0.05592895 0.037048876 0.120494515
000290 68 87 0b bd 47 8e 87 3d 00 0a 97 3d fa 79 83 3d
       -0.03406468 0.06618934 0.07374954 0.064197496
0002a0 36 8c f1 bd f4 9d c9 bb 45 0e c5 3d 5e d3 88 bd
       -0.11794321 -0.0061528627 0.09621862 -0.0668094
0002b0 12 11 3c 3d 4d 96 9e bd 22 1b 43 bc b5 06 ac bd
       0.045914717 -0.07743511 -0.011908324 -0.08399717
0002c0 41 89 61 bd 3e 02 99 3d 1e d8 17 3c 5f 2e 03 3e
       -0.055062536 0.07471131 0.009267835 0.12810658
0002d0 69 d4 4a bc 66 7e 61 bd 1b 15 2a bd cd 5c fb 3c
       -0.012379744 -0.055052184 -0.041524034 0.0306839
0002e0 a8 c8 6d 3d ae 03 94 bd 69 87 a8 bd 3d 48 b3 3c
       0.05805269 -0.07227264 -0.082289524 0.021885032
0002f0 e1 d1 c8 3d 43 2a e6 3d ef 8e a7 bd b5 6e 43 bc
       0.09805656 0.112385295 -0.08181559 -0.01192825
000300 d4 5d 41 3d 01 a7 4a 3d ae 87 0b 3b 60 f6 d6 ba
       0.047208622 0.049475674 0.0021290588 -0.001640033
000310 ae 27 23 3d 4f de a5 bc 5f 37 1e bd 80 70 e9 3d
       0.039832763 -0.020247607 -0.038627025 0.11398411
000320 5e b2 c6 bd ee 9f 8d bd 70 f7 93 3d 6c 03 bb bc
       -0.097019896 -0.0691527 0.07224929 -0.02282878
000330 da 26 49 bd ed 3f bf bd 96 10 f1 bc d5 52 28 bd
       -0.049109317 -0.09338365 -0.029426854 -0.04109462
000340 2d 00 19 bd 81 0c e5 3d 3a 46 0e bd f7 80 a5 bc
       -0.037353683 0.111840256 -0.034734942 -0.020203097
000350 27 dc 9d bd ac 5c 9e 3d a5 2e 6d 3d 5f 0d 00 3d
       -0.07708006 0.077325195 0.05790581 0.03126275
000360 f4 3d da bd 24 8c 6a 3d 78 80 87 3c d1 00 8a 3d
       -0.10656348 0.057262555 0.01654075 0.06738437
000370 1a 44 f6 bd 33 68 b5 3d 24 37 e2 3b f6 44 9f bd
       -0.12024708 0.08857765 0.006903546 -0.07776825
000380 ed cc 90 bd 4a 2c 99 be f1 bd ba 3c e3 ff ff bd
       -0.070703365 -0.29916602 0.02279565 -0.124999784
000390 51 36 9e bd 32 94 39 bd ab bb ac 3d 14 67 51 3d
       -0.07725204 -0.045307346 0.08434232 0.051123694
0003a0 a0 0f 80 bd 53 22 69 bd 3b dc d0 3c a8 75 4b 3d
       -0.0625298 -0.0569175 0.02549564 0.049672753
0003b0 c9 30 97 3d 94 46 97 bd 76 3f 3e bd 84 a4 a5 3b
       0.07382352 -0.073865086 -0.04644724 0.005055012
0003c0 21 00 ab 3d 38 28 4a 3d 25 41 8f 3d 82 e6 a0 ba
       0.08349634 0.04935476 0.06994847 -0.0012275728
0003d0 5d a4 e0 3d 03 ed e1 3d 98 49 e0 3d dc 74 b1 bd
       0.1096885 0.110315345 0.10951537 -0.08664867
0003e0 8a fd 19 3c e1 00 aa 3d 49 47 7d bd 10 e5 50 bc
       0.009398827 0.08300949 -0.06183556 -0.012749925
0003f0 a4 51 7e bd 0e 04 9f 3b af 84 74 bd 3e d9 14 bd
       -0.062089577 0.0048527783 -0.05969685 -0.03633999

model.backbone.layers.0.channel.0.bias f4 [32]
000000 f7 a5 ba bd cc f9 ae bc 03 1c 2c 3d 1a d8 a2 3d
       -0.091136865 -0.021359347 0.0420189 0.07951374
000010 4b cf 12 3d 12 97 c3 bc 61 36 aa 3d 02 ff 29 3c
       0.03584222 -0.023875747 0.08311153 0.01037574
000020 60 86 96 bd da 25 d5 bc bf 9e 56 bd de 35 a1 bd
       -0.07349849 -0.026019026 -0.052397486 -0.078716025
000030 c7 55 d2 3c c5 01 83 3d 6a ca 39 bb ee a0 f4 3d
       0.025675667 0.06396822 -0.0028349408 0.119447574
000040 93 b0 b4 bd 97 a7 2c 3d e3 53 03 3e 85 03 ff bc
       -0.08822741 0.042152014 0.12824969 -0.031129608
000050 70 5a 99 3d 92 9c 3d bc 9c ee bd 3b fb 85 83 bd
       0.07487953 -0.011572974 0.0057962667 -0.06422039
000060 a1 34 a5 bc 8a fe 9c 37 03 88 4b 3d 4c f0 95 bd
       -0.020166697 1.8715178e-05 0.049690258 -0.073212236
000070 88 ba cd bd 21 85 9c bd bd be 75 3d 55 b8 f9 3b
       -0.10045344 -0.0764258 0.059996355 0.007620851

model.backbone.layers.0.channel.2.weight f4 [74, 32]
000000 ed c0 97 3c dc a9 69 3d b1 cf a2 3d 67 6b ef 3d
       0.018524611 0.057046756 0.0794977 0.11690407
000010 78 07 08 3e f5 43 4a 3d ab fa c9 3d a3 16 39 be
       0.13284099 0.049381215 0.09862264 -0.18075041
000020 f6 bf d8 bd 3d da 36 be 0a 8c 2f be 61 11 46 3e
       -0.10583489 -0.17856689 -0.17143264 0.19342567
000030 6a 36 6d bb 61 e9 1b be 17 34 8b bd e3 13 14 be
       -0.0036195763 -0.15225746 -0.06797045 -0.14460711
000040 e2 c8 02 bc 8e 97 0c be 35 2d fb 3d f8 94 ae bd
       -0.0079824645 -0.13729689 0.12264482 -0.08524507
000050 0b 0c de 3d 11 48 11 be f8 53 77 be cb 86 b0 bc
       0.10842141 -0.14187647 -0.24153125 -0.02154865
000060 34 48 06 bd f1 16 3d be 7f 42 89 bc 7e 13 8d bd
       -0.032783702 -0.18465783 -0.01675534 -0.068884835
000070 a4 ac fd bd fe 9e 2d 3d 40 08 e6 bd 25 fa 06 be
       -0.12386444 0.042387955 -0.11232042 -0.1318136
000080 74 1e 97 bd 04 f8 e5 bd cc 9a 14 3e 8a 82 a2 bd
       -0.07378855 -0.11228946 0.14512175 -0.079350546
000090 b8 8d b2 3d 73 c1 d3 bd 5c e2 28 be 13 af bd 3d
       0.08718437 -0.10339632 -0.16492599 0.092619084
0000a0 90 18 cf 3c 05 8d 00 be 31 5e 11 be d4 5a 41 bd
       0.025280267 -0.12553795 -0.14196087 -0.04720576
0000b0 f2 47 0d 3e 91 a3 5e 3d cf 62 98 3d ce 6e a5 3d
       0.13796976 0.054355208 0.07440721 0.08077775
0000c0 64 70 a9 3d 76 db 92 3d 96 80 9f bd 51 9a c6 3b
       0.0827339 0.07170765 -0.07788198 0.0060608764
0000d0 a9 51 66 3d 39 ce 23 be c5 98 19 be 66 b8 24 be
       0.05623022 -0.15996636 -0.14999683 -0.16085967
0000e0 38 fd c3 bd 50 85 19 be a0 d0 8d bd 62 7a 85 3d
       -0.09569782 -0.14992261 -0.06924558 0.06517483
0000f0 4f 37 86 bc 27 29 dc bc 04 54 24 3d 13 4b 36 be
       -0.016383795 -0.026875092 0.040119186 -0.17802076
000100 43 ca e3 3d b7 2a 1a be 02 30 1b be 0d 10 18 bc
       0.11122563 -0.15055357 -0.15155032 -0.009281171
000110 b0 47 7e bc f6 24 82 3d 12 a8 ad 3d 11 04 ad 3d
       -0.015520021 0.06354706 0.084793225 0.08448041
000120 10 22 95 bd 24 1f f1 bd 3e 0a 36 3e dd 9d c6 3b
       -0.072818875 -0.11773518 0.17777345 0.0060612992
000130 4e 4b ab bd 63 b2 52 3d 69 51 c2 bd 8b 47 45 3d
       -0.083639726 0.051439654 -0.09488184 0.04816393
000140 56 97 3a 3e 4c 7e ac 3d f0 cb 8e bc 04 a9 57 3d
       0.18221793 0.08422527 -0.01743123 0.05265142
000150 4c 7e fd 3d d6 2b 05 3c 16 19 08 3e 41 43 18 3e
       0.12377605 0.008128127 0.1329082 0.14869405
000160 b9 cb 63 be 41 80 1c 3e 40 26 05 3e e1 19 12 be
       -0.22245683 0.152833 0.13002872 -0.14267685
000170 2e 5c c0 3c f5 a9 cb 3d 74 6e 18 be ad 91 35 3e
       0.023481455 0.09944526 -0.14885885 0.17731352
000180 eb 18 8c bd c1 28 48 3c 29 05 06 bb da ed c8 bd
       -0.0684069 0.012216748 -0.0020449853 -0.098109916
000190 01 6c 12 be a0 be b8 bd f3 28 4e be 9b 4e 15 3e
       -0.14299013 -0.09020734 -0.20132808 0.14580767
0001a0 b5 42 03 be 00 62 e8 bc 8f 76 35 be 4c f9 ec bd
       -0.12818415 -0.028367043 -0.17721008 -0.11570987
0001b0 7f e8 0d 3e fb d9 c2 39 c8 48 1a 3e ef 42 b3 3c
       0.13858221 0.00037164972 0.15066826 0.021882502
0001c0 2a 0b 9f 3d c2 1c 28 be 3d ff e6 3d 0f 8f 9e 3d
       0.07765801 -0.1641722 0.112791516 0.0774213
0001d0 90 a2 a5 3d ea 9c 61 be 5e 3d 8d bc cb 5b 9d 3d
       0.08087647 -0.22032514 -0.017241176 0.07683524
0001e0 47 d5 69 3e e3 a5 a0 bd 89 5f 12 3e e6 3b d4 3d
       0.22835265 -0.078441404 0.14294256 0.10362987
0001f0 af fd 2a 3e f0 c1 9f bd e5 33 3f bd 37 7d 88 3d
       0.16698335 -0.078006625 -0.04668035 0.06664508
000200 80 f7 e7 3d 06 ff 2b 3e 0f 94 2c be d8 da c5 bd
       0.11326504 0.16796502 -0.16853355 -0.09660882
000210 ea 01 27 be 9f 97 98 3d c6 cf 33 be a5 eb 23 be
       -0.16309324 0.074507944 -0.17559728 -0.1600786
000220 50 4e 5f 3d 2f fc c6 bd 19 db 5c be 2e 02 33 be
       0.054518044 -0.09716069 -0.21567954 -0.174813
000230 e9 cf 8a bc 02 2f 49 bd f0 d8 98 bd 8e f0 9d 3d
       -0.016944842 -0.049117096 -0.074632525 0.07711898
000240 12 2f 54 3e 17 57 14 3e f9 d0 1e 3d 6e 1f ae bd
       0.20721081 0.14486347 0.03877351 -0.085020885
000250 ff 03 9e bd be 01 8f bd ee b5 e3 bc 4c 11 a6 3d
       -0.07715606 -0.06982754 -0.027796712 0.08108768
000260 1a 52 c8 3d ab ac 39 be c3 e1 d6 3d 64 f2 17 be
       0.09781285 -0.18132274 0.104922794 -0.14838558
000270 4f 63 fb 3c 43 ef 19 be d0 1f 1e 3e 68 19 96 bd
       0.030687002 -0.15032677 0.15441823 -0.073290646
000280 ef 97 f8 bd 84 ee 9e 3d a2 15 3d bd b9 01 0f bd
       -0.12138354 0.07760337 -0.04616321 -0.034913752
000290 d3 2e 93 3d fb c1 67 bd d4 06 09 3c dc a8 b5 3d
       0.071866654 -0.05658148 0.008363444 0.08870098
0002a0 b3 5b 23 3e 52 2a ab 3d ee 8f 4a 3d 79 f7 20 3e
       0.15952949 0.08357681 0.04945367 0.15719403
0002b0 cc 69 8c 3d 83 4a 10 bd f8 32 85 3c 9b 52 05 be
       0.06856117 -0.03522731 0.016259655 -0.13019793
0002c0 40 2e cb bd c8 42 04 3d 23 e6 b9 bc 54 53 c1 3d
       -0.09920931 0.03229025 -0.022692746 0.09439722
0002d0 b4 bb 4f bc 37 f5 15 3e c1 2c e2 bc d6 8f 93 3d
       -0.012679029 0.14644323 -0.027609231 0.07205169
0002e0 41 20 9a bd f3 20 7f 3d 29 7e 9f bd 05 3d 9f 3d
       -0.07525683 0.062287282 -0.07787735 0.077753104
0002f0 f0 79 38 be 30 38 11 3e 67 e8 b1 3d 14 ac fa 3b
       -0.18015265 0.1418159 0.08686905 0.007649908
000300 c7 08 5b bd ac e7 0e be be 58 3b bd bf 9c a8 bd
       -0.053475168 -0.13955563 -0.045738928 -0.08233022
000310 cd 26 50 3d 38 e3 3f be b5 a8 cf bd 30 70 f3 bd
       0.050818253 -0.18739021 -0.101396 -0.118866324
000320 16 4c 0a be 60 c6 53 3c 5f c6 01 3e 2b 3c 16 bc
       -0.13505587 0.012925714 0.12673329 -0.009169619
000330 f1 02 c9 3d f3 a3 17 be 81 7a 15 3e ec 00 2b bc
       0.09815014 -0.14808635 0.14597513 -0.0104372315
000340 dc 4e 80 3d 58 23 89 3d ce 69 a6 bd 0c 51 3a bc
       0.06265041 0.066961944 -0.081256494 -0.011371862
000350 ac db a7 3d c9 84 98 3d 7b a1 1f be 26 12 af bd
       0.08196196 0.07447202 -0.15588944 -0.085483834
000360 1b ef 39 3e e8 8e 1d be 18 c8 39 3e ad 68 c9 bd
       0.18157618 -0.15386546 0.18142736 -0.098344184
000370 19 2a 32 bb 97 8a 11 be 17 8b 2a 3e 22 07 dd bd
       -0.0027185737 -0.14213024 0.16654621 -0.10792376
000380 a3 9e 16 be fa d1 9d bd 83 a7 e0 3d 96 d0 30 3d
       -0.14708953 -0.077060655 0.1096945 0.043167673
000390 24 09 22 bd 5e e3 16 be 58 f1 c1 3d 6e bc 5e 3d
       -0.0395595 -0.14735171 0.09469861 0.05437892
0003a0 52 b4 67 bd eb 96 f7 3d 9c ec 6d 3d fa 6d 0c bd
       -0.05656845 0.12089332 0.058086976 -0.03428457
0003b0 dc de 0a 3e 9d e6 3b 3d 67 a2 df bd 6d 50 a9 bd
       0.13561577 0.045874227 -0.10919648 -0.08267293
0003c0 58 e9 1d be 74 04 2b be 09 09 a2 3d ef b7 cb bc
       -0.15421045 -0.16700917 0.079118796 -0.02486798
0003d0 35 f1 f9 bd f9 51 ec bb e2 b7 58 be 0b c5 0b bc
       -0.1220421 -0.0072119203 -0.21163896 -0.008530865
0003e0 77 d0 66 3e 7b e1 57 3d 3a 53 1c 3d 85 2a 7b 3d
       0.2254046 0.05270527 0.03816531 0.061319847
0003f0 1f 93 82 bd 69 e9 8b 3d 5a 68 0d be 5e 3c 43 bd
       -0.06375717 0.06831629 -0.13809338 -0.047664993

model.backbone.layers.0.channel.2.bias f4 [74]
000000 59 15 11 be b9 8e 50 3b b2 66 ad bd a2 c9 8f 3d
       -0.141683 0.003182335 -0.08466853 0.0702088
000010 2f 26 f8 3d 81 d2 15 bd db 39 3b be 71 57 70 3d
       0.12116658 -0.036577705 -0.18283789 0.05867714
000020 cb 2b ba 3d a9 b5 8e 3b 94 36 84 bc 42 6a 90 bc
       0.09090384 0.0043551517 -0.016139306 -0.017628793
000030 0b db 1b 3e 87 4a a0 3d 61 10 94 3d 33 7f eb bc
       0.15220277 0.07826715 0.072296865 -0.028747177
000040 54 61 c7 bd 4a 66 f0 3c 90 4f be bc 14 49 ce bd
       -0.09735361 0.02934565 -0.023231298 -0.10072532
000050 94 1f 77 3d a1 c3 e1 bd df 1d 49 3d df 4c 8e bd
       0.06033285 -0.110236414 0.049100753 -0.06948256
000060 cc ca 55 bd de 9a ce bc ac 92 0d 3e 22 06 b5 bd
       -0.052195355 -0.02522033 0.13825482 -0.0883906
000070 4f af 09 3c 0c 5e 1b 3e 8e 19 15 be ed 89 c7 3d
       0.008403613 0.15172595 -0.1456053 0.09743104
000080 8d cb 44 bd 56 da 04 3d 92 a2 ee 3d e8 32 35 bd
       -0.048045684 0.032434784 0.116521016 -0.044238
000090 b5 ae 04 3e 88 8e e9 3c 0e e3 08 be 59 87 a4 bd
       0.1295727 0.028510347 -0.13367864 -0.08033628
0000a0 86 c6 10 3d 01 dc d9 bd d8 ee 82 bd b4 fc eb 3d
       0.035345577 -0.106376655 -0.06393212 0.11522809
0000b0 73 00 3d 3c 32 0d e1 3d fe 1d fe bd dd 62 55 bd
       0.011535752 0.10988845 -0.12408064 -0.052096236
0000c0 d6 7a 56 bd 51 3b 8d 3d d6 ad 19 3d 25 6a 54 bd
       -0.05236324 0.06896079 0.0375193 -0.05185904
0000d0 3d 3f 38 3d 5b 77 e8 bd b0 59 18 3e cc 59 33 be
       0.044982184 -0.1135089 0.14877963 -0.17514724
0000e0 95 c4 25 bc ea d7 d5 3d 7c fa 0a be b4 d1 66 bd
       -0.01011767 0.10441573 -0.13572115 -0.056352332
0000f0 4a f5 02 be 8f 3d 2c bd b4 57 09 3d c9 af 06 3e
       -0.12788883 -0.042050894 0.033530906 0.13152994
000100 7f f6 15 be c8 e2 bd bb f2 6a 03 be a2 51 ee bd
       -0.14644812 -0.0057948567 -0.12833765 -0.11636664
000110 84 b3 ab bd 55 09 80 3d d5 70 0e be fd 3e 13 be
       -0.08383849 0.0625178 -0.1391023 -0.14379497
000120 60 c1 f4 3d ae 44 ae 3d
       0.11950946 0.08509193

model.backbone.layers.1.temporal.0.weight f4 [32, 64]
000000 b4 88 43 bd 36 d8 8f bd cb d1 64 bd 18 d2 62 bd
       -0.047737792 -0.07023661 -0.055864137 -0.055376142
000010 27 ce 32 3c 54 e3 ba bc 9a e7 26 3e ad 36 81 bb
       0.010913408 -0.022813477 0.16299286 -0.0039432854
000020 c6 53 e8 3d 4a 21 92 3d ab e1 37 3c 23 ee 69 bd
       0.113441035 0.07135256 0.011223237 -0.05711187
000030 d5 86 14 bd 45 53 06 bd c3 7a 4f bd 33 30 62 bd
       -0.0362614 -0.032794256 -0.050654184 -0.055221748
000040 72 89 85 bd 6e 25 e2 bc ca 20 ae bd 55 5a 8d 3d
       -0.06520356 -0.027605738 -0.08502348 0.06901995
000050 1b 09 1e 3d 1a 35 85 3d fa c0 a0 3d 80 71 09 3e
       0.038582902 0.06504269 0.07849307 0.13422203
000060 09 3d 7d 3b 74 f2 73 bd 71 77 97 bd ea 36 9a bc
       0.0038641116 -0.059557393 -0.073958285 -0.018825013
000070 33 09 ae bd de fd 97 3d 63 e3 92 bc b6 84 e8 bd
       -0.08497848 0.07421468 -0.017930692 -0.113534376
000080 64 ad d4 3d 1f 28 e5 bb a5 e1 f0 bd 09 63 43 bd
       0.10384634 -0.006993308 -0.11761788 -0.04770187
000090 41 1f df bd ba 5d 00 bd 83 74 16 bc a3 d2 cf bd
       -0.10894633 -0.031339385 -0.009183052 -0.10147598
0000a0 8a 4a d7 bd 5b 35 4c bc 31 9a ae 3d 2a 8d 53 bd
       -0.10512264 -0.012463893 0.085255034 -0.051648296
0000b0 95 bd 51 bd 6b 6d 87 3d a2 1a 00 3d 47 53 84 3d
       -0.05120619 0.06612667 0.0312754 0.064611964
0000c0 cb e0 18 3d 67 6f e1 bd 48 43 a7 3c bb e1 f2 3d
       0.037323754 -0.110075764 0.020417824 0.11859461
0000d0 84 7f c0 bd 85 06 22 3c c0 14 ab 3d f7 39 af 3d
       -0.09399322 0.00988925 0.08353567 0.08555978
0000e0 50 86 2e 3c 5a 8c c0 ba e2 ed 33 3d 7c 51 e7 bd
       0.01065214 -0.0014690266 0.043928035 -0.11294839
0000f0 d7 49 f6 bd 0e 2c 07 3d 56 11 52 bd 51 75 86 3d
       -0.120258026 0.033001 -0.051286064 0.06565345
000100 7f a4 dd bd 4d 7b 0c 3c 89 8f 9d bd 01 38 de 3d
       -0.10822391 0.008574319 -0.07693393 0.10850526
000110 a8 9f 78 3c 98 cf 95 bd b2 e9 d6 3d 45 3d e1 bd
       0.015174784 -0.07314986 0.104937926 -0.10998014
000120 6f 9d 17 bd 83 2f 05 bd 09 76 0d bd 8f 91 a7 3d
       -0.037015375 -0.032516014 -0.034536395 0.0818206
000130 cd 79 b2 bd fa 83 a0 3d 0a 98 eb bd c3 90 bf bd
       -0.08714638 0.078376725 -0.115036085 -0.09353783
000140 67 0c 06 be 02 6a f6 3b 6d 3a 59 3d 42 94 ab bd
       -0.13090669 0.0075199613 0.053034235 -0.08377887
000150 20 5e 89 bd 68 38 14 bd e9 1f 93 3d f9 10 ad 3c
       -0.06707406 -0.036186606 0.07183821 0.021126257
000160 05 36 5c bd 0b 96 86 bd ac 4f 20 bd 79 51 c7 bc
       -0.053762455 -0.06571587 -0.03913848 -0.024330841
000170 ab b3 a0 bd 86 70 f9 bc 51 c9 73 3d 0d 7b 58 3b
       -0.07846769 -0.030449163 0.059518162 0.0033032328
000180 3f 0a 9d bc 51 c8 b8 3c a6 ae 05 3d df 39 a2 bd
       -0.019169925 0.022556456 0.03263726 -0.07921194
000190 c0 6f 31 bd cb ec d1 bd a3 79 de bd e7 9d c1 3d
       -0.043319464 -0.10250243 -0.10863044 0.094539456
0001a0 5f c4 03 bc 4b d7 29 3d f3 0a 27 3c f1 05 a9 bd
       -0.008042424 0.041465085 0.010195482 -0.08253086
0001b0 aa c4 8f 3c 0b d2 cc bd 06 16 b1 3c 39 16 ab 3d
       0.017549831 -0.10001 0.021616947 0.08353848
0001c0 4f 30 c3 3b 4a 2e 8b bd 19 0d 91 3d 85 e9 0c be
       0.0059566866 -0.06795938 0.07082576 -0.13760956
0001d0 c4 83 29 38 f3 74 dc bd 76 b2 8b 3d 71 3a ab bc
       4.0415456e-05 -0.10764494 0.06821148 -0.02090189
0001e0 55 0c 9a 3c a2 b4 d4 bd 34 90 00 be 47 e8 29 3d
       0.018804708 -0.103860155 -0.12555009 0.041481283
0001f0 ef e1 c2 bc 21 ce 37 bd e5 ce 8a 3d 37 ba 81 3c
       -0.023789374 -0.044874314 0.06777743 0.015835864
000200 bd 5e 6b 3d dd 99 f8 bd 4f 8d 3a 3d 7a 9e 9e bd
       0.057463396 -0.12138722 0.04554492 -0.07745071
000210 cd e9 01 bc e7 ac ac bb 8f a6 33 bc 7a 3b 8f bc
       -0.007929278 -0.005269635 -0.010965004 -0.017484415
000220 75 ee ec 3c f5 c7 fc bd dc e8 bd bd d5 db 9d 3b
       0.028922299 -0.12342826 -0.0927293 0.004817466
000230 da 74 30 bc 41 de 13 bd 79 24 2e 3c 42 15 ec bc
       -0.010770047 -0.03610063 0.010628813 -0.02881873
000240 d6 d7 e9 bd b8 52 ca bb f1 73 09 be a4 f1 97 3d
       -0.114181206 -0.0061744116 -0.13423134 0.07419136
000250 a5 78 52 3d 33 e3 f9 3b 00 40 fa bd c1 67 f3 bd
       0.051384587 0.007625961 -0.12219238 -0.11885024
000260 c1 e7 74 bd 5d b1 16 3d 88 ae b0 bc ff 7e a3 bd
       -0.05979133 0.03679024 -0.021567598 -0.07983207
000270 0a 1d 80 3d 81 e8 a5 3d 39 a8 b1 3c 16 fc b3 3d
       0.06255539 0.08100987 0.02168666 0.08788316
000280 ac cc 91 bc 0b 5c 63 bd 51 55 c5 bd b1 5e f3 3c
       -0.01779779 -0.0555077 -0.096354134 0.029708238
000290 25 26 ac bd 26 49 7a bb 92 e3 7b 3d fc de 04 bd
       -0.08405713 -0.0038190573 0.061496325 -0.032439217
0002a0 51 c5 a7 bd 5c 78 6c bd 0b 1d cc bc 3d 34 c0 3c
       -0.08191932 -0.05773197 -0.024916193 0.02346241
0002b0 35 42 4a bd 82 6b d7 bc 3e ef cd bc de 7d 78 3d
       -0.049379546 -0.02629638 -0.025138494 0.06066691
0002c0 60 c5 ac bd 4b 35 90 3d 8a d1 92 bd eb be 48 3d
       -0.08436084 0.07041415 -0.07168873 0.0490102
0002d0 81 41 32 bd 0e 3f d9 bd a0 37 7a 3d 35 67 11 be
       -0.0435195 -0.1060773 0.061088204 -0.14199527
0002e0 38 ff 99 bd bb a3 f2 bd 2d 9d 93 3d 58 ee b5 3d
       -0.07519382 -0.11847635 0.07207713 0.08883351
0002f0 37 fc d4 3d 8a 41 ad bd a2 a1 95 bd 7a 9a c6 3b
       0.10399669 -0.08459766 -0.0730622 0.0060608955
000300 c2 7a ea bd fa c1 0b be a0 cf 7f 3b 85 a3 8d bc
       -0.114491954 -0.13648215 0.0039033666 -0.017289886
000310 50 38 bc bd d9 24 d2 bc 97 67 67 bd c1 44 a2 3d
       -0.09190428 -0.025652336 -0.056495275 0.0792327
000320 1a 0a 1d 3c f2 09 c7 3d 67 1d c4 3d 8d 99 72 bd
       0.009584928 0.09718694 0.095759206 -0.05922847
000330 94 a8 13 be eb a1 2c bd 62 26 89 bc 27 46 d5 bd
       -0.14419776 -0.042146605 -0.016741935 -0.10413771
000340 07 ce 88 3d f4 8d 95 3d 89 7b 4f bd 49 e7 ac ba
       0.066799216 0.07302466 -0.05065492 -0.0013191487
000350 88 ff ad 3c 90 6a 7f 3d 98 14 03 be cc 38 0c be
       0.02124001 0.062357485 -0.12800825 -0.13693541
000360 95 86 86 bd 99 b4 5f 3d 37 f3 fe 3c 63 45 7a 3d
       -0.06568638 0.05461559 0.031121833 0.06110133
000370 f3 9c e8 3d 96 67 64 bd 7e 88 1c 3d 7d 60 88 bc
       0.11358061 -0.05576285 0.038216107 -0.016647572
000380 af 62 8c bd fe 4f 15 bb e0 7e e7 bd b0 23 ac bd
       -0.0685476 -0.0022783275 -0.11303496 -0.08405244
000390 1b dd 2a bc 64 13 bc bd 3f 89 76 3d 92 67 81 bc
       -0.010428692 -0.09183386 0.06018948 -0.015796456
0003a0 c9 ff 11 be eb a9 3a 3d ee 3c 49 3d 59 dc d3 bd
       -0.1425773 0.045572203 0.049130373 -0.10344762
0003b0 8b 00 43 bd 4c 65 b5 bd 44 99 5a bd 22 1b f4 bd
       -0.04760794 -0.088572115 -0.05336882 -0.11919238
0003c0 d8 5c 89 3d 2b c5 4d bd 8c 84 c9 bd 83 11 96 3d
       0.06707162 -0.050236862 -0.098397344 0.07327559
0003d0 ba 39 ad 3c 2a 03 8a bd 10 f4 44 bd fa a7 da 3d
       0.02114569 -0.06738885 -0.04808432 0.1067657
0003e0 ea dc bb 3d 4b 1a 0a 3d 79 cd 0d be 53 df 07 bb
       0.091729954 0.03371648 -0.13847913 -0.0020732477
0003f0 0b 27 41 bd 74 18 46 3d 20 a1 eb 3d b5 c2 57 3d
       -0.047156375 0.048363164 0.115053415 0.05267592
