experiments/AdversarialDomainAdaptation/saved_models/tsmixer_da_pretrained_0.pt (torch, 731036 bytes, 30 tensors)

model.backbone.static_proj.weight f4 [64, 10]
0	0x3dc7d3b1	0.09757174
1	0x3d2f3b21	0.042781
2	0xbd03229c	-0.032015428
3	0x3d381f87	0.04495194
4	0xbd1cecb8	-0.03831169
5	0x3e69548f	0.22786163
6	0xbe6a97f6	-0.22909531
7	0x3de12688	0.109936774
8	0x3d76cc2d	0.06025331
9	0xbdf85e1d	-0.12127326
10	0x3cbc233f	0.022966025
11	0x3c30dd09	0.010794886
12	0x3e3da79f	0.18520974
13	0xbc97feb2	-0.018554065
14	0x3e94beb0	0.29051733
15	0xbe5130d7	-0.20428787
16	0x3cfc02e4	0.030763097
17	0xbd8436f4	-0.06455794
18	0xbcf48c4e	-0.029852059
19	0xbd828164	-0.063723356
20	0xbcd71577	-0.026255352
21	0xbd46c3da	-0.048526622
22	0xbdded71e	-0.10880874
23	0x3d5528d7	0.0520409
24	0xbdd25e30	-0.10271871
25	0x3d2926ba	0.0412967
26	0x3c39a68c	0.011331212
27	0xbd4ffaf8	-0.05077645
28	0xbce2e4e2	-0.02769703
29	0xbda48f21	-0.08035112
30	0x3c37b39d	0.011212257
31	0xbab09fbd	-0.001347534
32	0x3e693bf7	0.22776781
33	0x3dac2280	0.08405018
34	0x3d9a69af	0.07539689
35	0x3e5afe48	0.21386063
36	0xbd849227	-0.06473189
37	0x3e293bd2	0.16526726
38	0x3dcf2fa6	0.1011651
39	0x3d560735	0.052252967
40	0x3d6a9a4b	0.05727605
41	0xbcc92553	-0.02455393
42	0x3eb2f4f8	0.3495252
43	0x3e4be5e8	0.19911921
44	0x3e88f710	0.26750994
45	0xbda46eee	-0.08028971
46	0x3df34b77	0.11879628
47	0x3df538a8	0.11973697
48	0x3ecc19cd	0.39863434
49	0xbdd78fd1	-0.10525478
50	0xbda9c378	-0.08289236
51	0x3d3afab4	0.045649245
52	0x3dbca41e	0.0921099
53	0x3e03de6b	0.12877814
54	0x3d880d5e	0.066431746
55	0x3e2bede2	0.16789964
56	0x3dbc3070	0.09188926
57	0x3b3423b8	0.002748711
58	0x3dc500c1	0.096192844
59	0xbdb243f9	-0.08704371
60	0xbcdba150	-0.026810318
61	0x3d10d615	0.035360415
62	0x3dfbd016	0.122955486
63	0x3cb5eabe	0.02220666
64	0x3e3fdb47	0.18735991
65	0xbd2df008	-0.04246524
66	0x3da8d3f0	0.08243549
67	0xbdd2fdca	-0.10302313
68	0x3cfa08d0	0.03052178
69	0xbda693da	-0.08133669
70	0x3e3421c8	0.17591012
71	0xbd4d6144	-0.050141588
72	0xbc356a51	-0.011072711
73	0xbe1a7a86	-0.15085801
74	0xbe9a4147	-0.30127928
75	0xbe7197c4	-0.2359305
76	0xbe7f38bb	-0.24923985
77	0x3e48a574	0.19594365
78	0x3d947e36	0.07250635
79	0x3ec12cf8	0.3772962
80	0xbe822e93	-0.25426158
81	0xbd3ed9c9	-0.046594415
82	0x3ee70c33	0.45126495
83	0x3d5b3e75	0.05352636
84	0x3ee40f1f	0.44542786
85	0xbdd10210	-0.102054715
86	0x3e46a670	0.19399428
87	0xbce01255	-0.027352491
88	0xbbd2a248	-0.006428037
89	0x3d73d37c	0.05952786
90	0xbbd99fce	-0.0066413647
91	0x3d7d8d78	0.061902493
92	0x3d8067ae	0.06269775
93	0x3db663b9	0.08905739
94	0xbc5d816f	-0.013519629
95	0xbde20f1b	-0.110380374
96	0x3e0c16dc	0.13680595
97	0xbd96bae1	-0.07359863
98	0x3e06eecc	0.13177031
99	0xbc885a40	-0.016644597
100	0x3d929164	0.07156637
101	0xbbdf684d	-0.0068178535
102	0xbe2d7dd3	-0.1694253
103	0xbeb8d50c	-0.36100042
104	0x3db99b10	0.09062779
105	0xbed58f74	-0.4171101
106	0xbe51e0d9	-0.20495929
107	0x3d8a6271	0.067570575
108	0xbe9ee7ec	-0.31036317
109	0x39f686d0	0.0004702122
110	0x3d963ff5	0.073364176
111	0x3d06a5bf	0.03287291
112	0xbcdf0097	-0.027221961
113	0xbd5896db	-0.052878242
114	0xbe1eb672	-0.15499285
115	0xbd978f9d	-0.07400439
116	0x3d9db55d	0.07700608
117	0xbddd1a44	-0.107960254
118	0xbd3eb528	-0.046559483
119	0x3d1f6595	0.038915236
120	0x3de271c5	0.11056856
121	0x3d8a532c	0.06754145
122	0xbe1070b9	-0.141055
123	0xbe075792	-0.13216999
124	0xbc6019ff	-0.013678073
125	0xbe4551c7	-0.19269477
126	0x3db7d169	0.08975489
127	0xbdaa0d9f	-0.08303379
128	0x3d593824	0.053032055
129	0xbe07f593	-0.13277273
130	0x3dbb2db6	0.09139578
131	0x3d5febd1	0.05466825
132	0xbeab7b6f	-0.3349261
133	0x3dd07354	0.10178247
134	0xbd4971d1	-0.04918081
135	0xbdd596dd	-0.104291655
136	0xbd67667e	-0.05649423
137	0xbd7cbba4	-0.061702386
138	0xbddb81cc	-0.10718116
139	0x3d2ba11c	0.041901693
140	0x3d8a022b	0.06738695
141	0xbc4835f4	-0.012219895
142	0x3ebd5e7f	0.36986157
143	0xbd8c1252	-0.06839432
144	0x3d819854	0.063278824
145	0x3e389148	0.1802417
146	0xbbec0a5d	-0.007203384
147	0x3d8ed739	0.06974644
148	0x3e2a41f8	0.16626728
149	0xbdcef51e	-0.10105346
150	0x3d0545bc	0.032537207
151	0x3d0ce1b1	0.034394924
152	0xbe08c0f8	-0.13354862
153	0xbd15937d	-0.03651761
154	0x3e743f97	0.23852383
155	0xbe806b7d	-0.25082007
156	0x3d8e10fa	0.06936832
157	0x3d15c25b	0.036562305
158	0x3bdcd020	0.0067386776
159	0xbe250111	-0.16113688
160	0xbb96eeda	-0.00460611
161	0xbc4ac0e6	-0.012375092
162	0x3d0e13e5	0.03468694
163	0xbe80b898	-0.25140834
164	0x3e02e995	0.12784417
165	0xbe848655	-0.25883737
166	0xbc290630	-0.010316417
167	0xbbbcc2f5	-0.0057605454
168	0x3ddd56c7	0.10807567
169	0xbda3c892	-0.0799724
170	0xbc8713da	-0.016488958
171	0xbcd40e0c	-0.025885604
172	0x3e4fb46e	0.20283672
173	0xbe897656	-0.26848096
174	0xbdd83656	-0.10557239
175	0x3b8f480d	0.004372603
176	0xbe4c64d3	-0.19960336
177	0x3d9bf463	0.076149724
178	0x3e42229d	0.18958516
179	0xbe4ad12a	-0.19806352
180	0x3c019244	0.007908408
181	0x3d02cfa4	0.031936303
182	0x3e2dde5f	0.16979359
183	0xbc8db5d7	-0.017298622
184	0x3e36605a	0.17810193
185	0x3d910497	0.070809536
186	0x3dc1f373	0.094702624
187	0xbddbaee4	-0.10726717
188	0x3c991020	0.018684447
189	0x3da1cdbf	0.07900571
190	0xbd633cff	-0.055478092
191	0xbd89f4fa	-0.06736179
192	0x3e68ca64	0.22733456
193	0x3e3d607e	0.1849384
194	0x3e36f4cc	0.1786682
195	0x3db63f4c	0.08898792
196	0x3d8989b6	0.067157194
197	0xbd14f0e3	-0.03636254
198	0x3ddd215f	0.10797381
199	0x3c719b2e	0.01474647
200	0xbe1eeb28	-0.15519392
201	0xbc180c88	-0.009280331
202	0x3eb134e1	0.34610656
203	0x3c79b0f0	0.015239939
204	0x3e14d880	0.14535713
205	0xbde4d4fc	-0.11173436
206	0x3dfe053d	0.12403343
207	0xbdb142f0	-0.086553454
208	0xbd84914a	-0.06473024
209	0x3ddba288	0.1072436
210	0x3cd3152c	0.025766931
211	0xbb83ae70	-0.0040185973
212	0xbe6994a6	-0.22810611
213	0xbdc85c1c	-0.097831935
214	0xbeaba6e5	-0.33525768
215	0x3e5336dc	0.20626396
216	0xbd0a45d7	-0.03375801
217	0xbd30eb05	-0.043192882
218	0xbc6895ec	-0.0141959
219	0xbb66e2ab	-0.003523032
220	0xbbdb1d94	-0.0066868756
221	0x3c3bc3e8	0.011460282
222	0xbeb0d56f	-0.34537837
223	0x3da09ec6	0.07842784
224	0xbe895684	-0.2682382
225	0x3e87d42a	0.26529056
226	0x3e2294ed	0.15877123
227	0x3c2de901	0.0106146345
228	0xbe7ae9a4	-0.2450319
229	0xbe642902	-0.22281268
230	0x3c4d5657	0.012532792
231	0x3e7c911a	0.24664727
232	0x3e2d0f95	0.16900475
233	0x3e3c7881	0.18405344
234	0x3ec142ff	0.37746426
235	0xbe1cc7c5	-0.15310581
236	0x3e58467a	0.21120635
237	0xbdd270a8	-0.10275394
238	0xbe03beb4	-0.12865716
239	0xbe07b209	-0.13251509
240	0x3d053f8d	0.03253131
241	0xbdcb7ab2	-0.09935512
242	0xbe544b34	-0.20731813
243	0xbdcbabe7	-0.09944897
244	0xbd574ca0	-0.05256331
245	0xbe01962c	-0.12654942
246	0xbe065722	-0.13119176
247	0x3d9b6ff4	0.07589713
248	0xbdaa2ece	-0.083097085
249	0x3e2a0679	0.16604032
250	0xbc3fa6e7	-0.011697507
251	0x3c9a5aab	0.018842062
252	0x3c4b1ca6	0.012396967
253	0xbd2c69dd	-0.042093147
254	0x3d897b57	0.06712978
255	0xbdf47f94	-0.11938396

model.backbone.static_proj.bias f4 [64]
0	0xbd6bcf27	-0.057570603
1	0xbe19c280	-0.15015602
2	0x3e19c572	0.15016726
3	0x3d9d4b0b	0.07680329
4	0xbe32b121	-0.17450382
5	0xbe00ce63	-0.1257873
6	0xbd508000	-0.05090332
7	0xbda72d2b	-0.08162912
8	0x3d9ea9be	0.077472195
9	0xbe196f56	-0.14983878
10	0x3e7891e6	0.24274406
11	0xbdc118ce	-0.09428559
12	0x3d116005	0.035491962
13	0x3d1c7379	0.03819606
14	0xbde760d0	-0.112977624
15	0x3e0ca227	0.13733731
16	0xbd5b3d44	-0.053525224
17	0xbe855c0e	-0.26046795
18	0x3ded645c	0.11591408
19	0x3df8f474	0.12156001
20	0xbe5df3e7	-0.21675073
21	0x3b4843f6	0.0030558086
22	0xbed9315b	-0.42420468
23	0x3e3e6e3c	0.18596739
24	0x3e19a390	0.150038
25	0x3da15574	0.07877627
26	0x3e1b1001	0.15142824
27	0x3b7299fd	0.0037018054
28	0x3db2264c	0.08698711
29	0xbc279547	-0.010228462
30	0xbd679960	-0.056542754
31	0x3dfd3b8b	0.123648725
32	0x3bcae837	0.006192233
33	0x3dff839c	0.12476274
34	0xbd9f5df3	-0.07781591
35	0xbcc99168	-0.024605468
36	0x3cb4fad8	0.022092268
37	0xbe2b32e8	-0.16718638
38	0xbe82ef1f	-0.2557306
39	0xbe077db0	-0.1323154
40	0xbc4e7ec0	-0.012603462
41	0xbd711b9b	-0.058864217
42	0x3cbfba3b	0.023404231
43	0xbdffc8e4	-0.12489489
44	0xbdf6c7a6	-0.12049799
45	0x3df6624e	0.12030469
46	0xbe69acf7	-0.22819887
47	0xbdc8d5ed	-0.09806428
48	0xbdc5454e	-0.096323594
49	0x3db087a7	0.08619624
50	0x3dcea259	0.10089559
51	0x3e3ad50b	0.18245332
52	0x3d98f295	0.07468144
53	0x3e6142e1	0.21998169
54	0x3e9134f0	0.283607
55	0x3d7b3211	0.061327044
56	0x3d407a79	0.0469918
57	0x3de74852	0.11293091
58	0xbd6d077b	-0.057868462
59	0x3f04bb49	0.51848274
60	0x3de7bf9b	0.11315843
61	0xbb986adb	-0.00465141
62	0xbd851f4c	-0.0650011
63	0xbe238f1e	-0.15972564

model.backbone.layers.0.temporal.0.weight f4 [32, 64]
0	0x3eb6b760	0.3568678
1	0x3d9a107e	0.07522677
2	0xbc8d020e	-0.017212894
3	0x3e27bc3d	0.16380401
4	0x3d1d66b4	0.038428023
5	0x3d35d6a0	0.044394135
6	0x3e203122	0.15643743
7	0x3d417ad5	0.047236282
8	0xbda51e84	-0.08062461
9	0xbe390744	-0.18069178
10	0xbdfe1805	-0.12406925
11	0x3bffba3b	0.007804183
12	0x3de03986	0.10948472
13	0xbd21ce91	-0.039503638
14	0xbd527a1b	-0.05138598
15	0xbe1f17d8	-0.1553644
16	0xbea7919f	-0.32728288
17	0xbdb0fae9	-0.08641607
18	0x3d693690	0.0569368
19	0x3dc26ae8	0.09493047
20	0xbd8385b4	-0.06421986
21	0x3d26e5b3	0.040746402
22	0x3dab7c4e	0.083733186
23	0xbe2362d0	-0.15955663
24	0xbe26fd24	-0.16307503
25	0xbe8599ea	-0.2609399
26	0xbe3b2c04	-0.1827851
27	0xbe5e8907	-0.2173196
28	0xbd53bcc0	-0.051693678
29	0x3e2a534c	0.16633338
30	0x3d9527d8	0.0728299
31	0x3e0e0e87	0.13872729
32	0x3dea7ff1	0.11450184
33	0x3e20e3ab	0.15711848
34	0xbb6c59f6	-0.0036064363
35	0x3e6ee506	0.23329553
36	0xbcfc88cd	-0.03082695
37	0x3db847fc	0.08998105
38	0x3e81d65f	0.25358865
39	0x3e47ddd9	0.19518222
40	0x3e584eac	0.21123761
41	0x3de742d7	0.112920456
42	0x3d5ba7e3	0.053626906
43	0xbf0584de	-0.52155864
44	0xbea8ded8	-0.32982516
45	0x3da6a9e5	0.081378736
46	0x3d7a85b1	0.061162654
47	0xbe27906c	-0.16363686
48	0xbe4ae21e	-0.1981282
49	0xbe519d2c	-0.20470113
50	0xbe30ba52	-0.17258576
51	0xbe158371	-0.14600922
52	0x3dd2bbf7	0.10289758
53	0x3e0fd4aa	0.14045969
54	0x3e20b55f	0.15694188
55	0x3e84bf2c	0.25927103
56	0x3d54bc2a	0.05193726
57	0xbd9cc6f4	-0.07655135
58	0x3e1971d9	0.14984836
59	0x3ddd37c8	0.10801655
60	0x3dd075cc	0.10178718
61	0xbd5b6ec2	-0.053572424
62	0x3d897a74	0.06712809
63	0xbf1c21da	-0.60989153
64	0xbe2864c0	-0.16444683
65	0x3de3bc35	0.11119882
66	0xbdede0db	-0.116151534
67	0xbd1ba486	-0.0379987
68	0x3dcaba53	0.0989882
69	0x3d2d41f3	0.042299222
70	0x3d9e237b	0.07721611
71	0xbd69eaa5	-0.05710854
72	0xbe04c12e	-0.12964317
73	0xbe9bf4a0	-0.30460072
74	0xbd40adda	-0.047040798
75	0x3e309f70	0.1724832
76	0xbca0222f	-0.01954755
77	0x3dc8f07c	0.09811494
78	0xbce3ad74	-0.02779267
79	0x3e378c00	0.179245
80	0x3e1087a8	0.14114249
81	0x3e957f4f	0.2919869
82	0xbd1485e7	-0.03626051
83	0xbef035cc	-0.46916044
84	0xbe822ffb	-0.2542723
85	0x3d7ae66e	0.06125491
86	0x3df4390d	0.11924944
87	0x3e80da73	0.25166664
88	0x3ef2fc50	0.47458124
89	0x3e4ba807	0.19888316
90	0xbe122a63	-0.14273982
91	0xbea506cf	-0.32231757
92	0x3d0e65bc	0.03476499
93	0xbe00714c	-0.1254322
94	0xbdbe2246	-0.09283881
95	0x3d76a090	0.060211718
96	0xbd2f4f72	-0.042800374
97	0x3d87f6e3	0.06638887
98	0xbc7bcb54	-0.015368301
99	0x3da0a638	0.07844204
100	0x3d36f94f	0.044671353
101	0xbc855290	-0.01627472
102	0x3d02b4ed	0.031910826
103	0x3d6a2de1	0.05717266
104	0x3e3c0b3d	0.18363662
105	0x3e6428ea	0.22281232
106	0x3d8daf9d	0.06918261
107	0x3ded0621	0.115734346
108	0xbdd3b621	-0.10337473
109	0xbddafcfe	-0.10692786
110	0x3e72cde6	0.23711357
111	0xbde9837b	-0.11402031
112	0xbb1def59	-0.002409896
113	0xbcca2ca2	-0.024679486
114	0xbd8be3c3	-0.068305515
115	0xbdfc2cca	-0.1231323
116	0xbe4ea089	-0.20178427
117	0xbea3dd9e	-0.32005018
118	0xbebd8ac4	-0.37019932
119	0xbe90670d	-0.28203622
120	0xbd6b7009	-0.057479892
121	0x3e2a36b3	0.16622429
122	0x3e5be476	0.2147387
123	0xbe1061f7	-0.1409987
124	0x3e756f65	0.23968275
125	0x3e227542	0.15865043
126	0x3e60aa7f	0.21940039
127	0xbc2f8f9e	-0.010715393
128	0x3e7e6cd1	0.24846198
129	0xbdc7d9af	-0.09758317
130	0xbe5efbd3	-0.21775751
131	0xbce00e06	-0.027350437
132	0x3d9e7bad	0.07738433
133	0x3e70fc94	0.23533851
134	0xbdc4fd08	-0.096185744
135	0x3cf3bd95	0.029753486
136	0xbcaf8d4a	-0.021429677
137	0xbe37d975	-0.17954047
138	0xbe389cf9	-0.1802863
139	0xbe4d0bcf	-0.20024036
140	0x3ddb4418	0.10706347
141	0xbda33883	-0.07969763
142	0x3d8a4ca9	0.06752903
143	0x3d540ccd	0.05177002
144	0x3ea24788	0.316952
145	0xbde14fd9	-0.11001558
146	0x3da48314	0.08032814
147	0x3d34d8dd	0.04415213
148	0xbe88a4b8	-0.2668817
149	0x3d9c0824	0.0761874
150	0xbc8898f7	-0.016674502
151	0x3d163b59	0.036677692
152	0x3e3c8ca6	0.18413028
153	0x3e3b777c	0.18307298
154	0x3dd5047c	0.10401246
155	0xbda44d24	-0.08022526
156	0x3e289391	0.16462542
157	0xbe35880f	-0.17727683
158	0x3eb85205	0.36000076
159	0xbdd14a30	-0.10219228
160	0xbe7e2b44	-0.24821192
161	0xbcd27baf	-0.025693743
162	0x3ea352be	0.31899065
163	0x3e6979ef	0.2280042
164	0x3da1b38f	0.07895576
165	0x3d52d1ae	0.051469497
166	0x3e7b127c	0.2451877
167	0x3e8f5dd3	0.2800127
168	0x3e84f555	0.25968423
169	0x3cc5e505	0.024157057
170	0xbe868819	-0.2627571
171	0xbe9ed6fd	-0.31023398
172	0xbe884cd9	-0.2662113
173	0xbe2c8c2f	-0.16850351
174	0xbd3eb7d8	-0.046562046
175	0xbe81b973	-0.253368
176	0x3da09e45	0.078426875
177	0x3e211a1f	0.1573262
178	0xbdfcfab7	-0.123525076
179	0xbdf08724	-0.11744526
180	0x3e178d45	0.14799984
181	0x3c4b834e	0.012421442
182	0xbe9a828c	-0.30177724
183	0xbe289e20	-0.1646657
184	0xbb6cfc83	-0.003616125
185	0x3e3c4600	0.18386078
186	0x3d5e1948	0.05422333
187	0xbd52b8b2	-0.05144567
188	0xbd25cd0c	-0.04047875
189	0x3e7102aa	0.23536173
190	0x3e63004b	0.2216808
191	0xbf23ca9f	-0.6398105
192	0x3ca7a8d3	0.020466244
193	0xbe08c882	-0.13357738
194	0xbe2e8682	-0.17043498
195	0x3de6f968	0.11278039
196	0x3e1ca0a9	0.15295662
197	0x3e05c27b	0.1306247
198	0x3d3fe577	0.046849694
199	0x3e0b9287	0.13630114
200	0xbcaf6e9d	-0.02141505
201	0x3e000725	0.12502725
202	0xbdd15f26	-0.10223226
203	0x3e17716c	0.14789361
204	0x3d048afd	0.032359112
205	0xbc962e9d	-0.018332774
206	0x3d18cbf5	0.037303884
207	0x3cdbc30b	0.026826402
208	0x3e8472df	0.2586889
209	0x3e44d7aa	0.19222894
210	0x3e324a4b	0.17411153
211	0x3d87d1fc	0.06631848
212	0x3df02c85	0.117272414
213	0x3d6c1098	0.057633013
214	0xbd89c992	-0.067278996
215	0xbccfdf21	-0.02537495
216	0x3cf2ccd9	0.029638695
217	0x3e57407d	0.21020694
218	0x3c728817	0.014802954
219	0x3d7442a3	0.059633862
220	0x3d798d46	0.060925744
221	0xbe8a81e3	-0.2705222
222	0xbeb10e9b	-0.34581456
223	0xbd93edd3	-0.07223096
224	0xbe4cf318	-0.20014608
225	0xbcbfc276	-0.023408156
226	0x3d82d6ed	0.0638865
227	0xbda1d311	-0.07901586
228	0x3d3b23de	0.045688502
229	0xbce12f87	-0.027488483
230	0x3cd65556	0.026163738
231	0xbd9c2370	-0.07623947
232	0x3cea743a	0.028619874
233	0xbd9e4fd9	-0.077300735
234	0xbe2ef05d	-0.17083879
235	0xbdfa68c1	-0.122270115
236	0xbe60efe5	-0.21966513
237	0xbe0b966d	-0.13631602
238	0xbe5bc717	-0.21462665
239	0xbdbdba68	-0.0926407
240	0xbe0b2aea	-0.13590589
241	0x3d362cfe	0.0444765
242	0x3a9222b6	0.0011149261
243	0x3da6d569	0.081461735
244	0xbd37da2a	-0.04488579
245	0xbcfdae5a	-0.030966926
246	0xbc44f7da	-0.012021983
247	0xbdcdfd48	-0.10058075
248	0xbe0e8510	-0.13917947
249	0xbdcf9391	-0.10135568
250	0x3d09bd9a	0.033628084
251	0xbe65a157	-0.22424828
252	0xbe4f8ee7	-0.20269357
253	0xbe1a763e	-0.15084168
254	0xbe36b4c7	-0.17842399
255	0xbf37ac34	-0.71747136

model.backbone.layers.0.temporal.0.bias f4 [32]
0	0xbf5f1f3a	-0.8715702
1	0xbfb6affc	-1.4272456
2	0xbf8005a5	-1.0001723
3	0xbf488f07	-0.7834324
4	0xbf92d23e	-1.1470411
5	0xbf7dc2e0	-0.9912548
6	0x3c933671	0.017970296
7	0xbe1bd3b4	-0.15217477
8	0xbf7c44c8	-0.9854245
9	0xbf5168ae	-0.81800354
10	0xbfa10dca	-1.2582333
11	0xbf7a7b2d	-0.978442
12	0x3d994c4b	0.07485255
13	0xbf99c97a	-1.2014611
14	0xbf90161a	-1.1256745
15	0xbfab523e	-1.3384473
16	0x3dec968d	0.11552153
17	0xbfadde5b	-1.3583483
18	0xbfa5042f	-1.2891902
19	0xbf81b7ab	-1.0134176
20	0xbf97acdb	-1.1849626
21	0xbfa593a2	-1.2935679
22	0xbf839be1	-1.0281945
23	0xbfa4d2e7	-1.2876862
24	0xbf29a4f7	-0.6626734
25	0xbfa2f30f	-1.2730426
26	0xbf50a8e3	-0.815077
27	0xbfbcae53	-1.47407
28	0xbf84ae83	-1.0365757
29	0xbf87c284	-1.0606236
30	0xbfa81f42	-1.3134539
31	0xbf311ed1	-0.6918765

model.backbone.layers.0.temporal.2.weight f4 [64, 32]
0	0x3de0d26d	0.109776355
1	0x3eaa631c	0.3327874
2	0xbe02ff41	-0.12792684
3	0x3db621ae	0.08893143
4	0xbd5826d5	-0.052771408
5	0x3d5c0ec9	0.053725038
6	0xbd511ed4	-0.05105479
7	0xbe083d0c	-0.13304538
8	0xbda51195	-0.08059994
9	0x3c50d497	0.012745998
10	0x3d75deff	0.06002712
11	0xbe2d15b0	-0.16902804
12	0xbe0e5001	-0.13897707
13	0xbd475755	-0.04866727
14	0x3e7c27dc	0.2462458
15	0xbe2f2010	-0.17102075
16	0xbde7ce92	-0.11318697
17	0xbd5eb8e8	-0.05437556
18	0x3e6c0c3e	0.23051545
19	0xbe30c34b	-0.17261998
20	0x3df0442b	0.11731752
21	0xbdc14746	-0.094374225
22	0xbe9ed790	-0.31023836
23	0xbce71d5e	-0.028212246
24	0x3d32d23c	0.043657526
25	0xbe0dc565	-0.13844831
26	0x3e635187	0.22199069
27	0xbe0b59c3	-0.1360846
28	0xbc8c2bdd	-0.01711076
29	0xbc228ee8	-0.009921767
30	0xbe54002c	-0.2070319
31	0x3df8333e	0.12119149
32	0xbb9bc5da	-0.0047538104
33	0xbda4f2e6	-0.08054142
34	0xbe8e956d	-0.27848378
35	0x3eaa8db6	0.33311242
36	0x3d0bc7ca	0.03412608
37	0x3dd96908	0.10615736
38	0xbc479201	-0.012180806
39	0x3d791c02	0.060817726
40	0xbe180060	-0.14843893
41	0x3d8a5171	0.06753815
42	0xbe06b84e	-0.13156244
43	0x3d4e5484	0.05037357
44	0x3e09efe3	0.13470416
45	0xbe93ec3e	-0.28891176
46	0x3cbfe008	0.023422256
47	0xbc992664	-0.018695064
48	0x3b3cc04b	0.002880114
49	0xbdded0b3	-0.1087965
50	0x3e038ddf	0.12847088
51	0xbe78668d	-0.2425787
52	0x3e6a14d3	0.22859506
53	0xbd9b270e	-0.075758085
54	0xbea8d92c	-0.3297819
55	0xbe716045	-0.2357188
56	0x3d46afa2	0.04850734
57	0xbdfb2556	-0.12262981
58	0x3db823d5	0.089912094
59	0xbc8b12aa	-0.016976673
60	0x3e2bce07	0.16777812
61	0xbe47f5bd	-0.19527335
62	0xbe0007d5	-0.12502988
63	0x3e2df59d	0.16988225
64	0x3dec736a	0.11545451
65	0x3e4dff13	0.20116834
66	0x3e7dc9b6	0.24783978
67	0x3e17b13d	0.14813705
68	0xbdf827b4	-0.12116948
69	0x3ea82a60	0.3284483
70	0x3dce72bf	0.1008048
71	0x3d9d7455	0.07688204
72	0x3ddb5287	0.107091
73	0xbe8ea042	-0.27856642
74	0xbddc31c0	-0.107516766
75	0xbe91dd14	-0.28488982
76	0xbe683a07	-0.22678386
77	0xbd5e68aa	-0.054299034
78	0x3e965d36	0.2936799
79	0x3e948fb0	0.29015875
80	0xbebd98d5	-0.37030664
81	0xbcc05ece	-0.023482706
82	0x3e192732	0.14956358
83	0xbe898513	-0.2685934
84	0xbe807594	-0.25089705
85	0x3c8b2a39	0.016987907
86	0x3d838a18	0.06422824
87	0x3ee5ed39	0.4490755
88	0x3e086539	0.13319863
89	0x3e05871f	0.13039826
90	0x3e55db63	0.2088447
91	0xbda97565	-0.08274344
92	0x3dd9388e	0.1060649
93	0x3e0b818e	0.1362364
94	0x3e2d21f6	0.16907486
95	0x3c50b3d8	0.012738191
96	0x3be26e94	0.0069101546
97	0xbd647c55	-0.055782635
98	0x3cb40737	0.021976097
99	0xbe26b4a9	-0.16279854
100	0xbd515644	-0.05110766
101	0xbda9acf1	-0.08284939
102	0x3ebb4681	0.36577228
103	0xbc39beff	-0.011337041
104	0xbdc25d40	-0.09490442
105	0x3e2fd0ee	0.17169544
106	0x3e02c6f9	0.12771215
107	0xbd1a3718	-0.037650198
108	0xbeba01e2	-0.3632956
109	0xbd6957a6	-0.056968354
110	0x3e13a662	0.14418939
111	0xbe20d524	-0.15706307
112	0xbbdc7883	-0.0067282333
113	0x3df4fbb6	0.119620726
114	0x3df246c1	0.118299015
115	0x3daebe77	0.08532422
116	0xbe84348c	-0.2582134
117	0xbe7cbf3d	-0.24682327
118	0xbdb2a25c	-0.08722374
119	0x3d9410a0	0.072297335
120	0xbe1cb04a	-0.15301624
121	0x3e0803cd	0.132827
122	0xbdca0a26	-0.09865217
123	0x3d9eda98	0.07756537
124	0x3e5b08cf	0.21390079
125	0x3d899143	0.067171596
126	0x3e3498cb	0.17636411
127	0xbc2990a6	-0.010349428
128	0x3e6ba56d	0.23012324
129	0x3e29201e	0.16516158
130	0xbf064460	-0.5244808
131	0x3c18b5ab	0.009320657
132	0x3e253e0b	0.16136949
133	0xbc5e6a92	-0.013575213
134	0x3e483b0d	0.19553776
135	0xbe4ddb8f	-0.20103286
136	0xbd1652a5	-0.03669991
137	0xbe02fbe0	-0.12791395
138	0x3e845e8b	0.2585338
139	0x3dcc6dc2	0.09981872
140	0xbe5510a8	-0.20807135
141	0xbe7311bc	-0.23737234
142	0x3d9b290c	0.075761884
143	0x3dcac43d	0.09900711
144	0xbd2fb5f4	-0.042898133
145	0x3dae9ed8	0.08526391
146	0x3e2d7e30	0.16942668
147	0xbed1d2cc	-0.40981138
148	0x3e5bad55	0.2145284
149	0xbe7b13ee	-0.24519321
150	0xbe1695c4	-0.14705569
151	0x3d83f4f2	0.06443204
152	0x3e253e59	0.16137065
153	0xbe6ee9ea	-0.23331419
154	0x3e8e3c9d	0.2778062
155	0xbe5d40cf	-0.21606754
156	0x3ddcdef5	0.10784713
157	0x3e4d3d74	0.20042974
158	0xbebdde70	-0.3708377
159	0x3e646fd9	0.22308291
160	0x3e824ee8	0.25450826
161	0x3e483c45	0.19554241
162	0xbe6bb28f	-0.23017333
163	0xbe0c3e81	-0.13695718
164	0x3eae1c79	0.34006098
165	0xbdfde890	-0.123978734
166	0x3e0c38cc	0.13693541
167	0xbe9fb919	-0.31195906
168	0x3d607868	0.05480233
169	0x3e046db0	0.12932467
170	0xbc6f8906	-0.014620071
171	0xbce53d22	-0.027983252
172	0x3daab6fa	0.08335681
173	0xbd576af3	-0.05259223
174	0xbd55fbb7	-0.052242007
175	0xbd55fadc	-0.05224119
176	0xbe8ba22b	-0.27272162
177	0xbddb561a	-0.10709782
178	0x3e81c7e0	0.25347805
179	0xbd47cee7	-0.0487813
180	0x3d6d9d89	0.058011565
181	0xbcbe1fd0	-0.023208529
182	0x3d98ae98	0.07455176
183	0xbe737bc6	-0.23777685
184	0xbe260178	-0.16211498
185	0x3dc03e60	0.09386897
186	0x3dc01f44	0.093809634
187	0x3e04c719	0.12966575
188	0x3d5d48f1	0.05402464
189	0x3d37a8bf	0.044838663
190	0xbc427a32	-0.011869954
191	0xbe210b1e	-0.15726897
192	0x3d079401	0.033100132
193	0x3dd97d57	0.1061961
194	0x3dc89474	0.0979394
195	0x3eb025b9	0.3440378
196	0xbcc45db9	-0.023970472
197	0x3d7d86f6	0.061896287
198	0x3d9f45ed	0.07777009
199	0x3e83766f	0.25676295
200	0xbd8fabd4	-0.070151955
201	0xbda254eb	-0.07926353
202	0x3d885854	0.06657472
203	0xbea5bb8e	-0.32369655
204	0x3da4eb41	0.080526836
205	0xbe47dd9d	-0.19518133
206	0x3da70d45	0.08156828
207	0xbb107fd9	-0.002204886
208	0xbc763dd2	-0.015029388
209	0xbd9b3358	-0.075781524
210	0x3e7bea08	0.24600995
211	0xbe969ffc	-0.29418933
212	0x3d686f58	0.05674681
213	0x3e1b163d	0.15145202
214	0xbebfddb0	-0.37473822
215	0x3e2d4e9c	0.16924518
216	0x3e6e27ae	0.23257324
217	0xbc9e608d	-0.019333148
218	0x3ddadedc	0.10687038
219	0xbdbe0285	-0.09277824
220	0xbdb0e3b4	-0.08637181
221	0xbde8847e	-0.11353396
222	0xbe1ef50c	-0.15523165
223	0x3e4814f7	0.19539247
224	0x3dbd6959	0.09248609
225	0xbe952663	-0.2913085
226	0xbe74d2f3	-0.23908596
227	0x3dc0dc6a	0.09417041
228	0xbd959510	-0.07303822
229	0xbd8b8036	-0.06811564
230	0xbd8e8aa8	-0.0696004
231	0xbe80f778	-0.25188804
232	0xbc6df3ea	-0.014523486
233	0x3cbcb5db	0.023035934
234	0x3e9bd668	0.30437016
235	0xbc2a57de	-0.010396926
236	0xbb637826	-0.0034709065
237	0xbe1aa854	-0.15103275
238	0x3e1e99b7	0.15488325
239	0x3e309de2	0.17247728
240	0xbe147f80	-0.14501762
241	0xbe3dc833	-0.18533401
242	0xbd2889e6	-0.041147135
243	0xbcd17811	-0.025569947
244	0x3bfe5d6b	0.007762601
245	0xbec7a3c4	-0.3899213
246	0xbd9a063f	-0.075207226
247	0xbc69897a	-0.014253968
248	0x3e14e3d3	0.14540033
249	0xbd91f66c	-0.07127079
250	0x3e716684	0.23574263
251	0x3cc8a8c3	0.024494534
252	0xbe2ffb74	-0.17185766
253	0xbdef9325	-0.116979875
254	0xbdca8993	-0.098895214
255	0xbc62263c	-0.013803061

model.backbone.layers.0.temporal.2.bias f4 [64]
0	0x3d6c7428	0.057727963
1	0xbc3d7cdc	-0.011565413
2	0x3db2db0a	0.08733185
3	0xbc8214e8	-0.01587911
4	0x3d2c69d4	0.042093113
5	0x3d592f2a	0.053023495
6	0xbcff8b49	-0.031194346
7	0x3d61f7ea	0.05516807
8	0x3e131d77	0.14366709
9	0x3d057bc9	0.032588754
10	0x3c019f28	0.007911481
11	0x3d281e83	0.041044723
12	0x3d25fd12	0.04052455
13	0xbcec7bf3	-0.028867697
14	0x3c716154	0.0147326775
15	0x3dd23704	0.102644
16	0x3ca92f8f	0.02065256
17	0x3d76f3c3	0.060291063
18	0x3e4d9ab4	0.20078546
19	0x3db671d9	0.089084335
20	0xbc0d39e4	-0.008619759
21	0x3da0e4a5	0.078561105
22	0x3cd1ec5a	0.025625397
23	0xbcc08007	-0.023498548
24	0x3d86fd9c	0.06591341
25	0xbd06df22	-0.03292764
26	0x3d94afed	0.07260118
27	0xb8b4bbe4	-8.618066e-05
28	0x3dab793e	0.083727345
29	0x3b326cf3	0.0027225583
30	0x3dfca821	0.123367555
31	0x3d259b2d	0.04043119
32	0x3e27e82c	0.1639716
33	0x3dad73c7	0.084693484
34	0x3d003d16	0.031308256
35	0x3dd1e5c6	0.10248904
36	0x3d06ff9b	0.032958608
37	0x3db18ac5	0.08669046
38	0x3dda79c9	0.1066776
39	0x3e19565a	0.14974347
40	0x3ccd4ff8	0.025062546
41	0xbc7539ee	-0.014967425
42	0xbccff2fd	-0.02538442
43	0x3d2ff3c7	0.042957094
44	0x3c6a9693	0.014318126
45	0x3cd39ae2	0.02583069
46	0x3e00edc3	0.12590699
47	0xbcd45678	-0.025920138
48	0xbd7fc451	-0.06244308
49	0x3c9c54b0	0.01908335
50	0xbce0471c	-0.027377658
51	0xbd5f2402	-0.0544777
52	0x3e0dd586	0.13850984
53	0xbc8426e0	-0.016131818
54	0x3dc90fe7	0.09817486
55	0x3cbe1649	0.023203986
56	0x3bff5f9d	0.0077933804
57	0xbd6e686f	-0.058205064
58	0x3cfe2fd3	0.031028664
59	0x3dae09c6	0.08497958
60	0xbd85433c	-0.065069646
61	0x3d89c25f	0.067265265
62	0x3d37cb69	0.04487172
63	0x3cd6506a	0.026161391

model.backbone.layers.0.channel.0.weight f4 [32, 74]
0	0x3e054ef4	0.130184
1	0x3dca4fc6	0.09878497
2	0x3e014356	0.12623343
3	0xbe5f3e06	-0.21801004
4	0xbd65d42f	-0.056110557
5	0xbeb71b84	-0.3576318
6	0xbda744aa	-0.081673935
7	0xbe0f2fe4	-0.13983113
8	0xbdad8f14	-0.084745556
9	0x3d9fbbc3	0.077994846
10	0x3e9d20cd	0.30689088
11	0x3e8af520	0.2714014
12	0xbd856958	-0.06514233
13	0xbe21d1ef	-0.1580274
14	0x3ea278a1	0.31732658
15	0x3d896e76	0.06710522
16	0x3d599294	0.053118303
17	0x3e82d3e0	0.25552273
18	0x39b04239	0.00033618676
19	0x3e89ef05	0.2694017
20	0xbea23bfa	-0.31686383
21	0x3d18df8b	0.037322562
22	0xbe5d8dde	-0.2163615
23	0xbd12802f	-0.035766777
24	0x3d982bd9	0.07430238
25	0xbee89b2d	-0.4543089
26	0x3dbe9fa9	0.093077965
27	0x3ebe0c57	0.3711879
28	0xbe1f49b4	-0.1555546
29	0xbd903b02	-0.07042505
30	0x3ec17094	0.37781203
31	0xbda3d267	-0.079991154
32	0x3f0f4df1	0.55978304
33	0xbe84ce0f	-0.2593846
34	0xbe62e1da	-0.22156468
35	0xbe8e6d50	-0.27817774
36	0xbe6a1dcd	-0.2286293
37	0x3ded3db2	0.11584033
38	0xbdb98cbe	-0.090600476
39	0x3d1257e9	0.03572837
40	0x3db9f65f	0.09080195
41	0x3d227a9c	0.03966771
42	0xbe445019	-0.1917118
43	0xbe7c26cc	-0.24624175
44	0x3d5088a5	0.050911564
45	0x3e365e0f	0.17809318
46	0xbe11b9ea	-0.14231077
47	0x3e3900d1	0.18066718
48	0x3e5732f9	0.21015538
49	0x3e3811c8	0.17975533
50	0xbd1a94f6	-0.037739716
51	0xbde62ee8	-0.112394154
52	0xbdca68b8	-0.09883255
53	0xbb7d39e2	-0.0038639237
54	0x3e96f7f5	0.2948605
55	0xbc366235	-0.011131813
56	0x3d884f12	0.066557065
57	0x3e809ebb	0.25121102
58	0x3e508388	0.20362675
59	0x3cdf2b40	0.027242303
60	0x3cdd3bb3	0.027006006
61	0xbeb668b4	-0.35626757
62	0x3c562823	0.013071093
63	0xbebd9c02	-0.37033087
64	0xbdc2c66f	-0.095105045
65	0x3bf9681c	0.0076112878
66	0xbe36b3a6	-0.17841968
67	0xbe2c3612	-0.16817501
68	0x3e625187	0.22101413
69	0xbf2feab9	-0.68717533
70	0xbeefc82e	-0.46832412
71	0xbd078fe8	-0.033096224
72	0x3df08a22	0.11745097
73	0x3e748fa1	0.23882915
74	0xbe97d50b	-0.29654726
75	0x3ee94207	0.45558187
76	0x3cdc31a5	0.026879141
77	0xbec6931d	-0.38784114
78	0x3dd9258b	0.10602864
79	0x3e13810e	0.14404699
80	0x3e07255f	0.1319785
81	0xbd301fc7	-0.042999055
82	0xbd6dcdba	-0.058057524
83	0xbd4a1edc	-0.049345836
84	0xbd88c5b8	-0.06678337
85	0x3d012c42	0.03153635
86	0xbe4462ec	-0.1917836
87	0xbd248b37	-0.040171828
88	0x3e50491d	0.2034039
89	0x3df19b1b	0.11797162
90	0xbc9d8c09	-0.019231813
91	0xbdbdfe1a	-0.09276982
92	0xbd51b7a5	-0.051200528
93	0xbe18902e	-0.1489875
94	0xbe4812ac	-0.19538373
95	0xbe6792fa	-0.22614661
96	0xbe6829f5	-0.22672255
97	0x3c7d193b	0.01544791
98	0x3d567b7d	0.05236386
99	0x3da16116	0.07879846
100	0xbdfa5490	-0.1222316
101	0xbdb1c915	-0.086809315
102	0xbe0d62c6	-0.1380721
103	0xbde9d1ef	-0.11416995
104	0x3c3d6e4e	0.011561943
105	0xbdb0c17d	-0.08630655
106	0x3cb8adb2	0.022543762
107	0xbe868bfd	-0.26278678
108	0x3d319381	0.04335356
109	0xbe4a9b4e	-0.19785807
110	0xbe1904f6	-0.14943299
111	0x3d9da104	0.07696727
112	0xbc9a6fb8	-0.0188521
113	0x3d26ca79	0.040720437
114	0xbd668725	-0.056281228
115	0x3d009dd0	0.0314005
116	0xbda36ba7	-0.079795174
117	0x3e35d583	0.1775723
118	0xbda322db	-0.079656325
119	0x3d3e7671	0.046499673
120	0x3e0d8989	0.13821997
121	0xbdc6103a	-0.09671064
122	0x3e40d839	0.18832482
123	0xbc83193c	-0.016003244
124	0x3d8de440	0.06928301
125	0x3d8da8d7	0.06916969
126	0xbd41e06e	-0.047333173
127	0x3cbc483b	0.02298366
128	0x3e1b47d8	0.15164125
129	0x3e07a89b	0.13247912
130	0x3cf9c74b	0.030490538
131	0x3b1258aa	0.002233068
132	0x3e479015	0.19488557
133	0xbdc3a575	-0.09553043
134	0xbb883185	-0.004156294
135	0xbeb2be8b	-0.34910998
136	0x3d87adce	0.066249475
137	0x3df80e37	0.12112086
138	0xbdce7c19	-0.100822635
139	0xbdc80c2d	-0.09767947
140	0xbe8db158	-0.27674365
141	0x3e4a781f	0.19772385
142	0xbceb750f	-0.028742341
143	0xbeafdddb	-0.3434895
144	0x3c049fac	0.008094709
145	0x3e121661	0.1426635
146	0x3e10cd35	0.1414078
147	0x3d59ffb1	0.053222362
148	0xbd33626b	-0.04379503
149	0x3e49d364	0.19709545
150	0xbd88a856	-0.066727325
151	0x3d951373	0.072791
152	0x3e740e0a	0.2383348
153	0xbea5cd86	-0.32383364
154	0xbc82dbbf	-0.015973924
155	0x3d866d3a	0.06563802
156	0x3d42e188	0.047578365
157	0x3d8fea17	0.07027071
158	0xbebbf639	-0.3671129
159	0x3e01dc9a	0.12681809
160	0xbdd51f79	-0.104063936
161	0xbea37118	-0.3192222
162	0xbd631ec9	-0.05544928
163	0x3d3fe6a6	0.046850823
164	0x3dce88ac	0.10084662
165	0x3d09db7b	0.03365658
166	0xbe2f5dc7	-0.17125617
167	0x3cc5018d	0.024048591
168	0xbe9bc6d7	-0.3042514
169	0xbd4add6b	-0.049527567
170	0x3b90a16d	0.0044137747
171	0xbe275d4f	-0.16344188
172	0xbd8e7367	-0.06955605
173	0xbea2ded5	-0.31810632
174	0xbc866a03	-0.016407972
175	0xbcad5e75	-0.021163205
176	0xbe26cd92	-0.16289356
177	0xbe233ae9	-0.15940441
178	0x3e32d832	0.17465284
179	0xbdaa79f4	-0.08324042
180	0x3ea2bf9d	0.31786814
181	0xbeba36ab	-0.36369833
182	0xbe262795	-0.16226037
183	0xbcf3a053	-0.029739534
184	0xbea39aca	-0.31954032
185	0xbd5663d5	-0.0523413
186	0xbe8143e3	-0.25247106
187	0x3d3992d3	0.045306038
188	0xbdae7c01	-0.085197456
189	0xbe76b769	-0.24093403
190	0xbdc891cb	-0.09793433
191	0xbda86ba3	-0.08223655
192	0x3e70c949	0.23514284
193	0x3cc48cdc	0.023992948
194	0x3eaa26e0	0.33232784
195	0xbe0e78da	-0.13913289
196	0x3e41c045	0.18921001
197	0x3d3470bf	0.044052836
198	0xbd84cb3e	-0.06484078
199	0xbccdc3f0	-0.025117844
200	0xbc9a6456	-0.018846672
201	0x3e79d71a	0.24398461
202	0xbdd2883f	-0.10279893
203	0xbe2abb7f	-0.16673087
204	0x3dd1a873	0.10237207
205	0x3df2c4da	0.11853953
206	0x3ee818dd	0.4533147
207	0xbd9e7a24	-0.0773814
208	0xbe099655	-0.13436253
209	0xbdc5bbce	-0.096549615
210	0xbe034377	-0.12818705
211	0xbe7cd094	-0.24688941
212	0xbeb39893	-0.35077342
213	0x3d8cce5b	0.06875297
214	0xbdb5356d	-0.08848081
215	0xbdbd88ff	-0.092546456
216	0x3e050793	0.1299117
217	0xbe82ba70	-0.25532866
218	0x3d7a1a02	0.06105996
219	0x3e8630c6	0.26209086
220	0x3e050929	0.12991776
221	0x3df523d0	0.11969721
222	0x3db822af	0.0899099
223	0x3d1669b0	0.036721885
224	0xbe01034f	-0.12598918
225	0xbe93a2f8	-0.28835273
226	0xbdd51e95	-0.10406224
227	0xbda790c0	-0.08181906
228	0xbd9bb223	-0.07602336
229	0xbe10c2f1	-0.14136864
230	0xbcfff4cf	-0.031244664
231	0x3def10ca	0.11673124
232	0xbe555f26	-0.20837077
233	0x3de82e27	0.11336928
234	0xbe4b77b3	-0.1986988
235	0x3d325c81	0.04354525
236	0x3e40ca96	0.1882728
237	0x3e14b25a	0.1452116
238	0x3d809ae1	0.06279541
239	0x3d56d78c	0.052451655
240	0xbd418723	-0.047248017
241	0xbd9f57bb	-0.07780405
242	0xbe97215c	-0.2951764
243	0x3d82be5f	0.06383967
244	0x3afa252f	0.0019084568
245	0x3cd8c0a3	0.026459044
246	0x3d96c104	0.073610336
247	0xbd7b35ac	-0.061330482
248	0x3d27c696	0.04096087
249	0xbe6be5e8	-0.23036921
250	0x3e959f80	0.2922325
251	0xbe0b08f2	-0.13577631
252	0x3de0b5cf	0.10972177
253	0x3d549e2a	0.05190865
254	0xbe47c8cd	-0.19510193
255	0xbe98875f	-0.2979078

model.backbone.layers.0.channel.0.bias f4 [32]
0	0xbf17696f	-0.59145254
1	0xbe9e2843	-0.30890092
2	0xbeb05b15	-0.3444449
3	0xbeb2c1e6	-0.34913558
4	0xbf022937	-0.5084414
5	0xbe88eb19	-0.26741865
6	0xbe9755af	-0.2955756
7	0xbea9a45d	-0.33133212
8	0xbedb3777	-0.42815754
9	0xbef37464	-0.47549736
10	0xbe7e2ed0	-0.24822545
11	0xbe3fc172	-0.18726137
12	0xbe9d67c6	-0.30743235
13	0xbee66721	-0.45000556
14	0xbf154321	-0.58305556
15	0xbe897954	-0.2685038
16	0xbe386d92	-0.18010548
17	0xbefb9fc8	-0.4914534
18	0xbeac8e7f	-0.33702466
19	0xbf19d93c	-0.600971
20	0xbeb20ed1	-0.3477693
21	0xbed363b6	-0.4128701
22	0xbee88a68	-0.45418096
23	0xbe9aa8bd	-0.30206862
24	0xbef45d5d	-0.4772748
25	0xbeff071b	-0.4981011
26	0xbece22ce	-0.4026093
27	0xbe534dee	-0.20635197
28	0xbf0f8333	-0.5605957
29	0xbe5f939c	-0.21833652
30	0xbf06a698	-0.5259795
31	0xbec7f51c	-0.3905419

model.backbone.layers.0.channel.2.weight f4 [74, 32]
0	0xbe53de2b	-0.20690219
1	0x3b0ea586	0.002176614
2	0x3e856f4f	0.26061484
3	0xbe628929	-0.22122635
4	0x3d631c00	0.055446625
5	0x3e21e266	0.1580902
6	0x3e3d6b2f	0.18497919
7	0xbec3d1ba	-0.38245946
8	0x3dd643c6	0.104621455
9	0xbe169b02	-0.14707568
10	0x3eace787	0.3377039
11	0xbe62bf0b	-0.2214319
12	0xbc30215c	-0.010750141
13	0xbe27891f	-0.16360901
14	0x3e54c36c	0.20777673
15	0xbe63e1dc	-0.22254127
16	0xbe22ad91	-0.15886523
17	0x3d714fc3	0.058913957
18	0x3ef4e2a9	0.47829178
19	0x3d20f4f2	0.039296098
20	0xbec4e5e9	-0.38456658
21	0xbd83afdc	-0.06430027
22	0xbeaf84df	-0.3428106
23	0x3e686803	0.22695927
24	0xbee4db44	-0.44698536
25	0xbe281ec6	-0.16417989
26	0xbf0579d2	-0.5213901
27	0x3eed50b2	0.46350628
28	0xbd2f48d8	-0.04279408
29	0x3dcaf872	0.099106684
30	0x3e25fb38	0.16209114
31	0xbd04e861	-0.032448176
32	0xbef36bf8	-0.4754331
33	0x3da2f3eb	0.0795668
34	0xbd996e23	-0.0749171
35	0x3d556e47	0.05210712
36	0xbd5679c0	-0.052362204
37	0xbe23c259	-0.15992106
38	0x3d723fdc	0.059142932
39	0xbdf3fcd7	-0.1191346
40	0x3e0445c9	0.12917246
41	0xbdd6c734	-0.10487214
42	0x3e69e62e	0.22841713
43	0xbe769753	-0.24081163
44	0x3d743478	0.05962035
45	0x3d92417f	0.07141399
46	0x3df957b0	0.12174928
47	0x3d61d50a	0.05513481
48	0xbe482722	-0.19546178
49	0xbde2e777	-0.11079305
50	0x3e4bfc8c	0.19920558
51	0xbdf44f30	-0.11929166
52	0xbe59bff4	-0.2126463
53	0xbe1d0107	-0.15332423
54	0xbe1d1d28	-0.15343153
55	0xbdcb510a	-0.09927566
56	0xbd616666	-0.055029295
57	0xbd8a3902	-0.067491546
58	0xbe614480	-0.21998787
59	0x3e273ab1	0.16330983
60	0xbbf29cbd	-0.0074039386
61	0xbd91e009	-0.071228094
62	0x3d88657e	0.06659983
63	0xbd667cae	-0.056271248
64	0x3e047905	0.1293679
65	0xbee026f9	-0.43779734
66	0xbd9b53e3	-0.075843595
67	0xbdd4765f	-0.1037414
68	0x3c5a2dec	0.013316613
69	0x3e82ca4a	0.2554496
70	0x3df5f228	0.12009078
71	0xbf1a095e	-0.60170543
72	0xbc85d8de	-0.016338762
73	0xbd07eb19	-0.03318319
74	0x3e2eb65b	0.1706175
75	0xbdd620d2	-0.10455479
76	0x3d6b6bf5	0.057476003
77	0x3e2df4d6	0.16987929
78	0xbe4996e2	-0.19686463
79	0xbcd4efa2	-0.025993172
80	0xbd5ef0fb	-0.054429036
81	0x3dbf2ea5	0.093350686
82	0x3c8b3388	0.016992345
83	0x3e80efe3	0.2518302
84	0xbd4c5d0a	-0.049893416
85	0xbe03d772	-0.12875155
86	0xbecbb44f	-0.39786002
87	0xbda8a3f1	-0.08234394
88	0x3da9c46b	0.08289417
89	0xbe078d05	-0.13237388
90	0x3c5bc0a8	0.013412632
91	0xbf0efc3c	-0.5585363
92	0xbe54d3d6	-0.20783934
93	0xbeaa7497	-0.33292076
94	0xbc17aca9	-0.009257474
95	0xbe1fab47	-0.15592681
96	0xbad7096f	-0.001640601
97	0x3c7daf23	0.01548365
98	0xbd50c34c	-0.0509675
99	0x3ceaaf32	0.028647993
100	0x3cfc1c05	0.03077508
101	0x3cd96447	0.026537074
102	0x3bc6181b	0.006045354
103	0xbca69c76	-0.020338278
104	0x3d73b0d5	0.059494812
105	0xbf0f5a08	-0.5599675
106	0xbdb9a404	-0.090644866
107	0x3b5cac9c	0.003367222
108	0xbbe887bf	-0.0070962603
109	0x3d8fb1d0	0.07016337
110	0xbc3a7ca4	-0.011382256
111	0xbcff62c2	-0.031175021
112	0x3da16862	0.078812376
113	0xbce2deee	-0.027694192
114	0xbd670f12	-0.056410857
115	0xbd030fb5	-0.0319974
116	0x3c9963b1	0.018724294
117	0x3d2b66fd	0.041846264
118	0xbbb2b20e	-0.0054533547
119	0x3c176e45	0.009242599
120	0x3c9dd087	0.019264473
121	0x3d537bbc	0.051631674
122	0x3ceec551	0.029146822
123	0x3d45af1d	0.048262704
124	0xbc3b27b5	-0.011423041
125	0xbd0b9585	-0.03407814
126	0xbda23da5	-0.07921914
127	0xbdb33942	-0.087511554
128	0xbe4f9a4e	-0.20273706
129	0x3c82d411	0.015970262
130	0x3d0221c8	0.031770498
131	0x3d17b470	0.037037313
132	0xbd1b72e5	-0.03795137
133	0x3e586399	0.21131743
134	0x3dfa67ba	0.122268155
135	0xbdd0f1b2	-0.1020235
136	0xbe6d06f3	-0.23147182
137	0xbdaa75b3	-0.083232306
138	0xbd19b0fa	-0.037522294
139	0xbe7bf09d	-0.24603505
140	0xbd8cd873	-0.06877222
141	0xbe903941	-0.2816868
142	0xbe06d659	-0.13167705
143	0xbe00c972	-0.12576845
144	0x3d478545	0.04871108
145	0xbe6d3313	-0.23164015
146	0x3d7a31d9	0.061082695
147	0x3dad904f	0.0847479
148	0xbe7646aa	-0.24050394
149	0xbe4253a6	-0.18977222
150	0x3acd1e38	0.0015649265
151	0x3e63dd8a	0.22252479
152	0x3d92ecfc	0.071741074
153	0x3e22b879	0.15890683
154	0xbe40c572	-0.1882532
155	0x3ea9b1f9	0.33143595
156	0x3d9bc441	0.07605792
157	0xbda850b4	-0.08218518
158	0xbd1843de	-0.0371741
159	0x3d8dbdc7	0.06920963
160	0x3dc89ee6	0.097959325
161	0xbdb0d3b5	-0.0863413
162	0x3ee602aa	0.44923908
163	0xbe4d6663	-0.20058589
164	0xbe488110	-0.19580483
165	0x3c46720e	0.012112154
166	0xbdfefbfc	-0.12450406
167	0x3e772819	0.2413639
168	0x3e061d90	0.13097215
169	0x3d8bb4de	0.06821607
170	0xbd09d92d	-0.03365438
171	0x3cc47caf	0.023985235
172	0xbcd10a9c	-0.025517754
173	0x3e664aba	0.22489443
174	0xbe20d167	-0.1570488
175	0xbcf3c47f	-0.029756783
176	0xbdbac8be	-0.0912032
177	0x3e1a3343	0.15058617
178	0xbe967453	-0.29385623
179	0xbdabf520	-0.08396363
180	0x3ee366e3	0.44414434
181	0x3d926ea8	0.07150012
182	0x3d98cbe2	0.074607626
183	0xbe9fe752	-0.3123117
184	0x3ec1468f	0.37749144
185	0x3dbedcf9	0.09319491
186	0xbd8ce750	-0.06880057
187	0xbe44de24	-0.19225365
188	0x3dde479b	0.108535014
189	0xbd69738a	-0.056994952
190	0xbc88796a	-0.016659457
191	0xbcd6988e	-0.02619579
192	0xbd933599	-0.07187957
193	0xbd705e33	-0.058683585
194	0xbdd290a3	-0.102814935
195	0x3e47e9a6	0.19522724
196	0x3d1cbc6c	0.03826563
197	0x3ea1f677	0.3163335
198	0x3daf13e1	0.085487135
199	0xbe8765f8	-0.26444983
200	0x3e3c2efe	0.18377301
201	0xbd9fd7a8	-0.07804805
202	0x3c95fee9	0.018310027
203	0xbe113acf	-0.1418259
204	0xbd35adb9	-0.044355128
205	0x3d80bbde	0.06285833
206	0x3eb92efe	0.36168665
207	0x3e30fc0c	0.17283648
208	0x3d8a327d	0.06747911
209	0xbe565847	-0.20932113
210	0x3e4fffba	0.20312396
211	0x3da46bf9	0.08028407
212	0x3e3b7df9	0.18309774
213	0xbd2fdeca	-0.042937078
214	0xbcf29fd1	-0.029617222
215	0xbe0248e7	-0.12723123
216	0x3ba1ee61	0.004941747
217	0x3e3f5171	0.18683411
218	0xbdfd75a3	-0.12375953
219	0x3e15f0ec	0.14642686
220	0x3d185585	0.037190933
221	0x3dbcb185	0.09213547
222	0x3dbcfac4	0.09227517
223	0x3d6d82e0	0.05798614
224	0xbdb29d71	-0.08721436
225	0x3d06ca8f	0.03290802
226	0x3d4c3458	0.049854606
227	0x3d8d2a6d	0.06892858
228	0xbdd1b086	-0.10238747
229	0x3e6156d2	0.22005776
230	0x3d89932f	0.06717526
231	0xbe4e7f81	-0.20165826
232	0x3c97cf4d	0.018531466
233	0xbdf6d1ad	-0.12051711
234	0x3d8d79c1	0.06907988
235	0xbdcbbe05	-0.09948353
236	0xbd0b793c	-0.034051165
237	0x3cec78cb	0.028866192
238	0xbc3df91b	-0.011595036
239	0x3e3544fb	0.17702095
240	0x3db67e5f	0.08910822
241	0xbe198b34	-0.14994508
242	0x3ee77ea5	0.4521381
243	0xbe1602be	-0.14649484
244	0x3e94e04b	0.29077372
245	0xbdcebb9c	-0.100943774
246	0xbdf44686	-0.11927514
247	0xbe4cb448	-0.19990647
248	0xbd029e9e	-0.03188955
249	0x3db6bdce	0.08922921
250	0xbe451b04	-0.19248587
251	0x3d721c6a	0.05910913
252	0x3e340096	0.17578349
253	0x3d1b793a	0.037957408
254	0xbe1cd822	-0.15316823
255	0xbe23d2d1	-0.15998389

model.backbone.layers.0.channel.2.bias f4 [74]
0	0x3b33d421	0.002743967
1	0x3e04934f	0.12946819
2	0x3e29f448	0.16597092
3	0x3cc202f7	0.023683054
4	0xb95ef2d3	-0.00021262029
5	0x3e1143c2	0.14186004
6	0xbcb498e6	-0.022045564
7	0xbcfc9344	-0.03083194
8	0x3c1a7719	0.009427809
9	0x3deeba66	0.116566464
10	0x3d8acb34	0.06777039
11	0x3b0dead3	0.0021654859
12	0x3c296ee8	0.0103413835
13	0x3c8120b4	0.015762664
14	0xbdaa149d	-0.08304713
15	0x3d1d2a92	0.038370676
16	0xbb85d660	-0.0040843934
17	0x3bc10194	0.0058900807
18	0xbdce5684	-0.10075095
19	0xbd3ed14e	-0.046586327
20	0xbdbc31b4	-0.091891676
21	0xbcbaceee	-0.02280375
22	0xbd35444a	-0.04425458
23	0xbd2b85e4	-0.041875735
24	0x3b70f44a	0.0036766701
25	0xbd9bf042	-0.07614185
26	0xbd939fcb	-0.072082125
27	0x3d52a37b	0.05142544
28	0x3d42b4a4	0.047535554
29	0x3d8b1e5b	0.06792899
30	0xbca71c33	-0.020399189
31	0x3d20780f	0.039176997
32	0x3dd57cda	0.10424204
33	0xbd4608ee	-0.04834836
34	0xbd7d4212	-0.061830588
35	0x3d874cfe	0.06606482
36	0xbd98ef0c	-0.074674696
37	0x3d9555f8	0.07291788
38	0x3cad2c66	0.021139335
39	0x3db38b16	0.08766763
40	0xbd20b941	-0.039239172
41	0xbc4af0af	-0.012386485
42	0x3cb661a3	0.022263354
43	0x3d29e73c	0.041480288
44	0xbc487dfd	-0.012237069
45	0xb808c769	-3.2610642e-05
46	0x3d159928	0.036523014
47	0xbcaeb24d	-0.021325255
48	0x3db1e6d7	0.08686607
49	0x3d4ac136	0.049500667
50	0xbd9f134b	-0.07767352
51	0x3dca9067	0.09890824
52	0x3cbe2923	0.023212975
53	0x3cbfbd41	0.023405673
54	0xbcaa3321	-0.020776333
55	0xbca5e5cb	-0.020251175
56	0xbde28915	-0.110613026
57	0xbcc1c0ad	-0.023651445
58	0x3cd27ee1	0.025695266
59	0xbdb02a86	-0.08601861
60	0x3d8055d9	0.06266374
61	0xbd2a2740	-0.041541338
62	0x3ce09dc5	0.02741898
63	0x3d374e9f	0.044752713
64	0xbdaf015f	-0.085451834
65	0xbcbd6723	-0.023120468
66	0x3e329a35	0.17441638
67	0xbceaaa8e	-0.02864578
68	0xbdec081a	-0.11524983
69	0xbcd9a3c3	-0.026567345
70	0xbe1d9b85	-0.15391357
71	0xbdd29b90	-0.102835774
72	0x3d868807	0.06568914
73	0x3c86d519	0.016459035

model.backbone.layers.1.temporal.0.weight f4 [32, 64]
0	0x3e4284db	0.18995993
1	0xbca59ce8	-0.02021642
2	0xbd34966a	-0.04408876
3	0x3e7676d6	0.2406877
4	0x3d8b752f	0.0680946
5	0x3d8ead3c	0.069666356
6	0xbdefe0e8	-0.11712819
7	0xbd30814e	-0.043092065
8	0xbe84cccf	-0.25937507
9	0x3d062556	0.03275045
10	0x3e023cbe	0.12718484
11	0x3ee800f2	0.4531322
12	0x3ec11d03	0.37717447
13	0x3ebd452d	0.3696684
14	0x3e7d23cb	0.24720685
15	0xbe37fd5c	-0.17967743
16	0xbccb5cb3	-0.024824476
17	0xbeb2919e	-0.34876722
18	0xbe9153f5	-0.28384367
19	0xbe1054f4	-0.14094907
20	0x3e47dbc6	0.1951743
21	0x3eed1e1e	0.4631204
22	0x3ecf11fa	0.40443403
23	0x3d996791	0.07490457
24	0xbe325126	-0.17413768
25	0xbde14d41	-0.11001063
26	0xbe895fac	-0.26830804
27	0xbd560995	-0.052255232
28	0x3e3f6ddf	0.18694256
29	0x3dd7a67a	0.105298
30	0xbe65c4a2	-0.2243829
31	0x3e5393dd	0.20661874
32	0xbe8014c1	-0.25015834
33	0xbd8fa3d7	-0.07013672
34	0xbe961f78	-0.29320884
35	0xbedfb1a9	-0.4369023
36	0xbf2ab226	-0.6667808
37	0xbf044fe1	-0.51684386
38	0xbe235eb8	-0.15954101
39	0xbdce731f	-0.10080551
40	0x3e41dadc	0.18931144
41	0x3e1f7d62	0.15575173
42	0x3eb7f2e0	0.35927486
43	0x3d8db85b	0.06919929
44	0xbd5c2fc1	-0.05375648
45	0xbe7a66ff	-0.24453352
46	0xbe381db8	-0.17980087
47	0xbe077418	-0.1322788
48	0xbda8d6e8	-0.08244115
49	0x3e503563	0.20332865
50	0xbd312f01	-0.043257717
51	0x3dcab5ee	0.098979816
52	0x3e472c0d	0.19450398
53	0x3eb516d1	0.3536897
54	0x3dbec342	0.09314586
55	0xbd7977cf	-0.060905274
56	0xbe6f7bc3	-0.23387055
57	0xbe3ab237	-0.18232046
58	0x3db81d29	0.08989937
59	0xbd6c4e43	-0.057691824
60	0x3af36cea	0.0018571888
61	0xbd9a8321	-0.07544542
62	0x3c8ddcdc	0.017317228
63	0x3d33243e	0.043735735
64	0x3f0f393d	0.55946714
65	0x3e92b781	0.28655627
66	0xbd8d2b88	-0.068930686
67	0x3da1fbfe	0.07909392
68	0xbeae8612	-0.34086663
69	0xbde14557	-0.10999554
70	0xbe881b8f	-0.26583526
71	0xbe0faf8d	-0.14031811
72	0xbed29c78	-0.41135
73	0x3e9e928d	0.30971184
74	0x3d30f479	0.043201897
75	0x3e65a534	0.22426301
76	0x3cfebd3b	0.031096091
77	0x3e7697b8	0.24081314
78	0x3defa08f	0.11700546
79	0xbe8184c5	-0.25296608
80	0xbc051b26	-0.0081241485
81	0xbe46bb4b	-0.19407384
82	0xbe9aa947	-0.30207273
83	0xbe827639	-0.25480822
84	0x3d3794d8	0.044819683
85	0xbe13193f	-0.143651
86	0x3e4c7973	0.19968204
87	0x3d4347cf	0.047675904
88	0x3e0fe4b4	0.14052087
89	0x3d846695	0.064648785
90	0xbe45376d	-0.19259425
91	0x3e9d4bf5	0.30722013
92	0x3ed19006	0.40930194
93	0x3e205e8f	0.15661071
94	0xbe1e28c4	-0.15445238
95	0xbdb999a1	-0.090625055
96	0xbe1f6301	-0.1556511
97	0xbd64e867	-0.0558857
98	0x3e15fe89	0.14647879
99	0xbd640787	-0.05567124
100	0x3df0bb71	0.117545016
101	0x3e091ef7	0.13390718
102	0xbe9984be	-0.29984087
103	0xbdafe0a0	-0.08587766
104	0x3eadff83	0.33984002
105	0x3e042f71	0.12908722
106	0x3e1fca51	0.15604521
107	0xbea430b5	-0.3206841
108	0x3e155488	0.14583027
109	0xbd7d26c5	-0.06180455
110	0x3c6d505d	0.014484492
111	0xbc7265c9	-0.014794775
112	0xbd8c2075	-0.06842128
113	0x3ce05c36	0.02738772
114	0xbe965374	-0.29360545
115	0xbea14800	-0.31500244
116	0xbd08ab87	-0.033366706
117	0x3d0f0124	0.034913197
118	0xbead172b	-0.33806738
119	0x3e5fa883	0.21841626
120	0xbdcc28b5	-0.09968702
121	0xbe65f9a4	-0.22458512
122	0xbe8ddafb	-0.2770613
123	0xbe813258	-0.25233722
124	0x3b88398d	0.004157251
125	0x3e6ddd67	0.2322899
126	0x3d2e7170	0.04258865
127	0x3e99a703	0.30010232
128	0xbdf52db5	-0.119716085
129	0xbedc328d	-0.43007317
130	0xbea30fe3	-0.31848058
131	0x3e468747	0.19387542
132	0xbde040fa	-0.10949893
133	0x3e8e0c62	0.27743822
134	0x3dbab754	0.09116998
135	0x3d87df34	0.066343695
136	0xbeca8887	-0.39557287
137	0x3e620b25	0.22074564
138	0xbba0ee4e	-0.0049112206
139	0xbe29b791	-0.16573931
140	0xbe21754d	-0.15767403
141	0x3ea87548	0.32901978
142	0x3e02bdc3	0.12767701
143	0xbdc62a8c	-0.09676084
144	0xbe88113e	-0.26575655
145	0xbd2dae05	-0.042402286
146	0x3df0cce5	0.117578305
147	0x3d44e440	0.04806924
148	0x3e643f6b	0.22289817
149	0xbc495f85	-0.01229084
150	0x3cd7089f	0.026249228
151	0x3e8b05ab	0.27152762
152	0x3e0a0db2	0.13481787
153	0x3ebcb0e3	0.36853704
154	0xbeca4c68	-0.39511418
155	0xbd8b4ca5	-0.06801728
156	0x3d8d9263	0.06912687
157	0x3b6431b1	0.0034819657
158	0xbeaa6afa	-0.33284742
159	0x3de1854c	0.110117525
160	0xbeae562d	-0.34050122
161	0x3e708584	0.23488432
162	0x3def904b	0.116974436
163	0xbd5f4e86	-0.054518245
164	0xbe27e1f5	-0.1639479
165	0x3ddfe19f	0.10931706
166	0x3e526d53	0.20549516
167	0xbeb8e453	-0.36111698
168	0x3b5a4e4e	0.0033310833
169	0x3e30ce05	0.1726609
170	0x3e491a9a	0.19639054
171	0xbef3100d	-0.47473183
172	0x3ebf7c02	0.37399298
173	0xbe2fb805	-0.17160042
174	0xbe225831	-0.15853955
175	0x3d82ce67	0.063870244
176	0x3e7aaa5d	0.24479051
177	0xbc92362d	-0.017848099
178	0x3c9259cf	0.01786509
179	0xbe04a991	-0.1295531
180	0x3de79327	0.11307364
181	0xbeb5ebc6	-0.35531443
182	0xbe72c274	-0.2370699
183	0x3e340f6a	0.17584005
184	0x3e342ae9	0.17594494
185	0xbd6d12f2	-0.057879396
186	0xbd1486f6	-0.03626152
187	0x3db11291	0.086461194
188	0x3d0543dc	0.03253542
189	0x3e311cc7	0.17296134
190	0xbbd4f259	-0.0064986167
191	0xbebb4edc	-0.36583602
192	0x3e0ed590	0.13948655
193	0x3e38cfd2	0.18048027
194	0x3e12fbde	0.14353892
195	0x3ddbe266	0.107365415
196	0xbd9441d4	-0.07239118
197	0xbe8048d8	-0.25055575
198	0xbf0ba57a	-0.5454937
199	0xbd9b4871	-0.075821765
200	0xbe5e7ed2	-0.21728066
201	0x3d7356c3	0.059408914
202	0xbe375c67	-0.17906342
203	0x3e6255ed	0.2210309
204	0x3e903da0	0.28172016
205	0x3eb6f6fe	0.35735315
206	0x3d5f42e3	0.054507148
207	0xbe7cf011	-0.24700953
208	0xbcaf9e30	-0.021437734
209	0x3d750548	0.05981949
210	0x3bc8a06a	0.0061226385
211	0xbe45108f	-0.19244598
212	0x3d29a73e	0.04141926
213	0x3e417be0	0.18894911
214	0x3e911796	0.28338307
215	0x3d71508a	0.0589147
216	0xbe322126	-0.17395458
217	0x3e958f58	0.29210925
218	0x3ddc8d5f	0.10769152
219	0x3dcf765d	0.10129998
220	0xbdc1b350	-0.09458029
221	0xbf00d5d5	-0.5032628
222	0xbf1f8348	-0.62309694
223	0xbe784279	-0.24244107
224	0xbec8d605	-0.39225784
225	0x3db17e11	0.086666234
226	0x3c8e9d4c	0.01740899
227	0xbcab2bdd	-0.02089494
228	0x3e1b9687	0.1519414
229	0x3e929f83	0.28637323
230	0x3e9e43e5	0.30911174
231	0xbd36df5a	-0.0446466
232	0x3dcf2388	0.10114199
233	0x3ccd0735	0.02502785
234	0x3e44b523	0.19209723
235	0xbc7eff5f	-0.015563815
236	0x3daef5d7	0.08542984
237	0xbe4abf3e	-0.19799516
238	0xbd8715b1	-0.06595934
239	0xbd2e1cd0	-0.042507946
240	0xbe4ee608	-0.20204937
241	0x3ccd7d7c	0.02508425
242	0x3dc6f09b	0.097138606
243	0x3e21a4a9	0.15785469
244	0xbe613bf1	-0.21995522
245	0x3e514d55	0.20439656
246	0x3e31df74	0.17370397
247	0x3e83d3e3	0.25747594
248	0x3cfc2744	0.030780442
249	0xbe308922	-0.17239812
250	0xbd93bb15	-0.072134174
251	0x3d11aaa9	0.035563145
252	0xbc8d6d38	-0.017263994
253	0xbe8b653b	-0.2722567
254	0xbea14298	-0.3149612
255	0x3e671217	0.22565494

model.backbone.layers.1.temporal.0.bias f4 [32]
0	0xbf290236	-0.66019
1	0xbf5000f1	-0.81251436
2	0xbf1a5aa1	-0.6029454
3	0xbf73662c	-0.95077777
4	0xbecd1efa	-0.40062696
5	0xbf0c14bd	-0.54719144
6	0xbf5a0499	-0.85163265
7	0xbe9d505c	-0.30725372
8	0xbf7384cd	-0.9512451
9	0xbf668932	-0.90053093
10	0xbf15e536	-0.58552873
11	0xbf491b04	-0.7855685
12	0xbf231f1b	-0.6371934
13	0xbe3f294f	-0.18668102
14	0xbf4849d6	-0.78237665
15	0xbf2f0a1b	-0.68374795
16	0xbf814077	-1.0097798
17	0xbf1681ef	-0.5879201
18	0xbf51722c	-0.8181484
19	0xbefa59fd	-0.4889678
20	0xbf1cb945	-0.612202
21	0xbf83c79b	-1.029529
22	0xbf0e1db3	-0.5551407
23	0xbf7d8789	-0.99034935
24	0xbf8c3587	-1.0953835
25	0xbde35519	-0.111002155
26	0xbf76e534	-0.96443486
27	0xbf3acfc1	-0.7297326
28	0xbf8a641b	-1.08118
29	0xbf5f6ded	-0.8727711
30	0xbf1725a1	-0.5904179
31	0xbf7a8829	-0.97864014
