experiments/AdversarialDomainAdaptation/saved_models/tsmixer_da_pretrained_3.pt (torch, 731036 bytes, 30 tensors)

model.backbone.static_proj.weight f4 [64, 10]
00000000: c0c7 f0bc 8828 793d 1019 dd3d 778a 063d
00000010: dc1c 01be 7a3a b03d ee20 933d cb15 c3bd
00000020: ae33 d83d 6170 6ebd b02c 1cbd 262d b63c
00000030: 995e 3c3d 472c dd3c fb53 0a3e 3dbb c4bd
00000040: 2be5 933d 8976 8cbd 5bf3 a1bb cd42 ed3d
00000050: e6d4 05bd be06 a3bd 0b52 4ebd dae9 2f3e
00000060: f9ba 273d 815a 903d e706 52bd ba6a 953d
00000070: 444f 27bd 8843 153e 4351 40bd f5d9 ae3d
00000080: fa87 f23d 0c0e 173e ad8c 593c 74ea aebe
00000090: 460c 5d3e d882 2ebe 13c2 05bd ad07 8e3d
000000a0: 2669 82bd c948 46be 92f2 fa3b db1f 36be
000000b0: 2e2e 9ebe 1e91 1c3d be55 643d 2b03 073e
000000c0: 1b5c 4cbe cc2d 5f3c b53e 18bd b5ab 5cbd
000000d0: 654f 7c3d 0044 243e a6ac bebe 21fa 8a3e
000000e0: 7e7d 0bbe 956e c23d 0c62 b83d db3e 903e
000000f0: b896 c93d b671 1e3e 4730 39be e4bd 43be
00000100: 42c8 babc 1882 1ebe b963 83be e7e4 7c3d
00000110: ceb8 57be eab3 4f3b 5a5c 83bd 5c0f 0f3d
00000120: 26ab 37be cf44 1b3e 7f15 883c 4802 a13d
00000130: 83f4 c73d e9dc 193d b9a5 26be 41c9 173d
00000140: 5ca2 0abd 5fff 5e3d 6ade a6bd ee95 973d
00000150: 5084 253e 1990 3d3e ff83 783e 65ae 12be
00000160: 1911 f0bd 7bd2 90be 4261 62bd 8b68 b139
00000170: 59ec 893e f46f 22be 64d2 a5be bb5b ea3d
00000180: 74e8 34be c484 a2bd 6bf7 b03d 7892 093e
00000190: 3cea ea3c 131b 603d 8b08 c5be 57d1 b7bd
000001a0: 922e cdbe dd77 37be 44fb ab3c ab7f 3dbd
000001b0: 9881 94bd 0850 a23b e8d4 193d 383a 03bd
000001c0: f5ee 443c e9af 83bd 4f8a 423d 76de 28bd
000001d0: 2218 71bd 6feb 213d 0ac4 463d 6eaa c93c
000001e0: bd97 2a3d 70d2 753d 968d 79be b382 8c3d
000001f0: 7c20 ffbb b722 8e3c f3cc 07be 8adf 373e
00000200: 58ee 01be 2bc7 e53d 7e4b 0ebd 44f5 7d3d
00000210: 70a9 f2be 8071 bd3e 5bb2 893e 82e6 8ebe
00000220: 43de 973e be61 a0bd 0eeb 6ebe cc23 1abd
00000230: d7ae d33d bab5 053b 0506 c8bd cb26 10bb
00000240: 8813 2fbe 8539 a4bd 7d4f 03bd 09c3 1ebd
00000250: 5b32 abbd 756a 46bd 101b c63c fdd1 adbd
00000260: 90e0 cb3e fcee d33b 89f9 733e 8c07 f23c
00000270: bb50 58be f89b e43d dc6f 833e 8c3b 9b3d
00000280: 3598 cdbc 6b68 f53c 9042 cc3e 8516 133e
00000290: 9c72 b63e 64ee 83bc b63e ec3d 38f8 3c3d
000002a0: 69ff 9d3e 92bd 5dbe a898 adbd e964 0c3d
000002b0: ef25 963e b24d 773e 239a 27be 4fbf 593e
000002c0: 3e13 cb3d 1252 8fbd b446 c03b 8d37 703e
000002d0: 7eef 0b3d 9b52 303d cd01 c93e d217 8d3d
000002e0: 3d58 813e f80b 763e 9137 fb3c 7209 4c3c
000002f0: 17d6 563e 6e08 b5bd a8f3 63bd c6c4 d43b
00000300: a2bb 2b3d 542f edbc 723c 0e3e be1b 2ebd
00000310: 17ff 00be e971 ad3d a8dd 03bd 2b42 5c3e
00000320: 484f 9dbd 211c 2cbe 2071 90bd c0d9 fbbd
00000330: d92b 82be 55dd 2dbe 03f7 0f3e 4a4e 59bd
00000340: 01cd 88be d5ed cb3e 5639 3abe 8863 09bd
00000350: af3f ae3c 84ca babe 3de3 31be dbb2 34be
00000360: d8a8 8fbe 9166 4b3d 79c0 f7bd 8afd 07bd
00000370: 7211 883d 1b82 b93b 960d da3d 4b7f b03d
00000380: 0813 2c3e 6347 233e d456 883c ca3e 82bd
00000390: c5f3 bbbd fa4b 143e 8615 9dbc a626 17bd
000003a0: e45b 55be 5cfc fb3e 6951 b53e 5571 843e
000003b0: a794 1e3d b0f1 98bb 57b9 7fbe 67a6 1bbe
000003c0: 1956 bc3d df6c 59bd 0d6c 143e dada 4abe
000003d0: 81f4 033e 1296 833c 6acd 11be 5892 293e
000003e0: 5b65 843e d3ba 5dbe 39b8 59bc 4ab2 3f3d
000003f0: 51fa 0d3e 11db ad3e 67d5 e4bd 3aca 4e3e
-0.029392123 0.06082967 0.10795796 0.032846894 -0.12608665 0.086049035 0.07184015 -0.09525641
0.10556732 -0.05821264 -0.038128555 0.022238325 0.045988653 0.026998652 0.13508599 -0.09606025
0.07221445 -0.06858546 -0.0049423403 0.11585007 -0.03267374 -0.0796027 -0.05037121 0.17179051
0.040949795 0.07048512 -0.051276114 0.07295747 -0.040847078 0.14576542 -0.046952497 0.08537666
0.11842342 0.14751452 0.013278169 -0.3416325 0.21586713 -0.170421 -0.032655787 0.06935058
-0.06367712 -0.19363703 0.007658311 -0.1778559 -0.30894607 0.038224332 0.055745833 0.13184802
-0.1995701 0.013621759 -0.037169177 -0.05387469 0.061599154 0.16041565 -0.37241095 0.27143958
-0.1362209 0.09493748 0.09003076 0.28172955 0.098432004 0.15473065 -0.18084823 -0.19115406
-0.022800568 -0.15479314 -0.2566202 0.061741736 -0.21066591 0.003169293 -0.06414099 0.034926757
-0.17936382 0.15162967 0.016611813 0.07861763 0.09763434 0.037564192 -0.16274156 0.037057165
-0.033846244 0.05444276 -0.08147891 0.07401644 0.16163754 0.18512 0.24269103 -0.14324339
-0.11722011 -0.28285584 -0.055268534 0.0003383796 0.2693813 -0.15863019 -0.32387078 0.114432774
-0.17666799 -0.07935479 0.08640941 0.1343478 0.028676145 0.05471332 -0.3848308 -0.08975475
-0.40074593 -0.17916818 0.020993836 -0.04626433 -0.072512805 0.004953388 0.03755656 -0.032037944
0.012019862 -0.064300366 0.047495183 -0.04122778 -0.058860905 0.039531168 0.0485268 0.0246174
0.041648615 0.060015142 -0.24370417 0.068608664 -0.007785855 0.017350538 -0.13261776 0.17956367
-0.12688577 0.11219629 -0.034739964 0.06200148 -0.47394896 0.37000656 0.26893887 -0.27910239
0.2966176 -0.07831143 -0.23331854 -0.037631795 0.103360824 0.0020402507 -0.09766773 -0.0021995779
-0.17097294 -0.080187835 -0.032058228 -0.03876022 -0.08359214 -0.04844137 0.024182826 -0.08487318
0.39819765 0.006467698 0.23825659 0.029544614 -0.21124546 0.11162561 0.2567128 0.07579717
-0.025096992 0.029957017 0.39894533 0.1436406 0.35634315 -0.016104884 0.11535399 0.046135157
0.30858925 -0.21654347 -0.084763825 0.034275923 0.29325816 0.24150732 -0.16367392 0.21264385
0.099157795 -0.069980755 0.0058678035 0.23458691 0.034163944 0.04304753 0.39259186 0.06889309
0.25262633 0.24028003 0.030666145 0.012453424 0.20980106 -0.088394985 -0.05565229 0.006493184
0.041926987 -0.028953232 0.13890246 -0.042506926 -0.12597309 0.08468992 -0.03219381 0.21509616
-0.07681137 -0.16807605 -0.07052827 -0.12297392 -0.25424078 -0.16978963 0.14059071 -0.053053178
-0.26718906 0.3982989 -0.18185934 -0.033542186 0.021270601 -0.36482632 -0.17371841 -0.17646353
-0.28058505 0.04965836 -0.12097258 -0.033200778 0.066439524 0.0056612617 0.106471226 0.08618029
0.16804135 0.159452 0.016642965 -0.06359632 -0.09177355 0.14482108 -0.019175302 -0.036902092
-0.20835835 0.49215972 0.35413674 0.25867715 0.038715985 -0.0046674833 -0.24973045 -0.15200196
0.09196109 -0.053082343 0.14494343 -0.19810048 0.1288624 0.01606277 -0.14238515 0.16559732
0.25858578 -0.21653299 -0.013288551 0.04680089 0.1386502 0.33956197 -0.11173516 0.20194331

model.backbone.static_proj.bias f4 [64]
00000000: 7e7d 0cbe 02bc 87bd 2ff2 81bd fb03 973d
00000010: dc6b 003d 644e cebd a117 d33e a4ae a73d
00000020: a446 003d bb02 103e 0b65 4d3d 3be6 f03a
00000030: 718f 8ebe 0ee4 453c 00eb 05be 8f7a a0bd
00000040: 393c dabc 4db1 26be ad6f 2fbc e962 443c
00000050: ef5a 023d a02b 13be 7d9b f23d 09eb 253e
00000060: 85c2 a4bd d6c7 5bbd 8615 31bd 5850 13be
00000070: da3a a83d fc40 da3c 7e36 063e d64a 5e3d
00000080: 6ab0 513d 5832 bcbe ca03 13bd c1d4 dc3b
00000090: 61c4 31bd 5eed 34be 8941 13be cca2 60bd
000000a0: 73a0 a3bd bf57 263e dc7f 29bd 8400 093d
000000b0: b7c1 fdbb 24c2 e9bd a072 aebd e329 b2bd
000000c0: 2c7e b93e 5192 a83c a04d 223e 08ad ca3d
000000d0: f26c 8f3d 6c0b 843e 3a14 a03c a8a2 883c
000000e0: 7054 94bd 20e9 9cbc 11a3 d5bd 0689 e4bd
000000f0: 69e3 4fbe 6109 32bc 60b6 6e3d 5534 16bc
-0.13719746 -0.066276565 -0.06345021 0.07373806 0.031352863 -0.100735456 0.41228965 0.08187607
0.03131737 0.14063542 0.05014519 0.0018379161 -0.27843812 0.012078298 -0.13077927 -0.07835876
-0.026640045 -0.16278572 -0.010707778 0.011986473 0.031825002 -0.1437211 0.11846063 0.1620294
-0.08044914 -0.053657375 -0.043233417 -0.14386117 0.0821435 0.026642315 0.13106725 0.054270588
0.051193632 -0.3675716 -0.035892285 0.0067392294 -0.043400172 -0.17668673 -0.14380468 -0.054842755
-0.07989588 0.1624441 -0.0413817 0.033447757 -0.00774404 -0.114139825 -0.08517957 -0.086993955
0.36229074 0.020577582 0.15849924 0.09896284 0.070032015 0.25789964 0.019540895 0.016679123
-0.07242668 -0.019154131 -0.10431493 -0.11158948 -0.20301594 -0.010866494 0.058279395 -0.00916775

model.backbone.layers.0.temporal.0.weight f4 [32, 64]
00000000: 0a5d 873d 78b6 473e 7ed3 153e 3e6a 17bc
00000010: 0723 acbd f3ff 7bbe 9044 74bd 4be6 c6bb
00000020: 8812 fa3d e2af a8bb 4c53 653d 763b 953d
00000030: ec7b d1bc d985 cb3b 71cc e0bd 341a 16be
00000040: b9df ed3c 41a6 b03e f82b 563e 2e28 3c3c
00000050: cfec 1abe 60d0 30bd 66c1 043e 151b 323e
00000060: 1534 423e 6b80 823d c005 72bd f726 cabd
00000070: 1c35 53bd d105 5cbd 2beb f9bd ef03 4f3d
00000080: b0a2 13bd 0ced 2fbe 9a77 34be 8b71 ce3d
00000090: d3e6 b53d ed55 7e3e 557d e03d dbec f53c
000000a0: 3081 5f3d edf7 89bd e42f 49bc f9f3 2b3e
000000b0: 062f 6e3e 8e41 1f3e 95de 273d ff53 abbb
000000c0: 817d 8cbc 14c1 5bbe 0f80 33be f631 603d
000000d0: d14b 6c3d 1159 eebc a125 03be ae36 84bc
000000e0: 919c 26be 4b6f 1cbd 155d 3d3e 5b4f f83d
000000f0: 932c 443e 7371 723e d21a f33d 5f95 d6be
00000100: 4623 32be 46f7 35be dbd9 80bd 12bb 95be
00000110: 7dfe 6dbe 43b8 ecbb cf50 97bd 379b 0f3e
00000120: 57b3 793e cd44 3c3d ca45 80bd 6be1 51be
00000130: 114b 573d 3386 a23c 86b3 2dbd 55c8 cbbc
00000140: 6c05 10bd 4ab2 9b3d e28a 9c3c 2b9c ee3c
00000150: 55c9 083e f9a0 363d cd7d 253d da34 053e
00000160: 2f4c 663e 76ab 863e 107d 963e 95c3 73bd
00000170: 337a 3f3e 1916 2e3d d9a0 f6bd e283 bfbd
00000180: 607f 56be 867e 0bbe d350 d73d 1e2f 50bc
00000190: 14c4 863d 82c4 20bd a500 70bd c6d2 9fbe
000001a0: 9f27 73be 0ee3 31be 84f0 26ba 7289 dd3c
000001b0: 24ec 9a3d f827 bb3c 6f7d df3a e4c1 b83d
000001c0: 62ca 57bd 3222 ffbd 801e 21be d7d3 02bd
000001d0: adc2 7a3d a3dd a2bd 8a67 eebc cbc1 b7bd
000001e0: 4a38 a8bd c0f5 6b3e 72db cc3d befc 1a3e
000001f0: df3a ae3d 101e 0c3d 2535 b4bd 9dee c7be
00000200: 1fd4 bc3d 9861 9a3d 5239 a2bc 29f2 8ebd
00000210: bb15 d6bd 8c3a 33be 4ebb 4ebd c341 7c3d
00000220: 473d 0f3e c1d6 0f3e 12fb 523e a3c4 863e
00000230: 98a5 963e 06c2 f53d 2c04 bb3a b84a 49bd
00000240: eb7f 70be c989 ccbe fd91 9abe 0981 3dbd
00000250: e8b3 4e3d 5588 3e3e cfa9 3f3e d47b 813d
00000260: 8421 953d 5f46 1dbe 1287 91bd ef55 babd
00000270: 9bf8 79bc 3edd 103b 9c19 863d 19c1 513c
00000280: 1724 dc3d 8d26 dc3c 77cb d23d 3643 11bc
00000290: d6df b4bd a1cc 14be 6334 d2bd 9010 0bbe
000002a0: a289 073c b073 3f3d cdaf 7f3e d289 fbbb
000002b0: e206 2d3d 1183 7cbe 7d22 36be 1576 953b
000002c0: 7428 fd3d 4dfa 963d 968b 8e3d 975f 2a3d
000002d0: 5222 463c 23a5 14bd 02b3 a13d 33dd ce3d
000002e0: a512 103e 3f4d 063e 385b a43d 25e3 8f3a
000002f0: ecd9 af3d 338a 023e 1c1a 6f3d bad4 0abe
00000300: 4dc6 133d d116 1b3e 2ad1 123d 8702 e83d
00000310: 288e f53c cae0 d33d 1ce8 113e 4ae8 9e3d
00000320: c415 2b3d b0a0 77be 4058 58be a3c2 5fbe
00000330: 3db2 e4bd 2a67 f33d 540e aabd cbcb 7dbd
00000340: 4042 59be 4abd f2bb dc98 30ba 911e 973d
00000350: afaa de3d 6b82 fc3c 2291 3abd b638 45bd
00000360: 58d5 93bb 7bfb e43d ea24 903c a099 a1bc
00000370: 7cc6 b5bd 9aad c9bd ae0f 79be ee01 27be
00000380: ce45 053e 2857 9c3d 9d51 a9bd b6a5 2abe
00000390: e4fb ecbd bf27 febd 2af9 b13d b9f4 a8bd
000003a0: c0ad c43d 478f 083e b869 df3b af0e 82be
000003b0: 006c 5bbe a25c 72bd 9b1a 1dbc 9d1c 15be
000003c0: fc1a 73bc 990e 19be 5899 713d 8f36 223e
000003d0: bd84 2f3c c910 ea3d 3aee 34be 64fa 10be
000003e0: dc1c 15be 0f51 4bbd 7f21 bf3c 43b7 c7bd
000003f0: 4457 683c de9d 5f3d 76a6 0e3e 5df0 683c
0.06609543 0.195032 0.14631459 -0.009241639 -0.084051184 -0.24609356 -0.0596357 -0.0060699335
0.12210566 -0.00514792 0.05598764 0.07286732 -0.025571786 0.0062110242 -0.10976494 -0.14658433
0.029037343 0.34501842 0.2091521 0.011484189 -0.15129398 -0.043167472 0.129644 0.17393143
0.1896518 0.0637215 -0.059087515 -0.09870713 -0.05156432 -0.053716484 -0.12203058 0.05054086
-0.036043823 -0.1718027 -0.1762375 0.1008025 0.08881917 0.24837466 0.10961405 0.030020168
0.054566562 -0.06736741 -0.012279484 0.16792287 0.23260126 0.15552351 0.040983755 -0.005228519
-0.017149689 -0.21460372 -0.17529319 0.054735146 0.05768949 -0.029095205 -0.12807323 -0.016139355
-0.16270663 -0.038192075 0.18492539 0.12124511 0.19157629 0.2367609 0.1187035 -0.41910836
-0.17396268 -0.17770109 -0.06291553 -0.29244286 -0.23241611 -0.007224114 -0.0738846 0.14024054
0.24384819 0.04596405 -0.06263311 -0.20496146 0.052561823 0.019839382 -0.042407535 -0.0248758
-0.03516142 0.07602365 0.019109193 0.029127201 0.13358052 0.04458711 0.040403176 0.13008443
0.22489999 0.2630269 0.2939229 -0.059512693 0.18698959 0.042501543 -0.12042398 -0.093513265
-0.20947027 -0.13622484 0.10513463 -0.012706546 0.06580368 -0.039249904 -0.058594365 -0.31215495
-0.23745583 -0.1737177 -0.0006368237 0.027043078 0.075645715 0.022846207 0.0017050932 0.09021357
-0.05268324 -0.12457694 -0.15734291 -0.031940307 0.061220814 -0.0795243 -0.029102106 -0.0897251
-0.08213861 0.23042965 0.10002793 0.15135476 0.085073225 0.034208357 -0.08799199 -0.39049235
0.092201464 0.07538146 -0.019802723 -0.06979782 -0.104533635 -0.17502803 -0.050471596 0.061586153
0.13988219 0.14046766 0.20603588 0.26321897 0.29423213 0.11999898 0.0014268211 -0.049143523
-0.23486297 -0.39948872 -0.30189505 -0.046265636 0.05046454 0.18606694 0.1871712 0.063224465
0.07281783 -0.15358876 -0.07105841 -0.09098422 -0.015257026 0.0022104527 0.06547853 0.012802386
0.10749071 0.026873851 0.10292714 -0.008866122 -0.08831756 -0.14531185 -0.10263898 -0.13580537
0.00827256 0.046741188 0.24969406 -0.0076763416 0.042242892 -0.24659373 -0.17786594 0.0045611956
0.123612314 0.0737196 0.06960218 0.041595068 0.012093144 -0.0362903 0.07895471 0.10100784
0.14069612 0.13115405 0.08025211 0.0010977729 0.08586487 0.12748031 0.05837451 -0.13557711
0.036077786 0.15145423 0.035844006 0.11328607 0.029975012 0.103456095 0.14248699 0.077591494
0.041768804 -0.24182391 -0.21127415 -0.21851592 -0.11166809 0.11884911 -0.08303514 -0.06196193
-0.21216679 -0.007407819 -0.0006736645 0.07378877 0.10872399 0.030823907 -0.045548566 -0.048149787
-0.0045115165 0.111807786 0.017595727 -0.019726574 -0.088757485 -0.09847565 -0.24322388 -0.1630933
0.1301491 0.07633811 -0.082675196 -0.16664776 -0.11571482 -0.12409925 0.086901024 -0.08249802
0.09603453 0.13335906 0.0068180226 -0.25401828 -0.21427917 -0.059170373 -0.009588863 -0.14561696
-0.014837977 -0.14946975 0.05898413 0.15841125 0.0107128 0.11428983 -0.17669001 -0.14158016
-0.1456179 -0.04963785 0.023331402 -0.09751751 0.014180962 0.054593913 0.13930687 0.014217463

model.backbone.layers.0.temporal.0.bias f4 [32]
00000000: f770 b63c cee5 1cbf 9cb8 663c 3648 c9be
00000010: 0809 24bf 7a77 49bf 5492 98bf d15a 3ebf
00000020: 7d1c 8fbf 0fb0 1fbe 84c0 cdbe a1a4 aabe
00000030: cc94 23bf 4db0 2abe e0d2 6ebf 3fc4 553d
00000040: 6feb 7fbf 875a 0abf e948 eabe 8be1 f3be
00000050: ecc3 a5be d420 34bf fd31 23bf 2661 b7be
00000060: 15b1 253e 86b7 5ebe f2cb 14bc 4e73 c0be
00000070: f4e2 02bc f474 f6be dafd 253b 9829 88bf
0.022270663 -0.61288154 0.0140821 -0.39312905 -0.6407628 -0.7869793 -1.1919656 -0.74357325
-1.1180569 -0.15594505 -0.4018594 -0.33328727 -0.6389892 -0.16668816 -0.9329052 0.052189108
-0.9996862 -0.54044384 -0.4575875 -0.47633013 -0.3237604 -0.7036259 -0.6374815 -0.35816306
0.16180833 -0.21749696 -0.0090818275 -0.3758797 -0.00798868 -0.48136103 0.002532831 -1.0637693

model.backbone.layers.0.temporal.2.weight f4 [64, 32]
00000000: 5fb0 fabd 645f b2bd 795b cc3d d650 283e
00000010: 5aef d5bd 4329 a63d f6b0 b33d 6c4c 123e
00000020: 2102 38bd 1744 a53d d996 943c 2818 863d
00000030: 910b 18bd 5f91 ba3d 5c9f c93d 78ce 58bc
00000040: d7f3 ae3e a24f 6a3e c2e1 1bbe 66c6 9c3c
00000050: 804b 09be ab26 2b3b 4914 ee3b a3d4 003d
00000060: 60b6 7c3d 6f47 eb3c 9c04 19be ae2f 90bd
00000070: b2d6 c83c fdc1 a9bd 23d0 a93c 9cfd 273c
00000080: 594b 43be 6e03 01bd 0f44 c0bd 306a eabd
00000090: 6ae4 033c c6af 193c a60b 21be 9ad8 013e
000000a0: bbbf f23d c11e 31bd 532a d83c 868c 9f3d
000000b0: 735c da3d af83 57bc 5591 823e c868 09bd
000000c0: 5ca2 bb3e 1559 3bbe 3c89 b9bc 6816 1fbc
000000d0: 08af 863d 3a01 b9bc cafa de3d 33db 02be
000000e0: cbd0 fdbd 96d6 db3d 9673 3d3d 0f90 783e
000000f0: d130 3e3d 24c8 7dbe 2572 3abd fb67 8cbe
00000100: ca13 84be 63c2 cabd 2e6a 32bd 26eb 1fbd
00000110: adc1 fcbd d245 e3bd 6d2b d63d e5eb 5cbe
00000120: d079 0b3e d562 03be 6c91 2e3e 07e9 533e
00000130: 4077 78bd 588f c83d 0fb1 45bd 6555 ab3d
00000140: ab8e 14be 2955 cebd cb2e edbd 7e5d c13e
00000150: e9fa 2a3d c8c7 603e 258c 353e a132 a0bd
00000160: 6178 1dbd 122e 3abc 6e3c 1a3e d042 b2be
00000170: 52c3 853e ec43 c23e bed8 c5bd 1fbb f93d
00000180: 1486 8bbd df39 9a3e c6e0 b1bb 39ce f43d
00000190: 9bb0 373e 3204 42be c697 40be 9fed 853d
000001a0: 4525 6bbd f18d 81bd bf84 5cbb c678 b43e
000001b0: 1c62 053d 035b 23be 8496 28be 1d03 063b
000001c0: 75cf 71be 2287 833d 9e8c 53be 7567 18bd
000001d0: a909 40bd 38be 843e 59df d1bd ba4f 283e
000001e0: f247 d93b 429e 41bd ce87 01be fa4c 063e
000001f0: 320f 24be 3135 a1be 6292 a0bd 5933 63be
00000200: e6a5 0bbe 9eda 4abd 5870 eabd f9d7 d13d
00000210: 0f8d e4be 3592 2fbe 0428 2f3d c801 d63c
00000220: 6255 233e cc4b 8bbd cecc b6bd ba54 4bbe
00000230: 2697 853c 6793 993e 9b49 1bbe fbdb 3bbd
00000240: 6818 913e fc9e 043d b456 0bbc 182e d6bd
00000250: b17f 8ebd 8ca6 84bd 4b8a d4bc be13 81bd
00000260: f655 efbd 3eb6 08be b002 013d bda1 8b3d
00000270: 2279 61ba c50e 893d 782d 0dbe 1513 763d
00000280: c0c7 873d 12f4 78bd 00dc 94bb b668 663e
00000290: 6c0c 03be 8e53 113d 1339 c63c 76ba 5dbe
000002a0: 91d4 ac3d 93d0 763d ea3b f8bd ef2a 873d
000002b0: 32a8 813e 4aad a63e 0c7a 443d 56a9 2b3e
000002c0: 8c79 06bf d8b3 903d 77c9 0e3e 7577 e8bd
000002d0: 80bc 69be 646e 5bbe 6291 8ebe 53d5 07be
000002e0: 58df 283e f4c4 ae3d 2212 bd3d 3692 30be
000002f0: e047 5b3d 5795 dd3d efcd 40be 4c54 f7bd
00000300: 3d38 80be 78cb 3d3e 18f5 cdbd 1290 12bd
00000310: 10f4 a2be bca5 a1bb de29 783d 17b0 ab3d
00000320: b6fd a8be b999 9dbd 7375 cc3e 9de6 883e
00000330: 61f1 50bd 69fc e8bd 615c d7be a78d a33d
00000340: 4a7b f13d e3f3 c73c b2db 90be 96e9 e4ba
00000350: d950 a0bd 23c9 1b3d 3637 663d 2b1f 02bd
00000360: 699a ccbd 7d2f 573e faf5 f73d 4722 06be
00000370: a009 9b3c b576 2b3c d791 e63c 3943 bdbd
00000380: 5278 63bd 0f90 b63e 364d b3bd b495 763e
00000390: 1c68 0a3e 1c4b 113e 5506 febd 2a08 6f3a
000003a0: 2040 373f 99b2 073d 2f32 9fbe d1d0 6fbd
000003b0: 260c ebbd 94fb 9dbe f2a0 4b3e a0b0 013e
000003c0: 09c3 22be 316c c13d d5a6 633d 5811 cb3c
000003d0: 8681 d93d 21f9 953c 9dae 7cbd 122b 073e
000003e0: ba7c d9bc 816a c2bb 2e43 733c 50f2 e53d
000003f0: 9163 86be e7e6 a4bd 217b 9e3d ad73 353e
-0.12240671 -0.087096006 0.099783845 0.16437086 -0.10446043 0.08113339 0.08773987 0.14286965
-0.044923905 0.08069628 0.018138336 0.06547576 -0.037120406 0.091097586 0.098448485 -0.01323282
0.3417041 0.2288194 -0.15222839 0.019137572 -0.13407707 0.0026115577 0.007265602 0.031452786
0.061697364 0.028720586 -0.14943165 -0.07040344 0.024516437 -0.082889535 0.02072913 0.010253336
-0.19071712 -0.03149741 -0.09387981 -0.11446035 0.008050064 0.009380287 -0.157271 0.12680283
0.11852976 -0.04324222 0.02638737 0.077904746 0.106621645 -0.013153954 0.25501505 -0.033547193
0.36647308 -0.18295701 -0.022648446 -0.009709932 0.06576353 -0.022583593 0.10887678 -0.1277893
-0.1239334 0.107342884 0.04625281 0.24273704 0.046433274 -0.24783379 -0.045519013 -0.2742308
-0.25796348 -0.099003576 -0.043558292 -0.039042614 -0.12341628 -0.110973015 0.104575016 -0.21574362
0.13620687 -0.1283067 0.17047662 0.20694362 -0.0606606 0.09792966 -0.04826456 0.08365897
-0.14507549 -0.10074837 -0.11581191 0.3776664 0.041743193 0.2195121 0.17729242 -0.07822157
-0.03844488 -0.011363523 0.15062115 -0.348166 0.2612558 0.37942445 -0.09660481 0.12193894
-0.06812683 0.30122277 -0.0054284064 0.11953396 0.17938463 -0.18946913 -0.18807897 0.06539463
-0.05740859 -0.06325901 -0.0033648459 0.35248393 0.032564268 -0.15952687 -0.16463667 0.0020448633
-0.23614295 0.06422259 -0.2065911 -0.03720804 -0.046884213 0.25926375 -0.10247678 0.16436663
0.006630891 -0.047270067 -0.12649462 0.13115302 -0.16021422 -0.31485894 -0.0784042 -0.22187556
-0.13637504 -0.049524896 -0.11447209 0.10246272 -0.4463887 -0.17145617 0.04276277 0.026123896
0.1595054 -0.068015665 -0.08925782 -0.1985654 0.016307425 0.29995272 -0.15164797 -0.045864087
0.28338933 0.03237818 -0.008504558 -0.104580104 -0.06957949 -0.06477079 -0.02594485 -0.06302594
-0.116863176 -0.1335077 0.031496704 0.068179585 -0.0008601119 0.0669227 -0.13786876 0.06007679
0.06629896 -0.06077964 -0.0045428276 0.22500882 -0.12797707 0.035480075 0.024197137 -0.2165316
0.08438981 0.060257506 -0.12120803 0.06599986 0.25323635 0.32554084 0.047967955 0.16763815
-0.52529216 0.070655525 0.1394404 -0.113509096 -0.22825813 -0.2142883 -0.27845293 -0.1326497
0.16491449 0.085336596 0.09231974 -0.17243275 0.053535342 0.108195 -0.18828557 -0.12076625
-0.25042906 0.18534648 -0.100565135 -0.035781927 -0.3182683 -0.004933087 0.060586803 0.08383196
-0.33006066 -0.07695336 0.39933357 0.26738444 -0.051011447 -0.113762684 -0.42062667 0.079860024
0.11791094 0.024408286 -0.28292614 -0.0017464634 -0.078279205 0.038033616 0.056204997 -0.031768005
-0.09990389 0.21014209 0.12107463 -0.13099013 0.018925488 0.010465314 0.028145714 -0.09241337
-0.05553467 0.35656783 -0.08754961 0.24080545 0.13516277 0.14188808 -0.124035515 0.0009118343
0.7158222 0.03312931 -0.31092975 -0.058548752 -0.114769265 -0.30856 0.19885615 0.12665033
-0.15894713 0.09444464 0.055579025 0.024788544 0.10620408 0.01830727 -0.06168996 0.13200024
-0.026548732 -0.0059331064 0.01484756 0.11227858 -0.26247838 -0.080518536 0.07738329 0.17719908

model.backbone.layers.0.temporal.2.bias f4 [64]
00000000: 407c 58bd c217 e93c d403 0bbd b6da ad3c
00000010: f4d0 473d e020 12bd 89b2 033d 9763 f3bc
00000020: ade3 073b 2391 4ebd f348 87bd 2a25 d53a
00000030: c6a9 3c3d 2209 563d 48de 4fbd b73a 1c3c
00000040: 4a00 603d d499 443d b8ed 74bd 45b8 ea3c
00000050: 66cc 00bd 6d6c 1e3c 8e46 363d f4b1 29bd
00000060: 1eef 033d 0d79 253d 6457 32bd 19c6 803d
00000070: a12b 083c 55f8 38bc 97c7 a7bc 3c29 44bd
00000080: 0719 c63d 8351 69bd ea6b 15bd 033e 993c
00000090: 4117 4dbd 58ef 953c dbc1 c2bb 470a 8bbd
000000a0: c8aa 933d 37e0 90b9 c517 903d c1d3 97bc
000000b0: 6ab7 263d 0a60 6bbd 3211 8a3b 7511 9d3c
000000c0: 61d5 b93c 2d2e d0bd 7039 3e3d 89fc a0bc
000000d0: 7f1c 6fbc 33f1 443c 89ae 50bd c811 2c3d
000000e0: f946 91bd a730 023c 1627 fb3b 1e4c ae3c
000000f0: 647e 2cb8 186a 803d 2aa2 353d bf60 393d
-0.05285287 0.028453711 -0.033939198 0.021222454 0.048783258 -0.035675883 0.032152686 -0.029710574
0.002073507 -0.050431382 -0.06605711 0.0016261686 0.046060346 0.052254803 -0.050749093 0.009535483
0.054687776 0.047998264 -0.05979702 0.02865232 -0.03144493 0.009669405 0.04450088 -0.041429475
0.03221046 0.040398646 -0.043540373 0.06287784 0.008311183 -0.011289676 -0.020480914 -0.047890887
0.09672742 -0.0569625 -0.036479868 0.018706327 -0.050071005 0.018302605 -0.0059435195 -0.067890696
0.07210308 -0.00027632873 0.07035784 -0.01853359 0.04070226 -0.057464637 0.0042134756 0.019173363
0.022684755 -0.10165057 0.046441495 -0.019651668 -0.014594196 0.012020397 -0.0509477 0.042009145
-0.07093615 0.00794617 0.0076645715 0.02127653 -4.1125706e-05 0.06270236 0.044344105 0.04525828

model.backbone.layers.0.channel.0.weight f4 [32, 74]
00000000: 93be 173d 6bc7 47be 2d61 5e3c 9b15 c6bd
00000010: a131 12be c660 94be e89e f03e dd25 cd3e
00000020: cddc 403e 1012 df3d e32b 313e e0d7 f33c
00000030: 806e 5f3d 3e17 3ebe 6b81 debd a68a d8bc
00000040: 071a 74be f7c5 7e3d 4572 c93b 5bc1 76bd
00000050: ec8f 0bbe 11ea 09ba 631a ed3c e784 803c
00000060: 7028 3f39 9ac9 9ebd 57a4 0dbd 54b5 ecbd
00000070: d95a f33d e3f1 e53c fc81 073d eff0 9abd
00000080: dc50 783d dbab 74bb 97f8 b73d 420d b8bc
00000090: f15b 8bbc b98a a23d c07d fcbb 50dc b9bc
000000a0: 24b2 96bd 8417 89bd e182 d6bb 2534 afbc
000000b0: dd48 933d 25ce 7abd 6140 f53d c2bf 12be
000000c0: 87e0 803d aec1 2bbd 43b7 6d3d fb43 5bbc
000000d0: b4c9 afbb e868 bcbb 5c4e 2b3d ec12 b23c
000000e0: eae0 1ebe 8ad6 023d 3520 f43d 42e5 933d
000000f0: 0dd0 01bd f950 30be 57a9 9d3a ddb3 4fbe
00000100: 6ef3 cbbc 0f07 0fbd 8454 d1bd d7dd 2a3c
00000110: 3998 e43d 2484 bf3d 2fa5 95bd 522c 423c
00000120: 7b47 e43a fd8c 503d 5940 48be 8487 d53d
00000130: fb08 133b 7517 c3be 93da c8be c5a1 20be
00000140: 0a64 45be 5972 58be 0905 03be 6f60 af3d
00000150: 39ba 4d3e 9078 b1bb 5579 49bd b80e e63b
00000160: 61ae 213e 9bf4 f1bd 2b47 19bd fc7a 363c
00000170: 460a aa3d 1886 72bd 7af4 133e a6bd e13b
00000180: f5f9 9f3e b7fb 533c 1168 f43d 481f 8cbd
00000190: 5747 9ebd b9b8 53bc 928e 3c3c e5fb 97bc
000001a0: 0107 ee3d b92c 11bc b596 993d be10 dcbd
000001b0: b944 043e 0e05 1c3e c4cf fbbb 8eca db3d
000001c0: 9784 44bd 6295 8e3c 2d96 b2bd c94a e0bd
000001d0: 5c5c b13d 63f8 953d 2405 64bb a918 8bbd
000001e0: f3a7 683d d1c3 c13e f090 773e 9666 b1bc
000001f0: e93b 4c3e 76c0 b1bd a452 bf3b edfa 9bbd
00000200: 9bec 2f3b 821e ebbc 27ed a83d 5915 a93d
00000210: 62f7 38bd 7f2d 1bbc 5ce5 02bd e15e 82be
00000220: 710f b0bd 1d91 32be 6d35 783d c15f 293d
00000230: 12eb 8ebd b61b 97bd 48f4 a73d 432c 283e
00000240: 6f0e 6c3d 39b4 c8bd 9af7 d73a 9697 913c
00000250: c247 09bb 8b36 b4bd 2eed eb3b fb87 7cbd
00000260: 3a34 7a3d 285d 47bd f220 eabd 1047 a33c
00000270: 9864 973d f1f3 083d 2a57 83be 5e16 ad3d
00000280: 5388 7c3c 1ac2 c4bd 64a2 2f3e 8701 9abd
00000290: 7485 07be 0db7 c3be 29ff c6be fd3e debc
000002a0: 75a9 acbe 0b81 3c3e 76dd 333e c17e b3be
000002b0: e6c0 31bd 2801 ab3e 6433 11be 6c9b 8fbd
000002c0: 4d1d eebd a6ee 543e 2fb1 b53e a9e9 a83e
000002d0: c39e f9bc 1766 06bf 68a8 d03e b6f3 93be
000002e0: 9554 b23d e28b d6ba c2f7 14be 675a a4be
000002f0: 9d63 c8bd 684e 633d 7d3c 94be 6a23 df3e
00000300: 9a14 133e 47a5 f0be fb70 803e ebb1 6d3d
00000310: ad60 b23e f98b b43d 397c 253e 3433 b5bd
00000320: 759d e63d 054c 383c 7274 62be a6da 2c3e
00000330: 4be8 d8be e77c 6f3e 0930 4cbd 8f7e 34be
00000340: 4a2b f9be 8d1e 93bd b1b1 3fbe 5492 e7bd
00000350: 53ae 01bd b0ae bfbc e871 9c3e 8a96 abbe
00000360: 84e5 d23d 6b7c 69be 9333 f53e d4b7 26bd
00000370: c858 c33e 251d db3e b61e b13d 2042 873d
00000380: 965a bbbd 4cfa f1be a982 7a3e 3acc 263c
00000390: 3f90 89bd ddfe 88bd 80cb 523c 1063 eebd
000003a0: 8ad8 9d3d 2842 c63c 60e9 933e cf24 cbbc
000003b0: 2b21 d8bd 3d22 bd3e 89f8 94be 99e6 eeba
000003c0: 9f03 de3b e5ae 843d d9b0 373e 0250 863d
000003d0: e61a 9c3d 2dfc 78be b967 b8bb 5259 613e
000003e0: 2c72 473d 4fcf 6e3e 4d30 11bc 6cb9 023e
000003f0: 30fb b23d 66e2 a1bd bc23 93bd d5aa 19bb
0.03704698 -0.19509666 0.013572973 -0.0967209 -0.14276744 -0.28980082 0.46996236 0.4006795
0.18834229 0.10892117 0.17301898 0.029766023 0.05454874 -0.18563554 -0.10864528 -0.0264333
-0.23838054 0.062200513 0.006147655 -0.060242992 -0.1362912 -0.0005261014 0.028943246 0.015688373
0.00018230244 -0.07753296 -0.034580555 -0.11558023 0.11882562 0.028069442 0.033082947 -0.07565486
0.06062399 -0.003733388 0.089829616 -0.02246726 -0.017011615 0.079366155 -0.0077054203 -0.022688061
-0.073581964 -0.066939384 -0.0065463637 -0.02138717 0.07191632 -0.06123175 0.1197517 -0.14330962
0.06292825 -0.041932754 0.0580361 -0.013382907 -0.005364621 -0.0057498105 0.041822776 0.021737538
-0.15515485 0.03194288 0.119202055 0.07221462 -0.031692553 -0.17218389 0.0012028617 -0.20283456
-0.02489635 -0.03491884 -0.10221198 0.010428867 0.11161847 0.09351376 -0.07306897 0.011851387
0.0017416322 0.050915707 -0.19555797 0.10426238 0.0022435773 -0.38103834 -0.3922926 -0.1568671
-0.19276443 -0.2113737 -0.1279489 0.08563315 0.2009057 -0.0054159835 -0.049187977 0.0070207976
0.15789177 -0.11814233 -0.037421387 0.01113772 0.08302741 -0.059209913 0.14448729 0.006889063
0.3124539 0.012938431 0.119339116 -0.06841904 -0.07728451 -0.012922459 0.011508601 -0.01855273
0.1162243 -0.00886076 0.07499448 -0.10745381 0.1291684 0.15236303 -0.0076846797 0.107319936
-0.04797801 0.017405216 -0.0872005 -0.10951764 0.08660194 0.07322767 -0.0034793103 -0.06791813
0.056800794 0.3784471 0.24176383 -0.021655362 0.19944729 -0.08679287 0.005838709 -0.0761622
0.0026843909 -0.02870107 0.08248358 0.08256025 -0.045157798 -0.009471296 -0.031957015 -0.25463012
-0.08596695 -0.17438169 0.060597826 0.041351084 -0.0697843 -0.07378332 0.0820089 0.16423135
0.057630952 -0.098 0.0016476989 0.017772477 -0.0020947312 -0.08799466 0.007199905 -0.06165312
0.061084963 -0.048672825 -0.11432065 0.019931346 0.073922336 0.033435766 -0.25652438 0.08451532
0.015413362 -0.096073344 0.17151791 -0.075198226 -0.13234502 -0.38225594 -0.38866547 -0.027129645
-0.33723035 0.18408601 0.1756495 -0.35057643 -0.043396853 0.3339932 -0.1417976 -0.07012066
-0.116266824 0.20794162 0.35486743 0.3299077 -0.030471211 -0.52499527 0.40753484 -0.28896874
0.08707539 -0.0016368593 -0.14547637 -0.32100222 -0.09784625 0.055494696 -0.289524 0.43581706
0.14363328 -0.47001097 0.25086197 0.058031004 0.34839383 0.0881576 0.16160668 -0.08847657
0.11260501 0.011248593 -0.22114733 0.16880283 -0.42364725 0.2338749 -0.049850497 -0.17626403
-0.4866584 -0.071835615 -0.18720128 -0.11307207 -0.03166039 -0.023398727 0.30555654 -0.3351329
0.10297683 -0.22801368 0.4789091 -0.040702656 0.38153672 0.42795673 0.08648436 0.06604409
-0.09148137 -0.47261274 0.24463905 0.010180527 -0.06716966 -0.06689236 0.012865901 -0.116399884
0.07707317 0.024201468 0.28888988 -0.024797825 -0.10553201 0.36940184 -0.29095867 -0.0018226682
0.006775334 0.06478671 0.17938556 0.06558229 0.07622318 -0.24314947 -0.005627599 0.22006729
0.048692867 0.2332127 -0.008861613 0.12766045 0.087393165 -0.0790451 -0.0718455 -0.002344777

model.backbone.layers.0.channel.0.bias f4 [32]
00000000: a9e3 53be 005c 0bbf 027b e6be 3e71 adbe
00000010: e250 13bf 6626 7ebe 208f 9fbe de49 3dbe
00000020: 58e6 a1be 47d8 aebd 023b febd 5d2e a8be
00000030: cf0c 0ebf a210 92be 729d fcbe 4571 c3be
00000040: 9084 5bbe b9e3 043d 5987 99bc b8e0 a2be
00000050: cae6 7bbe 5c84 cfbe 72f2 21bf 8171 91be
00000060: 71b4 3cbd 2386 92be 63aa a8be 5395 aebe
00000070: 27f8 5cbe 383d b6be 8c89 37be 5a14 88be
-0.20692314 -0.54437256 -0.45015723 -0.3387546 -0.5754529 -0.24819335 -0.31163883 -0.1848521
-0.3162105 -0.085373454 -0.124135986 -0.32847872 -0.55488294 -0.28528315 -0.4933887 -0.38172355
-0.21437287 0.032443736 -0.018741297 -0.31812072 -0.24599758 -0.4053067 -0.6326057 -0.2840691
-0.04607052 -0.28617963 -0.32942495 -0.340983 -0.21579038 -0.3559358 -0.17923564 -0.26578027

model.backbone.layers.0.channel.2.weight f4 [74, 32]
00000000: f776 10be 5a1e 0dbd 6284 1cbc a436 74be
00000010: f4c9 a43e dcff cb3d ca89 1ebe 08cc 1ebf
00000020: a676 3fbc 06fc 593e 02d4 ad3e 2993 013d
00000030: 2518 15be a9e8 f3bc fe50 babe ef22 99be
00000040: 1f5f e1bd bae4 923d d46f 7bbd c8f9 9abd
00000050: 65f8 1f3d 57ff 0d3d 7584 103e 5de7 eebe
00000060: 4575 053e 5678 203e cdfc 57bd e154 ed3d
00000070: ba8b 37bd 6b96 d43c 143e 53be b48e c4bd
00000080: afe8 69be ea24 573e 8f9c 1d3d de27 0f3e
00000090: f9b6 cebd 79ef 84bd e6e5 9b3e 1a54 0cbe
000000a0: 7d63 7b3d b2b5 e43d 289e 9b3d f5ce fabc
000000b0: e681 37be 951c 3f3a 15e3 45be 561f 2cbe
000000c0: 2174 5dbd 0341 2dbd b964 6f3e f1fc 53bc
000000d0: 583b fd3d 6ece 6fbe 1684 af3e 4604 98bd
000000e0: 9e4c c83c 0c2e 21bd e095 c0bd 4dc5 2b3d
000000f0: 7ef2 823d 6250 43be bcf2 9ab9 5afc d7bc
00000100: 9b23 b33d e112 a8be ba70 7c3e d144 4fbe
00000110: ffc6 94bc 605b a8bd ba7b dbbd cd79 973d
00000120: 2359 863d 4e52 c23d f1c2 86be d01a 53be
00000130: 4d3e eebd 8cfc ad3e 060f 6a3d 2b5f 00bd
00000140: 4de6 613d b3af 6abe c485 933e 9eab 21bd
00000150: 35a4 6d3e 5e4c 6f3d 7968 0fbf 284e d73c
00000160: 62a4 96bd ca3a 3a3e d368 6ebd 688e 90be
00000170: 7c61 14be 8820 1b3e 16c2 273e 5210 00bf
00000180: 54d7 38bc e89d 18bd 1e76 4fbc 2ca6 613d
00000190: e626 aebc 8eef 12be 75a1 d3bc 5f8a a3bc
000001a0: bb7a a63c 6f73 1c3d bd0d b8bd c064 3c3c
000001b0: cc3b b1bc 403c 93bd 7dcb c9bc b8c9 a7bc
000001c0: 8514 a13c 065b 1abc 86e0 df3c 2a2e 813c
000001d0: aea6 eb3b 25dd a13d 5c41 8f3d b29d 323c
000001e0: a6ed b73b ed1c 93bd 8fc7 08bd adbf d73c
000001f0: 38c2 5d3c a6d6 663c f713 25bd 628f bebc
00000200: 55dd d3bd 9615 2dbe 2fb0 e33a 2458 82bc
00000210: ade9 99be aa18 b23d 58a5 673d dd6f 4f3c
00000220: 7280 84bd 87b6 88bd 9f10 1b3e 63c4 a33c
00000230: fa93 adbe cc56 4dbe 3d4d 543e a5d9 e8bc
00000240: 46e2 383b 01bf 393d 788b ee3d 2786 0ebb
00000250: b3ef 41be 2a2f edbd 35cb a239 f7f2 92be
00000260: e0d5 babd 579f 5f3d da7b 503d 0df0 103e
00000270: d229 cd3d 566e b0be 2f31 dbbd 941a 56be
00000280: 772d ad3d 8e7e 4cbd c09c dd3e eeb7 22be
00000290: 4a6d 403d 2f7d c1bd 09d7 4abe 3742 3d3e
000002a0: bc01 343e 4d8e 9bbe 562d 54be bd24 9d3d
000002b0: 4de9 41bd 47dc ef3d 493a 28be a8ec 8dbd
000002c0: 8c52 983d 4e73 cabc c65f b03d b9bf eabb
000002d0: 9f6c 953d a3c9 7e3c 8fb4 a3bd 9b73 9bbd
000002e0: 6a45 9a3d c827 2a3e 0be4 97bd 4768 f0be
000002f0: 0b3f 14bc 3d7c 023e 47ee 1f3c 5079 093e
00000300: 6192 6a3d 31cc a53d 9cd9 0bbe 83e7 8e3d
00000310: fa43 02be 4af2 08be 9019 8ebd 1c66 0dbd
00000320: 91ff 10bd 4d39 363e f96c 983d 4c00 c53d
00000330: 344b 19bc dbef ac3d efe6 b9bd da90 c0bd
00000340: f2a3 113e b4ab 36bd 0458 4e3d 1e9e eabd
00000350: f9f0 0cbe f0a5 35bd 1274 f23d a2e5 1fbe
00000360: 5146 013d 058e 9f3d c5a2 bd3d b9e1 643e
00000370: a7c3 423d 69bb 01be 641e 10bd bf44 f13d
00000380: 81a7 653e fb42 6d3e d117 43be 68cd 6b3d
00000390: 542d 88be c295 87be 8eed 04bc 7f8c 853d
000003a0: d6f1 98bd 07c7 b83d 233b cc3d f88f 8dbc
000003b0: ca6a a33d ce93 4dbe 0659 09be adb3 343d
000003c0: 0e29 7e3e 672c df3d 80c7 113e 9696 2abd
000003d0: 66a8 1abe 2b6f 2c3b fc65 cc3c c243 a03d
000003e0: 3bbb 1abd d9f7 373e 98d1 d33d b1ec a53d
000003f0: 3a04 fe3d 8afe 92be 7e6f 1ebe 5a29 3e3e
-0.14107881 -0.034452774 -0.009553047 -0.23848969 0.32185328 0.09960911 -0.1548225 -0.62030077
-0.011686003 0.21287546 0.33950812 0.031634483 -0.14559992 -0.029774027 -0.36389917 -0.29909465
-0.11004471 0.071725324 -0.061385944 -0.07567173 0.039055247 0.03466734 0.14113028 -0.4666089
0.13033016 0.15670905 -0.052731324 0.11588455 -0.044810988 0.025950631 -0.2062915 -0.09597531
-0.22842668 0.21010175 0.038479384 0.13980052 -0.10093493 -0.06490988 0.30448836 -0.13703957
0.061374176 0.11167468 0.07598525 -0.030616263 -0.17920646 0.0007290331 -0.19324906 -0.16808829
-0.054065827 -0.042298328 0.23378266 -0.012938724 0.123648345 -0.2341859 0.3428046 -0.0742269
0.024450596 -0.039350554 -0.094035864 0.041936208 0.06393908 -0.19073632 -0.0002955402 -0.026365448
0.087470256 -0.32826903 0.24652377 -0.20241095 -0.018161295 -0.082205534 -0.10716958 0.073962785
0.0655997 0.094883546 -0.26320603 -0.20615697 -0.11632977 0.3398174 0.057143234 -0.03134076
0.055151273 -0.22918586 0.28812993 -0.039470308 0.23207171 0.05842244 -0.5601879 0.026282385
-0.07355572 0.18186489 -0.058205437 -0.28233647 -0.14490312 0.15149128 0.16382632 -0.500249
-0.011281807 -0.037259966 -0.012662439 0.055090114 -0.021258783 -0.14349195 -0.025833825 -0.019963441
0.020322194 0.038196024 -0.08986995 0.01149863 -0.021634959 -0.07189226 -0.024633164 -0.02048193
0.019663105 -0.009421116 0.02732874 0.015769083 0.0071915006 0.07903508 0.06994888 0.010901855
0.0056130467 -0.071832515 -0.03339344 0.026336515 0.013535075 0.014089262 -0.040302243 -0.02326173
-0.1034495 -0.16902766 0.0017371232 -0.01591117 -0.30061093 0.086961105 0.05655417 0.012660948
-0.064698115 -0.06675439 0.15143059 0.019991105 -0.3390196 -0.20052642 0.20732589 -0.028424093
0.0028211041 0.04534817 0.11647695 -0.0021747441 -0.18939094 -0.115812615 0.0003105045 -0.28700992
-0.09122825 0.054595318 0.050899364 0.14154072 0.10017742 -0.3445918 -0.107027404 -0.20908576
0.08455937 -0.04992538 0.43283653 -0.15890476 0.046979226 -0.09447705 -0.19808592 0.1848229
0.17578787 -0.30382004 -0.2072042 0.07673023 -0.047341634 0.117119364 -0.16428484 -0.06929904
0.074376196 -0.024713185 0.08612017 -0.0071639684 0.072961085 0.015551004 -0.07993423 -0.07590409
0.07532771 0.16616738 -0.074165426 -0.46954557 -0.009048234 0.12742706 0.0097614 0.13425183
0.057268504 0.08095587 -0.1365723 0.06977751 -0.12721244 -0.13373676 -0.069384694 -0.034521207
-0.035399977 0.17795296 0.0744266 0.09619197 -0.009356309 0.08444186 -0.0907725 -0.09402628
0.14222696 -0.044597343 0.050376907 -0.1145594 -0.13763799 -0.044347703 0.11838545 -0.15614942
0.0315612 0.0779076 0.092595614 0.22351731 0.04754987 -0.12669148 -0.035185233 0.117806904
0.22427179 0.23170082 -0.19052054 0.057568938 -0.26597083 -0.26481444 -0.008113278 0.06520938
-0.074680015 0.090223365 0.09972217 -0.017280564 0.07979353 -0.20075914 -0.13412866 0.044116665
0.24820349 0.10897141 0.1423626 -0.041647516 -0.15103301 0.0026311378 0.024950974 0.07825424
-0.037776213 0.1796564 0.10342711 0.08101786 0.1240315 -0.28709823 -0.15472218 0.18570462

model.backbone.layers.0.channel.2.bias f4 [74]
00000000: 7f87 863c 0503 a0bd d8ee 1a3d 79d6 2a3d
00000010: e9ee d03d 1aef ad3d 2f13 1dbd ef08 96bd
00000020: e827 53be 5882 80bc 283a 573e 8b27 d7bd
00000030: 542c ea3c 6141 77bd 88be 153d 6047 a83d
00000040: d003 21be 89e5 123c daf7 91bd dd6c 60bc
00000050: 763a 963e 55a9 71bd 0b0b 3cbd 0a79 24be
00000060: 41e5 013e be4f 153b 6be2 603d 160f 08be
00000070: abc2 953d 27e4 a93d 2a7c 963d 6610 aabc
00000080: 1712 85bd c74f 793d fb74 5b3e 8bee 1dbd
00000090: 131a 153e 7315 423e f57f 30be ff01 6d3d
000000a0: 1a6b cebd 8488 29be 053c 41bd 3a4a 18be
000000b0: c03f 8ebd 91d2 61bd 29bd b13c 3140 f0bd
000000c0: 24db cd3c b4e5 34bd 364d 683d 3aeb 143e
000000d0: 3e97 b1bd d95e 84bd 8805 473e e906 85bd
000000e0: 6416 61bd b888 b4bc c1b8 893d de73 033d
000000f0: 1a2a 1a3d 5586 ebbd 2cf9 57bd 7f2b 48bd
00000100: 3d44 b2b9 00ad 5cbe 150f bdbd a0b4 733d
00000110: f7f3 1b3e b343 05bd b907 093d 095f c7bd
00000120: 0230 293d aa4d db3c
0.016422031 -0.07813076 0.037825435 0.041708443 0.102018185 0.08492871 -0.038348373 -0.07325923
-0.20620692 -0.015687153 0.21018279 -0.10505589 0.02858559 -0.060365085 0.036558658 0.08216739
-0.1572411 0.008965858 -0.07127352 -0.01369783 0.29341477 -0.05899938 -0.04590897 -0.16061798
0.1268511 0.0022783126 0.05490343 -0.13287005 0.073125206 0.0829547 0.07347901 -0.020759773
-0.06497591 0.060867097 0.21431343 -0.03855757 0.14560728 0.18953495 -0.17236312 0.05786323
-0.10079022 -0.16555983 -0.04717638 -0.14872065 -0.06945753 -0.055132452 0.021696644 -0.117309935
0.025128908 -0.044164374 0.05671426 0.14542857 -0.08671425 -0.06463403 0.19435704 -0.06495459
-0.054952994 -0.022037849 0.06724692 0.03209292 0.037637807 -0.11500231 -0.052727863 -0.048869606
-0.00034001647 -0.2155037 -0.09231392 0.05949843 0.15229784 -0.032535266 0.03345463 -0.097349234
0.04130555 0.026770432

model.backbone.layers.1.temporal.0.weight f4 [32, 64]
00000000: ad68 49be 4420 6fbd a596 93be 876c 23be
00000010: a9d4 5bbd 7dcf 9e3c 9a5c 6f3d b16c 3b3e
00000020: 928f 373e b9e7 fd3d 3533 7a3e b7e7 273e
00000030: 57d0 c23d 5eea 253e 8689 a7bd 0b9c 94bc
00000040: 81b8 9ebd fc77 55bd 82ca 523d cca4 d93d
00000050: 0a8e 183e 4114 0f3d 797b e53d e67c 04bd
00000060: a3ed 47bc 84ef 29be 8d37 d8bd 61ef b2be
00000070: 7e6c 44bc 4a28 70be b159 4cbe e3c1 13bc
00000080: 1505 2abd 5a15 7abe 3324 bfbd 32b1 71bd
00000090: e156 5bbe 11fe 093d 3615 773e a885 153e
000000a0: 3754 ccbc c809 60bd 2686 b5bc 79f0 54be
000000b0: 58f9 c0bd 5adc 67be f065 c63d d9c8 c6bd
000000c0: 3bc0 92bd 1057 3e3c 683f 0c3e 881a 913d
000000d0: 9c81 06be 36ef c3bd 5748 17be e708 0bbe
000000e0: df6b 75bd 0904 c9bd b02b 643d 0d55 f4bd
000000f0: eb9d babd 9b91 7a3d 84ef 343d 4596 243f
00000100: 7c2a 31be 684a 603d 5382 69bd 51e1 6a3e
00000110: ccc0 273e dcb6 07bc 9f19 853e b2c0 083e
00000120: 3768 be3a f581 30be 44fb d03b 278b b5bd
00000130: 8a84 733e 8cff ac3e d19a fe3c d030 6a3e
00000140: c86b 26bb d475 b1bd 95e8 88be 78aa 9fbe
00000150: 926a f8bd bb88 0bbe a63f f3bd 6fbd 80be
00000160: 48fd 03be 52ae 13be bf9d ebbd 8105 963c
00000170: 99e5 993d 19dc 683e bf8d 863e f13c 9e3e
00000180: 4fbc 363e 6775 c4bd d4f2 afbd ba17 28bd
00000190: 4b47 a8be ddef 93bd 1853 cebd ef0a 4d3d
000001a0: 1349 0d3e b710 6a3d 5d5a 063d 05fe 243e
000001b0: 4f46 023e d709 90be cb35 3b3d d085 1e3e
000001c0: dba1 9bbc e0ee c13c 8286 d93d b211 793e
000001d0: c6d7 933d 9970 613d b9d0 4e3e c24d 143e
000001e0: 4b76 f83d 82e6 833e ea24 573e a721 2cbd
000001f0: 55ec 44be 3587 52be 0fe6 a7be 2ded 01bf
00000200: 79f5 f53d 49fc ed3d afc0 163e de1a 0d3e
00000210: c744 593e 052e e2bd 064a b53c 3829 10be
00000220: 2b5c 693d 4fdc 3cbe 20a2 f9bd b770 0a3d
00000230: 79f3 b2bd 7f0e 25bd bcaf 053e 875b 693d
00000240: b34a 153e dbcb 02bd 852c 54be 23d9 c43d
00000250: c46f 113d 5f13 24bd 1204 5ebc 4033 01be
00000260: bea0 ae3d 9ecf afbc 2642 3fbc c0e8 293e
00000270: 68d3 cbbc 17aa bdbe 1057 2bbe 10ff 40be
00000280: 5aaf 193e 3e4c c5bb be49 36bd 5934 f83c
00000290: 691d 323d 4b6b 8cbe ebfb 04be fb76 bc3d
000002a0: 4c53 063e 5dde 5d3e d70d 9b3d 85e6 573c
000002b0: f3a7 483e 0d34 e9bc 949f 563e bc75 b73d
000002c0: 7b64 a53d f462 5bbc e2f4 00bc 9b0e a13e
000002d0: 86b3 103e bc76 1ebe bab9 b1be 3867 a2be
000002e0: 05ce bcbe 386c 8ebe e85f 5cbe 431c 93be
000002f0: faaa 633c 5305 e63d f443 b43d 6272 213f
00000300: e9c1 a5be 6855 96be 9408 03be c3bb a5bb
00000310: dec8 adbc ce44 1abe a0d1 0d3d 62d4 a1bd
00000320: 57c6 ba3d c8f7 59be 8200 30bd 71c3 2d3b
00000330: aad1 3c3e 77a5 8b3e 918f b1bd 16b8 ad3c
00000340: 6f4e 673e d456 d4ba 9615 dabd a46b bf3b
00000350: f6cb 8c3c c7b2 643d 5e74 abbd 4882 d2bd
00000360: e8a2 8f3c 33ca 0fbe f7c2 733c 60ab 033d
00000370: 5403 10be 05ef d83b 1b42 57be f98e 43be
00000380: 0418 cfbc f5e9 b53d d5e5 8abd 15a5 a43d
00000390: d6b9 f7bd 74ab 153d 5678 2b3e e130 2dbe
000003a0: 4209 01bd b47b 333c 3827 f8bd 7336 fbbe
000003b0: e9af 88be 7b18 8dbe 50cd 8fbe d60e 3d3d
000003c0: 3f7e 28be f996 89be 237e 22bd e9b6 6b3e
000003d0: db00 4e3d 6a76 403e 9fdd 653c 758e e33e
000003e0: 2077 413e 3bb3 643e a09f e43d adb9 1cbd
000003f0: 2014 133e f113 df3c 4e5f 353d 4100 0a3e
-0.19668837 -0.05838038 -0.2882587 -0.15959369 -0.053669605 0.019386047 0.05843792 0.18303181
0.17925861 0.12397713 0.24433596 0.16396986 0.09512394 0.16202685 -0.081805274 -0.018140813
-0.07750035 -0.05211638 0.051462658 0.10627136 0.14897934 0.034931425 0.11205191 -0.032345675
-0.012202653 -0.16595274 -0.105574705 -0.34948257 -0.011988757 -0.23452869 -0.1995609 -0.009018394
-0.041508753 -0.24422207 -0.09333076 -0.059006877 -0.2141986 0.033689562 0.24129185 0.14601767
-0.0249425 -0.054696828 -0.022158694 -0.20794858 -0.094225585 -0.22642651 0.09687412 -0.097062774
-0.07165571 0.011617437 0.13696063 0.070851386 -0.1313538 -0.0956711 -0.14773689 -0.13577615
-0.059917327 -0.09815223 0.055705726 -0.11930285 -0.09112152 0.061174016 0.044173732 0.64291793
-0.17301363 0.05475846 -0.057009052 0.22937514 0.1638214 -0.008283343 0.2599611 0.13354757
0.0014526908 -0.17237075 0.0063776094 -0.08864432 0.23781028 0.33788717 0.031079682 0.22870183
-0.0025393832 -0.08665052 -0.26739946 -0.31184745 -0.12129702 -0.13626377 -0.11877374 -0.25144526
-0.12889588 -0.14421967 -0.11504697 0.018313171 0.075144954 0.2274021 0.2628002 0.3090587
0.17845272 -0.09592705 -0.08591238 -0.041038252 -0.32866892 -0.07223485 -0.100744426 0.050059255
0.13797407 0.057144847 0.03280102 0.16112526 0.12722133 -0.28132507 0.045705598 0.15480733
-0.018998077 0.023673475 0.106213585 0.24323156 0.0721889 0.055039022 0.20196809 0.14482787
0.121319376 0.257618 0.21010175 -0.04202428 -0.19230779 -0.2055939 -0.32792708 -0.50752527
0.12009711 0.11620385 0.1472194 0.1377978 0.21217643 -0.11043934 0.022130024 -0.14078224
0.056972664 -0.18443416 -0.12189126 0.0337989 -0.08737845 -0.040297028 0.13055319 0.056972053
0.14579277 -0.031932693 -0.20720108 0.09611728 0.03550698 -0.040057536 -0.013550775 -0.12617207
0.08526753 -0.021461304 -0.011673486 0.16592693 -0.02488108 -0.3704383 -0.1673243 -0.18847299
0.15008298 -0.0060210517 -0.04450392 0.030298399 0.04348508 -0.27425608 -0.12986724 0.09202381
0.13117713 0.21666856 0.07570999 0.013177519 0.19595318 -0.028467203 0.20959312 0.08958003
0.08075806 -0.0133902915 -0.007870885 0.31456456 0.14130983 -0.15474981 -0.3471201 -0.31719375
-0.3687593 -0.2781694 -0.2152096 -0.287325 0.013895744 0.11231484 0.088020235 0.6306516
-0.32374504 -0.29362035 -0.12796241 -0.0050577833 -0.021213945 -0.1506531 0.034623742 -0.07901837
0.091198616 -0.21285927 -0.042969234 0.0026514197 0.18439355 0.27274677 -0.08669961 0.021205943
0.22588514 -0.0016200193 -0.106486484 0.005841689 0.0171871 0.055834558 -0.08371805 -0.102787554
0.017533734 -0.14041977 0.014878026 0.032145858 -0.1406377 0.00662029 -0.21021311 -0.19097508
-0.025280006 0.088825144 -0.06782118 0.080392994 -0.12095992 0.036540464 0.16745123 -0.16913177
-0.03150297 0.010954786 -0.121168554 -0.4906498 -0.2669671 -0.2755774 -0.28086329 0.046156727
-0.16454409 -0.26872995 -0.039671075 0.23018993 0.050293785 0.18795171 0.014029889 0.44444624
0.18893099 0.22333996 0.111632586 -0.03826301 0.14363146 0.027231188 0.044280343 0.1347666

model.backbone.layers.1.temporal.0.bias f4 [32]
00000000: 96be 45bd c0a7 8dbe f789 a3be d85e 70be
00000010: b6c3 e7be 84f4 07be abf6 23bf 586b 23be
00000020: d89c 4bbe 6622 adbe 25cd d2be 1daf 25bf
00000030: 5f4e 6cbf 4455 8fbc 35a1 1abf 53dd 26bf
00000040: c802 edbc c926 03bf d88b e3be 25d5 bebe
00000050: 3cd2 3d3d d1b4 4dbf 4fd5 9ebe 3ab3 ebbe
00000060: 3557 2dbf 6172 19bf b38d 0dbf 4481 57be
00000070: 8b5b 18bf 3edc 95be 7094 d5be 12a8 86be
-0.04827746 -0.27667046 -0.31941196 -0.2347368 -0.45266503 -0.13276869 -0.6404826 -0.15958917
-0.1988405 -0.33815306 -0.41172138 -0.64720327 -0.92307085 -0.017496713 -0.6040223 -0.65181464
-0.02893199 -0.51231056 -0.4444263 -0.3727199 0.046343073 -0.8035403 -0.31022117 -0.46035177
-0.6771119 -0.59940153 -0.5529434 -0.21045405 -0.59514683 -0.29269594 -0.4171481 -0.26300102
