experiments/AdversarialDomainAdaptation/saved_models/tsmixer_da_finetuned_3.pt (torch, 731002 bytes, 30 tensors)

model.backbone.static_proj.weight f4 [64, 10]
0	0xbe2dd300	-0.16975021
1	0x3e86ed28	0.2635281
2	0x3db3c6ed	0.087781765
3	0x3e8f98be	0.2804622
4	0xbe8317e9	-0.2560418
5	0x3d81ab57	0.063315086
6	0x3e5639eb	0.20920531
7	0xbe811d0e	-0.2521748
8	0x3e1b21aa	0.1514956
9	0xbe8072d5	-0.2508761
10	0xbe8a85bc	-0.27055156
11	0xbe8b2038	-0.27173018
12	0xbd90be4b	-0.070675455
13	0xbe147d93	-0.14501028
14	0x3e5f11f8	0.21784198
15	0x3d2e966b	0.04262392
16	0x3e0c621c	0.13709301
17	0x3df12eeb	0.11776527
18	0x3d4c5f13	0.049895357
19	0x3e91b550	0.28458643
20	0xbe678441	-0.22609045
21	0xbe599a91	-0.21250369
22	0xbcae9464	-0.021310993
23	0x3e8bc168	0.27295995
24	0x3d5b540b	0.053546946
25	0x3e1ccb59	0.15311946
26	0xbda8c3e0	-0.08240485
27	0xbdfa0451	-0.122078545
28	0xbde4a6a4	-0.11164597
29	0x3e3d3b59	0.1847967
30	0xbd69849a	-0.057011224
31	0x3d483405	0.048877735
32	0x3e48a29a	0.19593278
33	0x3e5b11c0	0.2139349
34	0xbdbf1a5f	-0.09331202
35	0xbe867e04	-0.26268017
36	0x3e512917	0.20425831
37	0xbdb190ea	-0.08670218
38	0xbe7ab1d8	-0.24481905
39	0x3cbe4400	0.023225784
40	0x3c6fd1a8	0.014637388
41	0xbe8a96b2	-0.27068096
42	0x3e21e29b	0.158091
43	0xbe347ce1	-0.17625763
44	0xbe68db04	-0.22739798
45	0xbe3eb6b3	-0.18624382
46	0x3d00039a	0.031253435
47	0x3d9a80a0	0.075440645
48	0xbe7f2094	-0.24914771
49	0x3d9ec826	0.07753019
50	0xbdb9981f	-0.09062218
51	0xbdf9f4a9	-0.12204868
52	0x3d7eedb4	0.06223841
53	0x3df21f62	0.11822392
54	0xbe78ee98	-0.24309766
55	0x3e8afe04	0.27146924
56	0xbdb605c5	-0.08887819
57	0x3d250a50	0.040293038
58	0x3cd053be	0.025430556
59	0x3e4253b2	0.1897724
60	0x3e3da5f6	0.1852034
61	0x3e386b35	0.18009646
62	0xbdcb532a	-0.09927972
63	0xbe3fef60	-0.18743658
64	0x3e4e7526	0.20161876
65	0xbdf93f14	-0.12170234
66	0xbe815336	-0.25258797
67	0x3e151340	0.14558125
68	0xbe172774	-0.14761144
69	0x3c591647	0.01324994
70	0xbeaad303	-0.33364114
71	0x3e3daaad	0.18522139
72	0xbe37c4b9	-0.17946137
73	0x3dbd83b1	0.09253634
74	0x3dd8e476	0.105904505
75	0x3e7b3df8	0.24535358
76	0xbcbae142	-0.02281249
77	0x3d2fc2af	0.042910274
78	0xbe1d4fab	-0.15362422
79	0xbd39d549	-0.04536942
80	0xbea95cf5	-0.33078733
81	0x3db91b82	0.0903845
82	0xbd4c7747	-0.04991844
83	0x3e227366	0.15864334
84	0xbdc1294f	-0.09431707
85	0x3e358de0	0.17729902
86	0x3d5adf29	0.05343548
87	0xbe78366e	-0.24239513
88	0xbe680a64	-0.22660214
89	0xbe500a4c	-0.20316428
90	0xbe5711ee	-0.21002933
91	0xbc894a0c	-0.016758941
92	0x3e5f8b72	0.21830538
93	0xbe5fce56	-0.21856055
94	0xbe1c5fa6	-0.15270862
95	0x3d7f28a1	0.062294606
96	0xbe650626	-0.22365627
97	0xbdb9fb88	-0.09081179
98	0xbe84043a	-0.25784475
99	0x3e3e6cdc	0.18596214
100	0xbe6edcf3	-0.23326473
101	0xbe01f8ff	-0.1269264
102	0xbe967f68	-0.29394078
103	0xbdcf9e33	-0.10137596
104	0xbe67720a	-0.22602096
105	0xbe8f9d15	-0.28049532
106	0x3d9c2f14	0.07626167
107	0xbd9a863d	-0.07545135
108	0xbe1ea139	-0.15491189
109	0xbde3dbc9	-0.11125905
110	0xbd8ee860	-0.06977916
111	0xbe875a0b	-0.26435885
112	0x3e69923e	0.22809693
113	0xbdf41b3f	-0.11919259
114	0x3e520b16	0.20512041
115	0x3c480448	0.012208052
116	0xbe8e8ed7	-0.27843353
117	0x3d2baead	0.04191463
118	0xbda16476	-0.078804895
119	0x3e4cb650	0.19991422
120	0x3d5c8c48	0.05384472
121	0x3d7d6884	0.061867252
122	0xbe8dcd00	-0.27695465
123	0x3dde8038	0.108642995
124	0x3cbc871b	0.023013642
125	0x3e91e943	0.28498277
126	0xbe3431f7	-0.17597185
127	0x3e8264ae	0.25467438
128	0xbd898cb6	-0.067162916
129	0xbddc457b	-0.1075544
130	0x3e5abf51	0.21362044
131	0x3e2561c3	0.16150574
132	0xbe7739eb	-0.24143188
133	0x3e881440	0.2657795
134	0x3e4f2192	0.2022765
135	0xbde48d58	-0.11159772
136	0x3e582573	0.21108036
137	0xbda035be	-0.078227505
138	0xbdedd311	-0.11612523
139	0xbc8daf88	-0.017295614
140	0x3e68e711	0.22744395
141	0x3de10a9d	0.109883524
142	0x3ddd9d89	0.10821063
143	0xbbbb8731	-0.005722903
144	0xbe41f501	-0.18941118
145	0xbe63995e	-0.22226474
146	0xbe1e4335	-0.15455325
147	0xbe1de66a	-0.15419927
148	0xbe84e919	-0.2595909
149	0xbe932ce9	-0.287452
150	0x3e5d86a9	0.216334
151	0xbe59b359	-0.21259822
152	0x3e03cc2f	0.12870859
153	0x3e846384	0.25857174
154	0x3dfa1431	0.122108825
155	0xbddeb6c7	-0.10874706
156	0xbe7f335a	-0.24921933
157	0x3e049570	0.12947631
158	0x3e8d2732	0.27568966
159	0x3e2cf45b	0.16890089
160	0xbd64a465	-0.05582084
161	0x3c271820	0.010198623
162	0x3e5a0117	0.21289478
163	0x3e1081fa	0.14112082
164	0x3e91bcae	0.28464264
165	0x3d30a01f	0.043121453
166	0x3dffa1dd	0.12482045
167	0xbd593c59	-0.053036068
168	0x3e8ddd7a	0.27708036
169	0xbe979d5a	-0.29612237
170	0xbdab0349	-0.08350236
171	0x3e31547d	0.17317386
172	0x3e72bc08	0.2370454
173	0x3e9b31fb	0.3031157
174	0xbe95c507	-0.29251882
175	0x3e450296	0.19239268
176	0x3dd41b05	0.10356716
177	0x3e82a726	0.2551815
178	0xbdeb58eb	-0.11491569
179	0x3e310387	0.17286502
180	0xbdec0b37	-0.115255766
181	0xbe8c7fa1	-0.27441123
182	0x3e853669	0.26018074
183	0xbde99289	-0.114049025
184	0x3e0a6c41	0.13517858
185	0x3e8ef32b	0.27919897
186	0x3e2d4749	0.16921724
187	0xbe8fce60	-0.2808714
188	0x3e018181	0.12647058
189	0xbdc4cc93	-0.09609332
190	0xbe5fd2a8	-0.21857703
191	0xbe1e2b82	-0.15446284
192	0xbe15b3bf	-0.14619349
193	0xbda7dc68	-0.08196336
194	0x3e612978	0.21988475
195	0xbdad792a	-0.08470376
196	0xbea21f6c	-0.31664598
197	0x3e638588	0.22218907
198	0xbe445c15	-0.19175752
199	0x3e5c76a3	0.21529631
200	0xbe821522	-0.25406748
201	0xbde4cfc8	-0.11172444
202	0xbe2860b5	-0.16443141
203	0x3b035bfc	0.002004384
204	0xbe484705	-0.19558342
205	0xbe777b11	-0.2416804
206	0x3e94bbaf	0.2904944
207	0x3ea5a835	0.32354894
208	0xbdbdbe36	-0.092647955
209	0x3de4adc8	0.11165959
210	0xbe8bf892	-0.27338082
211	0x3d2dd369	0.042437945
212	0xbd6937a5	-0.056937832
213	0xbd1b6fed	-0.037948538
214	0xbe8ae047	-0.27124235
215	0xbd884208	-0.066532195
216	0xbe4d31b5	-0.20038493
217	0x3ea27f66	0.31737822
218	0xbe5f95a3	-0.21834426
219	0xbde7c637	-0.11317103
220	0x3dabb70c	0.08384523
221	0x3e274fb3	0.16338997
222	0xbdb6ea24	-0.089313775
223	0x3d8480c0	0.064698696
224	0x3e36c239	0.17847528
225	0x3e38590f	0.18002723
226	0xbe76ec64	-0.24113613
227	0xbe11e339	-0.14246835
228	0xbe8857d2	-0.26629502
229	0x3e02ad02	0.1276131
230	0x3a37a490	0.0007005418
231	0xbc7aaf2e	-0.015300555
232	0xbe00a233	-0.12561874
233	0x3e572dfd	0.21013637
234	0x3e8b7acc	0.27242124
235	0x3e291f47	0.16515838
236	0xbd317ce3	-0.043331992
237	0xbe530b38	-0.20609748
238	0xbdf4f16e	-0.119601116
239	0x3bf51321	0.007479087
240	0xbea55198	-0.32288814
241	0xbe5c2c5b	-0.21501295
242	0xbc3b2e6e	-0.011424644
243	0xbdf1aaca	-0.118001536
244	0x3e316681	0.17324258
245	0x3ca6bedb	0.020354679
246	0xbd247153	-0.040147137
247	0x3d2a897b	0.041635018
248	0x3e5ab479	0.21357907
249	0xbe3288f6	-0.17435059
250	0x3e64ce28	0.22344267
251	0x3e8ab6df	0.27092645
252	0x3e7f2345	0.24915798
253	0x3e6bee33	0.23040085
254	0xbe824350	-0.2544198
255	0x3db117b0	0.08647096

model.backbone.static_proj.bias f4 [64]
0	0xbe9a1a5b	-0.30098233
1	0x3dc0892e	0.09401165
2	0xbe287e6c	-0.16454476
3	0x3e30bd09	0.17259611
4	0x3e77b6ad	0.24190779
5	0xbe8032b1	-0.25038674
6	0x3e7817f3	0.24227886
7	0x3e3a1172	0.18170717
8	0xbe179501	-0.14802934
9	0x3dc27010	0.094940305
10	0x3e195b70	0.14976287
11	0x3dd2ed03	0.10299113
12	0xbe934254	-0.28761542
13	0xbdccc000	-0.099975586
14	0xbe8141d1	-0.25245526
15	0xbe921643	-0.2853261
16	0x3d58dbed	0.052944113
17	0x3ad38619	0.0016137987
18	0x3db981a8	0.09057933
19	0x3e7dd19f	0.24786995
20	0x3c9e63d4	0.019334711
21	0xbcf500e9	-0.02990766
22	0xbc8632a9	-0.016381579
23	0x3e19f2ca	0.15034023
24	0xbe765c69	-0.24058689
25	0x3c60d6e6	0.013723111
26	0xbe289dac	-0.16466397
27	0xbe4c5c93	-0.1995719
28	0x3e8b570a	0.27214843
29	0x3e2a9c5b	0.16661207
30	0x3e2e7055	0.17035039
31	0xbaef6cd6	-0.0018266689
32	0xbd32cddd	-0.043653358
33	0xbe69619d	-0.22791143
34	0xbe45f87a	-0.19333068
35	0x3d4a38b2	0.049370475
36	0xbe84426b	-0.25831923
37	0xbe850f64	-0.25988305
38	0xbe7cebc0	-0.24699306
39	0xbe25daa8	-0.16196692
40	0xbe902b89	-0.28158215
41	0x3e95f4ea	0.29288417
42	0xbe39dad9	-0.1814989
43	0x3d910f29	0.0708297
44	0x3e270363	0.16309886
45	0xbe22803d	-0.15869232
46	0xbe2bc6ee	-0.16775104
47	0xbd8a36cb	-0.06748732
48	0x3e8cb49c	0.27481544
49	0x3d9bca24	0.07606915
50	0x3e5479df	0.20749615
51	0xbc924391	-0.017854484
52	0x3e392aa2	0.1808267
53	0x3e89ffbd	0.26952925
54	0x3d8775d3	0.0661427
55	0xbe836020	-0.25659275
56	0x3c2ff021	0.010738404
57	0xbd337d26	-0.043820523
58	0xbe8364d6	-0.2566287
59	0x3c91004f	0.017700342
60	0xbe867475	-0.26260725
61	0x3dc4015b	0.09570571
62	0x3e1258c8	0.1429168
63	0xbd22e610	-0.039770186

model.backbone.layers.0.temporal.0.weight f4 [32, 64]
0	0xbd675a57	-0.05648264
1	0x3deebcb3	0.11657085
2	0x3df971ec	0.12179932
3	0xbdb3161e	-0.08744453
4	0x3dc5bb21	0.09654833
5	0x3c4e33b1	0.012585566
6	0x3db66fd2	0.08908047
7	0x3e063245	0.13105114
8	0x3da6734d	0.08127461
9	0x3c040f55	0.008060296
10	0x3e07b4c8	0.13252556
11	0x3d33e974	0.04392381
12	0xbd8f540a	-0.06998451
13	0xbdba1acc	-0.09087142
14	0x3dc5bc0f	0.0965501
15	0xbcf8adea	-0.030356366
16	0xbd0f4b30	-0.034983814
17	0xb84c9088	-4.8771995e-05
18	0x3e07ae5a	0.13250104
19	0xbc179a12	-0.009253042
20	0xbd89dc95	-0.06731526
21	0x3d2d025d	0.042238582
22	0x3dbba160	0.09161639
23	0x3cb87033	0.022514438
24	0x3e0e9812	0.13925198
25	0x3dd87afc	0.105703324
26	0xbd862872	-0.06550683
27	0xbd19aa73	-0.03751607
28	0x3dc4277e	0.09577845
29	0xbd898409	-0.06714637
30	0xbda010bf	-0.07815694
31	0x3d947215	0.07248322
32	0x3c2862a5	0.010277425
33	0x3df649cd	0.12025795
34	0xbddf33e5	-0.1089857
35	0x3c2c2b27	0.010508335
36	0x3dff224e	0.12457715
37	0x3d973add	0.07384274
38	0x3e097ef6	0.13427338
39	0xbc59762a	-0.013272801
40	0xbc0565b0	-0.00814192
41	0xbd1b1d4c	-0.037869737
42	0xbd9f3db4	-0.07775441
43	0x3c08abb8	0.008341722
44	0x3d78150f	0.060566958
45	0x3dd2ea68	0.10298616
46	0xbd673c20	-0.056453824
47	0x3b184cb6	0.0023239083
48	0xbd809d34	-0.06279984
49	0x3d8fc5be	0.07020138
50	0xbd8e1296	-0.06937139
51	0x3d7cfccc	0.061764523
52	0x3d1052f0	0.035235345
53	0xbd07aa8c	-0.03312163
54	0xbcd90a4b	-0.026494166
55	0xba84937c	-0.0010114755
56	0xbcb69362	-0.022287074
57	0xbd555463	-0.05208243
58	0x3d9ae112	0.0756246
59	0x3e01383c	0.12619108
60	0x3c75f79b	0.015012647
61	0x3cd866d4	0.02641622
62	0x3daa566a	0.083172634
63	0xbda12cae	-0.0786985
64	0xbc9cd0d3	-0.019142544
65	0xbdc85a83	-0.09782889
66	0xbdfd9939	-0.123827405
67	0xbe0217b4	-0.12704355
68	0x3d65b26d	0.056078363
69	0xbd3555fd	-0.044271458
70	0xbda8805c	-0.082276076
71	0xbd941e92	-0.07232393
72	0x3d44ae94	0.048018053
73	0xbd52f981	-0.051507477
74	0xbe01f34e	-0.1269047
75	0xbdcfc992	-0.10145868
76	0x3d88d7a2	0.06681754
77	0xbd8500aa	-0.06494267
78	0xbdc13950	-0.094347596
79	0x3d39bfdb	0.045348983
80	0x3cf73d16	0.030180495
81	0xbd8a07bb	-0.06739756
82	0x3d4e86f4	0.05042167
83	0x3dcc0ba8	0.09963161
84	0x3db0c035	0.086304106
85	0xbdb43da3	-0.08800819
86	0x3d847167	0.06466942
87	0x3cc10065	0.023559758
88	0xbd7d4b2d	-0.06183927
89	0x3dac7888	0.08421427
90	0x3d9e8824	0.077408105
91	0xbdf57035	-0.119842924
92	0x3d1abb5d	0.03777634
93	0x3c7aed09	0.015315303
94	0xbdc6756b	-0.096903645
95	0x3cc86a45	0.024464736
96	0xbdcc3e14	-0.09972778
97	0xbc4e19a4	-0.012579355
98	0x3d24e6c9	0.040259156
99	0x3d2baaea	0.041911043
100	0xbcde8306	-0.027162086
101	0x3da89311	0.08231176
102	0x3d8bd324	0.06827381
103	0xbd8a622c	-0.06757006
104	0xbde65ee4	-0.11248568
105	0xbd58d2c6	-0.052935384
106	0x3ba03ea7	0.0048902812
107	0x3db6ce91	0.08926118
108	0xbba023e7	-0.0048870924
109	0x3d60c052	0.05487091
110	0xbd242824	-0.040077344
111	0xb9dc0ef3	-0.00041972808
112	0x3dbac79e	0.09120105
113	0xbb9690a5	-0.0045948797
114	0xbdb781e9	-0.08960325
115	0x3dba0770	0.0908345
116	0x3d1650ce	0.036698155
117	0x3de63bb7	0.112418585
118	0x3dbec59f	0.09315037
119	0xbcf276d4	-0.029597677
120	0x3d8a4f9d	0.06753466
121	0x3d943340	0.07236338
122	0x3d068f36	0.03285142
123	0x3dc2a54f	0.09504186
124	0xbcc63aab	-0.024197897
125	0x3dc6af62	0.0970142
126	0xbdeb11de	-0.11478017
127	0xbe0bc8e3	-0.13650851
128	0x3d649697	0.055807676
129	0x3ddf4b0c	0.10902986
130	0xbda97c44	-0.08275655
131	0x3915b6d1	0.00014277852
132	0x3da8c4e5	0.0824068
133	0x3cc7b135	0.024376491
134	0x3d75b187	0.059983756
135	0xbdc9eb67	-0.098593526
136	0x3d8d0db6	0.06887381
137	0xbd0ba68e	-0.034094386
138	0x3cf6e5c0	0.03013885
139	0xbd475bf3	-0.048671674
140	0x3d5b08d7	0.053475227
141	0x3cf1378b	0.02944543
142	0xbd95df6b	-0.07318004
143	0x3bd34cbd	0.006448357
144	0xbaa516e1	-0.001259532
145	0x3b502735	0.003176165
146	0xbdd42386	-0.10358338
147	0x3d95c00f	0.07312023
148	0x3dcd5a29	0.10026962
149	0xbd1fd086	-0.039017223
150	0xbdc40c04	-0.09572604
151	0x3dc8cf3a	0.0980515
152	0x3ceceb05	0.02892066
153	0x3d304b5a	0.04304061
154	0x3dd20a1e	0.10255836
155	0xbd901659	-0.070355125
156	0x3bfc5e29	0.0077016545
157	0x3db11125	0.08645848
158	0x3dff3fa9	0.12463314
159	0x3cd85fc6	0.026412856
160	0x3da92902	0.08259775
161	0xbcc3bf31	-0.023894878
162	0xbd7fefe8	-0.06248465
163	0x3d838141	0.064211376
164	0x3cbaba92	0.022794042
165	0xbcfa2c53	-0.030538714
166	0x3da774af	0.081765525
167	0x39892ed7	0.00026165575
168	0x3d3f9a3e	0.046777956
169	0xbc131784	-0.0089777745
170	0xbd362517	-0.044468965
171	0x3e0e64fb	0.13905708
172	0xbd812882	-0.063065544
173	0xbdd80b30	-0.10549009
174	0x3db14cd1	0.0865723
175	0xbdb29ed7	-0.087217025
176	0x3d807288	0.06271845
177	0x3d5db6c2	0.05412937
178	0x3d6af822	0.057365544
179	0x3cc7e924	0.024403162
180	0x3c348f90	0.011020556
181	0x3cf5ed64	0.030020423
182	0xbbe844ad	-0.007088265
183	0xbbf8bccf	-0.007590867
184	0x3d8720fe	0.0659809
185	0x3d63e9c4	0.05564286
186	0xbd5ed63b	-0.054403525
187	0x3db871d4	0.09006086
188	0x3c9866eb	0.018603763
189	0x3dafc73e	0.08582924
190	0x3e094820	0.1340642
191	0x3d9b1fb5	0.07574407
192	0xbcd3e1d9	-0.025864528
193	0x3d8e12a6	0.06937151
194	0xbd0ca1d0	-0.034334004
195	0x3d51f3f2	0.051258035
196	0xbd7e4182	-0.062074192
197	0xbd2143f4	-0.039371446
198	0x3c4bd78c	0.012441527
199	0xbd04fcfd	-0.03246783
200	0x3d57ca69	0.052683268
201	0x3cf74279	0.030183064
202	0xbdb02181	-0.0860014
203	0xbd2ce0ff	-0.04220676
204	0x3d7af70e	0.061270766
205	0x3d2e33d8	0.04252991
206	0x3dac76c5	0.08421091
207	0xbdedc5f8	-0.11610025
208	0xbd295a13	-0.041345667
209	0xbd8c2e06	-0.06844716
210	0x3d5d4343	0.054019224
211	0x3bce096b	0.006287744
212	0x3dc87453	0.09787812
213	0x3c9c15a4	0.019053288
214	0xbd3d04f2	-0.046147294
215	0x3d17b6bb	0.0370395
216	0x3d5e8501	0.05432606
217	0x3bd444ac	0.006477913
218	0x3d98d5ca	0.07462652
219	0xbc1c14c4	-0.009526435
220	0x3d6009cd	0.054696847
221	0xbd43cca2	-0.047802575
222	0xbd1c761c	-0.038198575
223	0xbd180ae3	-0.037119757
224	0xbd8e0cbd	-0.069360234
225	0x3ce9e4a6	0.02855141
226	0xbdaf84fc	-0.08570287
227	0xbde2e22b	-0.11078294
228	0x3dd6b5bd	0.104838826
229	0x3d9984d0	0.07496035
230	0xbca517dd	-0.02015298
231	0x3d9f5f92	0.077819005
232	0x3d5ebb27	0.0543777
233	0xbdf400e6	-0.11914234
234	0xbbbf9b94	-0.005847404
235	0x3d89f886	0.06736855
236	0xbd90f9a9	-0.07078869
237	0x3d413075	0.047165353
238	0xbddfdb0c	-0.10930452
239	0xbd174a04	-0.03693582
240	0xbdaa6b09	-0.083211966
241	0xbdb38987	-0.08766466
242	0xbd25288a	-0.040321864
243	0xbcd092f9	-0.025460707
244	0x3d9d16f8	0.076703966
245	0xbde7f1d8	-0.11325425
246	0x3b4f7160	0.003165327
247	0x3bc5155b	0.0060145087
248	0xbd847cc9	-0.064691134
249	0x3bfedac3	0.0077775433
250	0x3de6f822	0.11277796
251	0x3d3aa441	0.0455668
252	0xbd8a287b	-0.06746002
253	0x3cf37c03	0.02972222
254	0x3da466c4	0.080274135
255	0x3dd3a215	0.10333649

model.backbone.layers.0.temporal.0.bias f4 [32]
0	0x3dc7909d	0.0974438
1	0xbd85f869	-0.06541521
2	0x3d9d4972	0.07680024
3	0xbe1a26fd	-0.15053935
4	0xbdc9cf41	-0.09853984
5	0x3d1b6733	0.037940215
6	0xbe06d88b	-0.13168542
7	0xbe46dcc8	-0.19420159
8	0xbe0bdb5f	-0.13657902
9	0x3dade12b	0.08490213
10	0x3d00952b	0.031392258
11	0x3cd1fec3	0.025634175
12	0x3d59cad7	0.05317196
13	0x3bf97624	0.0076129604
14	0xbdbb0023	-0.091308855
15	0x3de3db71	0.111258395
16	0xbdbe32fd	-0.09287069
17	0xbcda46b1	-0.026645036
18	0x3d3e0350	0.046389878
19	0xbbca2fe2	-0.006170259
20	0xbd840929	-0.0644706
21	0x3d658b30	0.056040943
22	0x3cd04e08	0.025427833
23	0xbc404efa	-0.0117375795
24	0x3d302732	0.04300613
25	0x3e0d6dcf	0.1381142
26	0x3e01cc0b	0.12675492
27	0x3dd2259b	0.10261079
28	0x3dc0ac4b	0.09407862
29	0x3d46dfe0	0.048553348
30	0xbd2a6620	-0.0416013
31	0xbe190c8b	-0.14946191

model.backbone.layers.0.temporal.2.weight f4 [64, 32]
0	0x3ddd9216	0.10818879
1	0xbd822432	-0.0635456
2	0x3b7c031a	0.0038453997
3	0x3d838a7d	0.06422899
4	0x3dbf8aad	0.09352622
5	0x3db96c88	0.09053904
6	0x3e2b0ac8	0.16703331
7	0x3d195f0a	0.037444152
8	0xbdc21f07	-0.09478574
9	0x3d0782f3	0.033083867
10	0xbd626076	-0.055267774
11	0x3e3506e2	0.17678407
12	0xbbc2cd97	-0.0059449184
13	0x3e6229b9	0.22086228
14	0x3da4c323	0.08045032
15	0xbdc6e65f	-0.097119085
16	0x3e3363e9	0.17518581
17	0x3e0d58e0	0.13803434
18	0xbe37f3fb	-0.17964165
19	0xbd9268c0	-0.07148886
20	0x3c504b77	0.012713305
21	0xbd93fe39	-0.072262235
22	0xbd645b41	-0.05575109
23	0x3d92fbda	0.07176943
24	0x3d96ef0e	0.07369815
25	0x3e23aafb	0.15983193
26	0xbdfcd9a8	-0.12346202
27	0xbdd5bc78	-0.10436338
28	0xbd4094ba	-0.047016837
29	0x3debadea	0.11507781
30	0xbb92177a	-0.004458365
31	0xbdd07457	-0.1017844
32	0xbe1a395b	-0.15060942
33	0xbe07dba5	-0.13267381
34	0x3da8dcaf	0.08245217
35	0xbe25f6c4	-0.16207415
36	0x3dae1472	0.084999934
37	0xbe0d63f1	-0.13807656
38	0xbdd8b916	-0.10582177
39	0xbc955f81	-0.018234016
40	0xbe189c88	-0.14903462
41	0xbe13cd09	-0.14433683
42	0x3d68c4c5	0.05682828
43	0xbe068b3c	-0.13139051
44	0xbe00e986	-0.12589082
45	0x3d0618a7	0.032738354
46	0x3c6b9bbb	0.014380391
47	0x3e1ba075	0.15197928
48	0x3e1fe3b5	0.15614207
49	0xbd8ef8a4	-0.06981018
50	0xbe5dc31f	-0.21656464
51	0xbdaac6c5	-0.083386935
52	0x3e1aa41a	0.15101662
53	0x3e0950f0	0.13409781
54	0xbcc9faf0	-0.02465579
55	0xbd9ef7fb	-0.07762142
56	0x3d86583c	0.06559798
57	0xbb55b666	-0.0032609939
58	0x3c368b2d	0.0111415805
59	0x3e251d22	0.16124395
60	0xbddf27da	-0.10896273
61	0x3dce9191	0.10086358
62	0xbda3abc8	-0.07991749
63	0xbded6a67	-0.1159256
64	0xbe5383e7	-0.20655786
65	0xbdf07930	-0.11741865
66	0xbdc5cc18	-0.096580684
67	0xbe2a4a6c	-0.16629952
68	0x3c430a38	0.011904292
69	0x3e064bb6	0.13114819
70	0x3e29102d	0.16510077
71	0x3d46164b	0.048361104
72	0xbe0baff5	-0.13641341
73	0x3db94332	0.090460196
74	0x3e1d6195	0.15369256
75	0x3d301db5	0.04299708
76	0xbdfb1cd3	-0.12261357
77	0x3d2b8dd3	0.0418833
78	0x3e4cf41a	0.20014992
79	0x3dd09637	0.10184901
80	0x3da6a656	0.08137195
81	0x3db2805c	0.08715889
82	0xbe26218e	-0.16223738
83	0x3d6374de	0.055531375
84	0xbd716031	-0.058929626
85	0xbda1ad4b	-0.07894381
86	0x3e2829dd	0.1642222
87	0x3de138b4	0.109971434
88	0xbdb5903c	-0.08865401
89	0x3d6e2627	0.058141854
90	0x3cc5209c	0.0240634
91	0x3e0b69eb	0.13614623
92	0x3e03769e	0.12838218
93	0x3bc77dd7	0.0060879993
94	0x3cc34d6f	0.023840634
95	0x3dbdd6d7	0.09269493
96	0xbe32237c	-0.17396349
97	0x3de82c57	0.11336582
98	0xbde3bcb6	-0.11119978
99	0xbdd6011b	-0.104494296
100	0x3d5c997d	0.053857315
101	0xbdd8ddf9	-0.10589213
102	0xbcd055ae	-0.02543148
103	0x3df56aa5	0.119832315
104	0xbe0e91f6	-0.13922867
105	0xbe3572b1	-0.17719533
106	0xbe0f1891	-0.13974215
107	0x3dac12b0	0.08402002
108	0x3e1d282b	0.15347354
109	0x3caeb487	0.021326317
110	0x3e58e6fb	0.21181862
111	0x3e091109	0.13385405
112	0x3b44f767	0.003005469
113	0x3cec1590	0.028818876
114	0xbe4e3ccd	-0.20140381
115	0x3de35c86	0.11101632
116	0xbdfb238c	-0.122626394
117	0x3e042557	0.12904869
118	0xbc643cb9	-0.013930493
119	0xbd3109e9	-0.04322234
120	0xbcf56881	-0.029957058
121	0xbdf7bb8f	-0.12096321
122	0xbd43bc2e	-0.047786884
123	0x3de83735	0.11338655
124	0xbd8ee24f	-0.06976759
125	0xbd7aefa3	-0.06126369
126	0xbe37843d	-0.17921539
127	0xbe04a30f	-0.12952827
128	0x3d93b8f0	0.072130084
129	0xbd445db2	-0.047940917
130	0xbe327f28	-0.17431319
131	0xbda25efd	-0.07928274
132	0xbe371447	-0.17878829
133	0x3c9a994c	0.018871926
134	0xbb2259b4	-0.0024772706
135	0xbdd60bb2	-0.104514495
136	0x3d482bfe	0.04887008
137	0x3d6f999a	0.058496095
138	0xbd8b5457	-0.06803196
139	0x3d89869e	0.06715129
140	0xbda8cff4	-0.08242789
141	0x3e2ef916	0.17087206
142	0x3dc66ee6	0.09689121
143	0x3e47c3c6	0.19508275
144	0x3e362b15	0.17789872
145	0xbe05a105	-0.13049705
146	0x3db6d617	0.08927553
147	0x3d5d3b4c	0.054011628
148	0x3da553ea	0.08072646
149	0xbe1fef4b	-0.15618627
150	0xbcde174a	-0.027110714
151	0x3e2a1a30	0.16611552
152	0xbd8c2474	-0.068428904
153	0xbdb04b72	-0.0860814
154	0xbe0c2e0f	-0.13689445
155	0x3da62981	0.08113385
156	0xbd2223a3	-0.039584767
157	0x3c6ce7c8	0.014459558
158	0x3ce5c173	0.028046345
159	0x3dfd1cba	0.12358995
160	0xbd81642b	-0.06317934
161	0x3bc05655	0.0058696666
162	0x3c96f50d	0.018427396
163	0x3d194706	0.03742125
164	0xbb021bf3	-0.0019853085
165	0x3e05560d	0.13021107
166	0xbdf64eee	-0.120267734
167	0xbdf0b882	-0.11753942
168	0x3e0de2f3	0.13856106
169	0xbe27bec3	-0.16381364
170	0xbdf8e1ed	-0.12152467
171	0x3c67c67d	0.014146444
172	0x3d6be3b6	0.05759021
173	0x3e1bd250	0.15216947
174	0xba77f08b	-0.0009458146
175	0x3dbdd968	0.092699826
176	0xbc822e4a	-0.015891213
177	0xbdd86550	-0.10566199
178	0x3e0e1ccc	0.13878173
179	0x3c0ee10a	0.008720646
180	0xbdbdcc19	-0.09267444
181	0xbd80047d	-0.06250856
182	0xbdc8150d	-0.0976964
183	0xbd03d3e4	-0.032184497
184	0xbd862e14	-0.065517575
185	0x3e4d3b32	0.20042112
186	0xbd421375	-0.047381837
187	0x3d8fb534	0.07016984
188	0xbd197364	-0.03746356
189	0xbbfbe0ff	-0.0076867337
190	0xbdf31703	-0.118696235
191	0xbe0c89ab	-0.13724391
192	0xbe24ad23	-0.16081671
193	0x3e23e15a	0.16003934
194	0xbdc33367	-0.095312886
195	0x3da083c6	0.07837634
196	0x3e01b67b	0.12667267
197	0x3bb5e6ba	0.0055511864
198	0x3cb5bd0d	0.022184873
199	0xbc918a59	-0.017766165
200	0xbdada19a	-0.08478089
201	0xbe3dbf1c	-0.18529934
202	0x3e1c240a	0.15248123
203	0x3d133d89	0.035947356
204	0xbd720245	-0.059084196
205	0xbe001af5	-0.12510283
206	0x3d092dad	0.033490825
207	0xbdaa76ad	-0.08323417
208	0x3dcc6d6a	0.099818066
209	0xbe3b90a9	-0.18316902
210	0xbe2fc961	-0.17166664
211	0x3e0f3f24	0.1398893
212	0xbe36ed1d	-0.17863889
213	0xbd838f6f	-0.06423842
214	0x3d5a0620	0.053228498
215	0xbcb0ec83	-0.021597153
216	0xbe005618	-0.12532842
217	0x3e26c4f9	0.16286077
218	0x3c68bb8b	0.01420487
219	0x3d9b4962	0.07582356
220	0xbde4a153	-0.11163583
221	0x3d9ff466	0.07810287
222	0x3d6ef50f	0.058339175
223	0x3e302ec6	0.17205343
224	0x3d673bc8	0.056453496
225	0xbdaa8198	-0.08325499
226	0xbdfe76e7	-0.124250226
227	0xbcc54c0a	-0.02408411
228	0x3dc71820	0.09721398
229	0x3dab4fcb	0.08364829
230	0xbd0894a9	-0.0333449
231	0xbdbc6ccc	-0.09200439
232	0x3dd0890b	0.10182389
233	0x3e00e3a0	0.12586832
234	0xbe2cf4ec	-0.16890305
235	0xbcf0db9d	-0.029401595
236	0x3ccd8c24	0.025091238
237	0xbd872de2	-0.06600548
238	0x3e4372b4	0.19086725
239	0xbd5250f3	-0.05134673
240	0xbdf132bc	-0.11777255
241	0x3cdc8659	0.02691953
242	0xbd5eb569	-0.054372225
243	0x3e032b33	0.12809448
244	0x3d739a1f	0.059473153
245	0x3ca810e3	0.020515865
246	0x3bbfa82c	0.005848905
247	0xbe1d590d	-0.15366001
248	0xbe354d22	-0.17705205
249	0x3d999f01	0.07501031
250	0x3ca912b6	0.020638805
251	0xbdf406d4	-0.11915365
252	0xbdc4b76f	-0.096053
253	0xbe26a378	-0.16273296
254	0x3dd272b7	0.10275786
255	0xbc62a802	-0.0138340015

model.backbone.layers.0.temporal.2.bias f4 [64]
0	0x3c8f0aca	0.0174612
1	0xbca059dd	-0.0195741
2	0xbd220a69	-0.03956071
3	0xbcc382f4	-0.023866154
4	0xbdf72c3d	-0.12068985
5	0xbe1eec5b	-0.1551985
6	0xbda7c24e	-0.081913576
7	0xbd6e4852	-0.05817444
8	0xbd8c64cc	-0.06855163
9	0xbdc6927e	-0.0969591
10	0xbd62101a	-0.055191137
11	0xbe3b5925	-0.18295725
12	0x3cfba57c	0.030718558
13	0x3d43d52b	0.047810715
14	0xbd97da93	-0.074147366
15	0xbc6b48fd	-0.0143606635
16	0xbc4fbe2f	-0.012679621
17	0xbd5ad46b	-0.053425234
18	0xbdac1021	-0.08401514
19	0x3df7ddb4	0.121028334
20	0xbc94ec81	-0.01817918
21	0xbc81dc96	-0.015852254
22	0x3dc8fb22	0.09813525
23	0x3de917d8	0.11381501
24	0x3d6324d1	0.055455033
25	0xbdb64076	-0.08899014
26	0xbd77c354	-0.060489014
27	0x3d28a3c4	0.041171804
28	0x3e42dcf9	0.19029607
29	0xbe034f6d	-0.12823267
30	0xbdb2e91e	-0.0873587
31	0x3dd817ba	0.105514005
32	0xbc52a120	-0.012855798
33	0x3dd70863	0.104996465
34	0x3db268f2	0.08711423
35	0xbd839371	-0.064246066
36	0xbd83eef5	-0.06442062
37	0x3c3903c8	0.011292405
38	0xbd4189bf	-0.047250506
39	0x3c9626da	0.018329073
40	0xbda47b0e	-0.08031283
41	0x3d51c8eb	0.051217
42	0xbc041a3f	-0.008062898
43	0xbbc5998a	-0.006030266
44	0x3d466f67	0.048446085
45	0xbdac7bfa	-0.08422084
46	0x3de3652e	0.11103283
47	0x3d59d85a	0.053184845
48	0xbced78ac	-0.028988205
49	0xbdf8f51b	-0.12156125
50	0xbd80270b	-0.06257447
51	0xbdabc3cc	-0.08386955
52	0x3c15d5d2	0.009145217
53	0x3d3a7eed	0.045531202
54	0x3c04b218	0.0080991015
55	0xbdd6e90a	-0.104936674
56	0xbdda4763	-0.10658147
57	0xbe18b555	-0.14912923
58	0x3d70846a	0.05872003
59	0x3deea97f	0.116534226
60	0x3b8eab8c	0.004353946
61	0xbd403be9	-0.046932135
62	0x3d79bd1a	0.060971357
63	0x3d962c39	0.073326536

model.backbone.layers.0.channel.0.weight f4 [32, 74]
0	0x3bf4dbf8	0.0074725114
1	0xbc483e4c	-0.012221884
2	0xbc1bea7d	-0.009516356
3	0xbdc24dee	-0.0948752
4	0x3bc2ac4a	0.0059409486
5	0xbe0e632c	-0.13905019
6	0x3dd18373	0.1023015
7	0x3d801d18	0.06255549
8	0x3d985477	0.074379854
9	0x3db015a3	0.08597877
10	0x3dcbdfdd	0.09954808
11	0x3ddf86c7	0.109143786
12	0xbdf39a50	-0.11894667
13	0xbd5ce830	-0.05393237
14	0xbd31b1a5	-0.043382306
15	0xbd26c1f8	-0.040712327
16	0xbdb6b2f7	-0.089208536
17	0xbc7dc17f	-0.015488028
18	0xbd3114a0	-0.04323256
19	0x3e0673e6	0.13130149
20	0xbd876ecb	-0.06612929
21	0x3d8d72ae	0.06906639
22	0x3d9c567b	0.07633682
23	0x3d437d91	0.04772717
24	0xbb54577c	-0.0032400778
25	0xbd76ac46	-0.060222887
26	0xbdfb10bc	-0.12259051
27	0x3dacadb0	0.08431566
28	0x3cbb57c8	0.022869006
29	0xbd82ba9b	-0.063832484
30	0x3b974a3d	0.004617004
31	0xbd1b3585	-0.037892837
32	0xbd61b028	-0.055099636
33	0xbe00ef0c	-0.12591189
34	0x3cd01799	0.025401877
35	0xbb9f0829	-0.0048532677
36	0xbdb50d39	-0.08840413
37	0xbc0de402	-0.008660318
38	0xbe0cb2bf	-0.13740061
39	0xbda6df23	-0.08148029
40	0xbd6ddf74	-0.05807443
41	0x3a4a95a1	0.0007727985
42	0xbd576e3c	-0.052595362
43	0xbdc26941	-0.09492732
44	0xbd21a20d	-0.039461184
45	0xbe0e087b	-0.13870423
46	0x3db29a4d	0.08720837
47	0x3d74ebb9	0.059795115
48	0xbd38d484	-0.045124546
49	0x3ccb433d	0.024812335
50	0x3d3d92aa	0.046282448
51	0x3e049a42	0.1294947
52	0xbd5f5ef0	-0.0545339
53	0x3d894a4f	0.06703626
54	0x3e017949	0.12643923
55	0xbd33e37c	-0.043918118
56	0xbdb9a96b	-0.09065517
57	0xbd004436	-0.03131505
58	0x3dd9b439	0.10630078
59	0xbdd20fc3	-0.102569126
60	0xbc7c0608	-0.015382297
61	0xbd11f6f7	-0.035635915
62	0xbd96e487	-0.07367807
63	0xbc813ae8	-0.015775159
64	0xbd34ac5a	-0.04410968
65	0x3d172bb5	0.036906917
66	0xbd855f03	-0.06512263
67	0xbbcfcd5f	-0.006341621
68	0x3def7a75	0.11693279
69	0x3ddaeccb	0.10689696
70	0x3d88e8a4	0.06684998
71	0xbd892d04	-0.06698039
72	0xbd64fcb1	-0.055905048
73	0xbda7ee73	-0.081997775
74	0xbdbe4291	-0.0929004
75	0x3d866a8d	0.06563292
76	0x3cb6e4d4	0.02232591
77	0x3c43645c	0.011925783
78	0xbcdeb96d	-0.027188027
79	0xbd9293cb	-0.071570955
80	0xbd44f69c	-0.048086748
81	0x3cd24eeb	0.025672397
82	0xbd7da923	-0.06192888
83	0xbd76d1e1	-0.06025875
84	0x3dc0f46c	0.0942162
85	0xbd532200	-0.051546097
86	0x3d042c16	0.032268606
87	0x3c0e8ac6	0.008700078
88	0x3da0c260	0.07849574
89	0xbdb219dc	-0.086963385
90	0x3d1a78be	0.037712805
91	0x3cbe0cf0	0.023199528
92	0xbda26d7f	-0.07931041
93	0x3dd2ded5	0.10296408
94	0x3cbcb02d	0.023033226
95	0x3d3ef581	0.04662085
96	0xbdb5870f	-0.08863651
97	0x3da1c559	0.07898969
98	0xbcfbc894	-0.030735292
99	0xbdd7efd7	-0.10543793
100	0xbd79598a	-0.060876407
101	0x3d500c76	0.050793134
102	0xbdae0552	-0.084971085
103	0xbcae9927	-0.021313263
104	0x3d30f6ad	0.043204
105	0x3e0c6755	0.13711293
106	0x3c305121	0.01076153
107	0xbc1b393e	-0.009474097
108	0x3d56dca4	0.052456513
109	0x3ddc1924	0.10746983
110	0xbd5ee95e	-0.054421775
111	0xbd647565	-0.05577602
112	0xbc839d86	-0.016066324
113	0xbd56409e	-0.052307718
114	0x3d9c90de	0.07644819
115	0x3db45159	0.08804578
116	0x3cccd654	0.025004543
117	0xbdaaa33a	-0.08331914
118	0xbd6bbd6e	-0.0575537
119	0xbddf4fd6	-0.10903899
120	0xbd4e7d09	-0.05041221
121	0x3d2278b0	0.039665878
122	0x3bc69850	0.0060606375
123	0xbd6cd23a	-0.057817675
124	0x3da35e21	0.07976938
125	0x3da7607c	0.081727
126	0xbd35fa60	-0.04442823
127	0xbd8c9fff	-0.06866454
128	0x3d6d9ec0	0.058012724
129	0xbded0b20	-0.115743876
130	0xbddf56b1	-0.10905207
131	0xbd9d2e8d	-0.076748945
132	0xbcf6907d	-0.030098194
133	0x3d964962	0.073382154
134	0xbc864a1c	-0.01639276
135	0xbdec057a	-0.11524482
136	0xbd8b4234	-0.067997366
137	0xbdb2d23d	-0.08731506
138	0x3ceb0e8f	0.028693466
139	0xbba5b891	-0.0050574024
140	0xbd4907db	-0.049079757
141	0xbe007b73	-0.12547092
142	0xbbd6d6cf	-0.006556369
143	0x3d93c3b4	0.07215062
144	0x3dbf785c	0.093491286
145	0x3c073a20	0.008253604
146	0x3de8adc8	0.11361271
147	0x3d776c0f	0.060405787
148	0xbdac6f56	-0.08419673
149	0xbdb68c75	-0.08913509
150	0x3cc33828	0.023830488
151	0xbd62caa7	-0.055369046
152	0xbc9eb6a4	-0.0193742
153	0x3d2ef246	0.04271152
154	0x3cea3c05	0.028593073
155	0x3d9fec2b	0.07808717
156	0xbcbc26e4	-0.022967763
157	0x3d58f980	0.052972317
158	0xbd90e7ab	-0.07075437
159	0x3d26575f	0.040610667
160	0xbd227fff	-0.039672848
161	0xbd1c93fc	-0.038227066
162	0xbb4b91f2	-0.0031062332
163	0xba5bbe4a	-0.00083825423
164	0x3d99960d	0.07499323
165	0xbd2f93fd	-0.042865742
166	0x3b8d1608	0.004305605
167	0x3ce7d985	0.028301964
168	0x3cb96693	0.022631919
169	0x3cd586b2	0.026065204
170	0x3da921ee	0.08258425
171	0x3d88f244	0.066868335
172	0xbda8afda	-0.08236666
173	0x3cb12501	0.02162409
174	0x3cee82cb	0.029115101
175	0x3d92972e	0.071577415
176	0xbddcf419	-0.107887454
177	0x3d988a56	0.074482605
178	0x3dd19c25	0.1023486
179	0xbcb14316	-0.021638434
180	0x3d13e553	0.036107372
181	0xbb73cc68	-0.0037200693
182	0xbda5f063	-0.08102491
183	0xbcda60af	-0.02665743
184	0x3bc538bf	0.0060187276
185	0x3d003bc8	0.03130701
186	0x3d9f6265	0.07782439
187	0x3d1a3917	0.0376521
188	0xbdef8db8	-0.116969526
189	0x3c9f480e	0.019443538
190	0xbcf89f5f	-0.030349432
191	0x3d67ec7d	0.056622017
192	0x3db28797	0.08717268
193	0xbd846cfc	-0.064660996
194	0x3d9a4d07	0.07534223
195	0x3d88e72c	0.066847175
196	0x3d919d3a	0.07110067
197	0xbdb555e9	-0.08854277
198	0x3dde2f4a	0.108488634
199	0xbd69de6f	-0.057096895
200	0xbd735d64	-0.059415236
201	0x3dc39716	0.09550302
202	0xbd9dc801	-0.07704163
203	0xbd456b5e	-0.048198096
204	0xbd854443	-0.065071605
205	0x3d1127f6	0.0354385
206	0x3d7a05ad	0.06104057
207	0xbcb790ca	-0.022407908
208	0x3d95972c	0.07304224
209	0x3cd2f4a9	0.025751429
210	0xbda8efa8	-0.08248836
211	0x3d2f3dee	0.04278367
212	0xbc91a5e4	-0.017779298
213	0xbd73fcd4	-0.059567288
214	0x3d96df16	0.07366769
215	0x3ded781d	0.115951754
216	0xbc822a36	-0.015889268
217	0x3d053fbf	0.032531496
218	0x3d636e33	0.055525016
219	0x3dec6589	0.11542804
220	0xbc6d9b0b	-0.014502297
221	0x3da18f21	0.07888628
222	0xbb5fff0a	-0.0034179115
223	0xbd11a32e	-0.03555601
224	0xbd173f6c	-0.03692572
225	0xbe03511e	-0.12823913
226	0x3da4f5b6	0.08054678
227	0xbb937292	-0.004499742
228	0xbd783f5a	-0.06060729
229	0xbd75b659	-0.059988353
230	0xbc1d440e	-0.009598745
231	0xbd02d98b	-0.031945746
232	0xbdc73ca1	-0.09728361
233	0xbe0594d3	-0.13045053
234	0x3c7f4b4a	0.015581915
235	0x3d5b1c4d	0.053493787
236	0xbd16436a	-0.036685385
237	0x3b24539b	0.0025074247
238	0x3cb248ae	0.021763172
239	0x3db53802	0.08848573
240	0x3db1ad53	0.08675637
241	0x3dae4e0d	0.08510981
242	0x3d696d49	0.056988988
243	0xbe05d8d8	-0.13071
244	0x3df6f65c	0.12058708
245	0xbdab7d1a	-0.083734706
246	0x3d4b3e3d	0.049619902
247	0xbd8c53c9	-0.06851918
248	0x3d08c1b4	0.033387855
249	0x3dca8021	0.0988772
250	0x3dc966ef	0.09834086
251	0x3d86976b	0.065718494
252	0xbda01821	-0.07817102
253	0xbe0c4ec4	-0.13701922
254	0x3e033f75	0.12817176
255	0x3db246a9	0.087048836

model.backbone.layers.0.channel.0.bias f4 [32]
0	0xbd3a87fc	-0.04553984
1	0xbc4ab14d	-0.012371373
2	0xbdc9f782	-0.098616615
3	0xbd8e5f20	-0.069517374
4	0xbde4700e	-0.11154185
5	0xbdb88173	-0.090090655
6	0xbd75cca4	-0.060009614
7	0x3d643b29	0.055720482
8	0xbd763837	-0.060112204
9	0x3d9fd46c	0.07804188
10	0x3cf06e73	0.029349541
11	0x3c80c312	0.015718017
12	0xbde4b118	-0.111665905
13	0x3b56d8cc	0.003278303
14	0xbd31f1bf	-0.043443438
15	0xbd7893c7	-0.060687806
16	0xbd5a5153	-0.053300213
17	0x3db82297	0.089909725
18	0xbc8de93e	-0.017323133
19	0x3dc2420c	0.09485254
20	0xbdd080d4	-0.10180822
21	0xbd9bf352	-0.07614769
22	0x3b954d06	0.004556301
23	0xbdacf7aa	-0.08445676
24	0x3d9692ea	0.073522404
25	0xbd2ac5a3	-0.041692387
26	0x3dd8b478	0.10581297
27	0xbd498d66	-0.049207114
28	0x3d552fe4	0.052047625
29	0x3d4004fc	0.046879753
30	0xbdbbbcb2	-0.0916685
31	0xbd992244	-0.07477239

model.backbone.layers.0.channel.2.weight f4 [74, 32]
0	0x3d3f38c8	0.04668501
1	0x3d36dcff	0.044644352
2	0xbd42c36e	-0.047549658
3	0xbe4fa61c	-0.2027821
4	0x3cd3f099	0.025871562
5	0x3d625df2	0.055265374
6	0xbe4bda8c	-0.19907588
7	0xbcf33063	-0.029686159
8	0x3cf81451	0.030283125
9	0x3e01c8ed	0.12674303
10	0x3e2e801b	0.17041056
11	0x3e1518ee	0.14560291
12	0xbdd460a7	-0.103699975
13	0x3d4eaa68	0.05045548
14	0xbd9a750b	-0.075418554
15	0x3dc11ea5	0.09429673
16	0xbd70344b	-0.05864362
17	0xbe0e8e50	-0.13921475
18	0x3e23e4fa	0.16005316
19	0x3d86bb8c	0.065787405
20	0x3e499752	0.1968663
21	0xbdb09f4b	-0.08624133
22	0x3e273640	0.16329288
23	0xbd52b306	-0.05144026
24	0xbe0c9ec9	-0.13732447
25	0xbca6cd14	-0.02036146
26	0x3d2052ec	0.03914158
27	0x3d586351	0.05282909
28	0x3dabcf09	0.08389098
29	0x3cad0c7d	0.021124119
30	0xbd997449	-0.07492883
31	0x3db12854	0.0865027
32	0xbe43ed3b	-0.19133465
33	0xbcefeeea	-0.029288728
34	0x3e022863	0.12710719
35	0xbd90a367	-0.070624165
36	0x3d9610cf	0.07327425
37	0xbda7373f	-0.08164834
38	0x3de8c901	0.113664635
39	0xbe368660	-0.17824697
40	0xbe0e6165	-0.1390434
41	0xbdcef3a8	-0.101050675
42	0x3db518bc	0.08842608
43	0xbda37cf4	-0.07982817
44	0x3cc32d24	0.023825236
45	0xbc0aa8cf	-0.008463099
46	0xbdcb0e81	-0.09914876
47	0xbe03bbba	-0.12864581
48	0xbd195b9b	-0.037440877
49	0xbe094660	-0.13405752
50	0x3d366a2b	0.044534843
51	0xbe1c093f	-0.15237902
52	0xbcfcd0c0	-0.030861259
53	0xbb58c470	-0.003307607
54	0x3e04e562	0.12978128
55	0x3d727b0e	0.059199385
56	0x3dee4136	0.11633532
57	0xbc808582	-0.015688661
58	0x3d8389e8	0.06422788
59	0x3d7e951f	0.06215393
60	0x3e0f91b8	0.14020431
61	0xbe0ea08c	-0.13928431
62	0x3db98424	0.09058407
63	0xbcd9f1b8	-0.026604518
64	0x3dea09e8	0.11427671
65	0x3e25ef91	0.16204669
66	0xbdd548ad	-0.104142524
67	0xbe2973c3	-0.16548066
68	0xbd969c19	-0.07353992
69	0x3dd6f4c9	0.10495908
70	0xbdb72500	-0.08942604
71	0x3d08db2b	0.03341214
72	0xbd7b732a	-0.061389126
73	0x3e025729	0.12728561
74	0xbddc22c2	-0.10748817
75	0xbdd27e0e	-0.10277949
76	0x3dd78f8a	0.10525425
77	0x3df87353	0.12131371
78	0xbdd055cb	-0.10172614
79	0x3c8e84c0	0.017397285
80	0xbcb2c3c9	-0.021821873
81	0xbe04167c	-0.12899202
82	0xbd76ae4b	-0.060224812
83	0xbc635b8a	-0.013876805
84	0x3d0df60b	0.034658473
85	0xbd274265	-0.040834803
86	0xbd3f7f7b	-0.046752434
87	0xbcebaf7e	-0.028770205
88	0xbe037c41	-0.12840368
89	0x3e2783e4	0.16358906
90	0xbe316bc1	-0.17326261
91	0xbe004b53	-0.12528734
92	0xbdf88a94	-0.12135807
93	0x3db90abd	0.09035251
94	0x3d6db321	0.05803216
95	0xbe3dd391	-0.18537737
96	0xbd9eb830	-0.07749975
97	0x3d88d707	0.06681638
98	0x3d6f6833	0.05844898
99	0xbd8c4a4a	-0.06850107
100	0x3d92aeaa	0.07162221
101	0xbe34b58f	-0.17647384
102	0x3d893bc5	0.06700853
103	0x3dc17cae	0.09447609
104	0x3dcb205f	0.09918284
105	0x3da5a782	0.0808859
106	0x3c513384	0.01276863
107	0xbe25e0b3	-0.16198997
108	0x3cc649a4	0.024205036
109	0xbe0e7a85	-0.13913925
110	0xbc4d54f0	-0.012532458
111	0x3bfb70fe	0.007673382
112	0xbd88e9d4	-0.06685224
113	0xbd210b5e	-0.03931748
114	0x3d6e8113	0.058228564
115	0xbdaeea95	-0.08540837
116	0x3e27e23c	0.16394895
117	0xbda4e9c6	-0.08052401
118	0x3dd44051	0.1036383
119	0x3d821ba1	0.06352926
120	0xbd741e6b	-0.05959932
121	0xbb4e9db5	-0.0031527106
122	0xbde15b3e	-0.11003731
123	0x3b4070c0	0.002936408
124	0x3e06c39f	0.13160561
125	0x3d3ac4b0	0.045597732
126	0x3e138f6f	0.14410184
127	0xbdf1e05e	-0.11810373
128	0xbdf870db	-0.121309005
129	0x3d9b9274	0.07596293
130	0x3d912379	0.07086844
131	0xbe266e2d	-0.16252966
132	0xbd344e71	-0.04402012
133	0xbe162901	-0.14664079
134	0x3e1bc66c	0.1521241
135	0xbdc5771e	-0.096418604
136	0xbda9f703	-0.08299067
137	0xbe3087e1	-0.17239334
138	0x3dda0277	0.106450014
139	0xbcd9d06d	-0.026588643
140	0xbe428dde	-0.1899943
141	0xbe27815b	-0.16357939
142	0x3dff7ea7	0.12475329
143	0x3d7e8178	0.06213519
144	0x3e1da1f3	0.1539381
145	0xbe0b8e3f	-0.13628481
146	0xbcdc4c59	-0.026891874
147	0xbc510fed	-0.012760145
148	0xbde573bd	-0.11203716
149	0xbe024e95	-0.12725289
150	0xbda5146b	-0.08060535
151	0x3c1aaea2	0.00944105
152	0xbab1f1e8	-0.0013576122
153	0x3d26ea44	0.040750757
154	0x3e034ce6	0.12822303
155	0x3e321bd0	0.17393422
156	0x3de78828	0.113052666
157	0xbe1d92a0	-0.15387964
158	0xbceeb192	-0.029137406
159	0xbda31d69	-0.07964594
160	0x3dec89cf	0.115497224
161	0x3dd08f81	0.10183621
162	0xbd348c18	-0.044078916
163	0xbdfb4f7d	-0.122710206
164	0x3e0a118e	0.13483259
165	0xbe0e14de	-0.13875148
166	0x3e35743c	0.17720121
167	0xbc52e084	-0.0128709115
168	0x3ca13f6d	0.019683564
169	0xbbf800aa	-0.0075684385
170	0x3c0aa34d	0.0084617855
171	0xbd8b2f4e	-0.06796132
172	0xbd729ef1	-0.05923361
173	0xbdaf44e3	-0.08558061
174	0xbd99d04c	-0.075104326
175	0x3e0c3677	0.13692652
176	0x3e21e1c7	0.15808783
177	0x3d9e7016	0.077362224
178	0x3e354160	0.1770072
179	0x3e1b17a2	0.15145734
180	0xbdd0aa1b	-0.10188695
181	0xbd9c8d96	-0.07644193
182	0xbc9d2272	-0.019181464
183	0xbcb5f635	-0.022212127
184	0x3d7c7332	0.061633296
185	0xbdae6501	-0.08515359
186	0x3ddbdc00	0.10735321
187	0xbe209687	-0.15682422
188	0xbc2be537	-0.010491661
189	0x3e3bc90d	0.18338414
190	0xbe3df06b	-0.18548743
191	0x3e352ad6	0.17692122
192	0xbcf02fde	-0.0293197
193	0x3d4976ac	0.04918544
194	0xbe108990	-0.14114976
195	0x3e0a2c2b	0.13493411
196	0x3dbeca70	0.09315956
197	0xbd192194	-0.03738554
198	0xbe0fc8f8	-0.14041507
199	0x3d79353f	0.060841795
200	0x3db4623d	0.088078
201	0x3d3fa1eb	0.046785276
202	0x3e26d14f	0.16290782
203	0x3d58e51d	0.052952874
204	0xbdbd012f	-0.092287414
205	0x3dba0bf5	0.09084312
206	0xbdd883ba	-0.10572
207	0x3cb1a218	0.021683738
208	0x3dda92ee	0.10672556
209	0xbd2b132d	-0.041766334
210	0xbdf1b347	-0.118017726
211	0xbe1513f1	-0.14558388
212	0xbdad7245	-0.08469061
213	0x3d70d4c8	0.058796674
214	0x3da4fce3	0.08056047
215	0xbdee4c7c	-0.11635682
216	0x3db95625	0.09049634
217	0x3e0e23d9	0.13880862
218	0xbe29f468	-0.1659714
219	0x3e13dc16	0.14439425
220	0x3d3f0a0c	0.04664044
221	0x3df11157	0.117708854
222	0xbd963d4c	-0.0733591
223	0x3e2c80fc	0.16846079
224	0xbda248c5	-0.07924036
225	0x3d8939cb	0.06700476
226	0xbd83e15a	-0.06439467
227	0x3e391efb	0.18078224
228	0x3d68a123	0.056794297
229	0xbe2f10e7	-0.17096291
230	0xbdffe466	-0.124947354
231	0xbceaf06d	-0.028679097
232	0xbda85341	-0.082190044
233	0xbe071d45	-0.13194759
234	0x3e4a660b	0.19765489
235	0x3c957fdb	0.018249443
236	0xbc98f577	-0.018671734
237	0xbe1df4a7	-0.15425359
238	0xbd77e720	-0.060523152
239	0x3e07e834	0.13272172
240	0x3e5cf3ee	0.21577427
241	0xbcfb21a0	-0.030655682
242	0x3df6b9cd	0.120471574
243	0xbdb439a9	-0.0880006
244	0xbd6e249a	-0.058140375
245	0xbba29384	-0.004961433
246	0xbe0b85f3	-0.13625316
247	0x3d6e620e	0.05819898
248	0xbd85fd71	-0.06542481
249	0xbe262d59	-0.16228236
250	0x3de776c9	0.11301953
251	0x3d819aeb	0.063283764
252	0x3d308cae	0.043102913
253	0x3d715ff9	0.058929417
254	0xbe05eb2f	-0.13077997
255	0x3e2c14d1	0.16804816

model.backbone.layers.0.channel.2.bias f4 [74]
0	0x3e2145b5	0.15749247
1	0x3dc07eb1	0.093991645
2	0x3e2c3868	0.16818392
3	0xbc7fe8de	-0.015619485
4	0x3de28b83	0.11061766
5	0x3da35788	0.0797568
6	0xbd1249b7	-0.03571483
7	0xbd60350c	-0.05473809
8	0xbe02e628	-0.1278311
9	0xbe17bc8e	-0.14818022
10	0x3da4baf1	0.08043469
11	0xbe01471e	-0.12624785
12	0x3da687c9	0.08131368
13	0xbddcd297	-0.10782354
14	0x3d0f44a2	0.034977563
15	0xbce19d4c	-0.027540825
16	0xbe0e7d69	-0.13915028
17	0xbd0067c3	-0.031348955
18	0x3cdf7152	0.027275715
19	0x3de06323	0.10956409
20	0x3e1191e4	0.14215809
21	0xbe278619	-0.16359748
22	0xbdf9f365	-0.12204627
23	0xbe1a9dac	-0.1509921
24	0x3d56ff6c	0.052489683
25	0x3d35675a	0.044288017
26	0x3e1a0f6e	0.15044948
27	0xbe09bdf2	-0.13451365
28	0x3d88f1da	0.066867545
29	0x3e1f7c0c	0.15574664
30	0x3d9178ff	0.07103156
31	0xbc2b977c	-0.010473128
32	0xbceb33dc	-0.028711252
33	0x3d342b5b	0.04398666
34	0x3e3dfa92	0.18552616
35	0xbdf0345d	-0.117287375
36	0x3dfd1681	0.12357808
37	0x3b1afc0e	0.0023648771
38	0xbdbb928f	-0.09158813
39	0x3b8157eb	0.003947248
40	0x3e184b3d	0.14872451
41	0xbe0aeb9f	-0.13566445
42	0xbaed9e2c	-0.0018128804
43	0xbda08c0b	-0.07839211
44	0x3e0888a9	0.13333382
45	0xbd173c23	-0.036922585
46	0x3e0b4e51	0.13604094
47	0xbdbd5f11	-0.09246648
48	0xbd994342	-0.074835315
49	0x3d1ec69f	0.03876364
50	0x3d6a756f	0.0572409
51	0x3dc22a3d	0.094807126
52	0xbcde03d4	-0.027101435
53	0x3dfb1e6b	0.12261661
54	0x3dd98526	0.10621099
55	0xbddbec1b	-0.10738393
56	0xbe0422a2	-0.12903836
57	0xbc94634b	-0.018113753
58	0x3df6ea3e	0.12056397
59	0x3de131c7	0.109958224
60	0xbd687b62	-0.056758292
61	0xbde23eee	-0.11047159
62	0x3d830b53	0.06398644
63	0xbcf88888	-0.03033854
64	0x3dd79f1e	0.10528396
65	0x3d7b87e3	0.06140889
66	0xbd6781db	-0.056520324
67	0x3d07492c	0.033028767
68	0x3d0fcb11	0.03510577
69	0xbdb32277	-0.08746808
70	0x3d9a4808	0.0753327
71	0xbe138bc5	-0.14408787
72	0x3cd085c9	0.025454419
73	0x3dbe2997	0.092852764

model.backbone.layers.1.temporal.0.weight f4 [32, 64]
0	0xbcad69cc	-0.021168612
1	0xbd3b69ed	-0.045755316
2	0xbe03e612	-0.12880734
3	0xbdc45ff1	-0.09588612
4	0xbde86bf0	-0.113487124
5	0x3dc904c7	0.09815364
6	0x3d701c22	0.05862058
7	0xbd9ac281	-0.0755663
8	0xbd847819	-0.06468219
9	0x3d527d2d	0.05138891
10	0x3da758b0	0.08171213
11	0x3dcc9fc2	0.09991409
12	0x3aae8b24	0.0013316614
13	0x3dc5ec81	0.0966425
14	0x3dbcb4fd	0.09214208
15	0xbdd2bcf7	-0.102899484
16	0x3cda5fc1	0.026656987
17	0x3d576734	0.052588657
18	0x3d08e4fe	0.03342151
19	0xbdf9e2b4	-0.12201443
20	0xbdb06ef1	-0.086149104
21	0x3dcfb966	0.10142784
22	0x3d9381bc	0.07202479
23	0xbd721fb3	-0.059112262
24	0x3dce0f58	0.1006152
25	0xbcb7d140	-0.022438645
26	0xb988949c	-0.00026050664
27	0xbe094cc1	-0.13408186
28	0x3d29819e	0.04138338
29	0xbcb59acd	-0.022168541
30	0xbe0fac9a	-0.14030686
31	0xbd90933f	-0.07059335
32	0xbbc96ba4	-0.006146865
33	0xbe0f3f29	-0.13988937
34	0xbdc68c4c	-0.09694728
35	0x3c98953b	0.018625846
36	0x3d40d990	0.047082484
37	0x3d7aa599	0.061193082
38	0xbde79c30	-0.11309087
39	0x3d84a3b0	0.064765334
40	0x3add7ff4	0.0016899095
41	0xbdbb8d37	-0.09157794
42	0xbd8fc233	-0.070194624
43	0x3d858b7c	0.06520745
44	0x3d55e69e	0.052221887
45	0xbe0a52ef	-0.13508199
46	0x3dd3267a	0.10310073
47	0xbd9f78ed	-0.07786737
48	0xbde6963c	-0.11259124
49	0x3d3a1dfd	0.045438755
50	0x3d12db14	0.03585346
51	0x3d50fa74	0.0510201
52	0x3dc4efa0	0.09616017
53	0xbde2ccf3	-0.11074247
54	0x3d94a80f	0.07258617
55	0xbe03bd50	-0.12865186
56	0xbd8ee3ea	-0.06977065
57	0xbd8919da	-0.06694384
58	0xbc35a1ac	-0.011085909
59	0x3d9b737b	0.075903855
60	0xbc32cc2f	-0.010912939
61	0x3d9edeb4	0.07757321
62	0xbd12e1cc	-0.035859868
63	0x3ddcd990	0.10783684
64	0x3e049160	0.12946081
65	0x3dce2417	0.10065477
66	0xbd69761d	-0.056997407
67	0x3dff2d61	0.12459827
68	0x3dd65cd3	0.104669236
69	0xbd7f8760	-0.062384963
70	0x3de90d2f	0.11379468
71	0x3d00d41d	0.031452287
72	0xbd0abbb6	-0.03387042
73	0x3df030f6	0.117280886
74	0xbcb38264	-0.021912761
75	0x3d92ded0	0.07171404
76	0x3bb1b6fd	0.005423425
77	0xbd220e46	-0.039564393
78	0x3daee811	0.08540357
79	0x3d7eba01	0.062189106
80	0x3d176d17	0.03696927
81	0x3c39ef0b	0.011348496
82	0xbc057075	-0.008144488
83	0xbd9e7e30	-0.07738912
84	0xbd135303	-0.035967838
85	0xbc56dc44	-0.013114039
86	0xbd7aa3b0	-0.06119126
87	0xbdbdeb09	-0.09273345
88	0xbd642d97	-0.05570754
89	0x3d97d075	0.07412807
90	0x3df02246	0.11725287
91	0xbcb9e1db	-0.022690704
92	0x3dd7f235	0.10544244
93	0x3d5af72f	0.05345839
94	0x3d81182e	0.0630344
95	0x3d345cd9	0.04403386
96	0x3d8c851a	0.068613246
97	0xbcfa23dc	-0.030534677
98	0xbc4622e1	-0.012093277
99	0x3debe321	0.11517931
100	0x3de59bb0	0.11211336
101	0xbd8c1779	-0.068404146
102	0xbd195b40	-0.03744054
103	0x3db36422	0.08759333
104	0x3e2477d4	0.16061336
105	0x3d959fc4	0.073058635
106	0x3cf7b843	0.03023923
107	0x3d552f2a	0.052046932
108	0x3d91b361	0.07114292
109	0xbd459ab7	-0.04824325
110	0xbdc893b7	-0.09793799
111	0xbd84e757	-0.06489437
112	0xbc2579ee	-0.010099871
113	0x3b4a26b6	0.0030845827
114	0x3ce82933	0.028339958
115	0xbd45d1e8	-0.048295885
116	0x3c5a191d	0.013311652
117	0xbd991c6c	-0.07476124
118	0x3dfd6ecb	0.12374648
119	0xbd65b6d0	-0.056082547
120	0x3d1838cf	0.037163552
121	0x3d2f960d	0.04286771
122	0x3def85d8	0.116954505
123	0x3ac5f5db	0.0015103178
124	0xbd19aa98	-0.037516207
125	0x3d6e9841	0.05825067
126	0x3d10828d	0.035280753
127	0xbda482d4	-0.08032766
128	0x3d272f4f	0.0408166
129	0x3c0363a7	0.008019364
130	0x3c6ac66c	0.014329534
131	0xbc483d22	-0.012221606
132	0x3d99a2b2	0.07501735
133	0xbd7edb01	-0.062220577
134	0xbd9c8221	-0.076420076
135	0xbe01b2bc	-0.12665838
136	0xbd91b386	-0.071143195
137	0x3b2ecdc9	0.002667295
138	0x3c79b2b6	0.015240362
139	0xbd6b0b5b	-0.057383876
140	0xbd8e2459	-0.069405265
141	0x3d8d7ebb	0.069089375
142	0xbe142711	-0.14468028
143	0xbe009360	-0.12556219
144	0x3c59601c	0.013267543
145	0xbdabb5dc	-0.08384296
146	0xbde32758	-0.110914886
147	0xbd8f6f3b	-0.070036374
148	0xbe0c3af6	-0.13694367
149	0x3c7a25da	0.015267814
150	0xbe039c75	-0.12852652
151	0x3d8fc34b	0.07019671
152	0xbd74f91b	-0.059807878
153	0x3dc5ec86	0.09664254
154	0x3d3a32f4	0.04545875
155	0x3dc473ec	0.09592423
156	0xbdb174f3	-0.086648844
157	0xbdc0d149	-0.09414918
158	0xbdcfb8fd	-0.101427056
159	0x3dc3d863	0.09562757
160	0x3d95929d	0.07303355
161	0x3dad232c	0.08453974
162	0x3d7ba62e	0.06143778
163	0xbdba4a2d	-0.09096179
164	0x3c8dfda5	0.017332861
165	0x3d2cdebe	0.04220461
166	0xbe1a58d2	-0.15072945
167	0x3d6c4656	0.057684265
168	0x3d57aa4c	0.052652642
169	0xbd47ae7e	-0.048750393
170	0xbd6e7b65	-0.058223147
171	0x3d1f3e05	0.038877506
172	0x3cfe57fc	0.031047814
173	0xbd602b4f	-0.054728802
174	0x3d8428a2	0.064530626
175	0xbde0dbdd	-0.109794356
176	0x3d52298b	0.05130915
177	0x3dfa4099	0.12219352
178	0x3d4b252d	0.049596
179	0x3d60188c	0.05471091
180	0x3cf4c64e	0.029879715
181	0x3da53bb1	0.08068026
182	0xbdd0ac02	-0.10189058
183	0xbdf53512	-0.11973013
184	0xbd929d0c	-0.071588606
185	0xbd702cee	-0.0586366
186	0xbd5e1f84	-0.054229274
187	0xbd013b83	-0.031550895
188	0xbda836a3	-0.08213546
189	0xbba347e7	-0.0049829367
190	0xbd576473	-0.05258603
191	0x3e843be6	0.2582695
192	0xbdda813a	-0.10669179
193	0x3dd5f216	0.10446565
194	0x3abff324	0.0014644605
195	0xbd33dc97	-0.043911543
196	0xbdd3da9d	-0.103444315
197	0xbdd20af8	-0.102559984
198	0xbdc1b38d	-0.09458075
199	0x3d8a9d14	0.067682415
200	0x3de115c9	0.10990483
201	0xbda91184	-0.08255294
202	0xbc8d6f40	-0.017264962
203	0x3d2c4c6f	0.04206508
204	0x3beb6f85	0.007184925
205	0xbe0449c5	-0.12918766
206	0x3d7649dd	0.060129035
207	0x3d54f269	0.051988993
208	0x3cb9bf7b	0.022674313
209	0xbdfaf892	-0.12254442
210	0x3d3a8c04	0.045543686
211	0xbdb36b0e	-0.087606534
212	0xbd94e517	-0.07270258
213	0x3d48e388	0.049045116
214	0xbdd21152	-0.1025721
215	0x3d74b3ce	0.059741788
216	0xbd99e821	-0.07514978
217	0xbd1dda8d	-0.038538504
218	0xbce89135	-0.028389553
219	0xbdbd1d30	-0.09234083
220	0xbcfeabc1	-0.031087758
221	0x3d9fc6e9	0.07801611
222	0xbd9ddaa0	-0.07707715
223	0xbd88486b	-0.06654438
224	0xbd1aa13b	-0.037751418
225	0xbd0505de	-0.0324763
226	0xbd8e3435	-0.069435515
227	0xbdb4c271	-0.08826149
228	0x3dbb69f0	0.09151065
229	0xbd92f6df	-0.07175993
230	0x3cccd510	0.02500394
231	0xbe0c6f62	-0.13714364
232	0x3d20e972	0.03928513
233	0xbe0ee93b	-0.13956158
234	0x3ca98412	0.020692859
235	0xbd1674b4	-0.03673239
236	0xbdbd4f3e	-0.0924363
237	0xbc89f8c0	-0.016842246
238	0x3d0c3ceb	0.034237783
239	0x3bc56b25	0.0060247355
240	0x3d7824f4	0.060582116
241	0xbcbe6b7b	-0.02324461
242	0xbdec6dbb	-0.11544367
243	0xbc2021a6	-0.009773647
244	0x3c830fd1	0.015998753
245	0xbd8ca03e	-0.06866501
246	0xbde4643b	-0.1115193
247	0x3dca3254	0.098728806
248	0xbdcefc63	-0.10106733
249	0x3d8e401e	0.06945823
250	0x3dbb3769	0.09141428
251	0x3d88ebf0	0.066856265
252	0x3d215606	0.03938868
253	0xbd987224	-0.074436456
254	0x3dd26569	0.10273249
255	0x3a8f0bce	0.0010913552

model.backbone.layers.1.temporal.0.bias f4 [32]
0	0x3d0a4cee	0.033764772
1	0x3d4fa1fd	0.050691593
2	0xbd64ec0a	-0.055889167
3	0x3d4c3559	0.049855564
4	0x3dacf665	0.084454335
5	0x3bb0ae2d	0.005391857
6	0xbe2619b1	-0.16220738
7	0xbda501cd	-0.08056984
8	0x3da11d1c	0.0786688
9	0xbdf88a47	-0.12135749
10	0x3cf263a4	0.029588528
11	0xbe07c0c8	-0.13257134
12	0xbd0f83cc	-0.0350378
13	0xbc7aec45	-0.01531512
14	0x3dad1775	0.0845174
15	0x3d5641d8	0.052308887
16	0x3de17cca	0.1101013
17	0xbdd4fa7c	-0.103993386
18	0x3b7131be	0.003680333
19	0x3d7fc677	0.06244513
20	0x3d824931	0.063616164
21	0x3d8528dc	0.06501934
22	0x3d372fd1	0.044723336
23	0x3bd24870	0.0064173266
24	0xbe06747d	-0.13130374
25	0x3d51ef6a	0.051253714
26	0x3d7894a8	0.060688645
27	0x3db40d05	0.08791546
28	0xbe11ae46	-0.14226636
29	0xbd233c5a	-0.039852478
30	0x3da6d4c7	0.08146053
31	0xbe158ed5	-0.14605267
