experiments/AdversarialDomainAdaptation/saved_models/tsmixer_benchmark_0.pt (torch, 730836 bytes, 30 tensors)

model.backbone.static_proj.weight f4 [64, 10]
00000000: 3c1d df3d 6364 9d3d 65d9 283e 7867 6a3e
00000010: bf8f a4bd 2703 483e dc63 4fbe 982d 12be
00000020: 4769 eb3d 70b2 1bbe b707 a73c 0790 773c
00000030: 6dd4 dd3c 4e56 8e3c 9b1d ff3d 2941 15bd
00000040: c7db 203d af89 3dbd b875 c13d 2504 fc3b
00000050: 27aa 443e 6b00 8bbd d580 e2bd c3d7 0ebb
00000060: b2ea 94be 54f5 fb3d 9e9c f4bd a853 13be
00000070: fb0c 00bb b1b8 69be 51ae d2bc 03cd 83be
00000080: 67c7 733e 35af 253e 6379 d6bb 3595 583d
00000090: 6db3 6dbd 272c 8fbc 270b e8bd 9508 073d
000000a0: 2498 f5bd b35c 4dbe 3d56 6f3e 2125 723e
000000b0: dd80 b93e 24cd 35bd ea3b 0dbe 6b9f 713e
000000c0: 2617 053e 4437 4bbe e4e6 8cbd 3f15 a33c
000000d0: 239f e5bd 4664 193e 9d53 413e e1a7 813e
000000e0: 5b00 b33d fa44 38be d6e7 7e3e cd6f 62bd
000000f0: 5da3 e5bd de1a 1ebd d5cc de3c b026 39be
00000100: ac3a 0abe ef4c 20be 1179 3f3e fa8f 0bbe
00000110: 6531 09be 92bf b63d 1251 303d 64c3 5fbe
00000120: 0224 0b3f 4155 1cbf 23de 01bf 21c6 99be
00000130: f5fc 12bd bb9d b43d ff53 2e3e 2a3c 903e
00000140: 31a2 30bd ad53 49be 95da d53d d5e0 91bd
00000150: 5c4a 063d 67bf 9ebd bc20 b33e 8125 4bbe
00000160: 938e 3cbe 86c0 483e 99ea b8bd 0b70 e9bd
00000170: cc36 203e b72a 473d adb2 b8bd 194f c93c
00000180: d5e4 9c3b ce27 56bd 24d3 ac3d c916 34bd
00000190: 4313 53be a666 8f3e 3a61 7cbe c750 e2bd
000001a0: 6ab9 33be f65e 833e e0e5 b2be 3030 d0bd
000001b0: a8cb afbe 6f59 c5bc 4b61 003e 4221 473b
000001c0: 6c45 d6bd 81e8 dabe a5ec d7be 7d39 9ebb
000001d0: d6d2 fc3d 643c 40be 19a9 9abe 72e8 d73c
000001e0: c39d d33d 0502 593d 0b8f 8d3e fccf 2dbe
000001f0: 14a0 bcbe d949 3dbd 48c4 0b3c 82be 58be
00000200: 7e47 543c c329 163e 5080 b03d 661f 903d
00000210: 8d37 c2be 8664 073e 0b4f cebc 0d90 50ba
00000220: 8f55 e73d 638d 14be 052b 36be 723a 083d
00000230: 387e d5bc 1533 15be 8183 773e c3ef 0ebe
00000240: 8743 e43d ce4c 0b3d ecaf 2ebd 7b2c 993e
00000250: f2cf 9d3e 21b2 76be 8f7b 533d 6a0a fdbc
00000260: beef 8bbe 9ce2 84bd 77dd 413e ae28 b9bd
00000270: 8661 b83d 6748 893e d391 b63c bc22 59be
00000280: 3606 b33d f585 643e 83bc 6cbe 2fc6 95bc
00000290: 5b3e 5f3e c4fc 29be 5759 25bb 3d96 5d3e
000002a0: 1e4e c93d ccbc bebd c0cb 72bd 6768 0c3e
000002b0: 4921 233e 7ac9 ccbd 6d52 a73d dfe1 98bd
000002c0: 417f 0abe 3c95 0b3e b53a 803e e3e6 58be
000002d0: e4c9 51bd 9dcf db3d d0a7 0fbd 9cae 1bbe
000002e0: 8d4d 7a3c 5cc3 bc3b daee 893d 8c69 acbd
000002f0: 3470 8d3d 1660 b93d d49d 1f3d a160 72be
00000300: 7c2b a73e 85a0 e13d 3e5d 75bb bd9a 9fbc
00000310: 7781 3b3d 347e 22be 0a76 60bd b36a cebc
00000320: 5f32 9fbb fa71 93be 7ac7 c93e d8cf 26bd
00000330: 1b00 6bbe b636 6ebc dbd3 743d 6e5b 3cbe
00000340: a7f6 47be b52d 4a3e 4edc be3e 439b 303e
00000350: 5e40 1fbf 2975 8fbd 1ebc bebd 0c40 2c3e
00000360: 63de b43d 39c0 18be 7826 d13d b848 00be
00000370: bfbd 26be bc22 5e3d 99cc 1d3d eb5d fcbd
00000380: aa62 15be 497a 2d3e 52ea 253e 4dde 07be
00000390: c862 0cbd 0343 41bc ce91 f0bd 27a1 3b3e
000003a0: 31b8 86bc 975a 9a3e 83cd 263e fc65 5f3e
000003b0: 3424 c5bc 717c c0be 2351 b1bd 3fee 6bbe
000003c0: 18fd 1f3e 33c3 efbd 7963 eb3d f640 03be
000003d0: 80e5 81be c40b debc 3b5a e2bc fa14 8f3d
000003e0: d29f 0fbe e80f 063e 9cc8 1dbd 0a9c 213d
000003f0: 4325 b83d 5838 57be 406f a3be dae4 cc3d
0.10894248 0.07685163 0.1648918 0.22891033 -0.0803523 0.19532453 -0.20252937 -0.14275205
0.114946894 -0.15204787 0.02038942 0.015110022 0.027078832 0.017375138 0.12456819 -0.036439095
0.039272096 -0.046273883 0.09446281 0.0076909238 0.19205533 -0.06787189 -0.11059729 -0.0021796084
-0.29085308 0.12302652 -0.11943935 -0.14387381 -0.0019538987 -0.2282436 -0.025717886 -0.2574235
0.23806535 0.16180117 -0.006545232 0.05287667 -0.058032442 -0.017477108 -0.11330252 0.03296717
-0.11991909 -0.20054893 0.23372741 0.23646976 0.36231127 -0.04438509 -0.13792387 0.2359597
0.12997112 -0.19845301 -0.068799764 0.019907592 -0.112119935 0.14979658 0.18879552 0.25323394
0.08740302 -0.17995062 0.24893126 -0.055282403 -0.112128 -0.03859984 0.02719728 -0.18081164
-0.13498944 -0.15654348 0.18698527 -0.13629141 -0.13397749 0.08923258 0.043046065 -0.2185188
0.5435182 -0.6106759 -0.5072958 -0.30033973 -0.03588577 0.08819147 0.1702423 0.28170902
-0.043123428 -0.19660826 0.10442082 -0.071229614 0.03278576 -0.07751351 0.34985912 -0.19838525
-0.18413763 0.19604692 -0.09029121 -0.113983236 0.15645903 0.04862472 -0.09018455 0.02457385
0.004788021 -0.052284054 0.084387094 -0.043967042 -0.20612817 0.28008002 -0.24646464 -0.11050563
-0.17551199 0.25658387 -0.34941006 -0.10165441 -0.34335065 -0.024090497 0.12537114 0.0030384813
-0.1046246 -0.4275551 -0.42172733 -0.0048286305 0.12344901 -0.18773037 -0.30207136 0.026355956
0.10332825 0.05298044 0.27648196 -0.16973871 -0.3684088 -0.046213005 0.008530684 -0.21166423
0.012956498 0.14664368 0.08618224 0.07037239 -0.37933007 0.1322194 -0.025184175 -0.00079560356
0.11295616 -0.1450706 -0.17789848 0.033258863 -0.026061162 -0.14570267 0.24171259 -0.1395865
0.11145692 0.034008794 -0.04264824 0.29916748 0.30822712 -0.24091388 0.051631507 -0.030888755
-0.27331346 -0.06488535 0.18932138 -0.09040962 0.09002976 0.2681305 0.022286331 -0.21204656
0.08741419 0.22316726 -0.23118787 -0.018282978 0.2180113 -0.16600329 -0.0025230253 0.21639343
0.09829353 -0.09313354 -0.059276342 0.13711701 0.15930666 -0.09999366 0.08170018 -0.074649565
-0.13525106 0.13631147 0.2504479 -0.21181826 -0.05121793 0.107329585 -0.035072148 -0.15203327
0.015277279 0.0057605933 0.067350104 -0.08418569 0.06906167 0.0905153 0.038968876 -0.23669674
0.32650363 0.11016945 -0.003743961 -0.019482965 0.045777764 -0.15868455 -0.05480007 -0.025197363
-0.0048582996 -0.28797895 0.3941 -0.04072556 -0.22949259 -0.014539411 0.059772354 -0.18394253
-0.19527684 0.19743998 0.37277454 0.17246728 -0.6220759 -0.070047684 -0.09313224 0.16821307
0.088314794 -0.14917077 0.102124155 -0.1252774 -0.1628332 0.054232344 0.038525198 -0.12322601
-0.14588419 0.1694118 0.16202667 -0.13268395 -0.034273893 -0.011795762 -0.1174656 0.18323193
-0.016445251 0.3014724 0.16289334 0.21816248 -0.024065115 -0.3759494 -0.08658054 -0.23040102
0.15623891 -0.11707153 0.11493582 -0.1281775 -0.25370407 -0.02710522 -0.027630916 0.06986423
-0.1402581 0.13092005 -0.038521394 0.03945545 0.08991482 -0.21017587 -0.31920815 0.100045875

model.backbone.static_proj.bias f4 [64]
00000000: e331 313e 7ef0 22bc 2ad9 323e 78b8 803d
00000010: 24a9 8dbe 1d40 c13d e884 163e ff94 00bd
00000020: dfd2 e23e 3d90 c6bd c17d da3e 4fb8 ae3d
00000030: b013 0e3e 5664 483e fc19 7b3d 86a0 8d3c
00000040: 4dae 2f3d 7179 cbbd 2f65 853d db14 0c3d
00000050: a20b c9bd 4bca d23e ca32 c8be 0322 873e
00000060: 7bdf bb3d f61d 493d 788e 083f b844 453e
00000070: 98b5 c73d 6afa 2d3c 6c6a 4a3d 11b0 343e
00000080: f0ca c93e b024 0d3e d5d3 24bb 2e46 233e
00000090: fd69 5b3d 1f6e 043e 010f 05bd 8c8c 32bc
000000a0: 0cd9 943d 4506 89bd 4578 a23d 1737 683e
000000b0: ea79 bbbc bd57 d43e 19c8 f6bc c5c8 babd
000000c0: 30f7 d23c 89aa 353e a525 533e 3359 183f
000000d0: b6d9 41bb 55c0 183f 10d5 f9bd a2c7 0e3d
000000e0: 9d56 103e 74ed dc3d 0e79 723d 13bc 233f
000000f0: 1fcc c33e 0800 e13d 3b8a fa3c 38a7 b63d
0.17304187 -0.009945033 0.17465654 0.062851846 -0.27668107 0.09436057 0.14699137 -0.031392094
0.44301507 -0.0969548 0.42674068 0.08531248 0.13874698 0.19569525 0.061304078 0.017288458
0.042890836 -0.099352725 0.0651344 0.034199577 -0.09816672 0.41169962 -0.3910125 0.26393136
0.09173485 0.04910084 0.5334239 0.19264495 0.09751433 0.010618785 0.049417898 0.17645289
0.39412642 0.13783526 -0.0025150676 0.1594474 0.053567875 0.12932633 -0.032485012 -0.010897767
0.07267961 -0.06690649 0.07933096 0.22677265 -0.022885282 0.4147319 -0.03012471 -0.09120325
0.025752634 0.17740835 0.20619829 0.5951111 -0.0029579229 0.59668475 -0.121988416 0.034858353
0.1409554 0.10787478 0.059197478 0.63958853 0.3824167 0.10986334 0.030583492 0.08918613

model.backbone.layers.0.temporal.0.weight f4 [32, 64]
00000000: a68f b5bd 701e e8bd ef9e ed3c 8811 773e
00000010: 2d6a b43e 87fd c13e 568f 323e 141f 6dbb
00000020: ed2a 0ebe 75bd 4ebe 1316 133e 4bfc 193e
00000030: 990d 6a3e 39f8 08be fbab cabe 7035 c3be
00000040: 5f6f 5abe 4d27 2abc e279 c23d 46b7 b03b
00000050: c161 a23d b605 93bd f9c2 d0bd 7f24 b0bb
00000060: 86e3 b3bd 0eb0 af3e 8e92 623e d842 6ebd
00000070: 12e2 1d3e 71b7 3b3d 213c 463e 8d1f 133c
00000080: f80e e5bd 4cb6 f7bd bb26 3ebe 9c3c 47be
00000090: e539 4ebd 54b3 b5be 358e c1bd cb22 a5bc
000000a0: f30c f3ba 89c7 0dbe ca75 bf3e ed0b 063e
000000b0: e8d8 53be 43f8 f9bd 78a2 1f3c 6e4d 4ebd
000000c0: 7da4 aebe dca3 29bd 7bce a23d 70eb 48be
000000d0: be3c 28be ebc3 cd3e 9efd c63d 7c4e c03e
000000e0: fa6c 263c af9c fa3d 36bb 9dbc 7c57 bbbe
000000f0: bae9 f3bd 8f94 c43e 595f ab3e 4240 a5be
00000100: 770d adbd 1030 193e c1e8 663d a46f 84bd
00000110: f3f3 91be 7c84 87bc 5d9a acbd 4544 3dbe
00000120: 1f49 00be 72a0 4c3e c54f c13d c4fd 30be
00000130: 4708 14be e20e a2bd f4b8 39bd 61f0 f73d
00000140: c37e 043e c06f c0bd 7849 ba3d 2afd a03d
00000150: e5ac e73c 4d75 ac3e f6ba 5c3d a405 6abd
00000160: cc81 d8bd 6358 53be f3c7 333d df63 aabd
00000170: 6734 9a3d db1f de3d e9f0 30be f4e2 02be
00000180: 8da2 f93c 58d3 b73d aa18 ebbd 0323 de3d
00000190: 8e60 f03d e16b ac3c 290d 48bc 61e0 203e
000001a0: 3c3f f03c 46c3 61be 0c09 58bd 8252 dabb
000001b0: cf90 1abd 0a61 1cbe 7d65 653d aee2 2dbe
000001c0: 2a2e 5cbb 22b2 3ebe 6f6d 0b3b fae7 b4bd
000001d0: 08ee bbbd ede8 d2bc eed4 81bd 6616 06bd
000001e0: 8ff5 aa3d 62a5 43be 6ca6 693d ab6c 9fbd
000001f0: 8ca9 47bd ac4e 79be 612c aa3d efdb 93be
00000200: d031 0ebf 6858 f4be 6e90 8fbe c62c f43c
00000210: cdf3 aabe c51d a0bd ddde bb3c fa5c 3b3e
00000220: 17ba 213e 217d 36be 4291 853d d293 c63d
00000230: c722 a93d d2f7 cfbd f662 a53d 2886 533e
00000240: ccfa 873e 6cda f93d 3224 90bd 317e 9bbe
00000250: b979 b2be 27cd b2bd ade5 24bd faee 98be
00000260: 3b59 4bbd 98df 7d3e ba66 573e 018f 71bd
00000270: b9fc 5ebe b3b6 bfbd d2be 953e 9b12 acbc
00000280: b5e9 bebd 1ed2 083e 8978 7f3e 255a 3e3e
00000290: 3bc0 65be 3d71 8dbe 5444 4e3d 36bd 023e
000002a0: 87de 43be a39e 40bd f99b cf3d 1947 f43d
000002b0: 2ee7 eb3d 2de4 883e b70f c13e e1dc a73e
000002c0: 7904 df3e 18e6 003e 38ac d43b e4d4 1bbf
000002d0: b3f2 0dbf b98d 0bbe 389b bf3c 518b 01be
000002e0: ff7e 023e 88bc 5c3d 653a d2bd ec68 c5bd
000002f0: 351b 51be 5741 6ebd 8ee0 383e 5fb8 6dbe
00000300: 5208 673b f2f0 85be 0d7e 64be ad4d da3d
00000310: 000a 8b3e 30b8 853d 9c14 753e c71f 213c
00000320: 71d5 013e ce77 a6be 7e22 b9be d62f 213e
00000330: 4b02 b33e c5ff d3bd 909c f6bd 8dc8 adbd
00000340: eb7a 86bd 6fff 7a3e 4187 8a3e f654 9dbe
00000350: ae7e ddbe 7d07 373e 4470 403e 2f4a 5e3e
00000360: ecf6 efbd 3492 4c3e bdae cd3e 8c48 483e
00000370: 00ab 10be 2d53 80be a97b 8fbe f9d9 8b3e
00000380: cde7 a2bb e318 b9be e5bf 5f3d bff5 e3bd
00000390: e4ba 443e ddf6 84be c9b1 7abe 7077 843d
000003a0: 5915 5f3e cc3a 073e 41cd b4bd 58d3 78bc
000003b0: 4de2 b5bd 393b 24bf aa8e 22be 8c83 8a3e
000003c0: 945a 933d 42b7 eb3e ff60 943e 0a6d 6bbd
000003d0: 51cb 6fbe 3788 97bd cd7f e4bd 4db7 1fba
000003e0: b9ba fe3d 4287 763e 6889 e7bd 86ee 593d
000003f0: 9a37 043e 6c3d 6cbe af17 f1be 121e 73be
-0.088652894 -0.113339305 0.02900645 0.24127781 0.35237256 0.3788874 0.17437491 -0.0036181854
-0.13883562 -0.2018946 0.1436389 0.15037648 0.2285675 -0.1337594 -0.39584336 -0.38126707
-0.21331547 -0.010385347 0.094959036 0.0053929416 0.07928801 -0.07178824 -0.10193438 -0.0053754444
-0.08783631 0.34314007 0.22126219 -0.058169216 0.1541827 0.04582924 0.19358875 0.00897969
-0.11184496 -0.12095317 -0.18569462 -0.19456714 -0.05034818 -0.3548838 -0.09450952 -0.020158192
-0.0018543288 -0.13845648 0.37394553 0.13090487 -0.20688212 -0.12205555 0.009743325 -0.05036681
-0.3410987 -0.041416034 0.07949539 -0.19621062 -0.16429421 0.40188536 0.097163424 0.3755988
0.010157818 0.12236916 -0.019254308 -0.36590183 -0.11909814 0.3839459 0.33471182 -0.32275587
-0.08449834 0.1495974 0.056374315 -0.06466606 -0.2850643 -0.016542666 -0.0842788 -0.18483074
-0.12527893 0.1998308 0.09439043 -0.17284304 -0.14456283 -0.07912995 -0.0453424 0.121063955
0.12938981 -0.093963146 0.09096044 0.07860787 0.028280685 0.33683243 0.053889237 -0.057134286
-0.10571632 -0.20639186 0.04389186 -0.0831983 0.07529526 0.1084592 -0.172794 -0.12781888
0.030473018 0.089758575 -0.11479314 0.10846522 0.11737166 0.021047534 -0.012210169 0.15710594
0.029327027 -0.22047147 -0.052743003 -0.0066626677 -0.037735756 -0.15271392 0.05600499 -0.16981003
-0.0033596852 -0.1862264 0.0021274944 -0.088333085 -0.0917626 -0.025745833 -0.06339441 -0.032736205
0.08347618 -0.19106057 0.057043478 -0.07784399 -0.048745677 -0.24346417 0.08309246 -0.28878734
-0.5554476 -0.477237 -0.2803988 0.029806506 -0.3338913 -0.07818178 0.022933418 0.18297186
0.15793644 -0.1782117 0.06521846 0.09696163 0.082585864 -0.1015469 0.08075516 0.20656645
0.2655853 0.12199864 -0.07038154 -0.30369714 -0.34858492 -0.08730536 -0.0402581 -0.29869825
-0.049645644 0.24792325 0.21035281 -0.05897427 -0.21776094 -0.09361019 0.29247147 -0.021004966
-0.0932192 0.13361403 0.24948324 0.18589075 -0.22436611 -0.27625456 0.05035813 0.1276749
-0.19127856 -0.047026288 0.10137171 0.11927623 0.115187034 0.26736584 0.37707302 0.32785705
0.435581 0.12587774 0.0064902566 -0.6087172 -0.55448455 -0.13628282 0.023389444 -0.12650801
0.12743758 0.053890735 -0.10265044 -0.09639153 -0.20420535 -0.05816778 0.18054411 -0.23214863
0.0035252762 -0.2616039 -0.2231371 0.10659347 0.27156067 0.065292716 0.23933643 0.009834236
0.12679078 -0.3251328 -0.36159128 0.15740904 0.34962687 -0.103515185 -0.12041581 -0.08485518
-0.065664135 0.24511503 0.27056316 -0.30728883 -0.4326071 0.1787395 0.18792826 0.21707986
-0.117170185 0.19977647 0.40172377 0.19558924 -0.14127731 -0.25063458 -0.28024033 0.27314737
-0.0049714805 -0.361518 0.054626364 -0.11130857 0.19211918 -0.25969592 -0.24481882 0.064680934
0.21785487 0.13206023 -0.088282116 -0.015187107 -0.08881054 -0.64152867 -0.15874735 0.27053487
0.07195011 0.46038252 0.28980252 -0.057477035 -0.23417403 -0.07399028 -0.111571886 -0.00060926826
0.12437958 0.24075034 -0.11305505 0.05320599 0.12911835 -0.23070306 -0.47088382 -0.2374194

model.backbone.layers.0.temporal.0.bias f4 [32]
00000000: d5e2 dabf cf73 1bc0 9846 debf 9b6a f0bf
00000010: a69a 8e3d 753d a9bf 0744 51be c908 e7bf
00000020: 98fe dfbf dce2 b2bf 2c45 84bf 9c1d c2bf
00000030: 11e2 4cbf 96a8 05c0 af38 c8be c4ea b5bf
00000040: c6a0 91bf 20a1 b4bf 0dc1 07c0 759e 5fbf
00000050: 1e60 e8bf 40bd c5bf e6c1 f4bf 21e7 fe3c
00000060: 4748 00c0 e4e6 88bf b6e8 debf 939a 29c0
00000070: e71b d4bf 387e b9bf 1dd9 c3bf f1c4 95bf
-1.7100474 -2.4289434 -1.7365294 -1.8782533 0.069630906 -1.322188 -0.20436107 -1.8049556
-1.7499571 -1.3975482 -1.033361 -1.5165286 -0.8003245 -2.0884147 -0.39105746 -1.421227
-1.1377189 -1.4111671 -2.121158 -0.8735116 -1.8154333 -1.544838 -1.9121673 0.03111607
-2.0044115 -1.0695462 -1.7414768 -2.6500595 -1.6571015 -1.4491644 -1.5300633 -1.1700727

model.backbone.layers.0.temporal.2.weight f4 [64, 32]
00000000: 4ce9 4b3e d004 e33d 6460 3dbd 19ed 64bc
00000010: b857 3cbe a96b 9fbe 0c1e 493e a857 10bd
00000020: 341a cebe b27a 78be b215 3b3d 093e aa3d
00000030: 0747 00bd c3e0 90bd c5ba a13e b0fc 213d
00000040: 70d3 303e 975b dcbd 865d d9bd e1d5 b33d
00000050: 493d 553e 2dd8 05bd b99a 3c3e cb3a cb3c
00000060: 33df fe3c 4803 f53d 805a dbbd f072 da3d
00000070: 277e 02bf 848f d5bd 1d1b 3d3b cae3 fb3d
00000080: ce89 083e 7dde eb3d 2ff4 7f3e cc45 24be
00000090: 55d9 273e 8a29 5f3e eec2 ddbb bd04 d33e
000000a0: 7a2e 12be b05f f93a 7b62 053e be4c 8c3e
000000b0: 201b 963d 2dbe b0be 776a fc3d 26b3 f73d
000000c0: 7567 2bbe a8a0 51be f17a c83c 24fd c03d
000000d0: 8e43 963e 5079 3e39 37cb ff3c ef04 173f
000000e0: 013d 85bd 2296 cd3e 6b10 63bd 9ad0 b43d
000000f0: 571d e43e c8bc 06bd a5f3 9a3d c0f5 5abd
00000100: b634 80bc 845e 5dbe 621e e53e 1b07 1f3e
00000110: 38cf 7dbe 2e4c bd3e 18d3 ab3d 6fdf ff3c
00000120: 45b4 20be 6109 053e 0532 b73d e419 10bc
00000130: 6fe7 48bd daa1 46be 61e2 c03e 2db4 1b3e
00000140: f908 ed3d 217d 603e 97e6 a9bd 3d41 253d
00000150: e0e2 d63d e32a 17be 1516 93be 605c 853e
00000160: f580 fbbe 4f43 893e 0c12 37bd 9510 a83d
00000170: 4e24 b63d 5ee4 ad3e 96a6 d93d c8ac a6bd
00000180: 2101 913c eb02 73bd e8d4 82bd 215e 87bd
00000190: 4f9c e6bc c9ef ec3d cb84 823e b00a dcbd
000001a0: e59c 32be 3eaa ab3e 0fde dbbc 2d1d b83e
000001b0: 6a3a 1ebd 3b47 93be 3142 a03d 6832 8a3b
000001c0: 4e30 4e3c 62b4 bf3e 1ff2 94bd 6615 0abd
000001d0: 5662 92bc 2eaa e7bd 2dde 15bf 0428 5a3e
000001e0: b866 90bd e221 323e ebb9 88be e9ab 943e
000001f0: 4a4f 1bbe 0fc8 6e3b 8754 71be ef16 99bc
00000200: 1117 07be 019e 9bbd 1115 23be f3f0 3b3e
00000210: aa50 37be 9c55 113e 7a09 413e e2aa 5c3e
00000220: d6a8 babd a47c 3fbd bd1a 1b3c 9b33 71bd
00000230: 2e02 a43c 078b ffbe 863f 2bbd 1bcd 343d
00000240: 2d89 bcbd 6c3b 393e f4bb b0bd ff6a 92bd
00000250: 3ece bc3d 9531 43bc b574 7bbd 6180 9b3d
00000260: 4aab 95be 9841 80bd 2865 37bd bd4d 8b3c
00000270: ae6f 603d 9044 6b3e 3ec0 8d3e 9ba6 273c
00000280: 5630 163e f59e 98be f02d f13c f138 393e
00000290: a9fc 67be 61fc 7e3d 87ac 0a3e 777b 0d3e
000002a0: d7ca 7abe 3b77 eb3d 4240 8ebe 7979 03be
000002b0: 8f34 d4bc 7acb 1fbf c7d7 cbbd 873d 94bd
000002c0: 62da 22be cc4f a0bc 9bdd 8ebd 29ce 5c3d
000002d0: 3301 a7bd d0ce c1bd 240e 9b3c b2f3 6a3e
000002e0: 2a2e 04be b6c8 553e b605 02be 4935 e0bd
000002f0: b03c ed3d 98f3 053e da2a 6bbe 7c4c 92be
00000300: ed1b a2be d8b7 8ebe 0735 513e e7d7 b13e
00000310: 6332 1bbe 6768 da3d 6705 143e 602a 8abc
00000320: fa80 45be 87f8 a8bc 0e69 373e 0783 313d
00000330: 5eef 153c 80f8 0abf 1608 f53b 8746 a43d
00000340: aeec ff3c b6c9 963d d4c7 82be 10da 8fbe
00000350: 9762 743e 773a 9dbe 9c0e b9be abff e83d
00000360: 4679 153e 49a0 0dbd 3ba2 b2be 8d7b 4dbe
00000370: e684 c93d 2109 71be 9e16 1dbe 4f82 bbbd
00000380: 2669 b83b 43d9 043e 3428 ecbc 6876 a13e
00000390: ccdf 103b d7ea 17be a41e a83d 6a0a 96bd
000003a0: 9bf2 66bd d443 8f3e 482f de3e 4edb e73c
000003b0: 1ff2 303d 9017 7dbe db51 41be aba6 4f3e
000003c0: 6206 02be 5ca4 b23e ca14 b53d 2c91 a43c
000003d0: a4d0 363d f288 6fbe 7ea8 9abe cab3 ba3e
000003e0: 26a0 963d fec6 023e 8025 443e e095 a13e
000003f0: 5953 a93d f5fc 343d 1bd9 a5be 4074 86be
0.19913214 0.11084902 -0.046234503 -0.013972544 -0.18392837 -0.31136826 0.19640368 -0.035239846
-0.40254366 -0.24265555 0.045674987 0.083126135 -0.031317737 -0.0707412 0.31587806 0.039547622
0.17268157 -0.10759657 -0.10613541 0.087810285 0.2082416 -0.032676864 0.18418397 0.024808308
0.031112289 0.119635165 -0.10710621 0.10666454 -0.50973743 -0.10427764 0.0028855272 0.12299307
0.13333818 0.11517046 0.24995492 -0.1604225 0.163915 0.2179319 -0.006767622 0.41214553
-0.14275542 0.001902571 0.13025849 0.274023 0.073293924 -0.34520093 0.12324994 0.12094717
-0.16738684 -0.20471442 0.024472686 0.09423283 0.29348415 0.00018165004 0.03122483 0.58991903
-0.06505776 0.40153605 -0.05543558 0.0882885 0.44553635 -0.03289488 0.07566003 -0.05345702
-0.015650135 -0.21618086 0.44749743 0.15530054 -0.24786079 0.36972183 0.08389872 0.031234471
-0.15693767 0.12991859 0.08945087 -0.008795235 -0.049048837 -0.19397679 0.37672713 0.1520545
0.11573977 0.21922733 -0.08295935 0.04034542 0.10492492 -0.14762454 -0.28727785 0.2604704
-0.49121824 0.26809165 -0.044694945 0.08206288 0.08893643 0.33963293 0.10627477 -0.08138424
0.017700734 -0.059328955 -0.06388265 -0.066097505 -0.028150706 0.11569173 0.25491938 -0.10744226
-0.17442663 0.33528322 -0.026839284 0.3595976 -0.038629927 -0.28765282 0.07825125 0.0042174347
0.012584759 0.3744231 -0.072727434 -0.033711813 -0.017869156 -0.11311756 -0.5854214 0.21304327
-0.07050842 0.17395738 -0.26704344 0.29037407 -0.15166965 0.0036435162 -0.23567401 -0.018687693
-0.13192393 -0.07598496 -0.15926005 0.18353634 -0.17901865 0.14192814 0.18851271 0.21549562
-0.09114234 -0.046749726 0.009466824 -0.058887105 0.02002057 -0.49910757 -0.041808628 0.044140916
-0.09205852 0.18089074 -0.08629599 -0.07149314 0.09219025 -0.011913677 -0.061390597 0.07592846
-0.29232246 -0.06262511 -0.044774204 0.017004842 0.054794006 0.22975373 0.27685732 0.010232593
0.14666876 -0.29808775 0.02944085 0.18088128 -0.22654976 0.062252406 0.13542376 0.1381663
-0.2449144 0.11497351 -0.277834 -0.12839307 -0.025903968 -0.62419856 -0.09953266 -0.07238298
-0.15903619 -0.0195693 -0.06975862 0.053907547 -0.081545256 -0.094632745 0.018927641 0.22944525
-0.12908235 0.20877346 -0.12697491 -0.10947663 0.11583841 0.13081205 -0.22965565 -0.28573978
-0.3166193 -0.27874637 0.20430385 0.34735033 -0.1515594 0.106644444 0.14455186 -0.01686591
-0.19287482 -0.02062632 0.17911169 0.043337848 0.009151308 -0.5428543 0.0074777706 0.080212645
0.031240787 0.07362692 -0.25543082 -0.28096056 0.23865734 -0.30708668 -0.3614396 0.1137689
0.14597043 -0.034576688 -0.34889397 -0.20066662 0.098398015 -0.23538639 -0.15340659 -0.09155714
0.005627769 0.12973504 -0.028827764 0.3153565 0.002210605 -0.14835678 0.08208969 -0.07326205
-0.05638371 0.27981436 0.43395448 0.028302815 0.043199655 -0.2471602 -0.18878882 0.20278423
-0.12697747 0.3489102 0.08841856 0.020088755 0.04463257 -0.23392084 -0.30206674 0.36465293
0.07354765 0.12771222 0.1915493 0.31559658 0.082678504 0.04418655 -0.323922 -0.26260567

model.backbone.layers.0.temporal.2.bias f4 [64]
00000000: fa57 17bd cc7f 11be c524 1e3d 6997 88bd
00000010: 384f c4bd 4897 45bd 9395 c73c 4ab8 9bbc
00000020: 3b0d 173e 789f 6e3d e46a c63d 5ad9 8bbb
00000030: f83d a4bd f394 393d 8de1 1fbc cf3a 113d
00000040: 40a5 9c3d df2c 253b 8a4f 63bc dcfd 103e
00000050: 1d89 b3bb 5dde 433d 3b70 883d 8194 34be
00000060: a185 01bd e435 833d f80e f73d 78c6 8b3d
00000070: 4226 d13d fb4b 4dbd 2fe6 18bd a2ee e7bc
00000080: 0a62 4b3d 0898 193d 0850 1ebd ecc1 293e
00000090: 18cf 01bc ed99 cc3d 4d40 b33d 4baf 4ebd
000000a0: f148 a43b eda6 09bd 1aa7 01bd e767 833c
000000b0: dd65 97bb 5181 f53c 7129 29bd 555e b33d
000000c0: c3b2 da3d 4435 98bd 2230 913c 1689 68bd
000000d0: 6c39 9cbb 4501 133c 2c03 963c 9216 cc38
000000e0: 73ba ff3c edf4 9abd af8d 7f3d 0c15 4d3a
000000f0: 29ac a1bc 4ef0 96bc 8398 6dbc 8a85 9fbc
-0.036949135 -0.14208907 0.038609285 -0.06669504 -0.09585422 -0.048239976 0.024363315 -0.019008774
0.14751141 0.05825755 0.096883565 -0.0042678537 -0.08019632 0.045308065 -0.009758365 0.035456475
0.076487064 0.0025203747 -0.013873944 0.1415934 -0.0054789917 0.047819484 0.06662031 -0.17634775
-0.03162158 0.06406763 0.12063402 0.06824964 0.10212375 -0.05012129 -0.037328895 -0.028312031
0.049654044 0.037498504 -0.038650542 0.16577882 -0.00792291 0.099902965 0.08752499 -0.05046014
0.005013578 -0.03360646 -0.0316535 0.016040755 -0.0046202973 0.02996889 -0.041299287 0.08758227
0.10678627 -0.074320346 0.017723147 -0.05677136 -0.0047675874 0.008972471 0.01831206 9.731682e-05
0.031216836 -0.07566247 0.06239098 0.00078232656 -0.019735413 -0.018425133 -0.014501694 -0.019472856

model.backbone.layers.0.channel.0.weight f4 [32, 74]
00000000: fafb 17be d238 5a3e 51be a43e 6f5a 29be
00000010: 74c3 9cbe 171d c63e 71d2 863e 8044 be3e
00000020: e904 9e3e f841 393e baa1 01be 1328 a5be
00000030: 1015 d53d a680 e9bd faea 5e3e 5c68 343e
00000040: 6027 c4bd f9f0 6cbc dc43 f3be 9db1 17be
00000050: 8c67 993d 55c7 c23c ee7d debd d384 7dbe
00000060: 1585 b3be 42f3 60be 4f80 09be b32e 8c3e
00000070: b914 f9bd ad5b 75be 90db 703d c89e babd
00000080: 8286 913e 3bf7 9a3d afa5 b3bd ec87 53bd
00000090: 39d1 b3be ce8f 59be b1fd 18bf 3596 b53d
000000a0: e130 013f c0ff 823c 638e a3be 66cc 8dbe
000000b0: 6a38 dcbd 03a3 f0bd 0845 403e 5837 55be
000000c0: a14b 9e3e 6265 6c3e 7bda 39be f9af 2cbd
000000d0: 0711 463e 4079 adbe 3354 ec3d 94fe 3cbe
000000e0: 7955 7c3e b22d b53e cea2 f3bd 3ab2 1dbf
000000f0: 49b1 c03d d7e9 0fbf 5b59 843d a4e5 95be
00000100: 4011 b93e 69c1 a0be f2c6 0b3e 0abf 62bd
00000110: dea6 b53d fc2e e0be 956f 4dbe e117 0a3e
00000120: 9871 213d 3a9c a73e d2b5 31be c71d 683e
00000130: 720b 48bd ae33 13be 3966 853c 2cda 7e3e
00000140: eaee c83c f1b2 96bd d0a3 a93c 3faf 4fbe
00000150: 8ff1 9abe 1997 c3bd bae5 a0bd 9262 8bbd
00000160: 3f04 fbbd 9c69 883e 2850 2bbe ca05 333d
00000170: 5371 bfbd 2979 51be 2d1f 4fbe 4a60 80bd
00000180: 94d9 75be 6b13 cfbe 02fe 1d3e 2362 973d
00000190: 5b84 d4bd 078f e23e fa88 b2bd c28b 403d
000001a0: 871c 0e3e c96e cebe a3fe c83e 8b44 d3be
000001b0: 0489 13bd 8235 4ebe 7005 aabe 7bb9 88bd
000001c0: 54df 0c3e 11e9 703e db0f 593d aaf9 0dbf
000001d0: 3c9c d8be 2b02 3dbd a808 0ebe 42ee abbe
000001e0: 4ee7 7e3d 97ae 113e 68c6 a93e b746 2d3e
000001f0: ed91 8dbe dad0 ac3e 8ab6 80be a407 19be
00000200: 7a60 52bd 2d19 3c3e 217d 88bd 30b8 a83e
00000210: 4bc3 a43d 8f42 53bd 3643 f6bd fc36 9ebe
00000220: e6e9 f63c b5b3 8abe ccaa 843d a20c 2bbd
00000230: 8865 9cbd 879f 773e bc11 00be db5b c9be
00000240: ddb6 80be b69a ed3b 3998 1cbd c78b 91be
00000250: e2c9 98be 84b8 693e ef54 043f 610a dfbd
00000260: e7a4 83bd 6c17 1a3e 2230 863e d597 ff3e
00000270: 779b 0e3f 28bc 96bc 59b8 8cbd 99c0 0fbe
00000280: 10d6 4cbd 44c8 143c f709 b3bc d080 c33d
00000290: 427d cabd f6be 123e d261 8dbd 62f0 193e
000002a0: 768d cabe fa53 17be 1824 2b3d a8fa d6bd
000002b0: 354e 7a3e 9308 e63d f439 233e 2e01 5b3c
000002c0: 0a19 f03d fabe 14be c0ff c63d a5ff 55be
000002d0: 738a 68bd 54ef e5be 037e 0fbe 0f76 1b3c
000002e0: ca43 61be c4c9 e4bd 8ea6 2b3c 0207 21be
000002f0: 9688 943d 9072 433c 82c6 ddbe fa4b c33a
00000300: 3c9e e7bb b330 3e3d 2ecf 6fbe 2ff8 46bc
00000310: b2fb 6e3e a12a 22bd ade4 58be 9177 01be
00000320: e2cb 89be add5 9a3d 8022 a5bd c03e 48bd
00000330: fe6d 5d3e fca6 323d a571 193d 41c6 86bb
00000340: d444 6ebe da2e a1bc 100c 4a3e 6d1e 87be
00000350: c608 333e fb44 e53d ff4f 87be c568 88bd
00000360: 2254 0d3d 47d8 a2be cbf3 5abe f845 e3bd
00000370: f453 9c3d ab11 75bd fc57 5dbd e7d3 b3be
00000380: eab4 d7bc 028c d0bd ee92 f9bd 2d5b d0bd
00000390: ff28 f03e 6f88 fb3e c0aa 0e3f e66f 923d
000003a0: abbe 02be b82c ae3e 4903 97be 3d50 37bb
000003b0: 1ae8 8a3e 2957 ed3b 9882 c13d 1de9 913e
000003c0: 6324 a73d 2571 a53e 0653 b8bd fd0f 913e
000003d0: 0aab 18be cf2f 82be 681c 66bc 1c9b 7c3e
000003e0: 6db7 41bc f6a6 c83e 39b1 fd3e 4c36 93bd
000003f0: 9792 9f3e b5d8 06be 6286 ca3e 7a1d 7ebe
-0.14842215 0.21310738 0.3217645 -0.16538404 -0.3061787 0.3869407 0.2633243 0.37161636
0.3086312 0.18091571 -0.1265935 -0.32257137 0.10404408 -0.11401491 0.21769324 0.17617935
-0.09577823 -0.014461749 -0.4751271 -0.14813848 0.07490453 0.02377669 -0.10863863 -0.247577
-0.3506247 -0.21967795 -0.13427852 0.2737938 -0.12162156 -0.23960753 0.05880314 -0.09112316
0.28422934 0.07566687 -0.08771836 -0.051643297 -0.35120562 -0.21246263 -0.597621 0.0886654
0.5046521 0.015991092 -0.3194457 -0.27695006 -0.10752948 -0.11749842 0.18776333 -0.20821893
0.30917075 0.2308555 -0.1814975 -0.042160008 0.19342433 -0.3388157 0.11539497 -0.18456489
0.2464198 0.35386425 -0.11896287 -0.6160008 0.094088145 -0.56216186 0.06462356 -0.29276764
0.36145973 -0.3139756 0.1365011 -0.05535797 0.08869718 -0.43785846 -0.20062096 0.13485672
0.039414972 0.3273638 -0.17354515 0.22667609 -0.04883904 -0.14375183 0.016284095 0.24887913
0.024527986 -0.07358349 0.020707995 -0.20281695 -0.3026242 -0.09550304 -0.07856317 -0.0680591
-0.12256669 0.26643074 -0.16729796 0.043706693 -0.09347787 -0.20456375 -0.20226736 -0.06268366
-0.2400878 -0.40444502 0.15428928 0.07391765 -0.10376807 0.44249746 -0.087175325 0.047008283
0.1387807 -0.40318897 0.39256772 -0.41263232 -0.03601934 -0.20137599 -0.33207273 -0.066760026
0.13757068 0.23526408 0.052993637 -0.5545908 -0.42306697 -0.046144646 -0.1387049 -0.33580214
0.062232308 0.14226757 0.33159184 0.16921507 -0.27650395 0.3375309 -0.25139266 -0.14944321
-0.05136154 0.18368979 -0.066644914 0.32953024 0.08045062 -0.051577147 -0.12024538 -0.30901325
0.030140828 -0.2709023 0.064778894 -0.041760094 -0.07636553 0.24181949 -0.12506765 -0.39327893
-0.25139514 0.007251109 -0.03823111 -0.28426954 -0.29841524 0.22824293 0.516921 -0.108906515
-0.06427937 0.15047997 0.26208597 0.49920526 0.5570597 -0.018400267 -0.06871099 -0.14038314
-0.050008833 0.00908095 -0.021855338 0.095460534 -0.09887172 0.14330658 -0.06903423 0.15033105
-0.3956105 -0.14778128 0.04178247 -0.10497028 0.24443896 0.11232104 0.15940076 0.0133669805
0.11723526 -0.14525977 0.09716749 -0.20898302 -0.05677266 -0.44909155 -0.14012913 0.009488597
-0.21998516 -0.11171296 0.010476721 -0.1572533 0.07252614 0.011929169 -0.43315512 0.0014899962
-0.0070684236 0.046433162 -0.23418877 -0.0121441325 0.23338202 -0.039591435 -0.21180983 -0.12643267
-0.26913363 0.07560287 -0.08063221 -0.048887968 0.2162399 0.04361628 0.037461895 -0.004112989
-0.23268443 -0.01967566 0.19731164 -0.263904 0.17483816 0.111947976 -0.2642822 -0.06660608
0.034504063 -0.31805632 -0.21382062 -0.1109733 0.076332 -0.059831303 -0.054038987 -0.35122606
-0.026331384 -0.10182954 -0.12186228 -0.101736404 0.46906278 0.49127528 0.55729294 0.07150249
-0.12768047 0.34018493 -0.29494694 -0.002797141 0.27130204 0.0072430563 0.09448737 0.28498164
0.08161237 0.32312885 -0.090002105 0.2833251 -0.14908996 -0.254271 -0.0140448585 0.24668545
-0.011823517 0.3918988 0.49549273 -0.07188091 0.31166527 -0.13168605 0.3955565 -0.24815932

model.backbone.layers.0.channel.0.bias f4 [32]
00000000: 618f 0dbf 2bf4 27bf e161 46bf 19fd 5bbf
00000010: dd67 24bf 797c 31bf b0fc 4cbf 39a1 0bbf
00000020: 5e83 55bf f1d4 71be c98a 12bf 51e2 18bf
00000030: de66 56bf 3355 d4be 17c0 14bf 3358 88bf
00000040: 9294 fbbe 109b 47bf c9f8 0bbf 7f26 6ebe
00000050: 2397 14bf ac05 14bf 48eb 29bf cced 1cbf
00000060: 25e6 77bf 2d70 2ebf 0702 91be 78b5 e3be
00000070: 8258 4abf 5435 75be 39e1 4dbf d141 48bf
-0.55296904 -0.65606946 -0.774931 -0.8593307 -0.6422098 -0.69330555 -0.8007307 -0.5454288
-0.83403575 -0.23616387 -0.5724302 -0.5972033 -0.8375071 -0.41471252 -0.58105606 -1.0651916
-0.49136788 -0.7797098 -0.5467649 -0.23256873 -0.58043116 -0.57821155 -0.66374636 -0.6130035
-0.9683555 -0.68139917 -0.2832186 -0.44474387 -0.790413 -0.23946124 -0.8042179 -0.7822543

model.backbone.layers.0.channel.2.weight f4 [74, 32]
00000000: 5666 4bbe b1d8 ca3d 76eb a93e 8b8d 7a3e
00000010: fa5b 213f 6a9a 9f3e 99ec ff3c 841c 04be
00000020: ba5e 16be 01ee f23e 0d17 1b3e deaa 8fbd
00000030: d221 053e cd6e 423d 535a 003f 4245 99be
00000040: c602 203e a928 f2bd 71f2 b73e 04aa b23c
00000050: 4064 b6bd 5e51 a23e 55f4 28be d25a 333d
00000060: 8062 25bd 026b 29bc 3868 75bc 9b83 1c3f
00000070: a014 c3be 6c55 abbd 5ddc 343e c422 213d
00000080: ba0a 043d 38b2 86be a52a 21bd d3ae 93bb
00000090: 8778 383e ae2f d13e c226 3bbd cd59 7fbe
000000a0: 6ea9 743e 7bbc 973d 0327 a83e f476 283c
000000b0: b887 3ebe 18fe 8b3e f4af 53bd bb0a 63bd
000000c0: 81a4 66be 49ac 883d 11a9 f43e bf6f 55bd
000000d0: fc0b 4dbe 43a0 fcbd 839c e53d a3d0 d9bd
000000e0: 66e4 883e d57e 20bf 56c6 b9be 7fe4 523e
000000f0: 4b87 cbbe d40c 943d 5891 5fbe fa65 953d
00000100: ddd6 40be 8c7c 663d b094 9bbe 9f69 113e
00000110: 093c b73e 3ef4 a2be 38ab 133e 971a aa3d
00000120: 3d0a 2c3e 200a 33bc 7d89 2c3e b15b febd
00000130: 9a40 dd3d 24d1 70be 8b3a a2be 6506 d13d
00000140: 1466 9b3e beb8 d2bd e5d9 703d ec27 46be
00000150: bba3 c43d dcc5 08bf 4ffb 85ba a695 42be
00000160: 08a3 b1be 403c 31bc 6e3e 233d 1f31 30bf
00000170: f912 a93d 582f 4c3e b31a 293e 0a63 f33c
00000180: fa87 bcbc 2816 5b3e 0649 b13d 9534 b93e
00000190: 05f0 a03d e48f a23c 85a8 533e ef38 abba
000001a0: 0ada c23d a6e4 5ebb 0ba7 e43c 2ea4 0cbc
000001b0: 01cb 943d 0a0e 813c f85d 90bb 8479 19be
000001c0: 03b8 1b3d 90c3 78bd ce94 9bbc 0c88 9bbb
000001d0: 797c 9ebd 71f2 253c 0411 2fbb 6fe4 96bb
000001e0: 7074 f3bd 183c a3bd 9a40 9abc 7098 af3a
000001f0: 2d11 663d 28fd ce3d bea0 e93d 631a 8a3c
00000200: 4522 41bc 6cd5 083e d00b c33d 7e78 2f3c
00000210: 2f38 c63e bfbf a63d 4538 573e 0bfb 8bbd
00000220: e66a a5bd cb4a f63d 2545 993e a6bc 15bf
00000230: 8835 823e c01a ab3e d5ca 4d3e 8ff4 383d
00000240: 2bc2 b23d 4bed 023e 582c cebc 5471 3abe
00000250: e079 78be 1d14 ff3d 4afd 0a3e 9063 51be
00000260: 14ba ad3c 033a d03d d5e7 ee3d 2f24 fcbd
00000270: 2874 813d 47fe 00bd 05c8 ce3d c774 053f
00000280: 537d 493e 6aec 0cbd 7c29 3f3e e28f 803e
00000290: 9147 56be 2bcd 63bd 2954 d0bd 07fc 933d
000002a0: 7f4a fa3c fee9 633d a3a9 27bd 721c fc3e
000002b0: 302d 36be 5dc0 473e 0478 15be b36e fdbe
000002c0: 18da b43d 2204 5c3d eba4 a4be b414 47bd
000002d0: 2b90 423f 4ffe f4bd 50f7 623e d7b6 28be
000002e0: e75f 943c 0975 033e 9379 12be b41c 1bbe
000002f0: 96de d03c fc06 083e b83f 4a3e 7b5e a23e
00000300: 0a26 d63d 3ad0 86bc ebaa 9ebc 1c33 93be
00000310: 5200 e83c 1938 2e3d 9d83 69be 72c7 59bd
00000320: c39b fcbd c0d6 e8bd a4be b1bd 2e97 f2bd
00000330: d20d 94bd 83bf 78be 2250 aa3d c816 8fbd
00000340: f7e6 d1bd 0bcb acbd f83c 123e 4a88 aabb
00000350: 02db 913b 5230 1d3b 9256 2b3e c35a d3bd
00000360: 501a 98bc 22a5 873d 3849 403e 35dc 863d
00000370: 45e9 5f3d d306 053e b362 a13c 88e9 bdbd
00000380: 36ce 1e3e ac29 5c3d 595e 433e 5692 a0be
00000390: f83f c23d 7e45 8ebc 5f93 fc3d af8a 21be
000003a0: 8e97 103e 6913 afbd f33c df3c d360 59bc
000003b0: a596 38be 1c24 473e c69c 00be f3b5 de3d
000003c0: 115a a3bd c366 1d3d 698d 563e d3d3 1bbe
000003d0: 3254 2a3d c041 0cbd 3606 193e 212c ddbd
000003e0: 64f4 bfbd db2a b4bd 89de 2b3e 8a0a 183e
000003f0: ba1a 823e 2d79 7b3d dfd1 e73d 8745 48be
-0.19863257 0.09904612 0.33187455 0.24468057 0.6303097 0.31172496 0.031240748 -0.12901503
-0.14684573 0.47447208 0.15145512 -0.07015012 0.13001183 0.04746895 0.50137824 -0.29935652
0.15626058 -0.118241616 0.35927156 0.021809585 -0.0890584 0.31702703 -0.16499455 0.043787785
-0.04037714 -0.010340454 -0.014978461 0.61138314 -0.38101673 -0.08365902 0.17662187 0.039339796
0.032236792 -0.26307845 -0.03934731 -0.0045069247 0.18014728 0.4085669 -0.04569126 -0.249366
0.23892757 0.07408997 0.32842264 0.010282267 -0.1860646 0.27342296 -0.051681474 -0.055430155
-0.22523691 0.06673486 0.47785237 -0.052108523 -0.20024103 -0.12335255 0.11211493 -0.106354974
0.26736754 -0.6269353 -0.3628413 0.20594977 -0.39751658 0.07229009 -0.21832788 0.07294841
-0.18831964 0.05627112 -0.30386877 0.14200447 0.3578799 -0.31826967 0.14420784 0.08305853
0.1680078 -0.010927707 0.16849323 -0.124198325 0.108033374 -0.23517281 -0.3168529 0.10206298
0.30351317 -0.10289143 0.05880155 -0.19351166 0.096015416 -0.5342691 -0.001022199 -0.19002399
-0.34694695 -0.010817587 0.03985446 -0.6882495 0.08255572 0.19939935 0.16514091 0.029710311
-0.023014057 0.2139517 0.08656506 0.3617293 0.0785828 0.019844003 0.20669754 -0.0013063232
0.09514244 -0.0034010797 0.027911684 -0.008584065 0.072652824 0.015753765 -0.004405733 -0.14987761
0.038017284 -0.060733378 -0.018991854 -0.0047464427 -0.07738585 0.010128603 -0.0026713023 -0.004604868
-0.11887443 -0.07970446 -0.018829633 0.001339687 0.056168724 0.101068795 0.11407612 0.016858285
-0.011787956 0.13362664 0.095237374 0.01070988 0.3871474 0.081420414 0.21017559 -0.06834992
-0.0807703 0.120259844 0.29935566 -0.5849098 0.25431466 0.33418846 0.20096906 0.045155104
0.08728441 0.12785833 -0.02516763 -0.18207294 -0.24265242 0.12455008 0.13573185 -0.20448136
0.021206893 0.10167315 0.11665312 -0.12311589 0.06320983 -0.031492498 0.100967444 0.52131313
0.19676714 -0.03440515 0.18668169 0.25109774 -0.20925738 -0.055615585 -0.10172302 0.07225805
0.0305531 0.055643074 -0.040933263 0.49240452 -0.17790675 0.19506975 -0.14596564 -0.4949852
0.088306606 0.05371488 -0.32157072 -0.04860373 0.7600123 -0.11962568 0.22164655 -0.16475998
0.018112136 0.12837614 -0.1430419 -0.15147668 0.025496762 0.13283914 0.1975087 0.31712708
0.10456474 -0.016456712 -0.01936861 -0.2874993 0.028320465 0.042533968 -0.22804113 -0.05316872
-0.12334397 -0.11369085 -0.0867894 -0.118452415 -0.072291985 -0.24291806 0.08316065 -0.06986767
-0.10249131 -0.08437165 0.1428107 -0.005204235 0.0044511566 0.00239851 0.16732243 -0.10320046
-0.018567234 0.066232935 0.1877793 0.0658497 0.054665823 0.12990884 0.019700384 -0.09273058
0.1550835 0.05375068 0.1907896 -0.31361645 0.09484857 -0.01736712 0.12332796 -0.1577556
0.14120314 -0.08548624 0.027250743 -0.013267714 -0.18026216 0.19447368 -0.12559804 0.10874548
-0.07976163 0.03842808 0.20952381 -0.15217523 0.0415842 -0.03424239 0.14943776 -0.107994325
-0.09372786 -0.087972365 0.16784109 0.1484777 0.25411016 0.06139486 0.113193266 -0.19557773

model.backbone.layers.0.channel.2.bias f4 [74]
00000000: 1ff7 18ba b23a 31bd 7ed3 ad3c f86c 8dbc
00000010: 786a 4f3d 67db 873c f159 a03c a228 133d
00000020: 972d a6bd e369 563e 61a8 d4bb aa21 833c
00000030: 9cf6 573d 7147 ccbd e536 813d e8cc 023e
00000040: 66f6 d4bc b75c 933d 64da 7dbc 3dd0 ca3c
00000050: 397b d53b cded ca3c 3db9 4d3d 311a c83d
00000060: e9a8 fb3d 702e cebb d4b6 053d 1622 bb3d
00000070: 7110 293d 4d53 053d 96c2 39bb ac0b a23b
00000080: 459e 8c3d f0ab 67bd 1461 1c3d 5d8d c23d
00000090: a2b4 a3bd 80b2 3c3d 58c2 63bd 809d 193d
000000a0: 97bd 38bd 3d50 f4ba 919a 06bd b35b c8bc
000000b0: 0bc0 a6bd 0f42 eb3b df20 9bb9 8c7a cdbd
000000c0: 8903 a0bc 9afd 7fbc b068 933d 5c26 073d
000000d0: 8770 43bd 3562 86bd 681e 2fbd 16a5 31bc
000000e0: ec6f c43d 649f c33d 54b3 e1bb 4e1e 2bbd
000000f0: dc9f 893d f5bf d3bd cd0d ccbc fdc9 12bc
00000100: e3cb 8bbc b664 39bd b3c3 823d dba5 c03d
00000110: 5550 0cbd a1c3 eb3c 1e79 b0bc 5015 4b3d
00000120: 4723 973d 7a06 ff3c
-0.0005835164 -0.043268867 0.021219011 -0.017263874 0.050638646 0.016584111 0.019574137 0.035927422
-0.08114164 0.2093883 -0.006489799 0.016007263 0.05272542 -0.09974564 0.063092984 0.12773478
-0.025996398 0.07195418 -0.015493963 0.024757499 0.0065149334 0.024771595 0.050225485 0.097706206
0.122880764 -0.006292157 0.03264506 0.09137361 0.041275445 0.032550145 -0.0028344742 0.004945239
0.06866125 -0.056560457 0.03817852 0.09499619 -0.07993437 0.04606867 -0.055605263 0.03750372
-0.045102682 -0.0018639636 -0.03286225 -0.024457788 -0.08142098 0.0071795057 -0.00029588395 -0.100331396
-0.019532936 -0.015624428 0.07197702 0.032995567 -0.047714736 -0.065617 -0.042753607 -0.010842582
0.0959166 0.09551886 -0.0068878327 -0.041776948 0.06719944 -0.10339347 -0.024908924 -0.008959291
-0.017064994 -0.04526206 0.06384983 0.094066344 -0.034256298 0.028779807 -0.021542128 0.049580872
0.073797755 0.031131018

model.backbone.layers.1.temporal.0.weight f4 [32, 64]
00000000: c6b3 2bbe 4435 a0be 9f58 a23a 85de 80be
00000010: b584 7e3e cd99 833d dec3 89be 834c 3fbe
00000020: ab0f 49be 3a99 33bd 2f97 783e 5106 5f3e
00000030: af5d 24be 3395 abbb f98a 59be 92f0 023c
00000040: d4a9 093f 0f63 503e 5aa4 233d 7986 f1be
00000050: 65c5 10be 970d 21bf 5c4d 853e c051 adbe
00000060: b8fb 5dbc ad1b 013d 8bbe 13bd 6ebc b43d
00000070: 2802 89be 24df 2d3c 312c 64bd d2fc 963e
00000080: 992c 74be 5162 343c 894d 3e3e 71d7 f4be
00000090: 6889 36bb 5732 81be caba fa3d 725f ba3d
000000a0: b39d 8f3d 9765 b6bc ea3c ca3d 490a fabd
000000b0: b495 81be 80e2 973d 682c d7be 7bbe 5ebd
000000c0: c33c 143e 29aa 1ebf 5e13 c03c 922f 63be
000000d0: 4901 80bd 13be 283e 46e5 603e 073f 403e
000000e0: 1c7e 1ebf 56d1 c0be 3545 a43d 9f81 833c
000000f0: 8907 1abe c4d8 01be 6182 8cbe b86c 05bd
00000100: e8e1 7ebe bb45 b6be 4c51 dcbe 7c2f 89be
00000110: 40fb 37be f7e3 c63c 938c c1bc de6d 86be
00000120: d09e 6dbe 08b8 5c3e fd4c 7d3d d26f 733d
00000130: 218e 22bd fb67 f93e 6a2d 963e 83ab f33c
00000140: 3008 783e ca9c 343e f14e 2fbd 9ac8 74be
00000150: 99df d93d 34b4 c8bc 8a6c 903e f181 73bc
00000160: 2c1e 3bbe 26ff c33c d97b bf3b 4f76 4c3d
00000170: f954 a6be 8ffd 61be 0976 1cbe 6f91 b63d
00000180: 8633 a8bd eba1 ac3e 710f ab3e d346 f83b
00000190: 42a3 623e 7bd2 423e 0441 9d3d b71f 2ebd
000001a0: 9e9d 3f3e 7a58 ae3e f815 9c3e 4408 60bd
000001b0: 1eab a63d 8dbe 023e b885 48bc a8c8 223d
000001c0: 7d2e 13be cabd 833e 5192 1dbe 0698 15be
000001d0: 7b56 8fbe 927e 3bbf 08c4 1cbf 3a5e d1be
000001e0: b0a6 17be 818e 14bf 12e1 e2be 972c 39bf
000001f0: 306d dbbe 5f8d bcbe eb57 68be 64fd b83d
00000200: b855 a53e 3145 17be be0a a9be b829 193e
00000210: 3c12 303e 13e1 f03d 4c41 183e 4a8a adbd
00000220: dacc 74bf 6d2c 863e 014d 97be dae5 a43e
00000230: 3e9a 093d c01b 04be 9ef8 a9bb ee88 b73d
00000240: c7e1 40be d6c6 f93e 1e60 3ebe 054e d0be
00000250: 2279 833e 41f0 40be 5b8d bd3e 13ff a43c
00000260: 9e93 13be 897b 9d3e b31f f53c b49f ee3d
00000270: 80b6 a6be 6fde 813e 45a7 813e 3ff4 44bb
00000280: 4706 84be 3656 d83e 0464 153e 9a01 9ebe
00000290: 76ee 4fbd f8b1 bebe c04b b0bd aae2 cebc
000002a0: cd26 1f3d 34fc 3e3e 47d8 8bbd 1583 933c
000002b0: 9e54 4f3d 2b73 1abe 1cf5 5abe cb89 9dbe
000002c0: 6850 d3bd e41c cabe 57e5 15be 84f8 a6be
000002d0: b098 30be ae1a 06bf e8f0 b3be ef71 b83d
000002e0: 7eaf 9d3e 9439 313d 02ed 9ebe 7211 b5bd
000002f0: 42d7 85bd 0ee8 6e3d f298 143d 790a 3f3d
00000300: 481e cdbc 89ac a8be 552f 57bc 2c20 6d3e
00000310: f9b9 073d 5418 c53e 03d3 8fba b6b0 09be
00000320: 0064 f9be 911c fd3c d5bb d8bd f6eb 9dbe
00000330: 2dfe 91be 32f7 60bd 7345 88bc 93f2 a63e
00000340: e4c4 ee3d 3316 1fbd e8f5 06bf b059 21bf
00000350: 3fcb 4b3d c14a 453d 5fc2 ef3e e90c eabc
00000360: 0957 e5bd e778 c3be 53b2 0abf f5d7 8ebe
00000370: 5324 11be 9701 433e 37db 993e 02e0 683e
00000380: f9b0 f8bd dfd5 85bd 0ab3 be3e 8616 87be
00000390: a254 cc3d 3db2 2c3d 94f1 0d3d e036 6d3e
000003a0: 2b2f d0bc 2510 de3d 8f12 963e 5cfe c93e
000003b0: 6ca5 373c 49e3 c83c 2d76 dfbe 4552 fdbe
000003c0: d516 fcbe a517 37be 2a74 59bb d3d9 8e3e
000003d0: b7d6 de3e ce23 9a3d 4a3a a9be d7e7 95be
000003e0: b135 06bf 1ab0 20bf c938 57bf bd65 fd3d
000003f0: 627b ed3d e807 873e 7577 c63e cb57 7c3e
-0.16767797 -0.31290638 0.001238603 -0.2516977 0.24855311 0.064258195 -0.26907247 -0.1868153
-0.19634883 -0.0438473 0.24276422 0.21779753 -0.16051362 -0.005236292 -0.2124442 0.007991927
0.5377476 0.20350288 0.03995166 -0.47172907 -0.141378 -0.6291136 0.26035583 -0.33851433
-0.013548784 0.031520534 -0.036070388 0.088250026 -0.26759458 0.010612283 -0.055706207 0.29489762
-0.23845138 0.011009769 0.18584265 -0.4782062 -0.0027852897 -0.2523372 0.122426584 0.09100236
0.070125006 -0.022265239 0.098749 -0.12208993 -0.25309527 0.07416248 -0.42026067 -0.054380875
0.14476304 -0.61978394 0.023446735 -0.22186115 -0.06250245 0.16478758 0.21962461 0.18774043
-0.6191118 -0.3765971 0.08021013 0.01605302 -0.15041937 -0.12680346 -0.2744322 -0.032574385
-0.24890864 -0.35600075 -0.43030775 -0.2679404 -0.17966938 0.024278624 -0.023626601 -0.26255697
-0.23205113 0.21554577 0.061841 0.059432812 -0.039686326 0.48712143 0.29331523 0.02974487
0.24221873 0.17637935 -0.042799894 -0.23904648 0.10638351 -0.02449999 0.2820781 -0.014862523
-0.18273228 0.023925375 0.005843621 0.049917515 -0.32486704 -0.22069381 -0.15279402 0.08914458
-0.08212952 0.33717284 0.33410218 0.0075768023 0.2213259 0.19025604 0.07678416 -0.042510714
0.1871247 0.34051877 0.3048551 -0.054695383 0.08138107 0.12768002 -0.012238912 0.039742142
-0.14373203 0.25730735 -0.15387847 -0.14608774 -0.27995667 -0.73240006 -0.6123662 -0.40892202
-0.1480968 -0.58029944 -0.4431234 -0.72333664 -0.4285674 -0.36826608 -0.22689788 0.090327054
0.3229196 -0.14772488 -0.33016008 0.1495732 0.17194456 0.117616795 0.14868659 -0.08473642
-0.9562508 0.2620577 -0.29550937 0.32206613 0.033594362 -0.12901211 -0.005187108 0.08961664
-0.18836127 0.48784512 -0.18591353 -0.40684524 0.25678355 -0.1884165 0.37021908 0.02014116
-0.1441178 0.30758312 0.029922342 0.11651555 -0.3256111 0.25365016 0.2532293 -0.0030052809
-0.2578604 0.42253274 0.14588934 -0.30860597 -0.050764523 -0.37245154 -0.08608198 -0.025254566
0.038855363 0.18650895 -0.06828361 0.01800684 0.050617807 -0.15082996 -0.21382564 -0.3076919
-0.10318071 -0.39475167 -0.14638267 -0.32611477 -0.17245746 -0.5238446 -0.35144734 0.09006106
0.30797952 0.0432678 -0.31040198 -0.08841218 -0.06535198 0.058326773 0.036278673 0.046640847
-0.025038853 -0.32944134 -0.013133843 0.23156804 0.03313634 0.38495123 -0.001097292 -0.13446316
-0.48709106 0.03089741 -0.10582701 -0.30844086 -0.28514233 -0.054923244 -0.016634678 0.32606944
0.11658648 -0.03883953 -0.52718973 -0.6302748 0.049754377 0.048166994 0.4682798 -0.02857061
-0.11198241 -0.3817818 -0.5417835 -0.27899137 -0.14174013 0.19043575 0.3005006 0.22741702
-0.1214313 -0.06534933 0.3724597 -0.26384372 0.0997708 0.04216217 0.034654215 0.23165464
-0.025413116 0.10842923 0.29311034 0.39451873 0.011208873 0.02452244 -0.43644848 -0.4947683
-0.4923617 -0.17880113 -0.0033180811 0.27900562 0.4352319 0.075263605 -0.33052284 -0.29278442
-0.52425677 -0.6276871 -0.8407102 0.12372921 0.11595799 0.2637322 0.38763013 0.24642865

model.backbone.layers.1.temporal.0.bias f4 [32]
00000000: cda8 a7bf ce76 87bf cfff a3bf c666 9ebf
00000010: 4c75 78bf 49b0 5fbf 2e91 9fbe 689a 0ebf
00000020: d7c5 4dbf d332 adbf 4e1c bdbf dfd0 21bf
00000030: 4c44 5dbf fc7c 52bf 7642 5abf 19d8 6abf
00000040: e997 95bf 08b9 3fbf bd36 80bd 4cc2 79bf
00000050: 7a6f b1bf 1538 48bf c177 a3bf 229d a1bf
00000060: 9deb babf 6163 92bf 114a a7bf 298b 8cbf
00000070: 3634 9ebf 9266 95bf 7bf4 95bf 9b38 83bf
-1.3098389 -1.0583131 -1.2812442 -1.2375114 -0.9705398 -0.87378365 -0.3116545 -0.55704355
-0.80380005 -1.3531135 -1.4774263 -0.63209337 -0.8643234 -0.8222196 -0.8525766 -0.9173599
-1.1686984 -0.7489171 -0.062604405 -0.975621 -1.3862145 -0.78210574 -1.2770921 -1.2626078
-1.4603153 -1.1436578 -1.3069478 -1.0979968 -1.2359684 -1.1671927 -1.1715235 -1.025165
