experiments/AdversarialDomainAdaptation/saved_models/tsmixer_da_finetuned_2.pt (torch, 731002 bytes, 30 tensors)

model.backbone.static_proj.weight f4 [64, 10]
0	0xbc82fffa	-0.0159912
1	0x3e02c3a4	0.12769943
2	0x3e52ba0e	0.20578787
3	0xbce9a4d8	-0.028520986
4	0x3e0a6348	0.13514435
5	0x3db3c72b	0.08778223
6	0xbd871260	-0.06595302
7	0xbddf0c4a	-0.10891016
8	0x3e392dd5	0.1808389
9	0x3db0e9c0	0.08638334
10	0x3d1084bb	0.03528283
11	0x3cf1552c	0.029459558
12	0x3dde235f	0.1084659
13	0xbe02ecbf	-0.12785624
14	0x3e527f3b	0.20556347
15	0xbe01a5f5	-0.12660964
16	0x3daf7175	0.08566562
17	0x3e06ac6a	0.13151708
18	0x3e463e8e	0.193598
19	0xbe23675b	-0.15957396
20	0x3e43182e	0.19052193
21	0xbd851c0c	-0.0649949
22	0x3e377eb2	0.17919424
23	0xbd3a1b4b	-0.045436185
24	0x3dd13a12	0.10216154
25	0xbc851244	-0.016244061
26	0xbe2e85ab	-0.17043178
27	0x3e2b1607	0.16707622
28	0x3e1d335a	0.1535162
29	0xbbfca713	-0.0077103465
30	0xbdb8572a	-0.09001
31	0x3dfa3112	0.12216391
32	0xbc1ac751	-0.009446935
33	0x3ceaf215	0.028679887
34	0x3e261fb5	0.16223033
35	0xbdfe8e5d	-0.124294974
36	0x3e0c8015	0.13720734
37	0xbd20bff5	-0.039245564
38	0x3cc90f6d	0.024543488
39	0xbe0b048d	-0.13575955
40	0xbe5cc2ca	-0.21558681
41	0x3df025ec	0.11725983
42	0xbd517d0f	-0.051144656
43	0xbe896d5c	-0.26841247
44	0xbd93c41d	-0.0721514
45	0xbe87f3c6	-0.26553172
46	0x3e14bf28	0.14526045
47	0xbcea079e	-0.028568085
48	0xbdee151c	-0.1162512
49	0x3dadd7e9	0.08488447
50	0xbdfb6bd6	-0.122764274
51	0x3d8d182d	0.06889377
52	0x3ea2f735	0.3182923
53	0xbe956c4f	-0.29184195
54	0xbe405c75	-0.1878527
55	0x3e2066da	0.15664235
56	0xbe2b253a	-0.1671342
57	0x3baeea9d	0.0053380267
58	0x3e2c5172	0.16827944
59	0xbd85fc02	-0.06542207
60	0x3b304a37	0.0026899704
61	0x3d71cbc7	0.059032228
62	0x3d8caa4d	0.0686842
63	0x3e369faa	0.17834345
64	0x3e8961c0	0.2683239
65	0xbd0b2f7b	-0.033980828
66	0x3e0aaa62	0.13541558
67	0xbca8eec8	-0.020621672
68	0x3d306f73	0.043075036
69	0xbde1b445	-0.11020712
70	0x3d798674	0.06091924
71	0x3dd04569	0.10169489
72	0xbedcab0a	-0.43099242
73	0x3e024d2f	0.12724756
74	0x3e07fcd0	0.13280034
75	0x3c35a3a3	0.011086377
76	0xbe8ae900	-0.2713089
77	0x3e71eadc	0.23624748
78	0xbe9cf416	-0.30654973
79	0x3cfda527	0.03096254
80	0xbe1a4cbe	-0.15068337
81	0xbc38b435	-0.011273433
82	0x3dbbe5be	0.09174679
83	0x3e9628a2	0.29327875
84	0x3ec56f8f	0.38561675
85	0x3dc6820a	0.09692772
86	0x3e2c55f2	0.1682966
87	0x3dd120cf	0.10211336
88	0x3d5d59cc	0.054040715
89	0xbe12cacc	-0.14335173
90	0x3d715e7e	0.058928005
91	0xbdab654b	-0.083689295
92	0xbd798129	-0.060914192
93	0xbcfdc455	-0.030977407
94	0xbe54dae6	-0.20786628
95	0xbc933abe	-0.017972346
96	0xbcdb6946	-0.026783597
97	0x3dcd158a	0.10013874
98	0xbe1f0448	-0.15528977
99	0xbdd65a5f	-0.10466456
100	0x3e55c78d	0.20876904
101	0x3b94d5c6	0.0045420853
102	0xbd7b69fe	-0.06138038
103	0x3e03afa5	0.12859972
104	0x3e8f724b	0.28016886
105	0xbda09913	-0.078416966
106	0xbddfec0e	-0.10933696
107	0x3ca68a83	0.02032972
108	0x3e118810	0.1421206
109	0xbe44e070	-0.19226241
110	0xbdbd2a88	-0.09236628
111	0x3d8b210a	0.06793411
112	0x3d40cbd8	0.0470694
113	0x3ec24fa1	0.37951377
114	0xbe567a0d	-0.20944996
115	0xbe5f619c	-0.21814579
116	0x3e80849b	0.2510117
117	0xbe4aa3e8	-0.19789088
118	0x3c3fd37c	0.011708137
119	0x3e9487c8	0.29009843
120	0x3d3130a1	0.043259267
121	0x3d49dce3	0.04928292
122	0xbe9ca3ba	-0.30593663
123	0x3e48181a	0.19540444
124	0x3d938c4f	0.07204496
125	0xbd457616	-0.04820832
126	0xbd0669ce	-0.032815747
127	0x3dbafb65	0.09129981
128	0xbe143e5f	-0.14476918
129	0x3dd3cfb3	0.1034235
130	0xbe04d71a	-0.1297268
131	0xbdfda6b8	-0.12385315
132	0x3e969023	0.29406843
133	0xbd741227	-0.059587624
134	0xbd919439	-0.07108349
135	0x3e5e5504	0.21712118
136	0x3e4fd934	0.202977
137	0xbe2b1ae8	-0.16709483
138	0xbdebf8d6	-0.11522071
139	0xbd8b672f	-0.0680679
140	0x3ceeb03d	0.029136771
141	0xbd88628b	-0.066594206
142	0x3e8da61b	0.2766579
143	0xbe688bbb	-0.22709553
144	0x3e2059cc	0.15659255
145	0xbe7b4822	-0.24539235
146	0xbe02c15f	-0.12769078
147	0xbd4abd9f	-0.049497243
148	0x3d9e403f	0.07727098
149	0x3e6177b2	0.22018316
150	0xbddf4a94	-0.109028965
151	0x3c1f0ffb	0.0097084
152	0x3d394236	0.04522916
153	0xbe2f3610	-0.17110467
154	0x3e74eed0	0.23919225
155	0xbe1641fb	-0.14673607
156	0xbc9e324e	-0.019311097
157	0xbe41ceec	-0.1892659
158	0x3dbfe5f4	0.09370032
159	0x3d735fb3	0.059417438
160	0x3d8c92cb	0.06863936
161	0x3b92f91e	0.0044852635
162	0x3e4a58aa	0.19760385
163	0x3c1cd122	0.0095713455
164	0xbe454bba	-0.19267169
165	0x3d2a3b50	0.04156047
166	0x3d662353	0.05618603
167	0xbd15010e	-0.03637796
168	0x3e127ba5	0.14304979
169	0x3d47e4db	0.048802238
170	0x3ddd15fa	0.10795207
171	0xbd0c58f4	-0.03426452
172	0x3e11a80c	0.14224261
173	0xbcb083c5	-0.021547208
174	0xbc8cb328	-0.017175272
175	0x3dee5b95	0.11638562
176	0xbe226ad8	-0.1586107
177	0x3d03adf7	0.032148328
178	0x3e22c910	0.15897012
179	0xbe770996	-0.2412475
180	0xbc55bb4d	-0.013045144
181	0xbdc38083	-0.09545996
182	0x3d0d5a2f	0.034509834
183	0x3e50e760	0.20400763
184	0x3e56ba69	0.20969547
185	0x3e151425	0.14558466
186	0xbbcc4479	-0.0062337485
187	0x3db6c350	0.08923972
188	0xbe3276e2	-0.17428163
189	0x3e4f6642	0.20253852
190	0xbe53301a	-0.20623818
191	0xbd5d9fde	-0.05410754
192	0x3bf5c82b	0.0075006685
193	0xbdaa852f	-0.08326184
194	0xbdca3b90	-0.09874642
195	0xbd505d6b	-0.05087034
196	0x3e56f182	0.20990565
197	0xbd8b125e	-0.06790613
198	0x3c976b3c	0.01848375
199	0xbdd9fe2b	-0.10644182
200	0x3bfe6ec2	0.007764668
201	0x3bd59311	0.006517776
202	0xbde5e8f3	-0.11226072
203	0xbd10288a	-0.03519491
204	0x3dcd48dc	0.100236624
205	0x3dc97e48	0.09838539
206	0xbd6851de	-0.0567187
207	0x3d7d1fd0	0.061797917
208	0xbc52b626	-0.01286081
209	0xbe2c790e	-0.16843054
210	0xbd018c80	-0.031628132
211	0xbd652e6d	-0.05595248
212	0x3e64b02a	0.22332826
213	0x3ca1ee3c	0.01976692
214	0x3d329d2d	0.043606926
215	0xbc478387	-0.012177355
216	0x3cd45559	0.025919603
217	0xbd0f67e3	-0.035011183
218	0x3e00aa0d	0.12564869
219	0x3c8243a0	0.015901387
220	0x3c2d8779	0.010591381
221	0xbdc62ab3	-0.09676113
222	0x3df3044b	0.11866053
223	0xbe295d3d	-0.16539474
224	0x3e1a33cd	0.15058823
225	0xbe5a2d6f	-0.21306394
226	0xbdf5b849	-0.1199804
227	0x3d824a64	0.06361845
228	0x3d4a2298	0.049349397
229	0xbe1f61c7	-0.15564643
230	0xbc39f653	-0.011350232
231	0xbc8021f2	-0.015641186
232	0xbef138de	-0.471137
233	0xbd8899e3	-0.066699766
234	0x3d573859	0.05254397
235	0xbe903c0d	-0.28170815
236	0x3da565de	0.0807607
237	0x3dc840bb	0.09777971
238	0xbe0c413d	-0.13696761
239	0xbe694dc5	-0.22783573
240	0xbda805df	-0.08204245
241	0x3d1d1078	0.038345784
242	0x3e0be084	0.13659865
243	0x3dfab8b2	0.12242259
244	0x3d3e261b	0.04642306
245	0xbe05cf71	-0.13067414
246	0x3e6aa188	0.22913182
247	0xbe08c586	-0.13356599
248	0xbd278930	-0.040902317
249	0x3e3e1d59	0.18565883
250	0x3d7441c9	0.05963305
251	0xbcc4f0a3	-0.024040526
252	0x3e8131a3	0.25233182
253	0xbe0313e7	-0.12800561
254	0xbeaaba1b	-0.33345112
255	0x3e61a910	0.22037148

model.backbone.static_proj.bias f4 [64]
0	0x3b5fb676	0.0034135855
1	0x3dc1dbb1	0.09465731
2	0xbe98539d	-0.29751292
3	0xbd2419bd	-0.04006361
4	0xbcc4743f	-0.023981212
5	0x3dac0809	0.0839997
6	0x3d7b2c18	0.061321348
7	0xbdd9d616	-0.10636537
8	0xbe949e28	-0.29026914
9	0x3e24e4b4	0.16102868
10	0x3d557d7b	0.05212162
11	0xbe268d13	-0.16264753
12	0xbde1fb87	-0.11034303
13	0xbda87121	-0.082247026
14	0x3d980f2e	0.0742477
15	0xbd2c3712	-0.042044707
16	0x3ecac84a	0.39605933
17	0xbbf875ad	-0.0075823874
18	0x3dc5028a	0.09619625
19	0xbdbfff27	-0.09374838
20	0x3d14989e	0.03627836
21	0x3e125398	0.14289701
22	0x3dd9f933	0.10643234
23	0xbd5a4820	-0.05329144
24	0x3c955293	0.018227851
25	0xbca2bc89	-0.019865291
26	0x3dd727d9	0.10505647
27	0x3b3782c6	0.002800153
28	0xbeac12df	-0.33608148
29	0xbcea1302	-0.028573517
30	0x3e3c3e94	0.18383247
31	0xbeaa529c	-0.3326615
32	0x3df7c5a9	0.120982476
33	0xbdf03979	-0.11729712
34	0xbdc43265	-0.095799245
35	0xbe0d5308	-0.13801205
36	0x3e10da19	0.14145698
37	0x3daf363d	0.08555267
38	0xbdbac54f	-0.09119665
39	0xbc9804b8	-0.018556938
40	0x3e42b685	0.19014938
41	0xbdd9cd7e	-0.10634898
42	0xbbebf56d	-0.007200888
43	0x3d41fa67	0.047357943
44	0xbd53d275	-0.05171438
45	0xbcd68627	-0.026187016
46	0xbe10a645	-0.14125927
47	0x3cdb75a3	0.026789492
48	0xbe1bfc88	-0.15233052
49	0xbd12a72d	-0.035803962
50	0xbe24d142	-0.1609545
51	0x3dfdd608	0.12394339
52	0x3d9b4a96	0.075825855
53	0x3b1a0440	0.0023501068
54	0x3e367642	0.1781855
55	0xbd1d965d	-0.038473476
56	0xbca8edcf	-0.020621208
57	0xbce3a504	-0.027788647
58	0xbbf6d80c	-0.007533079
59	0x3e7c4563	0.24635844
60	0xbcd816b7	-0.026378019
61	0x3d744521	0.05963624
62	0x3d7d2029	0.06179825
63	0x3e72c996	0.23709711

model.backbone.layers.0.temporal.0.weight f4 [32, 64]
0	0xbc6656a3	-0.014058742
1	0xbd2d53b1	-0.042316142
2	0x3d443dc4	0.047910467
3	0xbd735af4	-0.05941291
4	0x3d9a1de7	0.07525235
5	0x3ce71f2a	0.028213102
6	0x3d56830a	0.052371062
7	0x3e57a150	0.2105763
8	0x3dbbbd11	0.09166921
9	0x3e562bd5	0.20915158
10	0x3e00e77e	0.12588307
11	0x3c9c0445	0.019045005
12	0xbd39ca75	-0.045359094
13	0x3d2d6039	0.042328093
14	0xbaab608b	-0.0013075037
15	0x3d388a82	0.045053966
16	0x3e16d24c	0.1472866
17	0xbdd3bf04	-0.10339168
18	0xbc8874b0	-0.016657203
19	0xbd951e55	-0.07281176
20	0x3bc08254	0.0058749113
21	0x3d08d5ec	0.033407137
22	0x3d6caa59	0.057779644
23	0xbcdb19e0	-0.026745737
24	0x3e43761b	0.19088022
25	0x3e996cdc	0.29965866
26	0x3e424d50	0.18974805
27	0x3e049c7a	0.12950316
28	0x3c5984d4	0.013276298
29	0x3d8e4117	0.06946009
30	0xbd83ce85	-0.06435875
31	0xbdf8c653	-0.12147202
32	0xbe81aaa7	-0.2532551
33	0xbe101deb	-0.14073913
34	0xbd9e14d2	-0.07718815
35	0xbd172e83	-0.03690959
36	0xbe5fe9a8	-0.21866477
37	0xbe2a4d41	-0.16631033
38	0xbe8aa5ca	-0.27079612
39	0xbe51016b	-0.20410697
40	0xbdbb4226	-0.09143476
41	0xbe10e250	-0.14148831
42	0xbd450f3e	-0.04811024
43	0xbd8b4b8d	-0.068015195
44	0xbc5b8b02	-0.013399841
45	0x3d573fcc	0.052551076
46	0x3d7e6ece	0.06211739
47	0x3dabe99f	0.08394169
48	0x3d1d7025	0.038437027
49	0x3c793613	0.015210646
50	0x3e36150a	0.17781463
51	0x3bee42ae	0.0072711324
52	0xbd4c3395	-0.04985388
53	0x3dd5f4b7	0.10447066
54	0x3d40a3cc	0.04703121
55	0x3db0488c	0.08607587
56	0x3e597504	0.21236044
57	0x3e1e5d6b	0.15465324
58	0x3cedd65e	0.029032882
59	0xbe020b10	-0.12699533
60	0xbcd88852	-0.02643219
61	0xbdad51c9	-0.08462865
62	0xbd98e4a4	-0.07465485
63	0xbefa5364	-0.48891747
64	0xbc803e9b	-0.015654853
65	0xbe0b56d9	-0.13607349
66	0xbdc4808f	-0.09594833
67	0xbdc6f0bf	-0.097138874
68	0x3d0aba26	0.03386893
69	0xbbf08717	-0.0073403227
70	0xbe0854f7	-0.13313662
71	0x3dde7e2b	0.108639084
72	0xbd11051f	-0.035405274
73	0xbd865c1e	-0.06560539
74	0xbd0034c3	-0.031300317
75	0xbd1d7abf	-0.038447138
76	0xbabf15dc	-0.0014578658
77	0x3d8cdca8	0.06878024
78	0x3b8a7baf	0.00422617
79	0xbe3860fd	-0.18005748
80	0xbc9df3f5	-0.019281367
81	0xbd4ca257	-0.049959507
82	0xbe154212	-0.14575985
83	0xbdc89fb3	-0.09796085
84	0x3d35c1cd	0.044374276
85	0xbd95dd56	-0.07317607
86	0xbdf0ab71	-0.1175145
87	0xbd417267	-0.047228243
88	0x3c9fc5dc	0.019503526
89	0xbd324baa	-0.04352919
90	0xbd177bb5	-0.03698321
91	0xbe02a507	-0.12758265
92	0x3b66cecb	0.0035218473
93	0xbd6f6a1e	-0.05845081
94	0xbe4543bc	-0.1926412
95	0x3dbaf654	0.091290146
96	0x3bbaa290	0.0056956485
97	0xbcbb76e6	-0.022883844
98	0xbdc13f19	-0.09435863
99	0x3ae0b621	0.0017144122
100	0xbd7c9853	-0.061668705
101	0xbd4214ae	-0.047383003
102	0x3e533683	0.20626263
103	0x3e9a75a8	0.3016789
104	0xbd6e52dc	-0.05818449
105	0x3a9c2551	0.0011912977
106	0x3e47bbee	0.19505283
107	0x3d3293aa	0.043597855
108	0xbcef4d1a	-0.02921157
109	0x3d1a0959	0.03760657
110	0x3d5d5dd3	0.054044556
111	0x3c977bb2	0.0184916
112	0x3ddaa836	0.10676615
113	0x3e24131b	0.16022913
114	0x3e004710	0.12527108
115	0x3e5757e8	0.21029627
116	0x3e265ee3	0.16247134
117	0x3d697757	0.056998577
118	0xbba792d8	-0.0051139407
119	0x3e172a9e	0.14762351
120	0x3dc140b3	0.094361685
121	0x3c183aae	0.009291334
122	0xbde8eadd	-0.113729216
123	0xbe0e67f9	-0.1390685
124	0xbdd68980	-0.10475445
125	0xbe1a10e5	-0.15045507
126	0xbe6a8807	-0.22903453
127	0x3e877be5	0.26461712
128	0x3e5bef83	0.21478085
129	0x3e0164cb	0.12636106
130	0xbdaafee1	-0.083493955
131	0xbd4d0f07	-0.05006316
132	0xbb65caa3	-0.0035063408
133	0xbc97196d	-0.018444741
134	0x3d1669a8	0.036721855
135	0xbd1c7013	-0.03819282
136	0xbdc05a3a	-0.09392209
137	0x3c26ebc1	0.010188044
138	0xbe2c46ad	-0.16823836
139	0xbd076b70	-0.033061445
140	0xbcbcf924	-0.023068018
141	0x3cd75021	0.026283326
142	0xbe543ea3	-0.20727019
143	0x3e0316b7	0.12801634
144	0x3e533eb7	0.20629393
145	0x3e178d88	0.14800084
146	0xbdf6954d	-0.120401956
147	0xbe316f26	-0.17327556
148	0xbd4a5aaf	-0.04940289
149	0xbba892ed	-0.005144468
150	0xbdb87721	-0.09007097
151	0xbda32d9c	-0.07967684
152	0x3cfea1b3	0.031082964
153	0x3e4bc129	0.19897904
154	0xbd0af962	-0.033929236
155	0x3d380a71	0.044931833
156	0x3e87be46	0.26512355
157	0x3df15dc9	0.11785466
158	0x3e0efb03	0.13962941
159	0x3d0faed0	0.035078824
160	0xbcd5588b	-0.026043197
161	0xbd1afdc1	-0.037839655
162	0xbe55e36a	-0.20887533
163	0xbe62cfdf	-0.22149609
164	0xbc0e0d58	-0.008670174
165	0xbc8f6be4	-0.017507501
166	0x3d0608b0	0.03272313
167	0x3e089775	0.13339026
168	0x3e30c5e5	0.17262991
169	0xbda095ed	-0.07841096
170	0x3d46ef4d	0.04856806
171	0x3c2e285f	0.010629742
172	0x3d3da13f	0.046296354
173	0x3ce25c0e	0.027631786
174	0x3d4577b1	0.04820985
175	0x3e081400	0.1328888
176	0x3d17f0c3	0.037094843
177	0xbe5840f3	-0.21118526
178	0xbe4bb5e9	-0.19893612
179	0xbe3aaf39	-0.18230905
180	0xbe4e211a	-0.20129815
181	0xbd107ea6	-0.03527703
182	0x3ade2409	0.0016947995
183	0x3e315e11	0.1732104
184	0x3e72b4e3	0.23701815
185	0x3e58e032	0.21179274
186	0xbddf7ba5	-0.10912255
187	0xbdcf47c6	-0.101211116
188	0xbe8aa1cd	-0.2707657
189	0xbe587819	-0.21139564
190	0xbbad6f7f	-0.0052928324
191	0x3df23096	0.11825673
192	0x3e207f73	0.15673618
193	0xbc2ecf43	-0.010669532
194	0xbd96c1fc	-0.07361218
195	0xbbc18c8c	-0.005906647
196	0xbd951043	-0.07278492
197	0x3e092403	0.13392644
198	0x3cf07e60	0.029357135
199	0x3d1224ef	0.035679754
200	0x3dce037b	0.100592576
201	0x3e2f96b8	0.17147338
202	0xbd8cd9ae	-0.068774566
203	0xb9cd2ef5	-0.00039135633
204	0x3e746805	0.23867805
205	0xbdab19bf	-0.0835452
206	0x3bc1496e	0.005898646
207	0x3d84cc58	0.06484288
208	0x3da8ec53	0.082482
209	0xbe291a4c	-0.16513938
210	0x3ca62758	0.020282432
211	0x3e37dcf6	0.17955384
212	0x3e1858f2	0.1487768
213	0x3d5739d5	0.052545387
214	0xbda850e1	-0.082185514
215	0xbd83b5da	-0.0643117
216	0xbece9f91	-0.40356115
217	0xbe20a491	-0.15687777
218	0xbe10866b	-0.14113776
219	0xbcc3b048	-0.023887768
220	0xbe2c1cb2	-0.16807821
221	0xbda34978	-0.079729974
222	0xbdca4583	-0.098765396
223	0xbe217a40	-0.15769291
224	0x3d73b609	0.059499774
225	0x3daca401	0.08429719
226	0xbdb05e5a	-0.08611746
227	0x3deb5652	0.11491074
228	0x3db05aa9	0.08611042
229	0xbce023f1	-0.027360888
230	0xbd34030f	-0.04394823
231	0x3e2111d2	0.15729454
232	0x3e005b68	0.12534869
233	0x3d7b5ab5	0.0613658
234	0xbcf47da2	-0.029845063
235	0x3d6bce94	0.057570055
236	0xbdfd970e	-0.12382327
237	0xbe9c8dac	-0.30576837
238	0xbdc9dd84	-0.09856704
239	0x3d6836a1	0.056692723
240	0x3e4ac033	0.1979988
241	0x3e8bd814	0.27313292
242	0x3d6ce69e	0.05783712
243	0x3db587be	0.088637814
244	0x3c9f9d90	0.019484311
245	0xbd7a82ff	-0.061160084
246	0xbe684784	-0.22683531
247	0xbd1461d1	-0.036226097
248	0x3d99e132	0.07513656
249	0x3e647103	0.22308736
250	0x3e314685	0.17312057
251	0xbd41dea0	-0.047331452
252	0xbc8a7cea	-0.016905267
253	0xbd304d2e	-0.043042354
254	0x3caaf64e	0.0208694
255	0xbc21bcf4	-0.00987171

model.backbone.layers.0.temporal.0.bias f4 [32]
0	0xbf379b64	-0.7172148
1	0xbf59c415	-0.8506482
2	0xbef4f557	-0.4784343
3	0xbe820663	-0.25395498
4	0x3d1e350e	0.038624816
5	0x3daa053a	0.08301778
6	0xbf0b1dde	-0.5434245
7	0xbf215770	-0.63024044
8	0xbf016317	-0.50541824
9	0xbd75af3a	-0.059981562
10	0xbe6dd036	-0.23223957
11	0xbec9a911	-0.393868
12	0xbe923d56	-0.2856242
13	0xbf45ee19	-0.77316433
14	0x3cc9edc3	0.024649506
15	0xbead4c18	-0.33847117
16	0xbea5a7a2	-0.32354456
17	0xbe868bae	-0.26278442
18	0xbe692d0d	-0.22771092
19	0xbf0f5913	-0.5599529
20	0xbf364fff	-0.71215814
21	0xbf191335	-0.5979493
22	0xbe8f2e73	-0.27965125
23	0x3cd546ec	0.026034795
24	0xbe934f5c	-0.28771484
25	0xbc8e0be0	-0.017339647
26	0xbf0a6f3b	-0.54075974
27	0xbe946c50	-0.28988886
28	0xbe1b6acd	-0.1517746
29	0xbefcafa3	-0.4935275
30	0xbe1c44d0	-0.15260625
31	0xbef86a21	-0.4851847

model.backbone.layers.0.temporal.2.weight f4 [64, 32]
0	0x3e00ffe3	0.12597613
1	0x3d4ed7b4	0.05049868
2	0x3e2fedd2	0.17180565
3	0x3d2dba59	0.042414043
4	0xbb5d871a	-0.003380245
5	0xbd115d95	-0.035489637
6	0x3e59437b	0.21217148
7	0x3e1c9061	0.15289451
8	0xbe2bc45f	-0.16774128
9	0xbde1b26d	-0.1102036
10	0xbe0075e5	-0.12544973
11	0xbe8b9550	-0.27262354
12	0xbcc70f7a	-0.024299372
13	0xbe1ee6a8	-0.15517676
14	0xbc77b6f1	-0.0151193
15	0x3e48658b	0.19569986
16	0x3d2d649d	0.04233228
17	0x3cad1a73	0.021130776
18	0xbc5d7bad	-0.013518256
19	0xbd2dae06	-0.04240229
20	0xbc4f93b6	-0.012669494
21	0xbdf34f5d	-0.11880372
22	0xbde5e47f	-0.11225223
23	0xbdc88197	-0.09790342
24	0x3e063785	0.13107117
25	0xbd885336	-0.06656496
26	0x3c8b5436	0.017007928
27	0xbdbe1251	-0.09280837
28	0x3dbccdc0	0.09218931
29	0xb9d565b4	-0.000407023
30	0x3d304ca7	0.04304185
31	0xbd3a0313	-0.045413088
32	0x3db9484f	0.09046995
33	0x3cb89ba6	0.022535156
34	0x3dea7784	0.11448577
35	0xbb067fd1	-0.0020522962
36	0xbdebf0f1	-0.11520565
37	0xbd7b2d70	-0.06132263
38	0xbd945da5	-0.07244424
39	0xbd3e108a	-0.04640249
40	0xbda2edc6	-0.07955508
41	0x3e77a8fd	0.24185558
42	0x3d69e340	0.057101488
43	0x3c6878f6	0.014188996
44	0xbe27940d	-0.1636507
45	0xbe6fbfe0	-0.23413038
46	0x3c271f5f	0.010200351
47	0xbdd72b36	-0.10506289
48	0x3d22b899	0.039726827
49	0xbca91a34	-0.020642377
50	0x3d0ccc8b	0.034374755
51	0x3b97190d	0.0046111406
52	0x3e1fa9d9	0.15592135
53	0x3dcd3e13	0.10021605
54	0xbe7121e6	-0.23548087
55	0x3e35cbd5	0.17753537
56	0x3e1005cc	0.14064711
57	0x3dc932ff	0.0982418
58	0xbe50a643	-0.20375924
59	0x3e571639	0.21004571
60	0xbd97a18c	-0.074038595
61	0x3cabf34d	0.020990038
62	0xbdb34b41	-0.08754588
63	0xbe7aca89	-0.24491324
64	0xbdfee1d7	-0.12445419
65	0x3e32aeb0	0.1744945
66	0xbcec4d90	-0.028845578
67	0xbb4e02a0	-0.003143467
68	0x3de3bf1a	0.11120434
69	0xbcb3bfc9	-0.021942036
70	0x3db86060	0.09002757
71	0xbd7b27c6	-0.061317228
72	0x3e9f4bac	0.3111242
73	0xbcf5c69c	-0.03000193
74	0xbdb71058	-0.08938664
75	0x3d015f0b	0.03158478
76	0xbe095358	-0.134107
77	0xbc606991	-0.013697044
78	0xbd6fb344	-0.05852057
79	0x3e99a030	0.30005026
80	0xbe73aa37	-0.237954
81	0x3ca9a737	0.020709617
82	0xbca596d5	-0.020213524
83	0xbdad5379	-0.08463187
84	0x3e3815b4	0.17977029
85	0xbcd720a4	-0.026260681
86	0xbe5cb317	-0.21552692
87	0x3d09b5ed	0.033620764
88	0x3e5b110a	0.21393219
89	0xbe3e0d41	-0.18559743
90	0x3e60b546	0.2194415
91	0xbe145ee8	-0.14489329
92	0x3de868f4	0.11348143
93	0xbd73ce09	-0.059522662
94	0xbc456666	-0.0120483395
95	0x3de0445a	0.10950537
96	0x3e128068	0.14306796
97	0xbd774b67	-0.060374644
98	0x3e2fc09f	0.17163323
99	0xbeb06dcf	-0.34458777
100	0x3e03cf5e	0.12872073
101	0xbd3b9e5c	-0.04580532
102	0xbd66b7f0	-0.05632776
103	0x3e4c8058	0.19970834
104	0x3e051c46	0.12999067
105	0x3d1e04e3	0.03857888
106	0xba8b3c92	-0.001062291
107	0x3da06a35	0.078327574
108	0xbb923e58	-0.0044629984
109	0xbd60aeba	-0.054854132
110	0xbe138f4e	-0.14410135
111	0xbd1cbda3	-0.03826679
112	0xbe06808b	-0.13134973
113	0xbce23a1f	-0.027615605
114	0xbe2b98ee	-0.16757557
115	0xbda9803f	-0.08276414
116	0xbe018314	-0.12647659
117	0xbd1abfad	-0.037780453
118	0xbd72e708	-0.05930236
119	0xbd891ccc	-0.06694946
120	0x3d72aa83	0.059244644
121	0x3c8812db	0.016610553
122	0x3e1b78fb	0.15182869
123	0xbca5e663	-0.020251459
124	0x3d39dae5	0.04537477
125	0x3d43f76d	0.047843385
126	0xbd6196cf	-0.055075463
127	0xbd35dd15	-0.044400293
128	0xbe151655	-0.145593
129	0xbd52cef6	-0.051466905
130	0x3d5cc81f	0.053901788
131	0x3d25f610	0.040517867
132	0xbd901ab7	-0.070363455
133	0x3d9f76d8	0.077863395
134	0x3c93898e	0.018009927
135	0x3c89cb57	0.016820593
136	0x3e495ba0	0.19663858
137	0x3e01407b	0.12622254
138	0xbd9f9474	-0.07791987
139	0xbe3e1e14	-0.18566161
140	0xbe3af9db	-0.18259375
141	0xbe10d0d0	-0.14142156
142	0xbdeb2b49	-0.11482865
143	0x3e0e53b7	0.13899122
144	0xbe8cc2e6	-0.27492446
145	0x3e223a59	0.1584257
146	0xbe420f88	-0.18951237
147	0x3b7b2477	0.0038321295
148	0xbe1dac8c	-0.15397853
149	0xbe80a8c6	-0.25128764
150	0x3d99bac0	0.07506323
151	0x3e1de343	0.15418725
152	0xbcdccf92	-0.026954446
153	0x3e4096de	0.18807551
154	0x3e7eea68	0.24894106
155	0xbde8494f	-0.113421075
156	0x3e66309d	0.22479482
157	0x3e48e5f0	0.19618964
158	0xbcb19cf5	-0.021681288
159	0xbcd6fe45	-0.026244292
160	0x3e6d528c	0.2317602
161	0x3d7a8510	0.061162055
162	0x3c06cc5d	0.008227435
163	0x3db15c61	0.08660198
164	0x3dfc2abb	0.12312838
165	0xbe6531e0	-0.22382307
166	0x3db0d16b	0.08633693
167	0xbe07cbb6	-0.13261303
168	0x3da35794	0.079756886
169	0x3d80d204	0.06290057
170	0xbe4b881d	-0.19876142
171	0xbe0b6ce3	-0.13615756
172	0x3d882513	0.06647696
173	0x3d9ca72b	0.07649072
174	0xbe03a012	-0.1285403
175	0xbc5670c0	-0.013088405
176	0x3d2d9de0	0.04238689
177	0x3e0da0cc	0.1383087
178	0xbd595ea3	-0.05306877
179	0xbcf6cfae	-0.030128326
180	0x3cab3ca0	0.020902932
181	0xbdec860c	-0.11549005
182	0xbe40e2c7	-0.18836509
183	0xbd4036f1	-0.046927396
184	0x3bf9c657	0.007622521
185	0xbba203b8	-0.004944291
186	0x3c04957d	0.008092281
187	0x3d77544d	0.06038313
188	0xbd128cba	-0.03577874
189	0xbe5f6e15	-0.21819337
190	0x3d434759	0.047675464
191	0x3e85a9cc	0.26106107
192	0x3e38ab5a	0.18034115
193	0xbd8e1b4a	-0.06938799
194	0xbe2d140b	-0.16902177
195	0x3d176974	0.036965802
196	0x3cf2ea50	0.029652745
197	0x3d08dc5d	0.03341328
198	0x3ce4fd0e	0.027952697
199	0x3e72399e	0.23654792
200	0x3e1db3ea	0.15400663
201	0x3e1e55b4	0.1546238
202	0xbe5ab3d2	-0.21357659
203	0xbe323030	-0.17401195
204	0xbe5a8a1e	-0.2134175
205	0xbeab7ee1	-0.33495238
206	0x3d0d39f3	0.034479093
207	0x3e03d410	0.12873864
208	0xbc98e677	-0.018664582
209	0x3e5c9e02	0.2154465
210	0xbe0d1b17	-0.13779865
211	0xbd735141	-0.05940366
212	0xbea227a7	-0.31670877
213	0xba898033	-0.0010490477
214	0xbd8fb2cd	-0.070165254
215	0x3ea77c2d	0.32711926
216	0xbe0cc5d6	-0.13747343
217	0xbcf0f335	-0.029412845
218	0xbe659498	-0.22419965
219	0xbddd9efd	-0.1082134
220	0x3ea02448	0.3127768
221	0x3e38e986	0.18057832
222	0xbcf74e32	-0.030188654
223	0x3d17b2ab	0.037035625
224	0xbe47a380	-0.19495964
225	0x3db438ca	0.08799894
226	0xbe89a7df	-0.26885888
227	0x3cbfaeef	0.023398845
228	0x3dc988f5	0.098405756
229	0x3bafcd81	0.005365074
230	0xbd2cffac	-0.042236015
231	0xbcdcaef4	-0.026938893
232	0x3e015b2f	0.1263244
233	0xbcfadd1b	-0.03062301
234	0xbc9417c9	-0.018077748
235	0x3df02cc9	0.11727292
236	0x3e4d6255	0.20057042
237	0x3e058305	0.13038261
238	0xbe1183e1	-0.14210464
239	0x3d9b81d4	0.07593122
240	0x3df9c59f	0.12195896
241	0xbd9f244a	-0.077705935
242	0xba251a63	-0.00062981824
243	0x3eb12efc	0.3460616
244	0x3d2dbda5	0.042417187
245	0xbda6aff5	-0.0813903
246	0xbe3348a5	-0.1750818
247	0x3dec060a	0.11524589
248	0x3dcf0c9e	0.101098284
249	0x3e272c9a	0.16325608
250	0xbe83d098	-0.25745082
251	0xbe743812	-0.23849514
252	0xbe8a1ff6	-0.2697751
253	0xbdfdaa8b	-0.12386044
254	0xbdc44597	-0.09583586
255	0x3e4f39dd	0.20236917

model.backbone.layers.0.temporal.2.bias f4 [64]
0	0x3c9e176f	0.019298283
1	0xbbeb6b8d	-0.007184452
2	0x3b836d85	0.0040108585
3	0x3d39bebd	0.045347918
4	0xbbd020bc	-0.0063515585
5	0x3d7a2c68	0.061077505
6	0xbd4722ef	-0.0486173
7	0x3c6f4207	0.0146031445
8	0x3c3c8ed4	0.011508662
9	0xbd639934	-0.055566028
10	0x3caea819	0.02132039
11	0x3cc408d7	0.023929996
12	0xbc0b68f4	-0.0085089095
13	0xbd64bb07	-0.055842426
14	0x3bd1591b	0.006388796
15	0xbb2da396	-0.002649521
16	0xbc8d495c	-0.017246895
17	0x3bb78d62	0.005601571
18	0xbab254ac	-0.0013605556
19	0x3d21e5e4	0.03952588
20	0xbc8561c6	-0.016281974
21	0xbd41d73c	-0.047324404
22	0xbbed2961	-0.0072375988
23	0x3d77607e	0.060394756
24	0xbd4dfa9d	-0.05028783
25	0xbbbe2f82	-0.005804003
26	0x3bd2b9fc	0.0064308625
27	0x3ca8d22f	0.020608036
28	0x3d2a79b9	0.04161999
29	0xbb7a421f	-0.0038186384
30	0xbbf2fcb7	-0.00741538
31	0x3d0e3f73	0.03472848
32	0xbc657327	-0.014004505
33	0x3adeb5d2	0.0016991443
34	0x3cf87017	0.030326886
35	0x3bdd64ce	0.0067564016
36	0x3d32a77e	0.043616764
37	0xbd039384	-0.032123104
38	0x3bd95e86	0.0066335825
39	0xbc96104f	-0.018318323
40	0x3cffd161	0.03122777
41	0xbbdba003	-0.0067024245
42	0x3d3e6e45	0.04649188
43	0xbca2759e	-0.019831475
44	0x3c3d9d65	0.01157317
45	0x3cf7783f	0.030208705
46	0xbc0f047b	-0.008729096
47	0xbc2e9bdf	-0.01065728
48	0xbce92a46	-0.02846254
49	0x3cc373e7	0.023858977
50	0xbc934fc8	-0.017982379
51	0x3d1ac64d	0.03778677
52	0x3c2084b1	0.009797261
53	0x3cfe53ca	0.031045813
54	0xbc9de09a	-0.019272137
55	0x3cad5c63	0.021162217
56	0x3c3707b4	0.01117127
57	0xbbf81089	-0.0075703305
58	0x3c947105	0.018120298
59	0x3b60fd11	0.0034330527
60	0xbc022cbb	-0.007945235
61	0x3cbedd70	0.023298949
62	0x3ae83df6	0.0017718661
63	0xbafe5ce3	-0.0019406345

model.backbone.layers.0.channel.0.weight f4 [32, 74]
0	0xbd189b6e	-0.037257604
1	0x3da61666	0.08109741
2	0xbd7c5b76	-0.06161066
3	0x3e6a9c2a	0.22911134
4	0x3ac29518	0.0014845459
5	0xbd941dbf	-0.07232236
6	0xbe520006	-0.20507821
7	0xbd6a2ada	-0.057169773
8	0xbe243f7c	-0.16039842
9	0xbe4f6a08	-0.20255291
10	0x3d105978	0.035241574
11	0xbe1279e0	-0.14304304
12	0x3dcd248c	0.100167364
13	0xbd80aad6	-0.06282584
14	0x3df3dc37	0.11907237
15	0xbe5d60d8	-0.21618974
16	0xbd993a1f	-0.07481789
17	0x3e6a47a1	0.22878887
18	0x3d81d04b	0.06338557
19	0xbe7f98c4	-0.24960619
20	0xbd869474	-0.06571284
21	0xbd89c390	-0.06726754
22	0x3e3a8be5	0.18217428
23	0xbda44ebe	-0.080228314
24	0xbe5c2643	-0.2149897
25	0x3daab074	0.08334437
26	0xbde31428	-0.11087829
27	0xbe4fc013	-0.20288114
28	0xbb3ccd92	-0.0028809053
29	0x3daf4d56	0.085596725
30	0x3e1ffe96	0.1562446
31	0xbe2d4a82	-0.16922954
32	0xbe8946b6	-0.2681176
33	0x3d7494cc	0.059712216
34	0xbcfd239f	-0.030900775
35	0x3c8e596d	0.017376626
36	0xbe9571f4	-0.29188502
37	0xbd46bd07	-0.048520114
38	0x3e563460	0.20918417
39	0x3e3a8484	0.18214613
40	0xbd8ccd35	-0.06875078
41	0xbe031b02	-0.12803271
42	0xbe3bd365	-0.1834236
43	0x3da54e12	0.08071531
44	0xbde500f9	-0.11181826
45	0x3ae8ac9a	0.0017751635
46	0xbdfa7c74	-0.12230769
47	0x3c5b92d5	0.013401707
48	0xbbff2208	-0.0077860393
49	0x3e10fb98	0.14158475
50	0xbdc63b46	-0.09679274
51	0xbcc0d552	-0.023539219
52	0x3e66998c	0.22519511
53	0x3d534884	0.05158283
54	0x3e253742	0.1613436
55	0x3dd53200	0.10409927
56	0xbc691314	-0.01422574
57	0x3d9b6e1b	0.0758936
58	0x3d1b53c3	0.03792168
59	0x3d1ca571	0.038243715
60	0x3e98592d	0.29755536
61	0xbc3703b6	-0.011170318
62	0xbdaaa735	-0.083326735
63	0xbc4582b3	-0.012055087
64	0x3e305136	0.1721848
65	0xbe008915	-0.12552293
66	0xbdbc342d	-0.09189639
67	0x3e23b237	0.15985952
68	0xbd7c9417	-0.061664667
69	0x3d558985	0.052133102
70	0xbdb3ee75	-0.087857164
71	0xbe3ef851	-0.18649413
72	0x3d4bda6c	0.04976885
73	0x3db15d4a	0.086603716
74	0xbe3ec8b3	-0.18631248
75	0xbeac3ae7	-0.3363869
76	0x3d6c4500	0.05768299
77	0xbe7a23a7	-0.24427663
78	0xbead6467	-0.33865663
79	0x3dac6ec4	0.08419564
80	0xbe36aa56	-0.17838416
81	0x3c8dad6d	0.01729461
82	0xbbb250f3	-0.005441779
83	0xbe808c67	-0.25107118
84	0xbbb52ec2	-0.0055292556
85	0xbd22702e	-0.039657764
86	0x3e1fb423	0.1559606
87	0x3d6beddb	0.057599884
88	0x3d2faa4b	0.042887013
89	0x3c571f89	0.013130077
90	0xbcc36c3f	-0.023855327
91	0x3db6fb04	0.08934596
92	0x3e078b68	0.13236773
93	0xbe0a1b54	-0.13486987
94	0xbe32b179	-0.17450513
95	0x3e02e5fb	0.12783043
96	0x3d935a72	0.071949854
97	0x3d5e01c2	0.054200895
98	0xbd83b67a	-0.06431289
99	0x3e25d9c8	0.16196358
100	0xbc502bb0	-0.012705728
101	0xbb391b95	-0.00282452
102	0xbe1716cc	-0.1475479
103	0x3d5828d0	0.052773297
104	0xbd3ebc84	-0.0465665
105	0xbd63be6c	-0.055601522
106	0xbe18d0b0	-0.14923358
107	0xbd1c9b69	-0.03823415
108	0xbd56cbb1	-0.05244035
109	0xbcd222fb	-0.025651446
110	0xbd481114	-0.048844412
111	0xbbae1616	-0.0053126914
112	0x3dfea459	0.124336906
113	0xbcb6a389	-0.022294777
114	0xbd9f710e	-0.07785235
115	0x3e3b1e92	0.1827338
116	0xbd6ef58f	-0.05833965
117	0x3d76a572	0.060216375
118	0xbd4d3ca0	-0.050106645
119	0x3cac9e77	0.021071656
120	0xbe2149c8	-0.15750802
121	0xbe0bdde5	-0.13658865
122	0x3d649173	0.055802774
123	0xbd5e2815	-0.054237444
124	0xbdca75e6	-0.098857686
125	0x3d90d291	0.07071412
126	0x3d17802d	0.036987472
127	0xbdc7f6e0	-0.097638845
128	0xbd1d02e9	-0.038332853
129	0xbced05ad	-0.02893337
130	0x3e1c822b	0.1528403
131	0xbc3b09bb	-0.011415894
132	0x3db1177c	0.086470574
133	0x3d4a1881	0.049339775
134	0x3e20ebdb	0.15714972
135	0xbe00ba62	-0.125711
136	0xbd32c7e2	-0.043647654
137	0x3deec8bb	0.1165938
138	0xbe471706	-0.19442376
139	0x3d238e2b	0.039930504
140	0xbd9c5139	-0.076326795
141	0x3da85e65	0.08221129
142	0xbbae8428	-0.005325813
143	0xbdbd7aba	-0.09251924
144	0xbc9f64e2	-0.019457284
145	0xbd5d16f8	-0.053976983
146	0x3d84ab61	0.064780004
147	0xbe04464e	-0.12917444
148	0x3e900e56	0.28135937
149	0xbdb85785	-0.09001068
150	0xbc58b786	-0.013227349
151	0xbc902cab	-0.017599424
152	0xbedeb5aa	-0.43497974
153	0xbe028a52	-0.12748078
154	0x3e231599	0.15926208
155	0x3e46f7da	0.19430485
156	0x3de81bb1	0.11333407
157	0x3dfda31e	0.12384628
158	0x3d22aad7	0.039713707
159	0xbe3f7d20	-0.18700075
160	0x3c87b01c	0.016563468
161	0xbc8de0b9	-0.01731907
162	0xbdf0cc79	-0.1175775
163	0xbe2ac869	-0.16678013
164	0xbd37c5c0	-0.044866323
165	0x3bc4b8cd	0.0060034753
166	0xbc85f5c5	-0.016352544
167	0xbe520c9e	-0.20512626
168	0x3d9c46bd	0.0763068
169	0x3cfa9b51	0.030591639
170	0xbcb2e2e1	-0.0218367
171	0x3d736210	0.05941969
172	0x3cdf2c0b	0.027242681
173	0x3eb76958	0.35822558
174	0xbe4132dc	-0.18867058
175	0x3e906605	0.28202835
176	0x3d2b14e2	0.041767962
177	0x3e2f4706	0.17116937
178	0x3d884e4e	0.066555604
179	0xbdae1f31	-0.08502043
180	0xbd86ec2a	-0.065880135
181	0x3c82a1a7	0.015946222
182	0xbe13c15a	-0.14429227
183	0x3d46ef59	0.048568103
184	0xbda02cab	-0.0782102
185	0x3d3baf10	0.04582125
186	0xbca0a43f	-0.019609569
187	0xbe14af0b	-0.14519899
188	0xbd9c46ef	-0.07630717
189	0x3e8ced73	0.2752491
190	0x3dee3bc2	0.11632492
191	0x3df4ac0a	0.11946876
192	0x3de39ba4	0.111136705
193	0x3d4de4d0	0.05026704
194	0x3e087859	0.13327159
195	0xbdcc0a75	-0.09962932
196	0xbdba349b	-0.09092065
197	0x3d990294	0.07471195
198	0xbdef76e1	-0.11692596
199	0x3dbf2658	0.09333485
200	0xbe0febc3	-0.1405478
201	0xbe065beb	-0.13121001
202	0x3dd18f22	0.102323785
203	0xbe03a8e5	-0.12857397
204	0xbd4098b3	-0.047020625
205	0x3e060a2a	0.13089815
206	0x3e476052	0.19470337
207	0xbe96df32	-0.2946716
208	0x3cb31064	0.021858402
209	0x3b1f5510	0.0024312176
210	0xbe33be78	-0.17553127
211	0xbcae0399	-0.02124195
212	0xbdd3a855	-0.10334841
213	0x3e0a62fc	0.13514322
214	0x3db634a3	0.088967584
215	0x3e0d3679	0.13790311
216	0x3e5f5a4f	0.21811794
217	0xbdc17aa4	-0.0944722
218	0x3d9b6129	0.07586891
219	0x3cd66ffa	0.026176441
220	0xbe31f6b4	-0.17379266
221	0xbe394791	-0.18093707
222	0x3e0b73a3	0.1361833
223	0xbd5c060e	-0.05371671
224	0xbd99f050	-0.07516539
225	0xbd9c8a5a	-0.07643576
226	0xbbbe2b26	-0.0058034835
227	0x3d929fce	0.071593866
228	0xbda04d2a	-0.07827218
229	0xbdbb3ba6	-0.091422364
230	0xbd90d9fd	-0.07072828
231	0x3cfc91af	0.030831186
232	0x3e28c5f2	0.1648176
233	0xbc75f66a	-0.015012363
234	0x3d3ab72c	0.045584843
235	0x3c366c76	0.011134258
236	0x3d388999	0.0450531
237	0xbda12498	-0.07868308
238	0xbdd812dc	-0.10550472
239	0x3e0881dc	0.13330787
240	0x3e13fab8	0.1445111
241	0xbe8602fc	-0.26174152
242	0xbd521d42	-0.051297434
243	0xbe2cc063	-0.16870265
244	0x3e597ce2	0.21239045
245	0xbe1b85ba	-0.15187731
246	0xbde88a34	-0.11354485
247	0x3e9867ad	0.29766598
248	0xbd8782bf	-0.06616735
249	0xbd9b155d	-0.07572434
250	0x3e1c5aff	0.15269087
251	0xbda3543d	-0.079750516
252	0x3de613fd	0.11234281
253	0xbe72b386	-0.23701295
254	0xbe7a2b4c	-0.24430579
255	0xbbd841f4	-0.006599659

model.backbone.layers.0.channel.0.bias f4 [32]
0	0xbe35f102	-0.17767718
1	0xbe64039d	-0.22267003
2	0xbe4ce367	-0.20008622
3	0xbe4d3ae9	-0.20042004
4	0xbe281ee5	-0.16418035
5	0xbe930f1e	-0.2872247
6	0xbe1a483f	-0.15066622
7	0xbd924f4d	-0.07144032
8	0xbdc3a193	-0.09552302
9	0xbe435812	-0.19076565
10	0xbe03497f	-0.12821005
11	0xbe372125	-0.17883737
12	0xbd8a2c3d	-0.06746719
13	0xbe1f1cc1	-0.15538312
14	0xbdc5dd15	-0.09661309
15	0x3d046d1f	0.03233063
16	0xbd2b397e	-0.041802876
17	0xbdee407b	-0.116333924
18	0xbd469848	-0.04848507
19	0xbea6f5fa	-0.3260954
20	0xbeae8694	-0.3408705
21	0xbe9f938d	-0.3116726
22	0xbe5445f3	-0.20729809
23	0xbe74ed18	-0.23918569
24	0xbea68b89	-0.32528332
25	0xbe1fd94b	-0.15610234
26	0xbc01a29a	-0.007912302
27	0xbe6edd38	-0.23326576
28	0xbdd72805	-0.1050568
29	0x3d205fd4	0.03915389
30	0xbe8970cc	-0.2684387
31	0xbd4510cc	-0.048111722

model.backbone.layers.0.channel.2.weight f4 [74, 32]
0	0x3d9cb553	0.07651772
1	0x3e17a149	0.14807619
2	0xbc221712	-0.009893196
3	0xbda4ba11	-0.08043302
4	0xbd6b3667	-0.05742493
5	0xbe96b70d	-0.29436532
6	0x3cf451a0	0.029824078
7	0x3dc1f8f6	0.09471314
8	0xbdcc9540	-0.09989405
9	0xbe3711af	-0.1787784
10	0xbb3db023	-0.0028944097
11	0x3d5301f6	0.051515542
12	0x3e8e6316	0.27809972
13	0x3dbb6e30	0.09151876
14	0xbdde2137	-0.10846179
15	0x3e2c6bfd	0.1683807
16	0xbe1c2e3f	-0.15252016
17	0xbdda8421	-0.10669733
18	0x3d9cd314	0.076574475
19	0xbe0cf42f	-0.13765024
20	0x3a822f9a	0.0009932399
21	0x3e29eecf	0.16595004
22	0x3d86c262	0.06580044
23	0x3c94959f	0.018137751
24	0x3ddda62c	0.108227104
25	0x3db7e7cc	0.089797586
26	0xbd728d91	-0.05921704
27	0xbd3c1e9f	-0.04592764
28	0xbe50cfb6	-0.20391735
29	0x3d0128e3	0.031533133
30	0xbdf4d004	-0.11953738
31	0x3d41294a	0.047158517
32	0x3de0e826	0.10981779
33	0x3e2f3dce	0.1711342
34	0xbd5779df	-0.05260646
35	0x3e408b15	0.18803056
36	0x3e297d8f	0.16551803
37	0xbe3cac65	-0.18425138
38	0x3d086ed6	0.033308826
39	0xbce6fd4b	-0.028196951
40	0x3be5b0e5	0.007009613
41	0xbdd6d694	-0.10490146
42	0xbde401e5	-0.11133174
43	0xbde3a24e	-0.111149415
44	0xbd3558e3	-0.044274222
45	0xbde23699	-0.1104557
46	0xbce686aa	-0.028140385
47	0xbc0c0b64	-0.008547638
48	0x3e0c0790	0.1367476
49	0x3ce1b88e	0.027553823
50	0x3da39655	0.07987658
51	0x3c8e29f4	0.01735399
52	0x3d84a9cb	0.06477698
53	0xbd6cdbf3	-0.057826947
54	0x3e497e1a	0.1967701
55	0xbe0e36d1	-0.13888098
56	0x3de433ca	0.111426905
57	0xbd635be5	-0.05550756
58	0x3df6876a	0.12037547
59	0xbe90301b	-0.28161702
60	0xbe086625	-0.13320215
61	0xbd70ea32	-0.058817096
62	0x3dab6ca4	0.08370331
63	0x3e713af9	0.23557653
64	0x3d4b3ea4	0.049620286
65	0xbe6e5e1c	-0.23278087
66	0x3cd01aac	0.025403343
67	0x3e0eb013	0.13934354
68	0x3cc1e7ed	0.023670161
69	0x3e67eb02	0.22648242
70	0xbe4e2674	-0.20131856
71	0xbf03f3ba	-0.5154377
72	0x3dc8279e	0.097731814
73	0x3e24d909	0.16098417
74	0xbd6646f3	-0.056220006
75	0x3cb771cf	0.022393135
76	0x3c1a87cd	0.0094317915
77	0x3d1076d6	0.03526958
78	0xbf0f5f65	-0.56004936
79	0xbe493900	-0.1965065
80	0xbd3c6362	-0.045993216
81	0xbe87d4b7	-0.26529476
82	0xbd29bf45	-0.041442174
83	0xbe406253	-0.18787508
84	0xbe8eec5e	-0.2791471
85	0xbdb2d101	-0.087312706
86	0x3d04e9cb	0.032449525
87	0x3dcce8fd	0.100053765
88	0x3ddf4280	0.10901356
89	0x3d50d61e	0.050985448
90	0x3d8a19aa	0.06743176
91	0x3d62f3f3	0.05540843
92	0x3cbb8b7c	0.02289366
93	0xbcc9f6fa	-0.0246539
94	0xbdfe5769	-0.12419016
95	0x3e209e8a	0.15685478
96	0x3c0b5988	0.008505233
97	0xbd18a8ec	-0.03727047
98	0xbd47c8fd	-0.04877566
99	0xbc7de27a	-0.015495891
100	0xbbfa1743	-0.0076321675
101	0xbdb5199b	-0.088427745
102	0x3d393722	0.045218594
103	0x3d89264d	0.066967584
104	0x3cd57a3e	0.026059266
105	0x3e0aa60a	0.13539901
106	0x3d2efb66	0.04272022
107	0x3d0f951f	0.035054322
108	0xbb8fbc26	-0.0043864427
109	0xbd115537	-0.035481658
110	0xbb9e929b	-0.004839254
111	0xbca46da2	-0.020071808
112	0xbc10c170	-0.008835182
113	0xbd2cbd04	-0.042172447
114	0xbc5a3961	-0.013319344
115	0xba853ef1	-0.0010165853
116	0x3bc6837b	0.006058154
117	0xbd0feb6a	-0.035136618
118	0xbc741d85	-0.014899616
119	0x3bad5891	0.005290099
120	0x3c6f453d	0.01460391
121	0xbc59f219	-0.0133023495
122	0xbc46ff47	-0.012145824
123	0x3d0f3ae4	0.03496827
124	0xbd6ac274	-0.05731435
125	0xbbd3eba2	-0.0064672986
126	0x3b81c1af	0.0039598565
127	0x3c0d1541	0.008611024
128	0xbdebc092	-0.11511339
129	0xb89e9e26	-7.5634845e-05
130	0xbe213a6b	-0.15744941
131	0x3caa5b89	0.0207956
132	0x3e6004d5	0.21876843
133	0xbe24aade	-0.16080806
134	0x3e3606f3	0.17776088
135	0x3d96b93f	0.07359552
136	0x3c0299a6	0.007971203
137	0xbd87af5d	-0.06625245
138	0xbd8efd91	-0.06981958
139	0x3cf2a583	0.029619938
140	0xbdc3e522	-0.09565188
141	0xbdcf4a61	-0.101216085
142	0xbcc4345e	-0.023950752
143	0xbddadffe	-0.10687254
144	0x3dfbf375	0.12302295
145	0x3ddf776c	0.1091145
146	0xbbf0f055	-0.0073528686
147	0xbd2b55f8	-0.041830033
148	0xbe018b57	-0.1265081
149	0xbdd896c3	-0.105756305
150	0x3db3a207	0.08771139
151	0xbb974997	-0.004616927
152	0xbcb33b15	-0.021878758
153	0x3d6ccfc4	0.05781533
154	0xbd98e141	-0.07464839
155	0xbe826f75	-0.2547566
156	0xbe2d918e	-0.16950056
157	0x3c2b4571	0.010453568
158	0xbd3266a1	-0.043554906
159	0x3d90465e	0.070446715
160	0x3e7e8988	0.24857152
161	0xbd13847c	-0.03601502
162	0xbde243b5	-0.1104807
163	0xbd9296b3	-0.0715765
164	0xbe79669c	-0.24355549
165	0x3e413f74	0.18871862
166	0xbe616905	-0.22012718
167	0xbe5f37a0	-0.21798563
168	0x3bb974fa	0.0056596966
169	0xbd807b1d	-0.06273482
170	0x3bf9a9f3	0.0076191365
171	0x3d9d11eb	0.07669433
172	0x3e526596	0.20546564
173	0x3cf606e8	0.03003259
174	0x3d87eaa8	0.06636554
175	0xbc1d9ff5	-0.009620656
176	0xbe56b06e	-0.2096574
177	0xbbaacf12	-0.005212673
178	0x3d2c62b5	0.04208632
179	0xbd747fa6	-0.059692048
180	0xbdf23b5a	-0.11827727
181	0xbde4bf98	-0.11169356
182	0xbddc4b64	-0.10756567
183	0x3c9067a6	0.017627548
184	0x3d8cb96e	0.068713054
185	0xbca838a9	-0.02053483
186	0x3d3b25b2	0.045690246
187	0x3e4851e2	0.19562486
188	0xbde801fa	-0.11328502
189	0x3dd31a4e	0.103077516
190	0x3d5281ab	0.051393192
191	0x3d0779d7	0.03307518
192	0x3d6c6507	0.057713535
193	0x3b859c5f	0.004077479
194	0x3df0d631	0.11759604
195	0x3dfdd7e0	0.123946905
196	0x3c56bf5d	0.013107148
197	0xbe436232	-0.19080427
198	0xbd96df8c	-0.07366857
199	0xbdefe338	-0.117132604
200	0x3e0fd810	0.14047265
201	0xbcac48b9	-0.02103077
202	0xbd3b15db	-0.04567514
203	0xbda806ba	-0.08204408
204	0xbd8a6364	-0.067572385
205	0x3d6ec556	0.058293663
206	0x3cb948b8	0.022617683
207	0xbcbff310	-0.02343133
208	0xbcc19e21	-0.023634972
209	0x3c9a07db	0.018802574
210	0xbdb1edd8	-0.08687943
211	0xbddfd280	-0.109288216
212	0x3cbd3228	0.023095205
213	0xbd687df6	-0.05676075
214	0x3deec7cf	0.11659204
215	0xbd8bff41	-0.06835795
216	0x3dafbe05	0.08581165
217	0x3d2cde28	0.042204052
218	0xbd1a0a67	-0.037607577
219	0xbd810a41	-0.06300784
220	0x3bd58631	0.006516241
221	0xbcf96b04	-0.030446537
222	0x3dbd7a07	0.092517905
223	0x3e3ebdec	0.18627137
224	0x3da2de1e	0.07952522
225	0xbcae3b64	-0.021268554
226	0x3e35c87f	0.17752264
227	0x3df37581	0.118876465
228	0xbd0ecf1d	-0.034865487
229	0xbe059a05	-0.13047035
230	0xbcde8c1f	-0.027166424
231	0xbe076a56	-0.13224158
232	0x3e19e2d3	0.15027933
233	0x3e1f5973	0.15561466
234	0xbd6ad231	-0.05732936
235	0xbdae69f4	-0.08516303
236	0xbe180b54	-0.14848071
237	0x3daaefe4	0.08346537
238	0x3d556117	0.052094545
239	0x3d858e1e	0.06521247
240	0xbc43e3a1	-0.011956126
241	0xbc3e5a42	-0.011618199
242	0xbdcdc21e	-0.100467905
243	0xbdfb2141	-0.12262202
244	0x3d6f6423	0.058445107
245	0xbde104f6	-0.10987274
246	0x3e13ffd0	0.14453053
247	0xbe1b0fc1	-0.15142728
248	0x3d50fccb	0.051022332
249	0xbd7bb986	-0.061456226
250	0xbc5b1b9d	-0.013373283
251	0xbdeb1560	-0.11478686
252	0x3cf0bd33	0.029387092
253	0xbd840bbf	-0.06447553
254	0x3d8c901a	0.06863423
255	0x3e83ff3d	0.2578067

model.backbone.layers.0.channel.2.bias f4 [74]
0	0x3d820a06	0.06349568
1	0xbd04b4d6	-0.03239902
2	0x3bb61a51	0.0055573364
3	0x3bbfbd1d	0.0058514015
4	0x3d2cb0a5	0.04216065
5	0x3c457a00	0.012053013
6	0xbd311dde	-0.043241374
7	0xbd1522bc	-0.03641008
8	0xbdd4b659	-0.103863426
9	0x3d351730	0.044211566
10	0x3d306338	0.043063372
11	0x3dffa906	0.124834105
12	0x3d1dda83	0.038538467
13	0x3d68f436	0.056873523
14	0x3d03d245	0.03218295
15	0x3d5c79ec	0.05382721
16	0x3e5a6e10	0.21331048
17	0xbd913019	-0.07089252
18	0x3c0d819b	0.008636857
19	0xbe02a6f9	-0.12759008
20	0x3ac5f773	0.0015103653
21	0xbd3d9312	-0.046282835
22	0xbdddde42	-0.10833408
23	0xbbf208e3	-0.0073863133
24	0xbd9d5397	-0.07681959
25	0x3d3eab57	0.04655012
26	0xbccdf7f3	-0.025142645
27	0x3dabeaee	0.08394419
28	0xbc8358f2	-0.016033623
29	0xbc7dc4df	-0.015488832
30	0xbc548022	-0.012970002
31	0xbcb8c512	-0.022554908
32	0x3da97aec	0.082753986
33	0xbcf52e02	-0.029929165
34	0x3dc72d3c	0.09725425
35	0xbd055706	-0.032553695
36	0xbd931290	-0.07181275
37	0xbc6bef83	-0.014400366
38	0xbdc818e7	-0.09770375
39	0xbd3f78f0	-0.046746194
40	0xbdf90dc3	-0.12160828
41	0x3c5e3452	0.013562279
42	0xbceb64ae	-0.028734531
43	0x3d93d548	0.072184145
44	0x3d994512	0.07483877
45	0x3c22d65b	0.009938802
46	0xbe1263e2	-0.14295915
47	0xbddb62e5	-0.10712222
48	0xbdb4fa19	-0.08836765
49	0xbe0404fa	-0.12892523
50	0xbe2e34e0	-0.17012358
51	0xbc6e5391	-0.014546291
52	0xbdf645cb	-0.12025031
53	0x3c37792e	0.011198325
54	0xbe0ad00f	-0.1355593
55	0xbd82e66e	-0.06391607
56	0xbd2d4ecb	-0.04231147
57	0xbe59636f	-0.21229337
58	0x3d384ef0	0.044997156
59	0x3d85bcbb	0.06530138
60	0x3cbcfa11	0.02306846
61	0xbc01388b	-0.007887016
62	0x3dce8c3b	0.100853406
63	0x3d81e93c	0.06343314
64	0xbdb0484d	-0.0860754
65	0x3de63a5c	0.112416
66	0x3d40fab8	0.047114104
67	0x3da242f0	0.079229236
68	0xbd47ccd6	-0.04877933
69	0xbcad26a1	-0.021136584
70	0xbe3edbfb	-0.18638603
71	0x3dd353cf	0.103187196
72	0xbd47fd11	-0.048825327
73	0xbd08e254	-0.03341897

model.backbone.layers.1.temporal.0.weight f4 [32, 64]
0	0x3db3807a	0.08764739
1	0x3e07ab22	0.13248876
2	0x3d488a12	0.0489598
3	0xbcc5a81c	-0.024128012
4	0xbe1ab17f	-0.15106772
5	0x3cc4967e	0.023997542
6	0xbd6480a1	-0.055786733
7	0xbdd28d74	-0.10280886
8	0xbcab2d86	-0.02089573
9	0x3db5aeb9	0.08871216
10	0x3e0b3da6	0.13597736
11	0x3d4193ec	0.04726021
12	0xbd3252df	-0.043536063
13	0xbd357634	-0.04430218
14	0xbd54869d	-0.05188619
15	0x3db2f949	0.087389536
16	0x3e5065f3	0.2035139
17	0x3d9c5d7e	0.0763502
18	0x3cd2a52f	0.025713531
19	0xbde8513d	-0.1134362
20	0x3d890c0d	0.06691752
21	0x3e7ad51c	0.24495357
22	0x3dd71aae	0.105031356
23	0x3e184031	0.14868237
24	0xbe4b07a1	-0.19827129
25	0xbe1df399	-0.15424956
26	0xbdaf7f9d	-0.08569262
27	0xbcf1815b	-0.029480627
28	0x3d5fcad3	0.054636788
29	0xbe01b453	-0.12666444
30	0xbe2bf59a	-0.16792908
31	0xbd7009d9	-0.05860314
32	0xbe5a6432	-0.21327284
33	0x3b7d3667	0.0038637163
34	0x3e11b518	0.14229238
35	0x3e46c247	0.19410048
36	0x3e409ac6	0.18809041
37	0x3d901623	0.07035472
38	0x3de1da33	0.11027946
39	0xbd7d2bad	-0.06180923
40	0xbd93eca7	-0.07222872
41	0xbcb12f47	-0.021628989
42	0x3e1d91ea	0.15387693
43	0x3d88b256	0.0667464
44	0x3e25d818	0.16195714
45	0xbdf99193	-0.12185969
46	0xbe0c3e63	-0.13695674
47	0xbe36136e	-0.1778085
48	0xbd7e4924	-0.06208147
49	0xbdadc079	-0.08483977
50	0x3c883c03	0.016630178
51	0x3e4d05c9	0.20021738
52	0xbcb3619a	-0.021897126
53	0xbd92be05	-0.071651496
54	0xbea37669	-0.31926277
55	0xbe947a97	-0.2899978
56	0xbe7bffcd	-0.24609299
57	0x3d93eb49	0.072226115
58	0x3e8135ad	0.25236264
59	0x3e4b0804	0.19827276
60	0x3d31c93f	0.043404814
61	0x3dee1ad6	0.11626212
62	0xbca6961a	-0.020335246
63	0xbea62cd9	-0.3245609
64	0xbd75ccd6	-0.0600098
65	0x3e0f2a7e	0.13981053
66	0xbd300d3a	-0.042981364
67	0xbd49dcf6	-0.04928299
68	0xbddaf545	-0.10691313
69	0x3d8072c4	0.0627189
70	0xbd884e21	-0.06655527
71	0x3c212770	0.009836063
72	0x3e3e1a61	0.1856475
73	0xbd44d10b	-0.04805092
74	0xbd7119ed	-0.058862615
75	0xbde0d534	-0.10978165
76	0x3c92d934	0.017925836
77	0x3e9ffc0c	0.31246984
78	0x3e80f178	0.25184226
79	0x3e65e701	0.22451402
80	0x3e0b52bc	0.1360578
81	0xbbd583e4	-0.0065159667
82	0xbd97febd	-0.07421634
83	0x3d25e8e1	0.040505294
84	0xbe65fa5b	-0.22458784
85	0xbe7dde00	-0.24791718
86	0xbd731aa3	-0.059351575
87	0xbcaaa5d3	-0.020831024
88	0xbe4d4ba7	-0.2004839
89	0xbd00eb71	-0.031474534
90	0x3acfa93e	0.0015843285
91	0x3e06ca9f	0.13163231
92	0x3e3f716a	0.18695608
93	0x3d6437f5	0.055717427
94	0x3d0a606e	0.03378337
95	0x3c8a9dea	0.016921002
96	0x3d2166f3	0.03940482
97	0xbde78262	-0.113041654
98	0xbe2941ab	-0.16528957
99	0xbe55bee5	-0.20873602
100	0xbc28175f	-0.010259478
101	0xbdeab78a	-0.114607885
102	0x3da0ff6f	0.0786122
103	0x3e608fe3	0.21929888
104	0x3e220f41	0.15826131
105	0xbd1c8a5b	-0.038217884
106	0xbd2972d1	-0.041369263
107	0xbe1c315d	-0.15253206
108	0xbdbef485	-0.09323982
109	0xbe07c9b4	-0.13260537
110	0x3d56a321	0.052401666
111	0x3d3d11fa	0.046159722
112	0xbe05b711	-0.13058116
113	0xbe50fbac	-0.20408505
114	0xbdaad85a	-0.08342047
115	0xbdbb2c0f	-0.09139263
116	0xbe19e2de	-0.15027949
117	0xbe00e9be	-0.12589166
118	0xbe03fa26	-0.12888393
119	0x3d3222e2	0.043490298
120	0x3c20f367	0.009823657
121	0x3d2ea902	0.042641647
122	0x3da67b95	0.0812904
123	0xbd53700a	-0.05162052
124	0xbc8a63c9	-0.016893284
125	0x3e126127	0.14294873
126	0x3dcb22ff	0.09918784
127	0x3eb7ddea	0.35911494
128	0xbbe29a4f	-0.0069153677
129	0xbd8443b1	-0.064582236
130	0x3ca400ac	0.020019852
131	0x3dcf273a	0.10114904
132	0x3d715896	0.058922373
133	0xbc88067f	-0.01660466
134	0xbe113c4d	-0.14183159
135	0x3ccff470	0.025385112
136	0x3d2b9ca0	0.041897416
137	0xbcd1dfc3	-0.025619393
138	0xbcdc1fd1	-0.02687064
139	0xbe2e4e1f	-0.17021988
140	0xbe404e1d	-0.18779798
141	0xbe065528	-0.13118422
142	0xbda6159e	-0.08109592
143	0x3b6c343c	0.0036041876
144	0x3cbe1e2f	0.023207752
145	0x3d200c8b	0.039074462
146	0xbddc0b3d	-0.10744331
147	0x3e2b76df	0.16744564
148	0x3d22b6c3	0.039725076
149	0xbc92cc35	-0.01791964
150	0xbd8154b6	-0.063149855
151	0x3dce3972	0.100695506
152	0xbe088c89	-0.1333486
153	0x3b31abc8	0.0027110446
154	0x3d0768cb	0.033058923
155	0x3db75944	0.08952573
156	0x3d002f38	0.03129503
157	0x3bfde5a5	0.007748323
158	0xbdd85b5f	-0.10564303
159	0xbd158c6e	-0.036510877
160	0xbdbb43aa	-0.09143765
161	0x3bf5bab3	0.007499063
162	0xbded8274	-0.115971476
163	0x3d8265e5	0.06367091
164	0x3c050eb5	0.008121182
165	0x3dcae541	0.09907008
166	0x3dc91c6e	0.09819876
167	0x3d4459ed	0.047937322
168	0x3dcabe80	0.09899616
169	0x3c3f8acf	0.011690809
170	0x3c9305be	0.017947074
171	0x3c570afc	0.0131251775
172	0x3d63cf4b	0.05561761
173	0xbde1827e	-0.110112175
174	0xbd4b444f	-0.04962569
175	0xbe901590	-0.2814145
176	0xbddb5234	-0.107090384
177	0xbdd0c002	-0.101928726
178	0xbdb426dc	-0.08796474
179	0xbe097bc9	-0.13426127
180	0xbc066333	-0.008202362
181	0xbbaf899b	-0.00535698
182	0xbe01d805	-0.12680061
183	0x3d63ead9	0.05564389
184	0xbdb0d8bb	-0.08635088
185	0x3cba02f3	0.022706484
186	0xbddb313c	-0.1070275
187	0xbd275a4f	-0.04085761
188	0xbe7c671c	-0.24648708
189	0x3d1c3f8f	0.03814655
190	0xbe568222	-0.20948079
191	0x3e422a8b	0.18961541
192	0xbdf78fb0	-0.12087953
193	0xbdd69220	-0.1047709
194	0xbdb081c2	-0.08618499
195	0xbdadeda9	-0.08492596
196	0xbdcbfcec	-0.099603504
197	0xbdcd5ad5	-0.100270905
198	0xbd2f3d29	-0.042782936
199	0x3dacd51f	0.08439087
200	0x3e0d4dd9	0.13799228
201	0x3da5e1f9	0.080997415
202	0xbd923b95	-0.071402706
203	0x3dcb8b6f	0.09938704
204	0xbda34a67	-0.079731755
205	0xbd0b1e08	-0.033964187
206	0xbd99634d	-0.07489643
207	0x3d366237	0.04452726
208	0x3e2b9b08	0.16758358
209	0x3e472c7c	0.19450563
210	0x3dc1c695	0.09461705
211	0x3dd8df40	0.105894566
212	0x3d99e094	0.07513538
213	0x3de00f3e	0.10940407
214	0xbde1f900	-0.11033821
215	0xbe16ec97	-0.1473869
216	0xbd4f087e	-0.05054521
217	0xbe8ffaba	-0.28120977
218	0xbe9aa1ec	-0.30201662
219	0xbe02a843	-0.12759499
220	0xbccb8710	-0.024844676
221	0x3d35ba8c	0.044367358
222	0x3ddb6509	0.1071263
223	0x3e26e977	0.16299997
224	0x3e420ddd	0.18950601
225	0xbd9c0e4f	-0.07619917
226	0x3c87c02c	0.016571127
227	0xbde81beb	-0.1133345
228	0xbd27d06d	-0.040970255
229	0xbea041b4	-0.31300128
230	0xbe8723e3	-0.26394567
231	0xbea507d0	-0.32232523
232	0xbe3ddb02	-0.18540576
233	0xbe06b947	-0.13156615
234	0xbcb96eb2	-0.022635791
235	0x3dc6bc26	0.09703855
236	0x3de23d96	0.11046903
237	0x3e5799c2	0.21054748
238	0x3e4d193c	0.20029157
239	0x3e0de44d	0.13856621
240	0x3e31d573	0.1736658
241	0x3dbc0318	0.091802776
242	0x3dab64ca	0.08368833
243	0x3c99315c	0.018700294
244	0xbe1162ab	-0.14197795
245	0xbda102d4	-0.078618675
246	0xbce031f3	-0.027367568
247	0xbdf5a2a1	-0.119939096
248	0xbd8ce76c	-0.06880078
249	0xbd8f8901	-0.07008553
250	0xbdc0298a	-0.09382923
251	0x3df14104	0.11779979
252	0x3da13a80	0.07872486
253	0x3dc5d54d	0.096598245
254	0x3d57b8ca	0.052666463
255	0x3e15067d	0.14553256

model.backbone.layers.1.temporal.0.bias f4 [32]
0	0xbf0e848c	-0.55671
1	0x3c9d3da1	0.019194426
2	0xbe2bd53c	-0.16780561
3	0xbe5dafff	-0.21649168
4	0xbf2e4f58	-0.6808982
5	0xbe1e89e9	-0.15482296
6	0xbe0d435d	-0.13795228
7	0xbf0efb35	-0.5585206
8	0xbee25108	-0.44202447
9	0xbe60a0f6	-0.21936402
10	0xbf24b924	-0.64345
11	0xbf053b98	-0.5204406
12	0xbf04e1aa	-0.51906836
13	0xbdc97045	-0.09835867
14	0xbe9d2d03	-0.30698404
15	0xbedc5c21	-0.4303904
16	0xbdc9ff2f	-0.098631255
17	0xbe55b94d	-0.20871468
18	0x3d29282a	0.04129807
19	0xbf1997a2	-0.59997
20	0xbe9dee9b	-0.30846104
21	0xbf111b96	-0.5668272
22	0xbdf1b6da	-0.11802454
23	0xbe3447e7	-0.17605554
24	0xbee52cdb	-0.44760785
25	0xbd5b3e49	-0.053526197
26	0xbe93c639	-0.2886217
27	0xbef109f8	-0.47077918
28	0xbc212969	-0.009836533
29	0xbea7dd9a	-0.32786256
30	0xbe6bee98	-0.23040235
31	0xbe8d6ac9	-0.27620533
