experiments/AdversarialDomainAdaptation/saved_models/tsmixer_da_finetuned_4.pt (torch, 731002 bytes, 30 tensors)

model.backbone.static_proj.weight f4 [64, 10]
0.117294304 -0.031235626 0.040411763 -0.33163863 0.0676916 0.0063138963 -0.3606633 0.22619094
-0.14000146 -0.088147 -0.0045413855 0.022721104 0.13123561 0.02723467 0.14899252 0.13574369
-0.005875278 0.096582696 0.08467957 -0.123056516 0.008727096 0.025133807 0.13040893 -0.44641393
-0.31366047 -0.1905107 -0.052320406 0.07236311 0.1597504 0.066828534 0.032584347 0.06742863
0.070914045 0.069620796 -0.16687462 0.29853216 0.027543336 -0.06559584 0.08485598 -0.042969905
0.04579293 0.045338295 0.042494804 -0.16518144 -0.5810474 0.22148372 -0.009586447 -0.032019842
-0.085572585 0.19228102 -0.07883612 0.07895112 -0.4529966 -0.03830805 0.1730731 -0.27754557
0.09304261 0.17530712 -0.18477003 -0.0542815 0.012149088 0.021397382 -0.086862214 0.06046812
-0.15891947 0.07207789 -0.0001862702 0.028219888 -0.09023258 0.06834629 0.003993494 0.00978837
-0.22099037 -0.03498195 -0.0921641 -0.20047566 0.09072125 -0.12252176 -0.048980337 0.026374612
0.030506175 0.016823359 -0.20511808 -0.015231945 0.15471983 -0.13195342 -0.06903958 0.0074224425
-0.07275064 -0.130442 0.08669181 -0.03982065 -0.35548642 -0.08017619 0.25191498 -0.37925047
0.011624336 -0.099479645 -0.14314263 -0.0774283 0.031492747 0.044282835 -0.015441984 0.045502722
0.10198529 0.023793258 -0.051540047 0.109070845 -0.037943378 0.1480433 -0.1382537 0.0174685
0.60425663 -0.02842215 0.067467466 0.2251226 0.36628962 -0.26351678 0.29030585 -0.051464558
0.22816895 0.08030272 0.34623152 0.28194815 0.05671996 0.19389765 0.40313464 -0.044452835
0.318125 0.11839361 -0.032133885 0.15568924 -0.16037071 -0.32509178 -0.21701996 0.023256572
-0.044607796 -0.26847205 -0.20884545 0.0573039 0.08253115 -0.014597225 -0.045241404 -0.004254709
0.012382361 0.055656034 -0.17099443 0.13493659 -0.029123548 -0.008805133 0.019319467 -0.013429342
0.025147673 0.086124144 -0.3178406 0.34241024 0.15828708 0.064569816 -0.11959971 0.03105478
-0.124230765 -0.02594505 0.15466031 -0.07714268 -0.025226362 0.0136436485 0.03619542 0.040918183
0.13871935 -0.043268606 0.1412382 -0.1419457 -0.53496844 -0.13770159 -0.38646725 -0.07462382
-0.03868441 0.002065104 -0.14402725 0.020794738 -0.032540064 -0.009708273 0.0827801 0.051382948
0.31821722 -0.14412585 0.020267703 -0.018519199 0.104235455 -0.148072 -0.04411558 -0.03776354
-0.041314468 -0.06956217 -0.38391054 0.107511185 0.09650655 -0.033597086 -0.07859943 0.06972106
-0.221616 0.010252362 0.2697559 -0.013292038 -0.06809031 0.0048275935 0.10723691 -0.043739207
-0.081368476 0.21509828 0.0408888 -0.007436849 0.12250472 0.0013958531 0.07460688 -0.010977738
0.17003106 -0.022133324 0.11577905 -0.1700076 -0.2695821 -0.1387762 0.076709434 -0.16459452
-0.2052145 0.043352462 0.3494086 -0.15006837 -0.10650327 0.11178798 -0.014064063 -0.049945682
-0.41303736 -0.07252382 -0.08062894 -0.20316057 -0.07651778 -0.13551877 -0.37949815 0.15293649
0.03812813 -0.03545658 0.14582224 0.032587808 -0.13609864 -0.08257759 -0.09339393 0.02686714
0.15889564 -0.20986287 0.1366575 0.08590408 0.17091277 -0.08654701 0.3524813 -0.0010835467
00000000: ff37 f03d dbe1 ffbc ce86 253d 8acc a9be
00000010: e5a1 8a3d cde4 ce3b dca8 b8be 999e 673e
00000020: 8b5c 0fbe 6a86 b4bd e7cf 94bb 9c21 ba3c
00000030: a162 063e 3e1b df3c 7f91 183e 6500 0b3e
00000040: 6785 c0bb 26cd c53d 7b6c ad3d 0e05 fcbd
00000050: 18fc 0e3c 6ae5 cd3c eb89 053e 5e90 e4be
00000060: 1b98 a0be 3d15 43be ec4d 56bd 1c33 943d
00000070: 9c95 233e 66dd 883d 2a77 053d 0618 8a3d
00000080: 623b 913d 5995 8e3d 2ee1 2abe 35d9 983e
00000090: 90a2 e13c 1d57 86bd f9c8 ad3d 3601 30bd
000000a0: 5e91 3b3d a6b4 393d 080f 2e3d 5325 29be
000000b0: 86bf 14bf a1cc 623e 7910 1dbc 3d27 03bd
000000c0: ae40 afbd 51e5 443e d574 a1bd 20b1 a13d
000000d0: 2cef e7be e7e8 1cbd 133a 313e 741a 8ebe
000000e0: 208d be3d b683 333e 5b34 3dbe 4756 5ebd
000000f0: f80c 473c 9049 af3c d1e4 b1bd 6bad 773d
00000100: c9bb 22be 939d 933d 8751 43b9 652d e73c
00000110: dccb b8bd 24f9 8b3d dbdb 823b 665f 203c
00000120: 4d4b 62be 3c49 0fbd 88c0 bcbd 7e49 4dbe
00000130: 10cc b93d b0ec fabd 9b9f 48bd 920f d83c
00000140: 16e8 f93c 24d1 893c 790a 52be 688f 79bc
00000150: e06e 1e3e cc1e 07be a064 8dbd f637 f33b
00000160: 4afe 94bd 9692 05be 7a8b b13d fa1a 23bd
00000170: 5102 b6be 6a33 a4bd 00fb 803e 1e2d c2be
00000180: 0074 3e3c fcbb cbbd fb93 12be bb92 9ebd
00000190: 8afe 003d eb61 353d 6000 7dbc 1061 3a3d
000001a0: aadd d03d 14ea c23c a81b 53bd 8960 df3d
000001b0: 846a 1bbd aa98 173e 6192 0dbe 1a1a 8f3c
000001c0: 90b0 1a3f 92d5 e8bc 622c 8a3d 8a86 663e
000001d0: 508a bb3e aceb 86be f8a2 943e 80cc 52bd
000001e0: 1fa5 693e c175 a43d 4245 b13e 825b 903e
000001f0: 3053 683d 1b8d 463e aa67 ce3e 2d14 36bd
00000200: 48e1 a23e 5978 f23d d29e 03bd 006d 1f3e
00000210: 3838 24be 6e72 a6be 7b3a 5ebe 9184 be3c
00000220: aab6 36bd 2b75 89be 95db 55be 7fb7 6a3d
00000230: 1706 a93d 3329 6fbc 0d4f 39bd 166b 8bbb
00000240: 63df 4a3c 95f7 633d 2a19 2fbe d12c 0a3e
00000250: 8294 eebc 6843 10bc dc43 9e3c be06 5cbc
00000260: 7e02 ce3c db61 b03d 01bc a2be 6550 af3e
00000270: 0216 223e 2e3d 843d b1f0 f4bd 9866 fe3c
00000280: b36c febd b78a d4bc 465f 1e3e fbfc 9dbd
00000290: 84a7 cebc 9c89 5f3c a641 143d d399 273d
000002a0: 720c 0e3e 6c3a 31bd bfa0 103e 375a 11be
000002b0: b1f3 08bf a501 0dbe 09df c5be 60d4 98bd
000002c0: 8b73 1ebd b256 073b e17b 13be ba59 aa3c
000002d0: bb48 05bd 730f 1fbc 9d88 a93d ed76 523d
000002e0: 5eed a23e ba95 13be 7408 a63c 93b5 97bc
000002f0: 6679 d53d 30a0 17be 8ab2 34bd f1ad 1abd
00000300: 5c39 29bd 9c76 8ebd ec8f c4be d32e dc3d
00000310: 3aa5 c53d 199d 09bd bdf8 a0bd eac9 8e3d
00000320: 4eef 62be 86f9 273c 721d 8a3e d9c6 59bc
00000330: ef72 8bbd ca30 9e3b 069f db3d e227 33bd
00000340: 84a4 a6bd b942 5c3e 047b 273d d0b0 f3bb
00000350: c1e3 fa3d 0ff5 b63a 7ecb 983d f8db 33bc
00000360: 9f1c 2e3e f250 b5bc 911d ed3d 7916 2ebe
00000370: aa06 8abe 591b 0ebe d619 9d3d 778b 28be
00000380: c023 52be 5a92 313d afe5 b23e 86ab 19be
00000390: 631e dabd 19f1 e43d f56c 66bc d893 4cbd
000003a0: a279 d3be 5e87 94bd c920 a5bd 5309 50be
000003b0: 5bb5 9cbd 6fc5 0abe 954d c2be 629b 1c3e
000003c0: 3e2c 1c3d eb3a 11bd 6d52 153e cb7a 053d
000003d0: 715d 0bbe 711e a9bd 5145 bfbd 7a18 dc3c
000003e0: 8ab5 223e 4be6 56be f2ef 0b3e 7aee af3d
000003f0: c203 2f3e 8f3f b1bd 6e78 b43e cb05 8eba

model.backbone.static_proj.bias f4 [64]
0.20109977 -0.039727155 -0.13872983 -0.013311919 0.26768592 0.0561697 -0.057321884 0.050079033
0.0683755 -0.06917184 -0.11710535 -0.0604314 0.09232791 0.02064514 0.11455627 -0.09758875
-0.098811485 -0.058447704 0.022641199 0.054194443 -0.07032797 -0.12583631 -0.042799123 0.08368624
0.4549805 0.07483477 -0.103123344 -0.032790616 -0.24417831 0.06835863 0.014387578 0.11087888
-0.08923198 -0.0041904845 0.019210728 0.06826316 -0.11114607 -0.005481536 0.07294941 0.02691282
-0.10628697 -0.041779883 -0.304149 0.28665373 0.02249028 -0.037218787 0.04693156 -0.014753013
-0.20155193 -0.16244057 0.12257696 -0.062176585 -0.07077955 -0.19381617 0.35210702 -0.0075237975
0.059062447 -0.15371431 -0.053590264 -0.10332308 0.040619377 0.00042966494 0.23768805 0.2348074
00000000: 19ed 4d3e f1b8 22bd 310f 0ebe 3c1a 5abc
00000010: 210e 893e 3312 663d 5aca 6abd ac1f 4d3d
00000020: 7408 8c3d f7a9 8dbd eed4 efbd ea86 77bd
00000030: 6a16 bd3d ff1f a93c 7a9c ea3d 9cdc c7bd
00000040: ad5d cabd dc66 6fbd 097a b93c fefa 5d3d
00000050: 1c08 90bd 3cdb 00be 224e 2fbd b163 ab3d
00000060: 34f3 e83e f942 993d 5532 d3bd 744f 06bd
00000070: e109 7abe 9cff 8b3d e0b9 6b3c 7714 e33d
00000080: 42bf b6bd 5550 89bb d15f 9d3c 8ecd 8b3d
00000090: 8da0 e3bd 759e b3bb 8066 953d 4678 dc3c
000000a0: fcac d9bd 6221 2bbd 6bb9 9bbe 47c4 923e
000000b0: 893d b83c ba72 18bd 4f3b 403d 9fb6 71bc
000000c0: a163 4ebe d256 26be a109 fb3d e0ac 7ebd
000000d0: def4 90bd bf77 46be 5f47 b43e 308a f6bb
000000e0: 77eb 713d 4967 1dbe 7781 5bbd 0d9b d3bd
000000f0: 8160 263d a744 e139 7f64 733e 5a71 703e

model.backbone.layers.0.temporal.0.weight f4 [32, 64]
0.017121082 -0.037292685 0.10100184 0.09710424 -0.045923274 -0.051061373 0.17159757 -0.088724114
0.14275485 0.047644436 0.07311638 0.11727702 -0.02457738 0.10251625 -0.068549775 0.0018307008
-0.1474783 -0.020940302 -0.04467747 -0.19195667 -0.14464661 0.011580908 0.044029336 -0.004116823
0.017558161 -0.11824162 0.06600907 -0.062438488 -0.008454509 0.10285663 0.07156411 -0.05968319
0.11345983 -0.09806333 0.029370613 0.040812816 -0.12045479 -0.05527708 -0.10565725 -0.16612983
-0.0827046 -0.017860543 -0.07464106 0.13725527 0.028432945 -0.043674134 0.105988614 -0.0061338283
0.06667403 -0.021586379 0.095506035 0.043116383 -0.1360397 0.00869615 0.056488127 -0.10838335
-0.05284697 -0.13065019 0.0535077 0.055160306 0.06161156 0.20883022 0.29644632 0.47245264
-0.24768993 -0.16864847 -0.27113983 0.02772494 -0.08908585 -0.119148664 -0.11582762 -0.031658553
-0.07662434 0.08063776 0.103960805 0.026641337 0.1729494 0.14121622 0.06376446 0.11393025
0.03828613 0.09886206 0.14218314 0.028895473 0.070079654 -0.018516548 -0.04922988 0.021680767
0.0029415914 -0.06808437 0.03344463 0.062267926 -0.09827511 -0.009983869 -0.0774765 -0.27045584
-0.03029385 -0.1899261 -0.30536693 -0.28340295 -0.1834319 -0.060145006 -0.0018355603 0.029162114
-0.0775633 0.09051764 0.012466332 -0.018200982 0.090048164 0.11264922 0.15583864 0.1572836
0.112133704 0.09890913 -0.0031551407 0.04044024 -0.106148496 0.02289599 -0.111454256 -0.15132727
0.078002706 0.025421876 0.0181455 -0.0003993511 0.11675839 0.03314041 0.19432494 -0.05754087
0.14863606 0.020318052 0.048536405 0.010831166 0.045676794 0.09731435 0.0467398 0.06143466
0.0900727 0.008785558 0.15829931 -0.07482025 0.034718834 -0.018397162 0.013363511 0.10184943
0.06882503 0.0646299 0.030913658 0.15770261 -0.043085523 0.0022408895 -0.0644651 -0.09659572
-0.14807162 -0.07881262 0.068343684 -0.014341567 -0.0050868564 -0.1330072 -0.011614724 -0.23020846
-0.09572623 -0.18530746 0.15542671 -0.09362059 -0.0517837 0.039357167 -0.0026245564 0.006296601
-0.049867116 -0.039847706 -0.048018653 -0.00010581676 -0.045195386 -0.13779107 0.09277608 -0.062273588
0.13569024 -0.033098646 0.07344264 -0.04898277 0.056951903 0.050890487 0.075215295 0.026755301
0.13321047 0.07739389 0.0799575 0.15287554 0.13443953 0.023395997 0.03974831 -0.07050966
0.079866715 -0.047631804 0.10532733 0.1352722 0.20229316 0.09955879 0.027722294 -0.21034184
-0.19448139 -0.14123741 0.0026661404 0.47187975 0.34229663 0.04221629 -0.29737458 -0.70241505
-0.5104425 -0.23815417 0.008266628 0.011803115 0.15021598 0.14613466 0.19984299 0.25911993
0.19843818 0.13959308 0.11704911 -0.06532288 0.06658867 -0.23012589 -0.0083234655 0.027331596
0.10644538 0.091914356 0.012290938 -0.32972738 -0.44667783 -0.24906485 -0.06647758 0.04273158
0.2794047 0.08766421 -0.2906375 -0.015938863 0.0044813827 -0.20854898 -0.11588399 -0.03580861
0.042508736 0.1423646 0.18737364 0.07693338 -0.02798133 0.08585209 0.030573983 0.12187666
0.15669872 -0.13896117 -0.15401928 -0.03150362 0.08805519 -0.010526068 0.10109185 0.21605845
00000000: 8341 8c3c 37c0 18bd 0dda ce3d 96de c63d
00000010: 0b1a 3cbd bb25 51bd 46b7 2f3e fdb4 b5bd
00000020: 542e 123e d026 433d 0abe 953d ef2e f03d
00000030: 8056 c9bc 0af4 d13d d363 8cbd 20f4 ef3a
00000040: 8d04 17be ff8a abbc b9ff 36bd 4a90 44be
00000050: 3e1e 14be d9bd 3d3c 1b58 343d 6ae6 86bb
00000060: 22d6 8f3c aa28 f2bd c32f 873d 80bf 7fbd
00000070: c884 0abc 7fa6 d23d 3490 923d 5c76 74bd
00000080: a15d e83d 6dd5 c8bd a49a f03c 572b 273d
00000090: 00b1 f6bd 386a 62bd d462 d8bd f01d 2abe
000000a0: 0861 a9bd 4650 92bc 69dd 98bd a58c 0c3e
000000b0: 35ec e83c a6e3 32bd 8f10 d93d 48fe c8bb
000000c0: 658c 883d ebd5 b0bc ab98 c33d ce9a 303d
000000d0: fe4d 0bbe 4c7a 0e3c 1860 673d 17f8 ddbd
000000e0: 1076 58bd 2ac9 05be e42a 5b3d c6ef 613d
000000f0: 675c 7c3d 97d7 553e d0c7 973e 50e5 f13e
00000100: 6ea2 7dbe 2fb2 2cbe d7d2 8abe 6a1f e33c
00000110: a472 b6bd 3704 f4bd 0837 edbd 66ac 01bd
00000120: 39ed 9cbd 6925 a53d 67e9 d43d ef3e da3c
00000130: a619 313e fc9a 103e f196 823d 4354 e93d
00000140: ebd1 1c3d 3178 ca3d 7598 113e 33b6 ec3c
00000150: ec85 8f3d 04b0 97bc 45a5 49bd dd9b b13c
00000160: b7c7 403b d16f 8bbd 3dfd 083d a70c 7f3d
00000170: 7644 c9bd 6293 23bc 00ac 9ebd 3079 8abe
00000180: cf2a f8bc fd7b 42be 0e59 9cbe 311a 91be
00000190: 92d5 3bbe 9c5a 76bd 2f97 f0ba 63e5 ee3c
000001a0: 82d9 9ebd 5061 b93d 963f 4c3c 3a1a 95bc
000001b0: 2c6b b83d a2b4 e63d 2a94 1f3e f40e 213e
000001c0: 5ba6 e53d df90 ca3d 7ac6 4ebb aaa4 253d
000001d0: 6264 d9bd 5f90 bb3c 2142 e4bd 89f5 1abe
000001e0: e2bf 9f3d 8a41 d03c dfa5 943c ff5f d1b9
000001f0: 061f ef3d 3dbe 073d 1efd 463e faaf 6bbd
00000200: 0d34 183e 0b72 a63c 1cce 463d 3475 313c
00000210: 9717 3b3d bf4c c73d 3c72 3f3d e9a2 7b3d
00000220: 0978 b83d 4df1 0f3c 3719 223e 5c3b 99bd
00000230: 5635 0e3d a5b5 96bc a1f2 5a3c 6f96 d03d
00000240: 23f4 8c3d ae5c 843d a43e fd3c cb7c 213e
00000250: 727a 30bd e3db 123b 4706 84bd fad3 c5bd
00000260: 16a0 17be 8368 a1bd c6f7 8b3d e4f8 6abc
00000270: a5af a6bb 0a33 08be af4b 3ebc c4bb 6bbe
00000280: 1d0c c4bd 3dc1 3dbe 2e28 1f3e 27bc bfbd
00000290: 251b 54bd fb34 213d c000 2cbb b853 ce3b
000002a0: 7641 4cbd 5937 23bd 35af 44bd f1e9 ddb8
000002b0: cc1e 39bd 1a19 0dbe 6301 be3d 9712 7fbd
000002c0: 62f2 0a3e 7292 07bd 1869 963d 28a2 48bd
000002d0: 6646 693d 8b72 503d 7a0a 9a3d ef2d db3c
000002e0: 5368 083e b080 9e3d c2c0 a33d 688b 1c3e
000002f0: 84aa 093e f6a8 bf3c 20cf 223d 5e67 90bd
00000300: 2991 a33d 9119 43bd dbb5 d73d cc84 0a3e
00000310: f025 4f3e 7be5 cb3d dd19 e33c da63 57be
00000320: 2126 47be 8aa0 10be 6aba 2e3b 399a f13e
00000330: 8141 af3e fdea 2c3d 7b41 98be 79d1 33bf
00000340: 5cac 02bf b0de 73be c070 073c da61 413c
00000350: 38d2 193e 53a4 153e a4a3 4c3e 5eab 843e
00000360: 6133 4b3e 7df1 0e3e 72b7 ef3d 01c8 85bd
00000370: a45f 883d 1fa6 6bbe 255f 08bc 83e6 df3c
00000380: 0900 da3d 983d bc3d ee5f 493c 07d2 a8be
00000390: f5b2 e4be db0a 7fbe 6625 88bd 4f07 2f3d
000003a0: 220e 8f3e 4b89 b33d 70ce 94be 3892 82bc
000003b0: 90d8 923b dd8d 55be 9654 edbd 0dac 12bd
000003c0: a41d 2e3d 07c8 113e e0de 3f3e 3f8f 9d3d
000003d0: 1a39 e5bc 38d3 af3d 4a76 fa3c 789a f93d
000003e0: a175 203e d64b 0ebe 3bb7 1dbe f109 01bd
000003f0: 4856 b43d 8775 2cbc 3e09 cf3d 6d3e 5d3e

model.backbone.layers.0.temporal.0.bias f4 [32]
0.07061457 -0.07377118 0.06265503 -1.3735745 -0.16733864 -1.0643842 -1.0923886 -1.0593833
-0.93379635 -0.54319596 -1.8559439 -1.1065654 -0.8658702 0.043162193 -0.62626 -0.77393645
-1.3746668 -1.1768777 0.043592572 -0.20907988 -1.1139922 -1.1687672 -0.61886114 -1.9286247
-0.7360658 -0.82220036 -0.17690003 -0.32971805 -1.0417236 0.06242715 -1.4706525 -1.3154546
00000000: 5f9e 903d 5815 97bd 4851 803d 4ad1 afbf
00000010: d25a 2bbe be3d 88bf 64d3 8bbf df99 87bf
00000020: 470d 6fbf e40e 0bbf 928f edbf efa3 8dbf
00000030: aba9 5dbf d7ca 303d 9352 20bf b320 46bf
00000040: 15f5 afbf eea3 96bf 208e 323d 0919 56be
00000050: 4c97 8ebf 2a9a 95bf af6d 1ebf 2ddd f6bf
00000060: cf6e 3cbf b97b 52bf 4825 35be ced0 a8be
00000070: 3357 85bf 9cb3 7f3d 573e bcbf d160 a8bf

model.backbone.layers.0.temporal.2.weight f4 [64, 32]
-0.015240349 0.020011527 -0.082441464 -0.05946521 0.07197251 -0.025197167 0.17479908 -0.04387757
0.13503839 -0.003396082 0.43696755 -0.013527673 -0.0682964 0.034009367 0.06666206 -0.0037455356
-0.16384134 -0.0067943563 -0.015060581 0.00069911266 0.102368586 0.10822542 -0.02703553 -0.08593369
-0.11791562 0.04823135 -0.063359156 0.08950848 -0.039498378 -0.16901232 0.044769853 0.023368439
0.16055629 -0.12424665 -0.029497562 -0.009772133 0.13357244 -0.068563126 0.008505858 0.21219227
0.0027464412 -0.07467177 -0.37272424 -0.110262446 0.13673522 0.048581 0.0035462023 -0.09498514
-0.17955185 0.20112449 0.019522859 -0.033603746 -0.1911337 0.035690583 -0.2743208 0.08491566
0.09500753 0.13985577 0.17192961 0.053860407 -0.11808454 0.022396833 0.03756724 -0.2841978
-0.13717774 0.16799244 -0.11064013 0.035660625 -0.0010828197 -0.12837887 0.1384398 -0.1267894
-0.2126529 -0.055206385 0.11060015 -0.096221134 0.106542155 0.051564872 -0.29836354 0.06861184
-0.015649235 0.070974134 0.14854825 0.2364828 0.06787942 -0.012927197 -0.110717975 0.08580645
0.022586185 0.03861541 -0.11401584 -0.1533462 0.10251533 -0.13618271 -0.21417876 0.11803165
-0.1396835 -0.33991534 -0.08180237 -0.058992866 0.20256968 -0.0440427 0.090376474 0.08262751
0.15044169 0.162894 0.2617233 0.25290442 -0.22993524 0.15883209 0.067881696 0.0044543496
0.31281844 0.21094896 0.02133825 -0.005130226 -0.044881966 -0.08393888 -0.053669017 -0.10730489
0.19812708 0.4072806 -0.066268854 0.07348222 -0.116937466 -0.04618515 -0.18725395 -0.28440768
0.13643768 -0.04362342 -0.04574606 0.02243317 0.020986844 -0.08020469 0.1333891 -0.22137536
0.042454343 -0.12887125 0.13528769 -0.1184424 0.27521217 0.038374744 0.07732684 0.10979904
-0.19069372 0.13839287 -0.23488098 -0.010126966 0.07928308 0.2876734 0.027852338 -0.03724618
-0.050216194 0.3402558 0.38130957 -0.10119056 -0.021795826 -0.069148965 0.21451399 0.28719047
0.29299814 0.11484322 0.05357368 -0.1462667 0.35348907 0.0893964 -0.2720101 -0.12593925
0.13894989 -0.04915737 0.027327204 -0.038563114 0.09278351 -0.04188625 -0.013211562 0.3249734
-0.08454449 -0.25006017 -0.021160299 0.041349653 0.32255748 -0.062477313 0.069670096 0.15951075
-0.0019181347 -0.23053616 -0.013526298 -0.09347387 0.17369737 -0.20217244 -0.26763448 0.14348853
-0.27479008 0.07041455 0.0340614 0.1441686 -0.032749154 -0.18649521 -0.18088286 -0.31477854
-0.4003343 -0.25894403 0.044976924 0.06176392 0.094394356 -0.0313779 -0.043879375 0.057885475
0.167736 -0.04715707 0.2032625 0.07109175 0.116479084 -0.05972399 0.15552503 0.068943314
-0.0722446 0.12817791 -0.05860863 -0.12471944 -0.031161448 -0.022119474 0.06722223 0.249066
0.117813475 -0.010932041 0.016714396 0.060012046 0.024620418 -0.066018686 0.1768668 0.24138884
0.058658607 -0.08253247 -0.051970843 0.031445112 -0.12893228 0.090916365 0.14066814 -0.3568897
-0.1967122 0.1708974 0.12544231 -0.068956286 -0.06726273 -0.050280567 0.12865032 0.18853702
-0.26513723 0.13104501 0.16228779 -0.13316098 0.32587644 -0.23463412 -0.065075666 -0.10857212
00000000: a8b2 79bc 37ef a33c 12d7 a8bd cb91 73bd
00000010: 5366 933d 4a6a cebc 88fe 323e f8b8 33bd
00000020: 8147 0a3e cd90 5ebb 36ba df3e 2ca3 5dbc
00000030: fcde 8bbd 684d 0b3d 1e86 883d a977 75bb
00000040: 06c6 27be 31a3 debb a8c0 76bc a844 373a
00000050: 9fa6 d13d 4aa5 dd3d 9e79 ddbc 01fe afbd
00000060: bf7d f1bd 3c8e 453d 72c2 81bd 3950 b73d
00000070: 0dc9 21bd 9111 2dbe 9860 373d 2b6f bf3c
00000080: de68 243e 0775 febd dfa4 f1bc 4c1b 20bc
00000090: 37c7 083e d36a 8cbd 275c 0b3c ee48 593e
000000a0: a3fd 333b 83ed 98bd b6d5 bebe 47d1 e1bd
000000b0: 5104 0c3e dffc 463d 6767 683b 9287 c2bd
000000c0: 71dc 37be 94f3 4d3e 67ee 9f3c 15a4 09bd
000000d0: 8db8 43be 4a30 123d c773 8cbe 43e8 ad3d
000000e0: 4f93 c23d 5a36 0f3e 510e 303e bb9c 5c3d
000000f0: 4fd6 f1bd 9079 b73c 1be0 193d 6082 91be
00000100: 5278 0cbe 3606 2c3e 4b97 e2bd e010 123d
00000110: 66ed 8dba c075 03be 2ac3 0d3e 15d5 01be
00000120: afc1 59be 1720 62bd 5582 e23d 960f c5bd
00000130: c632 da3d b035 533d 1bc3 98be 5d84 8c3d
00000140: d332 80bc e35a 913d 081d 183e 8c28 723e
00000150: 5e04 8b3d 98cc 53bc 1bc0 e2bd 4bbb af3d
00000160: aa06 b93c 312b 1e3d 2381 e9bd c906 1dbe
00000170: 8ff3 d13d 7b73 0bbe ad51 5bbe 94ba f13d
00000180: 3109 0fbe 6209 aebe 0088 a7bd 81a2 71bd
00000190: 6d6e 4f3e 1e66 34bd 4d17 b93d 9d38 a93d
000001a0: 630d 1a3e afcd 263e 9900 863e b07c 813e
000001b0: 2574 6bbe e1a4 223e 8f05 8b3d cbf5 913b
000001c0: bd29 a03e 0103 583e 8ecd ae3c 741b a8bb
000001d0: 27d6 37bd 26e8 abbd 0bd4 5bbd abc2 dbbd
000001e0: d3e1 4a3e 1587 d03e f7b7 87bd d97d 963d
000001f0: e97c efbd a42c 3dbd 80bf 3fbe e29d 91be
00000200: 52b6 0b3e 79ae 32bd 3860 3bbd c4c5 b73c
00000210: 9aec ab3c 5b42 a4bd 2797 083e 39b0 62be
00000220: 9be4 2d3d d3f6 03be db88 0a3e ee91 f2bd
00000230: 9ce8 8c3e d62e 1d3d 895d 9e3d 52de e03d
00000240: 3745 43be dcb6 0d3e a484 70be 93eb 25bc
00000250: 2b5f a23d ee49 933e 962a e43c 738f 18bd
00000260: 7faf 4dbd 0236 ae3e 023b c33e ff3c cfbd
00000270: 298d b2bc f99d 8dbd 8ea9 5b3e a10a 933e
00000280: da03 963e ec32 eb3d 1370 5b3d f0c6 15be
00000290: 85fc b43e 7615 b73d e844 8bbe 38f6 00be
000002a0: e148 0e3e 3d59 49bd 4ddd df3c 5bf4 1dbd
000002b0: 4805 be3d eb90 2bbd 4f75 58bc ea62 a63e
000002c0: a925 adbd e307 80be 5d58 adbc 415e 293d
000002d0: 4126 a53e 36e8 7fbd 32af 8e3d c956 233e
000002e0: ec69 fbba ac11 6cbe 689d 5dbc 3a6f bfbd
000002f0: b9dd 313e 4b06 4fbe 6307 89be a8ee 123e
00000300: 49b1 8cbe 8135 903d f783 0b3d efa0 133e
00000310: fa23 06bd 9af8 3ebe 5b39 39be a72a a1be
00000320: 9ef8 ccbe 5094 84be b939 383d 2afc 7c3d
00000330: d451 c13d 1d86 00bd dcba 33bd 5219 6d3d
00000340: fcc2 2b3e c627 41bd 0b24 503e 8d98 913d
00000350: 968c ee3d 24a1 74bd f441 1f3e 2732 8d3d
00000360: faf4 93bd 1241 033e 9a0f 70bd e86c ffbd
00000370: 4b46 ffbc e633 b5bc cfab 893d 280b 7f3e
00000380: 3148 f13d 4e1c 33bc a1ec 883c 31cf 753d
00000390: c2b0 c93c ce34 87bd 921c 353e a32e 773e
000003a0: 0244 703d c906 a9bd 61df 54bd 97cc 003d
000003b0: d306 04be 5c32 ba3d 4f0b 103e 3fba b6be
000003c0: ec6e 49be baff 2e3e f373 003e f438 8dbd
000003d0: 0bc1 89bd fff2 4dbd e9bc 033e d90f 413e
000003e0: 11c0 87be aa30 063e c52e 263e 5a5b 08be
000003f0: 47d9 a63e ed43 70be 6446 85bd 0f5b debd

model.backbone.layers.0.temporal.2.bias f4 [64]
0.025872087 -0.0749297 0.03777457 0.021670558 -0.034540202 -0.07667269 0.060271926 -0.039036255
0.013203579 -0.0008119728 0.06409839 -0.037909355 -0.021032106 0.060611244 -0.044903126 0.07768823
-0.07764009 0.0452042 0.0074899923 -0.025343401 -0.08522126 0.041059785 0.03588828 0.012165805
0.034986753 -0.06519166 0.01586146 -0.01619562 -0.043945797 0.06754397 0.029947486 -0.062129494
0.07666541 -0.056224454 0.07629869 0.008660337 -0.046049986 0.03465064 0.036637686 -0.034984488
-0.051713012 0.08599843 -0.00362975 0.04920346 -0.03249346 -0.07505967 0.057990618 0.008103912
0.07156716 -0.07328198 0.054660227 0.047989503 -0.0825582 0.065570615 0.06576994 -0.09156947
0.06356401 -0.074569546 0.039796587 0.053950638 -0.01727834 0.047980808 0.014131084 0.050806534
00000000: b3f1 d33c be74 99bd 82b9 1a3d 7486 b13c
00000010: 077a 0dbd 9206 9dbd b2df 763d 7be4 1fbd
00000020: d353 583c 92da 54ba 0446 833d d746 1bbd
00000030: 864b acbc 7f43 783d 57ec 37bd 021b 9f3d
00000040: c401 9fbd 0a28 393d 9c6e f53b f79c cfbc
00000050: 7c88 aebd 4e2e 283d 97ff 123d 1653 473c
00000060: 454e 0f3d 3483 85bd e4ef 813c adac 84bc
00000070: 8200 34bd 7e54 8a3d 6e54 f53c 7f7b 7ebd
00000080: c102 9d3d 9d4b 66bd 7d42 9c3d 16e4 0d3c
00000090: e99e 3cbd d4ed 0d3d 6611 163d e54b 0fbd
000000a0: 06d1 53bd f21f b03d 1ae1 6dbb 9189 493d
000000b0: dd17 05bd e2b8 99bd 9287 6d3d 45c6 043c
000000c0: ce91 923d dd14 96bd 67e3 5f3d a490 443d
000000d0: 4614 a9bd e349 863d 64b2 863d c688 bbbd
000000e0: d92d 823d ebb7 98bd bf01 233d 58fb 5c3d
000000f0: 4e8b 8dbc 8687 443d 1086 673c 831a 503d

model.backbone.layers.0.channel.0.weight f4 [32, 74]
-0.16602412 0.08809626 -0.51144296 0.1125354 -0.20361772 0.48750502 0.042991646 0.06732805
0.37607345 0.060244795 -0.1679521 0.09007823 -0.17766058 0.12265266 -0.095426716 -0.024993902
0.14701772 0.081086606 0.072391115 0.028408596 -0.0770754 -0.06722835 -0.20572121 -0.0735612
0.037105743 0.095393285 0.11931131 -0.019813078 0.10920834 0.027023658 0.058631595 0.21629778
0.13024326 -0.090907745 -0.29842818 0.17045875 0.1856442 -0.15395135 0.10937469 0.0052459366
0.03895648 -0.06400993 0.040269185 0.049338635 -0.10657198 0.015053078 -0.05776762 0.22660823
-0.07171125 0.0785425 -0.09918579 0.17431964 -0.03928852 -0.14881375 0.034755692 0.04495735
-0.045481153 0.035189565 0.071337126 0.10247442 -0.03654706 -0.11370664 0.02922639 0.05800059
-0.11253875 0.19904907 -0.078861006 0.21885797 0.0063057425 0.09849248 -0.115297854 0.060211487
-0.17613067 -0.12741254 0.14938605 -0.26662666 0.010072674 0.103693254 0.36028495 -0.30860898
-0.6180565 -0.35396177 -0.24312349 0.058684114 0.0065498278 -0.037602063 0.078486644 -0.04398621
-0.0327153 -0.08976907 0.0035270685 -0.026712948 0.11674442 -0.1165422 -0.050102543 0.029542293
0.007631485 -0.04230308 -0.006810189 -0.075821035 0.012504329 0.18024346 0.026523316 0.016073165
0.17057973 0.09247296 0.10174396 0.059393935 0.022422178 -0.1668339 0.03569724 0.06423121
0.21198714 -0.0052011916 -0.038103767 -0.0607422 -0.0019265215 -0.071834475 0.026917353 -0.086865775
0.14032866 -0.019849163 -0.102430984 -0.02521751 0.17565468 0.036953986 0.13791494 -0.18255667
-0.08890474 0.083973795 -0.013248362 -0.0076227114 0.2366418 0.12618837 -0.017413314 -0.012640591
-0.059928786 0.080482505 0.09109976 -0.044790357 -0.017083213 0.14102627 -0.09143815 -0.012161764
-0.002582018 -0.022605302 0.0014431776 -0.005002654 -0.08283266 0.0045811143 -1.2367728 0.3031666
0.41389892 0.07894565 -0.13054378 -0.21725619 0.07681985 0.034796048 -0.042327575 -0.02978628
-0.12661155 0.07483295 0.13032635 -0.45322126 -0.007447899 0.017183991 -0.09863074 0.02241134
-0.019693242 0.007176928 0.23206842 -0.24142225 -0.0022787312 -0.0053411303 -0.070626736 0.096328534
-0.07446006 0.06699855 -0.025372958 -0.031226736 -0.034141477 0.02987176 -0.025864583 -0.22453587
0.11367582 0.10453976 0.41747358 0.2807373 0.04651265 -0.119539335 -0.07877514 0.057752017
0.12108538 0.14862859 0.059532404 -0.026447177 0.047019385 -0.042237006 0.18522401 0.1664715
0.25096118 -0.07930644 -0.07424843 0.09520002 0.011957062 0.08086932 0.17756668 0.20519525
-0.07488051 -0.19318306 0.17208973 0.17658326 -0.62446 0.16766575 0.027793378 0.3062164
0.15277842 0.029969966 0.14264949 -0.03345861 -0.077583924 0.17192239 -0.2583713 -0.39265296
0.022436813 -0.25524855 -0.5169714 -0.021641105 0.34258488 0.15886053 0.15767516 -0.14053008
-0.13596092 0.0237146 -0.21299444 0.18125865 -0.14525996 0.21158603 0.052378707 0.073149905
0.024309281 0.20813094 -0.009353708 -0.034676842 0.1273267 -0.018472068 -0.19991033 -0.08845476
0.031501293 0.15561432 -0.04628101 -0.15261908 0.22056755 -0.108444676 0.0012830471 -0.03131666
00000000: 3a02 2abe d06b b43d eded 02bf f678 e63d
00000010: 2a81 50be 429a f93e 0218 303d 4ae3 893d
00000020: b38c c03e 3fc3 763d a3fb 2bbe ef7a b83d
00000030: a8ec 35be 5131 fb3d 156f c3bd 03c0 ccbc
00000040: d08b 163e bc10 a63d cb41 943d 25b9 e83c
00000050: b5d9 9dbd 04af 89bd 95a8 52be 41a7 96bd
00000060: 31fc 173d 8e5d c33d 7d59 f43d 094f a2bc
00000070: 9fa8 df3d b860 dd3c af27 703d 2a7d 5d3e
00000080: 7d5e 053e d72d babd 94cb 98be bd8c 2e3e
00000090: 8319 3e3e 6ca5 1dbe d6ff df3d 1be6 ab3b
000000a0: d490 1f3d a317 83bd 4df1 243d 4f17 4a3d
000000b0: 6942 dabd 2fa1 763c bd9d 6cbd fd0b 683e
000000c0: 59dd 92bd e4da a03d eb21 cbbd d980 323e
000000d0: 00ed 20bd a262 18be fc5b 0e3d 3325 383d
000000e0: 724a 3abd ef22 103d 3319 923d 1cde d13d
000000f0: 5fb2 15bd 07df e8bd 2f6c ef3c 0792 6d3d
00000100: b77a e6bd 85d3 4b3e e181 a1bd 4e1c 603e
00000110: 67a0 ce3b 6db6 c93d 4821 ecbd 52a0 763d
00000120: 995b 34be 6f78 02be a8f8 183e 4a83 88be
00000130: db07 253c 215d d43d 4577 b83e ff01 9ebe
00000140: f338 1ebf 7a3a b5be 5df5 78be c15e 703d
00000150: f09f d63b 9f04 1abd 9bbd a03d e22a 34bd
00000160: 7a00 06bd d9d8 b7bd 6426 673b 1dd5 dabc
00000170: b317 ef3d adad eebd 5338 4dbd ae02 f23c
00000180: 8911 fa3b ff45 2dbd 0228 dfbb 0f48 9bbd
00000190: f5de 4c3c be91 383e 6d47 d93c dfab 833c
000001a0: 74ac 2e3e 7762 bd3d 235f d03d 0e47 733d
000001b0: b7ae b73c 82d6 2abe 4537 123d a78b 833d
000001c0: 2813 593e c26e aabb b212 1cbd d0cc 78bd
000001d0: 5683 fcba f41d 93bd c881 dc3c afe6 b1bd
000001e0: 51b2 0f3e b69a a2bc 56c7 d1bd f494 cebc
000001f0: d2de 333e 105d 173d 9339 0d3e 23f0 3abe
00000200: b013 b6bd 74fa ab3d a80f 59bc f0c7 f9bb
00000210: 3a52 723e 8637 013e 5ea6 8ebc 7b1a 4fbc
00000220: e377 75bd 03d4 a43d 8392 ba3d 1876 37bd
00000230: 18f2 8bbc 3169 103e ed43 bbbd 2342 47bc
00000240: 1337 29bb c12e b9bc 0129 bd3a 4eed a3bb
00000250: 2ba4 a9bd 2c1d 963b 924e 9ebf a738 9b3e
00000260: 8fea d33e 42ae a13d 45ad 05be 6878 5ebe
00000270: ba53 9d3d 4d86 0e3d ae5f 2dbd 5b02 f4bc
00000280: 75a6 01be 0542 993d 4574 053e 9e0c e8be
00000290: 810d f4bb 71c5 8c3c eafe c9bd fd97 b73c
000002a0: b953 a1bc 702c eb3b 58a3 6d3e 6537 77be
000002b0: c456 15bb a604 afbb c0a4 90bd e547 c53d
000002c0: 847e 98bd 8936 893d f3da cfbc 36cf ffbc
000002d0: efd7 0bbd 9fb5 f43c f6e1 d3bc bbec 65be
000002e0: dece e83d f118 d63d 19bf d53e cdbc 8f3e
000002f0: 0c84 3e3d 0ad1 f4bd dc54 a1bd 618d 6c3d
00000300: 9dfb f73d 1832 183e 40d8 733d c0a7 d8bc
00000310: 6697 403d b600 2dbd 5dab 3d3e 8177 2a3e
00000320: fc7d 803e 6a6b a2bd 900f 98bd 3af8 c23d
00000330: 8ee7 433c d09e a53d 0ad4 353e b41e 523e
00000340: f45a 99bd c8d1 45be 4a38 303e 3ed2 343e
00000350: 9cdc 1fbf 92b0 2b3e f0ae e33c 65c8 9c3e
00000360: f271 1c3e 9383 f53c b512 123e e50b 09bd
00000370: 52e4 9ebd 6c0c 303e 3e49 84be cf09 c9be
00000380: 68cd b73c f0af 82be 3d58 04bf b048 b1bc
00000390: 4967 af3e 56ac 223e 9975 213e 1ee7 0fbe
000003a0: 5739 0bbe 1f45 c23c 371b 5abe de9b 393e
000003b0: 07bf 14be 02aa 583e 0e8b 563d 9ecf 953d
000003c0: 4224 c73c 4720 553e 4b40 19bc 4e09 0ebd
000003d0: ee61 023e bc52 97bc 4bb5 4cbe c527 b5bd
000003e0: 8007 013d 5c59 1f3e 2891 3dbd 2d48 1cbe
000003f0: 76dc 613e 3e18 debd eb2b a83a e645 00bd

model.backbone.layers.0.channel.0.bias f4 [32]
-0.6645352 -0.79987633 -0.5502132 -0.3387528 -0.00062093354 -0.5534953 -0.26368275 -0.5465396
-1.262894 -0.48833174 -0.40744078 -0.64460194 -0.43919444 -0.29545343 -0.27779195 -0.54790646
-0.11942637 -0.64534295 -0.44191524 -0.37647265 -0.42189878 -0.0898248 -0.1287928 -0.13104697
-0.5151483 -0.22092363 -0.87698895 -0.52850527 -0.30228212 0.043086305 -0.32705566 -0.30650717
00000000: fb1e 2abf b2c4 4cbf c6da 0cbf 0271 adbe
00000010: 25c6 22ba deb1 0dbf 6d01 87be 05ea 0bbf
00000020: 83a6 a1bf 9e06 fabe 149c d0be a204 25bf
00000030: 18de e0be ac45 97be bf3a 8ebe 9943 0cbf
00000040: d095 f4bd 3235 25bf b742 e2be 06c1 c0be
00000050: 1e03 d8be 11f6 b7bd 42e2 03be 2d31 06be
00000060: c2e0 03bf ce39 62be 5982 60bf 1f4c 07bf
00000070: b9c4 9abe 447b 303d d773 a7be 82ee 9cbe

model.backbone.layers.0.channel.2.weight f4 [74, 32]
0.40648788 -0.12777957 -0.018580023 0.17093296 0.22135527 -0.24522592 -0.31768537 -0.0119370865
-0.6586503 0.048867796 0.11575104 -0.30298164 -0.06775392 0.071190834 0.16868673 0.114023305
0.2474999 0.08272475 -0.28227824 -0.17254119 0.014837757 -0.06285279 0.04756159 -0.16390483
0.052956667 -0.24610037 -0.042267967 -0.32835394 0.08277772 -0.16563526 -0.15645613 0.21992952
-0.012179884 0.17139834 -0.030333746 -0.094716676 0.0261405 0.0030259904 0.09515205 0.19256549
0.15121874 0.0035188145 0.2512342 0.068544164 -0.049923338 0.052344434 -0.058542203 0.03482786
0.1080124 0.003055383 -0.18683851 -0.15391742 0.023752676 -0.06804642 -0.0055035544 0.20550351
0.042121824 0.053033136 -0.06200504 -0.03771398 0.052891176 -0.019579234 -0.12523162 0.0409992
0.079654925 -0.20593667 0.13561796 -0.3605311 -0.23719966 0.23773831 -0.096882954 -0.054875568
0.20467564 0.1358147 -0.082294255 0.6158003 -0.016680479 -0.08543617 0.016694441 -0.094823726
-0.10369996 0.29313865 -0.06390392 -0.07908596 0.057044342 -0.023093756 0.0973849 -0.11484649
0.079975784 -0.15343806 -0.16101632 0.10669556 0.124336556 0.21082787 -0.0021019317 0.25544718
-0.12525791 -0.036058154 -0.20875293 -0.027109781 -0.11749948 0.12752226 -0.048575975 0.0561464
-0.028933074 0.017367536 0.02509982 0.005327785 0.009073263 0.03644459 0.037332986 0.11399213
-0.08185345 0.045496166 -0.035368975 -0.0055127214 0.016228244 -0.031745225 -0.06747445 -0.044936623
-0.10136594 0.018643403 -0.009330734 -0.018230796 0.02467687 -0.07927271 -0.068588346 -0.029039908
-0.14558621 -0.13383101 -0.11635581 -0.088428855 -0.09048342 0.098574154 -0.05498814 -0.12278945
0.21479203 -0.00680012 0.09230645 -0.13180023 0.010491726 0.02868255 -0.15071133 -0.034856398
0.063120045 -0.060158767 -0.031683657 -0.035828967 0.03473069 -0.056192253 0.005719324 0.069530234
-0.14303695 -0.07457794 -0.28324956 0.00859993 -0.057771552 -0.17361158 0.09898296 -0.05870242
-0.09986944 0.2117717 0.15490931 0.124608554 0.09454783 0.27972966 0.03712559 -0.033140153
0.21191537 0.04379002 -0.25919518 -0.07024455 -0.047703866 -0.08891998 0.19362165 -0.1106109
-0.32737863 0.07547339 0.15537937 -0.07261866 -0.016703062 -0.010476481 -0.008448462 0.012819052
0.12428077 -0.12301525 0.11048206 0.06183807 -0.11860104 -0.15811285 -0.050647937 0.07323124
0.11166218 0.2215714 -0.081783235 0.051299155 -0.053910162 -0.037206225 0.11871414 0.079347745
0.10645578 -0.01058868 0.14806116 0.051273342 0.033025526 0.027117582 -0.19218382 -0.085844025
0.17202927 -0.043627664 0.10204083 0.021355279 0.034333866 -0.10615619 -0.009079115 0.17739344
-0.017602056 0.0771074 -0.0164279 -0.018643983 -0.008548372 0.024077617 -0.15410565 -0.09992709
0.07780068 0.18282247 -0.2524164 -0.017739777 0.04934625 -0.02471881 0.1416164 -0.011224694
0.113734126 0.025494555 0.13633503 0.20343143 -0.008699314 -0.103395216 -0.108369045 -0.06284011
0.23755527 -0.05106365 -0.033446457 -0.13315624 0.01558622 -0.10392421 0.039768025 0.21043007
0.005874448 0.19813769 0.053049985 -0.00039196975 -0.11836809 0.048460286 -0.2507501 -0.0766398
00000000: 2e1f d03e a6d8 02be 2235 98bc 0d09 2f3e
00000010: f5aa 623e 811c 7bbe a8a7 a2be c593 43bc
00000020: 4e9d 28bf 9929 483d e20e ed3d 6920 9bbe
00000030: 91c2 8abd 80cc 913d 37bc 2c3e 0d85 e93d
00000040: 9d70 7d3e 986b a93d c686 90be a3ae 30be
00000050: 101a 733c f7b8 80bd f1cf 423d abd6 27be
00000060: 17e9 583d bc01 7cbe 2d21 2dbd 021e a8be
00000070: 5e87 a93d 4a9c 29be 0936 20be 3435 613e
00000080: 238e 47bc 0c83 2f3e 7a7e f8bc d1fa c1bd
00000090: 9a24 d63c b24f 463b 14df c23d e32f 453e
000000a0: 16d9 1a3e e99b 663b c5a1 803e e260 8c3d
000000b0: 6a7c 4cbd 1e67 563d f3c9 6fbd a8a7 0e3d
000000c0: 9b35 dd3d d23c 483b 9852 3fbe 879c 1dbe
000000d0: f994 c23c ec5b 8bbd 2957 b4bb 836f 523e
000000e0: ef87 2c3d 4639 593d fff8 7dbd f979 1abd
000000f0: 6ba4 583d a164 a0bc b83c 00be c7ee 273d
00000100: 1f22 a33d 10e1 52be 6fdf 0a3e 8897 b8be
00000110: 78e4 72be ac71 733e 926a c6bd 34c5 60bd
00000120: 7e96 513e 0213 0b3e e489 a8bd 17a5 1d3f
00000130: 80a5 88bc 29f9 aebd c8c2 883c f132 c2bd
00000140: a560 d4bd 4516 963e 0fe0 82bd d2f7 a1bd
00000150: 54a7 693d 1e2f bdbc bc71 c73d a334 ebbd
00000160: 58ca a33d de1e 1dbe 76e1 24be 3483 da3d
00000170: 2aa4 fe3d 43e3 573e 90c0 09bb f9c9 823e
00000180: 9c43 00be b7b1 13bd 54c3 55be 5515 debc
00000190: 91a3 f0bd 3295 023e 9af7 46bd c4f9 653d
000001a0: 0e05 edbc 5d46 8e3c 239e cd3c b394 ae3b
000001b0: 06a8 143c ec46 153d 79ea 183d b574 e93d
000001c0: c8a2 a7bd 305a 3a3d 0fdf 10bd 0fa4 b4bb
000001d0: 18f1 843c 4807 02bd 0b30 8abd 770f 38bd
000001e0: f298 cfbd 0dba 983c efdf 18bc c058 95bc
000001f0: 2627 ca3c bb59 a2bd 0c78 8cbd 1ae5 edbc
00000200: 8d14 15be ff0a 09be f44b eebd 301a b5bd
00000210: 5f4f b9bd 3fe1 c93d 3e3b 61bd 0979 fbbd
00000220: 71f2 5b3e 8bd3 debb 2a0b bd3d a4f6 06be
00000230: 7de5 2b3c abf7 ea3c 1254 1abe 95c5 0ebd
00000240: 1545 813d 0a69 76bd b9c6 01bd 65c1 12bd
00000250: c541 0e3d d929 66bd 2b69 bb3b de65 8e3d
00000260: 4778 12be 52bc 98bd 1606 91be b9e6 0c3c
00000270: dda1 6cbd 3cc7 31be 94b7 ca3d f371 70bd
00000280: 5988 ccbd aeda 583e 8ca0 1e3e c532 ff3d
00000290: 4ba2 c13d ba38 8f3e 0111 183d f8bd 07bd
000002a0: 5800 593e 2a5d 333d 3bb5 84be 60dc 8fbd
000002b0: 2165 43bd ae1b b6bd c144 463e f887 e2bd
000002c0: 2c9e a7be cb91 9a3d c51b 1f3e 18b9 94bd
000002d0: dcd4 88bc 8ca5 2bbc 6b6b 0abc 0007 523c
000002e0: eb86 fe3d 6bef fbbd 6b44 e23d eb49 7d3d
000002f0: 1ae5 f2bd 56e8 21be 3674 4fbd 43fa 953d
00000300: 24af e43d 9de3 623e f87d a7bd 101f 523d
00000310: e7d0 5cbd 8e65 18bd 6620 f33d 1281 a23d
00000320: 7d05 da3d 257c 2dbc 589d 173e ff03 523d
00000330: c645 073d b125 de3c d6cb 44be fece afbd
00000340: 7128 303e ecb2 32bd c8fa d03d 44f1 ae3c
00000350: aba1 0c3d 6b68 d9bd 92c0 14bc a0a6 353e
00000360: 3032 90bc 7cea 9d3d ce93 86bc 44bb 98bc
00000370: 790e 0cbc 6c3e c53c dfcd 1dbe 93a6 ccbd
00000380: f755 9f3d d035 3b3e b93c 81be 0253 91bc
00000390: 4b1f 4a3d 1a7f cabc e403 113e c7e7 37bc
000003a0: 70ed e83d f5d9 d03c 699b 0b3e 5450 503e
000003b0: 9187 0ebc dfc0 d3bd 97f0 ddbd 51b2 80bd
000003c0: b041 733e 1e28 51bd 27ff 08bd 1c5a 08be
000003d0: 585d 7f3c 37d6 d4bd cce3 223d fb7a 573e
000003e0: 717e c03b 9be4 4a3e f14a 593d 4a81 cdb9
000003f0: f86a f2bd 4b7e 463d 5162 80be 54f5 9cbd

model.backbone.layers.0.channel.2.bias f4 [74]
0.12946069 -0.043723 0.0063315253 0.10875996 0.09296161 0.04492039 -0.060285952 -0.088694155
-0.06646081 0.03658465 -0.06443522 -0.0080418065 0.027143547 0.107172206 0.10911669 0.12493002
-0.0015931657 0.10205888 0.06855396 -0.06646537 -0.116048366 -0.0076223398 -0.07096819 -0.008546296
0.10234134 0.018188775 -0.038202208 -0.076068096 0.13378823 0.023986097 0.04077128 0.2197645
0.023038696 -0.03831618 0.046168525 0.028771294 0.17435457 0.021527741 0.021626025 -0.05070222
0.03871304 -0.17199998 -0.08914677 -0.07406834 -0.05994955 -0.11508642 0.14197144 0.1627395
-0.089049794 -0.096916944 -0.11989019 0.05711507 -0.0546289 -0.14402416 -0.16244519 0.14513195
-0.029881848 0.0858148 -0.043134242 -0.009001985 0.12184286 -0.17053784 0.11787172 -0.004775307
-0.08886315 -0.016620077 -0.17094642 -0.014952864 -0.08970958 0.008046689 -0.118246816 0.105776876
-0.057446133 -0.0044466117
00000000: 5891 043e e316 33bd af78 cf3b 8bbd de3d
00000010: a862 be3d 71fe 373d 67ee 76bd 48a5 b5bd
00000020: 9b1c 88bd c9d9 153d 9df6 83bd c8c1 03bc
00000030: 255c de3c 1a7d db3d 9278 df3d 4fdb ff3d
00000040: c5d1 d0ba 3f04 d13d 0566 8c3d ff1e 88bd
00000050: c4aa edbd d2c4 f9bb c557 91bd c305 0cbc
00000060: 5698 d13d a000 953c eb79 1cbd 97c9 9bbd
00000070: c8ff 083e 7e7e c43c c9ff 263d f209 613e
00000080: a6bb bc3c 6df1 1cbd 351b 3d3d c7b1 eb3c
00000090: 018a 323e f25a b03c 1029 b13c 22ad 4fbd
000000a0: 9191 1e3d c320 30be 9592 b6bd 24b1 97bd
000000b0: a98d 75bd 6eb2 ebbd f660 113e 2fa5 263e
000000c0: bd5f b6bd 647c c6bd fd88 f5bd 7ef1 693d
000000d0: 8ec2 5fbd 127b 13be 0858 26be 789d 143e
000000e0: c7ca f4bc abbf af3d 88ad 30bd 107d 13bc
000000f0: c088 f93d 79a1 2ebe ba66 f13d 2e7a 9cbb
00000100: e2fd b5bd d426 88bc 940c 2fbe dbfc 74bc
00000110: a8b9 b7bd 43d6 033c 632b f2bd 8ca1 d83d
00000120: a34c 6bbd e2b4 91bb

model.backbone.layers.1.temporal.0.weight f4 [32, 64]
-0.0018251288 -0.0018642285 0.27690634 0.11918994 0.08879264 0.07071781 0.24466327 -0.076246105
-0.023772614 -0.12920375 -0.17554906 -0.25721887 -0.2698743 -0.008411518 -0.27223244 -0.00946806
-0.2056825 -0.040934607 -0.2149288 -0.24036157 0.020940837 -0.15223576 0.21150051 0.013705833
0.124562 -0.039674632 0.13977197 0.06313997 0.11367614 0.065734416 0.02819965 -0.10077897
-0.16306184 -0.43484583 -0.21801399 -0.28359637 -0.27943307 -0.046951126 -0.2639279 0.077251844
-0.05594797 0.12679788 0.19888899 0.18775743 -0.05165936 0.11597273 0.23311988 0.15827754
0.12604827 -0.18334275 0.19846553 -0.011823409 -0.16593757 -0.20916541 -0.24051194 -0.37193424
-0.039921958 0.0072533125 0.224057 0.32308102 0.33169743 0.22095111 0.21557969 0.1473942
0.05721422 -0.1285683 0.25488675 0.19188015 -0.19760369 -0.2040962 0.19195427 0.046972748
0.14413348 0.0009520921 0.06232219 0.12603454 -0.20486943 0.14542481 -0.096240155 -0.000988092
-0.16389722 -0.039635967 0.03646276 0.09320036 -0.10293017 -0.031433936 0.108550064 -0.026378585
-0.041219935 -0.17398694 -0.17138046 -0.12884218 -0.05881181 -0.050386734 0.07197423 -0.16257885
0.10037519 -0.17748705 0.04701172 0.12395009 -0.1447505 0.21485218 0.01718981 -0.12468521
-0.019759139 0.20395522 0.010391494 0.2587868 0.016233303 -0.17181768 0.12491327 0.009388081
0.11145811 -0.05678047 -0.08592766 0.029739896 -0.19082996 -0.011244345 0.001230976 0.019037014
0.011166694 -0.11828541 0.0321788 0.14466706 0.07697677 0.23469688 0.26167113 0.8275565
0.32221913 0.22943223 0.12167428 0.13689601 0.1886486 0.041219715 0.07186148 -0.0122372685
-0.108913556 -0.07227878 0.111024134 0.079163454 -0.08951747 0.029382346 -0.06694326 0.27806988
-0.12589397 0.0051453463 -0.037225656 -0.21027851 0.19242305 -0.16057754 -0.19168995 -0.0829115
-0.22751631 -0.17888542 -0.33997533 -0.10360763 0.12782264 0.10019506 0.049932223 -0.321379
0.004472313 -0.048429836 0.09137157 0.32282913 -0.058181446 0.052076288 -0.007110753 -0.15171944
0.12352739 0.42324996 0.15094268 0.2163041 0.16482025 0.024555476 0.04450581 -0.501883
-0.44906026 -0.38738856 -0.4956656 -0.44771796 -0.12966706 0.2995734 0.3493907 0.26659578
0.20653242 0.036591113 -0.08417765 -0.12922627 -0.17709029 -0.031229148 0.09320527 0.25881398
-0.02537175 -0.09520026 -0.1393958 -0.094649635 -0.13798133 -0.22626318 -0.1342392 -0.106829286
-0.30745122 -0.08855209 -0.114527345 -0.0775806 -0.037628744 0.2061836 0.04744184 0.0644547
-0.066004485 0.045079403 -0.06201891 0.017100876 0.03283551 -0.06877409 -0.0063493657 -0.16510598
-0.103578314 -0.295353 -0.005584792 -0.029140482 0.0024810275 -0.19487712 -0.03624218 -0.26495662
-0.06921312 -0.1337367 0.010738335 -0.15053265 -0.1487404 -0.01612685 -0.040897727 0.039039023
-0.1403313 0.04199447 -0.02754232 -0.099661425 -0.01080351 -0.0501141 -0.029830873 -0.05098731
0.11396763 0.063576646 0.16708548 0.2914082 0.06955456 -0.040253356 0.021529607 0.0093502235
0.108004734 -0.11950203 0.068532415 -0.009268074 0.1921094 -0.07721991 0.14920707 0.3445891
00000000: 2939 efba 2159 f4ba abc6 8d3e db19 f43d
00000010: ead8 b53d 80d4 903d 0289 7a3e eb26 9cbd
00000020: c9be c2bc fd4d 04be 22c3 33be 31b2 83be
00000030: f72c 8abe 77d0 09bc 0d62 8bbe ec1f 1bbc
00000040: 6f9e 52be 0cab 27bd 4c16 5cbe 5821 76be
00000050: 1e8c ab3c b1e3 1bbe 9793 583e 6e8e 603c
00000060: 5d1a ff3d de81 22bd 6220 0f3e 874f 813d
00000070: 09cf e83d c49f 863d f402 e73c 3465 cebd
00000080: aff9 26be 1da4 debe 0f3f 5fbe 8b33 91be
00000090: da11 8fbe d34f 40bd 8f21 87be 3736 9e3d
000000a0: b329 65bd 4ed7 013e 8ea9 4b3e 7c43 403e
000000b0: c498 53bd 1c83 ed3d fab6 6e3e 8213 223e
000000c0: cc12 013e 34be 3bbe 8c3a 4b3e f9b6 41bc
000000d0: 8aeb 29be 752f 56be c348 76be 2a6e bebe
000000e0: 3585 23bd 32ad ed3b 336f 653e e06a a53e
000000f0: 3fd4 a93e 0241 623e ecc0 5c3e 81ee 163e
00000100: 7559 6a3d 69a7 03be 8480 823e 3b7c 443e
00000110: 9f58 4abe 98fe 50be a98f 443e 7f66 403d
00000120: ba97 133e d295 793a 8d45 7f3d 330f 013e
00000130: 4bc9 51be 3eea 143e 8f19 c5bd de82 81ba
00000140: acd4 27be 5359 22bd fa59 153d d5df be3d
00000150: 0ecd d2bd dfc0 00bd 7f4f de3d e717 d8bc
00000160: 3cd6 28bd a229 32be 5c7e 2fbe 34ef 03be
00000170: a7e4 70bd 5262 4ebd 3a67 933d 127b 26be
00000180: 8291 cd3d 2abf 35be 5c8f 403d 8bd9 fd3d
00000190: 7a39 14be 3602 5c3e a5d1 8c3c f65a ffbd
000001a0: ebdd a1bc a3d9 503e 1641 2a3c b47f 843e
000001b0: b4fb 843c f9f0 2fbe 87d2 ff3d 77d0 193c
000001c0: 2644 e43d a392 68bd d7fa afbd 15a1 f33c
000001d0: ee68 43be 343a 38bc b358 a13a 83f3 9b3c
000001e0: 82f4 363c 9f3f f2bd ebcd 033d 9a23 143e
000001f0: ffa5 9d3d 6154 703e c2f9 853e beda 533f
00000200: e8f9 a43e 48f0 6a3e 5d30 f93d 782e 0c3e
00000210: 192d 413e 01d6 283d 1d2c 933d d37e 48bc
00000220: 120e dfbd e606 94bd 9f60 e33d 7320 a23d
00000230: ef54 b7bd 3fb3 f03c 8c19 89bd 2d5f 8e3e
00000240: 59ea 00be 4b9a a83b ee79 18bd 4053 57be
00000250: 8c0a 453e 706e 24be 5f4a 44be 81cd a9bd
00000260: 09fa 68be bd2d 37be 3f11 aebe 3d30 d4bd
00000270: f0e3 023e 1133 cd3d bb85 4c3d ca8b a4be
00000280: 7b8c 923b 5d5e 46bd 0521 bb3d dc49 a53e
00000290: ab4f 6ebd f24d 553d 5201 e9bb 575c 1bbe
000002a0: eefb fc3d 38b4 d83e b890 1a3e d27e 5d3e
000002b0: a4c6 283e 9128 c93c b94b 363d 677b 00bf
000002c0: 3aeb e5be cb57 c6be e2c7 fdbe 4a3b e5be
000002d0: 71c7 04be af61 993e 56e3 b23e 3e7f 883e
000002e0: 3c7d 533e 90e0 153d 5565 acbd e453 04be
000002f0: 2857 35be 45d4 ffbc 68e2 be3d 4483 843e
00000300: 6bd8 cfbc 5bf8 c2bd c6bd 0ebe abd7 c1bd
00000310: fa4a 0dbe 89b1 67be 0076 09be 50c9 dabd
00000320: 3f6a 9dbe cc5a b5bd 508d eabd 94e2 9ebd
00000330: 9920 1abd cb21 533e 6052 423d d300 843d
00000340: 5c2d 87bd 2ea5 383d 8a07 7ebd 2317 8c3c
00000350: 877e 063d 6ed9 8cbd 570e d0bb 8b11 29be
00000360: de20 d4bd 8238 97be a100 b7bb 05b8 eebc
00000370: bc98 223b de8d 47be ae72 14bd 65a8 87be
00000380: 9cbf 8dbd 46f2 08be d7ef 2f3c 3b25 1abe
00000390: 674f 18be 751c 84bc 6084 27bd 62e7 1f3d
000003a0: 02b3 0fbe 6502 2c3d 6ea0 e1bc 4a1b ccbd
000003b0: 3501 31bc 7144 4dbd e05f f4bc 12d8 50bd
000003c0: dc67 e93d 7934 823d 7518 2b3e 7533 953e
000003d0: 9f72 8e3d b4e0 24bd dc5e b03c ae31 193c
000003e0: 9631 dd3d 7bbd f4bd b95a 8c3d 1fd9 17bc
000003f0: 54b8 443e 7925 9ebd bdc9 183e fc6d b03e

model.backbone.layers.1.temporal.0.bias f4 [32]
-0.29123995 -0.30222693 -1.2784352 -0.44108236 -0.30088517 -0.5251986 -0.34833434 -0.5193396
-0.67549396 -1.0429229 -1.3717432 -0.52926415 -0.7573538 -0.7946185 -1.3582067 -0.34476486
-1.1976339 -1.3829143 -0.7989954 -0.80925333 -1.0604157 -0.13257419 -1.8267783 -0.10546931
-0.32210115 -0.45221472 -0.0077945087 -0.61972034 -0.9377946 -0.34301674 -0.78439397 -0.89652646
00000000: 671d 95be 7dbd 9abe c4a3 a3bf 8cd5 e1be
00000010: 9f0d 9abe 6a73 06bf e158 b2be 71f3 04bf
00000020: 2ced 2cbf 7f7e 85bf 4895 afbf db7d 07bf
00000030: f0e1 41bf 1e6c 4bbf b8d9 adbf 0585 b0be
00000040: 114c 99bf 5603 b1bf f68a 4cbf 3a2b 4fbf
00000050: b4bb 87bf 87c1 07be dfd3 e9bf 4b00 d8bd
00000060: 71ea a4be b088 e7be 1469 ffbb fea5 1ebf
00000070: 4f13 70bf e49f afbe 0bce 48bf c282 65bf
