experiments_deprecated/AdversarialDomainAdaptation/saved_models/v4/tsmixer_da_adapted_0.pt (torch, 678932 bytes, 137 tensors)

model.backbone.conditional_mixing.static_proj.weight f4 [10, 10]
0	0x3dcf8945	0.10133604
1	0x3dfa50ae	0.1222242
2	0x3d691bbd	0.05691122
3	0x3ed14b63	0.40877828
4	0xbe245e56	-0.16051611
5	0x3ce79654	0.028269924
6	0xbe92275e	-0.2854566
7	0x3db3f551	0.08787025
8	0x3e088014	0.13330108
9	0xbecff10c	-0.40613592
10	0x3e4e843f	0.20167635
11	0xbc9f43c7	-0.019441498
12	0x3e9d43dd	0.30715838
13	0xbce47c2a	-0.027891237
14	0x3dc3824a	0.09546335
15	0xbd8ed827	-0.069748215
16	0x3db93f3b	0.090452634
17	0xbddb7de5	-0.10717372
18	0xbe1661fd	-0.14685817
19	0x3d9d5f22	0.07684161
20	0xbdb66f25	-0.08907918
21	0x3cfcb0fc	0.030846111
22	0xbdb2775e	-0.08714174
23	0x3e7d577d	0.24740405
24	0xbe6bf7f3	-0.23043804
25	0xbde00976	-0.109393045
26	0xbd133960	-0.03594339
27	0xbe601660	-0.21883535
28	0xbddc564f	-0.107586496
29	0xbec00bb0	-0.37508917
30	0x3e5fa0ec	0.2183873
31	0xbd82180b	-0.06352242
32	0x3e7ce69b	0.24697344
33	0xbd92e619	-0.07172794
34	0xbe000723	-0.12502722
35	0x3e229c42	0.1587992
36	0x3da21908	0.079149306
37	0x3e5333fa	0.20625296
38	0xbd88342f	-0.06650578
39	0xbddf716e	-0.10910307
40	0xbdd29115	-0.102815785
41	0x3d4b1b64	0.04958667
42	0x3e77f56f	0.24214719
43	0x3eb4c4d1	0.3530641
44	0x3df8d1a0	0.12149358
45	0xbe06ac8d	-0.1315176
46	0x3dc996a6	0.09843187
47	0x3c38d83b	0.011282022
48	0x3e497588	0.19673741
49	0xbe01d7ca	-0.12679973
50	0xbeb7efdc	-0.35925186
51	0xbe015914	-0.12631637
52	0xbdc90b70	-0.09816635
53	0x3e523e7f	0.20531653
54	0x3dc5e2ba	0.09662385
55	0x3e476b75	0.19474585
56	0xbd96f322	-0.07370593
57	0xbdcba225	-0.09943036
58	0x3e9f2a2e	0.31086868
59	0xbe35f709	-0.17770018
60	0x3d46cf03	0.048537266
61	0xbea0bdb7	-0.3139474
62	0x3e0141b7	0.12622724
63	0xbd9eb33b	-0.07749029
64	0x3e2849d1	0.16434409
65	0xbd10d08c	-0.035355136
66	0x3e4237f4	0.18966657
67	0xbe4ed02f	-0.20196603
68	0xbeab5bc9	-0.33468464
69	0xbd94f7b4	-0.07273808
70	0x3ea096f2	0.31365162
71	0x3e101c8e	0.14073393
72	0x3e99835b	0.2998303
73	0xbe68c1a3	-0.22730117
74	0xbe932cbf	-0.28745076
75	0xbe50ccca	-0.20390621
76	0xbdb53292	-0.08847536
77	0x3e6edacb	0.2332565
78	0x3dacd933	0.08439865
79	0x3e9e4b2b	0.30916724
80	0xbe24e2db	-0.16102163
81	0xbdfbe776	-0.12300007
82	0x3e085ea3	0.13317351
83	0xbd877881	-0.06614781
84	0x3e84b8ef	0.25922343
85	0xbd34e179	-0.04416034
86	0x3ea11632	0.31462246
87	0xbe0b9457	-0.13630806
88	0xbe1d5a95	-0.15366586
89	0x3d51b495	0.051197607
90	0xba2aad7c	-0.00065108365
91	0x3c40a0e7	0.011757112
92	0x3e6bc395	0.23023827
93	0x3e04872a	0.12942186
94	0xbe82df81	-0.25561145
95	0xbe317cb8	-0.17332733
96	0x3e1d8925	0.15384348
97	0xbe74b1f6	-0.23896012
98	0xbdfe8e01	-0.12429429
99	0xbe6abc1d	-0.22923322

model.backbone.conditional_mixing.static_proj.bias f4 [10]
0	0xbe8ad3c2	-0.27114683
1	0x3aa75e03	0.0012769107
2	0xbd9021bb	-0.070376836
3	0xbe981e7e	-0.29710764
4	0xbd9113e1	-0.0708387
5	0xbdf7fb92	-0.1210853
6	0xbe73518d	-0.23761578
7	0xbd2f10c5	-0.042740602
8	0xbe5250a5	-0.20538576
9	0xbe9ffb20	-0.3124628

model.backbone.conditional_mixing.gate_proj.weight f4 [10, 10]
0	0x3eac6d24	0.33677018
1	0x3dd90688	0.10596949
2	0x3e4bb878	0.19894588
3	0xbd9c4620	-0.07630563
4	0xbe43958c	-0.19100016
5	0xbe05ccbf	-0.13066386
6	0x3eca8bc2	0.39559752
7	0xbe9d35b9	-0.3070505
8	0x3b1cae5b	0.0023907635
9	0xbd06a778	-0.032874554
10	0xbcede753	-0.029040968
11	0xbe326028	-0.17419493
12	0xbded0a3d	-0.115742184
13	0xbe7119ad	-0.23544951
14	0xbe7194e5	-0.23591955
15	0xbd91f30f	-0.07126438
16	0xbe5aceb5	-0.21367915
17	0xbea63feb	-0.3247064
18	0x3e70b981	0.23508264
19	0xbe5ddfea	-0.21667448
20	0x3ec58bec	0.38583314
21	0xbc4b1070	-0.012394056
22	0xbdb505cd	-0.08838997
23	0x3e353bfe	0.17698666
24	0x3d47c2a0	0.048769593
25	0xbcd7c108	-0.026337162
26	0xbe3a8c6c	-0.18217629
27	0xbeafefe4	-0.3436271
28	0x3d92d8f1	0.071702845
29	0x3da54860	0.08070445
30	0x3dd113aa	0.10208829
31	0xbdedb44c	-0.116066545
32	0x3e49db9d	0.19712682
33	0xbe3d5ae8	-0.18491709
34	0xbc4f45f8	-0.012650959
35	0xbc72e61d	-0.014825371
36	0x3e0addf4	0.13561231
37	0x3e52a7ff	0.20571898
38	0x3e5e3834	0.21701127
39	0xbe8d6821	-0.27618507
40	0x3df6877c	0.1203756
41	0xbe8d7763	-0.27630147
42	0xbb9ccce3	-0.0047851666
43	0xbe95d489	-0.29263714
44	0x3ebd0fcd	0.36926118
45	0xbdca679c	-0.09883043
46	0x3d98c478	0.074593484
47	0x3db92333	0.09039917
48	0x3e1bbea4	0.15209442
49	0xbe307711	-0.1723292
50	0x3e9ab3f7	0.30215427
51	0xbcef7ac6	-0.029233348
52	0x3dbbcab6	0.091695234
53	0xbe7566fa	-0.23965064
54	0x3e12df4b	0.14342992
55	0x3dd4cc1e	0.10390495
56	0xbd17ac35	-0.037029464
57	0x3e70d6ef	0.2351949
58	0x3e5fbc42	0.21849158
59	0xbdb3cff4	-0.08779898
60	0xbcf598f6	-0.029980164
61	0xbd431c70	-0.047634542
62	0x3e79b40d	0.2438509
63	0xbd3a21c3	-0.045442354
64	0xbc888db5	-0.016669134
65	0x3bd91701	0.0066250567
66	0xbe8989e3	-0.26863012
67	0x3d8b9856	0.06816165
68	0x3e4b0011	0.19824244
69	0xbe52a057	-0.20568977
70	0x3e2f8ac5	0.1714278
71	0x3df12e87	0.117764525
72	0x3dbacca3	0.091210626
73	0xbe1b774c	-0.15182227
74	0x3e526fa9	0.20550407
75	0x3e7ae078	0.2449969
76	0x3de40304	0.11133388
77	0xbc930294	-0.017945565
78	0xbda3f207	-0.080051474
79	0x3d9cc5c2	0.07654907
80	0xbd49de04	-0.049283996
81	0x3ca8c3b4	0.020601131
82	0x3e40dbb9	0.18833818
83	0x3e38812d	0.18018027
84	0xbd6c8373	-0.057742547
85	0xbe3e3984	-0.18576628
86	0x3d31751b	0.04332457
87	0xbca7d2ae	-0.020486202
88	0x3e2eef71	0.17083527
89	0x3e0de04d	0.13855095
90	0xbe135614	-0.14388305
91	0xbdcdc27c	-0.100468606
92	0x3eb419cc	0.3517593
93	0x3e5d81bc	0.21631521
94	0xbbcc82cc	-0.006241178
95	0xbe06eab2	-0.13175467
96	0xbc8236de	-0.015895303
97	0xbe5cc55d	-0.21559663
98	0xbcf59315	-0.02997736
99	0x3e941b67	0.28927156

model.backbone.conditional_mixing.gate_proj.bias f4 [10]
0	0x3d975a13	0.07390227
1	0x3e220c28	0.1582495
2	0xbebab236	-0.3646409
3	0xbdb234d1	-0.0870148
4	0xbe1115db	-0.14168493
5	0x3deb118d	0.11477957
6	0x3d623566	0.055226706
7	0xbe31b95f	-0.1735587
8	0x3ca78aac	0.020451866
9	0xbee2a6e8	-0.44267964

model.backbone.conditional_mixing.feature_mixing.0.weight f4 [32, 10]
0	0xbe392bef	-0.18083166
1	0x3e528329	0.20557846
2	0xbe5b105a	-0.21392956
3	0xbb77e4a9	-0.00378255
4	0xbea32189	-0.31861523
5	0x3e113724	0.1418119
6	0x3e4673e8	0.19380152
7	0xbcb19aa8	-0.021680191
8	0xbecbe76d	-0.39825
9	0xbe95802a	-0.29199344
10	0xbe800edd	-0.2501134
11	0x3e42c076	0.1901873
12	0x3e018395	0.12647851
13	0x3ecb265d	0.39677706
14	0x3d9091b9	0.070590444
15	0xba54ab88	-0.00081127184
16	0xbcc3b55c	-0.02389019
17	0xbe8d38f4	-0.27582514
18	0xbe7ac7c9	-0.24490274
19	0xbec8c96f	-0.39216182
20	0x3e667013	0.2250369
21	0xbdb8cda9	-0.090236016
22	0xbe102df3	-0.14080028
23	0xbe4030c2	-0.187686
24	0x3bb9268a	0.005650346
25	0xbe9e3187	-0.3089716
26	0xbe020d08	-0.12700284
27	0x3e0beb74	0.13664037
28	0xbc7f8d29	-0.01559762
29	0x3e30ebec	0.17277497
30	0x3c3296f3	0.010900247
31	0xbe6bc163	-0.2302299
32	0xbd12fce0	-0.03588569
33	0xbe544919	-0.2073101
34	0xbe1eaf42	-0.15496543
35	0xbe9c4389	-0.30520275
36	0x3e79a81b	0.24380533
37	0xbe48f105	-0.19623192
38	0x3e0fdcc9	0.14049067
39	0x3de5dc4b	0.11223658
40	0x3e3143d4	0.1731103
41	0xbe0474da	-0.129352
42	0x3e639d20	0.22227907
43	0xbe753b05	-0.23948295
44	0x3e9e4447	0.30911466
45	0x3ebc2846	0.36749476
46	0xbd6b9808	-0.057518035
47	0x3dbc819e	0.0920441
48	0x3caa688b	0.020801803
49	0xbc200103	-0.009765866
50	0x3dafeb8c	0.08589849
51	0xbe97ac75	-0.29623762
52	0x3e579c4f	0.21055721
53	0x3ebdddcd	0.37083283
54	0x3e9050b8	0.28186584
55	0xbc0ba79f	-0.008523851
56	0xbeb17015	-0.34655824
57	0x3db1ad44	0.08675626
58	0x3e06ce41	0.13164617
59	0xbe3431d3	-0.17597131
60	0xbdb52235	-0.08844415
61	0xbe83acaa	-0.2571767
62	0xbce3e9bb	-0.027821412
63	0xbe61fb7e	-0.22068593
64	0xbe1d293b	-0.1534776
65	0xbe21aacd	-0.15787812
66	0xbeda06a3	-0.42583188
67	0x3e22cc23	0.15898184
68	0x3e93c213	0.28859004
69	0x3b29ad9d	0.0025890835
70	0x3e076733	0.13222961
71	0xbd2c6014	-0.042083815
72	0xbf003574	-0.50081563
73	0xbe8b68f1	-0.272285
74	0x3e56a4d7	0.20961319
75	0xbe50420b	-0.20337693
76	0xbdbd76ab	-0.0925115
77	0x3db63d86	0.088984534
78	0xbc9858e6	-0.018597078
79	0xbd7c6328	-0.061618
80	0x3d43d72c	0.047812626
81	0xbcb578c0	-0.022152305
82	0xbe0a8d9a	-0.13530579
83	0xbe73fe57	-0.23827492
84	0xbe6af3df	-0.22944592
85	0x3e75c397	0.24000393
86	0xbcf5eeab	-0.030021032
87	0x3e0f97e5	0.14022787
88	0xbde403de	-0.1113355
89	0xbd8e180b	-0.069381796
90	0x3e5da073	0.21643238
91	0x3dfbeaa3	0.12300613
92	0xbe792fe6	-0.24334678
93	0x3cbdc0b9	0.023163186
94	0x3e934cbb	0.28769478
95	0x3e5c645f	0.21522664
96	0x3e5750fc	0.21026987
97	0x3edb9008	0.42883325
98	0x3d09e69e	0.0336672
99	0x3e6c4664	0.23073727
100	0xbe7438c7	-0.23849784
101	0xbdcef3ba	-0.10105081
102	0x3e760983	0.24027066
103	0x3c606c46	0.013697689
104	0xbe987524	-0.2977687
105	0xbe8a271b	-0.2698296
106	0xbe6bf64c	-0.23043174
107	0xbeb3b911	-0.35102132
108	0xbe3fef46	-0.1874362
109	0xbde2a824	-0.110672265
110	0x3e59f612	0.21285275
111	0x3d4f26a1	0.05057395
112	0xbed986c4	-0.4248563
113	0xbea9a0dd	-0.3313054
114	0x3dde3764	0.10850409
115	0xbe887fe2	-0.26660067
116	0xbd642d30	-0.055707157
117	0x3e1ef56a	0.15523306
118	0xbd43e9cb	-0.047830384
119	0xbd832147	-0.064028315
120	0xbd9175cd	-0.07102547
121	0xbe268079	-0.16259946
122	0xbe0e9686	-0.13924608
123	0xbeabb320	-0.335351
124	0xbebed8e9	-0.37274864
125	0xbdfe6df2	-0.12423314
126	0x3e8c5f99	0.27416685
127	0xbe19db37	-0.1502503
128	0xbe36ae80	-0.17840004
129	0x3e601afb	0.21885292
130	0x3d939ede	0.07208036
131	0x3e5baa22	0.2145162
132	0x3e26fc47	0.16307174
133	0x3e8237c2	0.25433165
134	0xbe90c896	-0.28278035
135	0x3d12d3f8	0.03584668
136	0x3e7008af	0.23440813
137	0x3d94d729	0.07267601
138	0xbde3f519	-0.11130733
139	0x3e916d5e	0.28403753
140	0xbe4a3531	-0.19746853
141	0xbe814a29	-0.25251892
142	0xbeda4361	-0.4262953
143	0xbdb5d304	-0.08878139
144	0x3d4593f9	0.04823682
145	0x3dc6bea5	0.09704331
146	0x3be920ae	0.0071144914
147	0xbe8b9cbd	-0.2726802
148	0xbdedff94	-0.11621013
149	0x3d776c47	0.060405996
150	0x3e7b5aac	0.24546307
151	0x3e126b78	0.14298809
152	0xbe1e8729	-0.15481247
153	0xbe9fb0f0	-0.3118968
154	0xbe8b1fb6	-0.2717263
155	0xbdecacb4	-0.11556378
156	0x3ce0a539	0.027422534
157	0x3e1b3395	0.15156396
158	0x3e8d3a3a	0.27583486
159	0xbeb72330	-0.35769033
160	0x3e0f639c	0.14002842
161	0xbe58ccba	-0.21171847
162	0x3e2bb2ed	0.16767474
163	0x3ef15244	0.47133076
164	0x3d3e6b07	0.046488788
165	0x3e9a11cd	0.30091706
166	0xbe96748f	-0.29385802
167	0xbe2146f0	-0.15749717
168	0x3e997f19	0.2997978
169	0xbdb39131	-0.087679274
170	0xbd961021	-0.07327295
171	0xbd8fdd96	-0.07024686
172	0x3d6a497c	0.057198986
173	0x3e20f691	0.15719058
174	0x3e3fadcd	0.18718643
175	0xbe9d1656	-0.30681103
176	0xbea32cda	-0.31870157
177	0x3dae712a	0.08517678
178	0x3c16e588	0.009209998
179	0xbe733eaf	-0.2375438
180	0xbca79440	-0.020456433
181	0x3e5f7f49	0.21825899
182	0xbc827be4	-0.015928216
183	0x3dddc584	0.10828689
184	0xbe1984a2	-0.14992002
185	0xbe9eab46	-0.30990046
186	0xbe868a88	-0.26277566
187	0xbe5d06fa	-0.21584693
188	0xbe16a8a3	-0.14712767
189	0x3daa3977	0.08311742
190	0xbdbca626	-0.09211378
191	0xbe336cf3	-0.1752203
192	0x3e19a5ee	0.15004703
193	0x3e8e13f9	0.27749613
194	0x3e7c1123	0.24615912
195	0xbe83c021	-0.2573252
196	0xbdca407a	-0.09875579
197	0x3e270593	0.1631072
198	0xbe1a25c2	-0.15053466
199	0xbe822f10	-0.2542653
200	0x3cc078e8	0.023495153
201	0xbd950bdc	-0.072776526
202	0xbe033f0b	-0.12817018
203	0x3e604022	0.21899465
204	0x3e7f3dfd	0.2492599
205	0x3d2da966	0.04239788
206	0x3d62a425	0.05533232
207	0xbea76b12	-0.32698876
208	0xbddba787	-0.10725313
209	0xbd4c16d6	-0.049826466
210	0x3e2bb2c2	0.1676741
211	0xbc5d1de9	-0.013495901
212	0xbdaff7de	-0.08592199
213	0x3e050c7a	0.1299304
214	0xbe5bc8d0	-0.21463323
215	0x3e3a40a5	0.18188722
216	0xbcf711c6	-0.030159842
217	0xbd3e2a5b	-0.046427112
218	0xbd6f8b84	-0.05848266
219	0x3cb72e6a	0.022361
220	0xbdf2e0d1	-0.118592866
221	0x3e481cbf	0.19542216
222	0x3d33f731	0.043936912
223	0x3eac79c4	0.3368665
224	0x3e997483	0.29971704
225	0xbe4227b9	-0.18960465
226	0xbe8c4079	-0.2739294
227	0x3e9cfcea	0.30661708
228	0x3e844d87	0.258404
229	0xbe756b09	-0.23966612
230	0xbdc08c7e	-0.09401797
231	0xbebc45c6	-0.36771983
232	0xbea5b6d4	-0.3236605
233	0xbd376ee3	-0.044783484
234	0x3d4693eb	0.04848091
235	0x3dce0b18	0.1006071
236	0xbd88ee66	-0.06686096
237	0x3e9f299f	0.31086442
238	0x3dc3b3e4	0.09555796
239	0xbead41b2	-0.33839184
240	0x3ce21327	0.027597023
241	0x3d96540f	0.07340252
242	0x3e2a0c14	0.1660617
243	0xbf148ca9	-0.5802713
244	0x3d7d0c2e	0.061779194
245	0xbe0bcf6d	-0.13653345
246	0xbeaeccd5	-0.3414065
247	0xbe46f8b7	-0.19430815
248	0x3e9f8bf6	0.3116147
249	0x3e5eca65	0.21756895
250	0x3e53c532	0.20680693
251	0x3d28f209	0.041246448
252	0x3e8702ad	0.2636923
253	0xbe449e62	-0.19201043
254	0xbea8fb83	-0.33004388
255	0x3e213b3e	0.15745255

model.backbone.conditional_mixing.feature_mixing.0.bias f4 [32]
0	0xbe4a89de	-0.19779155
1	0xbd1e6624	-0.038671628
2	0xbde8d512	-0.11368765
3	0x3df26b19	0.118368335
4	0x3ed4e5a0	0.4158144
5	0xbd96860e	-0.07349788
6	0x3dc8a1af	0.09796464
7	0x3ebf6c53	0.37387332
8	0x3e83e86e	0.25763267
9	0xbe081857	-0.13290535
10	0xbe0b27d5	-0.13589413
11	0x3e0a4772	0.13503817
12	0xbd71679c	-0.0589367
13	0x3e316a1e	0.17325637
14	0xbd6786ad	-0.05652492
15	0xbe5ec7c2	-0.21755889
16	0x3e72a9da	0.23697606
17	0x3d903b18	0.07042521
18	0x3e2a7a4e	0.16648218
19	0x3eaff6e5	0.34368053
20	0x3e9fc406	0.31204242
21	0x3ed56bcd	0.41683808
22	0xbc9b4398	-0.01895313
23	0xbe5c4dd1	-0.2151406
24	0xbdb82bc9	-0.08992726
25	0xbe86d4ec	-0.26334321
26	0xbe462f27	-0.19353925
27	0xbe2db078	-0.16961849
28	0xbe835064	-0.2564727
29	0xbe6b6081	-0.22986032
30	0xbe3db91c	-0.18527645
31	0xbeaa7f31	-0.33300164

model.backbone.conditional_mixing.feature_mixing.2.weight f4 [10, 32]
0	0xbe13b17f	-0.14423178
1	0x3d2bef7b	0.041976433
2	0x3d9b0a45	0.07570318
3	0xbd7de255	-0.061983425
4	0xbdeeb080	-0.116547585
5	0x3e11d371	0.14240815
6	0xbe02270b	-0.12710206
7	0xbdcf2f43	-0.10116436
8	0x3d3c72d3	0.046007942
9	0xbe5a2cd9	-0.2130617
10	0xbd575da6	-0.052579544
11	0x3db547b4	0.08851567
12	0xbdaf9a6b	-0.08574375
13	0x3ddc4278	0.107548654
14	0xbe3d39ba	-0.18479052
15	0xbd98659f	-0.07441258
16	0x3d98734f	0.07443868
17	0x3e26a105	0.16272362
18	0x3cdc8a9a	0.02692156
19	0x3e570685	0.20998581
20	0xbdfc9e80	-0.12334919
21	0x3c8929ec	0.016743623
22	0xbcc2be35	-0.023772338
23	0xbd406038	-0.04696676
24	0xbdad923b	-0.08475157
25	0xbe6dc137	-0.23218237
26	0x3e93621f	0.28785798
27	0xb9e1a961	-0.0004304154
28	0x3d1190ed	0.035538603
29	0x3e27c888	0.1638509
30	0xbe217006	-0.1576539
31	0x3c82ed40	0.01598227
32	0x3d717f04	0.058959022
33	0xbdafe277	-0.085881166
34	0xbde65b38	-0.11247867
35	0xbdb0a039	-0.0862431
36	0x3dd8284c	0.10554561
37	0x3e2d0d1a	0.16899529
38	0x3e07f552	0.13277176
39	0xbe491d88	-0.19640172
40	0xbe0aadcb	-0.1354286
41	0x3e11da83	0.14243512
42	0x3cffcb1b	0.031224778
43	0xbdbe714d	-0.09298954
44	0x3e41b3ee	0.18916294
45	0xbb21aabb	-0.0024668414
46	0xbbac8471	-0.0052648117
47	0x3da7684c	0.0817419
48	0x3c1b75b5	0.009488513
49	0xbcbc4f86	-0.022987138
50	0xbe632637	-0.22182547
51	0xbe0b8e27	-0.13628446
52	0xbd83bdb8	-0.0643267
53	0xbe08de7b	-0.1336612
54	0xba8391c8	-0.0010037953
55	0xbb8e29e6	-0.004338491
56	0x3c22242f	0.009896322
57	0x3d7d6496	0.061863504
58	0xbd0a0c9f	-0.033703443
59	0xbddfa729	-0.10920555
60	0x3e008c87	0.12553607
61	0x3e6061ae	0.21912262
62	0xbdf04eaa	-0.11733754
63	0x3d4ba6a6	0.049719475
64	0xbe3bad3d	-0.18327804
65	0xbda48483	-0.08033087
66	0x3d923f75	0.0714101
67	0xbc99b00c	-0.018760704
68	0xbaa16b3d	-0.0012315285
69	0xbd3f4d93	-0.04670484
70	0x3e30aed0	0.17254186
71	0x3e0673fd	0.13130184
72	0xbe86a51c	-0.26297843
73	0xbd3e6fd4	-0.046493366
74	0x3cccada0	0.024985135
75	0x3bd6cdd3	0.006555298
76	0xbdb5a48d	-0.08869276
77	0xbe49789e	-0.19674918
78	0x3e188269	0.14893498
79	0x3d2801ad	0.041017223
80	0x3e1866ac	0.14882916
81	0x3e0c06f5	0.13674529
82	0x3dbb099f	0.091326945
83	0x3e2e8fd4	0.17047054
84	0xbca09865	-0.019603917
85	0xbe26ddc6	-0.16295537
86	0x3d8512d9	0.064977355
87	0x3e825b44	0.25460255
88	0x3e1e9ec4	0.15490252
89	0x3ca309d4	0.019902147
90	0xbe820c47	-0.25399992
91	0x3e3d43ee	0.18482944
92	0x3b11b444	0.002223269
93	0x3d2e6ed3	0.04258616
94	0x3e299442	0.16560462
95	0xbde51290	-0.11185181
96	0x3d8b1a44	0.06792119
97	0xbe3499f7	-0.17636858
98	0xbe3cd1e6	-0.18439445
99	0x3cc1e16c	0.02366706
100	0x3e45dc0e	0.19322225
101	0x3df38587	0.11890703
102	0xbe0ff647	-0.14058791
103	0x3e332530	0.17494655
104	0xbc1788f6	-0.009248963
105	0x3cc0eae7	0.02354951
106	0xbe429d72	-0.19005373
107	0x3d24506b	0.040115755
108	0x3d285dbf	0.04110503
109	0xbd87a9d2	-0.066241875
110	0xbe0651f6	-0.13117203
111	0x3d21652e	0.039403133
112	0xbdfcb968	-0.12340051
113	0x3e2332d7	0.15937363
114	0xbe1af5d6	-0.15132841
115	0xbd70a323	-0.05874933
116	0xbe4a8215	-0.19776185
117	0xbda84100	-0.08215523
118	0x3e000a83	0.1250401
119	0x3cf4431f	0.029817162
120	0xbe7937b3	-0.24337654
121	0x3e0c0d0a	0.13676849
122	0x3d987580	0.07444286
123	0x3e21bfa3	0.1579576
124	0x3dd2b6ce	0.102887735
125	0xbd3923a1	-0.045199994
126	0xbcbe5904	-0.023235805
127	0x3e7c2537	0.24623571
128	0x3d1226ca	0.035681523
129	0xbe269322	-0.16267064
130	0x3d960ca0	0.07326627
131	0xbd086e67	-0.033308413
132	0x3e03e02a	0.1287848
133	0xbe66dcdd	-0.2254519
134	0x3e39a8a5	0.18130739
135	0x3d68ba7f	0.05681848
136	0xbdde307b	-0.10849091
137	0xbd6e4d8b	-0.05817942
138	0xbd21cc65	-0.039501566
139	0x3d65a487	0.05606511
140	0x3e0fe28f	0.14051269
141	0xbe0aaa5f	-0.13541554
142	0x3e1d5a13	0.15366392
143	0x3e167768	0.14693987
144	0x3ddb3fb7	0.10705512
145	0xbe759f14	-0.23986465
146	0xbd60edf7	-0.05491444
147	0xbdc1dab9	-0.09465546
148	0xbd01bcc7	-0.031674173
149	0x3e0799de	0.1324229
150	0xbd4878d1	-0.048943345
151	0x3e236a4c	0.15958518
152	0x3eb41c5d	0.3517789
153	0x3e03828e	0.12842771
154	0x3d1e7237	0.038683143
155	0xbe842659	-0.25810507
156	0xbe2baf62	-0.16766122
157	0x3dd816d8	0.10551232
158	0xbd3acc9c	-0.045605287
159	0xbeb7e827	-0.35919306
160	0xbe383197	-0.17987667
161	0x3e01baf0	0.12668967
162	0x3ea07c9e	0.31345075
163	0x3e92758c	0.28605306
164	0xbe94d87c	-0.29071414
165	0xbd8b036d	-0.06787763
166	0x3e055c42	0.13023475
167	0x3e32afa2	0.17449811
168	0xba44a9fe	-0.00075021375
169	0x3db316b3	0.08744564
170	0x3e0bf33f	0.1366701
171	0x3e845f1e	0.2585382
172	0xbd0521c7	-0.032502916
173	0xbe8ab172	-0.27088505
174	0x3de57871	0.11204613
175	0x3deb0c90	0.114770055
176	0xbe5e8454	-0.21730167
177	0x3e787bcd	0.24265976
178	0x3e011ace	0.12607881
179	0xbb56aeb0	-0.003275793
180	0xbe6d2dfb	-0.23162071
181	0xbe54edc4	-0.20793825
182	0x3e06432f	0.13111566
183	0xbdba152e	-0.09086071
184	0x3e7680f0	0.24072623
185	0xbd8445fb	-0.0645866
186	0xbb7a7fa9	-0.0038223064
187	0x3ea07451	0.31338742
188	0xbdd0a6e2	-0.1018808
189	0x3df57e37	0.11986964
190	0x3ddb66f7	0.10712998
191	0x3dfb9fad	0.12286315
192	0xbe8d30fc	-0.27576435
193	0x3e2ad781	0.1668377
194	0x3d08c6ea	0.033392824
195	0xbe6b3b39	-0.2297181
196	0xbe519be9	-0.20469631
197	0x3e78e7fc	0.24307245
198	0x3d9c5212	0.07632841
199	0xbb8ec3e7	-0.0043568495
200	0xbdfd3288	-0.12363154
201	0xbd03cf8f	-0.032180365
202	0x3d8a0eea	0.06741126
203	0xbdc0dd82	-0.09417249
204	0xbcfce71c	-0.03087192
205	0x3dacc83b	0.084366284
206	0x3dad5451	0.08463348
207	0xbc8425e9	-0.016131358
208	0x3dfa9a15	0.1223642
209	0xbd99878b	-0.07496556
210	0xbcb3807d	-0.021911854
211	0x3c60ec3a	0.013728196
212	0xbdc8ea1f	-0.0981028
213	0xbe29400b	-0.16528337
214	0x3d8a1436	0.06742136
215	0x3e258209	0.16162886
216	0xbd604414	-0.054752424
217	0x3ecaa958	0.39582324
218	0x3dcbcb6c	0.09950909
219	0x3e10a208	0.1412431
220	0x3ea4db3e	0.3219852
221	0xbccb18fe	-0.02479219
222	0x3e464f5f	0.19366215
223	0x3d9df968	0.07713586
224	0xbc4e6681	-0.012597681
225	0xbd216b94	-0.039409235
226	0xbd509bfd	-0.050930012
227	0x3e5ab9d2	0.21359947
228	0xbd0cbf70	-0.034362257
229	0xbbc16fe3	-0.0059032305
230	0xbe05f3e5	-0.1308132
231	0x3de38fbd	0.111114
232	0xbd44f376	-0.048083745
233	0xbe30d2b2	-0.17267874
234	0x3d8f950b	0.070108496
235	0x3dd685b7	0.10474723
236	0x3e8348f7	0.25641605
237	0xbdf6095f	-0.12013506
238	0xbd311e3d	-0.043241728
239	0x3d4c9f58	0.04995665
240	0xba8e3d3d	-0.0010851991
241	0xbbfa2928	-0.0076343007
242	0x3da3d923	0.080004
243	0xbd9d7cd3	-0.07689824
244	0x3da8c449	0.082405634
245	0x3df601c1	0.12012053
246	0xbde85229	-0.11343796
247	0x3e353ff1	0.17700173
248	0x3e85168a	0.25993758
249	0x3e99f89c	0.30072486
250	0xbe7eae57	-0.24871193
251	0xbe1e9f0b	-0.15490358
252	0xbe3442af	-0.17603563
253	0x3dd19c11	0.102348454
254	0x3d859137	0.06521838
255	0xbe64fc8c	-0.22361964

model.backbone.conditional_mixing.feature_mixing.2.bias f4 [10]
0	0xbc93ca56	-0.018040817
1	0xbd2dcdb1	-0.04243249
2	0x3dddf0d3	0.10836949
3	0x3d9501d9	0.07275743
4	0xbcd1fdbc	-0.025633685
5	0xbe6a76d6	-0.22896895
6	0xbe057b0f	-0.13035224
7	0xbda7c9a7	-0.08192759
8	0x3eb4fb75	0.35348096
9	0x3dd1ccc4	0.10244134

model.backbone.conditional_mixing.norm.weight f4 [10]
0	0x3f7c1e1b	0.9848344
1	0x3f59a899	0.85022885
2	0x3f8081e0	1.0039635
3	0x3f3ff72c	0.7498653
4	0x3f7dc6e7	0.99131626
5	0x3f679b3e	0.90471256
6	0x3f7ff3a4	0.9998114
7	0x3f87b6b3	1.060263
8	0x3f59222f	0.84817785
9	0x3f8267fa	1.0187981

model.backbone.conditional_mixing.norm.bias f4 [10]
0	0x3d74ac17	0.05973443
1	0x3e13f6b5	0.1444958
2	0x3bc6ccf2	0.006066912
3	0xbd0ee945	-0.034890432
4	0x3cff6137	0.031174285
5	0x3dd878e5	0.10569934
6	0x3dd336de	0.103131995
7	0x3c81b930	0.015835375
8	0xbe247614	-0.16060668
9	0x3a2ea3e0	0.00066619925

model.backbone.layers.0.temporal.mixing.0.weight f4 [32, 128]
0	0x3d9c18ea	0.076219395
1	0xbb5b72d7	-0.0033485198
2	0x3aba9048	0.0014233673
3	0x3c40ab6b	0.011759619
4	0xbdc9385c	-0.09825203
5	0xbbcef630	-0.006315969
6	0xbcdb43b7	-0.026765687
7	0xbd919e8e	-0.0711032
8	0xbde68736	-0.11256258
9	0x3c53a550	0.012917832
10	0x3d1e3d6c	0.038632795
11	0x39d9775c	0.00041478395
12	0x3d0d32a3	0.03447212
13	0xbdbcd9c6	-0.092212245
14	0xbd4191b8	-0.04725811
15	0xbcaabb31	-0.020841213
16	0xbd0ea108	-0.03482154
17	0xbbfb9202	-0.0076773176
18	0xbdb0534b	-0.08609637
19	0x3cfc7c05	0.030820856
20	0xbcc0ced6	-0.023536127
21	0x3ced0c14	0.028936423
22	0x3d9c80e3	0.07641771
23	0xbd7f0e24	-0.062269345
24	0xbd3ed477	-0.04658934
25	0x3b95c48c	0.0045705494
26	0xbd300cbc	-0.042980894
27	0xbd177eb9	-0.036986087
28	0x3d58a8eb	0.052895468
29	0xbd0fc475	-0.035099465
30	0xbb9a4227	-0.004707593
31	0xbd2a8e4e	-0.04163962
32	0xbbf1c4f9	-0.0073782173
33	0xbd20a40d	-0.03921895
34	0xbce7473d	-0.028232211
35	0x3bd5b0d7	0.006521325
36	0x3d21d408	0.03950885
37	0xbcb96f85	-0.022636184
38	0xbd9ad1d9	-0.075595565
39	0xbce91e95	-0.028456965
40	0xbd36227f	-0.04446649
41	0xbd0088c7	-0.03138044
42	0xbdb161f5	-0.08661262
43	0x3bd1ec3f	0.0064063366
44	0xbd707fe3	-0.058715712
45	0xbd67de07	-0.056608226
46	0xbcda0126	-0.026611876
47	0x3ce4a6d5	0.027911583
48	0xbd883d04	-0.06652263
49	0xbd85c335	-0.065313734
50	0x3d3c94ba	0.046040274
51	0x3d7fb777	0.062430825
52	0x3d6725dd	0.056432594
53	0xbd6ebd74	-0.058286145
54	0xbda6145f	-0.08109354
55	0xbaaa03a8	-0.001297106
56	0x3d3c558e	0.04598003
57	0xbc5102bb	-0.012756999
58	0xbdaa48ba	-0.08314653
59	0x3d6f4459	0.05841479
60	0xbc7d7350	-0.015469387
61	0xbc8aac6a	-0.016927917
62	0xbb0d2269	-0.0021535403
63	0x3d81d391	0.06339181
64	0x3cd0b889	0.025478618
65	0x3afc96d5	0.0019271026
66	0x3d029e9f	0.031889554
67	0x3c82be6f	0.015959946
68	0x3d188b6a	0.03724233
69	0x3cd98b85	0.026555786
70	0x3d86d426	0.06583433
71	0xbd3c9fbf	-0.046050783
72	0x3d811c23	0.06304195
73	0xbc087f17	-0.008331082
74	0xbcd473ca	-0.025934119
75	0x3ca0077f	0.019534824
76	0x3d958b1e	0.07301925
77	0x3db00fbe	0.085967526
78	0x3d07638e	0.033053927
79	0xbcecef00	-0.028922558
80	0x3c9d4be9	0.019201236
81	0x3d5f5e72	0.05453343
82	0xbd526148	-0.051362306
83	0xbcc80b79	-0.024419533
84	0xbd1a0600	-0.03760338
85	0x3c200e28	0.009769
86	0x3b15eb6f	0.0022875925
87	0xbcc8a487	-0.024492515
88	0xbb5deeb9	-0.0033864214
89	0x3cad7aad	0.02117666
90	0xbcde47e3	-0.027133888
91	0xbd6b3441	-0.05742288
92	0x3d67c8ad	0.056587864
93	0xbcca99b3	-0.024731493
94	0xbb2d5d87	-0.0026453452
95	0x3cf76c3e	0.030202981
96	0xbcc16eaa	-0.023612339
97	0xbdac1388	-0.08402163
98	0x3d49820f	0.0491963
99	0xbd2bab3c	-0.04191135
100	0xbd1b403b	-0.03790305
101	0x3cb494d8	0.02204363
102	0xbc5d2ff0	-0.013500199
103	0xbbfae639	-0.007656839
104	0x3ba2e5c1	0.0049712365
105	0xbcc5edfd	-0.024161333
106	0xbc2ec8d5	-0.010667999
107	0x3c8e141d	0.017343575
108	0x3d2fe38b	0.04294161
109	0xb953ae92	-0.0002018756
110	0xbccc3b0a	-0.024930496
111	0xbc009f8d	-0.00785054
112	0xbc75b189	-0.014995941
113	0x3d3420d4	0.04397662
114	0xbdb0fa9b	-0.08641549
115	0x3d004d1c	0.031323537
116	0x3d4f0d89	0.050550018
117	0x3cd13196	0.02553634
118	0xbdb08368	-0.08618814
119	0xbd0fa85b	-0.035072666
120	0xbda08f6c	-0.078398556
121	0xbd707052	-0.058700867
122	0x3cd16016	0.025558513
123	0xbc7bb51c	-0.015363004
124	0x3bc96e38	0.0061471723
125	0xbda483bc	-0.08032939
126	0x3cc62869	0.024189191
127	0xbe612414	-0.21986419
128	0x3c34ebda	0.0110425595
129	0xbd41c224	-0.047304288
130	0xbd609612	-0.05483062
131	0xbcc992c1	-0.02460611
132	0x3cc547ff	0.024082182
133	0x3d7811bb	0.060563784
134	0x3d08d9ba	0.033410765
135	0xbd179393	-0.037005972
136	0x3b8a712d	0.0042249174
137	0x3be449a0	0.0069667846
138	0xbd821983	-0.06352522
139	0x3d45cf19	0.048293207
140	0x3c6001ed	0.013672334
141	0x3d8a44fb	0.06751438
142	0xbd1927d3	-0.037391495
143	0xbbcaf3d7	-0.0061936188
144	0x3c89e77e	0.016834017
145	0xbc379295	-0.0112043815
146	0x3c4770f0	0.0121729225
147	0xbd1b534a	-0.037921228
148	0x3cad34e4	0.021143384
149	0xbdc48daf	-0.095973365
150	0xbdf75e34	-0.12078515
151	0xbd90afd2	-0.07064785
152	0x3c887a5d	0.01665991
153	0xbd378786	-0.04480698
154	0xbdaa8589	-0.08326251
155	0xbd786cf8	-0.060650796
156	0x3afd5dc6	0.0019330315
157	0xbd0e4011	-0.034729067
158	0xbd041dc5	-0.032254953
159	0x3d4e420e	0.050355963
160	0x3d377657	0.044790592
161	0x3d953493	0.07285418
162	0xbd9ee661	-0.07758785
163	0x3d9001ba	0.07031579
164	0xbd243d6f	-0.04009765
165	0x3dbbe474	0.09174433
166	0x3d9fba8d	0.077992536
167	0x3dadcfc0	0.08486891
168	0x3d0808b3	0.03321142
169	0x3d896547	0.0670877
170	0xbc3a6205	-0.011375909
171	0x3d628da6	0.055310868
172	0xbc9a717d	-0.018852944
173	0x3cbcce6e	0.023047652
174	0xbd09ef3a	-0.03367541
175	0x3d19ff46	0.037596963
176	0xbd3bbc52	-0.045833893
177	0xbcfcca0b	-0.03085806
178	0xbd2e28a5	-0.04251923
179	0xbd54a351	-0.051913563
180	0xbd594c5e	-0.053051345
181	0xbd9636fa	-0.07334705
182	0xbccf1707	-0.025279535
183	0x3c3d469c	0.011552479
184	0x3d38bc2c	0.04510133
185	0x3d18f1a2	0.037339814
186	0xbcfc6dd2	-0.030814085
187	0xbd85310e	-0.06503497
188	0x3ccd90e1	0.025093498
189	0x3d491377	0.04909083
190	0xbdb52e65	-0.0884674
191	0x3c05af95	0.008159538
192	0x3b9432d5	0.004522661
193	0xbd1cd850	-0.03829223
194	0xbd545f29	-0.051848564
195	0x3d7fe8e0	0.062477946
196	0x3d304d00	0.043042183
197	0x3d8bdac7	0.06828838
198	0xbdb6fb48	-0.08934647
199	0x3ceafed3	0.028685963
200	0xbd854b05	-0.065084495
201	0x3ce19411	0.027536424
202	0xbd83f035	-0.064423
203	0x3d41a557	0.04727682
204	0xbba7735e	-0.0051101884
205	0x3bd5d77f	0.0065259333
206	0xbbceaf43	-0.006307514
207	0x3c9397c5	0.018016705
208	0x3b94d4c6	0.004541966
209	0xbd4d7554	-0.05016072
210	0xbd6a2736	-0.0571663
211	0x3db97121	0.09054781
212	0xbc8d9003	-0.017280584
213	0x3d0b34e9	0.033986006
214	0xbc8c7796	-0.017146867
215	0x3d35e5e5	0.044408698
216	0x3c9575bb	0.018244615
217	0x3c5fc801	0.0136585245
218	0xbc9f3f74	-0.019439436
219	0xbd989691	-0.07450593
220	0xbcc0c18a	-0.023529787
221	0xbd4ae05c	-0.049530372
222	0x3d90749f	0.07053494
223	0xbdc4af13	-0.09603705
224	0x3cdcd7e8	0.02695842
225	0x3d5a13ad	0.05324142
226	0x3bfcaa55	0.007710735
227	0x3cab81cd	0.020935917
228	0xbd3aefde	-0.04563891
229	0x3df58102	0.11987497
230	0xbc7c1d03	-0.015387776
231	0xbd4ef3cf	-0.050525483
232	0x3de493e5	0.11161021
233	0x3cd238cf	0.025661854
234	0x3d045fda	0.032317974
235	0x3de35cc7	0.1110168
236	0xbd3e6a27	-0.046487954
237	0xbd48556b	-0.048909586
238	0x3c701ce2	0.014655324
239	0xbc188743	-0.009309593
240	0x3db4f8cb	0.08836516
241	0xbd34a3fc	-0.0441017
242	0x3cf80b8b	0.030278942
243	0xbbfcdba6	-0.007716614
244	0x3d02623b	0.03183196
245	0xbd385c55	-0.04500993
246	0x3dda5f61	0.10662723
247	0x3d517514	0.051137045
248	0xbcf31427	-0.029672695
249	0x3dbc2818	0.09187335
250	0x3d40ff8c	0.04711871
251	0x3cf63a52	0.030057106
252	0xb9154dc5	-0.00014238719
253	0x3d290bb6	0.041270934
254	0x3e084c2a	0.13310304
255	0x3e5153e4	0.20442158

model.backbone.layers.0.temporal.mixing.0.bias f4 [32]
0	0xbd860f59	-0.06545896
1	0x3c871dfd	0.016493792
2	0x3e2fce1e	0.17168471
3	0xbe1f8023	-0.15576224
4	0xbc857ca7	-0.01629479
5	0xbdb03def	-0.08605563
6	0x3e0025ba	0.12514392
7	0xbda42b98	-0.08016127
8	0x3cfceabf	0.030873654
9	0x3cf879e2	0.030331556
10	0xbd7754cc	-0.060383603
11	0xbd8101e0	-0.06299186
12	0x3d4719ee	0.048608713
13	0xbdea08bf	-0.114274494
14	0x3caa6b23	0.02080304
15	0x3d46d85a	0.048546173
16	0xbcc91f8a	-0.024551172
17	0x3deca722	0.115553156
18	0x3d99ae7a	0.07503982
19	0xbd1b7ec5	-0.037962694
20	0x3c2a8a07	0.010408885
21	0xbdaf084c	-0.085465044
22	0x3dfc443a	0.12317701
23	0x3c3c9b83	0.011511686
24	0xbdb31802	-0.087448135
25	0xbdbcb0f6	-0.0921344
26	0x3dd7710f	0.10519611
27	0x3ce8fd10	0.028440982
28	0xbcf18685	-0.02948309
29	0x3cba037b	0.022706738
30	0xbc1b669e	-0.009484915
31	0xbcdb59b7	-0.026776178

model.backbone.layers.0.temporal.mixing.2.weight f4 [128, 32]
0	0xbe261b22	-0.16221288
1	0x3e05e124	0.13074166
2	0x3e3f80eb	0.18701522
3	0xbe664554	-0.22487384
4	0xbd615501	-0.055012707
5	0x3d89fed8	0.06738061
6	0xbe3ad09a	-0.18243638
7	0x3d51144d	0.05104475
8	0xbe74f035	-0.23919757
9	0xbd950555	-0.07276408
10	0xbdc39878	-0.095505655
11	0x3e043d54	0.1291402
12	0xbd8e8ac9	-0.06960065
13	0x3d8851fc	0.06656262
14	0x3caddb4e	0.021222737
15	0x3e27d6e9	0.16390575
16	0x3e11e6f6	0.14248261
17	0x3dbcc4e8	0.092172444
18	0x3e00b4f8	0.12569034
19	0xbcade7da	-0.02122872
20	0xbdd40126	-0.103517815
21	0x3ceaac86	0.028646719
22	0x3e3ca1b9	0.18421067
23	0xbdc5b203	-0.09653094
24	0xbe5903a5	-0.21192797
25	0xbdfde0b0	-0.12396371
26	0xbdb2f4a4	-0.08738068
27	0x3d085f78	0.03329417
28	0xbc2d8060	-0.010589689
29	0xbde1486b	-0.11000141
30	0xbd82f442	-0.06394245
31	0x3d8d22d5	0.06891409
32	0xbe2a3c6a	-0.16624609
33	0x3e06286a	0.13101354
34	0x3c5d3982	0.01350248
35	0xbd05e572	-0.03268952
36	0x3c5a8085	0.0133363055
37	0xbd90c007	-0.07067876
38	0x3dbd8dd7	0.092555694
39	0xbd3af06f	-0.04563945
40	0x3d8dd531	0.06925429
41	0xbe6f4698	-0.23366773
42	0xbc929f94	-0.017898358
43	0x3d502da5	0.05082478
44	0xbb6f5e96	-0.0036524883
45	0xbc2d3202	-0.010571005
46	0x3dfdb625	0.12388257
47	0x3d707810	0.05870825
48	0x3da104ab	0.078622185
49	0xbd983d40	-0.074335575
50	0xbaa0fbc4	-0.0012282063
51	0xbe3cb435	-0.18428119
52	0xbe58cf27	-0.21172772
53	0xbe0f100e	-0.13970968
54	0xbda48adb	-0.08034297
55	0xbe15a24e	-0.14612696
56	0xbe4ff273	-0.20307331
57	0x3db351db	0.08755847
58	0x3c687f06	0.014190441
59	0xbe0174bf	-0.12642191
60	0x3d2952b8	0.041338652
61	0xbe020cde	-0.12700221
62	0x3d940181	0.07226849
63	0x3d8dd613	0.06925597
64	0xbd29f47f	-0.041492935
65	0x3e2e51ca	0.17023388
66	0x3ce3135b	0.02771919
67	0xbdaad808	-0.08341986
68	0x3e597c8f	0.21238922
69	0xbce93c82	-0.028471235
70	0x3c631cb0	0.01386182
71	0x3ce968d8	0.028492376
72	0xbb244bd0	-0.0025069602
73	0x3e0a36f8	0.13497531
74	0x3df6b4a1	0.12046171
75	0x3d862c0f	0.06551372
76	0x3d7523a0	0.059848428
77	0x3ddc46c6	0.107556865
78	0xbc77f213	-0.015133399
79	0x3da131e2	0.078708425
80	0x3dcd0b32	0.10011901
81	0x3e0b0658	0.13576639
82	0x3e0027a9	0.12515129
83	0x3cb03c46	0.021513116
84	0x3d2fd5ee	0.04292863
85	0x3d1cf20b	0.038316768
86	0x3d37f5c9	0.044912133
87	0x3e2b0faf	0.16705202
88	0xbdac2e40	-0.08407259
89	0x3e11a437	0.14222799
90	0xbca90ff1	-0.020637484
91	0xbe5c05a5	-0.21486528
92	0xbdca22f6	-0.098699495
93	0xbd2784e6	-0.040898226
94	0x3e3f9727	0.18710004
95	0xbd1fd9ba	-0.039026
96	0x3cd6f308	0.026238933
97	0x3de21f39	0.110411115
98	0xbe65af7e	-0.22430226
99	0x3cfa3309	0.030541914
100	0x3da47a1a	0.080311015
101	0xbe529aef	-0.20566915
102	0xbe30f511	-0.17280985
103	0xbe572ecc	-0.21013945
104	0x3dfadc9a	0.12249108
105	0x3d6369ee	0.055520944
106	0x3dbfde6e	0.09368597
107	0x3e03e78c	0.12881297
108	0x3d0aa460	0.033848166
109	0x3d254d84	0.040357128
110	0xbcb29a94	-0.021802224
111	0xbe209e0f	-0.15685295
112	0x3e6cfa6f	0.23142408
113	0xbc10d983	-0.008840921
114	0xbda25e63	-0.07928159
115	0xbd90724d	-0.07053051
116	0x3e0e8767	0.1391884
117	0xbdaaa22a	-0.083317116
118	0x3e7d58f2	0.24740961
119	0xbc93b648	-0.018031254
120	0x3e43a348	0.19105256
121	0xbe1a377c	-0.15060228
122	0xbc6f4d55	-0.01460584
123	0x3d5f7a7f	0.05456018
124	0xbd897a38	-0.067127645
125	0x3d7356a6	0.059408806
126	0x3c50e038	0.01274877
127	0x3cb8c13b	0.022553077
128	0x3d842839	0.06452984
129	0xbd8e61a6	-0.06952219
130	0xbd4bf764	-0.049796477
131	0xbe3d3739	-0.18478097
132	0xbccef9b3	-0.02526555
133	0xbdc96ea4	-0.09835556
134	0x3d3742e7	0.044741537
135	0x3deed2f5	0.116613306
136	0xbe03469e	-0.12819907
137	0xbe18a15f	-0.14905308
138	0x3e0b4ab0	0.1360271
139	0xbddcabd2	-0.107749596
140	0x3e1bcccd	0.15214844
141	0x3e5d1708	0.21590817
142	0xbcf9ecf5	-0.030508498
143	0xbe2e8f64	-0.17046887
144	0x3d45d423	0.048298012
145	0x3d5b609f	0.053558942
146	0x3dfaf213	0.12253203
147	0xbc833fc6	-0.01602162
148	0x3ae26b8d	0.0017274484
149	0xbe3021e3	-0.17200427
150	0x3c97a08f	0.018509177
151	0x3a01d117	0.0004952116
152	0x3cf260e5	0.029587219
153	0xbd953939	-0.07286305
154	0xbd98644d	-0.07441006
155	0xbe199f1e	-0.15002105
156	0xbdb1411a	-0.08654995
157	0x3d8c2c2d	0.06844363
158	0x3aea18b4	0.0017860145
159	0x38d942ac	0.00010359785
160	0xbc1f3ed8	-0.009719573
161	0x3d2b05e1	0.041753653
162	0xbc814166	-0.015778255
163	0x3de0fe02	0.10985948
164	0x38a0e1fb	7.671487e-05
165	0x3d9a79b7	0.075427465
166	0x3c465982	0.012106301
167	0x3dc94b4b	0.09828814
168	0xbd8b7379	-0.06809134
169	0x3e18f8df	0.14938687
170	0xbd943190	-0.07236016
171	0x3e0301a9	0.12793602
172	0x3dcf62ee	0.10126291
173	0xbbabdd6b	-0.005244901
174	0x3b0205c9	0.0019839874
175	0xbdd08189	-0.10180957
176	0xbbe0789b	-0.006850315
177	0xbdac4853	-0.08412232
178	0xbde0f780	-0.10984707
179	0xbc4c0ba7	-0.01245395
180	0x3e0e56eb	0.13900344
181	0x3c787fcc	0.015167188
182	0x3ea75832	0.32684475
183	0xbe2060ab	-0.15661876
184	0x3dfca794	0.123366505
185	0x3e0fd277	0.1404513
186	0x3e1c78d0	0.15280461
187	0xbcf71f8a	-0.030166406
188	0xbddf3e5c	-0.10900566
189	0xbdd5ccf1	-0.1043948
190	0x3e0fb647	0.14034377
191	0x3d81b8c4	0.06334069
192	0x3e4bdf09	0.199093
193	0xbe533445	-0.20625408
194	0xbdbc5f0b	-0.091978155
195	0x3d96db6f	0.073660724
196	0x3aaa704f	0.0013003441
197	0xbde65a2c	-0.11247668
198	0x3e88512e	0.26624435
199	0xbcb5a170	-0.022171706
200	0xbd9822ca	-0.074285105
201	0xbd77386e	-0.06035655
202	0xbd6020da	-0.05471883
203	0xbd3ffc58	-0.046871513
204	0xbe1b1a5a	-0.15146771
205	0xbd803f46	-0.062620685
206	0x3dd17eb9	0.102292486
207	0x3c913acb	0.01772823
208	0xbe06494e	-0.13113901
209	0xbdc709aa	-0.0971864
210	0x3e4efcee	0.20213673
211	0xbd6d2cfb	-0.057904225
212	0xbdecc2ea	-0.115606144
213	0xbd79b093	-0.06095941
214	0xbe70bc1a	-0.23509255
215	0xbe23e164	-0.16003948
216	0x3bfead83	0.007772149
217	0x3de42584	0.11139968
218	0xbda9e8ab	-0.08296331
219	0x3dbe5e22	0.09295298
220	0x3e19d23a	0.15021601
221	0x3df4e3a5	0.11957482
222	0x3dce927b	0.10086533
223	0xbd39a2e0	-0.045321345
224	0x3e3b41ed	0.18286867
225	0x3db23dfd	0.087032296
226	0x3a1dc8ad	0.0006018978
227	0x3dcdbd5b	0.10045882
228	0xbdab426a	-0.08362277
229	0xbdcd560d	-0.100261785
230	0x3ea01bdd	0.31271258
231	0xbd4b45f3	-0.049627256
232	0xbcf576cf	-0.029963879
233	0xbe599340	-0.21247578
234	0xbde264c6	-0.11054377
235	0x3d9f8036	0.07788126
236	0x3d56b512	0.052418776
237	0xbdea1485	-0.11429695
238	0x3d497c83	0.04919101
239	0xbe1550cf	-0.14581607
240	0x3d9718cf	0.07377779
241	0x3d87bdc5	0.066279925
242	0xb93665c8	-0.00017394789
243	0xbd0b5d9a	-0.034024812
244	0x3de18091	0.1101085
245	0xbd673cd1	-0.056454483
246	0xbdaa5149	-0.08316285
247	0xbe22b882	-0.15890697
248	0x3de93000	0.113861084
249	0x3e44d19f	0.19220589
250	0xbd8a50ae	-0.0675367
251	0x3e05d4dd	0.13069482
252	0x3e7cd49c	0.24690479
253	0x3db692bc	0.08914706
254	0xbde53853	-0.111923836
255	0xbd02de18	-0.031950086

model.backbone.layers.0.temporal.mixing.2.bias f4 [128]
0	0x3dfb6157	0.122744255
1	0x3e57c483	0.21071057
2	0xbe4cdf61	-0.20007087
3	0x3c2e713b	0.010647113
4	0x3de0accb	0.10970458
5	0xbd9be700	-0.07612419
6	0x3db09473	0.086220644
7	0xbde75009	-0.11294562
8	0xbaed35f0	-0.001809774
9	0xbe4325ec	-0.19057435
10	0xbd6f7c03	-0.058467876
11	0xbd8dce75	-0.06924144
12	0x3e94f5c3	0.2909375
13	0x3dcb326a	0.09921725
14	0xbe73b7cb	-0.2380058
15	0x3cacdc7d	0.02110123
16	0x3d06dcc4	0.032925382
17	0xbe28d956	-0.16489157
18	0xbe0a4f26	-0.13506755
19	0xbc8518d5	-0.016247192
20	0xbe76bf3e	-0.2409639
21	0xbdb9db0f	-0.09074985
22	0x3dd1615e	0.102236494
23	0xbdff5728	-0.124677956
24	0xbe81f555	-0.25382486
25	0xbd395d26	-0.04525485
26	0xbe7eea91	-0.24894167
27	0x3d08d922	0.0334102
28	0x3d79f6ed	0.061026502
29	0x3daa857b	0.08326241
30	0x3e9778bf	0.2958431
31	0x3e34d614	0.1765979
32	0xbe17f162	-0.14838174
33	0xbdd971ef	-0.10617434
34	0xbdcf650d	-0.10126696
35	0xbb6e0c3d	-0.0036323213
36	0x3e15cc96	0.14628825
37	0x3e826a94	0.25471938
38	0xbe73c0a4	-0.23803955
39	0x3e5fde6c	0.21862191
40	0xbe6f6a64	-0.23380429
41	0x3e8c0d5a	0.27353936
42	0xbe6b161e	-0.22957656
43	0x3e349ac4	0.17637163
44	0xbe258ec7	-0.16167746
45	0xbe959401	-0.2921448
46	0x3e19ccf3	0.15019588
47	0x3e30d9a6	0.17270526
48	0xbcc01687	-0.023448242
49	0x3cab6548	0.020922318
50	0x3e41f0c3	0.189395
51	0xbe84968f	-0.25896117
52	0x3bb88391	0.0056309183
53	0x3d9d8205	0.07690815
54	0xbe385a57	-0.18003212
55	0x3df79d1c	0.12090513
56	0x3e314ade	0.17313716
57	0x3e2d73e1	0.16938736
58	0xbe419cdd	-0.18907495
59	0x3e323552	0.17403153
60	0x3e760442	0.24025062
61	0x3db603c1	0.08887435
62	0xbd74d62d	-0.059774566
63	0x3e8a758d	0.2704281
64	0xbe54e553	-0.20790605
65	0xbe11a2f9	-0.14222325
66	0x3df4b42c	0.119484276
67	0x3e5a4448	0.2131511
68	0x3c1d474a	0.009599516
69	0x3dfbd366	0.122961804
70	0x3e2620c3	0.16223435
71	0x3d33cd50	0.043896973
72	0x3e84290b	0.25812563
73	0x3e793e9d	0.24340291
74	0x3e5780fe	0.210453
75	0x3e33d8ec	0.17563218
76	0xbd761e83	-0.060087692
77	0x3e3f1b44	0.18662745
78	0x3ded08b6	0.11573927
79	0xbe46e426	-0.19422969
80	0x3e1ce392	0.15321186
81	0xbd5f6194	-0.054536417
82	0xbe270831	-0.16311719
83	0x3e05aea1	0.13054897
84	0x3ca1b573	0.019739842
85	0x3e17813b	0.14795391
86	0x3d02bb8f	0.03191715
87	0x3db35bf9	0.08757777
88	0x3c2d48f6	0.010576477
89	0xbe2c8125	-0.1684614
90	0x3e5892fd	0.21149822
91	0xbe3ad6e3	-0.18246035
92	0xbd0f6614	-0.03500946
93	0x3d5da683	0.054113876
94	0x3e12e58e	0.1434538
95	0x3de64d2f	0.1124519
96	0x3e5876ca	0.21139064
97	0xbe7e0f37	-0.24810492
98	0xbcca8c08	-0.024724975
99	0xbd6b6022	-0.057464726
100	0x3dfc1eb4	0.12310544
101	0x3e3d41c3	0.18482117
102	0xbccf2410	-0.02528575
103	0xbe7a0dcd	-0.24419327
104	0xbd75c160	-0.05999887
105	0x3d033eff	0.0320425
106	0xbe2433f3	-0.16035442
107	0xbcee3c03	-0.02908135
108	0xbe83c35c	-0.25734985
109	0x3e2ade4f	0.16686366
110	0xbd440ba7	-0.047862675
111	0xbe5d8fea	-0.2163693
112	0x3da9d007	0.08291631
113	0xbe1512da	-0.14557973
114	0xbc89926e	-0.016793456
115	0x3e31fb3e	0.17380998
116	0x3d8edcec	0.06975731
117	0xbe7494df	-0.23884915
118	0x3d23a1e9	0.03994933
119	0xbd2e68f5	-0.042580564
120	0x3dc30c0e	0.095237836
121	0x3e22b222	0.15888265
122	0x3e06dbc7	0.13169776
123	0xbd07424b	-0.033022206
124	0x3deb2394	0.11481395
125	0xbe19354e	-0.1496174
126	0x3e11c721	0.14236118
127	0x3d083fb0	0.033263862

model.backbone.layers.0.temporal.norm.weight f4 [128]
0	0x3f808d42	1.0043108
1	0x3f80d96e	1.0066354
2	0x3f75ae8f	0.9596948
3	0x3f616507	0.8804478
4	0x3f803fc8	1.0019464
5	0x3f626345	0.88432723
6	0x3f7491cb	0.9553496
7	0x3f721051	0.94556147
8	0x3f6d103e	0.9260291
9	0x3f785570	0.9700537
10	0x3f859111	1.0434896
11	0x3f76e2ef	0.96440023
12	0x3f7e8407	0.9942021
13	0x3f830117	1.0234708
14	0x3f86300c	1.0483413
15	0x3f73814e	0.9511918
16	0x3f80d05f	1.006359
17	0x3f82bdb2	1.021414
18	0x3f7932d4	0.9734318
19	0x3f860737	1.0470952
20	0x3f837977	1.0271443
21	0x3f81ad00	1.013092
22	0x3f8a2117	1.0791348
23	0x3f7671de	0.962675
24	0x3f766fcf	0.96264356
25	0x3f7d3d83	0.98921984
26	0x3f8129e7	1.0090913
27	0x3f80df0c	1.0068069
28	0x3f6d0c1b	0.92596596
29	0x3f72663a	0.94687235
30	0x3f78e61b	0.97226113
31	0x3f749f4c	0.9555557
32	0x3f860976	1.0471637
33	0x3f82a32b	1.0206045
34	0x3f774397	0.9658751
35	0x3f849ec8	1.0360956
36	0x3f7d2f2e	0.98900115
37	0x3f8af69e	1.0856512
38	0x3f86eb4f	1.054056
39	0x3f791da5	0.9731086
40	0x3f81db45	1.0145041
41	0x3f6bff97	0.92186874
42	0x3f7e6467	0.9937195
43	0x3f86ea07	1.054017
44	0x3f6bd64f	0.92123884
45	0x3f820486	1.015763
46	0x3f8007f1	1.0002424
47	0x3f6e72ef	0.93144125
48	0x3f7b21cf	0.9809846
49	0x3f890293	1.070391
50	0x3f7993dd	0.97491246
51	0x3f81cadf	1.0140036
52	0x3f838779	1.0275718
53	0x3f8d31fe	1.1030881
54	0x3f86414a	1.0488675
55	0x3f80c2be	1.0059431
56	0x3f8010b3	1.0005096
57	0x3f77f8e2	0.9686414
58	0x3f83dec4	1.0302358
59	0x3f7f9868	0.9984193
60	0x3f8166b8	1.0109472
61	0x3f7c72ed	0.9861286
62	0x3f7e45e7	0.9932541
63	0x3f86076d	1.0471016
64	0x3f831dac	1.024343
65	0x3f77e57f	0.9683456
66	0x3f733d0c	0.95015025
67	0x3f878bde	1.0589559
68	0x3f78600b	0.9702155
69	0x3f70b6ec	0.94029117
70	0x3f7ff4bd	0.99982816
71	0x3f84fec8	1.0390253
72	0x3f7c357f	0.9851913
73	0x3f7a0fdd	0.97680455
74	0x3f70bc40	0.94037247
75	0x3f843689	1.0329143
76	0x3f81efa3	1.0151256
77	0x3f7a786d	0.97840005
78	0x3f807f66	1.0038879
79	0x3f83d81f	1.030033
80	0x3f7c52db	0.9856393
81	0x3f73d490	0.9524622
82	0x3f874fac	1.0571189
83	0x3f7190a5	0.94361335
84	0x3f89476c	1.0724921
85	0x3f64be8e	0.89353263
86	0x3f74e04a	0.9565474
87	0x3f7348dd	0.95033056
88	0x3f85abe7	1.0443085
89	0x3f84322c	1.0327811
90	0x3f80d61e	1.0065343
91	0x3f7a87bc	0.97863364
92	0x3f7ffa3c	0.999912
93	0x3f747d17	0.9550337
94	0x3f7bc20c	0.9834297
95	0x3f63a270	0.88919735
96	0x3f7686ec	0.96299624
97	0x3f83b22f	1.0288752
98	0x3f7b7426	0.98224103
99	0x3f80fced	1.0077187
100	0x3f800479	1.0001365
101	0x3f68909d	0.9084566
102	0x3f6f5cfc	0.9350126
103	0x3f7e5a63	0.9935667
104	0x3f779ba6	0.96721876
105	0x3f7d8cd5	0.9904302
106	0x3f83acdf	1.0287131
107	0x3f81bb7f	1.0135344
108	0x3f8a52b8	1.0806494
109	0x3f8092cc	1.0044799
110	0x3f812b43	1.0091327
111	0x3f897a3b	1.0740427
112	0x3f81f08e	1.0151536
113	0x3f814849	1.0100185
114	0x3f856c23	1.0423626
115	0x3f7cc089	0.98731285
116	0x3f81bc01	1.0135499
117	0x3f79c603	0.97567767
118	0x3f811d2f	1.0087031
119	0x3f771540	0.965168
120	0x3f7e5b30	0.9935789
121	0x3f77c29d	0.9678133
122	0x3f78a1a8	0.9712167
123	0x3f832687	1.0246133
124	0x3f880d86	1.0629127
125	0x3f718f08	0.94358873
126	0x3f8766ca	1.0578244
127	0x3f8488fa	1.0354302

model.backbone.layers.0.temporal.norm.bias f4 [128]
0	0xbc6dab50	-0.014506176
1	0xbd829054	-0.06375185
2	0xbcc2db19	-0.023786115
3	0xbc834df3	-0.01602838
4	0xbd843433	-0.06455269
5	0x3cb0155c	0.02149456
6	0xbd2e359b	-0.04253159
7	0x3d70f25c	0.058824882
8	0x3d5e3fb6	0.05425998
9	0x3c66129e	0.014042525
10	0x3b33f0da	0.002745679
11	0x3d3bbaa4	0.04583229
12	0xbd2b52ab	-0.041826885
13	0x3d29b1b2	0.04142923
14	0xbd1e0fcd	-0.038589288
15	0x3b8413bc	0.004030673
16	0x3c35d47e	0.011098025
17	0xbda73331	-0.08164061
18	0x3be461e8	0.006969679
19	0xbc1c20e8	-0.00952933
20	0x3cfdb833	0.030971622
21	0x3ac757c9	0.0015208657
22	0x3b4cee17	0.0031269842
23	0x3d2fbfe7	0.04290762
24	0x3d66bc68	0.056332022
25	0x3d4546c9	0.04816321
26	0xbc50b8ac	-0.012739342
27	0xbbae4209	-0.0053179306
28	0x3c20530d	0.009785426
29	0x3c1d4516	0.009598991
30	0x3c3ad74f	0.011403873
31	0xbd03f8ed	-0.032219816
32	0x3dabacf1	0.08382595
33	0x3d3e9cf1	0.04653639
34	0xbbd8a2e7	-0.0066112163
35	0x3c9e41ae	0.019318428
36	0xbd7fde38	-0.062467784
37	0xbd9577b0	-0.07298219
38	0xbc44ca4a	-0.01201112
39	0xbce82676	-0.028338652
40	0xbc7a09b1	-0.0152611
41	0x3c83f95c	0.016110115
42	0x3c1b913d	0.009495077
43	0xbbdaafd3	-0.006673792
44	0x3a8e235f	0.0010844282
45	0xbb443e49	-0.0029944351
46	0xbc56c896	-0.013109347
47	0xbce8410e	-0.028351333
48	0xbc6eabce	-0.014567329
49	0xbd4cee14	-0.050031736
50	0xbce44df6	-0.027869206
51	0xbc83df14	-0.016097583
52	0xbd76fb60	-0.060298324
53	0xbc2b4e88	-0.010455735
54	0x3aac5b8a	0.0013149839
55	0xbbc59900	-0.006030202
56	0x3c4391d6	0.0119366255
57	0xbd144faa	-0.036208786
58	0xbd9ab3ab	-0.075538
59	0xbd1665e2	-0.036718257
60	0xbd5990a9	-0.053116474
61	0xbd4a1222	-0.0493337
62	0x3c1a3d3c	0.0094140135
63	0x3c969052	0.018379364
64	0xbca650f1	-0.020302268
65	0xbd8ea3c4	-0.069648296
66	0xbd0031ee	-0.031297617
67	0x3c94001c	0.018066458
68	0x3bba4ed7	0.005685668
69	0x3b27b005	0.0025587094
70	0x3c2f67f7	0.0107059395
71	0xbd920d3e	-0.07131432
72	0xbb1b3db1	-0.0023687894
73	0xbd03d1c2	-0.032182463
74	0xbd1b2d7e	-0.03788518
75	0x3b22cf86	0.0024842932
76	0x3c1effef	0.009704574
77	0xbca3b504	-0.019983776
78	0xbcf61c3e	-0.030042764
79	0xbb15494c	-0.0022779284
80	0xbd8af180	-0.06784344
81	0xbbf9ef62	-0.0076274136
82	0xbc4cc9a3	-0.012499246
83	0x3cbfbd1d	0.023405606
84	0xbcffcd69	-0.031225877
85	0x3c70867c	0.014680501
86	0x3c89a7c0	0.016803622
87	0x3c48c43d	0.012253818
88	0xbd7b6665	-0.061376948
89	0xbcf53abf	-0.029935239
90	0xbd34faa5	-0.044184346
91	0xbb64c040	-0.003490463
92	0x3cd29240	0.025704503
93	0xbd67e75e	-0.056617133
94	0xbc863781	-0.016383888
95	0xbd31b100	-0.04338169
96	0xbd76c9be	-0.06025099
97	0xbb888079	-0.0041657058
98	0x3c40d438	0.011769347
99	0x3c92872f	0.017886726
100	0x3cbbe5dd	0.022936756
101	0x3ca634af	0.020288793
102	0xbd67b6c8	-0.0565708
103	0xbdbc24c8	-0.09186703
104	0xbd0d3432	-0.034473605
105	0xbccf0e41	-0.025275351
106	0xbc999f73	-0.01875279
107	0xbb75ad35	-0.0037487273
108	0xbd50052a	-0.050786175
109	0x3c0e8516	0.008698722
110	0xbd15a988	-0.03653863
111	0xbc2a4d19	-0.010394358
112	0xbcace2ac	-0.02110418
113	0x3bb9ca20	0.005669847
114	0x3c2c430d	0.010514033
115	0xbc5091b5	-0.012730052
116	0xbc76b8b3	-0.015058684
117	0x3b69cdda	0.0035675676
118	0x3db94ef3	0.090482615
119	0x3b843100	0.0040341616
120	0xbc3f830e	-0.011688961
121	0x3d01c682	0.031683452
122	0x3d055007	0.032547023
123	0xbb82e5c9	-0.0039946777
124	0x3ca0983d	0.019603843
125	0x3d955066	0.072907254
126	0x3d80aa7e	0.06282519
127	0x3d910077	0.07080167
