lightning_logs/version_112/checkpoints/epoch=12-step=3419.ckpt (torch, 788542 bytes, 114 tensors)

model.backbone.conditional_mixing.static_proj.weight f4 [10, 10]
000000 c8 aa 9c 3c eb b8 3b 3e 32 82 68 3d b1 e6 0e bf
       0.019124404 0.1833226 0.05676479 -0.5582076
000010 5b 19 8d be d6 c0 88 bd 73 c9 a1 be f3 f8 ca bc
       -0.27558407 -0.066774055 -0.31599006 -0.024776911
000020 f4 30 03 3d 5e 34 c3 3d 34 ea 45 be f3 42 86 be
       0.032029107 0.095314726 -0.19327623 -0.26222953
000030 10 28 1d be 61 a3 98 be 1f d1 de bd 34 b5 bd bd
       -0.15347314 -0.29812148 -0.108797304 -0.092630774
000040 8d 5f d7 3d 87 16 78 3c 85 27 62 be 21 ae 9d 3d
       0.10516272 0.01514209 -0.22085388 0.07699228
000050 23 e0 84 3e d0 64 a8 be 73 0f 81 3e 10 64 19 3e
       0.25952253 -0.32889414 0.252071 0.14979577
000060 7d 9a 5b 3e 47 89 f4 bd 16 c4 5c 3e d6 97 10 be
       0.21445651 -0.11940246 0.21559176 -0.14120421
000070 9d b1 2e bd 9f 5f 8e be 92 8e 52 3d ff d0 7f be
       -0.042649854 -0.27807328 0.051405497 -0.2498207
000080 5e 52 a2 3c 56 64 2b 3e 95 5d 06 3e aa f1 46 bd
       0.019814666 0.16737494 0.13121636 -0.048570313
000090 d4 d9 83 be 1d db 5d 3e 95 74 0c 3c f7 d8 ef 3d
       -0.25752127 0.21665616 0.008572717 0.11711305
0000a0 4d ea 7b be 49 f5 80 bd f1 d3 86 bc 99 6a 6d bc
       -0.24601097 -0.062967844 -0.016458483 -0.014490747
0000b0 ef 71 b3 be 68 70 9f bd 7b 55 9a be 8f 02 64 be
       -0.35047862 -0.07785112 -0.3014334 -0.22266601
0000c0 f8 bb 29 3e d6 21 1c be 91 19 0b bf f6 5a db 3c
       0.1657561 -0.15247282 -0.54335886 0.026776772
0000d0 1a 8d 63 3d 60 84 41 bd dd 77 38 be c4 36 32 bc
       0.055554487 -0.047245383 -0.18014474 -0.010877315
0000e0 b7 b7 3c be 85 0d 27 3e e6 af 7c 3e 3c 86 c5 3d
       -0.18429457 0.16313751 0.24676475 0.09644744
0000f0 09 2e 9d bd d5 90 0c 3f 75 b1 33 3e c3 73 68 3e
       -0.07674796 0.54908496 0.17548163 0.2270041
000100 46 5f da bd e7 21 3c 3d 56 57 28 3e 4e ed 04 3f
       -0.10662703 0.04593077 0.16439566 0.519246
000110 de 9c 18 be 8e 9e 1f be a8 66 df bd 23 2c b0 3d
       -0.1490359 -0.15587828 -0.10908252 0.086021684
000120 49 66 ae 3e 27 55 a9 bd 52 d4 05 be cf f1 af 3e
       0.34062412 -0.08268195 -0.13069275 0.34364173
000130 13 81 90 3e ea d9 6b be 63 da 20 bb a7 71 9b be
       0.28223476 -0.23032346 -0.002454423 -0.30360147
000140 e5 10 88 3e f6 bd bb bd 19 f5 02 be fa f7 64 3e
       0.2657539 -0.091670915 -0.1278881 0.2236022
000150 54 2b 78 be cd 62 86 3e a3 1e 27 3d 4c 0f 94 3e
       -0.24235278 0.26247254 0.0408007 0.2891792
000160 3f 44 56 3d 86 90 94 3e d5 a2 98 3e 67 41 42 3e
       0.05231118 0.29016513 0.2981173 0.18970262
000170 eb 0a 2d bd b3 dd 5d bd 5f 38 a1 bd db 2b 10 3d
       -0.04224674 -0.054166507 -0.0787208 0.035198074
000180 d3 e9 1f 3d 7d f4 7c 3d b9 42 53 3e 08 09 39 3e
       0.03904135 0.0617566 0.20630921 0.18069851

model.backbone.conditional_mixing.static_proj.bias f4 [10]
000000 86 06 00 3e 3e b1 d9 3e 32 12 d1 be 52 b8 1a 3e
       0.12502488 0.42518038 -0.40834194 0.15109375
000010 3a 81 a4 3e 37 04 39 3e 26 35 61 be d9 ca bb be
       0.32129842 0.18068014 -0.21992931 -0.36678198
000020 ea 4b 96 3e 3f 97 a5 3e
       0.29354793 0.32341954

model.backbone.conditional_mixing.gate_proj.weight f4 [10, 10]
000000 75 1b 55 bd 36 34 ee be de f2 1d 3e ae 4b 39 3e
       -0.05202814 -0.4652421 0.15424678 0.18095276
000010 c1 b4 aa bd 9b ac 2c 3b 93 82 fb 3c bf 77 40 3d
       -0.08335257 0.0026347998 0.030701911 0.0469892
000020 26 5d b0 bd 7e e3 9d be 13 16 20 be cd 88 82 bd
       -0.08611517 -0.30837625 -0.1563342 -0.06373749
000030 c2 a6 f5 3d 20 44 fe bd de 11 95 be 45 ad a9 3d
       0.11994697 -0.124153376 -0.29115194 0.08285002
000040 ba 3c 0d be cb 71 3a 3e 3b 4e 94 be c0 bc b1 be
       -0.13792697 0.18207471 -0.28965935 -0.34714317
000050 33 28 ca be d2 a2 2e bd 51 81 78 bd 9b e0 37 be
       -0.39483795 -0.042635746 -0.0606702 -0.17956774
000060 63 d3 93 3e 57 d5 bb 3d 34 74 b4 3e 82 21 44 3e
       0.28872213 0.09171551 0.35244906 0.19153407
000070 a6 82 51 3c 9f 8a 29 be dd 95 49 3d 1b 45 0c be
       0.012787497 -0.16556786 0.049215186 -0.13698237
000080 db 4b 2c 3d 06 a5 6a be 90 09 bb bc e7 4a 1d 3d
       0.04206453 -0.22914514 -0.022831708 0.03840151
000090 71 58 f6 bb 55 e5 01 be 5f 9d bf 3d 79 8d 5b be
       -0.0075178673 -0.1268514 0.09356188 -0.21440686
0000a0 ea 1b 78 3e 8b 81 fa bd 39 62 7e be 61 4a 86 3e
       0.24229398 -0.122317396 -0.24842156 0.26228622
0000b0 99 92 80 3d 71 1e 48 be dc 1e f7 3d af 6a 89 be
       0.06277961 -0.19542862 0.12066433 -0.26839206
0000c0 c6 bd 14 3e 23 c8 e4 3e fc e2 2d be 81 8e 4d be
       0.14525518 0.44683942 -0.16981119 -0.20073892
0000d0 a4 21 4b 3e 2b 79 7e 3b fa 74 fc 3d d3 10 b5 be
       0.19837052 0.0038829546 0.12326999 -0.35364398
0000e0 71 80 a8 bd 53 47 10 bd 1c e5 d8 be e4 fa 90 bd
       -0.08227623 -0.03522427 -0.42362297 -0.070791036
0000f0 99 f7 b8 be 7f 6c 98 bd 37 da a3 bd a1 14 4e 3e
       -0.36126402 -0.07442569 -0.080006056 0.20125057
000100 a0 54 96 be 1c a8 31 3d 79 3e 1f 3e 23 4b f5 3d
       -0.2936144 0.043373212 0.15551175 0.11977222
000110 1d 0d 72 3e f5 a4 a8 be e6 ce b3 bc 4e e4 74 bd
       0.23637815 -0.32938352 -0.021949243 -0.05978804
000120 04 14 7b 3d b8 0a 37 bd 59 a8 00 3e 57 2a 27 3e
       0.061298385 -0.044687957 0.1256422 0.16324745
000130 c0 d7 88 be 08 4a 4c 3e 32 3b dc 3c 0c 23 17 3d
       -0.26727104 0.19950116 0.026883695 0.036898658
000140 8d d9 55 bd b7 1f 6c be 1b ba e6 3e ff fa 7e be
       -0.052209426 -0.23058973 0.45063862 -0.24900435
000150 3e e6 8e be 3b ee 0a bf 0c a0 eb be b1 94 4f 3e
       -0.27910036 -0.5426976 -0.46020544 0.20271565
000160 8b 13 80 be d7 6d 86 3e c2 bc 18 3d 20 cc 93 be
       -0.2501491 0.26255676 0.03728939 -0.28866673
000170 b2 6a e2 3e b6 e0 6d 3d 53 91 3f be 7f d0 a5 be
       0.44222027 0.05807563 -0.1870778 -0.32385632
000180 ab 7a b2 3e 62 f2 97 3e 11 86 80 bc d7 54 85 be
       0.34859213 0.2967711 -0.015688928 -0.2604129

model.backbone.conditional_mixing.gate_proj.bias f4 [10]
000000 c2 de 05 be 8f 72 b8 3d 4e a0 9f be b0 b8 a2 be
       -0.13073257 0.09006225 -0.3117699 -0.3178153
000010 9c eb 92 be cc 85 a6 be 18 4d 37 3e 0f 76 e6 3d
       -0.2869538 -0.32523954 0.17900503 0.11252987
000020 f2 94 5d be 5a 0a db be
       -0.2163885 -0.42781335

model.backbone.conditional_mixing.feature_mixing.0.weight f4 [48, 10]
000000 36 92 7e 3e 39 bc 81 3d be ab 49 bd 50 61 82 bd
       0.24860463 0.06334729 -0.04923605 -0.06366217
000010 0a 5b a8 be 54 95 bb 3d 23 c6 35 3d 90 a4 f9 3d
       -0.32881957 0.091593415 0.04437841 0.12189591
000020 d4 86 2c be 14 c9 f4 3e 58 97 46 be d3 77 c5 bd
       -0.16848308 0.4780966 -0.1939367 -0.09641995
000030 65 f7 9e be 2a ef ce 3d db 0d 8b 3e 35 29 0f bd
       -0.31048122 0.10104211 0.27159008 -0.034951407
000040 5a 57 43 3e b9 9e 16 be c6 7e ad 3e 08 21 45 3e
       0.1907629 -0.14708985 0.33885783 0.19250882
000050 8b 07 1b be 43 c1 ed bd db bf 97 3e 0f 93 c9 be
       -0.15139596 -0.11609127 0.29638562 -0.3937001
000060 4c 35 85 be 36 06 88 bc 46 9a dd bd 32 e6 52 3e
       -0.26017225 -0.016604524 -0.10820441 0.20595625
000070 1c ad 77 bd 3a 3a c1 3d 94 85 50 be 81 f5 3b 3d
       -0.060467824 0.09434934 -0.20363456 0.045888428
000080 e7 1a 92 bc 42 d0 65 3e de 6d 65 be 08 34 7e be
       -0.017835094 0.22442725 -0.22405192 -0.24824536
000090 14 bf 63 bd c6 ba 7d bc ec d8 1b be 52 17 ac be
       -0.05560215 -0.015486425 -0.15219468 -0.33611542
0000a0 f8 d2 02 3e 8d 8a 5b be e6 66 90 bd 56 e1 c0 3e
       0.1277579 -0.21439572 -0.07050876 0.37671918
0000b0 2e a6 38 bd 7d 2c 81 bd 2a 84 f0 bd fa 5f 48 3d
       -0.045080356 -0.063073136 -0.11743958 0.048919655
0000c0 88 ef 89 bb af 93 24 3e d4 33 3c be 64 44 d8 3d
       -0.0042094626 0.16071962 -0.18379146 0.105599195
0000d0 48 e2 90 3d 45 0a da 3d 69 c8 25 be 5f ae 88 3e
       0.0707441 0.1064649 -0.16189732 0.26695535
0000e0 2c 17 c1 bd 30 7b fd bd a8 8a 27 be b8 dc e6 3d
       -0.09428248 -0.12377012 -0.16361487 0.112725675
0000f0 bf 13 87 be 5e a1 c7 bc 92 12 5c 3e 25 f6 79 3d
       -0.26382253 -0.024368938 0.21491459 0.061025757
000100 94 89 fe bb 3c c6 bf 3d 03 d4 b4 3e cf 17 97 3e
       -0.0077678654 0.09363982 0.35318002 0.29510352
000110 c2 13 b2 bb b5 e2 7d be 0b 78 1c be 3b f3 87 be
       -0.005434484 -0.24793513 -0.15280168 -0.26552758
000120 f9 1f e1 bd cb 93 95 3d 45 88 42 3d e1 d5 e5 bd
       -0.109924264 0.0730358 0.047493238 -0.11222435
000130 0d 2c 29 3e c6 15 81 be d4 82 c1 be b3 10 c7 3d
       0.1652071 -0.25211924 -0.37795126 0.09719982
000140 bd ff 15 3e 27 93 e0 3d d5 d0 f8 3d 12 61 9a 3e
       0.14648338 0.10965567 0.121492065 0.30152184
000150 93 d1 88 be 1c 74 da bc fb b3 b5 3e 87 71 67 3e
       -0.26722392 -0.026666693 0.35488877 0.22601901
000160 e3 6c 0c 3e 3f b7 ab 3e 00 ae bc bd bc 8a b1 3e
       0.13713412 0.33538243 -0.09212875 0.34676158
000170 3c 0a f6 bd 06 0d 1c 3e f8 f8 ab bb 44 51 d2 be
       -0.12013671 0.15239343 -0.0052481852 -0.41077626
000180 00 91 90 be e7 02 b4 be e5 66 56 3d 7c d7 2f 3d
       -0.28235626 -0.35158464 0.05234422 0.04293011
000190 04 89 73 be 44 63 97 3e cf 6a 9c bd 18 98 54 3e
       -0.23782736 0.2956792 -0.076375596 0.20761144
0001a0 fa 57 51 be de 0a 8f be ae 80 ed bd 54 1d 68 3e
       -0.20443717 -0.27937979 -0.11596809 0.22667438
0001b0 32 87 44 3e bc 43 86 3e b0 6c 9c 3d 41 8c 84 3e
       0.19192198 0.26223552 0.07637918 0.25888255
0001c0 d0 9c aa 3d 1d 96 b3 bc b0 3e 34 3e 5f 44 8b bd
       0.08330691 -0.021922166 0.17602038 -0.0680015
0001d0 c0 ee 8d 3d a0 40 96 bd bd 22 ce be 4c 0d 92 3e
       0.069303036 -0.07336545 -0.40260878 0.2852577
0001e0 66 4e 05 be 14 ec e8 bd 7b 4e 0e 3e 0f bd b2 3e
       -0.13018188 -0.11373153 0.13897125 0.34909865
0001f0 fb f0 82 3d e0 06 af 3d c0 ea fe bd c4 9b 81 3d
       0.063936196 0.08546233 -0.12447119 0.06328538
000200 e1 cb 5b 3e ef 73 85 3e 34 3a a0 3e e2 76 80 3e
       0.21464492 0.26065013 0.31294405 0.250907
000210 11 c9 91 3b a6 bd df bd 75 d3 07 3e 43 49 68 be
       0.004449018 -0.109248444 0.13264258 -0.22684197
000220 e5 6c 40 3e b8 99 d8 bd ad 9e b1 bd 5d 48 96 bd
       0.1879154 -0.105761945 -0.08672843 -0.07338021
000230 7a 03 0b 3d c6 8c 96 3e f2 1a a5 be f0 4a e3 3c
       0.033938862 0.29404277 -0.3224712 0.027745694
000240 72 14 a6 3e 0c da 8b be a7 4a 1e be 7f 10 18 be
       0.32437474 -0.27314794 -0.15458165 -0.14850043
000250 1e 77 ec 3d f9 94 a1 be b0 52 97 bb 39 e8 b1 be
       0.11546157 -0.3155897 -0.0046180114 -0.34747484
000260 9c aa 8d 3d db e6 58 bd 59 cc 88 3e 53 c4 f8 bd
       0.06917307 -0.052954536 0.26718405 -0.12146821
000270 07 35 3f 3c 7c a4 a0 3d 68 11 09 3e 26 ec 4a 3d
       0.011670358 0.07843873 0.13385546 0.049541615
000280 e8 5a 45 be 84 e7 c3 bc 28 e7 89 3e 34 d5 97 3c
       -0.19272959 -0.023914106 0.2693417 0.01853428
000290 07 68 a8 be 6f 97 b9 3e db 44 9c 3e 2f 1f f0 bb
       -0.32891867 0.36248347 0.30521283 -0.007327936
0002a0 b2 8f 1d be 93 94 7a 3e 83 b4 b2 3d 2c 7b 4c 3d
       -0.15386847 0.24470739 0.08725836 0.049922153
0002b0 c4 87 eb 3d 88 e3 53 3e 61 6b ec 3d 8c ac f5 3d
       0.115005046 0.20692265 0.115439184 0.11995801
0002c0 f2 59 12 3e 36 cd b5 be 86 c1 5f be 6f e6 f0 bd
       0.14292124 -0.35508126 -0.21851167 -0.11762702
0002d0 50 41 98 3e 22 6c a3 be 1d 07 15 bd 4f b0 8a 3d
       0.2973733 -0.31918436 -0.036383737 0.067719094
0002e0 c4 bd d1 3d f0 9e 3d be ff 5a ac be 1e 32 ae 3d
       0.10241273 -0.18517661 -0.33663175 0.08505653
0002f0 bd b5 10 bd 25 0d a1 3a 8c 48 04 3d 8a ff 00 3e
       -0.03532957 0.0012287243 0.03229575 0.1259748
000300 d4 4b 60 be c2 f6 e9 be d1 41 23 3c 9b 01 98 bd
       -0.21903926 -0.45696074 0.009964422 -0.07422181
000310 7f e2 85 bd 49 48 c4 3c 2c 41 9c 3c 36 78 04 3e
       -0.06537341 0.02396025 0.019074045 0.12936482
000320 20 26 fb 3d 56 ae 5e 3c 5e 1b 8d 3e ca e6 bf bd
       0.12263131 0.01359137 0.27559942 -0.093701914
000330 c9 48 82 bd a7 2f 62 be ad c9 76 3e 71 51 a2 bc
       -0.06361539 -0.2208849 0.2410037 -0.019814225
000340 0c d3 05 3e 10 bc c3 bd a3 6f c9 3e b8 28 e5 bd
       0.13068789 -0.095573545 0.39342985 -0.11189407
000350 c2 b0 d0 ba ff 0e 81 bc 27 d5 f5 3c 9b bd c9 be
       -0.0015921819 -0.015754221 0.030008866 -0.3940247
000360 82 d1 24 bd e8 11 e4 bd fc f1 8e 3e 27 78 14 3e
       -0.040238865 -0.11136228 0.27918994 0.1449896
000370 f1 be 13 3e 03 df ef 3e 95 92 c7 3e 28 11 46 3d
       0.14428307 0.46849832 0.3897902 0.048356205
000380 22 da 0a 3e 69 57 33 3e 93 75 9d 3e e9 18 67 3e
       0.13559774 0.17513813 0.30753765 0.22568096
000390 ba d4 66 be d6 74 84 3e d6 5b cb bd ab 21 c6 3d
       -0.22542086 0.2587039 -0.09929626 0.096743904
0003a0 a5 6b 93 3d f6 01 dc be 9a d0 6a 3e c5 45 26 bc
       0.07198266 -0.42970246 0.22931138 -0.01014847
0003b0 c1 ce 5f be e8 3d 25 3e 0a ce 8a bd 3a bb 48 be
       -0.21856214 0.16136897 -0.0677758 -0.19602671
0003c0 64 6a 7c be 63 63 82 3d a2 bb b8 3e f2 c7 6c be
       -0.2464996 0.06366613 0.36080652 -0.23123148
0003d0 36 17 7b 3d 0f e6 aa 3d 14 31 15 3d 64 0a 24 3e
       0.061301433 0.083446614 0.036423758 0.16019589
0003e0 f0 f9 21 be c0 f5 e5 3e 6e bf 57 3e a5 97 ac 3e
       -0.15818 0.44914055 0.21069118 0.33709446
0003f0 0a ee 31 bd e4 9c ac be 18 04 4d be f7 c2 91 be
       -0.043439902 -0.33713448 -0.20021093 -0.2846906

model.backbone.conditional_mixing.feature_mixing.0.bias f4 [48]
000000 f4 8f 5d 3d dc ab 91 be ef 9f 2d be e7 1c ec 3d
       0.054092363 -0.2845143 -0.16955541 0.1152895
000010 1a f2 9b be b8 55 f4 3e f5 f8 2b be 57 e1 c5 bd
       -0.30458146 0.47721648 -0.16794188 -0.09662121
000020 cf 9d 90 3e 33 3a ba be 72 f6 12 be 5c a8 61 3e
       0.28245398 -0.36372527 -0.14351824 0.2203688
000030 80 a3 81 3e 6d a7 8a 3e 5c 9c 09 3e 2b 87 bd 3e
       0.25320053 0.2708086 0.13438553 0.37017187
000040 fc 67 e0 bd 50 51 a6 3c 92 00 02 3f 7f 8b b0 bd
       -0.109573334 0.020302445 0.5078212 -0.08620357
000050 9c c9 b7 3c 69 62 ac 3e 1d 46 6c be 46 91 fd bc
       0.022435002 0.3366883 -0.23073621 -0.03095306
000060 f5 d5 52 bc ac 8e 2e be 7d 2c f4 3d 8d b0 7e bd
       -0.012868394 -0.17046613 0.11922548 -0.06218009
000070 d1 1d 0a be 2e d3 89 be 9d e4 ee bd 87 a2 a7 be
       -0.13487937 -0.2691893 -0.11664698 -0.32741186
000080 b8 3b 8c bc ad ea b7 be d6 c4 5a 3c 9b 09 55 3e
       -0.01711832 -0.3592123 0.013352593 0.20804445
000090 9c 17 82 3d e3 bd 9b be 46 86 bf bd dc 6a bd bd
       0.063521594 -0.3041831 -0.093517825 -0.092488974
0000a0 ac 6e 9e be e3 d5 56 bc d4 77 83 bd 01 74 d4 be
       -0.3094381 -0.013112518 -0.0641934 -0.41494754
0000b0 9d 28 26 3e 58 50 53 3e d2 2a a3 bc 08 c4 91 3e
       0.1622643 0.20636117 -0.01991788 0.28469872

model.backbone.conditional_mixing.feature_mixing.2.weight f4 [10, 48]
000000 7e d2 a6 b9 7c 83 8a 3e 92 f6 00 3e 64 aa 15 be
       -0.00031818816 0.2705344 0.12594059 -0.1461578
000010 41 c4 5e 3e 6f 0b 30 be 44 b1 82 3e bd 78 7a 3c
       0.21754552 -0.17191862 0.25525868 0.015287575
000020 96 f4 c2 3d 0b 6d 4d 3e 18 37 59 3e 86 ab 4e be
       0.09519307 0.20061128 0.21212423 -0.20182618
000030 42 60 02 3e 56 fa c1 bd b6 40 00 be a0 ba 8f be
       0.12732032 -0.09471576 -0.12524685 -0.2807207
000040 e5 49 7f 3d 83 50 9b 3d 80 a9 60 be d8 93 74 3e
       0.06232633 0.07583716 -0.21939659 0.23884523
000050 71 f9 06 bd cd 25 1e be 33 2d eb 3d 33 96 94 3e
       -0.03295273 -0.15444107 0.114832304 0.29020843
000060 ba e3 80 3e f0 c6 e7 3d 21 48 31 3d 42 65 c7 bd
       0.25173742 0.11317241 0.043281678 -0.0973611
000070 34 17 8f 3d 26 ae ab 3d ca b3 c9 bd e6 d3 c4 be
       0.069868475 0.083828256 -0.09848745 -0.38442916
000080 63 be ec bc 87 16 80 3e a5 13 f1 bc 5c 37 2d bd
       -0.028899377 0.25017187 -0.029428313 -0.042289123
000090 38 fa e9 3d 00 b1 a7 bd ba 4c 98 bd 00 c6 89 3d
       0.114246786 -0.08188057 -0.074365094 0.06727219
0000a0 d6 86 43 3e c0 37 ce 3d 90 fb 83 3d 02 83 c8 3d
       0.19094405 0.10069227 0.06444466 0.09790613
0000b0 55 23 2d 3e bb 31 36 be e5 1c 84 bd 65 bd d4 bc
       0.1690801 -0.17792408 -0.06450824 -0.025969217
0000c0 5e 7c ee bd 2b bf f0 bd 85 e9 25 be f4 53 b7 3c
       -0.11644815 -0.117552124 -0.16202362 0.0223789
0000d0 d8 3e fd bd 02 64 ca 3d 4f 42 df bd c8 4b b8 bd
       -0.12365502 0.09882356 -0.10901319 -0.08998829
0000e0 5b fd ef 3d f3 fc e4 be f6 7c b1 bb 7c 7e 7a bd
       0.117182456 -0.44724235 -0.005416508 -0.06115578
0000f0 c2 31 0a 3e f5 dc 84 3d 74 3d 3d 3d 52 7d 82 3e
       0.13495544 0.06487457 0.046201184 0.25486237
000100 a0 0c a2 3c 09 4d d2 bd b6 fa 55 3e f4 a3 46 be
       0.01978141 -0.102685995 0.2089642 -0.1939848
000110 8b 8d 3d be 99 12 1d 3e c6 a7 96 be d5 8c af be
       -0.18511026 0.15339126 -0.29424876 -0.34287134
000120 40 25 18 be c8 5c 61 be 16 77 73 3d 5b 88 2b bb
       -0.1485796 -0.2200805 0.05943974 -0.0026173803
000130 35 91 07 3d 5b 7b 8b 3d d7 74 0c be ba 83 c7 bd
       0.033097465 0.068106376 -0.13716446 -0.09741922
000140 a8 22 7b be 25 e8 af bd 32 3d 8a bd 0a 8c 22 bb
       -0.24524939 -0.085892 -0.06749953 -0.0024802708
000150 42 ae 24 3e 2f da b9 bd 29 be f6 bd 2c f5 97 be
       0.16082099 -0.09074818 -0.12047989 -0.2967924
000160 35 27 30 be 9c c7 04 be df d2 d3 bd ba 44 30 3e
       -0.17202456 -0.1296677 -0.10342955 0.17213717
000170 26 ec f0 bd 77 b9 80 3e 63 f0 56 bd 2b 4d 43 3e
       -0.11763792 0.25141498 -0.052475344 0.19072406
000180 16 05 01 be 4e c0 b0 3c 42 12 53 bb 38 1f 40 3d
       -0.12599596 0.021576073 -0.0032206927 0.046904773
000190 96 58 9a 3d cb e5 5c be 30 57 e9 3d e0 ab 02 3d
       0.07536428 -0.21572034 0.11393583 0.031902194
0001a0 e1 83 17 3d 70 97 80 3d ae c3 88 3d 3f 90 7e bd
       0.036991004 0.062788844 0.06677948 -0.062149283
0001b0 db 34 7f bb 3b cb 8c bd 3a 59 21 3e 58 83 44 3e
       -0.0038941416 -0.06874701 0.15756693 0.19190729
0001c0 f0 1b 52 be 40 61 0f bd 9c 20 d8 bd 57 34 34 3e
       -0.2051847 -0.035004854 -0.10553095 0.17598091
0001d0 ee 19 79 3e 89 74 9b 3e f7 d8 29 3e 88 8b b5 3d
       0.24326298 0.30362347 0.16586672 0.08864504
0001e0 22 a4 10 3e 9d 9c ba bc c2 fc a1 3d 0f 2e 0e bd
       0.14125112 -0.022779757 0.07909538 -0.034711894
0001f0 38 7d 9e bc 84 37 ab 3c f1 5a d2 bc 5d f1 a1 bd
       -0.019346818 0.020900495 -0.02567813 -0.079073645
000200 24 62 a9 3d d0 de e0 bd ec 9b b1 3d 86 6d 43 bc
       0.08270672 -0.10979998 0.08672318 -0.011927968
000210 eb 33 70 3d 2b 1e 26 bd 15 d5 0f 3e c5 a9 9b 3d
       0.058643263 -0.040556114 0.14046128 0.0760074
000220 0e ff 18 3e 3a ec 7c 3d aa 98 01 be 5f 0f 14 bc
       0.14941046 0.06174872 -0.12655893 -0.009036868
000230 c4 df a0 3e 9f 92 3f 3e 43 74 51 be fc 20 0b be
       0.3142072 0.18708275 -0.20454507 -0.13586801
000240 d2 d9 fe 3d 46 ae c5 bd f1 75 f3 3c 66 09 ab bd
       0.1244389 -0.09652381 0.029719325 -0.08351402
000250 c9 79 63 be f0 10 bf 3b 0a d0 26 3d 92 d4 a1 3d
       -0.22214426 0.0058308765 0.040725745 0.07901873
000260 99 c3 e8 bd ed 11 18 3e 65 0a 42 3d c7 1c a3 3d
       -0.11365432 0.14850588 0.047373194 0.07964473
000270 eb 06 a3 bd 4a c6 67 bd a1 be 65 bd b8 ff 9a 3d
       -0.07960304 -0.056585588 -0.05609 0.07568306
000280 a0 64 46 3e 6e d4 7d be 79 83 99 bd ea 2d 83 3d
       0.19374323 -0.24788067 -0.074957795 0.06405242
000290 c4 52 ae bc c0 ad 03 3d 0c 40 4c bd d7 3d d1 3d
       -0.0212797 0.032148123 -0.049865767 0.10216873
0002a0 33 f2 92 3d 66 f9 43 3e 69 da cb bd 85 26 35 3d
       0.07175102 0.19138107 -0.09953768 0.04422619
0002b0 06 2c 9d 3d d1 31 94 be 4f a8 31 bd 4a e4 77 3d
       0.076744124 -0.28944257 -0.043373402 0.060520448
0002c0 7d f2 af bd 5d 5b 44 be 6c 55 cb bd 44 59 17 be
       -0.08591173 -0.19175477 -0.09928402 -0.14780146
0002d0 90 38 15 be e5 62 15 3e 96 3c 49 bd 92 6a bb bb
       -0.14572358 0.14588507 -0.049130045 -0.0057194913
0002e0 b9 f3 23 3e 1e 4d 20 bd e0 9c 02 be 10 5d ab bd
       0.16010942 -0.039136045 -0.12755156 -0.0836736
0002f0 7d 63 a6 bd d6 c2 c9 bd 8b bf 14 bd de 4d 8c 3d
       -0.08124445 -0.09851615 -0.036315482 0.068507895
000300 0d 26 e7 bc ab 43 2e 3d 37 1a 87 bd a3 f2 e6 3d
       -0.028216386 0.042545002 -0.06596797 0.11276748
000310 83 76 27 3e 48 13 47 bd cd 11 0d 3e 81 31 9b 3e
       0.16353802 -0.048602372 0.13776322 0.30311206
000320 0a 91 0f be 97 4d 94 3d 42 ec ce 3d 8b 6a a2 3d
       -0.14020172 0.072413616 0.10103656 0.07930478
000330 96 d4 fe 3d ef 5d 59 be 65 51 9d bd f1 59 8d bd
       0.12442891 -0.21227239 -0.076815404 -0.069019206
000340 05 ab 40 3e e7 08 b0 3d a3 c6 21 be 65 46 03 be
       0.18815239 0.08595448 -0.1579843 -0.12819822
000350 01 b8 68 3d 4a 0f 90 be ef 41 fa 3d 5e d0 07 3e
       0.056816105 -0.28136665 0.12219607 0.1326308
000360 d6 a5 c8 bc 3e 51 6e be 09 1b d6 bd 45 96 1b be
       -0.02449314 -0.23273179 -0.10454375 -0.15194042
000370 95 90 49 bc f0 59 73 3e de c3 49 be ca 0b 23 be
       -0.012302537 0.23764777 -0.19703624 -0.15922466
000380 3b f8 1f 3d fd d3 9b 3e 4e d4 3a bd 5a 2c 41 be
       0.03905509 0.30435172 -0.045612626 -0.18864575
000390 33 d2 3a 3d 11 d8 c9 3d 39 5f 17 bd 11 da 52 bd
       0.045610618 0.098556645 -0.036956046 -0.051477496
0003a0 84 de 0a 3f 9d 37 4c 3d 4d 9d a1 ba 68 c5 d2 bb
       0.5424578 0.049857724 -0.0012330204 -0.006432224
0003b0 ae aa bb bc 4a ae 4f bd d8 6b 48 be 0e f8 94 bd
       -0.022908535 -0.050703324 -0.19572389 -0.07273875
0003c0 cc 8b 2e 3e 03 12 78 3d 03 3c c5 bc 42 15 c5 3d
       0.17045516 0.060564052 -0.024076467 0.09623195
0003d0 aa 9e 86 3d 7f bc f0 bd 42 dc 35 3d 3b 26 07 3e
       0.065732315 -0.11754703 0.044399507 0.13198178
0003e0 91 b4 28 3c 3d a2 2a 3e 2b 91 20 3d a2 4c 96 3d
       0.010296957 0.16663451 0.039200943 0.07338835
0003f0 87 98 b1 3d af 30 a4 bd 99 ba 4c 3e 48 85 35 bd
       0.086716704 -0.08017098 0.19993056 -0.04431656

model.backbone.conditional_mixing.feature_mixing.2.bias f4 [10]
000000 88 f4 50 be 7d af 70 3e 3d f8 5b bd cc db ad bd
       -0.20405781 0.23504443 -0.053703535 -0.084891886
000010 86 b4 60 be 40 07 33 be 31 e5 11 be 58 bd 00 3d
       -0.21943864 -0.17483234 -0.14247586 0.031430572
000020 0d ea 71 3d 9a 46 bb 3d
       0.0590611 0.091443256

model.backbone.conditional_mixing.norm.weight f4 [10]
000000 74 db 55 3f 92 12 67 3f e9 b2 62 3f c6 8b 12 3f
       0.83537984 0.9026271 0.88554245 0.5724453
000010 80 57 68 3f 01 57 78 3f fa 15 97 3f 4a f7 77 3f
       0.90758514 0.9700776 1.1803582 0.9686171
000020 dd 4c 7d 3f d8 ba 62 3f
       0.9894541 0.8856635

model.backbone.conditional_mixing.norm.bias f4 [10]
000000 39 ad 28 3e a0 81 9f bd f3 32 b2 bd b2 06 a4 bd
       0.16472329 -0.07788396 -0.08701124 -0.080090895
000010 4f d8 0a 3e 60 38 95 3b 83 51 b9 3c 30 5c 7d 3c
       0.13559078 0.0045538396 0.022621876 0.015463874
000020 e4 96 95 bd 72 4b 71 3d
       -0.07304171 0.05890984

model.backbone.layers.0.temporal.mixing.0.weight f4 [48, 85]
000000 65 6d 8b 3d 0f 99 2f 3c 4b d2 66 bd b7 6a 95 3d
       0.06807975 0.010717644 -0.056352895 0.07295745
000010 f1 16 01 bd 91 73 27 3d 38 39 da bc 51 26 d1 bc
       -0.03151602 0.040881697 -0.026638612 -0.025530966
000020 b9 22 88 bc d5 13 ae bd e7 50 90 bc 86 80 1e 3d
       -0.01661812 -0.084998764 -0.017616702 0.03869679
000030 82 3f 85 bd 0f c4 d2 3c f2 5d 0c 3d 68 b0 86 3d
       -0.06506254 0.025728254 0.03426928 0.065766156
000040 9d d3 89 3d 1f 43 aa bd 9b 1f a0 bd d7 a4 8e 3d
       0.06729815 -0.083135836 -0.07818528 0.069650345
000050 4f 6b 55 3d 37 81 28 bd 1e 45 d0 bc aa c0 26 3d
       0.05210429 -0.041138854 -0.025423583 0.040711083
000060 fc 4c 93 3c 8f 6a 50 3d 1c 91 c8 bd d2 de 43 3d
       0.017981045 0.050882872 -0.097933024 0.04781992
000070 ed 09 b5 3d 43 8c 7a bc 92 fd 09 bd f6 49 a0 bd
       0.08839784 -0.01529223 -0.03368909 -0.07826607
000080 33 8b 91 bd b0 85 20 3d 51 a2 9f bd 80 65 cf 3d
       -0.07106628 0.039189994 -0.07794631 0.101267815
000090 c7 81 07 3e a1 47 cf 3c 75 1f 87 3b fd e2 11 bd
       0.132331 0.02530271 0.004123623 -0.035616864
0000a0 ff ad 03 3c e2 57 cd 3d 64 0b 14 bd fd 93 57 3d
       0.008037089 0.10026528 -0.036143675 0.052631367
0000b0 2a a2 66 bd 54 e9 46 bd 62 8f 51 3b 0b 5e ea bc
       -0.056306995 -0.048562363 0.0031976332 -0.028609296
0000c0 7a a3 c3 bc 0c 21 ea bd 31 78 92 bd 60 bc 40 3d
       -0.023881663 -0.114320844 -0.07151831 0.04705465
0000d0 be 59 3f bd 08 af e7 bc 05 b1 a7 3d 33 3f 9b 3c
       -0.046716444 -0.028281704 0.08188061 0.018951034
0000e0 6d ad 32 3d 23 68 89 3d e2 8e fb bd b9 ce cc bc
       0.043622423 0.06709316 -0.12283112 -0.025000917
0000f0 e6 60 c3 3d 74 de 2e bd 5a fb c0 3c 0c 40 88 3c
       0.09539966 -0.042692617 0.023557354 0.016632102
000100 0e b4 17 3c 6a 0c d2 3d c8 7b fe 3c 5b b1 9c bd
       0.009259237 0.10256274 0.031064883 -0.07651015
000110 4f 60 86 3c 6f 4c bc 3c 74 b7 92 3c 8c 41 8e bc
       0.016403345 0.022985665 0.017909743 -0.01736524
000120 3d ed 8f bc 92 13 c6 bd 7c 54 ba 3c b5 3f a7 bd
       -0.017569179 -0.096717015 0.022745363 -0.08166448
000130 84 56 e5 bd 0a 0e 31 bd 70 aa 63 bd aa 4c a2 bc
       -0.11198142 -0.04322628 -0.055582464 -0.019811947
000140 eb 2d e1 39 f7 ad b0 bd 38 02 f8 bd a8 39 ef bc
       0.00042949556 -0.08626931 -0.12109798 -0.029202297
000150 95 87 19 3f d5 95 4d 3d 5c ac cc bd d8 3b 0a b7
       0.59972507 0.05019172 -0.099938124 -8.239374e-06
000160 74 dd 6e 3d b9 61 82 bd d4 11 01 3b c3 8d b1 bd
       0.058316663 -0.06366295 0.0019694464 -0.08669617
000170 c7 d2 99 bd ab 8b b9 3d 9b 1c d0 bd 4d 0f 39 bd
       -0.07510906 0.09059843 -0.10161706 -0.045180608
000180 7c 9c c4 bd 2d 53 30 3c 69 4e f9 3d 77 22 85 3d
       -0.096001595 0.010762018 0.12173159 0.06500714
000190 09 e3 66 3d b9 78 90 3c e5 cf 62 bb 5b c0 b4 bd
       0.05636886 0.01763569 -0.0034608778 -0.088257514
0001a0 de 6c ca bc a2 04 91 bd 0a c6 44 3d 41 5b 10 3d
       -0.024710115 -0.07080962 0.048040427 0.035243277
0001b0 c6 36 e6 3d 3b 51 5c 3c a2 01 ad 3b a2 4c f2 bd
       0.11240916 0.013447101 0.0052797357 -0.11831023
0001c0 3a 32 f4 3d 22 fc d2 3d e3 43 17 bc 89 bd 55 3c
       0.119236425 0.10301997 -0.009232494 0.013045677
0001d0 7f c1 d9 bd 11 fc ba 3c 4b 79 8f 3d 2e 43 f4 bb
       -0.106326096 0.022825273 0.07005557 -0.0074542975
0001e0 25 e1 97 bc 7e 70 97 3c f2 24 0e be 46 e4 17 3c
       -0.018539974 0.018486258 -0.13881281 0.009270733
0001f0 08 99 e3 3d 47 7b 87 bd 17 5e 07 3d e6 ca 01 3c
       0.11113173 -0.0661531 0.033048715 0.00792191
000200 4c ff 7a bd 79 a3 af bc a6 d0 ae 3b 99 15 99 bd
       -0.061278626 -0.021440255 0.0053349314 -0.074748226
000210 5c 3c 7e bd 04 23 bd bd 5d 2d 82 3d 85 d3 d6 3d
       -0.062069282 -0.09235194 0.063563086 0.10489563
000220 09 27 5a bd ac e6 33 3d a0 8c 13 3e 55 2a eb bc
       -0.053259883 0.043921158 0.14409113 -0.028706709
000230 25 d6 08 bd 76 1d fc bb 8d ab aa 3d 50 b2 40 bd
       -0.03340735 -0.0076939417 0.08333502 -0.047045052
000240 36 28 57 3c c1 cb 08 bd 58 a8 7b 3d d1 42 ba bc
       0.013132146 -0.03339744 0.061439842 -0.022736939
000250 a3 d5 cc bd 3c 06 67 bc 81 52 24 bd 46 53 87 3c
       -0.100016855 -0.0141006075 -0.040117744 0.0165192
000260 5f b0 9e 3d ed cb c3 3c c1 a6 9a bd 12 b3 89 3d
       0.07748484 0.02390095 -0.07551337 0.06723608
000270 50 9c 33 bd 3a a5 3e bd be a9 60 3d 24 dc 7a bd
       -0.043850243 -0.04654429 0.05484938 -0.0612451
000280 90 11 e7 bd 32 ca 84 bc 9f e3 9a bb 2c 8f 5b bd
       -0.11282647 -0.016209695 -0.0047268416 -0.053603336
000290 c0 7d 51 3d 06 97 9b bd 11 98 d7 bd 86 20 b1 bd
       0.051145315 -0.07597165 -0.10527051 -0.086487815
0002a0 20 1b c3 bd 89 25 37 3e d5 41 05 3d 56 78 15 bd
       -0.09526658 0.17885412 0.032533485 -0.036491714
0002b0 86 bf ce 3d 2b ca 97 bd d8 8e 8b 3d 0a 22 89 3d
       0.10095124 -0.07411607 0.06814355 0.066959456
0002c0 86 ea d1 3d c5 03 9f bd 7f cb 88 3c c5 c6 17 3d
       0.1024981 -0.07764391 0.016698597 0.037054796
0002d0 38 9e 3f bd 87 18 b9 3d 11 7f 23 bc 55 27 5a bd
       -0.04678175 0.09037881 -0.009979025 -0.053260166
0002e0 00 d9 8c 3d f1 41 af 3c 56 86 95 bd cd 66 7d 3d
       0.06877327 0.021393748 -0.07301013 0.061865617
0002f0 2c e9 b3 bd d8 12 02 bd 9c bf 1e 3d 74 59 e6 3c
       -0.087847084 -0.031756252 0.03875695 0.028118826
000300 99 a7 e3 bd 83 de 40 bd 77 c7 69 3d c5 f7 0c 3d
       -0.11115951 -0.047087204 0.05707499 0.03441598
000310 b6 69 99 3d e5 ae c1 3c 87 32 8d 3d 2c 2c a5 bc
       0.07490866 0.023642967 0.06894403 -0.020162664
000320 e6 c5 92 3d ac df 10 3d 34 df a5 3c d8 42 d2 3d
       0.071666524 0.03536956 0.020248033 0.10266656
000330 ad 45 98 3d 2e 87 af 3d f7 a4 f0 3b c9 77 8f 3d
       0.074351646 0.08570705 0.007343884 0.07005269
000340 af cf b3 bc 4a b6 0e bd 89 82 8a bd 7e 18 81 3c
       -0.021949617 -0.034841813 -0.06763179 0.01575875
000350 ad 50 ab bd 38 ee ae 3d 8e af be bd ea d7 5f bd
       -0.08364997 0.0854153 -0.09310828 -0.05464927
000360 c9 93 41 bd ca 4c 5b bd 7a 2e fa bd 9c ca dd 3c
       -0.04726008 -0.05354003 -0.12215896 0.02707415
000370 c2 fb 27 3d 35 a4 d6 bd c4 28 26 3d 15 34 61 3d
       0.04101158 -0.10480539 0.04056622 0.05498131
000380 dd 36 8c bd e2 63 09 bd c8 e7 65 bd 6a 92 a6 bc
       -0.06846402 -0.03354252 -0.056129247 -0.020333488
000390 72 45 f3 bc 43 1d c2 bd d6 25 31 bd e8 99 be bc
       -0.0296962 -0.094782375 -0.043248974 -0.023266748
0003a0 d3 25 34 3b 15 06 f9 bd aa e8 ce bd 4b 73 03 bd
       0.0027488365 -0.12159363 -0.10102971 -0.032092374
0003b0 cc e7 48 bd c1 e2 0a be 0a 0a f5 bc 81 1d cb bd
       -0.049049184 -0.13563062 -0.029912014 -0.09917737
0003c0 22 23 51 3d 3e 04 9a 3c 6f f9 0a be cf ad 8e bc
       0.051058896 0.018800851 -0.13571714 -0.017416863
0003d0 78 53 ca 3c ad 19 10 3c a2 3a 40 bd f2 e6 d1 bd
       0.024698004 0.008795184 -0.046930917 -0.102491274
0003e0 f7 62 99 bc dd 8e f5 bd a0 58 62 bb 46 7f 4b bd
       -0.018723948 -0.1199014 -0.0034537688 -0.049681924
0003f0 ab 58 b5 3c 87 ac d7 3d 03 a6 94 bd fa 50 0e bd
       0.022137007 0.10530954 -0.07258227 -0.034745194

model.backbone.layers.0.temporal.mixing.0.bias f4 [48]
000000 70 38 6d 3e c6 aa 47 3e 25 10 a5 be b5 2e 7a bd
       0.2316606 0.19498739 -0.3223888 -0.0610797
000010 b0 94 97 bd 23 58 66 bd fb 18 7a 3c df 0a cc 3b
       -0.07401407 -0.056236397 0.015264745 0.006226882
000020 d9 04 a5 3d 53 f5 1a be 08 10 ab 3c e6 21 73 be
       0.08057565 -0.15132646 0.020881668 -0.237434
000030 c5 b7 c5 3d da ed 81 3d c5 97 99 3e 6b 2c 6c be
       0.09654192 0.06344195 0.29998603 -0.23063819
000040 6e cd 7c bc 94 eb 1e be d1 96 c0 bd 04 42 5c be
       -0.015429838 -0.15519553 -0.09403766 -0.21509558
000050 9b 2c 75 bc 3a bb c7 3d 5a 1f d6 bd ac bf 3c bd
       -0.014964248 0.097525075 -0.104551986 -0.04608123
000060 b0 c6 0d bd ed 36 54 3e 32 f3 33 bc 73 17 11 3e
       -0.03461331 0.20724078 -0.010983275 0.14169101
000070 30 2e c9 3d 98 0e 9c bd af 88 ee bd 5b cb 14 3d
       0.09823263 -0.07619971 -0.11647164 0.036326747
000080 3b f8 7e be 73 e5 36 3c 9e 85 84 3d ed 2a e1 3d
       -0.2489938 0.011163103 0.06470798 0.109945156
000090 9f fd 58 3e a4 2d 2f 3e 0f 1e c0 3b 36 9a 75 be
       0.21190499 0.17107254 0.0058629583 -0.23984608
0000a0 05 ef fc 3d c7 b3 f1 bc 26 9e a5 3d a1 e1 a5 bd
       0.12350277 -0.02950467 0.08086805 -0.08099676
0000b0 58 cb 1c 3e 3f 41 08 3e a6 1b 85 3e a3 51 c3 bd
       0.15311944 0.1330614 0.25997657 -0.09537055

model.backbone.layers.0.temporal.mixing.2.weight f4 [85, 48]
000000 e9 02 96 bd 90 4b a1 3c a0 0b 9a 3d 6c a9 e9 bc
       -0.07324774 0.019689351 0.075217485 -0.02852317
000010 17 4a d6 bd 39 ea 82 3d 0a f0 d2 bd a2 d5 f4 3d
       -0.1046335 0.06392331 -0.1029969 0.1195481
000020 a3 36 e8 bc 00 99 4b 3d 41 20 f2 3c 79 30 0b be
       -0.028346365 0.04970646 0.029556395 -0.1359271
000030 33 11 cd bd 4e 5c 11 be c7 0f 00 3e cb b9 18 3d
       -0.10013046 -0.14195368 0.12506019 0.03728656
000040 7b 27 a9 bd 06 bf 7c bd 4e 2e dc bd 15 b9 54 bd
       -0.082594834 -0.06170561 -0.107510194 -0.05193432
000050 af f4 f5 3c cc 3a cd bb 4a 81 6c be 65 0f cb 3d
       0.0300239 -0.0062631126 -0.23096195 0.09915046
000060 a2 69 09 3d f0 3d 58 3d 83 cd c1 3c 9f c9 23 be
       0.033548005 0.052793443 0.023657566 -0.15994881
000070 ef df 5d 3c 3a 9f 41 bc fd 0f e6 3d 5e a9 37 bd
       0.013542159 -0.011817748 0.11233518 -0.044839256
000080 fc 51 1d bd 0d fd f4 bd 38 88 8d bd 70 f7 82 3d
       -0.038408265 -0.11962328 -0.06910747 0.06394851
000090 8b 76 03 3d db 68 11 3d 78 29 a0 3d 0b d2 df bc
       0.032095473 0.03550039 0.078204095 -0.027321836
0000a0 fa 67 07 be 7d 3c ee bc 67 05 07 bc 0d 8a c7 bc
       -0.13223258 -0.029081577 -0.008241034 -0.02435782
0000b0 a3 09 88 3c 43 b4 fd bd 78 7d 1d 3e 91 19 da bc
       0.016606158 -0.12387898 0.15379894 -0.02662352
0000c0 57 9d b9 bd 24 1f 87 3d 91 60 fd 3d ba 46 ec 3d
       -0.09063213 0.065977365 0.12371934 0.115369275
0000d0 05 b5 06 3d 06 12 8c bd 0b 50 ef bd 9e 4c 99 3d
       0.032887477 -0.06839375 -0.11685189 0.07485317
0000e0 9c c7 0a bd 8e e2 f5 bc 87 1a 17 3e 39 dc 03 3e
       -0.03388177 -0.030015256 0.14756213 0.12876977
0000f0 1c b9 67 3c 73 19 1e 3e d6 c3 36 be 70 d1 12 3c
       0.014143255 0.15439396 -0.17848143 0.008961067
000100 58 a2 d3 3d 16 69 d5 bc 14 e3 9e bc 61 cb 48 3d
       0.10333699 -0.026051085 -0.019395389 0.049022082
000110 de 77 73 3c bc 27 42 3e d7 b9 19 bc ed bf c2 bc
       0.0148601215 0.1896047 -0.009382687 -0.023773158
000120 4a b2 26 3e 60 ba 31 3d 6d 56 11 3d 80 02 18 3d
       0.1627895 0.04339063 0.035482813 0.03711176
000130 60 e5 a9 3d 20 5c 2b be 99 9f bf bd 9d 9e 45 bd
       0.08295703 -0.16734362 -0.09356613 -0.04824697
000140 02 23 02 3e a9 5c 19 be bf a6 fd 3d 5a e4 3e 3e
       0.12708667 -0.14976753 0.1238532 0.18641797
000150 1d 9a 5b bd de f6 ea bd 04 48 1b bc bd b7 d3 bd
       -0.05361377 -0.114728674 -0.009477619 -0.1033778
000160 b3 3a f0 3d de 81 9c 3c a6 0f 38 be 6d 50 86 bc
       0.11729946 0.019104894 -0.1797472 -0.016395772
000170 e8 e5 05 3d 2f 0a d3 bd 41 a2 0c be 00 a7 ce bc
       0.03268996 -0.10304677 -0.1373377 -0.025226116
000180 56 4a 28 bc 08 33 ba 3c de b7 7d bd fa 5f a7 bd
       -0.010271629 0.022729412 -0.061942928 -0.08172603
000190 7f 04 88 3d 3b 83 f9 3c 25 0d 8f 3d d8 77 bc bb
       0.066414826 0.030458083 0.06984929 -0.005751591
0001a0 4d 10 b0 bd 2a a6 08 bc 5c e2 53 3e cb 1c 5c 3d
       -0.08596859 -0.008340398 0.20691818 0.053738397
0001b0 b3 45 7a bc 76 59 c4 bd 1c 4a 8d bd 95 8c d2 3d
       -0.015275407 -0.09587376 -0.06898901 0.1028072
0001c0 06 47 1b be 22 e6 af 3d ef 25 67 bd b8 c7 90 3e
       -0.15163812 0.08588816 -0.05643266 0.28277373
0001d0 c9 1a b3 bd 33 39 7b 3c d3 9a 2b 3e a0 2d a6 3d
       -0.08745343 0.015333462 0.1675828 0.08114171
0001e0 31 10 d0 3d 32 ff c7 bd 64 71 d0 bb c9 e9 0f bd
       0.10159338 -0.097654715 -0.0063611735 -0.035135064
0001f0 d5 39 14 3e db 57 08 be e8 35 ef bd a7 a1 36 3d
       0.14475186 -0.13314764 -0.11680204 0.044587757
000200 1b a4 1e 3b 43 f1 04 3e fb 7e 30 bd 63 66 98 3c
       0.0024206701 0.12982659 -0.043089848 0.01860351
000210 7c 96 52 3d 55 fa 96 bd cf 5f 98 bc e8 c9 62 bd
       0.051413044 -0.07371966 -0.018600373 -0.055368334
000220 c7 bf 5c 3d ae e3 2a bc b5 04 38 3d 2a a9 8b bd
       0.05389383 -0.01043026 0.044926364 -0.06819375
000230 fd 3e 84 bd 24 3f 14 be 84 80 0a 3e 21 30 ce 3c
       -0.064573266 -0.14477211 0.13525587 0.025169434
000240 9f 05 9c be 90 90 d9 bd 6f ef 93 3d 79 a3 6e 3d
       -0.3047304 -0.10623276 0.07223403 0.05826137
000250 c6 52 18 3e 04 40 3d bd 39 13 89 bd f8 26 d8 3b
       0.14875326 -0.04620363 -0.066931196 0.0065964423
000260 c3 d6 1e 3d 2e 7a 31 3d 2a 6e 89 bd f9 99 be bb
       0.03877903 0.04332941 -0.06710465 -0.005816695
000270 3e 03 06 3e b3 29 92 ba 7a 58 80 bd d2 ae d3 3b
       0.13087174 -0.0011151343 -0.062668756 0.006460049
000280 b2 32 0c 3c 2a 62 a2 3d 94 ed 2e be 42 bd cf 3d
       0.008557009 0.079288796 -0.17082816 0.1014352
000290 9e 25 d3 bd 74 cc b1 bb ce af 1c be 19 a1 9c 3e
       -0.10309909 -0.005425984 -0.15301439 0.30591658
0002a0 ab 07 86 bc 46 59 eb bd 23 ff 52 3e ee 3e 26 bd
       -0.016361078 -0.11491637 0.2060514 -0.04058736
0002b0 0e 29 1c 3e fa 39 bc bd 5e 4b f0 bd 75 3c a3 3c
       0.15250036 -0.09190746 -0.11733125 0.01992629
0002c0 df 62 18 3d b9 3a dc bd 2f bd 63 3d 81 e7 67 3d
       0.037203666 -0.10753388 0.05560034 0.056617264
0002d0 9b 43 88 bd 76 3f 7a be 63 b9 d5 3b e9 f7 b7 3d
       -0.0665352 -0.24438271 0.006522344 0.08982832
0002e0 9b 06 03 be e8 91 b0 3c f7 e4 9a 3d 33 e3 b8 bd
       -0.12795489 0.021553949 0.07563203 -0.0902771
0002f0 a7 11 8d bd 28 0a a4 bd 6f 3b 0f 3e 08 20 8d bd
       -0.068881325 -0.0800975 0.13987516 -0.06890875
000300 7f 87 d2 bd 1c 6c 4d 3e 7f 36 e4 3d 13 14 43 bc
       -0.1027975 0.20060772 0.11143207 -0.011906642
000310 cb 8a a0 3d b1 d9 ab bd 0b 01 4c be ba eb 2e 3d
       0.07838973 -0.08391131 -0.19922273 0.042705275
000320 73 bd 39 bb bf 62 45 be f7 b4 d9 bd 82 2e 59 bd
       -0.002834168 -0.1927595 -0.106302194 -0.05302287
000330 b6 b0 1e 3e 17 55 e6 bd 26 1b d7 bc c4 3f a6 3d
       0.15497097 -0.11246698 -0.026258063 0.08117631
000340 18 b8 da bd b3 28 40 bb ac ca 3f be 6c e2 a7 3d
       -0.10679644 -0.0029321134 -0.18729657 0.081974834
000350 2e c5 68 bb 5d 9c 4a 3e 9a 92 2c bd 32 b1 7d 3d
       -0.003551792 0.1978621 -0.042131998 0.061936565
000360 a4 55 ec 3c ab e4 86 3d 7c 49 8f bc 68 d8 15 be
       0.02884943 0.06586584 -0.017491095 -0.14633334
000370 20 41 f7 3d 81 7e 0e be c4 4e 77 bc 51 a7 c7 3d
       0.120729685 -0.13915445 -0.015094463 0.0974871
000380 ce 58 0d be ea 39 ee bd de 9f 56 3e d6 09 22 3e
       -0.13803408 -0.1163214 0.20959422 0.15824065
000390 d9 67 97 3d 4e 80 a9 bd 5e 94 c7 3d ed f4 a0 bd
       0.07392854 -0.08276425 0.09745096 -0.07859216
0003a0 20 a0 d3 bd 0d 21 94 3d 7d 4a f7 3c 06 71 e1 bd
       -0.10333276 0.072328664 0.030186886 -0.11007886
0003b0 ef a6 fc bd a6 6f 53 be 65 ae 1c 3d 29 ce 1d be
       -0.123365276 -0.20648059 0.038252253 -0.15410675
0003c0 71 40 f8 3d fe e0 7e bc 2e 70 d5 bd 5b 4f db bd
       0.12121666 -0.015556572 -0.10421787 -0.10708495
0003d0 9b 30 07 be bd fb 4f be fa 48 69 3d 31 33 90 3d
       -0.13202135 -0.20310874 0.05695436 0.07041014
0003e0 2f 16 56 3d c4 8f c6 ba 6d c7 db bd 32 a0 dc bc
       0.05226725 -0.0015149047 -0.10731397 -0.026931856
0003f0 22 dc b4 3d 83 1b 15 3e 8c 97 f9 3d d9 52 c2 bc
       0.088310495 0.14561276 0.121871084 -0.023721145

model.backbone.layers.0.temporal.mixing.2.bias f4 [85]
000000 81 2c 5b 3e 9f 1e 09 be bc a3 13 be ba d5 81 bd
       0.21403696 -0.13390587 -0.14417928 -0.06339593
000010 53 15 c5 bc 41 08 5b 3e d5 3e c4 bd 73 72 6c 3e
       -0.02405802 0.21389867 -0.09582297 0.23090534
000020 2d c6 09 be c1 ff 09 3c e2 e2 b4 3d b5 cc 03 3e
       -0.13454504 0.008422793 0.08832337 0.12871058
000030 f3 e7 64 3e af e0 e5 bd e1 f3 1c be c4 24 5a 3e
       0.22354107 -0.112244956 -0.15327407 0.21303087
000040 a9 f7 37 3e e6 b5 0e 3d 90 ac 39 be 89 8e 16 bd
       0.17965569 0.03484144 -0.18132234 -0.036757026
000050 6e 5e 3d 3e 12 ac 14 3e 10 82 df bb ad a1 79 be
       0.18493053 0.14518765 -0.0068209246 -0.2437808
000060 2a 28 88 3e 20 2e 6c 3e ea 1f 56 3e b3 38 27 be
       0.26593143 0.2306447 0.20910612 -0.16330223
000070 4c 52 28 be 97 fe 62 bc e4 41 49 3e 0b 23 0c bb
       -0.16437644 -0.013854644 0.19654042 -0.0021383192
000080 df 62 55 3d ef 78 23 3e 70 33 82 3e a1 06 07 3d
       0.052096244 0.15964101 0.2542987 0.032965306
000090 4e 04 1d be 32 6d 83 3e 9b a5 97 3c 8e 50 52 be
       -0.15333673 0.25669247 0.018511584 -0.20538542
0000a0 3b b5 ef 3d 2a 67 48 bd be 3c ec 3d 5e d8 1b 3e
       0.11704489 -0.04892651 0.11535023 0.15219256
0000b0 f4 bc 4a 3d 88 e5 60 be 09 87 5a 3e 03 de 1e 3e
       0.049496606 -0.21962559 0.21340574 0.15514378
0000c0 c2 42 ba bd ac b8 a6 bd b4 11 d1 bd 36 c5 58 be
       -0.09094764 -0.08140692 -0.10208455 -0.2116898
0000d0 3e 2a 88 be 1f 99 30 be e9 e1 fb bd 61 17 df 3d
       -0.26594728 -0.17245911 -0.12298948 0.10893131
0000e0 94 2a 36 be ac eb 3b 3d 9a 60 f4 bc ef bd 1f be
       -0.1778968 0.04587905 -0.02983122 -0.15599798
0000f0 a3 67 f8 3d f6 0f 8b be 3b ef 1c be 52 56 32 bb
       0.12129142 -0.27160615 -0.15325634 -0.0027212095
000100 66 aa 00 3d 55 44 75 be 10 42 19 3e a9 4e 6a bc
       0.031412505 -0.23951848 0.14966607 -0.014300981
000110 5f c6 d8 bd cc a1 54 be ad ce 29 bd 84 1f 6f 3e
       -0.10584711 -0.20764846 -0.041456867 0.23351866
000120 1f 25 68 be b2 39 68 3c 98 e3 41 3d 42 a1 19 3c
       -0.2267041 0.014173912 0.04733619 0.009376826
000130 b3 56 ed bd 29 f7 9a bd 8b c6 01 3e 37 2e be bd
       -0.11588802 -0.07566673 0.12673394 -0.092861585
000140 24 c0 d5 3d 71 b7 d3 3d b0 33 10 3e 38 c0 a3 3d
       0.104370385 0.10337723 0.14082217 0.07995647
000150 43 e1 95 3c
       0.01829589

model.backbone.layers.0.temporal.norm.weight f4 [85]
000000 3c 2d 5e 3f e0 3f 86 3f d9 4f 81 3f a5 c2 84 3f
       0.8678777 1.0488243 1.0102493 1.0371901
000010 eb 93 88 3f 8f 2e 7e 3f b7 24 7b 3f 61 70 8d 3f
       1.0670141 0.9928979 0.981029 1.104992
000020 10 3e 7a 3f 4c 29 8f 3f 8e 80 89 3f 69 3c 8e 3f
       0.9775095 1.1184478 1.0742357 1.1112186
000030 bf 7d 82 3f 90 0e 84 3f 63 fb 89 3f 8b 35 87 3f
       1.0194625 1.0316944 1.0779842 1.0563215
000040 e7 c3 90 3f 56 92 8c 3f 78 03 7f 3f c1 1a 8c 3f
       1.1309785 1.0982158 0.9961467 1.0945665
000050 7a 12 80 3f 3e dc 6e 3f f1 f6 84 3f 9a 30 8a 3f
       1.0005639 0.9330481 1.038786 1.0796082
000060 40 b5 74 3f 30 d3 7d 3f 67 1a 87 3f fc 75 86 3f
       0.95589066 0.9915037 1.0554932 1.0504756
000070 88 2f 8b 3f 02 38 8a 3f 8b 08 80 3f 74 28 87 3f
       1.087388 1.0798342 1.0002607 1.055922
000080 71 0f 82 3f 58 5e 82 3f 9b 4a 7d 3f 14 eb 87 3f
       1.0160962 1.0185041 0.98941964 1.0618615
000090 55 af 80 3f 50 91 6f 3f 17 d3 85 3f f1 0a 7c 3f
       1.0053507 0.93581104 1.0455045 0.98454195
0000a0 38 03 7f 3f e5 73 80 3f b2 d5 7e 3f 65 c1 78 3f
       0.99614286 1.0035368 0.99544823 0.97170097
0000b0 48 29 84 3f 46 b1 81 3f 48 cc 86 3f ff c9 81 3f
       1.0325098 1.0132225 1.0531092 1.0139769
0000c0 38 59 86 3f 3b f5 80 3f b3 b3 8c 3f de 73 85 3f
       1.0495977 1.0074838 1.099234 1.0425985
0000d0 ca 02 84 3f f5 5a 8a 3f db 36 87 3f f0 16 82 3f
       1.0313351 1.0809008 1.0563616 1.016325
0000e0 85 07 7f 3f 56 6b 88 3f d1 f8 84 3f d6 88 81 3f
       0.9962085 1.0657756 1.0388433 1.0119884
0000f0 78 b8 87 3f 83 67 85 3f 98 3d 86 3f 40 07 88 3f
       1.060317 1.0422214 1.0487547 1.0627213
000100 27 f3 88 3f 14 20 8e 3f 57 0d 8f 3f 12 13 84 3f
       1.0699204 1.110354 1.1175946 1.031832
000110 8b 2a 84 3f e4 9e 8a 3f 92 27 88 3f 8a 5a 81 3f
       1.0325483 1.082974 1.0637076 1.0105755
000120 af 9a 89 3f ec 6d 85 3f cc 6d 84 3f b0 a6 84 3f
       1.0750331 1.042417 1.0346007 1.0363369
000130 3b 58 8a 3f 5c 48 8a 3f 4e 1a 86 3f c3 d8 85 3f
       1.0808176 1.0803332 1.0476778 1.0456775
000140 69 6a 88 3f e7 8c 88 3f 9e 8c 8c 3f 01 2b 87 3f
       1.0657474 1.0668 1.0980413 1.0559999
000150 53 ec 87 3f
       1.0618995

model.backbone.layers.0.temporal.norm.bias f4 [85]
000000 45 a2 97 bc 0a d3 4b bb e6 65 5b 3d 50 ba 22 3c
       -0.018509993 -0.003110113 0.053563975 0.009932116
000010 94 b1 12 bd ba e9 02 bd e2 23 3c bd 3b 76 8e bd
       -0.035813883 -0.03196118 -0.045932658 -0.069561444
000020 b9 05 5e bd 32 cb 04 bd 64 b0 50 bc 11 fb 15 bd
       -0.054204676 -0.032420345 -0.012737367 -0.03661639
000030 a4 40 9d bb 97 af 36 bd d9 ea ad bc c0 14 05 bd
       -0.0047989655 -0.04460105 -0.021230148 -0.032490492
000040 15 c5 68 bd 9a d4 44 bc a3 f3 b7 bc 93 1c c6 bb
       -0.056828577 -0.012013579 -0.022455042 -0.006045887
000050 90 2e 06 3d 36 fb 22 3d 0e 4c f0 bc 94 ec dd 3c
       0.03275925 0.039790355 -0.02933314 0.027090348
000060 18 dd 01 bc 00 f6 99 bc 2a 08 cb 3c c4 d2 28 3c
       -0.007926248 -0.01879406 0.024784166 0.010304157
000070 6f 26 3e bd 79 19 45 bd 39 7d 28 3c 5b 65 9b bc
       -0.046423372 -0.048119996 0.010283762 -0.018969228
000080 16 ca 2f bc ed 5a 4f bd 54 65 5b bd e6 98 e2 ba
       -0.010729333 -0.050623823 -0.05356343 -0.0017287999
000090 d8 64 04 bc fa fa 03 bd bb ab 30 bc 80 4e c9 bc
       -0.008080684 -0.03222177 -0.010783131 -0.024573565
0000a0 d0 97 90 3c 39 3a 86 3d 4a 22 6c 3b 6f 0c 8e bd
       0.017650515 0.06554074 0.003603118 -0.06935965
0000b0 cb 73 31 bd a1 a1 30 bc e7 1c 3c bd 01 89 22 bc
       -0.04332332 -0.010780723 -0.045926 -0.00992036
0000c0 5d cf a7 3b e7 f7 95 3c 80 2d 99 bc fb f1 01 3d
       0.005121155 0.018306686 -0.018698454 0.03172491
0000d0 6a 3d fe bc d5 b4 35 bd 47 bc f6 b9 43 e1 8a bc
       -0.031035144 -0.044361908 -0.00047061054 -0.016953116
0000e0 20 62 88 3d 6d 62 24 bc 41 41 25 bc b0 69 79 3d
       0.06659341 -0.010033232 -0.0100863585 0.060891807
0000f0 f7 20 74 bc 5c e2 19 bd 17 b8 30 3c a8 58 82 bc
       -0.014900438 -0.03756939 0.010786078 -0.015911415
000100 96 4d bb 3c b2 99 48 bd 52 13 88 bc 9b 31 23 3d
       0.022864144 -0.0489747 -0.016610775 0.03984223
000110 51 81 ef bc 86 19 0c 3d 56 70 8f bc eb f9 39 bd
       -0.029236468 0.03420403 -0.01750962 -0.045404356
000120 21 dd a4 bb e1 7a 70 3c 30 3f b5 bc c0 86 39 3d
       -0.0050312434 0.014677734 -0.022124857 0.045294523
000130 5a 1e 76 3b 3d 24 39 3d 94 1b 25 bc 30 d2 16 bd
       0.0037554712 0.045200575 -0.010077376 -0.036821544
000140 e2 b9 f7 3b 26 43 bc bc 4f 0d 89 3c 6f ec 2a 3d
       0.0075600008 -0.022981238 0.016729979 0.041729387
000150 fa c3 54 3d
       0.05194471
