experiments/Exp4/saved_models/tsmixer_challenger_3.pt (torch, 730230 bytes, 30 tensors)

model.static_proj.weight f4 [64, 10]
-0.14437246 0.09896929 0.023955278 0.18286271 -0.27289915 0.19023496 0.100549996 -0.13649727
0.12812224 -0.08438096 -0.10904472 -3.8275077e-05 -0.04197135 0.05792586 0.08309577 -0.06451859
0.17743573 -0.022266459 -0.048393622 0.21554749 -0.11695812 -0.0150214415 -0.03133406 0.28853506
0.112614304 0.26934564 -0.0031691752 0.013716911 -0.112938546 -0.004673618 -0.09949319 0.12776752
0.04813349 -0.12913308 0.14453642 -0.5182817 0.071661755 -0.21043749 -0.065541245 0.10691323
-0.06812875 -0.16491579 -0.03707466 -0.20978597 -0.22157198 -0.051585946 0.05604111 0.06782858
-0.14843573 0.031972863 -0.08491203 -0.051089387 0.026252234 0.121842146 -0.3428405 0.29201195
-0.05601475 0.0357458 0.0024256161 0.12106052 0.121318586 0.08837999 -0.15041104 -0.15089568
0.18251827 -0.11184163 -0.3235241 0.11533713 -0.100535065 -0.07741037 0.013419046 0.058091152
-0.16793664 0.16813695 0.048004076 0.163253 0.0022978964 0.08175658 -0.10996685 -0.12701866
-0.062261593 0.05312015 -0.05974764 0.06279258 -0.15127207 0.20036048 0.21266912 -0.106333606
-0.1996706 -0.19548565 -0.13160707 0.0060737655 0.17447774 -0.19420962 -0.19598646 0.14074792
-0.16662864 -0.13350137 -0.08942318 0.16050397 -0.07799826 -0.002063563 -0.31159693 -0.045173272
-0.2632669 -0.1177327 0.048396543 -0.0886465 -0.18495668 0.018197604 -0.011455306 -0.071188025
0.10671977 -0.033359263 0.23277013 -0.059683677 -0.1727489 0.005619976 0.06192234 0.06298406
0.08750406 0.10614755 -0.24004179 0.121687375 -0.03671823 0.13026759 -0.11908993 0.22148928
-0.19458537 -0.060748845 0.07649191 -0.059710685 -0.39945143 0.3725551 0.3141983 -0.2806812
0.14759687 -0.034773204 -0.22692849 -0.07209315 0.07485276 -0.022803523 -0.0758187 -0.084334895
-0.23340386 -0.17766581 -0.148897 -0.098929875 -0.16154464 -0.085265495 0.11275948 -0.091388196
0.18487568 0.09038356 0.10743591 -0.05224585 -0.3441133 0.26158866 0.21577422 -0.015268922
0.0043682223 0.16427124 0.3224962 0.084441036 0.36402312 0.06177058 0.2306782 0.0041782726
0.25431374 -0.31196988 -0.109386176 0.059259605 0.36324593 0.26882914 -0.13527513 0.2894271
-0.009726252 0.18411954 0.11454554 0.1611631 -0.12049049 -0.07874505 0.31856272 -0.017227668
0.17647451 0.23961572 0.1988795 -0.0677583 0.15605897 -0.04766378 0.029434415 -0.04546672
-0.04513618 0.07698451 -0.03655059 -0.013751177 -0.2680865 0.21797758 -0.14004216 0.28573477
-0.105981536 -0.0637029 -0.17302845 0.006583681 -0.25403625 0.044983815 0.093174756 0.13241288
-0.20444666 0.0022926903 0.060718656 0.027829692 0.035526376 -0.23263356 -0.21023639 -0.0218476
-0.3409273 0.064646915 -0.012516416 -0.14063126 0.09517585 -0.020963876 -0.06981531 0.15415621
0.13749559 0.06938172 -0.18550996 -0.02778484 -0.14409491 0.17321508 0.05526486 0.08547123
-0.06855007 0.308614 0.35750154 0.18372647 0.087792344 -0.14068997 -0.17492585 -0.21077321
-0.13740644 -0.07186613 -0.05155414 -0.100397274 0.111162014 0.05568917 -0.15900278 0.10638585
0.16811904 -0.24140541 0.080060236 0.028285787 0.19923134 0.2945059 -0.14908248 0.40545133
00000000: 60d6 13be 69b0 ca3d dc3d c43c 5d40 3b3e
00000010: 70b9 8bbe f4cc 423e 28ed cd3d f1c5 0bbe
00000020: 7a32 033e edcf acbd d752 dfbd 8d89 20b8
00000030: 26ea 2bbd ab43 6d3d 1d2e aa3d 5322 84bd
00000040: b6b1 353e 2668 b6bc 6438 46bd 7bb8 5c3e
00000050: bd87 efbd 7e1c 76bc 2558 00bd deba 933e
00000060: 54a2 e63d ace7 893e f0b1 4fbb e5bc 603c
00000070: 534c e7bd 2625 99bb 16c3 cbbd 7dd5 023e
00000080: 9f27 453d 763b 04be 5b01 143e 1cae 04bf
00000090: 66c3 923d ed7c 57be 7d3a 86bd 53f5 da3d
000000a0: 1687 8bbd afdf 28be 99db 17bd 22d2 56be
000000b0: c4e3 62be c94b 53bd 5d8b 653d b6e9 8a3d
000000c0: 89ff 17be faf5 023d 5ce6 adbd 1b43 51bd
000000d0: ed0e d73c 6088 f93d ca88 afbe 9782 953e
000000e0: b96f 65bd 306a 123d 16f7 1e3b 94ee f73d
000000f0: e175 f83d 9100 b53d 5a05 1abe 6684 1abe
00000100: 12e6 3a3e 390d e5bd f3a4 a5be e035 ec3d
00000110: 54e5 cdbd 5489 9ebd 8fdb 5b3c fdf0 6d3d
00000120: 95f7 2bbe 182c 2c3e ec9f 443d cb2b 273e
00000130: 4e98 163b fe6f a73d 4d36 e1bd 2e11 02be
00000140: 0306 7fbd 8494 593d f1b9 74bd 6599 803d
00000150: 11e7 1abe 4c2b 4d3e efc5 593e 6fc5 d9bd
00000160: 7376 4cbe 642d 48be 01c4 06be 7006 c73b
00000170: 4baa 323e e3de 46be adb0 48be 3920 103e
00000180: b3a0 2abe 95b4 08be 8023 b7bd 275b 243e
00000190: 8dbd 9fbd d83c 07bb a289 9fbe 9c07 39bd
000001a0: ebca 86be d81d f1bd 743b 463d 4c8c b5bd
000001b0: 4965 3dbe 2413 953c 09af 3bbc 07cb 91bd
000001c0: e58f da3d b9a3 08bd 4b5b 6e3e df76 74bd
000001d0: 16e5 30be c727 b83b 48a2 7d3d c9fd 803d
000001e0: 5435 b33d e363 d93d 84cd 75be 3b37 f93d
000001f0: db65 16bd de64 053e 6ce5 f3bd 16ce 623e
00000200: 6341 47be c8d3 78bd caa7 9c3d 3193 74bd
00000210: e684 ccbe 8bbf be3e 99de a03e 72b5 8fbe
00000220: a223 173e 596e 0ebd f15f 68be 93a5 93bd
00000230: 674c 993d 74ce babc d646 9bbd c6b7 acbd
00000240: 6c01 6fbe 07ee 35be 7578 18be bf9b cabd
00000250: f56b 25be ad9f aebd 71ee e63d bc29 bbbd
00000260: 0d50 3d3e 041b b93d 5c07 dc3d bfff 55bd
00000270: 9e2f b0be f3ee 853e ebf3 5c3e 802a 7abc
00000280: 4e23 8f3b b836 283e 391e a53e 6cef ac3d
00000290: 3d61 ba3e 2603 7d3d e836 6c3e e4e9 883b
000002a0: 6935 823e 84ba 9fbe dc05 e0bd 33ba 723d
000002b0: 5ffb b93e f9a3 893e 9085 0abe ca2f 943e
000002c0: dc5a 1fbc d589 3c3e da96 ea3d f107 253e
000002d0: b8c3 f6bd 1645 a1bd a71a a33e 0a21 8dbc
000002e0: bcb5 343e d35d 753e 11a7 4b3e ddc4 8abd
000002f0: eccd 1f3e 193b 43bd 7120 f13c 503b 3abd
00000300: b7e0 38bd 0eaa 9d3d 12b6 15bd 9e4c 61bc
00000310: a242 89be 8435 5f3e 3667 0fbe d44b 923e
00000320: d90c d9bd ab76 82bd 5f2e 31be ebbb d73b
00000330: 0a11 82be f340 383d 68d2 be3d 3e97 073e
00000340: 775a 51be f640 163b 20b4 783d 18fb e33c
00000350: 1b84 113d 7e37 6ebe 3548 57be bdf9 b2bc
00000360: 068e aebe 9a65 843d a711 4dbc a401 10be
00000370: 8eeb c23d 6fbc abbc 54fb 8ebd 20db 1d3e
00000380: a5cb 0c3e 0118 8e3d 53f6 3dbe 089d e3bc
00000390: 9e8d 13be 4b5f 313e 685d 623d 8a0b af3d
000003a0: fb63 8cbd a702 9e3e 710a b73e cb22 3c3e
000003b0: 79cc b33d 0811 10be c31f 33be efd4 57be
000003c0: 46b4 0cbe 8d2e 93bd 6f2a 53bd 169d cdbd
000003d0: e9a8 e33d 541a 643d a0d1 22be d3e0 d93d
000003e0: 6627 2c3e fb32 77be 9ff6 a33d 98b7 e73c
000003f0: 4d03 4c3e 7ac9 963e 14a9 18be 5197 cf3e

model.static_proj.bias f4 [64]
-0.2040653 0.10721687 -0.0687685 0.072470546 0.1464266 -0.15558416 0.26467028 0.0792112
-0.10314492 0.13414739 0.12476528 -0.020646002 -0.2295055 -0.07318515 -0.25369114 -0.25120193
-0.010603365 -0.05256248 0.019858742 0.15158032 -0.08007627 0.034900334 0.12575942 0.09353457
-0.18320991 -0.06935761 -0.107869074 -0.11423962 0.30858603 0.13051717 0.12241786 -0.03878168
0.0033708096 -0.2464723 -0.09749573 0.09063909 -0.14144607 -0.23635536 -0.18475401 -0.090330444
-0.08975129 0.31138378 -0.074273236 0.09988842 0.023874909 -0.21449189 0.016564265 -0.095712095
0.12665336 0.054410584 0.02386963 -0.00023799966 0.1695175 0.14442769 0.19191566 -0.078281224
-0.062815696 0.020889122 -0.17170049 0.021727245 -0.2507339 -0.02236957 0.03804373 0.14499603
00000000: 7ef6 50be 8594 db3d 80d6 8cbd 706b 943d
00000010: dbf0 153e 7451 1fbe dd82 873e 7b39 a23d
00000020: a53d d3bd ef5d 093e f084 ff3d ce21 a9bc
00000030: 7d03 6bbe 19e2 95bd cee3 81be 8a9d 80be
00000040: bcb9 2dbc c14b 57bd cdae a23c df37 1b3e
00000050: 07ff a3bd a7f3 0e3d 14c7 003e 0d8f bf3d
00000060: 619b 3bbe 5d0b 8ebd 76ea dcbd 76f6 e9bd
00000070: fdfe 9d3e 4ba6 053e 37b6 fa3d 8ad9 1ebd
00000080: cde8 5c3b 3c63 7cbe d7ab c7bd fda0 b93d
00000090: 3dd7 10be 2407 72be 2830 3dbe 2bff b8bd
000000a0: 86cf b7bd b26d 9f3e 911c 98bd 4d92 cc3d
000000b0: 5095 c33c c3a3 5bbe c8b1 873c b404 c4bd
000000c0: 6bb1 013e a2dd 5e3d 3e8a c33c 8c8f 79b9
000000d0: ff95 2d3e dae4 133e 8a85 443e e851 a0bd
000000e0: 84a5 80bd aa1f ab3c 41d2 2fbe 56fd b13c
000000f0: 3260 80be 6340 b7bc bed3 1b3d d779 143e

model.layers.0.temporal.0.weight f4 [32, 64]
-0.03318388 0.18595323 0.082398996 -0.17094277 -0.12306703 -0.018013872 0.13233459 -0.01286538
-0.031384066 -0.1316606 -0.055400155 0.096021496 0.04558911 -0.02878974 0.030699745 -0.124394126
0.07515938 0.14067568 0.085016415 -0.08800921 -0.09079572 0.09127642 0.13048168 0.08209054
0.007592953 -0.12628505 -0.17913106 -0.024265159 0.1674652 -0.10926882 -0.21794479 -0.09050179
0.10980525 0.100931674 -0.07855811 0.02121456 0.059353773 0.07365613 0.027651157 -0.21384782
-0.05739859 0.13702713 0.01357395 0.03971963 0.12449353 0.12616846 -0.15571426 -0.07625727
-0.15016654 -0.0027310695 0.07844438 0.24055819 0.15118615 -0.042676616 -0.1709426 -0.13756168
-0.055697046 -0.038627576 0.35189706 0.14129771 0.067932606 0.14202124 0.12829897 -0.6025362
0.0051309755 -0.07800342 -0.061537974 -0.18246181 -0.17865773 -0.10645795 -0.016897768 0.19470797
0.20861332 0.09180351 -0.109408125 -0.1005641 0.07505014 0.01017796 -0.07699866 -0.115672395
-0.021308739 0.027753148 0.14488709 0.028381797 0.007930234 0.018757947 -0.047290504 0.08545458
0.0407356 0.21391362 0.21199374 0.02983595 0.16536103 0.03762922 -0.08748705 -0.3242332
-0.13243465 -0.20044841 -0.040886488 0.014645299 0.028832342 -0.011156869 -0.20802133 -0.076587185
-0.21923216 -0.034717098 0.023230854 0.09604273 0.07065023 -0.057511173 -0.10596706 0.008954077
0.028389232 -0.044554595 -0.021371543 -0.0060668048 0.022978993 -0.0031669769 0.05532645 -0.18439981
-0.095818795 0.039444275 0.12000362 0.08622518 -0.022076936 0.061974116 0.0669819 -0.26228422
0.07111012 0.16153902 -0.069500014 -0.086338334 -0.063462585 0.03618582 0.06493261 -0.06395011
0.1419556 -0.13445203 -0.10957636 0.13481627 0.12820898 0.20565811 0.17306691 0.06323454
-0.18841866 -0.32033134 -0.28118557 -0.033233736 0.09708613 0.105460666 0.119065695 0.122592084
0.0383932 -0.09835755 0.047785353 -0.1691607 -0.0400844 -0.019217676 0.17467578 0.015904699
0.13426182 0.118867666 0.1955277 -0.01428015 -0.039523285 -0.19290614 -0.21568961 -0.20650582
-0.09585823 0.18908048 0.25394458 0.16221128 -0.008296266 -0.43130487 -0.009688483 -0.041296173
0.21378832 0.061576873 -0.007287622 -0.18714812 -0.13496628 -0.13715681 -0.11948379 -0.07913196
-0.10649413 0.1537688 -0.068337075 0.035496973 0.105751514 0.07479654 0.08943461 -0.14203228
0.06554458 0.15470673 0.13347004 0.07309685 -0.039656352 0.03902009 0.048705824 0.16898099
0.13706751 -0.12538058 -0.1728527 -0.14425702 -0.117333196 0.023478573 0.1879853 0.13828321
-0.05099499 -0.003663173 -0.058540653 -0.047009367 0.06643964 -0.034111194 0.0109012965 0.062687054
0.029384766 0.08737277 -0.050882675 -0.114808336 -0.20777646 -0.1279157 -0.14269195 -0.074324936
-0.025691548 0.21486245 0.047501486 0.023653805 -0.019639097 0.05511202 0.057330854 -0.07245614
-0.0027658092 -0.03574015 0.018611962 0.09871261 -0.19677874 -0.01136823 -0.038630277 -0.079392366
-0.12894972 -0.33307102 -0.22241643 -0.17452855 0.05011856 -0.010292988 -0.063522615 0.0063711386
-0.018867576 0.082926326 0.17056604 0.017946793 0.14113991 0.25293675 0.25252372 0.3613105
00000000: d2eb 07bd 866a 3e3e cec0 a83d 9f0b 2fbe
00000010: 910a fcbd d491 93bc b882 073e 51c9 52bc
00000020: 948c 00bd 09d2 06be 46eb 62bd eba6 c43d
00000030: a6bb 3a3d 76d8 ebbc 087e fb3c 59c2 febd
00000040: 29ed 993d 490d 103e 161d ae3d 2c3e b4bd
00000050: 1bf3 b9bd 22ef ba3d fd9c 053e 161f a83d
00000060: 4ece f83b de50 01be 226e 37be bac7 c6bc
00000070: ff7b 2b3e 55c8 dfbd eb2c 5fbe 0159 b9bd
00000080: 93e1 e03d 44b5 ce3d 13e3 a0bd 28ca ad3c
00000090: f11c 733d 06d9 963d ae84 e23c ecfa 5abe
000000a0: c91a 6bbd d750 0c3e 4665 5e3c 0db1 223d
000000b0: 77f6 fe3d 4e32 013e 8f73 1fbe c62c 9cbd
000000c0: 42c5 19be befb 32bb 72a7 a03d e354 763e
000000d0: 8bd0 1a3e adcd 2ebd 940b 2fbe f8dc 0cbe
000000e0: 9622 64bd f337 1ebd da2b b43e 59b0 103e
000000f0: 4020 8b3d 046e 113e ce60 033e d03f 1abf
00000100: be21 a83b 42c0 9fbd 3e0f 7cbd 45d7 3abe
00000110: 0df2 36be a006 dabd 306d 8abc 8761 473e
00000120: bb9e 553e 7b03 bc3d 5e11 e0bd 8df4 cdbd
00000130: e3b3 993d 75c1 263c 79b1 9dbd a6e5 ecbd
00000140: aa8f aebc 925a e33c 485d 143e f180 e83c
00000150: d0ed 013c 44aa 993c b0b3 41bd d002 af3d
00000160: 5fda 263d 2c0c 5b3e e314 593e 866a f43c
00000170: 6754 293e 1921 1a3d 692c b3bd e501 a6be
00000180: f39c 07be 5942 4dbe 9778 27bd d6f2 6f3c
00000190: ce31 ec3c 4dcb 36bc 8b03 55be bed9 9cbd
000001a0: 657e 60be 8433 0ebd a24e be3c 0db2 c43d
000001b0: 11b1 903d d690 6bbd 4205 d9bd 1fb4 123c
000001c0: 8990 e83c e17e 36bd 6013 afbc 0ccc c6bb
000001d0: 713e bc3c 0e8d 4fbb fd9d 623d 4ed3 3cbe
000001e0: a53c c4bd 5290 213d 75c4 f53d d496 b03d
000001f0: b1da b4bc 92d8 7d3d ce2d 893d 1e4a 86be
00000200: 2fa2 913d 7c6a 253e 0656 8ebd 27d2 b0bd
00000210: acf8 81bd 9537 143d 63fb 843d 46f8 82bd
00000220: cf5c 113e cbad 09be 9269 e0bd 470d 0a3e
00000230: 3749 033e 0a98 523e 7438 313e 1c81 813d
00000240: d2f0 40be 7802 a4be 8ef7 8fbe 1920 08bd
00000250: 18d5 c63d c3fb d73d b7d8 f33d 8f11 fb3d
00000260: 3042 1d3d af6f c9bd 93ba 433d 7638 2dbe
00000270: 8a2f 24bd 636e 9dbc 35de 323e 924a 823c
00000280: ee7b 093e e470 f33d 6a38 483e 4af7 69bc
00000290: 2be3 21bd 3089 45be bddd 5cbe 4376 53be
000002a0: 5251 c4bd 509e 413e 0605 823e b71a 263e
000002b0: 10ed 07bc fed3 dcbe 71bc 1ebc 2d26 29bd
000002c0: 53eb 5a3e 0838 7c3d 01cd eebb c2a3 3fbe
000002d0: 9a34 0abe d672 0cbe ebb3 f4bd f00f a2bd
000002e0: 9819 dabd 9175 1d3e 4ff4 8bbd 4665 113d
000002f0: 4094 d83d ee2e 993d 7e29 b73d e970 11be
00000300: 3d3c 863d 716b 1e3e 5fac 083e cdb3 953d
00000310: b36e 22bd 88d3 1f3d c27f 473d 5a09 2d3e
00000320: 6d5b 0c3e c463 00be 4c00 31be 1db8 13be
00000330: 634c f0bd 2356 c03c 387f 403e 1d9a 0d3e
00000340: 1fe0 50bd d811 70bb 53c8 6fbd e58c 40bd
00000350: 8211 883d 2eb8 0bbd 5a9b 323c 1262 803d
00000360: 52b8 f03c 7ff0 b23d 5a6a 50bd a220 ebbd
00000370: 5ac3 54be 55fc 02be d71d 12be ac37 98bd
00000380: 1577 d2bc e704 5c3e eb90 423d a0c5 c13c
00000390: 2ce2 a0bc 24bd 613d c2d3 6a3d e263 94bd
000003a0: 9442 35bb 4364 12bd 1d78 983c d629 ca3d
000003b0: 5e80 49be d041 3abc c83a 1ebd 7798 a2bd
000003c0: 650b 04be 4988 aabe 22c1 63be 9db7 32be
000003d0: 1f49 4d3d eca3 28bc 2518 82bd fcc4 d03b
000003e0: 2d90 9abc 47d5 a93d dda8 2e3e 2705 933c
000003f0: fb86 103e ed80 813e ca4a 813e b1fd b83e

model.layers.0.temporal.0.bias f4 [32]
0.2448288 -0.34824413 -0.29736513 -0.5891608 -0.17231648 0.1342592 -0.6857272 -0.7652832
-0.24379294 -0.12415388 -0.11884225 -0.45201862 -0.23157457 0.12355522 -0.43247765 0.104931846
-0.12447246 0.018761786 -0.08950201 -0.087108485 -0.30394942 -0.15282302 0.12893377 -0.16865976
-0.052309178 -0.021479966 0.07858184 0.0314635 0.04127272 0.02787456 -0.44511536 -0.52190876
00000000: 67b4 7a3e 0e4d b2be 3e40 98be 3ed3 16bf
00000010: bb73 30be 3e7b 093e d18b 2fbf 9ae9 43bf
00000020: dba4 79be 6444 febd 9163 f3bd fc6e e7be
00000030: e221 6dbe 850a fd3d b66d ddbe 82e6 d63d
00000040: 6beb febd 51b2 993c d44c b7bd ef65 b2bd
00000050: 429f 9bbe a37d 1cbe 3707 043e 25b5 2cbe
00000060: 2642 56bd c1f6 afbc 84ef a03d dfdf 003d
00000070: 950d 293d 3059 e43c 29e6 e3be d09b 05bf

model.layers.0.temporal.2.weight f4 [64, 32]
0.14437328 0.0030891947 0.15344185 -0.10807362 -0.005202805 -0.10330613 -0.009035016 -0.015310312
-0.0425883 0.08958006 0.032079026 0.09824693 0.06564765 0.088389784 -0.07657752 -0.11706705
0.29488474 0.015203702 -0.17159942 -0.037001267 -0.14525051 -0.07484934 -0.023852933 -0.021182228
-0.032514855 0.13557492 -0.034256943 -0.1559651 -0.012199596 -0.08897538 -0.02444896 -0.030103518
-0.14883442 0.018177435 0.024111385 0.12479877 -0.13087188 -0.15067902 -0.06581097 0.13833334
-0.18985917 -0.033148248 0.20777278 0.07333964 -0.15198693 -0.17923972 0.030155115 0.056624375
0.15567543 -0.1035125 -0.25816217 -0.16149193 0.012203998 0.013974681 -0.028662313 0.041264165
0.19321175 0.0044534863 0.25306496 0.26280615 -0.28021085 0.027979678 -0.16966686 -0.30054003
-0.0008880303 0.0382798 -0.03569395 -0.23821166 -0.019775897 0.15029961 0.109727725 -0.113914385
-0.042496797 0.05456646 0.27246022 0.096913375 -0.083352506 0.097233705 0.3346519 -0.02052463
-0.054815356 0.082813144 -0.08892257 0.104672566 -0.12498499 0.08064218 0.12932275 -0.053645846
-0.14871202 0.065945275 0.090085275 -0.14407595 0.08467209 0.16843924 0.05927416 -0.15291508
0.026208598 -0.044557326 -0.067645624 0.019691695 -0.0019954906 0.12260078 -0.11268086 0.34112036
-0.18330435 -0.12922175 -0.23514244 0.19093327 0.2535941 -0.1725516 -0.21565577 -0.06030145
0.01947843 -0.17415936 -0.13303837 0.058532417 0.012863886 0.24079779 0.2074951 -0.19529188
0.14819646 -0.048733234 -0.038437348 0.018861098 -0.20914653 -0.11757513 -0.056324095 -0.12205598
0.030018339 -0.022719424 -0.074763194 0.15268724 -0.29597118 -0.18662722 -0.13394962 -0.00475946
-0.11569907 0.10698298 -0.20751065 0.035983216 -0.09686469 0.1576207 -0.07295288 0.16719116
0.28333345 0.070601724 0.036155693 -0.24374342 0.11004304 -0.2767337 -0.21557988 0.41259804
-0.0021966344 -0.072325796 -0.00842561 0.112136446 0.10971884 -0.05815924 0.030238958 0.18274531
0.07209639 0.015569858 0.061319727 0.1551581 -0.08367451 -0.08387113 0.055519555 -0.028412258
0.009529152 0.01190839 -0.097023055 0.09541499 -0.041676365 0.11204384 -0.06621984 0.34488824
-0.22029066 -0.0056619076 0.2980603 0.08190064 -0.19506173 -0.0049295635 -0.008639706 -0.12788145
-0.11924222 0.32590806 0.09312109 -0.045628887 0.13107829 -0.026750153 -0.0983845 -0.19308482
-0.27067485 0.09656007 -0.1295245 0.33881223 0.010173116 0.048792694 -0.25196812 -0.058791466
-0.28425422 -0.2467403 0.10994137 -0.0062042573 0.17068918 -0.2636247 -0.25899616 -0.39153075
0.30805516 0.13937378 -0.11436659 0.17494929 -0.07193573 0.028050166 0.11443949 -0.08885539
-0.013439239 0.20859672 0.055129223 -0.21784772 0.008926476 0.384311 -0.12350006 0.38642377
0.092224814 -0.06496696 0.13348171 -0.2533377 0.10819342 0.030219397 -0.17640918 -0.08931545
0.029969307 0.12547815 -0.1387005 0.18850222 0.070943385 -0.082234584 0.25142667 0.0011597031
-0.11848654 0.16609296 0.19499041 0.16198412 0.017518548 0.064992115 0.16600387 -0.010601159
0.028960284 0.18553841 0.14626871 -0.09533648 -0.063780375 -0.21134073 -0.005090149 0.09553514
00000000: 97d6 133e 1674 4a3b dc1f 1d3e b455 ddbd
00000010: 4b7c aabb 2a92 d3bd 9b07 14bc 1ad8 7abc
00000020: 1271 2ebd c075 b73d 4c65 033d b035 c93d
00000030: 4672 863d b405 b53d add4 9cbd d9c0 efbd
00000040: 22fb 963e f318 793c c2b7 2fbe a48e 17bd
00000050: 8dbc 14be 9c4a 99bd 3a67 c3bc 5a86 adbc
00000060: 4c2e 05bd 27d4 0a3e 0251 0cbd 51b5 1fbe
00000070: d0e0 47bc b938 b6bd 2f49 c8bc a79b f6bc
00000080: 0d68 18be d8e8 943c 3d85 c53c 7f96 ff3d
00000090: 4703 06be 9a4b 1abe e7c7 86bd 41a7 0d3e
000000a0: 716a 42be 75c6 07bd 63c2 543e 1833 963d
000000b0: 76a2 1bbe 9e8a 37be dc07 f73c f6ee 673d
000000c0: 6169 1f3e 5dfe d3bd d52d 84be 245e 25be
000000d0: 47f3 473c 0ff6 643c 3acd eabc 9d04 293d
000000e0: 4dd9 453e 8dee 913b bb91 813e 878e 863e
000000f0: cc77 8fbe a335 e53c 26bd 2dbe 62e0 99be
00000100: b4ca 68ba 48cb 1c3d d233 12bd c2ed 73be
00000110: 1001 a2bc 24e8 193e eeb8 e03d f24b e9bd
00000120: 1f11 2ebd 1581 5f3d e87f 8b3e 857a c63d
00000130: b8b4 aabd 7722 c73d 7e57 ab3e 4523 a8bc
00000140: 1186 60bd f099 a93d 091d b6bd 925e d63d
00000150: 21f8 ffbd ba27 a53d 2f6d 043e bfbb 5bbd
00000160: f747 18be 510e 873d a17e b83d a588 13be
00000170: 9068 ad3d 567b 2c3e 76c9 723d c595 1cbe
00000180: 6ab3 d63c be81 36bd ca89 8abd 7a50 a13c
00000190: c7c6 02bb 1e16 fb3d 39c5 e6bd 54a7 ae3e
000001a0: 23b4 3bbe b552 04be 2ec9 70be 0384 433e
000001b0: 16d7 813e 5eb1 30be ded4 5cbe a7fe 76bd
000001c0: 3a91 9f3c d556 32be 363b 08be b0bf 6f3d
000001d0: 0cc3 523c b293 763e 9879 543e 98fa 47be
000001e0: d0c0 173e 809c 47bd 7b70 1dbd 9782 9a3c
000001f0: 822a 56be 3bcb f0bd 18b4 66bd 7cf8 f9bd
00000200: 05e9 f53c 161e babc 721d 99bd 0b5a 1c3e
00000210: 8989 97be 351b 3fbe 172a 09be 3ff5 9bbb
00000220: a2f3 ecbd e519 db3d ac7d 54be 2363 133d
00000230: ff60 c6bd 5267 213e 5268 95bd 2934 2b3e
00000240: 1511 913e a397 903d fe17 143d e097 79be
00000250: 3f5e e13d 0ab0 8dbe f9c0 5cbe 0d40 d33e
00000260: 69f5 0fbb 8c1f 94bd 920b 0abc cba7 e53d
00000270: 45b4 e03d 6238 6ebd b1b7 f73c 9621 3b3e
00000280: 46a7 933d b818 7f3c 652a 7b3d c4e1 1e3e
00000290: 8b5d abbd a1c4 abbd 7968 633d d3c0 e8bc
000002a0: 2920 1c3c 681b 433c 06b4 c6bd ef68 c33d
000002b0: d6b4 2abd 3e77 e53d 449e 87bd 3195 b03e
000002c0: e093 61be 8687 b9bb 5c9b 983e 86bb a73d
000002d0: 43be 47be 2d88 a1bb 8e8d 0dbc 5bf3 02be
000002e0: 4435 f4bd 6cdd a63e 45b6 be3d 5be5 3abd
000002f0: 6339 063e 2323 dbbc d07d c9bd 07b8 45be
00000300: e595 8abe 49c1 c53d 12a2 04be cc78 ad3e
00000310: 24ad 263c d9da 473d f701 81be 52cf 70bd
00000320: c589 91be 7da9 7cbe f128 e13d 154d cbbb
00000330: 25c9 2e3e d1f9 86be 259b 84be b876 c8be
00000340: 68b9 9d3e 00b8 0e3e 0839 eabd e825 333e
00000350: 0a53 93bd 76c9 e53c 405f ea3d d1f9 b5bd
00000360: 4130 5cbc 619a 553e 2ecf 613d 7913 5fbe
00000370: 5b40 123c 69c4 c43e 99ed fcbd 56d9 c53e
00000380: 5de0 bc3d 660d 85bd 6eaf 083e 7bb5 81be
00000390: 8394 dd3d ab8e f73c 9ca4 34be 05eb b6bd
000003a0: 3182 f53c 587d 003e 8107 0ebe ba06 413e
000003b0: c44a 913d 9b6a a8bd ffba 803e 2e01 983a
000003c0: 12a9 f2bd 4614 2a3e 91ab 473e 2adf 253e
000003d0: 0f83 8f3c 961a 853d ebfc 293e 7cb0 2dbc
000003e0: 1e3e ed3c c8fd 3d3e 77c7 153e c63f c3bd
000003f0: 499f 82bd b469 58be 44cb a6bb eda7 c33d

model.layers.0.temporal.2.bias f4 [64]
0.02842212 0.009204697 -0.123614214 0.049914937 0.028525323 -0.08738481 -0.0009935854 -0.045962177
-0.024865527 -0.04493167 0.02355488 0.060323484 -0.0008229311 0.002616711 -0.05968742 0.06893431
-0.048469204 -0.008618144 -0.043084953 0.13261588 0.027235977 0.023635976 -0.026985014 0.080154575
-0.035831235 -0.095275864 -0.0022914726 -0.0053906213 0.017369378 0.030878546 -0.07300839 -0.019174552
-0.015905898 0.06057197 -0.0013349187 0.013234707 -0.055996425 -0.05981871 0.093101375 -0.08537996
-0.027115252 -0.022828098 0.030114558 0.04533128 -0.014492722 0.05936766 0.026052278 -0.04224235
-0.02600146 -0.037111357 0.004421901 -0.008115832 -0.012069288 -0.018119441 -0.11198781 0.03193749
-0.032026593 0.00588986 0.05967999 0.03536141 0.043432817 0.050110597 0.015662184 0.04149835
00000000: 81d5 e83c 4ccf 163c 7329 fdbd 9b73 4c3d
00000010: f0ad e93c cff6 b2bd 323b 82ba d642 3cbd
00000020: cab2 cbbc 450a 38bd 2af6 c03c c215 773d
00000030: f9b9 57ba 207d 2b3b cc7a 74bd 6e2d 8d3d
00000040: a587 46bd 1e33 0dbc d979 30bd 75cc 073e
00000050: fc1d df3c 3ca0 c13c ad0f ddbc 1528 a43d
00000060: c6c3 12bd fe1f c3bd 882c 16bb cfa3 b0bb
00000070: 3a4a 8e3c 01f5 fc3c 6c85 95bd f313 9dbc
00000080: 164d 82bc 501a 783d 70f8 aeba 62d6 583c
00000090: 825c 65bd 7704 75bd efab be3d b0db aebd
000000a0: ce20 debc fe01 bbbc ceb2 f63c 4bad 393d
000000b0: e272 6dbc 812b 733d 966b d53c 5006 2dbd
000000c0: 0401 d5bc 1402 18bd 98e5 903b 44f8 04bc
000000d0: 43be 45bc 396f 94bc dd59 e5bd e3d0 023d
000000e0: 512e 03bd baff c03b 0173 743d 20d7 103d
000000f0: 9ce6 313d c540 4d3d fb4d 803c 2dfa 293d

model.layers.0.channel.0.weight f4 [32, 74]
-0.046325468 -0.17809662 -0.24539101 -0.18474555 -0.03754347 -0.42269874 0.24363357 0.1321352
0.08926898 0.23087399 -0.024817334 0.12805668 -0.08607553 -0.18265177 0.076895036 -0.05679376
-0.037348356 0.07248707 -0.060393143 0.0025159612 -0.1506463 0.027501564 0.17632312 0.18437818
-0.007894781 0.06270837 -0.032575723 0.037845716 0.104106285 -0.061894093 -0.013881425 -0.057257947
-0.061969608 -0.078796744 0.26481873 0.020437615 -0.026669199 -0.06513035 0.0022751463 -0.078089416
-0.10349105 -0.08497626 -0.15503395 0.020405194 0.02760464 -0.09540089 0.08503701 -0.002454179
0.074555844 0.068022996 0.09402215 0.0797253 -0.118502714 -0.0049519683 0.15916334 0.16923717
-0.07404891 0.052098207 0.052158725 -0.039378405 0.041153245 0.010519423 -0.05610055 -0.01846991
-0.021189975 0.15558311 0.07346249 -0.03939484 0.09762668 -0.019947438 0.17117108 0.09249303
-0.014987882 -0.11837453 -0.085367255 -0.07209414 0.03232298 -0.048816912 0.10473899 -0.27574462
-0.4383871 -0.27956817 -0.14679715 0.05008809 0.19344884 0.041771617 0.055738725 -0.0840589
0.051699795 0.10609471 -0.054411393 -0.08180579 0.16191356 0.023091702 -0.14742476 -0.025003327
0.10765486 0.11764708 0.14606746 0.13382581 -0.13251062 0.06752366 0.0133449305 -0.075401485
0.03711351 0.12097517 -0.014062615 0.00072718714 0.29825306 0.09994091 0.09516627 0.042893477
-0.13485315 -0.054021537 -0.056106165 0.0007000446 0.04913887 0.052849393 0.098271355 -0.032240562
0.07712696 0.17239676 0.22357258 -0.021836223 0.18753766 -0.052894432 -0.017936261 -0.015227871
0.039743625 0.03501414 -0.101115264 -0.098799 0.051846754 -0.005186185 -0.10303331 -0.0699926
-0.13819605 -0.109849095 0.10981907 0.048460763 -0.0151863275 -0.10077686 0.07220244 -0.026468702
0.21639112 -0.05990118 0.10675276 0.10592478 0.088190496 -0.046742614 0.20095687 -0.06580575
0.083310924 -0.00018756602 0.082991034 0.10224723 -0.059721813 -0.0031582804 -0.1580303 -0.07592481
-0.2171852 0.120419584 0.06099324 -0.034806225 0.11535832 -0.31166878 -0.027741058 0.12065577
0.016627252 0.10914588 0.15777433 -0.05970931 0.30193874 -0.036580976 -0.34835318 -0.17809239
-0.06873554 -0.07252995 0.07196782 0.16677944 0.061908282 -0.22252692 -0.22705081 -0.18894905
0.21577194 0.09752479 0.046491686 -0.2011207 -0.30967012 0.34466913 0.14664282 0.12568542
0.20737106 -0.21322694 0.5466179 0.6413088 0.14095427 0.028383514 0.48150942 -0.21636283
-0.097155936 0.1710852 -0.21114191 0.09519368 -0.052753843 0.16894914 0.051578704 0.0086209
0.20925686 -0.20635293 -0.53298366 -0.22604986 0.025517642 0.08803253 -0.09645873 0.027630161
0.056628354 -0.21101886 0.107659265 -0.120855235 0.19896594 -0.013666951 0.10586855 0.097911395
-0.13128948 -0.29186088 0.1577618 0.058910046 -0.11281247 -0.073277965 0.032051653 0.039087612
-0.011642753 -0.015599401 0.14408667 0.16006236 -0.16301909 0.119750656 -0.12482179 0.042133633
0.36305144 0.17874072 -0.050008867 0.123520166 0.04871298 -0.2846653 -0.14515923 -0.09088689
-0.0325267 0.0049948404 0.39226028 0.0633049 -0.108407214 -0.21348105 0.1601947 0.00510876
00000000: c6bf 3dbd f65e 36be c847 7bbe f02d 3dbe
00000010: 2ec7 19bd f86b d8be 147b 793e 734e 073e
00000020: a8d2 b63d 3b6a 6c3e b94d cbbc 4a21 033e
00000030: 5e48 b0bd 1109 3bbe 257b 9d3d 93a0 68bd
00000040: 97fa 18bd 1a74 943d cd5e 77bd d3e2 243b
00000050: 0643 1abe f64a e13c 0c8e 343e a2cd 3c3e
00000060: 1d59 01bc 3f6d 803d 1f6e 05bd 1c04 1b3d
00000070: ad35 d53d a984 7dbd eb6e 63bc 4f87 6abd
00000080: d8d3 7dbd 3060 a1bd 5296 873e c96c a73c
00000090: 5d79 dabc 1063 85bd 9f1a 153b 58ed 9fbd
000000a0: 1ef3 d3bd 0908 aebd 38c1 1ebe cb28 a73c
000000b0: 2023 e23c 8b61 c3bd e227 ae3d 4bd6 20bb
000000c0: bcb0 983d a44f 8b3d af8e c03d 0547 a33d
000000d0: 8db1 f2bd 1f44 a2bb b7fb 223e 824c 2d3e
000000e0: f4a6 97bd ee64 553d 63a4 553d 404b 21bd
000000f0: 4e90 283d a859 2c3c b1c9 65bd 354e 97bc
00000100: 9996 adbc 2e51 1f3e 8173 963d 7c5c 21bd
00000110: 7ff0 c73d cf68 a3bc 7947 2f3e fc6c bd3d
00000120: bc8f 75bc 586e f2bd 07d5 aebd 18a6 93bd
00000130: 1a65 043d 3ef4 47bd 6581 d63d 662e 8dbe
00000140: 4674 e0be 8f23 8fbe fe51 16be 2b29 4d3d
00000150: 7417 463e b718 2b3d 4a4e 643d 1327 acbd
00000160: 2ac3 533d 2f48 d93d 7bde 5ebd cb89 a7bd
00000170: abcc 253e cf2a bd3c 84f6 16be c7d3 ccbc
00000180: 277a dc3d f4f0 f03d b592 153e a209 093e
00000190: ddb0 07be d849 8a3d b2a4 5a3c 186c 9abd
000001a0: 5604 183d d4c1 f73d e266 66bc b4a0 3e3a
000001b0: a0b4 983e d2ad cc3d 89e6 c23d 12b1 2f3d
000001c0: f216 0abe b045 5dbd 94cf 65bd 3383 373a
000001d0: d745 493d 9b78 583d 7e42 c93d ae0e 04bd
000001e0: bdf4 9d3d c788 303e 36f0 643e e1e1 b2bc
000001f0: df09 403e d5a7 58bd 11ef 92bc 527e 79bc
00000200: 36ca 223d fd6a 0f3d 8515 cfbd 2157 cabd
00000210: 435d 543d dff0 a9bb 2103 d3bd 4858 8fbd
00000220: 4483 0dbe 90f8 e0bd d2e8 e03d cb7e 463d
00000230: 13d0 78bc 1964 cebd dfde 933d e4d4 d8bc
00000240: a295 5d3e f15a 75bd 31a1 da3d 17ef d83d
00000250: 389d b43d 2f75 3fbd a3c7 4d3e 2ac5 86bd
00000260: eb9e aa3d 5fad 44b9 34f7 a93d ff66 d13d
00000270: dc9e 74bd 27fb 4ebb b2d2 21be 777e 9bbd
00000280: cc65 5ebe 8b9e f63d 0cd4 793d f990 0ebd
00000290: fc40 ec3d 0d93 9fbe 3741 e3bc 5f1a f73d
000002a0: e035 883c e087 df3d 988f 213e c091 74bd
000002b0: b797 9a3e efd5 15bd 595b b2be da5d 36be
000002c0: 38c5 8cbd 958a 94bd dd63 933d 3bc8 2a3e
000002d0: 8a93 7d3d 19de 63be 0280 68be dc7b 41be
000002e0: 52f3 5c3e 14bb c73d 116e 3e3d 96f2 4dbe
000002f0: 158d 9ebe 7978 b03e 8929 163e aeb3 003e
00000300: 1459 543e 2a58 5abe 27ef 0b3f d02c 243f
00000310: 5156 103e 8b84 e83c 6788 f63e 388e 5dbe
00000320: b1f9 c6bd f530 2f3e 9635 58be e7f4 c23d
00000330: 6a14 58bd 0101 2d3e 3144 533d ad3e 0d3c
00000340: 6e47 563e 2f4e 53be 9e71 08bf 9d79 67be
00000350: 600a d13c 664a b43d 288c c5bd a658 e23c
00000360: 22f3 673d 5415 58be 767c dc3d f382 f7bd
00000370: babd 4b3e 59eb 5fbc 9cd1 d83d c585 c83d
00000380: c070 06be ca6e 95be 4f8c 213e a94b 713d
00000390: 390a e7bd c212 96bd 9848 033d 551a 203d
000003a0: 3fc1 3ebc a194 7fbc 758b 133e 63e7 233e
000003b0: 7aee 26be d53f f53d 91a2 ffbd 5194 2c3d
000003c0: e1e1 b93e cf07 373e 19d6 4cbd 24f8 fc3d
000003d0: 4387 473d a6bf 91be 9fa4 14be e822 babd
000003e0: b83a 05bd c2ab a33b 57d6 c83e 00a6 813d
000003f0: 9a04 debd c79a 5abe 140a 243e 6367 a73b

model.layers.0.channel.0.bias f4 [32]
-0.2553079 -0.33831236 -0.31748858 -0.26091462 -0.21149357 -0.26588762 -0.16989118 -0.08744183
-0.24751174 -0.029429313 -0.03149088 -0.010376802 -0.21845493 -0.17088892 -0.3263152 -0.26067004
-0.24394555 0.05843443 0.015649723 -0.09877607 -0.22791818 -0.26744488 -0.3296813 -0.117961645
-0.034187816 -0.116188526 -0.13651736 -0.42587972 -0.035701368 -0.03320138 -0.4032573 -0.3024199
00000000: b8b7 82be 4737 adbe dd8d a2be 9a96 85be
00000010: c591 58be 6c22 88be f4f7 2dbe b414 b3bd
00000020: b873 7dbe be15 f1bc 95fc 00bd 7603 2abc
00000030: a6b2 5fbe 81fd 2ebe c912 a7be 8b76 85be
00000040: ddcc 79be f158 6f3d d933 803c 1c4b cabd
00000050: 6263 69be 89ee 88be fdcb a8be e095 f1bd
00000060: 8608 0cbd 40f4 edbd 35cb 0bbe e80c dabe
00000070: 993b 12bd 2cfe 07bd be77 cebe c8d6 9abe

model.layers.0.channel.2.weight f4 [74, 32]
0.21162194 -0.020358348 0.18385015 -0.4236809 0.005518777 0.13430855 -0.37797913 -0.29422593
0.161372 0.1839631 0.16965021 0.303131 -0.16377687 -0.08602193 0.033161618 -0.08438093
0.12577192 0.011800062 0.0037790048 0.11437978 -0.024583166 0.10685655 0.05318453 -0.40911537
-0.09903835 -0.025692474 -0.20181184 -0.23381054 0.08722238 -0.14193596 0.010406628 -0.021279303
-0.013949631 -0.057596076 0.24353926 -0.09749134 -0.063663855 0.10811244 0.13326612 -0.35305235
0.021507587 -0.039675612 0.19380108 -0.06425228 0.13921997 0.29879868 -0.08351902 -0.0308426
-0.06400064 0.03961492 0.13235882 -0.1294095 -0.021726832 0.15061873 0.13534796 -0.24502808
0.07806976 -0.13553603 -0.055096563 0.11428041 0.091329105 -0.13268971 -0.06674014 0.16991375
0.15136401 -0.33768046 0.06870936 -0.19358417 -0.08186702 -0.1528 -0.1670488 0.012350025
0.06260291 0.13177732 -0.1521327 0.013460785 0.12139315 -0.01540911 -0.27502102 0.1254788
-0.19475356 -0.23520657 0.047887027 0.055596046 0.24719653 -0.13462888 0.18693954 -0.036427915
-0.30144444 0.2005591 -0.16414201 -0.29704005 -0.05368873 0.04972041 0.19877279 0.0030242796
-0.04832819 0.04943841 -0.06194965 0.014924585 -0.008776729 0.025245 -0.0038560277 -0.008339938
-0.0013353355 0.021947451 -0.06388005 -0.006631372 0.032911118 -0.046409953 -0.010785358 -0.012116849
0.029960394 -0.0010924054 0.010313739 -0.006516313 -0.007047472 -0.012640526 -0.02130545 0.022232348
-3.6823163e-05 0.048892997 0.027635697 0.06374168 0.012906779 -0.017347734 0.07916535 -0.015260036
-0.17340255 -0.068962924 0.03214793 -0.22856948 0.1351072 0.13500541 0.11610503 -0.3735082
-0.06843621 -0.118386425 0.0811123 -0.04031216 -0.060685903 -0.2166022 -0.11560218 0.059013642
-0.027948325 0.05148432 0.12909725 0.20207863 -0.16185169 -0.14295876 0.10336326 -0.2776599
-0.0033417516 0.016692685 0.103877 0.0663206 0.013601962 0.018876266 -0.1499954 -0.06212282
-0.051625833 0.27621722 -0.14182404 -0.09691402 -0.0006803418 -0.18760882 0.027767338 0.11713175
0.0044150557 -0.10951062 -0.24453914 -0.13780569 -0.0829894 0.058660913 0.091243155 -0.119471535
0.20616466 0.03160458 -0.005183241 -0.113457516 -0.13750324 -0.029931819 -0.2478107 0.113686465
-0.1737117 -0.22706039 -0.033449054 -0.11681359 0.020064404 -0.13374805 0.38024545 0.08935638
-0.08435738 0.072153986 -0.043565866 -0.015605419 -0.026040174 0.08850007 -0.059619077 -0.1779167
-0.06116846 0.12518947 0.05074452 0.14945409 -0.032893334 0.113213494 -0.015333548 -0.19497888
0.06710835 -0.017401442 -0.025650036 -0.080649555 -0.11048122 0.019914871 0.14628692 -0.21652652
0.20526111 0.17321661 0.021332316 0.18206418 0.12460253 0.09408437 -0.2090575 0.27457786
-0.08448317 0.2405473 -0.1733762 0.023248205 -0.0009736521 -0.15938795 -0.13447304 -0.045294963
-0.059860967 -0.036952406 0.0058138147 0.016691148 -0.034830585 -0.041158203 0.014131874 -0.015235925
0.13607407 -0.055076543 -0.021962311 -0.14297825 -0.11588174 0.019714814 0.00090400584 -0.11411332
0.088879414 0.016191892 0.3462266 0.12749031 0.37294772 0.13983075 -0.18095443 0.40209478
00000000: 6cb3 583e 8dc6 a6bc 3743 3c3e b4ec d8be
00000010: dbd6 b43b 2e88 093e 7b86 c1be c8a4 96be
00000020: b43e 253e d360 3c3e c9b8 2d3e fd33 9b3e
00000030: 20b5 27be 442c b0bd 7ad4 073d e9cf acbd
00000040: 5bca 003e 0c55 413c 2ea9 773b f23f ea3d
00000050: a362 c9bc 9bd7 da3d 06d8 593d 9277 d1be
00000060: 9ed4 cabd 0679 d2bc c3a7 4ebe 086c 6fbe
00000070: a6a1 b23d a957 11be 9080 2a3c ef51 aebc
00000080: fe8c 64bc dde9 6bbd 5b62 793e 8aa9 c7bd
00000090: 3262 82bd 0e6a dd3d ea76 083e 47c3 b4be
000000a0: ae30 b03c e582 22bd ca73 463e b396 83bd
000000b0: ae8f 0e3e 24fc 983e 050c abbd 9fa9 fcbc
000000c0: c412 83bd 4143 223d 1289 073e ed83 04be
000000d0: 78fc b1bc cc3b 1a3e a898 0a3e a4e8 7abe
000000e0: 0ae3 9f3d f5c9 0abe efac 61bd d90b ea3d
000000f0: c10a bb3d d0df 07be 0eaf 88bd dffd 2d3e
00000100: 2bff 1a3e 74e4 acbe 7eb7 8c3d ee3a 46be
00000110: e5a9 a7bd 9a77 1cbe d70e 2bbe c257 4a3c
00000120: f435 803d a2f0 063e adc8 1bbe a08a 5c3c
00000130: f99c f83d 7e76 7cbc 8ecf 8cbe 847d 003e
00000140: 7a6d 47be fed9 70be 3025 443d aeb8 633d
00000150: 1621 7d3e 27dc 09be 146d 3f3e 7035 15bd
00000160: ed56 9abe 5d5f 4d3e d814 28be a215 98be
00000170: b7e8 5bbd a1a7 4b3d 188b 4b3e fe32 463b
00000180: c8f3 45bd ee7f 4a3d ebbe 7dbd 3f86 743c
00000190: 45cc 0fbc 9ace ce3c 69b5 7cbb 3ca4 08bc
000001a0: 6d06 afba 24cb b33c 8bd3 82bd fb4b d9bb
000001b0: cfcd 063d 5d18 3ebd 12b5 30bc c085 46bc
000001c0: 806f f53c 0b2f 8fba f5fa 283c cc86 d5bb
000001d0: 7bee e6bb 351a 4fbc c488 aebc 9d20 b63c
000001e0: 9272 1ab8 0644 483d 4264 e23c ff8a 823d
000001f0: f476 533c d61c 8ebc 7121 a23d 3b05 7abc
00000200: 7090 31be 6f3c 8dbd 8cad 033d 1e0e 6abe
00000210: 8b59 0a3e dc3e 0a3e 79c8 ed3d 773c bfbe
00000220: 4928 8cbd 9574 f2bd 351e a63d 5d1e 25bd
00000230: c891 78bd f8cc 5dbe d6c0 ecbd 4ab8 713d
00000240: e3f3 e4bc 39e1 523d 1232 043e b3ed 4e3e
00000250: 73bc 25be c863 12be 1eb0 d33d 7029 8ebe
00000260: 4a01 5bbb 19bf 883c 77bd d43d 18d3 873d
00000270: c3da 5e3c 66a2 9a3c 6598 19be 8074 7ebd
00000280: 9c75 53bd 586c 8d3e 523a 11be dc7a c6bd
00000290: f758 32ba 871c 40be 5478 e33c c5e2 ef3d
000002a0: 2cac 903b 1b47 e0bd 7868 7abe ef1c 0dbe
000002b0: 59f6 a9bd 6d46 703d b1dd ba3d 7ead f4bd
000002c0: d41c 533e ce73 013d 2dd8 a9bb 6a5c e8bd
000002d0: a6cd 0cbe 9333 f5bc 17c2 7dbe 73d4 e83d
000002e0: 7be1 31be 8582 68be e001 09bd f73b efbd
000002f0: 1b5e a43c 40f5 08be 88af c23e 7a00 b73d
00000300: 90c3 acbd 78c5 933d 1f72 32bd dfad 7fbc
00000310: 3452 d5bc 863f b53d 2233 74bd cc2f 36be
00000320: c78b 7abd ab31 003e 7cd9 4f3d 7e0a 193e
00000330: 29bb 06bd 7adc e73d 9039 7bbc 8ba8 47be
00000340: 1a70 893d 788d 8ebc 0620 d2bc 982b a5bd
00000350: fa43 e2bd 8324 a33c 3dcc 153e 21b9 5dbe
00000360: f82f 523e b25f 313e 1cc1 ae3c 086f 3a3e
00000370: 9c2f ff3d 4eaf c03d 2b13 56be 7895 8c3e
00000380: 8305 adbd 0852 763e 8889 31be 0573 be3c
00000390: b03c 7fba 9836 23be 4db3 09be 3687 39bd
000003a0: c630 75bd 685b 17bd d081 be3b e0bb 883c
000003b0: 84aa 0ebd 8195 28bd 6089 673c 1aa0 79bc
000003c0: 0057 0b3e f197 61bd 4eea b3bc e468 12be
000003d0: 6853 edbd f680 a13c cefa 6c3a 3fb4 e9bd
000003e0: 6906 b63d dca4 843c 9d44 b13e d28c 023e
000003f0: 01f3 be3e cb2f 0f3e 1e4c 39be 5edf cd3e

model.layers.0.channel.2.bias f4 [74]
-0.017041532 0.012528688 0.1670325 -0.00038415234 0.087136894 0.058224272 -0.12675375 -0.06678082
-0.06338782 -0.10595359 0.031374052 -0.06746853 0.1278145 -0.01456514 0.15028152 0.017753975
-0.06274463 -0.10216158 -0.02225666 0.07351952 0.26309574 0.020502655 -0.0429714 -0.106839776
-0.019152395 -0.045192428 0.12189413 -0.028648213 -0.03057061 0.066829376 0.0051051774 -0.02359031
-0.07947145 -0.032785077 0.17194659 0.0150753865 0.08676046 -0.03670154 -0.06302756 -0.090948336
0.0047875824 -0.04252978 -0.0634235 0.030596912 0.072182186 -0.15785198 0.2013714 -0.063450985
-0.06914838 -0.042751525 0.018221024 0.18240955 -0.065887615 -0.019493725 -0.04945605 -0.06290885
-0.14503668 0.027132714 0.08077671 0.116896324 -0.035614762 -0.23757392 0.1307611 0.034398317
0.04067678 -0.142241 -0.07682583 0.061050378 -0.05114961 -0.005400386 -0.06584667 -0.07342945
-0.06289386 0.051772222
00000000: af9a 8bbc 2045 4d3c 910a 2b3e 0e68 c9b9
00000010: d474 b23d 937c 6e3d bccb 01be 62c4 88bd
00000020: 79d1 81bd 32fe d8bd 1482 003d f12c 8abd
00000030: cee1 023e a0a2 6ebc 66e3 193e c970 913c
00000040: 4280 80bd 173a d1bd 9953 b6bc 6791 963d
00000050: 7cb4 863e 2ff5 a73c c702 30bd d0ce dabd
00000060: 7ce5 9cbc b21b 39bd a1a3 f93d a8af eabc
00000070: 376f fabc d7dd 883d 5549 a73b 7740 c1bc
00000080: edc1 a2bd a549 06bd c412 303e c1fe 763c
00000090: 78af b13d 5b54 16bd 9814 81bd 1f43 babd
000000a0: 27e1 9c3b b533 2ebd 2ee4 81bd 60a6 fa3c
000000b0: 41d4 933d f3a3 21be 4e34 4e3e 97f2 81bd
000000c0: aa9d 8dbd 391c 2fbd 4244 953c 92c9 3a3e
000000d0: 16f0 86bd 4eb1 9fbc 6d92 4abd 5bd6 80bd
000000e0: 7f84 14be 6d45 de3c 426e a53d 5767 ef3d
000000f0: c9e0 11bd 9446 73be 3de6 053e 40e5 0c3d
00000100: b29c 263d a0a7 11be dc56 9dbd f60f 7a3d
00000110: 4182 51bd b9f5 b0bb 9eda 86bd 2e62 96bd
00000120: 7fce 80bd 1c0f 543d

model.layers.1.temporal.0.weight f4 [32, 64]
-0.023825746 0.0474096 -0.3096463 -0.10627859 -0.14885601 -0.020153672 0.05105469 0.09506763
0.11296258 0.13575532 0.16908099 0.08551684 0.20311686 0.26405784 0.15409935 -0.16978073
-0.0897071 -0.036972154 -0.09305562 -0.24866399 -0.060412776 0.03319294 0.097662956 -0.034474503
0.04428322 -0.075133584 -0.08003397 -0.12149305 -0.019044323 -0.13912347 -0.2217483 -0.1840004
-0.23656233 -0.2865778 -0.14936374 -0.056750692 -0.09654713 0.01180673 0.06237214 0.13352695
0.011993357 -0.02177508 -0.088104464 -0.11137882 0.06429374 -0.17689238 0.13829076 0.18390709
0.09897431 0.108980946 -0.0466998 0.07235546 -0.029514583 -0.015535597 -0.0669775 -0.056236524
0.12028303 0.0616551 -0.029484386 0.046761792 0.07087648 0.16643745 0.075128995 0.45693293
0.11105395 0.06104674 -0.036843706 -0.03690752 -0.095379345 -0.11118688 0.1133524 -0.057947975
0.06028123 0.0007873048 0.0026205874 0.071784146 0.101941906 0.08244202 0.05063266 0.07988476
0.010286697 -0.044501297 -0.042882003 -0.23700906 -0.027009487 0.09131989 0.009818022 -0.008084121
-0.11805235 -0.0240853 0.04837502 -0.012268015 0.020447511 0.063191965 0.056073885 0.11361801
0.22631216 -0.11404034 0.10454003 0.19326188 0.04662608 -0.04170202 -0.021073133 -0.15343893
0.11656746 0.021647744 -0.04493004 0.0034192393 -0.03526042 -0.10522053 0.04248121 -0.057505973
-0.021687297 0.07162569 0.033592433 0.029785223 0.08422203 -0.0013727383 0.19107784 0.18335369
0.20581034 0.15782711 -0.028890202 -0.1053747 -0.18747574 -0.038992073 -0.1317902 -0.5406023
-0.06481839 0.04687231 0.038118236 -0.006955082 0.14475179 -0.1238222 0.05585905 -0.059247132
0.08379316 -0.0051566726 -0.031069048 0.05210728 -0.03926628 0.014013755 -0.15379305 -0.12783645
0.04578508 0.013597471 0.051446263 0.02025641 -0.06370008 0.113323346 0.05949955 0.055633597
-0.08565937 0.10465302 -0.08484055 0.06697539 0.01606393 -0.066400096 -0.020995626 0.032826412
0.10232899 -0.071054585 0.07512666 -0.001673499 0.110542335 -0.21071947 -0.2777025 -0.017049225
0.1437699 0.13518107 0.06190166 -0.057888173 0.2779628 -0.21580634 0.033796344 -0.18765186
0.09300914 0.118512265 -0.05668256 0.039255247 0.15746918 -0.08943907 -0.1030672 -0.05744174
-0.24642445 -0.15359385 -0.04638108 -0.040308427 0.0031393177 0.059191037 -0.2351276 0.7545777
0.06320205 0.24227394 0.16976173 0.07856766 -0.15670776 -0.06842251 -0.021533508 0.18253493
-0.039031878 0.007714735 0.029872946 0.14611648 0.010083472 -0.06831753 -0.050733693 0.23085807
0.04792121 -0.3237146 -0.1742272 -0.004206484 -0.12778784 -0.10550277 -0.20513806 0.037218705
0.21994528 -0.15620139 -0.40654233 -0.11995651 0.15491368 0.12632823 -0.19611964 0.03997816
0.041979074 0.17362504 -0.05355654 -0.055864472 -0.23366272 -0.27868813 0.0015291857 -0.15286773
0.060158722 -0.18730593 0.043169856 -0.12103918 -0.10380818 0.20244607 0.15375242 -0.09297951
-0.015250729 -0.052599836 0.015397863 -0.05248721 -0.035139438 -0.10825652 -0.15744242 0.303326
0.18952227 0.26277313 0.29235712 0.016700054 0.03592532 0.015943656 -0.029546224 0.055389524
00000000: 362e c3bc 9230 423d f689 9ebe 97a8 d9bd
00000010: b66d 18be 5019 a5bc b91e 513d d1b2 c23d
00000020: ed58 e73d 7103 0b3e 9123 2d3e 7423 af3d
00000030: defd 4f3e 9732 873e 38cc 1d3e 00db 2dbe
00000040: 5bb8 b7bd 1d70 17bd f293 bebd c6a1 7ebe
00000050: 6373 77bd 52f5 073d 8403 c83d 2335 0dbd
00000060: 5262 353d a3df 99bd dae8 a3bd 59d1 f8bd
00000070: d702 9cbc 6276 0ebe fd11 63be 9a6a 3cbe
00000080: 653d 72be 53ba 92be cff2 18be 6a73 68bd
00000090: 80ba c5bd 0471 413c ee79 7f3d 4abb 083e
000000a0: c97f 443c a761 b2bc 1d70 b4bd 941a e4bd
000000b0: 70ac 833d 4723 35be 189c 0d3e 2452 3c3e
000000c0: 0bb3 ca3d 6731 df3d 4a48 3fbd 192f 943d
000000d0: 91c8 f1bc 0489 7ebc 802b 89bd 4558 66bd
000000e0: f356 f63d 0f8a 7c3d 3d89 f1bc 4b89 3f3d
000000f0: b027 913d 946e 2a3e 3bdd 993d 1df3 e93e
00000100: 4170 e33d 250c 7a3d 6de9 16bd 572c 17bd
00000110: 3f56 c3bd f2b5 e3bd 4e25 e83d db5a 6dbd
00000120: 73e9 763d 2163 4e3a 29be 2b3b 9103 933d
00000130: ebc6 d03d 5dd7 a83d 3164 4f3d 9f9a a33d
00000140: 8989 283c fe46 36bd 0aa5 2fbd 81b2 72be
00000150: 0043 ddbc ec05 bb3d c5db 203c 4373 04bc
00000160: 6ec5 f1bd 894e c5bc e324 463d c9ff 48bc
00000170: 8a81 a73c ca6a 813d bbad 653d 8fb0 e83d
00000180: 60be 673e fb8d e9bd 1519 d63d 71e6 453e
00000190: fdfa 3e3d bdcf 2abd 90a1 acbc 181f 1dbe
000001a0: ecba ee3d 9c56 b13c 9008 38bd 5115 603b
000001b0: 3b6d 10bd dc7d d7bd c700 2e3d 628b 6bbd
000001c0: 8fa9 b1bc 7db0 923d 3898 093d 2400 f43c
000001d0: 9a7c ac3d 74ed b3ba e9a9 433e 12c1 3b3e
000001e0: f2bf 523e 6e9d 213e 25ab ecbc b1ce d7bd
000001f0: a4f9 3fbe 27b6 1fbd 03f4 06be ea64 0abf
00000200: 81bf 84bd 2efd 3f3d de21 1c3d 75e7 e3bb
00000210: d039 143e 7e96 fdbd 76cc 643d 1fad 72bd
00000220: c09b ab3d 4ef9 a8bb 8484 febc 716e 553d
00000230: aed5 20bd f399 653c ed7b 1dbe 8fe7 02be
00000240: 2389 3b3d edc7 5e3c 51b9 523d c5f0 a53c
00000250: 3075 82bd 1216 e83d cdb5 733d 0ee0 633d
00000260: 2e6e afbd 5354 d63d e2c0 adbd 652a 893d
00000270: 8198 833c c6fc 87bd 05ff abbc fd74 063d
00000280: dd91 d13d 1185 91bd 02dc 993d 4f59 dbba
00000290: 0564 e23d d8c6 57be 062f 8ebe d1aa 8bbc
000002a0: 6b38 133e e86c 0a3e 988c 7d3d 261c 6dbd
000002b0: 2451 8e3e 56fc 5cbe 096e 0a3d cf27 40be
000002c0: 937b be3d 8fb6 f23d f92b 68bd 1cca 203d
000002d0: 9a3f 213e d52b b7bd e514 d3bd 0848 6bbd
000002e0: b156 7cbe b547 1dbe 16fa 3dbd 731a 25bd
000002f0: 03bd 4d3b 4d72 723d 4ac5 70be 012c 413f
00000300: 1470 813d a916 783e 05d6 2d3e 15e8 a03d
00000310: 0078 20be 1a21 8cbd 0a67 b0bc 70ea 3a3e
00000320: e4df 1fbd e3cb fc3b 1cb8 f43c 8f9f 153e
00000330: 2635 253c 10ea 8bbd 22ce 4fbd 0f66 6c3e
00000340: 0849 443d ecbd a5be 9d68 32be 8cd6 89bb
00000350: d1da 02be d611 d8bd b60f 52be a472 183d
00000360: 5639 613e 42f3 1fbe 5126 d0be c2ab f5bd
00000370: b1a1 1e3e 305c 013e 96d3 48be 24c0 233d
00000380: 40f2 2b3d c3ca 313e 1a5e 5bbd 25d2 64bd
00000390: 4845 6fbe 36b0 8ebe f56e c83a 5c89 1cbe
000003a0: fe68 763d 20cd 3fbe e0d2 303d 64e3 f7bd
000003b0: 6299 d4bd 064e 4f3e 4671 1d3e 0b6c bebd
000003c0: 32de 79bc ed72 57bd 5247 7c3c d4fc 56bd
000003d0: 5fee 0fbd 98b5 ddbd 9638 21be 8c4d 9b3e
000003e0: 2012 423e 338a 863e d5af 953e 8dce 883c
000003f0: 6e26 133d 459c 823c ec0a f2bc 20e0 623d

model.layers.1.temporal.0.bias f4 [32]
-0.024396343 -0.20578866 -0.0965966 -0.1311039 -0.04861073 -0.22931263 -0.67908204 -0.07861137
-0.057115883 -0.053175822 -0.08999786 -0.20904066 -0.68109304 -0.09070646 -0.048376177 -0.6248739
0.09376539 -0.3020782 -0.44003144 -0.24987923 -0.059617963 -0.026574805 -0.12921183 -0.05891003
-0.44305742 -0.18538684 -0.15412469 0.135213 -0.57125425 -0.37447143 -0.19307257 -0.5692841
00000000: d7da c7bc 43ba 52be 70d4 c5bd 1a40 06be
00000010: 0b1c 47bd eed0 6abe 52d8 2dbf fffe a0bd
00000020: 58f2 69bd e4ce 59bd cc50 b8bd c10e 56be
00000030: 1d5c 2ebf 4fc4 b9bd 1926 46bd bcf7 1fbf
00000040: 1208 c03d fea9 9abe cd4b e1be 57e0 7fbe
00000050: f731 74bd 68b3 d9bc 1b50 04be a54b 71bd
00000060: 6cd8 e2be 0cd6 3dbe ddd2 1dbe 4775 0a3e
00000070: b83d 12bf b8ba bfbe d1b4 45be 9abc 11bf
