experiments/Exp4/saved_models/tsmixer_challenger_2.pt (torch, 730230 bytes, 30 tensors)

model.static_proj.weight f4 [64, 10]
0	0x3e756c7e	0.23967168
1	0x3c565946	0.013082808
2	0x3e36e4a2	0.17860654
3	0xbd84fbd1	-0.06493343
4	0xbd7cfdae	-0.061765365
5	0x3df0c747	0.11756759
6	0xbd86edc5	-0.0658832
7	0x3cd75700	0.026286602
8	0x3dc472a9	0.09592182
9	0x3e277770	0.16354156
10	0x3dbb1eee	0.09136759
11	0x3d90b7f0	0.07066333
12	0x3dad94a5	0.08475617
13	0xbd9e0b98	-0.07717055
14	0x3df8cfa2	0.12148978
15	0xbddcdd9f	-0.10784458
16	0xbca4db80	-0.020124197
17	0x3d23d448	0.03999737
18	0x3e36cda9	0.1785189
19	0xbe274637	-0.16335379
20	0x3db97f22	0.09057452
21	0xbccd8dda	-0.025092054
22	0x3e3e4aa1	0.18583156
23	0xbce2d646	-0.027690064
24	0x3dc0e3a9	0.09418423
25	0x3c97ff30	0.0185543
26	0xbe9520ad	-0.29126492
27	0x3dd262d6	0.10272758
28	0x3dffe717	0.12495249
29	0xbdd4467d	-0.10365007
30	0x3cb73a29	0.0223666
31	0x3db5e0bf	0.088807575
32	0x3d0a0dda	0.033704616
33	0xbd76d465	-0.06026115
34	0x3e93a2d7	0.28835174
35	0xbe8597ef	-0.2609248
36	0x3d65989e	0.05605375
37	0xbd6d66b5	-0.057959277
38	0x3d6ca305	0.057772655
39	0xbe158027	-0.14599667
40	0xbe80bc68	-0.25143743
41	0x3c90cb6b	0.017675122
42	0x3e701794	0.23446494
43	0xbe41cdea	-0.18926206
44	0x3d7d4f54	0.06184323
45	0xbef268d0	-0.4734559
46	0x3def527a	0.11685653
47	0xbe4415e8	-0.19148982
48	0xbe63db6d	-0.22251673
49	0x3e91c243	0.28468522
50	0xbe079496	-0.13240275
51	0x3df1f5c8	0.11814457
52	0x3ec49492	0.383946
53	0xbecf80bd	-0.40527907
54	0xbe897e7a	-0.26854306
55	0x3ece5270	0.4029727
56	0xbe094252	-0.13404205
57	0xbcd36191	-0.02580336
58	0x3e266026	0.16247615
59	0xbbab19cb	-0.0052215806
60	0xbdc979b1	-0.09837664
61	0x3b93c58c	0.0045096334
62	0x3cf2676d	0.029590333
63	0x3e1f8234	0.15577012
64	0x3e949f02	0.29027563
65	0x3d8c63a7	0.06854945
66	0x3dd0d70d	0.10197268
67	0x3d32090c	0.04346566
68	0x3daf9236	0.085728094
69	0xbe34742f	-0.17622446
70	0xbc4c460e	-0.012467874
71	0x3e1e2eac	0.15447491
72	0xbee3e0a4	-0.44507325
73	0x3de97b1e	0.11400436
74	0x3de0e6c5	0.10981516
75	0xbd15c665	-0.036566157
76	0xbe9a467e	-0.30131906
77	0x3dfcead9	0.12349481
78	0xbea85f3e	-0.32885164
79	0xbd19ef06	-0.037581466
80	0xbe3b5a58	-0.18296182
81	0x3e2f11d8	0.1709665
82	0x3d18abbd	0.037273157
83	0x3ed4bb1c	0.41549003
84	0x3ec1d467	0.37857363
85	0x3c7fce03	0.015613082
86	0x3e0eb7d1	0.13937308
87	0x3dcc5978	0.09978002
88	0x3d318379	0.043338273
89	0xbe450a71	-0.19242264
90	0x3e3ab5a3	0.18233351
91	0xbd6451d9	-0.05574212
92	0xbe359ad2	-0.1773484
93	0xbd08dfa8	-0.03341642
94	0xbe8ae852	-0.2713037
95	0x3dc3b756	0.09556453
96	0xbe4a6d84	-0.1976834
97	0x3e85d8a4	0.26141846
98	0xbde7b9dd	-0.113147475
99	0xbe216079	-0.15759458
100	0x3ddc3245	0.10751776
101	0x3d49241d	0.049106706
102	0xbcd8361f	-0.026392994
103	0x3e22d53c	0.15901655
104	0x3eb0e41a	0.34549028
105	0xbd0ae206	-0.03390696
106	0x3da5703a	0.08078046
107	0xbc60aad3	-0.013712603
108	0x3e2caabc	0.16862005
109	0xbe8a45a5	-0.2700626
110	0x3dae453f	0.085093014
111	0xbcec9d0d	-0.028883481
112	0x3db06488	0.08612925
113	0x3e1e310f	0.15448402
114	0xbe4fc493	-0.20289831
115	0xbe82222c	-0.25416696
116	0x3eb04b86	0.3443262
117	0xbe8ee2cf	-0.27907416
118	0xbdb0c754	-0.08631769
119	0x3e8d5820	0.27606297
120	0xbc95db92	-0.018293176
121	0x3dadd7e8	0.084884465
122	0xbe5b7010	-0.21429467
123	0x3dffcf6c	0.124907345
124	0x3d43955b	0.04774986
125	0x3df06a53	0.1173903
126	0xbd8e2a4c	-0.06941661
127	0x3e1d38c8	0.15353692
128	0xbd904775	-0.07044879
129	0x3de0668a	0.10957058
130	0xbd7d8ee5	-0.061903853
131	0xbdbc6f9d	-0.09200976
132	0x3d715164	0.05891551
133	0xbdb02bea	-0.08602126
134	0xbcd8bf40	-0.026458383
135	0x3de46bd8	0.11153382
136	0x3dfe7913	0.12425437
137	0xbe08f0b2	-0.13373068
138	0xbe02add8	-0.12761629
139	0xbba5744a	-0.005049263
140	0xbc3d05a7	-0.011536992
141	0x3ce699c8	0.0281495
142	0x3e5892bc	0.21149725
143	0xbe3b5341	-0.18293478
144	0x3de41400	0.11136627
145	0xbe726c0f	-0.23674034
146	0xbd91f0fa	-0.07126041
147	0xbe2c686f	-0.16836713
148	0x3d755fdb	0.059905868
149	0x3d5390aa	0.051651634
150	0xbd6e0d1a	-0.058117963
151	0x3d0cbf9f	0.03436243
152	0xbd6126c6	-0.054968618
153	0xbdad208d	-0.08453474
154	0x3ea3f3b4	0.32021868
155	0xbd9e51b6	-0.07730429
156	0x3d9130ec	0.07089409
157	0xbe31c53d	-0.17360397
158	0x3cd943ea	0.026521642
159	0xbc43345d	-0.01191434
160	0xbd8b62dd	-0.06805966
161	0xbbfd9376	-0.007738526
162	0x3dc0d8c9	0.094163485
163	0xbcea237c	-0.028581373
164	0xbddd33ca	-0.108008936
165	0x3e062c1a	0.13102761
166	0x3c12286e	0.008920772
167	0xbddedf4d	-0.10882435
168	0x3d958443	0.073006175
169	0x3dd8fb92	0.10594858
170	0x3e4b0834	0.19827348
171	0xbb3d46a3	-0.0028881214
172	0x3e9e1ab0	0.30879736
173	0xbda920ad	-0.082581855
174	0x3e04be2f	0.12963174
175	0x3d2e153f	0.04250073
176	0xbe4023d9	-0.18763675
177	0x3e566cf5	0.20940001
178	0x3e9eceea	0.31017238
179	0xbddb6734	-0.10713044
180	0x3a5c3e8e	0.00084016554
181	0xbe1bf988	-0.15231907
182	0x3e42d59e	0.19026801
183	0x3e34d936	0.17660984
184	0x3eb3174c	0.34978712
185	0x3d028b9d	0.031871427
186	0xbd944476	-0.072396204
187	0xbb08b239	-0.0020858182
188	0xbd7ae32f	-0.061251815
189	0x3e05242a	0.13002077
190	0xbc3db61e	-0.011579065
191	0xbde85fd4	-0.11346403
192	0x3df316a7	0.11869555
193	0xbb87eedb	-0.004148347
194	0x3d1c031c	0.038088903
195	0xbd637108	-0.055527717
196	0x3e078935	0.13235934
197	0xbd81014d	-0.06299076
198	0x3df42a80	0.11922169
199	0x3d57c488	0.05267766
200	0xbb8f2ff6	-0.004369731
201	0xbc887588	-0.016657606
202	0x3cf4af10	0.029868633
203	0xbb3bd344	-0.002865986
204	0x3c592259	0.013252818
205	0x3db02c12	0.08602156
206	0x3de71486	0.112832114
207	0x3e03ae46	0.12859449
208	0x3d9df3a3	0.07712486
209	0xbe6d6c8e	-0.23185942
210	0xbc52b227	-0.012859858
211	0xbd60d065	-0.05488624
212	0x3de5d537	0.11222308
213	0xbccc75b8	-0.024958476
214	0xbcb4f73b	-0.022090545
215	0x3d2c0368	0.041995436
216	0x3dc2af1e	0.09506057
217	0xbcb479f7	-0.022030814
218	0x3d8a4f33	0.06753387
219	0x3c27a406	0.010231977
220	0xbdc6460a	-0.09681328
221	0xbdc4e72c	-0.09614405
222	0xbd1604a0	-0.036625504
223	0xbe95600d	-0.29174843
224	0x3e60d616	0.21956667
225	0xbe783336	-0.24238285
226	0xbdb74edf	-0.0895059
227	0x3dd6b50d	0.104837514
228	0x3cbdfb9f	0.023191271
229	0xbe961001	-0.29309085
230	0x3ce21b30	0.027600855
231	0xbc9c114b	-0.019051215
232	0xbefe0394	-0.49612105
233	0xbc95d635	-0.018290618
234	0x3e27b741	0.163785
235	0xbe927764	-0.28606713
236	0x3cb556f1	0.022136183
237	0x3e2db5de	0.16963908
238	0xbdeb1e2d	-0.11480365
239	0xbe82aa77	-0.2552068
240	0xbe158341	-0.1460085
241	0x3d6827e6	0.056678675
242	0xbd87ac77	-0.06624692
243	0x3db08a7c	0.08620164
244	0xbdb7b5c0	-0.08970213
245	0x3bdf5504	0.0068155546
246	0x3ead0ae9	0.33797386
247	0xbdc9f86e	-0.09861837
248	0xbe915ca4	-0.28390992
249	0x3e8b337c	0.27187717
250	0xbc99b726	-0.01876409
251	0xbd54b315	-0.0519286
252	0x3e49f81c	0.19723552
253	0xbd0fd58e	-0.03511577
254	0xbe73f9ac	-0.23825711
255	0x3ea4dc43	0.32199296

model.static_proj.bias f4 [64]
0	0x3c125f97	0.008933923
1	0x3dc62d63	0.096766256
2	0xbd73a712	-0.059485503
3	0xbde9ac83	-0.11409857
4	0xbd352b0e	-0.044230513
5	0x3d2075be	0.039174788
6	0xbb12c537	-0.0022395381
7	0x3db3bdda	0.08776446
8	0xbe47efc3	-0.19525056
9	0x3e70b6b1	0.23507191
10	0xbcaafad2	-0.020871554
11	0xbddcd686	-0.107831046
12	0xbe2183a8	-0.15772879
13	0xbda3e496	-0.08002584
14	0x3e066f2d	0.13128348
15	0xbd9b73ac	-0.07590422
16	0x3efbb7d1	0.49163678
17	0xbd3d8166	-0.046265982
18	0x3e18680d	0.14883442
19	0xbe05d05e	-0.13067767
20	0xbdf2be53	-0.11852708
21	0x3e30d3db	0.17268316
22	0x3d68a690	0.05679947
23	0xbda9eed4	-0.08297506
24	0x3e65d6d5	0.22445233
25	0xbd0cae29	-0.03434578
26	0xbdb7f21d	-0.08981726
27	0xbd1b41fa	-0.037904717
28	0xbe9fab6f	-0.3118548
29	0xbc9f704f	-0.019462733
30	0x3dc26ab4	0.09493008
31	0xbeab8bc2	-0.33505064
32	0x3e1aa56f	0.1510217
33	0xbd0c85bc	-0.034307227
34	0xbe401f9c	-0.18762058
35	0xbe1c9c34	-0.15293962
36	0x3daff7d0	0.08592188
37	0xbb6f87b2	-0.0036549387
38	0xbe0b20d2	-0.13586739
39	0x3d40c5ce	0.04706364
40	0x3e2c1646	0.16805372
41	0xbd66d449	-0.056354795
42	0xbca020c2	-0.01954687
43	0xbd290762	-0.041266806
44	0x3decc01c	0.115600795
45	0xbe01095d	-0.12601228
46	0xbe1221c0	-0.14270687
47	0xbd52f42e	-0.0515024
48	0x3d6b75cf	0.057485398
49	0xbcbcb53f	-0.023035644
50	0xbe1be748	-0.15224946
51	0x3dfd1af5	0.12358657
52	0x3d4f9d4e	0.050687127
53	0x3ca02478	0.01954864
54	0x3e094c84	0.13408095
55	0xbdd5d32e	-0.1044067
56	0x3e4132a9	0.18866982
57	0x3ae5255f	0.0017482451
58	0xbc587232	-0.01321082
59	0x3dd03a87	0.10167413
60	0x3d06df43	0.032927763
61	0x3d4328d0	0.047646344
62	0x3d993eda	0.07482691
63	0x3e0eafdc	0.13934273

model.layers.0.temporal.0.weight f4 [32, 64]
0	0x3d322711	0.043494288
1	0x3e020bb6	0.1269978
2	0x3d6522cc	0.055941388
3	0xbe12742f	-0.14302133
4	0x3e6c779a	0.230925
5	0xbe9d4d57	-0.30723068
6	0xbe377ba6	-0.17918262
7	0x3ddb26e0	0.10700774
8	0x3bd627a0	0.0065354854
9	0x3dcac7b1	0.09901369
10	0xbdd66b80	-0.10469723
11	0x3d2763a6	0.040866517
12	0xbca74999	-0.020420836
13	0x3c893527	0.016748978
14	0xbe0205e4	-0.1269756
15	0x3b23c006	0.002498628
16	0x3dba0399	0.090827174
17	0xbc5b9806	-0.013402944
18	0x3d894b93	0.06703868
19	0xbe0a00e6	-0.13476905
20	0xbde24da5	-0.11049966
21	0xbdb42b1f	-0.08797287
22	0x3e5c76ee	0.21529743
23	0xbe8c13eb	-0.27358946
24	0xbd856881	-0.06514073
25	0x3e259d1c	0.16173214
26	0x3e997567	0.29972383
27	0xbbfe8879	-0.0077677337
28	0xbdddff01	-0.10839654
29	0x3da6952f	0.08133923
30	0x3dc4618c	0.09588918
31	0xbd860f9b	-0.06545945
32	0xbd906848	-0.0705114
33	0xbd811423	-0.06302669
34	0x3e70e549	0.23524965
35	0xbcada6dd	-0.02119773
36	0xbd83328a	-0.06406124
37	0x3e229836	0.15878376
38	0xbe1a80b7	-0.15088163
39	0x3e2c93c8	0.16853249
40	0x3d585714	0.05281742
41	0xbe4419cf	-0.1915047
42	0x3c4c3440	0.012463629
43	0xbbe6f253	-0.0070479303
44	0xbddd9927	-0.10820227
45	0x3c60a66f	0.013711556
46	0x3c450452	0.012024956
47	0x3e90841f	0.282258
48	0xbe1521c6	-0.14563665
49	0xbd71d791	-0.05904347
50	0x3dbc896d	0.092058994
51	0xbe134246	-0.1438075
52	0xbece8610	-0.40336657
53	0x3d8d3e79	0.06896681
54	0x3e155653	0.14583711
55	0x3d009baa	0.031398453
56	0x3e6a2c5c	0.22868484
57	0x3de4eb9a	0.1117775
58	0xbde3c746	-0.11121993
59	0xbef6a1c2	-0.48170286
60	0x3bf31038	0.007417705
61	0xbb9a5ac5	-0.0047105276
62	0x3dc42c74	0.09578791
63	0x3e68eb63	0.22746043
64	0xbb07d77e	-0.0020727809
65	0xbd343495	-0.04399546
66	0xbe01606b	-0.12634437
67	0x3e27c318	0.16383016
68	0x3d9c60c5	0.07635645
69	0x3d508d67	0.0509161
70	0xbd74372b	-0.059622925
71	0xbd5de29e	-0.054171197
72	0x3d147d54	0.036252335
73	0xbdcca51b	-0.09992429
74	0xbdced29c	-0.10098764
75	0xbdc30ca1	-0.09523893
76	0xbe4efc80	-0.20213509
77	0xbd610b56	-0.05494245
78	0x3d141bca	0.036159314
79	0xbd8aecd6	-0.06783454
80	0xbde3fdf6	-0.111324236
81	0xbcf44ec3	-0.029822713
82	0xbdd22078	-0.10260099
83	0xbdbdfac7	-0.092763476
84	0xbdb4a627	-0.088207535
85	0xbd37daa9	-0.044886265
86	0xbe42df46	-0.19030485
87	0x3b96fa17	0.0046074498
88	0xbe1a63f1	-0.15077187
89	0xbde19ebd	-0.11016605
90	0xbe0b095e	-0.13577792
91	0xbe1c2bdf	-0.1525111
92	0x3d6933d2	0.056934185
93	0x3d9bf81f	0.07615685
94	0x3ca821ba	0.020523895
95	0x3e1363b6	0.14393505
96	0x3d3f5eb7	0.046721186
97	0x3dc24ffb	0.09487911
98	0x3dad94b4	0.084756285
99	0x3da9dfb1	0.08294619
100	0x3e01488b	0.12625329
101	0xbc917057	-0.017753763
102	0x3a13bbcd	0.00056355895
103	0x3c0370dd	0.008022514
104	0x3d8b0d8c	0.06789693
105	0x3d6be34e	0.05758982
106	0x3d44234c	0.047885224
107	0xbd7d389e	-0.061821572
108	0xbd69b7e4	-0.057060137
109	0xbdf454b8	-0.11930221
110	0xbdd6abbc	-0.104819745
111	0xbc8415cb	-0.016123673
112	0xbd76634c	-0.06015329
113	0xba1f3a1f	-0.00060740294
114	0xbdda9305	-0.10672573
115	0xbd2d2d0f	-0.0422793
116	0x3d92b67a	0.07163711
117	0x3e17f86a	0.14840856
118	0x3e52e779	0.20596112
119	0x3e7b7193	0.24555044
120	0x3e2ad633	0.16683273
121	0x3deb6a46	0.114948794
122	0x3df54ebb	0.11977907
123	0x3df22617	0.11823671
124	0x3dd00b69	0.10158426
125	0x3d6ee11b	0.058320146
126	0x3c6fad0a	0.014628658
127	0x3e41bb89	0.18919195
128	0x3e5a54a1	0.21321346
129	0x3e32ec87	0.1747304
130	0x3d9892b0	0.074498534
131	0x3e29b4df	0.16572903
132	0x3d2bf029	0.04197708
133	0x3df47638	0.11936611
134	0xbe178628	-0.1479727
135	0xbd81f0c4	-0.063447505
136	0xbe071b04	-0.131939
137	0xbe04a5b2	-0.12953833
138	0xbe2b0fc6	-0.16705236
139	0x3d6ae86a	0.057350554
140	0x3c66def9	0.014091247
141	0x3dbcfdf4	0.09228125
142	0xbdea5888	-0.11442667
143	0xbe028e2d	-0.12749548
144	0xbe2a61c4	-0.16638857
145	0xbda3cba9	-0.079978295
146	0xbe47e27e	-0.19519994
147	0xbe2cc4f0	-0.16872
148	0x3c45cf3e	0.012073336
149	0x3d98a6e5	0.074537076
150	0x3dafe7c2	0.08589126
151	0x3d9ce69c	0.07661173
152	0xbb0aba3d	-0.0021168136
153	0x3d37b4b9	0.044850085
154	0xbc7bfd1b	-0.015380169
155	0x3c1ede18	0.009696506
156	0x3df1db62	0.11809422
157	0x3d44aa0b	0.048013728
158	0x3e13e022	0.14440969
159	0x3d28bd57	0.041196194
160	0xbe085826	-0.13314876
161	0xbdc04407	-0.09387975
162	0xbc0e0305	-0.008667712
163	0xbe0ce084	-0.13757521
164	0xbc3d9139	-0.011570268
165	0xbe1b940f	-0.15193199
166	0xbd3947de	-0.045234554
167	0x3db0dd34	0.08635941
168	0x3eb4e3d8	0.3533008
169	0x3e57f05e	0.21087787
170	0x3e2cf97f	0.1689205
171	0x3e5191b3	0.20465736
172	0x3d5003d1	0.05078489
173	0x3c0d4cee	0.0086242985
174	0xbdf2dacd	-0.11858139
175	0xbd2b2747	-0.041785505
176	0x3da8e2e9	0.08246405
177	0xbe2ab412	-0.16670254
178	0xbe55357d	-0.20821185
179	0xbe2f5cb0	-0.17125201
180	0xbe625ec9	-0.2210647
181	0xbe31026e	-0.17286083
182	0xbe000f3d	-0.12505813
183	0x3bdf7dc9	0.0068204147
184	0xbb3cdc96	-0.0028818003
185	0x3e43cbb9	0.19120683
186	0x3d73fa5b	0.05956493
187	0x3cdafdff	0.026732443
188	0xbdc7cc06	-0.09755711
189	0xbd5c19ac	-0.05373542
190	0xbc85e8d8	-0.01634638
191	0x3e6ea134	0.23303682
192	0x3e493cfd	0.19652171
193	0x3d024915	0.031807978
194	0x3e0ed0a1	0.13946773
195	0x3d3747a2	0.04474605
196	0x3d4b917e	0.0496993
197	0x3d63e9bd	0.055642832
198	0xbd6428b0	-0.055702865
199	0xbdb2d128	-0.087313
200	0xbd5df41f	-0.05418789
201	0x3c232b34	0.009959031
202	0xbdfb5c1b	-0.12273427
203	0xbe5398f1	-0.20663811
204	0x3d1b139f	0.03786051
205	0xbe3964f9	-0.18104924
206	0xbe10034f	-0.14063762
207	0xbdeeb722	-0.116560236
208	0xbdfe8884	-0.12428382
209	0xbdf3d57f	-0.119059555
210	0xbca572a7	-0.020196272
211	0xbd9030a6	-0.07040529
212	0x3da7da31	0.081959136
213	0x3e1d0003	0.15332036
214	0x3c6a93d4	0.0143174715
215	0x3ce93285	0.028466472
216	0x3c4c4ce2	0.012469502
217	0x3d56d406	0.052448295
218	0xbdace098	-0.08441275
219	0xbcce21d5	-0.025162617
220	0xbd1b4acb	-0.037913125
221	0x3d39ad8d	0.045331527
222	0x3c859b3c	0.016309373
223	0x3d8db3c4	0.06919053
224	0x3b422131	0.0029621834
225	0xbd41f8c6	-0.04735639
226	0x3da41d7f	0.080134384
227	0x3e1d4bdc	0.1536097
228	0x3e589cbe	0.21153542
229	0x3df9fcc5	0.12206415
230	0x3d992928	0.07478553
231	0x3d193fb4	0.037414268
232	0xbd1f2fb4	-0.038863853
233	0xbe075609	-0.13216414
234	0xbd91a1d9	-0.07110948
235	0x3d67ab5d	0.05655991
236	0x3df8dd6e	0.12151609
237	0x3de2b687	0.110699706
238	0x3d5fe30a	0.05465988
239	0x3e36b185	0.17841156
240	0x3dc2642b	0.09491762
241	0x3d6987ed	0.057014395
242	0xbd19e120	-0.03756821
243	0xbe0beb15	-0.13663895
244	0xbe17f631	-0.14840008
245	0xbd6765f3	-0.05649371
246	0xbdfe4a05	-0.12416462
247	0xbe499cdf	-0.19688748
248	0xbda13e03	-0.07873156
249	0xbe150c7e	-0.14555547
250	0xbe25961a	-0.1617054
251	0xbe54620c	-0.20740527
252	0xbe37cbc5	-0.17948826
253	0xbe20db0f	-0.15708564
254	0xbe4b8130	-0.198735
255	0xbe25322c	-0.1613242

model.layers.0.temporal.0.bias f4 [32]
0	0xbf3d11ca	-0.7385527
1	0xbf51b050	-0.81909657
2	0xbe014376	-0.1262339
3	0xbe5fde03	-0.21862034
4	0x3d829c01	0.06377412
5	0x3dbab63a	0.09116788
6	0xbf6509e7	-0.89468235
7	0xbf3d8489	-0.7403036
8	0x3e09d9b1	0.13461949
9	0xbeb987bd	-0.36236373
10	0x3d100908	0.035164863
11	0xbd82926c	-0.06375584
12	0xbf0d647f	-0.5523147
13	0xbe91cc8f	-0.28476378
14	0xbcf5a727	-0.029986931
15	0xbe4954ed	-0.19661303
16	0xbec61cb0	-0.38693762
17	0xbf018230	-0.50589275
18	0x3cd93ddb	0.026518753
19	0xbd8773d2	-0.06613888
20	0xbdd39ba8	-0.103324234
21	0xbec3cdec	-0.38243043
22	0x3bff6681	0.007794202
23	0xbe9ffeb5	-0.31249014
24	0xbf56fc4f	-0.8397874
25	0x3d02f520	0.03197205
26	0xbf0c6ffd	-0.5485838
27	0xbda22aac	-0.07918295
28	0x3db574e2	0.08860184
29	0xbf07e68e	-0.53086174
30	0xbe0faa8c	-0.14029902
31	0xbedd3fae	-0.43212646

model.layers.0.temporal.2.weight f4 [64, 32]
0	0x3da85a61	0.082203634
1	0xbe2f58f0	-0.1712377
2	0x3bf742dd	0.0075458125
3	0x3c54f94d	0.012998891
4	0xbd67fc57	-0.056637134
5	0x3c21bc0e	0.009871496
6	0x3de73e9b	0.11291238
7	0x3d9d9f14	0.07696357
8	0x3d628477	0.05530211
9	0x3d3a3ae2	0.04546631
10	0xbd047a8a	-0.032343425
11	0xbdfbe744	-0.1229997
12	0x3cd09140	0.025459886
13	0xbda005b7	-0.0781359
14	0xbe064c8b	-0.13115136
15	0x3c6c03b7	0.014405183
16	0x3d84a3bb	0.064765416
17	0xbbe70c36	-0.007051016
18	0x3d077c95	0.033077795
19	0xbd799059	-0.060928676
20	0xbd3abdce	-0.045591168
21	0x3cf86e0a	0.030325908
22	0x3d7657bb	0.06014226
23	0xbdc917c9	-0.0981899
24	0x3d515f69	0.05111638
25	0xbbd1a016	-0.0063972576
26	0x3d38b3b3	0.04509325
27	0xbe69f605	-0.22847755
28	0x3ddd8af2	0.10817517
29	0x3d1c7c90	0.03820473
30	0x3dc61e80	0.09673786
31	0x3dbf7495	0.09348408
32	0xbdcc3536	-0.09971087
33	0x3e80071d	0.25005427
34	0x3c859c3a	0.016309846
35	0x3ed49918	0.4152305
36	0x3d114270	0.03546375
37	0xbe26eb65	-0.16300733
38	0xbc7551aa	-0.0149730835
39	0xbe17b6da	-0.14815846
40	0xbd99f751	-0.07517875
41	0x3c82ef18	0.01598315
42	0x3c2d35c2	0.010571899
43	0xbe01a0cf	-0.12659
44	0xbdd8e9c6	-0.10591464
45	0x3cdae297	0.026719375
46	0xbde2fcdd	-0.11083386
47	0x3e17c75a	0.1482214
48	0x3da8c25a	0.082401946
49	0x3d3cdb48	0.04610756
50	0xbd368349	-0.044558797
51	0x3e1d13fd	0.15339656
52	0xbe11af4d	-0.14227028
53	0xbdf19272	-0.1179551
54	0xbda02578	-0.078196466
55	0x3e46b152	0.1940358
56	0xbd5cb585	-0.053884048
57	0x3c5ad4b8	0.01335638
58	0xbdf5566b	-0.119793735
59	0x3ca2171e	0.019786414
60	0xbe68c271	-0.22730424
61	0x3dbc5aa4	0.09196976
62	0x3d29642e	0.041355304
63	0x3c216d21	0.0098526785
64	0x3e80d31f	0.25161073
65	0x3e0eb874	0.13937551
66	0x3d920b5b	0.07131072
67	0xbde5b30f	-0.11215793
68	0x3dcd9e81	0.10039998
69	0x3e8024cc	0.25028074
70	0x3e7b7569	0.24556507
71	0xbc3a5cfe	-0.01137471
72	0x3d63d843	0.055626165
73	0xbded4220	-0.11584878
74	0x3ddc81df	0.107669584
75	0x3dd1a676	0.10236828
76	0x3d921414	0.07132736
77	0xbe1d93e0	-0.15388441
78	0x3dc266fd	0.094923
79	0x3d489a69	0.048975382
80	0xbd17c9a4	-0.037057534
81	0x3e709103	0.23492818
82	0xbd912ff0	-0.070892215
83	0xbe87e355	-0.26540628
84	0x3d3e4ea2	0.04646171
85	0xbe0f2874	-0.13980275
86	0xbe2f438a	-0.17115608
87	0xbe47e687	-0.19521533
88	0x3dd432e4	0.10361269
89	0xbe25beed	-0.16186114
90	0x3e1dabb4	0.15397531
91	0xbbb0eee9	-0.005399574
92	0x3cebd41a	0.028787661
93	0xbdfce58c	-0.1234847
94	0xbe585d72	-0.21129397
95	0x3e1062bd	0.14100166
96	0x3e14304b	0.14471547
97	0xbd18a986	-0.037271045
98	0xbd3a7a90	-0.04552704
99	0x3d1513f8	0.036395997
100	0x3d2dafcc	0.04240398
101	0x3e743be6	0.23850974
102	0x3cef998b	0.02924802
103	0xbdebe9dc	-0.115192145
104	0x3c7d5334	0.015461732
105	0xbc1d3089	-0.009594091
106	0x3c52700c	0.012844097
107	0x3d152cf3	0.03641982
108	0x3d0c91bd	0.034318674
109	0xbe1058ec	-0.14096421
110	0x3d988946	0.07448058
111	0x3e631c7c	0.22178835
112	0x3ccdc302	0.025117401
113	0x3defccf8	0.117090166
114	0x3e047df0	0.12938666
115	0xbe051673	-0.12996845
116	0xbe6550bf	-0.22394083
117	0x3e8f663a	0.2800768
118	0x3dd12b4f	0.102133386
119	0xbdddef2e	-0.108366355
120	0xbe34f1bc	-0.1767034
121	0xbe6634ab	-0.22481029
122	0x3d126835	0.03574391
123	0x3ddbd29e	0.107335314
124	0xbbd9aed5	-0.006643156
125	0x3d804f68	0.062651455
126	0x3d4498f4	0.04799743
127	0xbdc9fe9a	-0.098630145
128	0xbe7d537b	-0.24738877
129	0x3de9538f	0.11392891
130	0x3cfd285a	0.03090303
131	0x3ec5cb13	0.38631496
132	0xbdf7498a	-0.12074573
133	0xbe2cb30e	-0.16865179
134	0xbdf707ec	-0.12062058
135	0x3e1af297	0.15131603
136	0x3cccae31	0.024985405
137	0xbe167908	-0.14694607
138	0x3c920765	0.017825792
139	0xbe7d6d8c	-0.2474882
140	0xbd01b45f	-0.031666156
141	0x3e145aac	0.14487714
142	0xbe35ec15	-0.1776584
143	0x3dc983f8	0.09839624
144	0x3afe5b49	0.0019405867
145	0x3cafa3ab	0.021440348
146	0x3e79dafa	0.24399939
147	0xbe315f76	-0.17321572
148	0x3d6d8e30	0.05799693
149	0xbe244a16	-0.16043887
150	0x3cfea355	0.031083742
151	0xbcaf81eb	-0.021424254
152	0x3e6d4698	0.2317146
153	0x3d432d87	0.04765084
154	0xbdae308c	-0.08505353
155	0x3e581fb7	0.21105848
156	0xbd95d960	-0.073168516
157	0xbe10e078	-0.14148128
158	0xbdc123eb	-0.09430679
159	0x3e313f1a	0.17309228
160	0x3e3c8b7a	0.18412581
161	0x3e37c7d6	0.17947325
162	0xbe0a15a8	-0.13484824
163	0x3e5da8b1	0.21646382
164	0x3d53c4ac	0.051701233
165	0xbcbc8c86	-0.023016226
166	0x3ccb06d8	0.024783537
167	0x3d79ad91	0.06095654
168	0xbe09b0f2	-0.13446406
169	0xbcea869e	-0.028628644
170	0xbd372c85	-0.04472019
171	0xbe44c502	-0.19215778
172	0xbd8cd77a	-0.068770364
173	0xbc19d5d0	-0.009389356
174	0xbcf45948	-0.029827729
175	0xbcbfec48	-0.023428097
176	0xbd497a48	-0.049188882
177	0x3e24a535	0.16078646
178	0xbe1fad4c	-0.15593451
179	0xbd68a756	-0.05680021
180	0x3dbdbc69	0.09264452
181	0xbdf06d46	-0.11739592
182	0xbd87db40	-0.066336155
183	0x3eae29af	0.34016177
184	0xbe34832a	-0.1762816
185	0x3cef05d2	0.02917758
186	0xbdb84c33	-0.08998909
187	0x3d2d9370	0.042376935
188	0xbe3547c1	-0.17703153
189	0xbb9c7b45	-0.004775437
190	0xbe3e34e7	-0.18574868
191	0x3daca431	0.084297545
192	0xbe1c95ae	-0.15291473
193	0x3d7b1985	0.061303634
194	0x3c43c836	0.0119495895
195	0x3e81a0f5	0.25318113
196	0xbc4cf5fc	-0.012509819
197	0x3dd3e433	0.1034626
198	0xbd93b593	-0.07212367
199	0x3cf81bf2	0.030286763
200	0x3d33fca8	0.043942124
201	0xbe2914fa	-0.16511908
202	0xbd1e44d8	-0.038639873
203	0xbd8256e3	-0.063642286
204	0xbdd95df1	-0.10613621
205	0xbe3436af	-0.17598985
206	0xbc7af854	-0.015317995
207	0x3dda5f3e	0.10662697
208	0xbd95b51d	-0.07309935
209	0x3e55b7b3	0.20870857
210	0xbd4f105d	-0.050552715
211	0x3d36b7c0	0.04460883
212	0x3d8f0b27	0.06984549
213	0xbe7ea57f	-0.24867819
214	0xbc9b259d	-0.018938834
215	0x3d5bb1cb	0.053636353
216	0x3e45b0f0	0.19305778
217	0xbe2bc2bf	-0.16773508
218	0x3b08e5b5	0.002088887
219	0xbdbcb479	-0.0921411
220	0x3e02432c	0.12720937
221	0xb9b2df07	-0.00034116974
222	0xbd5f205a	-0.054474212
223	0x3e048d95	0.12944634
224	0xbdd417f5	-0.10356132
225	0x3c34bdca	0.011031577
226	0xbc21a285	-0.009865408
227	0x3d0dcdf8	0.034620255
228	0xbe87490a	-0.26422912
229	0x3e3bf8a2	0.18356565
230	0x3db399ca	0.08769567
231	0xbec1d2c6	-0.3785612
232	0xbe165acc	-0.14683074
233	0x3de28ddd	0.110622145
234	0xbe18d26f	-0.14924024
235	0xbc39af51	-0.011333303
236	0x3e5305ce	0.20607683
237	0x3d69a188	0.057038814
238	0xbe0a5472	-0.13508776
239	0x3d5cfe1c	0.053953275
240	0xbcebb58a	-0.028773088
241	0x3d8cd865	0.068772115
242	0xbd4f380d	-0.050590564
243	0x3db25f90	0.08709633
244	0x3d2c1c34	0.042019084
245	0xbbe004a5	-0.006836491
246	0xbe69b867	-0.2282425
247	0xbcf1a9c6	-0.0294999
248	0xbcbde7c0	-0.023181796
249	0x3d3137fb	0.043266278
250	0x3dfa92c0	0.122350216
251	0xbe360f40	-0.17779255
252	0x3e757d95	0.23973687
253	0x3e82c3c2	0.25539976
254	0xbb38981a	-0.0028166831
255	0xbe05170b	-0.12997071

model.layers.0.temporal.2.bias f4 [64]
0	0x3bfed282	0.0077765593
1	0x3b499460	0.0030758604
2	0x3c651369	0.0139816785
3	0xbd086819	-0.0333024
4	0xbbb9cf16	-0.0056704385
5	0x3d9862b1	0.07440699
6	0xbc15867e	-0.009126304
7	0x3d4964a8	0.04916826
8	0xbc05ce40	-0.00816685
9	0x3d620f73	0.055190515
10	0x3be18df3	0.0068833767
11	0x3db18cfd	0.086694695
12	0xbcadf30c	-0.021234058
13	0xbd1da119	-0.038483713
14	0x3e045559	0.12923183
15	0xbcbadaa8	-0.022809342
16	0x3c218f12	0.009860771
17	0xbc2cc6ed	-0.0105454745
18	0xbcf60b79	-0.030034767
19	0x3d54392d	0.05181234
20	0x3d7a4269	0.06109849
21	0xbc8b3029	-0.016990738
22	0xbdf53561	-0.11973072
23	0x3d8363fb	0.06415554
24	0x3d72e719	0.059302423
25	0x3c0e0726	0.0086686965
26	0xbd4f51a9	-0.050614987
27	0x3b9e3a93	0.00482876
28	0x3d68f028	0.056869656
29	0x3c8a3df5	0.016875247
30	0xbd83e817	-0.06440752
31	0x3b92d2d2	0.004480698
32	0x3c09c900	0.008409739
33	0x3d035a56	0.032068573
34	0x3ccc8e42	0.024970178
35	0x3d209611	0.039205614
36	0x3d6460e1	0.055756453
37	0x3ce8fef0	0.028441876
38	0x3d9c6ba1	0.07637716
39	0x3cf1a670	0.029498309
40	0x3d917403	0.071022056
41	0x3dbe34cc	0.09287414
42	0x3d6307f2	0.0554275
43	0x3d4f4bf6	0.05060955
44	0x3d4789ff	0.048715588
45	0xbc93aa45	-0.018025527
46	0x3c957aa5	0.018246958
47	0xbc5f8d6f	-0.01364456
48	0x3c50c6d9	0.0127427215
49	0x3d42c9c5	0.047555704
50	0xbd0404ea	-0.03223125
51	0xbc714330	-0.014725491
52	0x3d92728f	0.071507566
53	0x3d261765	0.040549655
54	0xbcb07670	-0.02154085
55	0x3d4287d0	0.047492802
56	0x3c80243f	0.015642283
57	0x3d9d7992	0.07689203
58	0x3cfe0081	0.0310061
59	0x3cb6f0ae	0.022331562
60	0xbc7fc1b0	-0.015610144
61	0x3d907a72	0.070546046
62	0x39d8e0d0	0.0004136623
63	0xbd18a3ef	-0.037265714

model.layers.0.channel.0.weight f4 [32, 74]
0	0xbdf492e4	-0.1194208
1	0x3e872e9d	0.2640275
2	0xbc65e315	-0.014031191
3	0x3e402a41	0.18766119
4	0x3d80ad19	0.06283016
5	0x3bce3d32	0.006293916
6	0xbc89cd98	-0.016821668
7	0x3c8a1ca1	0.016859354
8	0xbee7a86b	-0.4524568
9	0xbe594e0a	-0.21221176
10	0xbcd9a36b	-0.026567182
11	0xbdfffa33	-0.124988936
12	0x3d3ebef8	0.04656884
13	0xbe382817	-0.17984043
14	0x3df32bdc	0.118736
15	0xbd83ed0d	-0.06441698
16	0x3dbb6dbf	0.09151792
17	0x3db2077f	0.08692836
18	0xbc851cea	-0.016249139
19	0xbdf71467	-0.12064438
20	0x3a04756d	0.0005052898
21	0xbdb91847	-0.09037834
22	0xbd83a96a	-0.064287975
23	0xbd067fc6	-0.032836698
24	0xbd614a69	-0.055002604
25	0xbc0a1d05	-0.00842977
26	0x3d22b00e	0.03971868
27	0xbd5f3585	-0.0544944
28	0x3ca47c19	0.020078706
29	0xbe08b197	-0.13348995
30	0x3d5edfc9	0.054412637
31	0xbde0a545	-0.10969023
32	0xbdfb9de9	-0.12285978
33	0xbc3dfd33	-0.011596012
34	0xbc7261a9	-0.014793792
35	0xbde7bfe5	-0.11315898
36	0xbdffb22f	-0.12485158
37	0xbe14efdf	-0.14544629
38	0x3c7550a5	0.01497284
39	0x3c208f86	0.009799844
40	0xbdbc4c20	-0.09194207
41	0xbd0c77b8	-0.03429386
42	0x3d125636	0.03572675
43	0x3dcfaf0e	0.10140811
44	0xbc2341e1	-0.009964437
45	0x3d41d0d6	0.047318302
46	0xbdc03ea5	-0.093869485
47	0xbe110cba	-0.14165011
48	0xbdb2fe01	-0.08739854
49	0xbda7da36	-0.08195917
50	0xbd8ef07b	-0.06979462
51	0xbdaa99b5	-0.083300985
52	0x3da100d9	0.0786149
53	0x3bbf76f9	0.00584304
54	0x3d2d7ade	0.042353503
55	0x3cf91d12	0.03040937
56	0xbd5caa36	-0.053873263
57	0x3d659085	0.056046028
58	0xbcfbb8a9	-0.030727701
59	0xba083ce6	-0.0005197063
60	0x3da1d293	0.07901492
61	0x3d6e4c50	0.058178246
62	0xbe1c0e6a	-0.15239874
63	0xbe04ffc0	-0.12988186
64	0x3da5eed1	0.08102191
65	0xbdca4fce	-0.09878503
66	0xbe19699d	-0.14981695
67	0xbc06a84f	-0.008218839
68	0xbdb62984	-0.08894637
69	0xbdbe33a6	-0.09287195
70	0xbdd0f600	-0.10203171
71	0xbdc1a439	-0.09455151
72	0x3ac15b13	0.0014751874
73	0x3cd59c1c	0.026075415
74	0xbe25df95	-0.16198571
75	0xbec07972	-0.37592655
76	0x3cb45d3d	0.022017116
77	0xbe8ccea2	-0.27501398
78	0xbeafb360	-0.3431654
79	0x3e055daf	0.13024019
80	0xbe15f928	-0.14645827
81	0xbc85623b	-0.016282192
82	0x3ca7e7da	0.020496298
83	0xbe74c605	-0.23903663
84	0x3c3c703e	0.01150137
85	0xbd0f14e2	-0.034932025
86	0x3d426439	0.04745886
87	0x3d6e7204	0.058214203
88	0xbd8a95d8	-0.06766862
89	0x3d678837	0.05652639
90	0xbe0b7d6e	-0.13622066
91	0xbd9aac72	-0.075524226
92	0x3e1c7d10	0.15282083
93	0xbc35fa98	-0.0111071095
94	0xbe313dd2	-0.17308739
95	0x3d43ebd6	0.047832333
96	0x3e7bca5a	0.2458891
97	0x3c711fe0	0.014717072
98	0xbd964e70	-0.073391795
99	0x3e332f87	0.17498599
100	0x3c9f17b4	0.019420482
101	0xbd0bb47e	-0.034107678
102	0xbe193101	-0.149601
103	0xbbb1e7c6	-0.005429241
104	0x3db4da6b	0.088307224
105	0xbdf5058a	-0.11963947
106	0xbe16c88b	-0.14724939
107	0xbc29e68e	-0.01036991
108	0xbe0e0ca4	-0.1387201
109	0xbd8d1197	-0.068881206
110	0xbbbe9314	-0.005815873
111	0xbdce876a	-0.10084422
112	0x3e4213ed	0.18952914
113	0xbd892588	-0.06696612
114	0xbcaf4dd0	-0.021399409
115	0x3e37b3a1	0.17939617
116	0xbc031df2	-0.008002745
117	0xbda4cdbb	-0.080470525
118	0x3dbce36b	0.09223064
119	0x3e1b336b	0.15156333
120	0xbe0df18b	-0.13861673
121	0xbcbb14ec	-0.022837125
122	0x3dfac650	0.12244856
123	0xbd2b0bd1	-0.041759316
124	0xbac9300b	-0.0015349401
125	0x3d284d08	0.041089088
126	0xbd961537	-0.07328265
127	0xbdb3dcb6	-0.08782332
128	0xbd52ccf0	-0.051464975
129	0xbbe08ab2	-0.0068524713
130	0x3e44954f	0.19197582
131	0x3dbe1b74	0.0928258
132	0x3d495767	0.04915562
133	0x3c1878d0	0.009306148
134	0x3cf7bcfc	0.030241482
135	0xbcf8646f	-0.030321328
136	0xbc867f8e	-0.016418245
137	0x3e1817c8	0.14852822
138	0xbe3d0e75	-0.18462546
139	0xbcc6dab9	-0.024274217
140	0xbc61e176	-0.013786664
141	0xbd138616	-0.036016546
142	0xbda05e5c	-0.078304976
143	0xbd2df757	-0.04247221
144	0xbe280dbc	-0.16411489
145	0xbc6d4f27	-0.014484203
146	0xbb1bd6b5	-0.0023779098
147	0xbd2a95e0	-0.04164684
148	0x3c676dd2	0.014125304
149	0xbe0f8db0	-0.14018893
150	0xbd8b26e6	-0.06794529
151	0x3d638b78	0.05555293
152	0xbe770b90	-0.24125504
153	0x3ecfb86e	0.40570396
154	0x3dc6da09	0.09709556
155	0x3e8564e1	0.26053527
156	0x3ed1cc20	0.40976048
157	0x3e0718b9	0.13193025
158	0x3c37ce82	0.011218669
159	0xbd1781e3	-0.036989104
160	0x3cad5c6b	0.021162232
161	0x3e2fd830	0.17172313
162	0xbd505419	-0.05086145
163	0xbe1a21a6	-0.15051898
164	0xbd367e21	-0.04455388
165	0x3db291fd	0.08719251
166	0x3e02c5cb	0.12770765
167	0xbdf1d906	-0.11808972
168	0x3ca32b98	0.019918248
169	0x3cbc7c61	0.023008527
170	0x3e547106	0.2074624
171	0x3ddc36c9	0.10752637
172	0xbe0396eb	-0.1285054
173	0x3e161144	0.14655024
174	0xbe7da7a2	-0.24770978
175	0x3e186149	0.14880861
176	0x3dbf0298	0.093266666
177	0x3dd305ee	0.103038654
178	0xbcc2ff4d	-0.023803378
179	0xbe15c264	-0.14624935
180	0xbdc0914e	-0.09402715
181	0x3e4d538c	0.20051402
182	0x3c3c3c36	0.011488965
183	0xbb604337	-0.003421975
184	0x3da0b9fe	0.07847975
185	0x3dde3a51	0.10850967
186	0x3df82c5c	0.12117836
187	0x3df93564	0.121683866
188	0xbd89555c	-0.06705734
189	0xbbb2f320	-0.0054611117
190	0xbd622afd	-0.055216778
191	0x3c5b8ad3	0.0133997975
192	0xbb87a438	-0.0041394494
193	0x3c927379	0.017877327
194	0x3d804989	0.06264026
195	0x3d80346b	0.06259998
196	0x3d9c7369	0.076392
197	0x3d6dd7b7	0.05806705
198	0xbddeab38	-0.10872501
199	0x3c47a0c3	0.012184325
200	0x3d8e8d11	0.069605
201	0xbdf68883	-0.12037756
202	0x3cfead8b	0.031088611
203	0x3d871b87	0.06597047
204	0x3ca6bd72	0.020354006
205	0x3e625535	0.22102816
206	0xbdd09c68	-0.10186082
207	0x3d5b9b1e	0.05361473
208	0x3e1a9d1f	0.15099
209	0x3da86669	0.08222658
210	0xbda4f273	-0.08054056
211	0xbde59eb0	-0.11211908
212	0xbcce7e64	-0.025206752
213	0xbe0f3a1f	-0.13987015
214	0xbe02b848	-0.1276561
215	0x3dd1aed1	0.10238422
216	0xbcd289e2	-0.025700513
217	0x3d3528f3	0.044228505
218	0x3dba6705	0.09101681
219	0x3c29e4f2	0.010369526
220	0x3c80679e	0.015674409
221	0xbd9fcda6	-0.07802896
222	0x3d9420c6	0.072328135
223	0xbe2b7143	-0.16742425
224	0xbdac4142	-0.084108844
225	0xbe1be960	-0.15225744
226	0x3d65884d	0.05603819
227	0xbd803ccc	-0.06261596
228	0x3d8c0072	0.068360224
229	0xbd4b4a3c	-0.049631342
230	0xbe155157	-0.1458181
231	0xbd437310	-0.047717154
232	0xbd32ff01	-0.043700222
233	0x3b68c933	0.0035520315
234	0xbe2fd06d	-0.17169352
235	0x3dbbf12d	0.0917686
236	0xbe1dab45	-0.15397365
237	0xbe03841d	-0.12843366
238	0xbc0947e2	-0.008378955
239	0xbcda1ada	-0.026624132
240	0x3dca11bd	0.098666646
241	0xbe7cbbc7	-0.24681006
242	0x3b975f92	0.004619547
243	0xbdd7bee3	-0.105344556
244	0x3d29328d	0.041307975
245	0xbe855c3c	-0.26046932
246	0xbd78ecd9	-0.06077275
247	0x3e422328	0.18958724
248	0x3d73836f	0.059451517
249	0xbd959f32	-0.07305755
250	0x3e636856	0.2220777
251	0xbd968941	-0.07350398
252	0xbd80d6f3	-0.06290998
253	0xbdab1595	-0.08353726
254	0xbddb3ca4	-0.10704926
255	0x3deaf6e6	0.114728734

model.layers.0.channel.0.bias f4 [32]
0	0xbe3f30da	-0.18670979
1	0xbe549572	-0.20760134
2	0xbeed6d6e	-0.4637255
3	0xbd9efda7	-0.07763224
4	0xbec4add6	-0.38413876
5	0xbe89b128	-0.26892972
6	0xbdcc3874	-0.09971705
7	0xbe8a1558	-0.2696941
8	0xbe18226c	-0.14856881
9	0xbeb4e59e	-0.35331434
10	0xbe8272b0	-0.25478125
11	0xbeb8970b	-0.36052737
12	0xbe947ee0	-0.29003048
13	0xbe4abcf4	-0.19798642
14	0xbe958142	-0.29200178
15	0xbd16a562	-0.036778815
16	0xbd479ab1	-0.04873151
17	0xbe90d951	-0.282908
18	0xbe57e3b9	-0.21082963
19	0xbeb46520	-0.35233402
20	0xbe57a0c5	-0.21057422
21	0xbe940fa1	-0.28918174
22	0xbeb67b39	-0.35640886
23	0xbe872af6	-0.26399964
24	0xbea733fe	-0.32656854
25	0xbebcb3c7	-0.3685591
26	0xbdfc4199	-0.12317199
27	0xbe649b4d	-0.22324868
28	0xbece49e8	-0.4029076
29	0x3c8c4334	0.017121889
30	0xbd7df53d	-0.062001456
31	0xbe37fbfc	-0.17967218

model.layers.0.channel.2.weight f4 [74, 32]
0	0xbdd459e0	-0.10368705
1	0x3bdec40c	0.006798273
2	0x3d91c8a1	0.07118345
3	0xbe1c60d3	-0.1527131
4	0xbe3802d1	-0.17969824
5	0xbee3c32e	-0.44484848
6	0x3e353f10	0.17699838
7	0x3df19c9d	0.1179745
8	0x3db29b0a	0.087209776
9	0x3d8c895e	0.06862138
10	0x3e046eba	0.12932864
11	0xbd598f94	-0.053115442
12	0x3dda469d	0.10658
13	0x3e0146ac	0.12624615
14	0x3dcb4082	0.09924413
15	0x3e242b8d	0.16032238
16	0xbe2ad98f	-0.16684555
17	0xbd7415ff	-0.05959129
18	0x3d1e2a80	0.03861475
19	0x3e08ad8e	0.13347456
20	0xbe6930b0	-0.22772479
21	0x3de79611	0.1130792
22	0x3e337abf	0.17527293
23	0xbf05cb41	-0.52263266
24	0xbe7f6bfe	-0.2494354
25	0xbc55c7ce	-0.013048125
26	0x3d2f392d	0.042779136
27	0x3e2dadef	0.16960882
28	0x3edad77a	0.4274252
29	0xbdba83f3	-0.091071986
30	0xbd9d1a2b	-0.07671007
31	0x3d8691c4	0.06570771
32	0x3d80ac16	0.06282823
33	0x3e4148bd	0.18875404
34	0x3d64c173	0.05584855
35	0xbdc5712d	-0.09640727
36	0x3e756ed6	0.23968062
37	0xbea80005	-0.32812515
38	0x3e3ba8fc	0.18326181
39	0x3da41f31	0.08013762
40	0x3d2393e9	0.03993598
41	0xbda50eaa	-0.080594376
42	0x3e063b56	0.13108572
43	0x3e17c2b3	0.14820366
44	0x3be5a7c5	0.007008525
45	0xbd3c2429	-0.045932923
46	0x3de0392e	0.10948406
47	0x3db92326	0.09039907
48	0x3d9e163a	0.07719083
49	0xbe4699b8	-0.19394577
50	0x3d2c8c97	0.042126264
51	0x3e6b34c7	0.22969352
52	0xbcaf1d39	-0.02137624
53	0xbd98c83f	-0.07460069
54	0xbd46f7ab	-0.04857604
55	0xbd895ad1	-0.06706775
56	0xbc9c58cf	-0.019085316
57	0xbe2351b5	-0.15949138
58	0x3e3b2f0c	0.18279666
59	0x3e8bc340	0.272974
60	0x3dde094d	0.10841618
61	0xbe2f081c	-0.17092937
62	0xbc96553c	-0.01835119
63	0xbd89028c	-0.06689939
64	0x3dd11191	0.10208429
65	0xbea7f03a	-0.32800466
66	0x3e9ed980	0.31025314
67	0xbae07d26	-0.0017127141
68	0xbe00d9b9	-0.12583055
69	0x3dc57a1e	0.09642433
70	0x3e303329	0.17207016
71	0xbea985ed	-0.3310999
72	0x3cfec1d0	0.031098276
73	0x3e565a74	0.20932943
74	0x3e5313e9	0.20613064
75	0x3dd92932	0.106035605
76	0x3bb20933	0.0054332255
77	0xbedc1879	-0.4298742
78	0xbf13f6ff	-0.5779876
79	0xbdce1288	-0.10062128
80	0xbe778875	-0.24173148
81	0xbd850fac	-0.0649713
82	0xbcf5ec0c	-0.030019782
83	0xbe6d42d5	-0.23170026
84	0xbe0f4fbc	-0.1399526
85	0x3e5ebe21	0.21752216
86	0xbdc3445c	-0.09534523
87	0x3dfeb7a8	0.124373734
88	0xbd56bb2e	-0.052424602
89	0xbe419d17	-0.18907581
90	0x3d7b6507	0.061375644
91	0x3d947898	0.07249564
92	0xbd856bc9	-0.06514699
93	0x3e1b70a2	0.15179685
94	0x3c16ddc6	0.009208148
95	0x3e519811	0.20468165
96	0x3d422258	0.047396034
97	0xbd4a71ef	-0.04942506
98	0xbd4ac540	-0.04950452
99	0x3c1db9ac	0.009626787
100	0x3d34b059	0.04411349
101	0xbc864014	-0.016387977
102	0xbc8aecfc	-0.016958706
103	0x3c6eb835	0.014570286
104	0x3d4abdaa	0.049497284
105	0x3d495fa4	0.049163476
106	0x3d6ff99c	0.058587655
107	0x3d1ba4c3	0.037998926
108	0xbccf0db5	-0.02527509
109	0x3d81271d	0.063062884
110	0x3d2e0644	0.042486444
111	0xbc9e01e6	-0.019288015
112	0xbb91209f	-0.0044289376
113	0xbc483de0	-0.012221783
114	0x3d0bfd62	0.03417719
115	0xbce36d55	-0.027762095
116	0xbda2eea4	-0.07955673
117	0x3d1e6228	0.038667828
118	0xbea0ea29	-0.3142865
119	0xbcb05403	-0.021524435
120	0x3ca882ca	0.020570178
121	0x3cc36657	0.02385251
122	0x3cc6fa84	0.024289377
123	0x3abd2344	0.0014430066
124	0x3ccbff58	0.02490203
125	0x3d591ea0	0.053007722
126	0xbbdd0575	-0.0067450353
127	0x3d03d5f6	0.03218647
128	0xbe054ab5	-0.1301678
129	0xbe08a666	-0.13344726
130	0xbcaef398	-0.021356389
131	0x3d3d60ba	0.046234824
132	0x3e291274	0.16510946
133	0xbedc6ff3	-0.4305416
134	0x3e2100b9	0.15722932
135	0xbdb2d475	-0.08731929
136	0x3d9173bb	0.07102152
137	0xbde57c77	-0.112053804
138	0xbe14f6b2	-0.14547232
139	0x3cc9058a	0.024538774
140	0x3d33823e	0.04382538
141	0xbde99d26	-0.11406927
142	0x3dd7fe81	0.1054659
143	0xbd126b25	-0.035746712
144	0x3df1d587	0.11808305
145	0x3d1c2616	0.03812226
146	0xbd5cc2ac	-0.05389659
147	0xbe54d820	-0.2078557
148	0xbe85942a	-0.26089603
149	0x3e9530df	0.29138848
150	0x3e24d72d	0.16097708
151	0x3cab36f3	0.020900225
152	0xbe5f93dc	-0.21833748
153	0xbb03d41b	-0.0020115438
154	0x3d9739bf	0.07384061
155	0xbe0ff837	-0.1405953
156	0xbd5561ed	-0.052095342
157	0x3d5aa045	0.0533755
158	0xbe6e3f6a	-0.23266378
159	0x3d294b08	0.04133132
160	0x3d26eeed	0.0407552
161	0xbda91635	-0.08256189
162	0xbda0075d	-0.078139044
163	0xbcb2aba5	-0.021810362
164	0x3db503c4	0.08838609
165	0x3d78245f	0.06058156
166	0xbe375856	-0.17904791
167	0xbeb977c9	-0.362242
168	0xbd978afe	-0.073995575
169	0x3eb5d2a3	0.35512266
170	0xbce590c5	-0.028023133
171	0x3d377a7a	0.044794537
172	0xbda86304	-0.08222011
173	0x3dff3696	0.12461583
174	0xbe228a0e	-0.15872976
175	0x3dba3183	0.09091475
176	0x3d13cc83	0.03608371
177	0xbbc49887	-0.005999628
178	0xbd378329	-0.04480282
179	0xbe3352b5	-0.17512019
180	0x3e19343c	0.14961332
181	0xbe9c474e	-0.3052315
182	0x3e1879e0	0.14890242
183	0xbd251bb2	-0.040309615
184	0x3e7f9e1f	0.24962662
185	0x3d1a1f16	0.037627302
186	0xbe05eb2d	-0.13077994
187	0x3eaef2c4	0.3416959
188	0xbe06e8f9	-0.1317481
189	0x3d2e6cec	0.042584345
190	0xbd9db1c6	-0.07699923
191	0xbcdd7a0c	-0.027035736
192	0x3e29ad81	0.16570093
193	0xbdc41b5f	-0.09575533
194	0x3da6814a	0.08130129
195	0x3b8165be	0.003948896
196	0x3cf50b9f	0.029912768
197	0xbe657162	-0.22406533
198	0x3e578f5a	0.21050778
199	0x3e56e353	0.20985155
200	0x3d4b5052	0.049637146
201	0xbe38943c	-0.18025297
202	0x3e1a0b8e	0.1504347
203	0xbd2534d7	-0.040333595
204	0xbd1976fa	-0.03746698
205	0x3d5d5bb7	0.054042544
206	0x3dc82362	0.09772374
207	0x3c9bb8c8	0.019009009
208	0xbcfae1e9	-0.0306253
209	0xbdfb34ba	-0.12265916
210	0xbda835c6	-0.082133815
211	0x3e1a9574	0.15096074
212	0x3dfb2cef	0.1226443
213	0x3ca5c9a2	0.020237748
214	0xbe104bd0	-0.1409142
215	0x3d088917	0.033333864
216	0xbdab26ab	-0.08356985
217	0x3ddbc461	0.10730816
218	0x3d7d8df9	0.061902974
219	0xbd990945	-0.07472471
220	0xbe1a0a92	-0.15043095
221	0xbe22e56a	-0.15907827
222	0xbd216104	-0.039399162
223	0xbcb479ad	-0.022030676
224	0x3e533d67	0.20628892
225	0xbdfc45df	-0.12318014
226	0x3c852df9	0.016257273
227	0xb9efb044	-0.0004571696
228	0xbd2b546b	-0.041828554
229	0xbe2efdfb	-0.17089073
230	0x3e2c80ae	0.16845962
231	0x3e4d73dd	0.2006373
232	0x3e1e0671	0.15432145
233	0xbe410d7c	-0.188528
234	0x3da07259	0.0783431
235	0x3c3452c1	0.011006058
236	0xbdc0cff0	-0.09414661
237	0x3dd3f203	0.103488944
238	0xbcdde08d	-0.027084613
239	0x3d5377c2	0.05162788
240	0xbe093233	-0.13398056
241	0xbe1825d4	-0.1485818
242	0xbcecd8f2	-0.028912041
243	0x3e6ad25c	0.22931808
244	0x3d4edc37	0.050502982
245	0x3db6f2d2	0.08933033
246	0xbe519d96	-0.2047027
247	0x3e1045f2	0.14089182
248	0xbdc55f05	-0.09637264
249	0x3d2df485	0.04246952
250	0x3e37f5e5	0.17964895
251	0xbe6485f7	-0.22316729
252	0xbe2c9c0d	-0.16856404
253	0xbe807d5d	-0.25095645
254	0xbdb01ea5	-0.08599595
255	0xbd2093ee	-0.039203577

model.layers.0.channel.2.bias f4 [74]
0	0x3d1d596f	0.03841537
1	0xbdc963b0	-0.09833467
2	0x3dddcbdf	0.10829901
3	0xbcbce43c	-0.02305805
4	0x3da6e531	0.081491835
5	0x3c12db07	0.008963353
6	0xbd8d650d	-0.069040395
7	0xbdc21df3	-0.094783686
8	0xbe4676b1	-0.19381215
9	0xbd839ce4	-0.06426409
10	0x3e24e2a7	0.16102086
11	0x3e4fdc5c	0.20298904
12	0xbd8d79c0	-0.069079876
13	0x3af05c32	0.0018338023
14	0xbb7b5243	-0.0038348592
15	0x3d4c4bd6	0.04987701
16	0x3e028abb	0.12748234
17	0xbcbf9d9e	-0.023390587
18	0x3d294766	0.041327856
19	0xbd9c16da	-0.07621546
20	0x3c049c6b	0.008093934
21	0xbe380c7c	-0.17973512
22	0xbd9a5a41	-0.07536746
23	0x3d0ef897	0.034905042
24	0xbdd3dc4e	-0.10344754
25	0x3d7594a2	0.0599562
26	0xbd597289	-0.053087745
27	0x3cf76031	0.030197235
28	0xbd5141ba	-0.051088072
29	0xbd9cb5cf	-0.07651865
30	0xbbff0728	-0.0077828355
31	0xbde10582	-0.10987379
32	0x3d153cda	0.036434986
33	0xbcd001da	-0.025391508
34	0x3dd33ce1	0.10314346
35	0xbbbaf733	-0.005705738
36	0xbe657f8a	-0.22411934
37	0x3dbc862c	0.09205279
38	0xbe424c0d	-0.18974324
39	0xbc6f8201	-0.014618398
40	0xbe385b96	-0.18003687
41	0xbdad9622	-0.08475901
42	0xbdf6a6aa	-0.120435074
43	0xbbb0b5ae	-0.0053927517
44	0x3cc2305a	0.023704696
45	0x3c8e7450	0.017389446
46	0xbd472a8b	-0.048624557
47	0xbbf87b0e	-0.0075830286
48	0x3b84beee	0.004051081
49	0xbdf20465	-0.118172444
50	0xbd6eebf7	-0.058330502
51	0xbd381036	-0.044937335
52	0xbdd3dfa4	-0.103453904
53	0xbcda658a	-0.026659746
54	0xbe3009b8	-0.17191207
55	0xbcec1d29	-0.028822498
56	0xbcebaa78	-0.02876781
57	0xbe0ff1a7	-0.14057027
58	0x3d218732	0.039435573
59	0x3d44c4c4	0.048039213
60	0xbde1f052	-0.110321656
61	0x3c4adcb0	0.012381718
62	0xbaec8943	-0.0018046278
63	0x3e1649c0	0.14676571
64	0x3cc631f6	0.024193745
65	0x3d649d36	0.05581399
66	0xbd8e158e	-0.06937705
67	0xbdfd9a70	-0.12382972
68	0xbe9425ed	-0.28935185
69	0x3db2bdee	0.087276325
70	0xbe2827fc	-0.16421503
71	0x3dfbb70c	0.12290773
72	0xbd6aa407	-0.057285335
73	0x3d9bc7cf	0.0760647

model.layers.1.temporal.0.weight f4 [32, 64]
0	0xbe2be04d	-0.16784783
1	0xbe0ca6c4	-0.13735491
2	0xbcfc6280	-0.030808687
3	0x3d4ae14a	0.04953126
4	0xbc34a9a1	-0.011026771
5	0xbd027436	-0.03184911
6	0xbd267839	-0.040641997
7	0x3c015314	0.0078933425
8	0x3e72f1c6	0.23725042
9	0xbc9d7a45	-0.019223342
10	0x3e338455	0.1753095
11	0x3d647414	0.055774763
12	0xbe297c93	-0.16551428
13	0xbe30abd9	-0.17253055
14	0xbc41d9fa	-0.011831755
15	0xbe0ed9a9	-0.13950218
16	0xbddec3fd	-0.108772255
17	0xbe0f81cf	-0.14014362
18	0xbd97b3c6	-0.07407336
19	0xbda7af74	-0.08187762
20	0xbd851cb5	-0.06499616
21	0xbe73f8f7	-0.23825441
22	0xbdd5c0d6	-0.10437171
23	0xbcb32034	-0.021865942
24	0xbcb7fd11	-0.022459539
25	0xbe605f44	-0.21911341
26	0xbdafe603	-0.08588793
27	0xbe6bbed2	-0.23022011
28	0xbcc4f46e	-0.024042334
29	0xbe482a06	-0.1954728
30	0xbe8e4eb2	-0.27794415
31	0xbdcb610f	-0.09930622
32	0xbd74570c	-0.059653327
33	0xbb6e65be	-0.003637656
34	0x3aede624	0.0018150252
35	0x3df29769	0.118452854
36	0x3ca77b75	0.020444611
37	0xbd71367e	-0.05888986
38	0x3ccbc74d	0.024875307
39	0x3d4d5cd8	0.05013737
40	0xbcf9f1c2	-0.030510787
41	0x3d84464f	0.06458723
42	0x3d215f86	0.03939774
43	0x3da09301	0.07840539
44	0x3dd0e274	0.101994425
45	0xbd1b71ae	-0.03795021
46	0xbc6931dc	-0.014233079
47	0xbc1e1a23	-0.009649786
48	0x3c8291fd	0.015938753
49	0x3e57e7b6	0.21084484
50	0x3e516275	0.20447715
51	0x3e0f1a8a	0.13974968
52	0x3e27af8a	0.16375557
53	0x3dc4ef3d	0.096159436
54	0x3e67d392	0.22639301
55	0x3dd92518	0.10602778
56	0x3c846e49	0.01616587
57	0x3b5fdf10	0.0034160055
58	0x3e8986d3	0.26860675
59	0x3e6abb48	0.22923005
60	0x3e887e76	0.26658982
61	0x3ead379c	0.3383149
62	0x3e4ce4d8	0.20009172
63	0x3d8d97cb	0.06913718
64	0x3c560444	0.01306254
65	0x3e30f31b	0.17280237
66	0x3ddcf1df	0.10788321
67	0x3aa5f163	0.001266044
68	0xbe567526	-0.20943126
69	0x3d76d892	0.06026513
70	0xbd8870ac	-0.066621155
71	0x3c90bb1d	0.017667348
72	0x3e8cd5a3	0.27506742
73	0xbdcd9e3d	-0.10039947
74	0xbccca5b2	-0.024981353
75	0xbd3c7d7e	-0.046018116
76	0xbda812d9	-0.0820672
77	0x3e585ad4	0.21128398
78	0x3eafb485	0.34317413
79	0xbd293641	-0.041311506
80	0x3be8d700	0.007105708
81	0xbe132543	-0.14369683
82	0xbe9599ac	-0.29218805
83	0xbdd0f34d	-0.10202656
84	0xbe7280c7	-0.23681937
85	0xbe79d911	-0.2439921
86	0xbdc36b21	-0.095419176
87	0x3ceaeb05	0.02867652
88	0xbccaaeac	-0.024741493
89	0xbd67df8b	-0.05660967
90	0xbdf8ab41	-0.12142039
91	0x3d1a0d83	0.037610542
92	0x3d72a66f	0.059240755
93	0x3dd483fc	0.103767365
94	0x3bd12d0e	0.0063835448
95	0x3da546c2	0.080701366
96	0x3e4815eb	0.19539611
97	0xbdccf62c	-0.10007891
98	0xbdf32b56	-0.118735
99	0xbe614b6c	-0.22001427
100	0xbc810051	-0.015747221
101	0xbc93702b	-0.017997822
102	0x3e5af8a1	0.21383907
103	0x3e0226da	0.12710133
104	0x3e162fa2	0.14666608
105	0xbd30eac7	-0.04319265
106	0xbe8c2ff2	-0.2738033
107	0xbe0564f8	-0.13026798
108	0xbc7976a5	-0.015226041
109	0xbde343b3	-0.11096897
110	0x3e101dc3	0.14073853
111	0x3e003c7d	0.12523074
112	0xbb2c156d	-0.0026257888
113	0xbd86e64e	-0.06586896
114	0x3c6f5f22	0.014610084
115	0xbe00cf38	-0.12579048
116	0xbdb17a42	-0.08665897
117	0xbdcf8959	-0.10133619
118	0xbe8d3bb3	-0.2758461
119	0x3d986322	0.07440783
120	0xbdaf0398	-0.08545607
121	0xbce663e9	-0.028123813
122	0x3ec742c0	0.38918114
123	0x3c3a5938	0.0113738105
124	0xbd544eb0	-0.051832855
125	0x3d932562	0.071848646
126	0x3db97a10	0.09056485
127	0x3ec40618	0.382859
128	0xbd99adf6	-0.075038835
129	0xbe6bb7e0	-0.23019361
130	0xbdc58795	-0.09645001
131	0xbd84d2e4	-0.06485537
132	0xbdc19382	-0.09451963
133	0x3e9b4880	0.3032875
134	0x3d8e220c	0.06940088
135	0x3dda9cd7	0.10674446
136	0x3ddb6e9f	0.10714459
137	0x3e0f754e	0.14009592
138	0x3d9a61a4	0.07538155
139	0x3df56e5a	0.119839385
140	0xbe1a7d73	-0.15086918
141	0xbe130763	-0.14358287
142	0x3e04d2b2	0.12970999
143	0x3d791be9	0.060817633
144	0x3db5c1fe	0.08874892
145	0x3ba1670a	0.0049256133
146	0xbe2bc872	-0.16775683
147	0x3da8b8ca	0.08238371
148	0xbd2dabb4	-0.042400077
149	0xbdb831c4	-0.08993867
150	0xbe30fbc0	-0.17283535
151	0x3da685fa	0.08131023
152	0x3d9d14c9	0.0766998
153	0xbd178402	-0.036991127
154	0x3e169185	0.14703949
155	0x3d9b20cf	0.07574617
156	0x3db8169a	0.08988686
157	0x3d119f87	0.035552528
158	0xbe246714	-0.16054946
159	0xbd6bd6e9	-0.057578
160	0xbe1ffd7c	-0.1562404
161	0xbdb78d03	-0.08962443
162	0xbde1b0d7	-0.11020058
163	0x3d9c3162	0.076266065
164	0xbe1eb441	-0.15498449
165	0xbc3cb197	-0.01151695
166	0xbd580286	-0.05273678
167	0x3c8dc158	0.017304108
168	0xbddae88c	-0.10688886
169	0xbe53a045	-0.20666607
170	0xbcab64f4	-0.020922162
171	0xbd279b9a	-0.040919878
172	0xbe542411	-0.20716883
173	0xbe02a852	-0.12759522
174	0xbde029ff	-0.1094551
175	0xbe053a22	-0.13010457
176	0xbe59560e	-0.21224234
177	0xbdba0447	-0.09082847
178	0xbe9a52d2	-0.30141312
179	0xbe82fb96	-0.2558257
180	0x3bf4d451	0.007471599
181	0x3a132333	0.000561285
182	0x3d4f996b	0.05068342
183	0x3dcf3533	0.10117569
184	0x3df52227	0.11969405
185	0xbd84eb53	-0.06490197
186	0xbdba9b60	-0.09111667
187	0x3d44990d	0.047997523
188	0x3d4e0957	0.050301876
189	0x3e78f510	0.24312234
190	0x3e0ff3be	0.14057824
191	0x3ed63120	0.41834354
192	0xbe7b511a	-0.24542657
193	0xbe2cb903	-0.16867451
194	0xbe3ca7bb	-0.18423359
195	0xbd73cab0	-0.05951947
196	0xbe51c357	-0.20484672
197	0x3c229421	0.009923012
198	0xbdcbe609	-0.09955985
199	0x3c63e019	0.0139084095
200	0xb9eea38b	-0.00045516746
201	0xbd8d1b30	-0.06889951
202	0xbd350208	-0.04419139
203	0xbdd907a4	-0.105971605
204	0xbcc23ad2	-0.023709688
205	0x3cdff5d1	0.027338894
206	0x3c8191d4	0.015816607
207	0xbcd7581b	-0.02628713
208	0xbdb0c7e2	-0.086318746
209	0x3dc0f5bc	0.0942187
210	0xbce25987	-0.02763058
211	0x3d1d191a	0.038354017
212	0xbca62192	-0.02027968
213	0xbe31944a	-0.17341724
214	0xbe69ddaa	-0.22838464
215	0xbe0cf3a4	-0.13764817
216	0xbe2d96fc	-0.16952127
217	0xbe17dd2e	-0.14830467
218	0xbe1b6e31	-0.15178753
219	0xbd8beb80	-0.068320274
220	0xbe271b37	-0.16318975
221	0xbd89847a	-0.06714721
222	0xbcefb479	-0.02926086
223	0x3c4f03e6	0.012635207
224	0xbd1f838a	-0.038943805
225	0xbce51897	-0.027965827
226	0xbe51cb9c	-0.20487827
227	0xbd929ead	-0.07159171
228	0x3d236be1	0.039897803
229	0xbe41e3ef	-0.18934606
230	0xbd8c225e	-0.068424925
231	0xbe55e3e3	-0.20887713
232	0xbbbe59bf	-0.0058090384
233	0xbe09144e	-0.13386652
234	0xbd25eab7	-0.040507045
235	0xbdf85ac6	-0.12126689
236	0xbcbb424d	-0.022858763
237	0xbdc743b5	-0.09729711
238	0x3e317db3	0.17333107
239	0x3db1eafc	0.08687398
240	0x3e3660f7	0.17810427
241	0xbc41f584	-0.011838321
242	0x3e862821	0.2620249
243	0xbd34f076	-0.044174634
244	0x3c4eca40	0.012621462
245	0xbd4ecbe4	-0.050487414
246	0xbc0efe1f	-0.008727579
247	0x3df63e85	0.120236434
248	0x3d289795	0.041160185
249	0x3deb5ffd	0.11492918
250	0x3dc07203	0.09396746
251	0x3e5861f5	0.21131118
252	0x3e1dec77	0.15422235
253	0x3e07792d	0.13229819
254	0x3d8fda5f	0.07024073
255	0x3e818168	0.25294042

model.layers.1.temporal.0.bias f4 [32]
0	0xbeb92738	-0.36162734
1	0xbe8f4374	-0.2798115
2	0x3c95e974	0.018299796
3	0xbe976922	-0.29572397
4	0xbf01d9ac	-0.50722766
5	0xbde38d78	-0.111109674
6	0xbe12ad92	-0.14324024
7	0xbeb0e344	-0.3454839
8	0xbda2a70b	-0.07942017
9	0xbd7b1d34	-0.061307147
10	0xbeba8b9d	-0.3643464
11	0xbe9b92df	-0.3038549
12	0xbedfe220	-0.43727207
13	0x3cad6eee	0.02117106
14	0xbee7eefb	-0.45299515
15	0xbeec6eb6	-0.46178216
16	0xbdf38c2d	-0.11891971
17	0xbe0f457b	-0.13991348
18	0xbd707ded	-0.058713842
19	0xbe98f6d0	-0.29875803
20	0xbdbca680	-0.09211445
21	0xbf41a4df	-0.756422
22	0xbee99d37	-0.45627758
23	0xbe981d86	-0.29710025
24	0xbf15adbe	-0.58468235
25	0xbe76a087	-0.24084674
26	0xbec7631f	-0.3894281
27	0xbecefa55	-0.40425363
28	0xbeb3438d	-0.35012475
29	0xbe0aa1c3	-0.1353827
30	0x3dd2224f	0.1026045
31	0xbe07c590	-0.13258958
