experiments/Exp4/saved_models/tsmixer_challenger_1.pt (torch, 730230 bytes, 30 tensors)

model.static_proj.weight f4 [64, 10]
000000 b3 1a 79 bd a3 d6 06 be ff d5 92 3e 99 11 dc bd
       -0.060816478 -0.13167815 0.2867889 -0.10745544
000010 40 97 11 be dd 03 7c bd 0d b6 1a bc 04 3d 55 be
       -0.14217854 -0.06152712 -0.009442818 -0.20824057
000020 e4 1d 50 3e 1f 67 3e 3e 5b ff 76 3d 21 2c 5b bd
       0.20323902 0.18594025 0.06030212 -0.05350888
000030 31 da bc 3d e8 de c6 bd 55 86 e4 bb 8c c5 5d 3d
       0.09221304 -0.09710485 -0.0069740214 0.054143474
000040 47 98 2a 3d 62 aa a6 bc 9a 7e f0 3d ff 05 76 bd
       0.04164913 -0.020344917 0.11742897 -0.060064312
000050 58 9b 4b bd 16 35 9a 3c e3 b6 17 be e7 5b 20 3e
       -0.049708694 0.018824141 -0.1481586 0.15660058
000060 b3 75 e5 bd 51 8e 8d 3e 0a fe f7 3d 8a f7 12 be
       -0.1120409 0.2764764 0.12109001 -0.14352241
000070 c2 85 4e 3d 34 f7 e9 bc 1c da 17 3e 1e 47 ab bc
       0.05042053 -0.028560258 0.14829296 -0.020907935
000080 a3 90 0d 3e ac 8b fa 3d a3 49 e0 3e 5e 17 a8 bd
       0.13824706 0.122336715 0.4380618 -0.08207582
000090 cd ac da 3d 99 0e b6 3c e9 f6 8a 3e b4 43 93 be
       0.106774904 0.022223758 0.27141502 -0.2876259
0000a0 12 ab 24 bd 16 34 37 3c 3f 67 7a 3e 93 57 20 3e
       -0.040202208 0.011181852 0.24453448 0.15658407
0000b0 1e a6 0e 3b 10 8b 4e 3d 84 19 85 bd a2 54 74 bd
       0.0021766494 0.05042559 -0.06499007 -0.059651025
0000c0 4d 79 b4 bd f0 01 87 3e 0d 1a 96 3b 60 84 9e bc
       -0.08812199 0.26368666 0.004580742 -0.01935023
0000d0 3a a3 b2 be f9 b2 3d 3d 4a 0c 46 3e 82 07 a7 bb
       -0.34890157 0.04631326 0.19340625 -0.0050973305
0000e0 d5 e6 4b bc 3b fd 9d bc b9 25 53 be a7 d7 5d be
       -0.012445171 -0.019285789 -0.20619859 -0.21664296
0000f0 11 7e e5 bb 5e 73 e6 3c d0 0b 60 be 5c e9 e8 3d
       -0.0070035537 0.028131183 -0.21879506 0.11372635
000100 e9 92 ed 3d d2 76 90 be 73 85 44 3e ca 85 82 bd
       0.116002865 -0.28215653 0.19191532 -0.063731745
000110 9c a4 97 bd b8 01 98 3d 13 d3 b8 3c 48 10 5e 3c
       -0.074044436 0.07422203 0.022561586 0.013553686
000120 a3 7a a4 3e f0 91 3d bd c2 c6 9b bc e5 86 0d 3d
       0.32124814 -0.046281755 -0.019015674 0.034552474
000130 8e 96 6a 3d c7 59 41 be 80 b1 6e bc 37 69 4f be
       0.057272486 -0.18881904 -0.0145686865 -0.2025498
000140 95 51 81 3e 20 18 bf bc 04 7d be bc eb 75 95 be
       0.25257555 -0.023326933 -0.023252971 -0.29191527
000150 05 d7 09 bd 72 b3 a8 3d e5 7d 44 be ab 67 10 3e
       -0.033652324 0.082373515 -0.1918865 0.14102046
000160 0d a1 3a 3e 57 43 04 bf a2 fd 9e 3c f1 cf f9 3c
       0.18225498 -0.5166525 0.01940805 0.030494662
000170 f3 a3 0c 3e 04 00 32 3c 36 d0 5a 3e 66 8b 00 3e
       0.13734417 0.010864262 0.21368489 0.12553176
000180 4a 34 39 36 6d db 27 3e c2 3d 74 bd 55 3b e8 bd
       2.7597584e-06 0.16392298 -0.05962921 -0.11339442
000190 f1 d9 5b bd 71 bb fc bb 15 95 63 3e 33 5f 67 3e
       -0.053674642 -0.0077127744 0.22224839 0.2259491
0001a0 cd 43 17 3e c4 24 5d bd 8d 24 ab bc ed e0 fe 3c
       0.14771958 -0.05399014 -0.020891452 0.031113112
0001b0 ce 88 dc bc 33 4f 58 3d 28 85 1e be 65 70 92 3b
       -0.026920702 0.052809905 -0.15480483 0.004468965
0001c0 06 54 d3 3d 57 54 1e 3c 8c 99 87 bd 5c ad 31 3e
       0.103187606 0.009663663 -0.066210836 0.17351288
0001d0 11 db e6 bd e3 62 1d be d4 e7 d6 bd 80 c3 5d 3e
       -0.11272252 -0.15369754 -0.104934365 0.21656609
0001e0 5a c7 43 3e 96 06 92 3d 96 7a 91 3e d9 bc b8 3d
       0.19119015 0.071301624 0.28413838 0.09020395
0001f0 ab d9 02 3e db 4c 15 3e a7 1a 89 be 45 08 54 3e
       0.12778346 0.145801 -0.26778147 0.2070628
000200 54 73 5a 3e 85 d8 70 bd cc b2 a2 3b 6d de b2 bd
       0.21333057 -0.05880024 0.004965162 -0.087338306
000210 47 40 88 3e 9d ff ab bd 33 84 cb bd 8b b8 06 be
       0.2661154 -0.08398364 -0.099373244 -0.13156335
000220 d9 0b 62 bd a8 7f f1 3d fe 43 90 bd 94 44 35 3e
       -0.05518708 0.117919266 -0.070442185 0.17701942
000230 cb 13 48 3c 64 c3 36 3d 55 95 58 3e fe 34 11 be
       0.01221175 0.044619933 0.21150716 -0.14180371
000240 a0 1f cd 3d 7d 7d 66 3d 7e 31 36 3d d2 39 2a 3b
       0.100157976 0.05627202 0.044480793 0.0025974405
000250 2c 1f 5e 3e 91 de 3d be 3f 06 a9 3c 3c 5f 2d 3e
       0.21691579 -0.18541934 0.020632861 0.1693086
000260 da c6 be 3c bb 7a c4 bc 12 49 a2 3e 70 ef 07 be
       0.02328818 -0.023984304 0.31696373 -0.13274932
000270 df 3f c4 bd ea e6 61 be fe 66 38 3e 8d 1c fe bd
       -0.09582495 -0.22060743 0.18008038 -0.124077894
000280 f9 f9 4c be 23 1b e4 3c 6e 30 9d be 83 83 35 bd
       -0.20017232 0.027844971 -0.3070101 -0.044314872
000290 bb bf 8f bc e1 da 70 3d 56 21 64 3d 8a cd db bd
       -0.017547479 0.05880249 0.055695854 -0.10732563
0002a0 a9 04 e4 bd b0 06 d3 bd 95 9f 3c 3d ee e2 21 3d
       -0.11133701 -0.1030401 0.046050627 0.039523058
0002b0 41 3b d6 bc 3e b2 ea bd e7 1d 55 3e 7e df 99 bd
       -0.026151301 -0.11459778 0.20812188 -0.07513331
0002c0 07 51 82 be ee 04 ca 3c e0 aa 86 bc 24 3f 04 be
       -0.25452444 0.024660554 -0.016438901 -0.12914711
0002d0 26 f6 ad 3d b4 02 99 3d 7e 2b d4 be 40 a1 67 be
       0.08494215 0.07471219 -0.41439432 -0.22620106
0002e0 52 51 11 be 55 2a 8d be 38 af 25 bd 70 a3 d0 bd
       -0.14191177 -0.2757136 -0.040450305 -0.10187423
0002f0 35 6f 4f be 1a 02 1a 3e c0 77 83 bd a7 69 6f 3d
       -0.20257266 0.15039864 -0.06419325 0.058450367
000300 54 b8 01 3e 96 40 2d be f3 73 f5 bd 68 6b c7 bd
       0.12667972 -0.16919169 -0.11985006 -0.09737283
000310 bd 7d 25 3d 44 a3 06 be b6 2d 22 3e a9 dc 40 3d
       0.040403116 -0.13148218 0.1583775 0.047085438
000320 f0 e5 62 3d a6 fc 3a 3c 93 74 c0 bc b4 09 df 3d
       0.055395067 0.011412775 -0.023493087 0.108905226
000330 b5 4f f1 3d 8e 80 82 3d dc 42 2f 3e 22 9a 72 3d
       0.11782781 0.06372176 0.17115349 0.059229024
000340 f5 6b 48 bd e9 9f 3d 3e 54 f2 a2 bd b9 03 8f 3d
       -0.04893108 0.18518032 -0.07956377 0.06983132
000350 f2 91 59 be 3f 83 7b 3c b8 c7 9e 3e 53 94 8f be
       -0.2124708 0.015351116 0.31011748 -0.2804285
000360 6b 28 fd bd af 4e d5 bd 65 a7 41 bd a7 33 1f be
       -0.12361225 -0.10415398 -0.04727878 -0.15547048
000370 cb 9d db bd 7a 18 ac bd d4 ab c6 bd 5b 78 f9 3d
       -0.10723456 -0.08403106 -0.09700742 0.12181159
000380 b1 38 70 be bb 69 70 3e 2f 2b 4e 3d f5 1d 42 3e
       -0.23459126 0.23477833 0.05033415 0.1895674
000390 c5 df 25 3e 99 c2 b7 bd e5 f6 af 3d 65 73 d7 bb
       0.16198643 -0.089726634 0.08592013 -0.0065750354
0003a0 29 30 51 3d b4 8e f9 bd 68 48 cf 3d 99 f3 b2 bd
       0.05107132 -0.121854216 0.10121232 -0.08737869
0003b0 6c 2c a1 bd c2 88 6c 3d 6c 74 12 3e f6 be e3 bc
       -0.07869801 0.05774761 0.14302224 -0.027801018
0003c0 c7 46 4a 3e 13 15 33 3e e5 f4 c4 bc dd a2 cd 3e
       0.19753562 0.17488508 -0.024042556 0.40163317
0003d0 c0 69 7d 3e 79 f0 3f 3e 1c 04 74 be de 98 c7 3b
       0.24747372 0.18744077 -0.23829693 0.0060912212
0003e0 33 ff 1b 3e d8 96 dd 3d 2b 6c e1 3d e2 9d 29 3d
       0.1523407 0.10819787 0.110069595 0.041410334
0003f0 35 02 78 be 4c fb c0 bd 6a cb ea bd a2 b7 46 be
       -0.24219592 -0.09422931 -0.114645794 -0.19405988

model.static_proj.bias f4 [64]
000000 c1 ef 9e bd 1d 6c ca bd b1 ed b2 bd 1a c2 8a 3e
       -0.07760573 -0.09883902 -0.08736742 0.27101213
000010 58 7b 59 3d 7a ae 84 3d 8f 09 59 be 56 0c 2b be
       0.053096145 0.06478591 -0.21195053 -0.16703925
000020 fa d9 ec 3c 7c 0e f6 3d 68 3b 47 bd d2 6b 5c 3e
       0.028912533 0.120144814 -0.04864064 0.21525505
000030 fe 7e 1b be a6 ee 76 be 6c 43 1a 3c 7e 0b cb bd
       -0.15185162 -0.24114475 0.009415489 -0.09914301
000040 45 1f 57 3e 95 db 37 b5 a2 93 00 be 69 9b 34 be
       0.21008022 -6.8492346e-07 -0.12556317 -0.1763741
000050 09 f5 b5 bd 03 40 76 3c a5 a5 1a be 44 5a 04 3c
       -0.08884627 0.01502991 -0.15102251 0.008078162
000060 87 7e 07 3c c4 5f 97 3c 91 d4 ff 3d 4f 36 a0 bc
       0.008269913 0.018478282 0.12491716 -0.019557146
000070 5d 08 67 3e 4c 72 25 3e 58 da d0 bd 0d 16 11 be
       0.22561784 0.16156882 -0.10197896 -0.14168568
000080 0d 96 8e 3d 1f 08 fd ba 2e 03 41 be 79 35 16 be
       0.06962214 -0.0019304788 -0.18848869 -0.14668836
000090 49 90 96 bc 2b 53 6f 3c 86 eb 6d be c2 24 29 3e
       -0.018379347 0.014607231 -0.23234376 0.16517928
0000a0 70 ce 8f 3a 70 15 39 bc eb 82 2d be 5d 68 fd bd
       0.0010971557 -0.011296615 -0.16944472 -0.12373421
0000b0 8f ed f0 3d fe d8 85 3d e2 d6 56 3e af 66 39 3d
       0.11764061 0.065355286 0.20980409 0.045263942
0000c0 09 69 65 bc c7 7f ea 3d 19 27 ac bd d7 cf 32 3d
       -0.014002093 0.11450153 -0.08405895 0.043655243
0000d0 84 55 a0 3d 10 ba 90 3d 21 53 7d bd 00 c3 27 3e
       0.07828811 0.070667386 -0.061846856 0.1638298
0000e0 e6 7e d5 bd 87 d2 9a 3d b6 7e bc 3d 02 f3 39 bc
       -0.104245946 0.07559686 0.09203856 -0.0113494415
0000f0 5c 6d 3c 3e c9 47 9c bd d7 d5 84 3e c8 45 a9 bd
       0.18401092 -0.076308794 0.25944397 -0.08265263

model.layers.0.temporal.0.weight f4 [32, 64]
000000 d2 d1 c2 3d 36 82 1d 3d a8 43 c6 3d 56 6d da 3c
       0.09512676 0.038454257 0.09680873 0.026663464
000010 6b e1 18 3e 11 5e 02 3e 16 21 8f 3d 5d 32 8d 3d
       0.1492974 0.12731196 0.069887325 0.06894372
000020 7c 7b d9 3d 3d fe d6 3d 45 c8 82 3d 49 1a 70 bd
       0.10619256 0.10497711 0.06385855 -0.058618817
000030 f1 e6 36 bd 0b 52 74 bd f8 af 06 3d e1 72 92 3d
       -0.044653837 -0.059648555 0.03288266 0.07150818
000040 0a 3d 51 3d 59 40 d1 bd 21 26 c9 bd 80 cc 9b bd
       0.051083602 -0.102173515 -0.09821726 -0.07607365
000050 54 cf 4a bd 0d 50 fc 3c ec 18 bd 3c 8b 69 c7 3d
       -0.04951413 0.03079989 0.023083173 0.097369276
000060 c7 52 cb 3d 0c bd c9 3d d0 4d 2c 3e 00 34 e9 3d
       0.09927898 0.09850511 0.16826558 0.11386871
000070 9b 20 63 3d f1 de 04 3d 33 e3 13 bd 45 d3 d1 bc
       0.055451017 0.032439176 -0.036105346 -0.025613436
000080 e4 e8 43 bd ab a1 79 bc 62 9b c4 3c 4e 51 44 3a
       -0.047829524 -0.015236299 0.023999874 0.0007488922
000090 e8 19 1a 3d ff 9d 8f 3d d8 a6 f8 bc 6c 4a f1 bd
       0.037622362 0.07012557 -0.030352995 -0.11781773
0000a0 65 01 f2 bd cf 3a 34 be 9f 57 74 be 8c eb 43 be
       -0.11816672 -0.17600559 -0.2386155 -0.19132823
0000b0 d0 82 0e be 83 2e 6e be 2a a5 6a bc 00 d9 06 be
       -0.13917089 -0.2325993 -0.014321605 -0.13168716
0000c0 42 97 bd bd 23 51 2c bd 86 54 66 be 32 14 31 be
       -0.09257366 -0.042069566 -0.2249318 -0.1729286
0000d0 7b 9f 2e be f1 a6 60 be 0f b5 4c be fb 14 87 3c
       -0.17053024 -0.21938683 -0.19990943 0.016489496
0000e0 93 3e 79 3d ca 28 4e 38 8b 44 06 3e e8 63 ed 3d
       0.06085069 4.9152215e-05 0.13112085 0.11591321
0000f0 14 fd 12 3e 4f 4b 97 3d c3 eb f8 3d 01 2a 66 bd
       0.14354354 0.07387411 0.12154343 -0.0561924
000100 47 e1 34 bd fb 47 2c 3d 91 ca 4b 3e 0e 00 23 3e
       -0.044160154 0.042060833 0.19901492 0.1591799
000110 91 9c 28 3e 5d 72 18 bd 04 e7 8b be eb 45 9b be
       0.16465975 -0.03721844 -0.27324688 -0.3032678
000120 09 7b 0d be 36 ca 23 3e 7b 7c 2e 3e d1 cb a5 3d
       -0.13816465 0.15995106 0.17039673 0.080955155
000130 e1 8d 34 bc 41 07 31 3e b5 c8 0a be 24 c2 64 be
       -0.011020155 0.17287923 -0.13553126 -0.22339684
000140 e5 79 b4 bc d8 5b e7 3d 90 6d 40 3e 52 34 4c 3c
       -0.02203078 0.11296815 0.18791795 0.012463646
000150 35 43 a4 3d 84 48 48 bd 99 56 88 be 20 a9 37 be
       0.08020631 -0.04889728 -0.2662857 -0.1793561
000160 e9 13 45 3e 02 96 21 bd 99 c0 0e be 12 2e 1a bd
       0.19245876 -0.0394497 -0.13940658 -0.037641592
000170 8c 01 2f bd 67 03 81 3d cd 42 2a 3e eb 18 52 3e
       -0.042726085 0.06299477 0.16627045 0.20517318
000180 a3 f2 d5 3d 97 88 5a bd 8f f1 82 bc b7 6d 26 be
       0.1044667 -0.05335292 -0.015984325 -0.1625279
000190 80 16 2d be 2f 2d 53 3c 93 fe ed 3d 30 28 8e 3e
       -0.16903114 0.012889191 0.11620822 0.27765036
0001a0 c3 d9 12 bd 14 17 a9 be 83 8a 93 be 85 b9 30 be
       -0.035852205 -0.3302542 -0.28816614 -0.1725827
0001b0 9e 09 71 3e 1c 22 82 3e e6 8c 4a 3e c5 57 55 3c
       0.23538825 0.25416648 0.19780311 0.013021414
0001c0 5b f2 b3 bd 1e 54 62 be 57 4d f7 bd 8a ce e4 bc
       -0.0878646 -0.221024 -0.12075298 -0.027930517
0001d0 f1 9c 03 be 5a 2f 67 3d f3 12 ab 3d a2 f3 bf 3d
       -0.12852837 0.056441642 0.08353224 0.09372641
0001e0 44 49 77 bc f8 8f 32 3d 7d 46 6a 3d 39 f1 40 be
       -0.0150931515 0.04359433 0.05719613 -0.18842019
0001f0 52 eb de bd 31 9a 44 bd 70 c3 58 3d da 93 86 3d
       -0.108847275 -0.04799861 0.05292076 0.06571169
000200 db bb fe 3d 9b e0 91 3d 65 3e 8b 3d 89 e6 9f 3d
       0.12438174 0.07122918 0.0679901 0.07807643
000210 48 de 2c 3d 87 19 1a 3d 3c a0 52 bc 9f d7 47 bd
       0.04220417 0.037622 -0.012855586 -0.048789617
000220 cc 4c 5c 3d 2b 30 6f 3e c5 c9 05 3e 1a a0 36 3e
       0.053784177 0.23358218 0.1306525 0.17834511
000230 d7 3f 7b 3e 70 53 28 3e df cd 09 3c 2e 78 dd bd
       0.24536072 0.16438079 0.0084109 -0.10813938
000240 72 da 12 be de 39 08 be 82 43 10 bd 02 8e b1 bd
       -0.14341143 -0.13303325 -0.03522063 -0.08669664
000250 19 6a c8 bd 10 0c 43 bd 9b da 9b 3d 67 fc 9b 3d
       -0.097858615 -0.047618926 0.07610055 0.07616501
000260 6a c1 99 3d ea f1 03 be 80 40 55 be 97 b5 e7 bd
       0.07507594 -0.12885252 -0.20825386 -0.113139324
000270 75 ac 46 bd ff 6b 76 3d 51 80 ed 3d d0 cb 1e 3d
       -0.04850431 0.060161587 0.1159674 0.03876859
000280 e7 c8 59 bc 3c 0a 7e bd 50 ff 77 bd 87 ea 55 bd
       -0.013292528 -0.06202148 -0.06054622 -0.052225616
000290 e6 1f 2f be d2 ec 9d bc 0b 4d cd 3c 3a 04 8a 3d
       -0.17102012 -0.019277964 0.025061151 0.067390874
0002a0 74 2c a0 bc ef ec 63 bd 2f 81 93 bd 1e 9d 4f bd
       -0.019552447 -0.05564588 -0.07202374 -0.050686948
0002b0 a5 af 90 bc c0 b9 ee bd 43 ee aa 3c 54 c4 0e 3e
       -0.017661879 -0.11656523 0.020865565 0.1394208
0002c0 f4 df 03 3e 35 ac a5 3d 0d 12 18 3e 02 09 39 3e
       0.128784 0.080894865 0.14850636 0.18069842
0002d0 e5 14 63 3d a0 64 27 3d 25 71 32 be 90 34 ff bd
       0.05543985 0.040867448 -0.17425974 -0.124611974
0002e0 90 f9 04 be 9c 78 24 be 23 8c 13 be 43 a9 7b be
       -0.12985826 -0.16061634 -0.14408927 -0.24576287
0002f0 06 cd 41 be 93 fc eb bd 78 51 33 be 61 06 07 be
       -0.18925866 -0.11522784 -0.17511547 -0.13186027
000300 77 87 86 3b 66 d2 a2 3d f4 1f 59 3d 55 90 a0 bc
       0.004105504 0.079502866 0.05300899 -0.019600073
000310 ba 6e 03 bd bf 28 c2 3d 27 8f 8d bd 7e 26 dc 3d
       -0.03208802 0.09480428 -0.0691207 0.10749529
000320 aa e5 e2 3d ff ed be bc 84 4c 5b bd ed 83 10 be
       0.11078961 -0.023306845 -0.053539768 -0.14112826
000330 39 38 51 3c 94 6c 17 3d 3d c3 99 3c 05 54 b0 3c
       0.012769752 0.036968783 0.018769855 0.021524439
000340 99 de 89 3d 41 cb fd bc 83 3a b2 3c 40 a8 89 3d
       0.0673191 -0.030980708 0.021756416 0.06721544
000350 fe db 3d 3c bf de 0b 3b 65 32 25 bc e2 e3 68 bd
       0.011588095 0.0021342484 -0.010082816 -0.05685795
000360 27 40 67 3d a1 ee 01 be cd d6 bc bd 88 37 a2 bd
       0.056457665 -0.12688686 -0.092206575 -0.07920748
000370 c2 d9 8d 3d 25 a7 08 3a fe bc 46 3d 80 71 45 3d
       0.069263 0.0005212895 0.04852008 0.048203945
000380 f4 d9 88 3d bf 61 90 3d 9c 74 63 3c e6 5b 26 3d
       0.06682196 0.070498936 0.013882782 0.040614985
000390 7f 27 16 3c 2a 0e 16 bd e5 d3 91 3d ff 32 ca bd
       0.00916469 -0.0366346 0.07120494 -0.09873008
0003a0 e4 cb 15 bd 7d be fa 3b f4 85 46 bd f0 0a da bc
       -0.0365714 0.0076521025 -0.04846759 -0.026616544
0003b0 bb f4 26 bb c4 52 f6 3b 62 82 a4 3d 0c 85 f3 3d
       -0.002547546 0.0075171907 0.08032681 0.11890611
0003c0 d3 10 e7 3c ec 4d 46 3d be 3c b2 3c 0f 8c fe 3d
       0.028206265 0.048414156 0.02175748 0.12429058
0003d0 17 79 fc bd 94 78 e0 bd 41 2d 54 3d 70 53 0b 3e
       -0.123277836 -0.109604985 0.05180097 0.13606048
0003e0 03 e2 05 bd 83 60 ce 3d e1 b5 16 3e e2 e4 a9 3c
       -0.032686245 0.10077002 0.14717819 0.020739023
0003f0 f0 ce c2 3d 98 4f ad 3d 68 67 d2 3c c9 83 53 3e
       0.095121264 0.08462447 0.025684074 0.20655741

model.layers.0.temporal.0.bias f4 [32]
000000 4c 10 09 bf dc 06 be be f9 0a b5 be 7d d4 7c be
       -0.5354049 -0.37114608 -0.35359934 -0.24690433
000010 87 03 d2 be 8d 4e 6c 3c e5 71 11 3d aa 97 1a bf
       -0.41018316 0.014423025 0.03550901 -0.6038767
000020 ba 6a 18 be 27 d0 f9 bd db ad 5b bc 56 39 e2 3c
       -0.14884463 -0.12197905 -0.01340815 0.02761523
000030 17 c5 6d be 0a 59 1f be e4 56 00 3e b5 20 00 bf
       -0.23219715 -0.1556131 0.12533146 -0.50049907
000040 c5 29 db be 0c ce a6 be ae d6 f7 bd 98 7e 0b be
       -0.42805305 -0.32579076 -0.12101494 -0.1362251
000050 23 1c ac bd 6a 7b b3 3d c9 69 b0 be f4 c4 06 bf
       -0.08403804 0.08763774 -0.34455708 -0.52644277
000060 77 1c 91 3d e0 95 b4 bc b9 4f 20 be 3c 36 b7 3d
       0.07085507 -0.022044122 -0.15655412 0.08945891
000070 a6 f1 8f be e0 38 8d 3d c3 0c 62 be 84 f8 7c 3e
       -0.2811405 0.06895614 -0.2207518 0.24704176

model.layers.0.temporal.2.weight f4 [64, 32]
000000 93 b6 05 3d 58 a7 ba 3d a7 5a a5 bd 3a c8 83 bd
       0.03264482 0.091139495 -0.08073931 -0.064346746
000010 2b 03 30 bc ab 82 bd 3c 7e 31 99 bd 0f 84 f0 bd
       -0.010742943 0.023133596 -0.07480143 -0.11743938
000020 f4 22 17 be 15 5b 9d 3d 87 b5 b9 3d 89 46 c4 bc
       -0.14759427 0.07683388 0.09067827 -0.023959415
000030 3b c3 a5 bd 16 4c 49 be 2e a7 80 3c 4e 24 05 3e
       -0.08093878 -0.1965793 0.015704717 0.1300213
000040 ff 9e 3e 3e bf f1 e8 3d 90 f6 ac bd a8 af 8b bc
       0.1861534 0.113742344 -0.084454656 -0.017051533
000050 7f b6 e8 3d f9 9c 00 be e6 91 f0 bd e4 2f f4 3d
       0.11362933 -0.1255988 -0.11746578 0.11923197
000060 a0 bd ff 3d 84 2d 24 3e c2 4e 18 3e dc ac 00 3e
       0.1248734 0.16032988 0.14873794 0.1256594
000070 8a c2 26 bc 86 e3 27 3e fd e1 a3 3d 6b 38 23 bc
       -0.010178218 0.16395387 0.08002088 -0.009962182
000080 43 a1 2c 3e dc 3a 18 3d 08 87 82 3e c2 e4 2a be
       0.16858391 0.037165508 0.25493646 -0.16688827
000090 be 93 c5 3b cb 73 b7 3d f7 37 86 3d d5 db 6e 3d
       0.006029575 0.08957633 0.06553643 0.058315117
0000a0 d2 a3 3d 3e 75 46 6f be d3 e9 a2 bd d1 14 a6 3d
       0.18519524 -0.23366721 -0.07954755 0.08109439
0000b0 17 8c fb 3c 90 6b 3d 3e 02 a0 1e 3e 7d 8e 90 be
       0.030706448 0.18498063 0.15490726 -0.2823371
0000c0 97 5f 80 bd 3d 2d ba 3c ad c1 a2 bd 34 14 23 bb
       -0.06268232 0.02272665 -0.07947097 -0.0024883868
0000d0 a9 31 c5 bd 1c 54 9a bd 89 e3 ca 3c 43 c7 c0 bd
       -0.096286125 -0.07535574 0.0247667 -0.09413006
0000e0 2c 52 07 be b2 57 1a be c2 40 c1 3b 3e 40 c8 bc
       -0.1321494 -0.15072516 0.0058976123 -0.024444696
0000f0 b8 80 2c 3e 0a 18 9e 3d 7b 0b db 3b c5 d7 59 3e
       0.16845977 0.07719429 0.006684718 0.21273716
000100 ec 62 19 3e 08 17 33 3e 4d bf 92 3c 27 17 7b be
       0.14979142 0.17489254 0.017913485 -0.2452055
000110 f4 01 b3 bd cb 65 a1 bd cf 60 1a bd 95 b8 5c 3e
       -0.08740607 -0.078807436 -0.03768998 0.21554787
000120 ed 95 0d bd 30 a8 e4 bd 74 87 74 3e 7e 5c aa bd
       -0.03456681 -0.11164892 0.23879796 -0.08318423
000130 80 07 cd 3d ce 43 00 bd 12 68 9a bc 20 ff 1c 3e
       0.10011196 -0.031314664 -0.018848453 0.15331697
000140 04 4d 74 3d dd 8e e9 bd 09 40 9a 3d cb 0f f7 bd
       0.05964376 -0.11404202 0.07531745 -0.12063559
000150 82 d3 cd 3d ed d9 e6 bc 7a 60 d0 bc 8d b0 6a be
       0.100501075 -0.028180087 -0.025436629 -0.22918911
000160 40 a5 eb bb dc 1b 64 bd 48 6d 0c bc 6d 68 33 3d
       -0.00719133 -0.05569063 -0.008570977 0.04380076
000170 87 f9 0b 3e 8c cd 79 bd 5b e4 9a 3d 58 9b 6b bd
       0.13669406 -0.06098704 0.075630866 -0.057521194
000180 c7 32 9d 3e e2 e4 32 3a 0e e5 84 bd 43 e0 ff bd
       0.30702803 0.00068242673 -0.06489001 -0.124939464
000190 6f 99 78 3e 16 fd b3 3d 9e 8f 2e bc 24 94 0e bc
       0.2427728 0.08788507 -0.010654358 -0.008702312
0001a0 53 06 03 3e a7 fa 27 bc 04 d2 04 be 79 03 89 bd
       0.12795381 -0.010252631 -0.1297074 -0.066901155
0001b0 14 a2 35 bb f6 c9 1f bd 15 97 a3 3d cc 8d ab be
       -0.0027715014 -0.039010964 0.07987801 -0.3350662
0001c0 5b 6b ed 3d ad 80 bd bd 83 23 5d bd 27 95 8b 3d
       0.11592742 -0.092530586 -0.053988945 0.06815558
0001d0 69 14 6e 3e 89 d3 9c 3d cd d7 69 bb 0b e7 34 3e
       0.23249973 0.07657535 -0.0035681606 0.17666261
0001e0 33 8e 16 3d 78 ee f6 bd 65 83 93 3e 2d 0f 67 bd
       0.036756705 -0.12057203 0.28811184 -0.056410957
0001f0 26 e1 80 be 9f bf 3d 3d 64 70 0d bd 0f 7a 18 bd
       -0.25171775 0.046325322 -0.034531012 -0.03722578
000200 e5 e8 c9 bc 17 75 96 3e 48 18 ff 3c c5 90 22 be
       -0.024647186 0.29386207 0.031139508 -0.15875538
000210 f3 fb 61 3e 2e 26 c5 3c d5 4d 1e be 4a 6c 6c 3e
       0.22068767 0.024066057 -0.15459378 0.23088184
000220 fd e2 2c 3d 1d 76 b9 3d 79 f8 b5 3d 76 2b fd 3d
       0.04220866 0.090557314 0.08885283 0.12361805
000230 f2 d3 cc 3d 10 38 27 be 9b 84 fd bd 19 4b 18 bc
       0.10001363 -0.1632998 -0.12378808 -0.009295248
000240 d5 28 ec bd 84 b2 87 be fd 2f ad 3e 6d 1c a5 bc
       -0.115312256 -0.26503384 0.33825675 -0.020155156
000250 cf 61 10 3e 6b b9 94 bc e7 d0 35 bd 15 bf c8 3c
       0.14099811 -0.01815482 -0.044388678 0.024505178
000260 49 ee 76 be 82 28 37 3c bc ca 18 bd 69 89 7c be
       -0.24114336 0.011179091 -0.037302718 -0.24661793
000270 15 8d 12 be 00 9d 9d 3d 5d 8e 21 bc c0 16 92 3d
       -0.14311631 0.07695961 -0.009860602 0.071332455
000280 3e b3 01 3e 52 b4 8e 3d b6 1f 99 bd 3e 78 bd bd
       0.12666032 0.06967987 -0.074767515 -0.0925145
000290 ce 8b 3f bd 5e 3f cf 3c 34 07 73 3b ae 62 1c 3c
       -0.046764188 0.02529877 0.003708315 0.009545011
0002a0 c6 25 7b be 9d d6 f2 bc 21 1f a7 3c 1c 54 9c 3e
       -0.24526128 -0.029643351 0.020400586 0.3053292
0002b0 d9 34 85 bd 03 e3 9c bc 04 f7 bc bd 99 d0 df bd
       -0.065042205 -0.019151216 -0.09226802 -0.10928459
0002c0 ec 89 45 3d 95 bd 53 bd 9e 49 52 3e 42 79 e8 bd
       0.048227236 -0.05169447 0.20535895 -0.11351253
0002d0 ed ad 63 3d a0 24 37 3d f9 1d c9 3e 30 81 69 3d
       0.05558579 0.044712663 0.3928068 0.05700797
0002e0 b5 f7 02 3e 51 2c 4f 3a 9e 97 26 3e 5a ec 15 3b
       0.12789805 0.0007903027 0.16268775 0.0022876472
0002f0 54 ea 7d 3e d0 d0 ce bd 87 ef 23 be 89 e4 81 3c
       0.2479642 -0.100984216 -0.16009341 0.015856044
000300 0c 3d 92 3c a0 a5 f6 3d 5c d3 f4 bd a9 f9 66 bd
       0.017851375 0.12043309 -0.11954376 -0.05639044
000310 41 24 54 be 31 ab 45 3c be 05 75 bd 6e 55 a6 3e
       -0.20716955 0.012064741 -0.05981993 0.32487053
000320 7b 84 46 be ed d4 44 be 74 36 9e 3e cb 84 bd 3d
       -0.19386475 -0.1922185 0.3090092 0.09253844
000330 aa f1 3d bd e9 5e 90 3d ae f3 5b 3d d8 65 8b be
       -0.046373047 0.07049353 0.053699188 -0.27226138
000340 d7 5a 60 be 50 a3 96 3d f9 c2 3e bc 55 27 2d 3d
       -0.21909653 0.07355368 -0.011643165 0.042273838
000350 1c a3 e6 bd c8 73 7f be d9 fb 4b 3d 79 7e bd bd
       -0.112615794 -0.24946511 0.049800728 -0.09252638
000360 af 1b bd 3e 42 f8 4f 3d a1 87 95 3b 33 c3 46 bd
       0.36935183 0.050773866 0.0045632874 -0.048526
000370 60 1c 4d be 51 ef 42 3d 36 37 63 3d 53 1d 2f 3e
       -0.20030355 0.04759151 0.055472575 0.1710103
000380 59 33 eb 3c 78 c6 73 3d 2a 0d 24 3e 79 02 35 be
       0.028711008 0.059515446 0.16020647 -0.17676724
000390 87 3a a0 3e 43 65 c9 bd 13 7c 48 3e 01 ff 5e 3e
       0.31294653 -0.09833767 0.1957858 0.21776964
0003a0 01 c9 33 3d 9f 39 a4 3d 2c bb 61 be ce f5 5d 3d
       0.043892864 0.08018803 -0.22044057 0.054189496
0003b0 14 27 9c be 93 b9 3e be 0f 65 b6 3c 7f 76 c8 3d
       -0.30498564 -0.18625478 0.022264985 0.09788226
0003c0 4c 2d 49 3e be 90 24 3d 2f 75 6e bd ba 96 c9 bc
       0.19646186 0.0401771 -0.058217224 -0.024608005
0003d0 b8 b5 28 bd 12 20 5b be 8e c0 85 3d 44 15 7b 3d
       -0.041188926 -0.21398953 0.065308675 0.061299577
0003e0 d6 5e 65 bd 85 d0 a6 3e 87 0a 86 bd 29 5e cc 3c
       -0.055998646 0.32580963 -0.06544977 0.024947243
0003f0 a7 e3 2d be b4 04 69 3d 32 0f 3d be c7 29 5e 3d
       -0.16981374 0.05688925 -0.18462828 0.05423906

model.layers.0.temporal.2.bias f4 [64]
000000 1b 8c ac bd 2b ee 1b bb 8a 0a 79 3c 2f 64 64 3c
       -0.084251605 -0.0023793082 0.015200267 0.013939901
000010 09 02 22 bd 2a a6 f1 bc b2 e3 8d bd 32 78 a4 3c
       -0.039552722 -0.029498179 -0.06928195 0.020076845
000020 a5 6a fe 3b 1b 29 13 3d 06 b1 8c 3d 71 00 8f 3d
       0.007764178 0.035927873 0.06869702 0.06982506
000030 91 3b 24 bd ab e0 29 3c 32 34 d9 3b 57 10 0b bd
       -0.04009587 0.010368506 0.0066285366 -0.03395113
000040 6a 47 4d 3c bf 86 82 3d 09 9d 3f 3c e3 0c 84 bd
       0.0125292335 0.06373357 0.011695155 -0.064477704
000050 b5 f2 9a 3c 29 01 ba 3c 32 a2 b0 bb aa 84 3b 3d
       0.01891456 0.022705631 -0.005390429 0.045780815
000060 3f 29 90 bd d1 8d 8d 3d 49 bf 53 bd db 84 5c bd
       -0.07039117 0.06911815 -0.051696096 -0.05383764
000070 d6 b1 98 bc c4 03 6c 3c 09 31 cb 3b a9 c7 0e 3d
       -0.018639486 0.014405195 0.006200914 0.03485838
000080 dd 1c 96 3c 1f ed 19 3d 8e 1b 55 bd 75 97 16 bd
       0.01832431 0.037579652 -0.05202823 -0.036765534
000090 81 d0 59 3c 2b 8f 62 bd d4 a6 9e 3c fe c0 9b bd
       0.01329434 -0.055312317 0.01936666 -0.0760517
0000a0 a0 cb 0a bd 5b 5c 36 bd 5b 32 9e bc 89 f0 fb bc
       -0.0338856 -0.04452167 -0.01931112 -0.030754345
0000b0 78 2a 6e bc 23 1d 1b 3c 96 26 06 bc 1a 1a 9b 3c
       -0.0145364925 0.009467396 -0.008187911 0.018933345
0000c0 fe 47 57 bd 25 6e 43 3d 22 7a 95 3c 4e f2 cf bb
       -0.05255889 0.047712464 0.018246714 -0.0063460236
0000d0 94 47 50 bc 6d 2e 50 bd af 06 9e bc 7c ba 07 bb
       -0.012712378 -0.050825525 -0.019290296 -0.0020710519
0000e0 a5 42 13 3d 6a 46 76 bd 48 7e b8 3b bc 25 3a bd
       0.03595223 -0.060125746 0.0056302883 -0.045446143
0000f0 03 a1 05 3d 95 81 44 3a 19 b0 97 bc 94 d7 98 3d
       0.032624256 0.0007496116 -0.018516587 0.07462993

model.layers.0.channel.0.weight f4 [32, 74]
000000 e5 a7 df bd 0e e9 3f be ae a4 c8 be ba c0 ba bd
       -0.10920695 -0.18741247 -0.3918814 -0.09118791
000010 1a da 80 3d 9c 7a 39 bd b3 e6 c1 3c 8d 09 b5 bd
       0.062915996 -0.045282945 0.023669576 -0.08839712
000020 fe c2 a8 3d 7d 98 26 bf 29 aa 7d 3e 1f 20 73 3d
       0.08240317 -0.6507643 0.24771942 0.059356805
000030 a2 f3 7d 3e 14 bb 1e bd fa 45 79 3b 1b 53 0c 3d
       0.2479997 -0.03875263 0.0038036094 0.034258943
000040 fd 50 f1 3d ee 36 03 3e 25 5c 56 3d 4f 4f 74 3d
       0.117830254 0.12813923 0.05233397 0.059645947
000050 59 06 87 3d 53 59 b5 3c e7 01 86 bd a1 62 1b 3e
       0.065930076 0.02213732 -0.065433316 0.15174343
000060 ae bf 34 39 d2 f3 41 3e 50 ac 8a bd 95 2e ef bd
       0.00017237544 0.18940666 -0.06771147 -0.11678807
000070 7b a8 9d 3d 1f 9d 34 3e b4 b9 d7 3d e7 77 80 3d
       0.07698151 0.17638062 0.10533467 0.062728696
000080 75 18 fe 3d 4c db 91 3d 3e ce 0b 3e fe 36 21 3e
       0.124070086 0.07121906 0.13652894 0.15743634
000090 3e c1 66 bc 1e a7 9b 3d 10 a3 23 be 5f 63 5d bd
       -0.014084158 0.076002344 -0.15980172 -0.054049846
0000a0 ff 1e 0a 3e 13 73 81 3d 9f 8c 26 3d b8 31 ba 3d
       0.13488387 0.06320777 0.04066145 0.09091514
0000b0 04 77 b7 3d e3 c1 07 3e 06 d8 50 3d 8a 30 86 3c
       0.08958247 0.13257556 0.050987266 0.016380567
0000c0 82 0b 3a 3d 26 a4 aa bd 9c 66 31 bd 00 11 96 3d
       0.04542113 -0.0833209 -0.043310747 0.07327461
0000d0 3d 6c 5d 3e 05 cb 5a 3c 97 af c8 3d cc 0c c3 bc
       0.21623321 0.013354068 0.09799116 -0.023809813
0000e0 1d 43 32 be 11 b0 dd 3c 68 d9 10 3d b0 f7 b6 bc
       -0.17408414 0.027061494 0.035363585 -0.022334903
0000f0 b4 1d cc 3d 3d 05 b3 bd 4d 58 bb bc 1c 63 a2 3d
       0.09966603 -0.087412335 -0.022869254 0.0792906
000100 ea 1b 8c 3c c5 ce 0c 3d ae 33 88 3d 15 8e f7 3d
       0.017103154 0.03437688 0.06650482 0.12087647
000110 29 a0 c4 3d 16 fb 7a bd 54 2c d3 3d cf 00 96 bc
       0.096008606 -0.06127461 0.10311189 -0.018310932
000120 ca 2f 99 bc 46 77 ee 3c 2a 8e 9f 3e c3 03 18 be
       -0.018699545 0.029109608 0.3116315 -0.14845185
000130 de c2 08 be 3c 33 03 3d 35 17 31 be d1 41 9c bd
       -0.13355586 0.032031283 -0.17294009 -0.07629741
000140 9a 2c 35 3c 6e 24 35 be 28 ab 97 bc 6d 4b 57 bd
       0.011057997 -0.17689678 -0.01851423 -0.052562166
000150 44 e2 c5 bd cc 6d 19 3e 1e ee 0c be 32 9e de 3c
       -0.09662297 0.1498329 -0.1376271 0.027175043
000160 a2 35 d4 3c 46 3a b4 bd 97 39 e3 3d dc c0 6e 3e
       0.02590448 -0.08800177 0.11094969 0.23315758
000170 33 83 74 be cd 2a 0e 3e a0 29 c7 3d 16 af 0f be
       -0.23878174 0.13883515 0.09724736 -0.14031634
000180 95 c1 9b 3e f9 a2 d6 3e 22 10 19 3d a7 9e 91 bd
       0.3042113 0.41921213 0.0373689 -0.07110339
000190 c1 5d cf be 74 31 1f bd ca 5a 85 bd a8 7b a5 ba
       -0.40501216 -0.03886552 -0.06511457 -0.0012625353
0001a0 cd 81 87 3d 2b 6e 6c be db bf 4c 3b 20 87 cf bd
       0.066165544 -0.230889 0.0031242284 -0.10133195
0001b0 55 7e 92 be 4e 6d 4c 3e c0 e2 38 bd 85 8b 41 3d
       -0.2861201 0.19963571 -0.04513812 0.047252197
0001c0 25 25 b0 bd 63 37 dc 3c db 66 87 3e aa a0 62 3e
       -0.08600835 0.02688188 0.2644566 0.22131601
0001d0 c8 a6 30 3e d1 7f ad 3d 88 cc b0 3c ef 82 bb 3d
       0.17251122 0.08471645 0.021581903 0.09155833
0001e0 7c 4b 98 3d 45 bd 0f 3d 5c 30 6c 3d 9a 16 cf bd
       0.074362725 0.03509261 0.057663307 -0.10111733
0001f0 cb 95 cf bd e1 c6 1f 3d 37 4b 78 3e ab 50 51 bd
       -0.101359926 0.039008025 0.24247442 -0.05110232
000200 80 1a 15 3d e4 3f 5f 3e 83 95 67 3d 2b ea 4f bd
       0.036402225 0.21801716 0.05653907 -0.05076043
000210 a9 1a e4 3d a4 fc 04 bd 7d d0 ec 3c 29 03 06 3e
       0.111378975 -0.0324675 0.028908009 0.13087143
000220 f4 04 b3 3d 5c 06 42 be f7 5f dc 3d 3f 99 93 3c
       0.08741179 -0.18947738 0.10760491 0.01801741
000230 c0 1e dc bd 29 74 47 be ef 29 c6 bc ea 4e ca bd
       -0.107480526 -0.19477905 -0.024189917 -0.09878333
000240 c8 8b 1c be 94 b2 85 bd 08 74 d7 bd eb 01 c8 3d
       -0.15287697 -0.06528202 -0.10520178 0.09765991
000250 37 a8 12 3e 4e 47 9a 3c 00 48 ff be a2 0b 9b be
       0.14321981 0.018832829 -0.4985962 -0.30282313
000260 76 7b c1 3d 7a c0 de bd be 2e 95 be 95 99 11 be
       0.094473764 -0.10876556 -0.29137224 -0.14218743
000270 76 8f 0b 3e 55 6a 0f be 2b 2b 33 3e 85 e3 7a 3e
       0.13628945 -0.14005406 0.17496936 0.24500854
000280 86 8d 17 3e 51 53 a7 bd d1 8b 1a 3e 79 da d9 bd
       0.1480008 -0.08170188 0.15092398 -0.106373735
000290 5d 1c f0 bb eb d1 bc 3c 23 2f 0c 3e 1c f2 0c be
       -0.0073276 0.023049315 0.13689856 -0.13764232
0002a0 60 d4 fa bd 40 ba 2d 3c 4a 8f 1a 3e 46 34 f2 3d
       -0.122475386 0.0106034875 0.15093723 0.118263766
0002b0 4f 9f e4 3c d3 7b b1 bd 04 46 c2 bd 64 13 c8 bd
       0.027907996 -0.08666196 -0.09486011 -0.097693235
0002c0 42 c7 12 3c 58 38 25 3e 2e f1 86 3d b8 21 0e bd
       0.00895864 0.16134775 0.0658897 -0.034700125
0002d0 62 85 c0 3d 9a 41 7e bd c7 e7 d6 bb e2 c5 b7 3d
       0.09400441 -0.06207428 -0.0065583917 0.0897329
0002e0 19 b6 2c 3d 1d 09 32 bd ae 2c e9 bd de 2a df bd
       0.04216585 -0.043465722 -0.11385475 -0.10896848
0002f0 8c 1e 3a bd d4 72 c1 3d 90 0a 63 3d 4e b4 0c be
       -0.045439288 0.0944573 0.055429995 -0.13740656
000300 9b 03 18 3e b1 f8 b2 3c 53 c8 d7 3d eb 37 58 bd
       0.14845125 0.0218471 0.10536256 -0.052787703
000310 9b e9 3c 3d 05 aa 48 bd 99 13 38 3d c0 f3 c0 3d
       0.04612122 -0.04899027 0.044940565 0.094214916
000320 67 1a 04 bd 61 84 c4 bd dd 13 ae 3c ab a0 35 bd
       -0.03225174 -0.09595562 0.021249706 -0.044342678
000330 11 0f 51 3d 70 06 be bc d8 f6 a7 bd ba f1 9d bd
       0.05103976 -0.023196429 -0.082013786 -0.07712121
000340 2c f9 33 3e a0 52 26 bb a5 0a ca 3d 8d 2c 88 3c
       0.1757552 -0.0025378838 0.098653115 0.016622806
000350 d3 0c af bc f5 63 b9 3d 84 4e ae 3d 83 f4 8f bc
       -0.02136842 0.090522684 0.085110694 -0.017572647
000360 4d 99 8f bd 72 6c 88 3d 1f 2e aa bb 4b a8 2f 3e
       -0.07011662 0.06661309 -0.0051934863 0.17154042
000370 b7 77 19 be bc 28 ad bc d1 c7 96 3d da af 79 3d
       -0.14987074 -0.021137588 0.07362331 0.06095872
000380 64 60 e0 3d ae 10 7b be 26 2c 39 3d d9 16 7d bd
       0.10955885 -0.24518082 0.04520812 -0.061789367
000390 8e ca e3 bd ed db cc bc 00 e3 00 3e 1f 03 5c 3c
       -0.111226186 -0.025007213 0.12586594 0.0134284785
0003a0 91 89 3d bc 30 3b 73 3d 9d 0d 8a bd 80 12 8a bd
       -0.011568443 0.059382617 -0.06740878 -0.0674181
0003b0 b3 61 07 ba 90 84 23 3e 23 e3 84 bb ba ee 4e 3d
       -0.00051643996 0.15968537 -0.004055397 0.050520636
0003c0 f4 0c 82 3e 3c 34 89 3d c5 52 7d bd 5c 7f a3 bd
       0.25400507 0.06699416 -0.061846513 -0.07983276
0003d0 60 2e 85 3d 28 f5 3e 3e 29 8b 18 3d 9e c8 64 bb
       0.06502986 0.18648207 0.03724209 -0.0034909616
0003e0 ec 90 f9 3d 7c b3 79 3e 62 31 5c 3e 24 56 fb 3c
       0.12185845 0.24384874 0.21503213 0.030680723
0003f0 8d eb 41 be 8a 8e 14 3e ff b5 4f bd 11 b4 03 3c
       -0.18937512 0.145075 -0.050710674 0.008038537

model.layers.0.channel.0.bias f4 [32]
000000 7d 74 82 be 60 0e b9 be f8 43 58 bd 03 26 3f bd
       -0.25479499 -0.3614378 -0.052799195 -0.04666711
000010 17 2c 84 be 18 cc 18 be a2 82 df bc 7b 53 f4 bd
       -0.25814888 -0.14921606 -0.02728397 -0.11929985
000020 b4 d7 32 be e0 be c3 bd 60 d5 ca bd e1 4a 18 be
       -0.17465097 -0.09557891 -0.09903979 -0.14872314
000030 54 3a c6 3c 6b c2 ff bd d9 bd ca be 98 c1 0b bd
       0.024197735 -0.12488254 -0.39597967 -0.034120172
000040 5d b1 c4 be fe 7d 4d be ab 5c 8a 3b 2c d2 b2 be
       -0.38416567 -0.20067593 0.0042224727 -0.34925973
000050 32 5b b5 bc 8d 22 03 be 12 f5 22 be ad 94 7a be
       -0.022138212 -0.12806149 -0.159138 -0.24470778
000060 2b 4f 58 be 3a 60 ca bd 18 ec de bc cb c3 97 be
       -0.2112395 -0.09881635 -0.027212188 -0.29641566
000070 07 27 82 be a2 fe 75 be 26 31 87 be 86 e9 ce bd
       -0.254204 -0.24022916 -0.26404685 -0.10103135

model.layers.0.channel.2.weight f4 [74, 32]
000000 96 05 87 bd 9c 0d 85 be a9 56 44 3e f4 81 06 3e
       -0.06592862 -0.25986946 0.19173683 0.1313551
000010 89 4a 2c be 8c 84 59 3e 0f 40 26 3c 74 37 b5 be
       -0.16825308 0.21241969 0.010147109 -0.3539387
000020 bd bd 9c bd de ab bc bd 30 9f 0f 3d 6f 77 a9 3e
       -0.07653377 -0.092124686 0.035063922 0.33098933
000030 87 c4 06 3e 72 e9 69 3d 87 6d dd 3d 47 e4 53 3d
       0.13160907 0.057107396 0.10811906 0.051731374
000040 bc e5 a1 3e 4e 16 db 3b 89 97 29 3e 78 27 06 be
       0.31620586 0.0066860085 0.16561712 -0.13100994
000050 53 e3 67 3e 0c 76 13 be 5a 66 84 be e5 0b dc 3d
       0.22645311 -0.144005 -0.25859338 0.10744456
000060 eb 65 99 bc e6 84 d3 bc 37 7b ad bd c7 ca b9 be
       -0.018725356 -0.025820207 -0.08470767 -0.3628752
000070 7f 62 eb bd 8c 7e 28 3d f2 7c f6 3d 54 6d 2c be
       -0.11493396 0.04113631 0.1203555 -0.1683858
000080 60 53 95 3d 2c f8 7b be 28 4c 25 3e 6c f7 54 bc
       0.07291293 -0.24606389 0.16142333 -0.012998443
000090 95 e2 f1 3d ad b5 fd 3d 42 c9 99 3c cf d3 96 3d
       0.11810795 0.123881675 0.018772725 0.07364618
0000a0 c2 28 01 3e fe 2d 70 bc f9 e2 7d bd 5b d6 76 bd
       0.12613204 -0.014659403 -0.061984036 -0.06026302
0000b0 28 0c a0 3d 21 92 fd bd 7d d6 a2 3d 9b ad 85 3d
       0.078148186 -0.123813875 0.07951067 0.06527253
0000c0 ca 48 dd 3c 4e 3b 9b bd 4b 79 9b 3d 42 b7 fa bb
       0.027012248 -0.07579671 0.07591494 -0.0076512406
0000d0 1a 4f 2d bc 12 10 b9 bd e8 62 e3 bd 10 3f af be
       -0.010577941 -0.09036268 -0.11102849 -0.342278
0000e0 ae 80 03 3e a2 28 e8 bd b7 50 2a bb 25 95 a9 bd
       0.12842056 -0.11335875 -0.0025988051 -0.082804
0000f0 6a ce 51 3d 45 db c6 bc f6 2a 16 3e ba 0d 4d be
       0.051222242 -0.024274478 0.14664826 -0.20024768
000100 0b c7 92 3c 12 0b 15 be f9 75 28 3c ee 89 ec bd
       0.017917177 -0.14555004 0.010282033 -0.115497455
000110 d5 10 c6 3d c9 3a 04 be f5 ff 18 bc b1 2f d3 bc
       0.09671179 -0.1291305 -0.009338369 -0.025779577
000120 df c5 ea ba 74 61 20 be 2e 44 0d 3e d3 d1 e9 bd
       -0.0017911753 -0.15662175 0.1379554 -0.11416974
000130 25 26 de bd fb 90 fa 3c 8d 83 63 be d6 01 5e 3e
       -0.10847119 0.03058671 -0.22218151 0.21680388
000140 12 b5 4a bd bc e9 c8 bd c6 60 20 be 2e 04 6d 3e
       -0.04948909 -0.09810206 -0.15661916 0.23146126
000150 44 e8 fe 3e 8c 73 ca bd 51 eb b1 3d 82 04 3f 3e
       0.4978658 -0.0988532 0.08687461 0.18654063
000160 e7 14 d5 bd 38 01 0f be 4e 9d 0a 3d 8b 66 97 bd
       -0.104043774 -0.13965309 0.033841424 -0.073926054
000170 32 e5 87 3e 38 ed b6 3d f6 82 87 be 74 41 6e 3e
       0.2654205 0.08931965 -0.26467103 0.23267156
000180 b6 87 65 3d 94 b6 bc bc 2c a4 a3 bd e4 84 ac bc
       0.056037627 -0.023036279 -0.07990298 -0.021059461
000190 f2 c2 ad bd 7f 06 6e bd 2d e7 57 bd 3a 15 f6 bb
       -0.084844485 -0.058111664 -0.0527107 -0.0075098546
0001a0 47 2b 2c 3d 85 2c c1 3d d2 87 0b bb 25 fd cc bd
       0.04203346 0.094323196 -0.0021290672 -0.10009221
0001b0 19 a4 2c 3d 7f 3a 23 3d 3e 39 13 3d 9e c5 46 3a
       0.042148683 0.039850708 0.035943262 0.0007582548
0001c0 fd 5b 07 bc df b6 e9 bc e9 5c 25 bd 49 a8 3c 3d
       -0.008261678 -0.028529583 -0.04037181 0.046058927
0001d0 67 5c 95 3c f3 5d 54 bd 5e 90 60 3d b6 57 44 bc
       0.018232537 -0.05184741 0.05482518 -0.011983803
0001e0 d8 8a 0a 3d 1d 12 89 3c a6 a2 82 bc 5c 63 90 3d
       0.033823818 0.01673227 -0.015946697 0.07050201
0001f0 80 f9 52 3d 7b 7f bc bc 04 aa 9b bd 9b 9f 8e 3d
       0.051507473 -0.023010006 -0.07600787 0.06964036
000200 7e d7 35 3e 2f 26 3e 3d a2 79 19 3b e8 96 39 bc
       0.17757985 0.046423133 0.0023418446 -0.011327483
000210 a6 b9 89 be 1e e4 66 3e 03 09 8e 3d 05 62 54 be
       -0.2689945 0.22547957 0.069353126 -0.20740516
000220 b5 29 93 3e 29 1c 0e 3b 2c 63 38 bd 35 89 7b be
       0.28742757 0.0021684265 -0.045016453 -0.24564059
000230 94 54 64 be 56 20 55 3d 2a 4f 3d 3d f9 12 10 bb
       -0.22297889 0.05203279 0.046218075 -0.0021983965
000240 8b 0a 5a 3c 50 00 41 bd d8 f2 4c 3c a9 81 4d be
       0.013308178 -0.04711944 0.01250907 -0.20068993
000250 d0 fe 0e bd da 19 4e bd db 02 08 be ed e3 90 be
       -0.034910977 -0.050317623 -0.1328234 -0.28298894
000260 7a c2 82 3e 28 bd ff 3c 02 38 15 bd 98 4d 2d be
       0.25539 0.031218126 -0.036430366 -0.16924131
000270 53 ef e3 3d e5 50 a4 bd f1 55 56 bd c9 98 5c bd
       0.11129632 -0.08023242 -0.052328054 -0.053856645
000280 19 9f 7d be 74 64 7c bd cb 8a 26 be 6b 89 d5 3b
       -0.24767722 -0.061619237 -0.16263883 0.0065166256
000290 ff 43 90 bd b9 b8 93 be db 7b 7c bd fa 87 74 3d
       -0.07044219 -0.2885187 -0.061641555 0.05969999
0002a0 20 9f 49 be 8e 59 ee 3b e0 e7 83 3d 41 65 f5 3d
       -0.19689608 0.0072738593 0.06440711 0.11982203
0002b0 6f f4 56 bd 9e 56 6b 3c c6 ee db bd 41 2e 54 3d
       -0.052479204 0.014363913 -0.10738902 0.051801924
0002c0 a2 8f 3e be 0a 5d 66 be 7a b3 2c be 11 67 b0 3d
       -0.18609479 -0.22496429 -0.1686534 0.08613408
0002d0 b6 bc 07 bd 26 41 2c 3d f8 90 b4 3a 0d af 59 3e
       -0.033138953 0.042054318 0.0013776114 0.21258183
0002e0 78 aa 3d be 2a 63 30 bd a1 b5 bd 3d 88 cf e3 3e
       -0.1852206 -0.04306332 0.092631586 0.4449427
0002f0 b5 71 34 3d 8b d0 69 3e 99 a9 01 3e 56 3b d0 bd
       0.044053752 0.22833459 0.12662353 -0.101675674
000300 d4 ee 08 be 9d 5c 58 be 04 43 2e be c8 60 fe bd
       -0.13372356 -0.21129079 -0.17017752 -0.12420803
000310 1d ea ea 3d eb 0a 4d 3c f5 f7 24 3c 39 4d 10 3e
       0.11470435 0.01251481 0.010068883 0.14091958
000320 5c 97 a1 bd a4 7b 89 3d be 14 a7 3d 28 34 b8 3d
       -0.07890198 0.06713036 0.08158253 0.08994323
000330 0f f3 53 3d 58 c1 a7 3c 4d 40 8e 3e d3 60 0e bd
       0.05174547 0.020477936 0.27783433 -0.034760308
000340 25 d2 e2 3e 90 a2 c5 bd 48 e5 f1 3d ad 7b 3d 3e
       0.44300953 -0.09650147 0.1181131 0.1850421
000350 59 96 4b bc 68 77 2c 3e 79 06 7c bd 5e 02 47 be
       -0.012425982 0.16842425 -0.06152961 -0.19434497
000360 b1 d5 02 bd 69 0e 5f 3d 51 25 95 3e 26 bf ff bd
       -0.031942073 0.054457102 0.29130033 -0.124876305
000370 58 ed 89 be 7a 09 3f bc 57 a3 aa 3e 24 0f df bd
       -0.2693889 -0.011659974 0.33327743 -0.1089156
000380 0b 12 c0 bd ad e6 57 be 23 75 57 bd 7a 25 c3 bd
       -0.093784414 -0.2108409 -0.052601945 -0.095286325
000390 92 5f d6 3d 88 37 cd 3d 32 df c0 3d 1e 14 0a 3e
       0.10467447 0.10020357 0.09417571 0.13484237
0003a0 23 19 05 bd 36 7b 17 3e a2 12 26 3d ab cb 3f bc
       -0.032494675 0.14793095 0.040545113 -0.011706273
0003b0 34 c1 33 3e f4 af 2a be 1f 95 49 3e 9a 90 78 be
       0.1755417 -0.16668683 0.19685791 -0.24273911
0003c0 05 5a 94 3e b7 39 1f be bf ff cc 3d 74 e8 ff 3a
       0.2897493 -0.1554936 0.10009717 0.0019524232
0003d0 b2 c2 8b be 18 c7 97 3e fd 87 18 3b 86 a2 43 3c
       -0.27296978 0.29644084 0.0023274415 0.011940604
0003e0 c3 2f 81 3e 2c 5f cf 3d cd 66 e1 3d 69 f9 a1 3d
       0.25231752 0.101255745 0.11005936 0.07908899
0003f0 e5 b8 03 be f6 60 49 bc ec 56 f9 bc c5 67 81 be
       -0.128635 -0.012291184 -0.030436955 -0.25274482

model.layers.0.channel.2.bias f4 [74]
000000 29 63 15 bc 08 08 e5 3c 73 aa 03 bc b4 a6 59 3d
       -0.00911788 0.027957931 -0.008036244 0.053137496
000010 51 6f 05 3e 48 a9 11 bc 6c 58 2c be e6 e0 29 bd
       0.13030745 -0.008890457 -0.16830605 -0.041474245
000020 02 55 f6 bc 4a d5 78 bd f6 9d d9 bc 8d da 25 3e
       -0.030069832 -0.060750283 -0.02656458 0.16196652
000030 ab f6 8c 3d 02 48 44 3d 70 02 17 3e e3 c7 85 bd
       0.06882986 0.047920235 0.14747024 -0.06532266
000040 fc 9f 99 3c a9 18 86 3d e1 d0 cf bc 35 fa 43 3d
       0.018753044 0.06547672 -0.025368156 0.047846038
000050 9d ea c9 3d 06 60 ce 3c 0e 78 8a 3d 70 46 49 bc
       0.09859202 0.025192272 0.0676118 -0.01228486
000060 be d7 aa 3d a2 9d 1e 3c 13 74 20 3e dc f5 18 be
       0.08341931 0.009681137 0.15669279 -0.14937538
000070 43 10 a9 bd ed 61 59 3e 67 28 3d be 3d 61 f5 3d
       -0.08255055 0.21228762 -0.18472444 0.11981437
000080 5d 3b 98 bc 3f 7c 91 3d 9b e9 57 bd 25 05 3b 3d
       -0.018582994 0.07103776 -0.052713018 0.045659203
000090 24 20 5d 3e 91 d6 20 be ca 4e 1e be 66 0e 54 be
       0.21594292 -0.1570685 -0.15459743 -0.20708618
0000a0 46 51 11 3e 09 2b 71 be 85 e5 83 3c f9 70 b6 3d
       0.1419116 -0.23551573 0.016100654 0.089082666
0000b0 2c e6 12 3e 5a 9a 2b 3c c8 7f b2 bd 31 db b1 bc
       0.14345616 0.010473812 -0.087157786 -0.021710964
0000c0 b4 a2 50 be 54 08 3e 3c f3 7e d1 3c 2c 35 9f bd
       -0.20374566 0.011598665 0.02557323 -0.077738136
0000d0 f5 89 75 3e db 36 9e bd be c7 db 3d 24 18 9e bd
       0.23978408 -0.077253066 0.10731457 -0.07719448
0000e0 59 06 be 3c ae 05 07 bd 30 48 34 be 0b 03 88 3c
       0.023196386 -0.0329644 -0.17605662 0.016603014
0000f0 c9 36 5c 3c 3d fd 21 3e 19 d7 a6 3c 99 66 da 3d
       0.013440796 0.15819259 0.020366238 0.106641
000100 97 70 8b bd 9a 6a aa 3d 7b 3c 12 3d f8 a6 5f bd
       -0.06808584 0.08321114 0.03570221 -0.054602593
000110 e4 35 f7 bb a5 6b 32 3d c8 36 b6 bd 2e 35 76 bd
       -0.007544266 0.04355969 -0.088971674 -0.06010931
000120 ce bb b4 3d 04 91 e2 bc
       0.088248834 -0.02765704

model.layers.1.temporal.0.weight f4 [32, 64]
000000 30 fb c9 bd a8 db 3b be 0d f1 2e be 24 7e 2a be
       -0.09862363 -0.18345511 -0.17084141 -0.16649681
000010 50 12 d0 bd 81 45 78 3d 73 cb d6 3d fe ee f3 3d
       -0.10159743 0.06061316 0.104880236 0.119108185
000020 17 70 7c bd 1a 75 dd 3d 9d d5 07 3e 23 e3 b6 bc
       -0.061630335 0.10813351 0.13265081 -0.022325104
000030 76 61 3b be a9 21 8d be ad 53 17 be ab 10 54 be
       -0.18298897 -0.27564743 -0.14778014 -0.20709483
000040 f9 6a 52 bd 51 7f 36 3e a6 53 4d 3e 57 4b 85 3e
       -0.05137155 0.17822005 0.2005144 0.26034042
000050 34 f1 28 3e 0c e0 8b 3e 32 95 b2 bd 6c e3 1a 3e
       0.16498262 0.27319372 -0.08719863 0.15125817
000060 1a 41 8f bc 24 e3 56 3d 52 03 de bd 48 36 f1 bd
       -0.017487098 0.052462712 -0.10840477 -0.117779315
000070 49 e6 64 be 05 a1 90 3d 62 9c 3a bd 5d ee 46 3d
       -0.22353472 0.07061962 -0.045559295 0.048567165
000080 3e 2e 28 3c 0e f5 a4 3d 93 a6 b7 bd 3e 1f 4a bc
       0.010264931 0.08054553 -0.089673184 -0.01233655
000090 c4 8a 4e be 24 91 82 be e6 1c 29 be 38 a2 73 3c
       -0.20170122 -0.25501359 -0.1651493 0.014870219
0000a0 6a 95 c6 bd e8 1d b3 bb 9d 76 24 3e c3 fa 1e 3e
       -0.09696467 -0.0054662116 0.16060872 0.15525346
0000b0 2b a4 a8 3d 38 bd 0c 3b 3c 56 3c be d3 f8 8e bd
       0.082344376 0.0021475088 -0.18392271 -0.06981053
0000c0 a2 29 1a be 26 73 b8 be 35 6d da 3d c4 85 93 3c
       -0.15054944 -0.3602535 0.10665361 0.01800812
0000d0 90 eb 49 3d 3d a4 25 3e 4e 9e 3f bd d3 22 e9 3c
       0.049296916 0.16175933 -0.04678183 0.028458988
0000e0 53 b4 a6 3d 2d 6d b9 bc c0 ff 30 3d 8a e3 d8 bc
       0.08139863 -0.022635067 0.043212652 -0.026475687
0000f0 da e2 80 3c 69 5f 8a bc 7e a7 05 be 65 ac 23 3d
       0.015733171 -0.016891198 -0.13052174 0.03995933
000100 d4 a5 93 be e2 d2 68 bd 4b 86 c6 bd 52 dc c6 3d
       -0.28837454 -0.05684174 -0.09693583 0.097099915
000110 08 94 1a 3d a4 83 9e bc d8 5f 53 3e aa d0 92 bd
       0.03773883 -0.01934988 0.2064203 -0.07168706
000120 93 c5 50 bd 5d 26 68 3c 68 5f e1 3d 92 26 8c 3e
       -0.05096967 0.014169303 0.110045254 0.27373177
000130 57 5b 23 3e c9 6e 28 3e 38 36 3d 3e 8b df 3c be
       0.15952812 0.16448511 0.18477714 -0.1844465
000140 14 28 19 be c9 0c cd bd 76 8c 89 be c0 1d 2d be
       -0.14956695 -0.10012204 -0.26864976 -0.1690588
000150 64 17 a8 bd 50 d7 f8 bd 58 44 5f 3d aa e5 a5 bb
       -0.082075864 -0.121504426 0.054508537 -0.0050627785
000160 c0 cc 1d 3c 12 f3 3c 3e c9 67 83 bd 13 e9 5e 3d
       0.009631336 0.18452099 -0.0641628 0.054421496
000170 01 ac 2d 3d c1 a6 07 3e 85 a4 2c be fb 9a f5 bd
       0.042400364 0.13247205 -0.16859634 -0.11992451
000180 8c ee 25 bd d5 6f ca bd 9c c4 d1 bd 4f 68 e1 bd
       -0.0405107 -0.098846115 -0.102425784 -0.110062234
000190 84 b6 b6 3d f2 a5 6a be fb 78 0a 3d ab 49 30 be
       0.08921531 -0.22914866 0.033806782 -0.17215602
0001a0 ba b6 f0 bd 7c dc de 3d 8c 0a b6 3d dd 69 15 be
       -0.11753602 0.10881898 0.088887304 -0.14591165
0001b0 2b 7c b6 3c bf 44 2c 3e 1e 4a 5b 3d 51 75 3d 3e
       0.022276005 0.168231 0.05353748 0.18501784
0001c0 17 2c e8 bb 05 b4 c0 bd a1 02 0e 3e 8a 10 d6 3a
       -0.007085334 -0.09409336 0.1386819 0.0016331833
0001d0 64 9d d7 bd 86 50 1b bd a5 cc 65 bd c1 77 7e bd
       -0.10528067 -0.03791859 -0.056103367 -0.062125925
0001e0 6d 7a 81 3d e4 7e 0a be fc a9 91 3d 1d bb c3 bd
       0.06322179 -0.13524967 0.071125 -0.095571734
0001f0 0e 06 b7 3d 8d 08 24 3c e0 3e 47 bd 4b 47 63 3d
       0.08936702 0.010011804 -0.048643947 0.055487912
000200 27 76 96 3d 7a 28 96 bc 2e ef 8e 3d aa e6 52 be
       0.073467545 -0.018329848 0.06979214 -0.20595804
000210 cf ee 03 bd a8 35 b7 bd 62 52 d8 bc c2 44 37 be
       -0.032210167 -0.08945781 -0.02640647 -0.17897323
000220 cb d1 c8 bd 67 4f 27 be 8d 8f d1 bd 94 b4 fd 3b
       -0.0980564 -0.16338883 -0.10232458 0.007742474
000230 e5 14 aa bd 47 40 81 3e 45 b6 bb bd 8e 2a ea 3c
       -0.083047666 0.25244352 -0.091656245 0.028584745
000240 62 f6 e4 bc d9 a2 bc bd 99 79 1c be 47 92 e1 bd
       -0.027949516 -0.09210748 -0.15280761 -0.11014228
000250 e1 30 16 be 17 93 1c bd 81 bb a5 be 51 b9 78 be
       -0.14667083 -0.038226213 -0.32369617 -0.24289443
000260 7d 96 be be c7 7a b2 3d 55 0a cd bd ff e4 05 bd
       -0.37224188 0.08714824 -0.10011736 -0.03268909
000270 c3 e3 0a 3d d6 0b 1e 3d cc 34 ac bc ba 57 d5 bc
       0.033908617 0.038585506 -0.02102127 -0.026042808
000280 ce 8d 8d bd 67 a6 82 bd be 0f 7e bb 15 d4 44 bc
       -0.06911813 -0.06379395 -0.0038766707 -0.012013455
000290 50 1f 64 3d f6 5f 7e be 40 36 13 bd 52 28 ad bd
       0.055693924 -0.24841294 -0.03594041 -0.08454956
0002a0 a1 42 7c 3d e8 37 1c 3e 2c d5 dc bd 91 83 94 3c
       0.06158698 0.15255702 -0.10782847 0.018129142
0002b0 c8 67 9b bc c4 ab f4 3d f9 b1 f2 bd e9 15 13 3e
       -0.018970385 0.11946824 -0.11850352 0.14363827
0002c0 ef 96 9b 3c d7 f4 3f 3d d9 34 46 3d b0 73 39 3e
       0.01899287 0.046864357 0.048390243 0.18110538
0002d0 d6 82 54 3d 86 ce cc 3d 64 da 01 3d 40 f5 eb bd
       0.051882587 0.10000329 0.031702414 -0.11521387
0002e0 0b 60 f5 3d 2c 2b bf 3c e8 d7 89 3e 29 b4 92 3d
       0.11981209 0.023336016 0.26922536 0.07163269
0002f0 76 78 2b 3e 17 d6 5d 3e a0 36 87 3e af 25 88 3e
       0.16745171 0.216637 0.26408863 0.2659125
000300 40 f0 56 be d5 7b c1 bd 95 aa 47 bd 3f e4 f8 bd
       -0.20990086 -0.09447447 -0.048746664 -0.121529095
000310 4f 49 9f bd 1d ee 16 be ff 3f 9e 3b 11 68 82 3d
       -0.077776544 -0.1473927 0.0048294063 0.06367505
000320 4d 8c 9b 3d a1 b2 f8 3d f7 2b 1b 3e ee 5c 3f bc
       0.075951196 0.12143446 0.1515349 -0.011679871
000330 46 b7 09 bd bf 5a 22 3d 76 46 08 3b 06 bf 38 3d
       -0.03362205 0.039637323 0.002079395 0.04510405
000340 48 17 dd 3c 21 3d e0 ba 32 66 9f 3d 77 33 38 3b
       0.02698864 -0.0017108062 0.07783164 0.0028106847
000350 95 94 48 3d 2b 97 15 3e 51 a3 8a bd 58 e8 60 bd
       0.048969824 0.14608447 -0.067694314 -0.05490908
000360 20 c9 d0 bd e0 fa 59 3e 79 83 9a 3d d1 cf 4e 3d
       -0.101946115 0.21287107 0.07544608 0.050491158
000370 5e b6 6f 3d b6 cc 40 3b 4e f0 46 bd fc 8f 11 bd
       0.05852353 0.0029418892 -0.048569016 -0.035537705
000380 81 03 9d bc 0d 0b 0c bd a2 48 7c bb e2 f0 09 bc
       -0.01916671 -0.034190226 -0.003849544 -0.008419247
000390 e0 3e 0e bb da 5d 22 be a9 79 3c 3d 96 97 8c bd
       -0.0021704957 -0.15856114 0.04601446 -0.0686485
0003a0 54 c1 62 be d7 6e 6b bd b8 ae 57 be 25 2c 90 be
       -0.22144061 -0.057478752 -0.21062744 -0.2815868
0003b0 5e 65 61 be 29 05 a4 be 3d bb 9f be 88 cd 59 be
       -0.22011325 -0.32035187 -0.3119754 -0.2126981
0003c0 74 01 4c be a3 77 0c be 51 21 60 bd 00 9c bb 3d
       -0.1992243 -0.13717513 -0.054719273 0.09160614
0003d0 59 83 c6 3c 53 01 37 be 92 3a cd 3d b9 92 d9 3d
       0.024232553 -0.17871599 0.10020937 0.10623688
0003e0 a3 65 37 3e 1a 8e f4 3d 32 65 3d 3d f4 ab c0 3b
       0.17909865 0.11941166 0.046239085 0.0058798734
0003f0 bf 16 18 3e c8 92 0e 3e 4d b3 5a 3d 19 d6 fd 3e
       0.14852427 0.1392318 0.05339365 0.49577406
