experiments/Exp4/saved_models/tsmixer_challenger_pretrained_0.pt (torch, 730860 bytes, 30 tensors)

model.static_proj.weight f4 [64, 10]
00000000: ae48 a63d 1058 d83c 8fc9 8ebd 31f9 6c3d
00000010: 7d6b 79bd 40c1 4d3e e5da 33be b7f1 653e
00000020: 1f5f 143e a82d 7abe aad3 113d 608b 863c
00000030: dcaf 343e 9078 613d fa9a 2f3e 209c 1cbc
00000040: 7bbf 113e 7139 913c d0d6 adbd 928b 633c
00000050: f698 1ebd bbe8 423d 073e 13be 412f 66bd
00000060: a715 2abe dfa1 e5bd ae35 113e 3075 85bd
00000070: 1567 bf3c 54b7 49be 67f8 d03d c42e 9bbd
00000080: f8fe 513d 3b5b 09bd dac5 03be f2ba c23d
00000090: 80d2 87bd 8735 403e c39d 62bc 0c87 efbd
000000a0: 794b d13d aea5 67bd 7a72 c23d 8c76 783e
000000b0: 4659 a23e 772a 12be 43f3 8f3d 1c93 2f3e
000000c0: 2c06 343e 8552 21be 482c bcbd 0311 d13c
000000d0: b586 b6bd 063d 323e e543 f83d bb87 15bd
000000e0: 4507 8a3d b030 143d 7b63 173e 32c4 47be
000000f0: 433f a9bc b3ae 8abd e90e 35bc 636c 95bd
00000100: d6d1 6a3e 0bef 09be 1c19 373e cc1c fbbd
00000110: 14f6 34bd 135c 6cbe 6815 403e 8822 853d
00000120: d920 763d eecc 58be 220d 06be a91b 6ebe
00000130: 0a6f 2dbe b557 4b3e d93a 0e3e bef7 633e
00000140: 8036 c3bc bb7b fabd 228f 843d 9689 e1bd
00000150: 1f33 9dbd 0214 b3bd 6076 ed3d e90d 37be
00000160: 577e a1bd f7c2 d83d 3a95 9d3d 6339 3bbb
00000170: bc38 d23c f26f d93d bdfc 1ebe def9 34be
00000180: faf3 8c3e 5b35 52be 7df4 8ebc 5c95 e9bd
00000190: b094 28bd e299 823d f168 f1bd 8654 54be
000001a0: e160 17bc dfc9 32be 5896 17be 5121 0ebd
000001b0: 1556 ecbd c87b 20bd 9dfc 813d 3221 cb3b
000001c0: 01fb b1bd 81c7 6bbe 1822 b4be 58aa 13be
000001d0: d443 8d3d 1a18 85be 1407 18be 8154 8ebc
000001e0: 4b0d afbc ad88 17bd 3967 b43d 0495 17be
000001f0: 6890 8fbd f26e 71bc 8272 b03b 7d10 07bd
00000200: 0a06 ae3d 4577 8abc b63e 3b3e 345d d43d
00000210: 1529 b0be 5fca 163e 10f2 b3bd 3c25 31bd
00000220: 42e7 8d3a b47d f8bd 7212 a7bd d170 82bd
00000230: 26d3 0f3d bce7 d6bd 76b0 523e 5854 75be
00000240: 763a 4abd 90e8 b43d 960d 95bd 86fd 2c3e
00000250: f6a5 503e f2fe f3bd e34c 293e 06c8 4d3d
00000260: 43b2 2d3b a6d6 01be bc40 d83e a946 dbbe
00000270: 23d9 f33c 5186 b5bd f4e2 243e cb37 62be
00000280: 59b5 c63d d1f9 b23b da24 a33c 63cf e9bd
00000290: be25 003e c52f 413d 1c12 4abe 7599 df3d
000002a0: dab9 383d 79c4 0bbe 9db7 ddbd 5377 37bd
000002b0: 8ec9 303e 5026 6cbe 333a 90bd 10cc 6b3c
000002c0: 4064 25be ac58 dd3d b845 1e3e 1974 17be
000002d0: bbae 37bd 8baf 853d f06e 633d aed0 4b3c
000002e0: 92cf 113e 7e2d 4b3c 8bb8 c13d 0acf 9cbb
000002f0: cee9 533d 39c6 81bd 66c5 483d d5fa dd38
00000300: e4f0 a03e 82af a43d 30c9 333d 14c8 613d
00000310: 04ea 813c 7e3d 023d 8975 403e 8122 1e3d
00000320: c6dd 12be 559f 2bbd 2760 ab3e cf74 b8bd
00000330: 027f 3a3d 2804 5dbd b54a 8bbb f991 eebd
00000340: 3cd9 73bd 7ab3 253e d0ab c13d f16f 6e3d
00000350: ab72 a1be 2e90 39bd 7957 4abe ef7f 543e
00000360: 000e 79bd b2df 7d3d b3ba 8d3d b18f 62be
00000370: 890b cabb 7701 b53d f8fc 7ebe ebf4 8e3d
00000380: a506 a3be e991 4e3e f05f 283e dfe4 aa3c
00000390: da81 34be 627e 45be 1ec9 67bd 7bdf b53d
000003a0: fae8 6b3e 9bd8 d43d 6dbc cf3e e72c 73bd
000003b0: 05df 5f3d 54f0 1cbe 8993 00be bd2f 0fbe
000003c0: 447d b5bb e84e ccbd ceab 8fbd 27f4 ef3b
000003d0: b611 21bc a3e9 08be 0d39 c8bd 9f3b 5c3d
000003e0: 9d96 ddbd 47a0 8d3e 295e b0bd d12b 333a
000003f0: d356 aabd 6e13 e5bd 6571 d5bd 931b 10be
0.08119331 0.026409179 -0.06972038 0.057854835 -0.060893524 0.2009325 -0.1756397 0.22455488
0.14489411 -0.24431479 0.03560225 0.016423881 0.1764521 0.055046618 0.17148963 -0.0095587075
0.142332 0.017727586 -0.08488238 0.013888257 -0.038720094 0.04758523 -0.1437913 -0.05619741
-0.16609822 -0.11212515 0.14180633 -0.06516492 0.023364583 -0.1969884 0.10203629 -0.07577279
0.051268548 -0.03353427 -0.12868443 0.09508313 -0.066319466 0.18770419 -0.013831559 -0.1169568
0.102194734 -0.05655449 0.09494491 0.24263972 0.31708735 -0.14274012 0.0702882 0.17145962
0.1758048 -0.15754135 -0.091881335 0.025520807 -0.08912412 0.17406091 0.12122325 -0.036506396
0.06739668 0.036179245 0.14784043 -0.19508436 -0.020660048 -0.067716025 -0.011050918 -0.07296064
0.22931609 -0.13470094 0.17880672 -0.12261352 -0.04417999 -0.23081999 0.18758166 0.06500727
0.06008992 -0.21171924 -0.13090947 -0.23252739 -0.1693689 0.19857676 0.13889636 0.22262475
-0.023829699 -0.12230631 0.06472613 -0.110125706 -0.07675766 -0.087440506 0.11594844 -0.178764
-0.078854255 0.105840616 0.07694478 -0.002856814 0.025661819 0.10617055 -0.155261 -0.17673442
0.2752989 -0.20528166 -0.017450565 -0.11405441 -0.041157424 0.06377007 -0.11787594 -0.20735368
-0.009239406 -0.1745982 -0.14803445 -0.03469974 -0.11539856 -0.039180547 0.0634701 0.0061990255
-0.08690453 -0.23025323 -0.3518226 -0.1442045 0.06897703 -0.2599495 -0.1484645 -0.017374279
-0.021368643 -0.03699558 0.08808751 -0.14802939 -0.07009965 -0.014735924 0.005384744 -0.03297471
0.084972456 -0.016902575 0.18285641 0.103693396 -0.34406343 0.14725636 -0.08786404 -0.0432484
0.0010826366 -0.12133351 -0.08157815 -0.06369174 0.035113476 -0.104934186 0.20575127 -0.23957956
-0.04937216 0.0883342 -0.07277982 0.16893587 0.20375809 -0.11913861 0.16533236 0.050239585
0.0026503957 -0.12679538 0.42236888 -0.42827347 0.029766625 -0.088635094 0.16102201 -0.22091596
0.09702558 0.0054619093 0.019915033 -0.11416509 0.12514398 0.047164697 -0.1973347 0.109179415
0.045099117 -0.13649167 -0.10826037 -0.04479153 0.17264387 -0.2306149 -0.070423506 0.014391914
-0.16151524 0.108079284 0.15456283 -0.14790381 -0.04484437 0.06527623 0.05552572 0.01243989
0.14239338 0.012400983 0.09459027 -0.004785423 0.051736645 -0.06336636 0.04901638 0.00010584822
0.31433785 0.08041288 0.04389304 0.05512245 0.015858658 0.031796925 0.18794836 0.038607124
-0.14342412 -0.041899998 0.33471796 -0.090066545 0.04553128 -0.05395904 -0.004250849 -0.11648936
-0.059533343 0.16181746 0.09456599 0.058212224 -0.31532797 -0.045303516 -0.1975993 0.20751928
-0.060804367 0.06198091 0.06920376 -0.22125126 -0.006165926 0.0883817 -0.24901187 0.06980308
-0.31841007 0.20172848 0.16442847 0.020861087 -0.1762766 -0.19286492 -0.056588285 0.08880516
0.23038092 0.10392877 0.40573445 -0.059368994 0.054656047 -0.15326053 -0.1255628 -0.13983054
-0.0055386145 -0.09975988 -0.07015191 0.0073228064 -0.009830883 -0.13370375 -0.097765066 0.053767797
-0.10819743 0.27661344 -0.086117096 0.0006834837 -0.08317342 -0.111853465 -0.10422019 -0.14073019

model.static_proj.bias f4 [64]
00000000: 20ea 303d f5ea 5dbe 8833 3c3e 0571 db3d
00000010: 8610 9cbe 0103 ebbd 0431 2bbd 0967 17be
00000020: b87f 8cbd ddad 9ebd aa9a f53d fb31 84bc
00000030: 003a 533d 6828 343c f35a 47bb 9f6d 783d
00000040: 7ef6 8a3d 1b07 fdbd 9e62 35bd 3eca e43d
00000050: 1bce 0abe 8694 2b3a 4472 93be 87d8 423e
00000060: 9bd5 9d3d 08c7 f73b b10e 193e c0d2 873a
00000070: fd30 3c3d 48bb 21bd 9d1c edbc 37ac 643e
00000080: c627 583e 6b96 053e ca88 d4bc 964f f63c
00000090: ceb6 b73a 0aed 3cbd 8691 6bbe 4a92 393c
000000a0: 6c50 df3d 7dbf c4bd e3e5 25bd e3dc 9bbc
000000b0: ae1d f8bd 7f79 123e 1544 06be d237 1fbd
000000c0: 1a29 75be db66 373d f539 c13d 88e9 063e
000000d0: 4095 503c efd1 593e fc2f 473d 90cc ff3d
000000e0: be70 863d 289c 393e 50e3 19be f394 613e
000000f0: 1fc9 313d 7bc8 85bc 91c1 0fbd 6a64 cabd
0.04319203 -0.2167166 0.18379033 0.10714916 -0.30481356 -0.11475182 -0.04179479 -0.14785399
-0.06860298 -0.077480055 0.119923905 -0.016137114 0.051568985 0.010995962 -0.00304192 0.060651418
0.06785296 -0.12354871 -0.0442835 0.11171387 -0.13555185 0.0006545264 -0.28798115 0.19027911
0.07706758 0.007561568 0.1494701 0.0010362491 0.045945156 -0.039485246 -0.028944308 0.2233132
0.21108922 0.13045661 -0.025944132 0.030067246 0.0014016272 -0.046124496 -0.23004732 0.011326382
0.10904011 -0.09606836 -0.04050244 -0.019026225 -0.12115036 0.1430416 -0.13111909 -0.038871594
-0.2394146 0.044775825 0.094348826 0.13175023 0.0127308965 0.2127149 0.048629746 0.12490189
0.065644726 0.18125975 -0.15028119 0.22029476 0.043404695 -0.016330948 -0.03509671 -0.09882434

model.layers.0.temporal.0.weight f4 [32, 64]
00000000: 4169 9f3d f1f3 b1bd fffa a43d 58f4 533e
00000010: 7c35 783d 6bf1 303d 9b3c f93d b20f 6b3d
00000020: aa69 12bd 8de5 9abd af80 b3bd 8f04 b2bd
00000030: a8b5 1abe c869 45bd 9a60 07be b6e0 afbd
00000040: 26a3 de3a ceea 1637 5d2a 7a3d 4793 303e
00000050: 631b 6c3d 6129 f23c 14ca 40be fa56 70be
00000060: ed93 0dbe 2a39 adbd 3c90 033c b4f2 d2bd
00000070: a8a5 fabb 1225 873d 90cc bf3d cadd ba3d
00000080: d216 16be dc22 c5bd cd8c 913c 3eb6 013e
00000090: 7702 953d d018 2a3e 920b 583e 2c46 913e
000000a0: 5494 f23c 54af 52bd 3329 623c f7ad 92be
000000b0: 621d 4dbe 2d80 703d 22ec d03b f8e0 a8bc
000000c0: 2dca 00bc 6b05 8ebd 1da8 06be d3b8 e9bd
000000d0: f5fc 7a3d 3838 f53d 1ba8 053e ac08 cb3d
000000e0: 38d0 98bd 8423 f1bd 31ce cf3d 5284 5d3e
000000f0: 8df2 243e 3c74 f73d 315c 403e 4805 0bbf
00000100: 5b6d f43c 2423 103e 608c 193e c1af 4d3e
00000110: 0ebb 483d 9762 d8bd 5334 bcbd 2c4f fbbd
00000120: 93ed 7cbe dcd4 a9bd cdd4 47bc 022b af3d
00000130: dafc e23d d58b 7c3e fcc8 313e 1cb6 233e
00000140: bb99 68bd 9ca4 7ebd f2ce b5bd 71c2 e6bd
00000150: f49c 22bb f839 a83d f5c7 99bc 331e b9bc
00000160: 6edf 4cbd 92c8 19bd f3aa c7bd df8c 2ebe
00000170: 25bf 17bb 278b 26be e0c2 803d 7d88 9a3d
00000180: 67e0 693c 4fcb 1d3d 1076 aabd 5264 023d
00000190: bef9 1e3c 69bf d5bc fee0 a0bc c246 383d
000001a0: 413e b7bd c260 96bd 4353 10bd 299d eabc
000001b0: 2401 46bd 6525 8abc 932c 843c e051 923d
000001c0: f0d9 203e 66f5 f13d 384c c03d 064c 803e
000001d0: 404c 303e b758 053e 248e a4bd 5bfa 8dbd
000001e0: 59f5 a9bd 7d05 87bd fced a93c e088 323d
000001f0: 6a09 513e 9dc1 0a3e a672 083e 726e 31be
00000200: f919 1abe 5bcd 64bd 9286 e2bd 7a16 92bd
00000210: 69f8 03be 5a82 81bd cce4 3bbe b782 60bd
00000220: 5042 85bd 70ee 6fbe 56af a1bd e1ea 013d
00000230: 50ea 1abc 758d 4abd 8432 4cbc 57e9 1c3d
00000240: e2b9 d93d 7d11 203d 8d19 ed3d 6cce 053d
00000250: 3f6f 813d 557d a5bc 8b7a 123d 443a 443e
00000260: af4e 4f3e 059b ae3d ce67 f73d e857 403d
00000270: 2a29 14bd c36c e73c 041d 113e 542b 663c
00000280: e02e 9d3c 2e18 b23d eebb 553d a8b0 e2bd
00000290: 75b9 1abc 0ac3 34be ddbd 01be 1ac9 b93c
000002a0: f37c 32be b912 48be 7b54 4ebe 3bf4 37be
000002b0: 3def c3bc 02ac 54be 9186 273d d8af 6d3d
000002c0: 4ef5 ca3d 9a71 e13d 4b1a 173d c8ec 473e
000002d0: dd90 da3d b6a8 33bc fc79 073e a865 68bb
000002e0: e4fe a03d d96a 653d a1e7 da3d 97d5 f03c
000002f0: d34e 4d3d 0f4b 353d 0f04 603e 6ce4 d23d
00000300: f250 a3bd 2f1e 93bd 880d 873d e824 e23d
00000310: 6aee 013e a659 343e d389 7f3e 1d28 3b3e
00000320: 2f98 8c3d 02ad 40bc 53cd 43be a1ac f8bd
00000330: a1e9 efbd 27c7 0dbe 2b1e a5bc c495 ca3d
00000340: 8ec7 e13c 8135 6c3d 8349 1d3c 6c05 8f3c
00000350: 1df1 ed3d f723 ed3d 6d8d 6b3c cfc0 e63d
00000360: 00de 743d 6ef9 253e 7ff0 3bbd ecca 423d
00000370: 1269 a23d 47cb 2abe 177d 1ebe a6e0 f03c
00000380: 5b93 68bd eea7 c53d aef3 ee3d 7fd1 81bd
00000390: 5b28 94bd 8388 74be 367f fdbc bf86 42bd
000003a0: d68a a43d aa6b 203d 2b84 ce3d 64db e2bd
000003b0: ceb0 a1be 2edb d6bd c64d cabd 665c a83a
000003c0: ce08 57bb 67b1 82bc 208c 32bd 4c34 86be
000003d0: a67f 07be 785d debd 92f5 9bbd bf43 debd
000003e0: 14b8 993d ecbd a2b9 b359 aa3d 650c 39bd
000003f0: 5548 063e f1cb a23d eb6d 81bd 8677 68be
0.077837475 -0.08689106 0.08055686 0.20698678 0.06059788 0.043198984 0.12169763 0.057388015
-0.0357453 -0.075633146 -0.08764779 -0.08692276 -0.15108359 -0.048196584 -0.13220444 -0.08587782
0.0016985878 8.995366e-06 0.061075557 0.17243682 0.057643306 0.029560747 -0.18827087 -0.23470679
-0.1382596 -0.08458169 0.008029994 -0.10300198 -0.0076491423 0.065988675 0.09365189 0.09124334
-0.14657143 -0.096257895 0.017767334 0.12667176 0.07275861 0.16611028 0.21098164 0.2837385
0.029611744 -0.051436737 0.013803768 -0.2864835 -0.2003074 0.058715988 0.0063758055 -0.020615086
-0.007860702 -0.06934627 -0.13150068 -0.114122055 0.061276395 0.119736135 0.13052408 0.099137634
-0.074615896 -0.11774352 0.1014675 0.21632507 0.16108151 0.12082717 0.18785168 -0.54304934
0.029837301 0.14075905 0.14994955 0.20086576 0.049006514 -0.105656795 -0.091896676 -0.1227096
-0.24700002 -0.08292553 -0.012196732 0.08553125 0.11083384 0.24662717 0.17361826 0.15987438
-0.056787234 -0.062168702 -0.08877362 -0.112675555 -0.002481279 0.08214182 -0.018772105 -0.022597408
-0.050017767 -0.037544794 -0.09749403 -0.17045926 -0.0023154703 -0.1626402 0.062871695 0.07545564
0.014274693 0.03852397 -0.083233 0.031833954 0.009703098 -0.026092248 -0.019638535 0.044989355
-0.08947421 -0.07342674 -0.035235655 -0.028639393 -0.04834093 -0.016863534 0.016134536 0.07144523
0.15708137 0.11814384 0.093895376 0.25058 0.17216587 0.13022123 -0.08034924 -0.06932517
-0.082987495 -0.06592844 0.020743363 0.043587565 0.20413747 0.1355042 0.13324985 -0.17327288
-0.1504897 -0.055859905 -0.110608235 -0.07133193 -0.1288773 -0.06323691 -0.18348998 -0.05481216
-0.06506789 -0.234308 -0.07894771 0.03171814 -0.0094552785 -0.04945131 -0.012463216 0.038308468
0.106311575 0.039079178 0.11577139 0.032667562 0.06320047 -0.020201365 0.035761397 0.19162852
0.20244859 0.085256614 0.12080346 0.046958834 -0.03617207 0.028250104 0.14171225 0.014048416
0.01918739 0.08696018 0.052181177 -0.11068851 -0.00944363 -0.17652526 -0.12670083 0.0226789
-0.17430477 -0.19538392 -0.20149414 -0.1796426 -0.023917789 -0.20768741 0.040899817 0.058029026
0.099100694 0.11007996 0.03689031 0.19523919 0.10672162 -0.010965517 0.13230127 -0.0035460982
0.078611165 0.0560101 0.10688711 0.029398723 0.050124 0.044261035 0.21876548 0.10297474
-0.079744235 -0.071834914 0.06594378 0.110421956 0.12688604 0.17612323 0.2495492 0.18277021
0.06864964 -0.011759998 -0.19121294 -0.12142301 -0.11714483 -0.13845502 -0.020155987 0.09891847
0.027560975 0.057668213 0.009600046 0.01745864 0.11618254 0.115791254 0.01437698 0.11267244
0.05978203 0.16208431 -0.04588365 0.047556803 0.07930197 -0.16679107 -0.15477405 0.029403996
-0.056781154 0.09651171 0.11667572 -0.06338786 -0.0723426 -0.238802 -0.030944448 -0.047491785
0.08034293 0.039165176 0.10083803 -0.11077002 -0.31580204 -0.10491024 -0.09878115 0.001284492
-0.0032811644 -0.015953733 -0.043590665 -0.26211774 -0.13232288 -0.108576715 -0.07615198 -0.10852765
0.07505813 -0.0003104055 0.0831789 -0.045177836 0.1311353 0.07949055 -0.06319793 -0.22701845

model.layers.0.temporal.0.bias f4 [32]
00000000: 38e2 143d 795e 2cbd 2fc1 c5bd 348c 22be
00000010: 932b b13d 984f a8bd 95ee 8d3c 9be3 36bd
00000020: d9e6 01bf b825 ca3d 52fe 66be 6523 583d
00000030: f991 c9bd 5f60 96bc af56 123d 4fb7 3bbe
00000040: dc6b 7ebd 438f 0fbf 3e62 dbbe 0492 363c
00000050: d796 b4be 0f53 c9be 2ab3 a7be bf92 f83c
00000060: be9a 89be faec 91be 3c76 73be 2d6c 06bf
00000070: 9ab0 f3bc 2077 a4be c5b8 373d 3284 ffbc
0.03634855 -0.042082284 -0.096559875 -0.15873796 0.08650889 -0.08218306 0.017325679 -0.044650655
-0.5074287 0.098704755 -0.22557953 0.05276813 -0.09842295 -0.0183565 0.0357272 -0.18331645
-0.06211458 -0.56077975 -0.4284839 0.011143211 -0.35271332 -0.3932118 -0.3275388 0.030343411
-0.2687587 -0.2850111 -0.23775572 -0.52508813 -0.029747296 -0.32122135 0.044853944 -0.031190965

model.layers.0.temporal.2.weight f4 [64, 32]
00000000: a2cd 693d 5dcb 043c 963b 9f3c 5f06 4a3d
00000010: c925 fabc a21f 8dbc 252a c4bd b9ec d7bc
00000020: ddb8 633d 8fed dfbc d176 0ebd 24b5 d03d
00000030: bed7 12bd 1040 963d de85 343e a1ba cabd
00000040: 19fa e53d 2e6e 373e e70d 4f3d 8323 54bd
00000050: e140 9b3d 2630 2a3d a309 47bd d49c 8dbd
00000060: 7da7 cf3d 03a2 bcbd 726e fd3d 9cbd 62be
00000070: 7abb 47be e128 6cbd a7d8 2bbe 1af6 2d3c
00000080: 20a9 58bd c485 f73c 4c7a 4ebd c274 393e
00000090: ed1c 453d ab13 bcbd 3a6a 053d 279b 733d
000000a0: 4bd1 88bd 5916 c43d f10f fe3d a89f 06be
000000b0: aa60 c73d 65b6 0abe be08 f9bd d743 d8bd
000000c0: c3c9 74bd 138d e9bb 690f 95bc b3aa f2bd
000000d0: 1f82 513d 1bef f5bd 0225 7bbe f6e3 433d
000000e0: 855c c63d 18e5 0ebc d857 463e 90be 3f3d
000000f0: 3890 523e 86e3 81be 6187 be3d 78f9 743d
00000100: a0ac 023e cd64 9f3e c5cf 53bd a262 093e
00000110: 033d 2ebe c604 4bbd ecb9 2ebd 3ba6 cebd
00000120: 7071 79be f193 2fbe e39b 53bd a1ae 413e
00000130: 1a18 3c3d 6bd4 9fbd 6d0e 0a3e 39f8 2cbd
00000140: 44d6 3fbe 5058 483c 45ff 283e 00cd cfbd
00000150: 96a3 803c 9a90 0bbe 9a6b 123e b66e 293d
00000160: 3a85 b43d 48e9 23be 534d 1c3d bb99 ec3d
00000170: 83c5 19be 914d 1ebe 6c2a 0bbe 9cf9 423e
00000180: 45e9 36be 25c8 6c3c 1cdb febd ebed 16be
00000190: ae7e 1abe b6b4 6b3e 79c8 423e c223 51be
000001a0: d26e a0bd b93a b0bd 8eee 30bd e0c9 60bd
000001b0: 0271 58bc afed 693e 05b9 d23c 237f bdbd
000001c0: 3be2 f63d 035b 053c 3d0a cfbc 4982 af3d
000001d0: 77f4 d33d 5270 c43c 5c2d 9dbe 3c11 bf3d
000001e0: c6a7 453c dd0f 6d3d d344 0fbe 48f9 88bc
000001f0: 1883 143e 0e08 4e3e 72cb 333c 7f77 753d
00000200: 0194 453d 177b 78bd 445d b4bd 4658 b63e
00000210: 9814 13be 574b 653e 9b1e d63b a252 48bd
00000220: b9bd f5bc eefc 063e af80 2d3d 7c6b 913d
00000230: 3ddd abbd 8622 e3bd e8b5 1cbe b9fa 55bd
00000240: 755b 123e 3ba7 af3e 4f8e 9abe 58a2 6dbe
00000250: 32fa 6f3e b957 203e a2a1 1d3d 7271 e9bd
00000260: 4dfe 743e 65c4 dbbd 7ea0 e23d e3c1 94be
00000270: 7f22 b7be c84c 0dbe e143 82be 270b 7d3d
00000280: 12fc b53e 02c3 12bd 7067 eebd 76a0 5f3d
00000290: 9ca7 c1bd 8fa9 f73d 03a1 ab3c de3d 5dbe
000002a0: e7e0 413e 19d1 0fbe c12f 51be cb7d a53d
000002b0: 4547 8b3d 5ae7 1bbe e662 88bd 5abe 62bc
000002c0: 92b3 dfbc 611e 92bd 6398 d83e df2e c33d
000002d0: d639 8d3d b281 7dbd a530 be3c d489 1fbe
000002e0: 6a08 a3bd 3666 6f3b 5f42 063e 7417 a23e
000002f0: 6084 6bbd b882 9a3c 71d1 22bd c74c 943d
00000300: 3dd0 e9bd faee 55be a6cb 863e 0ecf 6e3d
00000310: 5efa b53d 4781 1bbe a66a 25bd 3e90 7e3e
00000320: 877b 2abe c3ad 9d3c cfee 1a3e 4504 9bbd
00000330: 3e81 a33d bcd6 0cbe cef8 81be 21f7 ce3d
00000340: 1545 3f3d 01ef 5dbd 949a 4dbd 71de d4bb
00000350: 9e25 863d 20f9 d3bb f94c 11be 9752 3dbd
00000360: e31d f43d 32c3 163d 1d7d 3a3e 9c9c 8fbe
00000370: f357 d8bd afa7 21bd 4875 d73d bbf7 3d3a
00000380: fad2 0abe b6c0 94be 3405 21be f8f7 4b3e
00000390: 7d0e 46be a042 983d 0911 903c 7fd2 10be
000003a0: 7013 acbd 13bc 8f3e cd0c 343e e08a ce3c
000003b0: 0a79 b63d 6fc3 0e3e cb55 4f3d a455 303d
000003c0: f3d2 26be 22c4 c13d b5fb 11bd aa79 5cbd
000003d0: 4125 373e 961a 16be 10a8 843e d9fd 0ebe
000003e0: 10d8 613e 45be 06be 30ee 9f3c 6a06 bf3c
000003f0: c9ff 89bd 2253 1fbe 356a 63be f2a7 c6bd
0.057080872 0.008105126 0.019437592 0.049322482 -0.030535595 -0.017226998 -0.09578351 -0.026357995
0.05559622 -0.027334956 -0.03478128 0.101908 -0.03585028 0.07336438 0.17629191 -0.09898878
0.11229343 0.17913124 0.050550368 -0.05179168 0.07580734 0.041549824 -0.048593175 -0.06914678
0.10139368 -0.09210589 0.123745814 -0.22142643 -0.1950511 -0.057656173 -0.16781865 0.010617757
-0.052895665 0.030215152 -0.0504096 0.18110946 0.04812329 -0.09183439 0.03257201 0.059474137
-0.066805445 0.09574575 0.12405384 -0.13146842 0.09735234 -0.1354614 -0.121598706 -0.105598144
-0.059762727 -0.007127413 -0.018195825 -0.118489645 0.051149484 -0.120084964 -0.24525836 0.047824822
0.096856155 -0.008721612 0.19369447 0.046812594 0.20562828 -0.253689 0.09303165 0.059808224
0.12761164 0.31131592 -0.051711816 0.13416532 -0.17015462 -0.0495651 -0.042657778 -0.100903
-0.24359679 -0.17146279 -0.051662337 0.18914272 0.045921423 -0.078041874 0.13482065 -0.04222891
-0.1873408 0.012228087 0.16503628 -0.101465225 0.015703004 -0.1362938 0.14298859 0.041365348
0.088144735 -0.16006958 0.03815968 0.11552759 -0.15016751 -0.15459277 -0.13590401 0.19040531
-0.17862423 0.014452015 -0.124441355 -0.14739196 -0.15087387 0.23018155 0.19021787 -0.20423797
-0.07833637 -0.086049505 -0.043196253 -0.054880023 -0.013210537 0.22844575 0.02572299 -0.09252765
0.12054869 0.008139375 -0.025273437 0.08569772 0.10349362 0.02397934 -0.3069867 0.09329459
0.012063926 0.057876457 -0.13991098 -0.016720429 0.14503133 0.2012026 0.010973798 0.059928413
0.04823685 -0.060664263 -0.088068515 0.35614222 -0.14363325 0.22392021 0.00653441 -0.04890693
-0.029997693 0.13182423 0.04235905 0.07100579 -0.08391807 -0.11090569 -0.15303767 -0.05224106
0.142927 0.34307274 -0.30186698 -0.2320646 0.23435286 0.15658464 0.038484223 -0.11398591
0.23925133 -0.10730819 0.11065768 -0.29054174 -0.35768506 -0.13798821 -0.25442412 0.061778214
0.35543877 -0.035830505 -0.11640823 0.054596387 -0.09455797 0.120928876 0.0209508 -0.21605632
0.1893345 -0.14044608 -0.20428373 0.08080634 0.06800703 -0.15224972 -0.066594884 -0.013839329
-0.027307305 -0.071347006 0.42303762 0.09530424 0.06895797 -0.061891265 0.023216555 -0.15579921
-0.07960589 0.0036529428 0.13111256 0.31658518 -0.05749929 0.01886116 -0.03975052 0.072412066
-0.114166714 -0.20891944 0.26327246 0.05830293 0.088856444 -0.15186034 -0.04038491 0.24859712
-0.16648684 0.019247895 0.15130161 -0.07569174 0.07983635 -0.1375379 -0.25385135 0.1010573
0.04669674 -0.05418301 -0.050196245 -0.0064962436 0.06550144 -0.006468907 -0.14189519 -0.046221342
0.11919763 0.036807247 0.1821179 -0.2804917 -0.1056365 -0.039466556 0.105204165 0.00072466925
-0.13557044 -0.29053277 -0.15724641 0.19918811 -0.19341464 0.07434583 0.017586248 -0.14142798
-0.08402145 0.28073177 0.17583008 0.025212705 0.08909805 0.1394174 0.050618928 0.043050423
-0.16291408 0.094612375 -0.035640437 -0.053826965 0.17885305 -0.14658579 0.25909472 -0.13964023
0.22055078 -0.1315852 0.019522756 0.023318488 -0.0673824 -0.15559056 -0.22208484 -0.09700002

model.layers.0.temporal.2.bias f4 [64]
00000000: 06dd dc3c 376f 50bd 2121 213d 97a0 d33c
00000010: e445 c43d 83a4 433d 614b 4ebc 5d5d 0e3d
00000020: 2e55 743c 6988 83bc 9601 2dbb 2274 12bd
00000030: 9abd 203c 70a1 e43c 5b8e 88bc dd05 893d
00000040: 6fa3 bd3d 85f3 ccbb ecef ce3c 05c1 293c
00000050: cf87 a23b 9040 a43d 0a16 cb3d 7bbe 49bc
00000060: 3151 563d 6157 123d 2853 f4bc 5281 2a3c
00000070: 2cb5 653d 1230 a33d a662 843c f294 90bc
00000080: b40f ffbb d089 e23c dd6e bb3d f906 18bc
00000090: 470a 97bd 063f c73c d259 253d 2450 85bd
000000a0: faba ac3c 61a7 5ebc 9c5a 3f3c 11c4 aabc
000000b0: 02d2 7a3d 0c07 e6bc 6967 e5bc 1d4b 2c3d
000000c0: d0bc b8bb 8638 d2bc c3e0 783d 62b7 2fbd
000000d0: 37b2 023d 79c4 d23c a0de 22bd 6999 1b3d
000000e0: 8d7c 203d e686 30bc 9df9 a9ba 9ea0 3a3b
000000f0: 6184 183d 8707 e53b 2553 133d 6aec 803c
0.026960861 -0.050887313 0.039338235 0.025833411 0.09583643 0.047764312 -0.012591214 0.034757007
0.014912887 -0.016056256 -0.002639865 -0.035755284 0.00981083 0.02790901 -0.016669443 0.066905715
0.09259688 -0.0062546157 0.025260888 0.010360961 0.0049600373 0.08020127 0.09916313 -0.0123134805
0.052323524 0.035727862 -0.029824808 0.010406809 0.056080982 0.07968153 0.01616032 -0.017649148
-0.0077838544 0.027653605 0.09152005 -0.009279006 -0.07375007 0.024322044 0.040368862 -0.06509426
0.021085251 -0.013589711 0.011679318 -0.020845445 0.061235435 -0.028079532 -0.028003411 0.04206382
-0.0056377426 -0.025661718 0.060761224 -0.042899497 0.03190824 0.025728451 -0.039763093 0.0379881
0.03918128 -0.01077435 -0.0012968067 0.0028477083 0.03723562 0.0069894227 0.035967965 0.015737731

model.layers.0.channel.0.weight f4 [32, 74]
00000000: 3f61 c93d d68a 9c3e fab0 d63d f241 4fbd
00000010: 4a39 2fba 92dd 09be 4c0e ac3e 07fa ae3e
00000020: fbf3 373e 1264 e03d 0149 69bd 0acf a73d
00000030: ba41 91be e76b 51be 2933 723e fa00 003e
00000040: ac3d f73d ebca e4bc 9f35 023e 85bc 98bd
00000050: e75b 25be a35a 87bd 96ed b33c e806 23be
00000060: 882c 47bd 68cb 8ebc 7566 2bbd 2d89 a83d
00000070: d4b6 563c 95e1 80be 851b cf3d af2e 763d
00000080: fa26 ae3d 5869 b1be c045 02bc ce42 963d
00000090: 11ab bdbd 26d8 b3bc 9bc8 c7bd 83e1 443e
000000a0: ab38 aa3d 0de7 14bc 85b5 cebe b3f2 633c
000000b0: b510 1d3e 69d3 d1bd fd1d 123e 7e00 4a3d
000000c0: 149f 5b3d 6fa8 01be 0059 30be f766 3a3d
000000d0: f56a fa3d 5b1b dcbd a020 433d 7c0c 04be
000000e0: 1d12 c03d e66c 053d 95b7 0e3e 6d5d 6d3d
000000f0: a4be af3d d9bc 57be aedf 1fbe 6258 2cbe
00000100: 179a 7ebd 9140 2fbe af04 04be e728 15be
00000110: 1a1d be3c f8e6 c9be 3a4e fabd 6c45 043e
00000120: feac fd3d 56c5 32bc 7fc8 d3bd eb36 8b3e
00000130: 4761 5a3d d4d3 cdbe 798a d43d 789f 753e
00000140: eeb4 a3bc 123a 5fbc dee1 8bbd 9642 9b3d
00000150: cd5a 83bc ec54 d33c e056 6cbe e454 8ebd
00000160: 4699 a03d 507d 503e c8ad bbbd 4918 14bd
00000170: ad32 22bc b288 13be e04f 1bbe 0182 353d
00000180: 4917 cbba 7222 a2bc fd92 b7bd ce8b 41be
00000190: a681 2bbe 82a5 663e fc6c 39be 0d03 a1bd
000001a0: 4cb9 883e 0b1f 87be d567 9fbc 8e84 a2bd
000001b0: 159b 573c 66f7 4cbe c2d8 26bb 63a7 1c3e
000001c0: 1478 8f3d 9c31 34bc 4128 c13d 06a7 8cbe
000001d0: 1e14 bcbc bc4c c5bd ce5c 63bc e871 c23c
000001e0: cee5 8bbd eb0b c2bd 68da d83e f84c d93d
000001f0: 47a0 353d 3553 873e 8e23 a0bd a8cf dd3c
00000200: e93f 8e3e 578a 293c 3e9a d43e cbe9 f53d
00000210: a130 6b3d 2cdc 3abe b53f 8bbd 7a84 5dbd
00000220: 3440 16bd c2de 8abc 7251 4cbe bae5 7bbe
00000230: 0497 2fbe 2ffc 763c 1d46 453e e522 89be
00000240: fba2 12be 63bd 563d c27e 3c3c 609d bb3e
00000250: 8fa7 053c 7772 933e 4811 233e ac93 4c3e
00000260: dcab 883e 3a44 eebd 98d4 eebd 4ad9 14bc
00000270: 47c0 b0bc a9a1 0cbe 1347 11be 6904 aebc
00000280: ef21 cbbd 6526 e8bb e738 603d 0ab1 0b3e
00000290: e0c9 29bd e85d ca3c 10be 3cbd 8ba5 373d
000002a0: 09fe 7bbc 0fb5 c33b 6dcf 43bc cb96 98bd
000002b0: c652 cbbc 21e1 bdbd 67a4 853b c567 673c
000002c0: 7a3e 92bd c813 9bbc 777a 583d 2739 e2bd
000002d0: 4c51 fd3d 3520 a73d 4167 96bd ef5c 92bd
000002e0: 4c3a 1cbd 17ff a3bd 3ee2 94bd 5513 3f3b
000002f0: d3c4 0abe 1636 0abe 658c f7bd 974c b13b
00000300: 048b 24bc 2cb8 3fbe bfcf 01bc 0abf edbd
00000310: 98c4 c33d 0e57 e93d 4af7 81bd 36d4 be3d
00000320: 881c 0fbc 447a 083c 7ba1 923e 134d 05be
00000330: 1afb 9e3d 08a0 d23c 27e8 263d ff5d af3d
00000340: 39b3 1e3e 8b30 c6bc 8e1c 31bd d3bf 43bd
00000350: bd28 e3bd 4c66 68bc bebc e93c 2f7d 993b
00000360: 2168 3c3e f639 1abb deb0 0f3c 2b49 073c
00000370: 184f 283e efcc 2b3e ce77 f03d 5608 91bd
00000380: b97f d6bc 24f5 0bbf 6a0d aebe 1f5c 813c
00000390: 28f3 f63c 7b0a 67bd c2f5 ce3b 3032 d33d
000003a0: e040 17be 18a3 363e 0625 afbd af49 52be
000003b0: 934c 47bd 0036 cbbd 953a 263e 3daa 2a3c
000003c0: 9b34 4a3e 9068 e03d f668 993d 0ecc 723e
000003d0: 4cd9 b33c 7e86 84ba 3a92 073c a866 c9bc
000003e0: 2545 7abd 8386 29bd 9cf3 26bc b4ad 50be
000003f0: 180e 2c3d 537e 073c a3af 5c3e ec0e a0bd
0.09833001 0.30574673 0.10482974 -0.0506 -0.0006684257 -0.13463429 0.33604658 0.3417513
0.17964165 0.10956587 -0.056954388 0.081937864 -0.28370458 -0.20451318 0.23652329 0.12500373
0.1207231 -0.02792879 0.12715767 -0.07457832 -0.16148339 -0.066090845 0.021963876 -0.15920603
-0.048626453 -0.017430976 -0.041845758 0.08229289 0.013105113 -0.25172105 0.10112671 0.060103115
0.08503528 -0.34650683 -0.0079512 0.07336961 -0.09261144 -0.021953654 -0.09755059 0.19226651
0.0831159 -0.00908829 -0.40372863 0.0139128445 0.15338404 -0.102454014 0.14269252 0.049316876
0.053618506 -0.12661909 -0.17221451 0.04550835 0.12227432 -0.10747405 0.047638535 -0.12895387
0.09378455 0.032574557 0.13937218 0.057950426 0.08581284 -0.21068133 -0.15612671 -0.1683059
-0.06215867 -0.17114474 -0.12892412 -0.14566384 0.023207236 -0.39434028 -0.12221952 0.12917107
0.12386511 -0.010911306 -0.10340976 0.27190337 0.053315427 -0.40200675 0.10377974 0.23986614
-0.019983735 -0.013624685 -0.0683019 0.0758106 -0.016034508 0.02579733 -0.23080015 -0.06949785
0.078417346 0.20360303 -0.091640055 -0.036155973 -0.009899777 -0.14407614 -0.15167189 0.044313435
-0.001549461 -0.019791815 -0.08963583 -0.18900988 -0.16748676 0.22524074 -0.1810798 -0.0786191
0.2670387 -0.2639087 -0.01945869 -0.07935439 0.013159533 -0.2001625 -0.0025458788 0.15298228
0.07005325 -0.010998156 0.09431506 -0.2747118 -0.022958811 -0.096337765 -0.013877107 0.023735955
-0.06830941 -0.094749294 0.4235413 0.10610384 0.044342306 0.2643067 -0.078192815 0.027076557
0.27783135 0.010347924 0.41523927 0.12007483 0.057419423 -0.18248051 -0.067992605 -0.054081418
-0.036682323 -0.016951922 -0.19952944 -0.24599352 -0.17147452 0.015074774 0.19265027 -0.26784435
-0.14319985 0.052426707 0.011504831 0.36643505 0.008157625 0.28798267 0.15924561 0.19978207
0.26693618 -0.11634107 -0.11661643 -0.009085009 -0.02157606 -0.13733543 -0.14187269 -0.021242337
-0.09918582 -0.007084655 0.054741766 0.13641754 -0.04145229 0.024702981 -0.046079695 0.04483561
-0.015380391 0.0059725116 -0.01195131 -0.074506365 -0.024819743 -0.092714556 0.004078436 0.014123862
-0.07140823 -0.01893033 0.052851167 -0.11046057 0.12369022 0.0816044 -0.07343913 -0.07146632
-0.038141534 -0.08007639 -0.07269715 0.002915581 -0.13551645 -0.13497195 -0.12087325 0.0054107415
-0.0100429095 -0.187226 -0.007923066 -0.116087034 0.09558982 0.113935575 -0.06345995 0.0931782
-0.00873483 0.008329932 0.28638825 -0.13017683 0.077627376 0.025711074 0.04074874 0.0856285
0.15498056 -0.024193069 -0.043240122 -0.04779036 -0.110917546 -0.014184546 0.028532382 0.0046841125
0.18399097 -0.0023533083 0.008770196 0.008257191 0.16436422 0.16777395 0.11741601 -0.07081668
-0.02618395 -0.5467093 -0.3399461 0.015790997 0.030145243 -0.05640648 0.0063159177 0.10312307
-0.14770842 0.17835653 -0.085519835 -0.2053592 -0.04865701 -0.09922409 0.16233285 0.0104165645
0.1974663 0.10957444 0.07490723 0.23710653 0.021954201 -0.0010110883 0.008274609 -0.024585083
-0.061101098 -0.041388046 -0.010189917 -0.20378762 0.04200563 0.008269864 0.21551375 -0.07815346

model.layers.0.channel.0.bias f4 [32]
00000000: 2974 09bf 48f0 10be fb51 1bbe 289a 8fbe
00000010: 0636 5cbe 0c79 cbbd 70ff 03bc 63ac f0bd
00000020: 3c6c 97be cad5 4bbe 8b42 0dbe f288 bcbc
00000030: f5f9 12bd cd40 26be d89d a0be cf84 8f3c
00000040: 51f8 b03d 1ea5 6fbe e467 0ebe e4c2 b5be
00000050: a694 e7bc d02b fabd 9073 53be 9876 d3bd
00000060: 4769 85bd 5041 ccbd a93a 44be 290d f1bd
00000070: 8bea 16be 0520 dbbd 8f00 aabe 7993 3abe
-0.5369287 -0.1415416 -0.15167992 -0.280473 -0.21504983 -0.09935197 -0.0080565065 -0.1175163
-0.29574764 -0.19905773 -0.13794915 -0.02301452 -0.03588291 -0.16235657 -0.31370425 0.017519383
0.086411126 -0.23402831 -0.13906819 -0.35500252 -0.028269123 -0.12215388 -0.20649552 -0.10325354
-0.06514221 -0.09973395 -0.19163002 -0.11770088 -0.14737909 -0.106994666 -0.3320355 -0.18220319

model.layers.0.channel.2.weight f4 [74, 32]
00000000: efc8 ec3e 8eab 483d 104e 69be a98a 1dbd
00000010: 0df4 c63d aa42 263d 3b5c 5a3d 9567 97be
00000020: 24cd 76bd 7f9a 803e d395 cd3d c449 23be
00000030: 83de fe3d 24ac 08bb 86a7 3ebe 35c8 74be
00000040: 0e51 04be 8a57 1d3e c0f3 3b3e 3227 863e
00000050: 43f8 b03d 4ff6 653e fb2d 49be b1e8 293e
00000060: 7c7e 8fbe 011d 76be 3218 093e 6dbd 9a3e
00000070: 721a f23d 6b1f a93d 5726 7d3e f5a8 7ebd
00000080: adae b6bd a603 b1bd e3ac c2bd 614d 973d
00000090: e4a1 78bd 7b9f f43c e5da efbd 57ca 3abd
000000a0: 987a 083e 7db0 09be a3ac 9e3d d058 0ebe
000000b0: 99c9 f5bc 4e28 0abe 3f3c 993b 78f4 46bd
000000c0: 8b58 0ebd 9095 b0bd 881f 7b3c 52f0 4b3d
000000d0: ec7f 76be 8502 673c d745 953e 1ac9 34bd
000000e0: e895 803d 58ea c23d 832e 923c 117e 993d
000000f0: 5c24 04be a8a2 42be 6dfe 603e 2e82 393e
00000100: 1401 04bf 5b67 b13d 2634 c4be 1d60 a8bc
00000110: 135a 543e 332a 043e 3203 eabd 178e 6ebe
00000120: 2527 d2bc 2a9c 61be a288 093d b726 253e
00000130: c2ae 873e 142e 1bbe 5b61 98be 921d b5bd
00000140: 1ac4 253e 7829 163e 2667 833e 62f5 b23e
00000150: fbcc 37bd 4092 92bb 66f9 b6bb de5a 11be
00000160: 0cde ffbd 6f32 41be edb4 ddb9 132b c4be
00000170: e267 23be 8803 c33c 7507 9ebe 3794 a9bd
00000180: f090 01bc 90f7 343c fd25 643d 7e0c 01bd
00000190: fba8 53b9 e692 d33c 084b 603d 13fb f93c
000001a0: a11b 85bd d994 9dbd 5153 273d 4be2 88bd
000001b0: 21d2 1fbb 925e b13b b193 f63c 7e1c 8fbc
000001c0: 569e b93c 3679 033d 29ca 8dbc 70e5 dabc
000001d0: 7483 0fbd ab9a 683c a325 e5bc 993e bcbc
000001e0: 8536 2fbd 4ead e53c 48b6 e1bd 8216 19ba
000001f0: 42af 0abc a035 a33b bd21 84bd 6dcb 7cbb
00000200: 9414 07bb ecb2 cd3d 8646 953c 65be c2bd
00000210: eb58 bebd 6935 693c 556a 423e 0831 26bd
00000220: cabd 80be be3a 34be 29cd b9bd 24f0 9bbe
00000230: b1d0 1cbd bbff 5fbd f585 9fbc 7aaa 603d
00000240: ec0c 1dbc 939e b8bd c81e 0e3c 3d8d 383d
00000250: b154 00bd 697b 0dbd 7ae7 1d3e edba ebbd
00000260: 8173 833d bae0 0d3b e327 463e 15fe 773e
00000270: 0f9a 733e 8c25 10bc b42d 433e b892 103e
00000280: e506 223d 6ef1 6abd bc1b 473e 1c4a acbd
00000290: 2ba2 f33c b866 2a3b 3d23 1d3d c24b e0bd
000002a0: 6321 893c 5360 bb3d a9de 903d 5b8a 2cbe
000002b0: 3249 89bd 2a02 d33d c09b 16be 36c6 093e
000002c0: 4d00 773c b36e 083e 5db9 85bd 3cdc 60be
000002d0: 2bac 4d3e 131f c23d 5221 693e 4bd3 ccbc
000002e0: 350b 77bd a516 39bd 82e5 7dbe 81bc 6abe
000002f0: 17e4 1cbe 35c0 9cbe 9d30 23be 80cb 71be
00000300: 43e0 3d3e d7d6 083d c995 e2bd b4ae 493d
00000310: 8f4a 18be e84d c2bc 7a0c 133e c536 103e
00000320: f997 1fbc 7c3a 613d 166f 4a3d 638e 90bb
00000330: a260 e0bd 4e45 ba3d 02ca cf3d 4f70 8a3e
00000340: 57cf e9bd abdd 6dbe 2ef1 2f3c 3d42 ab3e
00000350: 9d03 19bd 3fcd 44bc b775 293e c8f0 0a3d
00000360: fd2c 68bd afe4 133e 65df 05bd 0048 063e
00000370: fed6 febd d4a5 8e3d f09c 443e be42 953d
00000380: efac f9bd 7f36 cf3c c76d 14be 23c4 99bd
00000390: d1f0 e6bd 61b9 d83c 17cb 643e b59b e93d
000003a0: 38e8 aebd cb1f 053d ee76 343e a397 c93d
000003b0: fd25 71bd 3e1e b2bd a03e 9cbd d036 ce3e
000003c0: 9ab9 ad3b 7e59 f8bd fe71 933d 4d50 e13e
000003d0: 69ac 653d 5631 babc c2f2 913d 816b c6bd
000003e0: cbf2 95bd 6b81 6d3e b11f 9abd 3bf4 1f3e
000003f0: 3eb0 1abe ed91 b0bc 561f 883e 93ea a6bd
0.4624705 0.048991732 -0.22783685 -0.038462315 0.09714518 0.04059092 0.053310614 -0.29571214
-0.06025423 0.2511787 0.10038342 -0.15946108 0.124447845 -0.0020854557 -0.18618593 -0.23904498
-0.12921545 0.15365425 0.18354702 0.2620178 0.08641102 0.2245724 -0.19646446 0.16592671
-0.28026187 -0.24034502 0.13388136 0.30222645 0.1182145 0.082579456 0.24721657 -0.06217285
-0.089200355 -0.08643274 -0.09505632 0.07387806 -0.060701266 0.029861202 -0.11711673 -0.045603123
0.13328016 -0.13446231 0.077477716 -0.13901067 -0.030003356 -0.13491938 0.0046763713 -0.048572987
-0.03475241 -0.08622277 0.015327342 0.049789734 -0.24072236 0.014099722 0.29154846 -0.044137098
0.06278592 0.09517354 0.017844444 0.074947484 -0.12904495 -0.19007361 0.21972056 0.18116066
-0.51564145 0.086622916 -0.38321036 -0.020553643 0.20737486 0.12906723 -0.11426391 -0.2329639
-0.025653431 -0.22032228 0.03357757 0.1612805 0.26500517 -0.15154296 -0.29761776 -0.08843531
0.16188088 0.14664257 0.25664634 0.34952837 -0.04487322 -0.0044730008 -0.00558393 -0.1419482
-0.12493524 -0.18866895 -0.00042287205 -0.38314113 -0.15957597 0.023805395 -0.30865064 -0.08280223
-0.007908091 0.011045352 0.05570029 -0.031506054 -0.00020185478 0.025826883 0.054759055 0.03051523
-0.064994104 -0.07694406 0.04085094 -0.06683787 -0.0024386721 0.005412885 0.030099722 -0.01746964
0.022658508 0.032098018 -0.017308312 -0.026720732 -0.035037473 0.014197032 -0.027972048 -0.022979068
-0.042776603 0.02803674 -0.110210955 -0.0005839841 -0.008464636 0.004980758 -0.064517476 -0.00385734
-0.002061163 0.10043892 0.018222105 -0.09508971 -0.092943035 0.014233925 0.18985875 -0.040574104
-0.25144798 -0.17600533 -0.09072334 -0.3045665 -0.03828496 -0.054687243 -0.019473055 0.05485008
-0.0095856 -0.09014621 0.008674331 0.04505657 -0.031330768 -0.03454152 0.15420333 -0.11510263
0.06418515 0.002164884 0.19351153 0.24218018 0.23789237 -0.008798014 0.19060403 0.14118469
0.039557356 -0.05735915 0.19444174 -0.08412573 0.029740414 0.0026001167 0.038363684 -0.1095195
0.016739553 0.09149232 0.07073719 -0.16849653 -0.06703414 0.10303147 -0.14707851 0.13454518
0.015075755 0.13323478 -0.06529496 -0.21959013 0.20085208 0.09478583 0.22766617 -0.025003096
-0.060313422 -0.04518761 -0.24794582 -0.22923471 -0.15321384 -0.30615392 -0.15936513 -0.23612785
0.1854258 0.033408012 -0.110637255 0.049238876 -0.14872192 -0.02371879 0.14360228 0.14083393
-0.009740823 0.054987416 0.049422346 -0.004411505 -0.10955931 0.0909525 0.10145952 0.2703881
-0.114165 -0.23229091 0.010738654 0.33448973 -0.03735696 -0.012011825 0.16548811 0.033921033
-0.05668353 0.14442705 -0.03268375 0.13113403 -0.1244335 0.06965223 0.19200492 0.07288121
-0.121911876 0.02529454 -0.14495002 -0.07508113 -0.11276401 0.026455583 0.22343098 0.11406652
-0.08540386 0.032501023 0.17623493 0.098433755 -0.05887412 -0.086971745 -0.07629132 0.40276194
0.0053016664 -0.12126444 0.07199477 0.44006577 0.056072626 -0.022728603 0.071263805 -0.096884735
-0.073217 0.231939 -0.07525576 0.1562051 -0.15106294 -0.021553958 0.26586407 -0.0815021

model.layers.0.channel.2.bias f4 [74]
00000000: 8509 bbbc 5672 1f3e cb9e 0a3e 438b b83c
00000010: cd38 fabc f339 8b3d 536a 8abd 9961 28be
00000020: 9601 8cbd 7bc4 373d ef81 f33d d3f5 3abd
00000030: de33 053c 948a 53bd 33ea 66bd 6d79 823e
00000040: 72cd 883d 0a1d d73c 6632 88bd ae5e 9fbd
00000050: 92a8 2b3c 41c9 01be 930c 523d 04a3 81bd
00000060: a6d1 253e 50e6 e8bd 29bb 44be 172a 773d
00000070: d797 87bc 4f9e 163d b4c3 08be f0b2 8c3d
00000080: d24a a5bd cf62 e3bd 3e29 95bd 440c aebd
00000090: 8b96 1cbe c2d7 fc3d 0902 dc3d bbd2 0cbc
000000a0: 98df 083d 6d69 cebd cfc4 1c3e 7163 89bc
000000b0: 7e6c aa3c 4ae5 33bd d6e3 ebbd eb4a cdb9
000000c0: 09e6 7d3d 6b04 9b3b c640 c5bb 60d4 983e
000000d0: 8154 903d 9628 923c 1b69 48be 7663 e2bc
000000e0: 474a 15be 9246 153e fe1f a03d 35c2 0cbe
000000f0: cefd 163d ee89 ccbc 0628 0abd e312 0c3e
00000100: ff32 7c3b 516f b5bc a3f0 3e3e aba0 fe3c
00000110: ec32 91bd ab06 febc 9eff bbbd 3f7a 3ebd
00000120: b63b 283c 00fe 44be
-0.022831688 0.1557096 0.13537137 0.022527343 -0.030544663 0.06798162 -0.06758561 -0.1644348
-0.0683624 0.044865113 0.11890017 -0.045644592 0.008130042 -0.05164583 -0.056375694 0.25483266
0.066798106 0.026258964 -0.06650238 -0.077817306 0.010477202 -0.12674429 0.051281523 -0.06329921
0.16193256 -0.113720536 -0.19212021 0.060342874 -0.016551895 0.03677207 -0.13355905 0.06870067
-0.080709115 -0.111028306 -0.07283257 -0.08498433 -0.15291803 0.1234584 0.10742576 -0.008595164
0.03341636 -0.10078702 0.15309452 -0.01677105 0.020803686 -0.04391984 -0.11518066 -0.00039156465
0.061986957 0.0047307513 -0.0060196845 0.2984953 0.07047368 0.017841619 -0.19571345 -0.027635317
-0.14579116 0.14577702 0.07818602 -0.13745959 0.03686314 -0.024968114 -0.033729576 0.1367908
0.0038482544 -0.022147806 0.18646483 0.031082472 -0.07089791 -0.031009039 -0.091796145 -0.0465033
0.010268142 -0.19237518

model.layers.1.temporal.0.weight f4 [32, 64]
00000000: 1925 043d 259f 633d 3969 6d3d 7f4c dd3d
00000010: 3cb4 813d 5bc5 b1bd 7212 033d 7838 953e
00000020: 8683 593e ea3e 8a3d e942 bd3d 640a 453d
00000030: e90e d13d 1f63 3d3e db1f d7bc 61d0 25bd
00000040: 81df 4ebb 9fa6 0abd f22f 7f3d fe28 a33d
00000050: cb5d 643e 4d22 833e 5e82 293d 04b1 933d
00000060: 095f 30be 6894 47bd 83c7 74bd 8c7f 243e
00000070: 1694 363e 324f 0cbd e8f9 93bd e8e7 d1bd
00000080: 4817 5cbe efa7 f1bd 251a e5bc 443f 35bd
00000090: a6a4 39be 7e1e 86bd ae53 003e 2782 80be
000000a0: c934 62bd af8d eabd 3337 503e 565e 883e
000000b0: 01ba 123e e9b6 693d 1c98 e6bd 4a31 0bbc
000000c0: 8e8d 3bbe f932 05be 8b8c 96bd a974 c2bd
000000d0: 1050 cebc ba5a 653e ef0a fc3d 13f5 1fbd
000000e0: 851b 9d3d 54cd 273d 3425 dc3d f2f1 06be
000000f0: 59f7 85bd be35 24be 3e29 e53d 9588 96be
00000100: 1adb c13d ea10 1f3e 39a5 0e3e c781 d83d
00000110: 3e44 28bb 1467 e83b 34b6 42be 9bb3 4abe
00000120: 5301 85be 7e94 1abe dc1d b4bd 0fda 8d3d
00000130: f0ec 3d3e b4a0 903e 6f89 e73d 5908 81bd
00000140: c495 e63c 746b bf3c 3ff8 e9bc b7d7 053e
00000150: a53e e73d 4094 f13d 4dfc 213e c0c6 4a3e
00000160: 8e5e 00be d9d3 4fbc 4c90 0abe 0938 bf3b
00000170: fdee 19bd b432 c2bd 867b 4f3d 63a0 2abe
00000180: e8d5 fabd 0b22 133d c820 8b3a c4cc 43bd
00000190: 881d 8fbd 712a 333e abc3 a53b 323b 2e3e
000001a0: 42ab 4b3e fb90 963d 1ea0 f7bd 55fc 5fbe
000001b0: 3810 31be 364d b9bb bf07 5d3d 331b be3d
000001c0: 59db 993d 4aa7 ad3d 9444 583d 4d88 1fbe
000001d0: 177d 25be a540 bfbd ac99 2ebe bbae 783d
000001e0: f2ee 06bc bdab 80bd dd4e edbd de09 01bd
000001f0: dfae d5bd bdda 03bd 7dc0 85bd a472 293f
00000200: 6b8d 223d 3a23 f3bd 7c61 99bc 4db5 dbbd
00000210: 6fc8 e7bb 8688 6a3d 79a9 b93c e16c a73a
00000220: 7084 853d a6e7 c23d b6a9 fb3d 706c b9b9
00000230: cf90 b83d bc1f fe3d 2c27 3b3e d6de 5d3e
00000240: d3d1 2f3d f4a3 8c3d 75fc afbc bd1d 08be
00000250: 3cce af3d dc9e 1abd 1336 353e e98f 2a3c
00000260: 5049 0b3e 28b6 1b3e a8aa f23d eb43 083e
00000270: 7bc9 963d cdff b0bd 918d 34be 6cc5 22ba
00000280: af02 8dbe 04bf ffba a24a e6bd 963c 2abe
00000290: 7fb2 7dbe 31bd f1bd 9dcc 083e 38d6 36be
000002a0: 8183 dabd b2b4 b4bd 8746 d13d bbed 0fbd
000002b0: 1179 0a3e 5845 44bd 4bfc 503e 0c8c cd3d
000002c0: 5825 bc3c 4c45 6abd fc7d 8d3d 6e44 26bd
000002d0: 877a d13d 1350 4e3d b13a 0d3d 3a62 1d3e
000002e0: 4eff a73c 994b 88bc 9a8b 053d 4518 0f3e
000002f0: 9fc1 0e3e 70ee cb3d 94f2 1c3e f9c7 893e
00000300: aac2 a8bd b72e a63d 4fee 063e dce9 233e
00000310: 4044 d93d c952 cf3d 7753 22bd aad5 8cbd
00000320: 259c 02bd 9255 dbbd ac5b 7c3e 6d68 323e
00000330: 8ba2 003e 28fd 3ebd 3a37 84bc 5f4e b73d
00000340: 5bb8 ab3d 63a4 1cbe 8ec2 56be f558 a0be
00000350: 7810 53be 57b7 40be 1a7a 98bd 82a1 9b3c
00000360: 6c94 0abe 19bb 883e 4254 343e 63d9 643e
00000370: 137a fd3d 6041 c53d 616d 1a3d 2316 62bb
00000380: 0249 94be bfb8 6abe dc5d 63bd d278 65be
00000390: 8efb 193e 2381 fb3d f4d2 1e3e f37f 4cbd
000003a0: 17b4 04bd 18cd efbd f1dd 043d 06b8 d5bc
000003b0: f1b7 873b af16 a33c d2c5 5bbe d827 ddbd
000003c0: c3d0 f3bd 87c7 1fbe f069 b3bd 0fd6 28be
000003d0: 9bd9 ff3b 408b 6a3d fa2d 82bb cb1c d83c
000003e0: ada9 fcbd 7e31 31be 4645 6cbe 7319 9abd
000003f0: 42a5 c23d 192d 043e 47ee a43d 8c80 9b3e
0.03226194 0.055571694 0.057961676 0.10805606 0.06333205 -0.08680221 0.032000013 0.29144645
0.21241578 0.06750281 0.09241278 0.048105612 0.10207922 0.18494843 -0.026260307 -0.04048193
-0.0031566324 -0.03385031 0.062301584 0.07966803 0.22301404 0.25612107 0.041384093 0.072114974
-0.17223753 -0.048725516 -0.05976058 0.1606428 0.17829928 -0.034255214 -0.072254 -0.10249311
-0.21493256 -0.11799609 -0.027966568 -0.044249788 -0.18129215 -0.06548785 0.12531921 -0.25099298
-0.05522612 -0.11452805 0.20333557 0.26634473 0.14328767 0.057059202 -0.11259481 -0.008495638
-0.18315718 -0.13007726 -0.07351025 -0.094949074 -0.025184661 0.2239789 0.12306773 -0.03905208
0.076712646 0.0409673 0.107492834 -0.13178232 -0.065413184 -0.16036126 0.11189507 -0.2940108
0.094656184 0.15533796 0.13930215 0.10571628 -0.002567544 0.007092366 -0.19014817 -0.19795077
-0.25977573 -0.15095708 -0.08794758 0.06926357 0.18547416 0.28247607 0.1130551 -0.0630042
0.028147586 0.023366667 -0.028560756 0.1307057 0.11291245 0.117958546 0.15818901 0.1980238
-0.1253607 -0.012684786 -0.13531607 0.0058355373 -0.037581433 -0.09482327 0.05065491 -0.16662745
-0.12247831 0.035921138 0.0010614628 -0.0478027 -0.069880545 0.17496659 0.005058726 0.17014769
0.19889548 0.073518716 -0.12091087 -0.21873601 -0.17291343 -0.005654956 0.053962465 0.092825316
0.0751254 0.084791735 0.052799776 -0.15579338 -0.16160999 -0.09338502 -0.17050809 0.06071351
-0.00823568 -0.062827565 -0.115873076 -0.03150355 -0.10433745 -0.032191027 -0.06530855 0.6619055
0.039685648 -0.11871953 -0.018723242 -0.1072794 -0.007073454 0.057259105 0.022663819 0.0012773537
0.06519401 0.0951684 0.12288229 -0.00035366742 0.09011995 0.124083966 0.18276662 0.21667036
0.042924713 0.06867209 -0.021482686 -0.13292594 0.08584258 -0.037749156 0.17696409 0.010410287
0.13602185 0.15206206 0.11848956 0.13307159 0.07362648 -0.0864254 -0.17632128 -0.0006209228
-0.2754111 -0.0019511883 -0.11244704 -0.16624674 -0.24775122 -0.118036635 0.13359304 -0.17855155
-0.10669614 -0.088235274 0.1021853 -0.035138827 0.13522746 -0.047917694 0.20408742 0.100364774
0.022967026 -0.057194993 0.06908795 -0.040592603 0.10228448 0.050369333 0.0344798 0.15369502
0.020507481 -0.01663761 0.032603838 0.13974102 0.13941048 0.09957588 0.15326911 0.2691038
-0.08240254 0.08114379 0.13176845 0.16007179 0.10608721 0.10123212 -0.03963038 -0.06876691
-0.031887192 -0.107096806 0.24644345 0.17422648 0.12562005 -0.046628147 -0.016139615 0.08950495
0.083847724 -0.15297084 -0.20972654 -0.3131787 -0.20611751 -0.18819939 -0.07445164 0.018997911
-0.13533181 0.26705244 0.17610267 0.22348551 0.123767994 0.0963161 0.037701968 -0.0034498058
-0.2896195 -0.22922038 -0.055509433 -0.2240937 0.15037367 0.1228049 0.1551016 -0.04992671
-0.03239831 -0.117090404 0.032438222 -0.026088726 0.0041418006 0.019908277 -0.21462181 -0.10798615
-0.119050525 -0.15603457 -0.0876044 -0.16487907 0.007807923 0.057261705 -0.003972766 0.026380917
-0.123370506 -0.17304036 -0.230733 -0.07524385 0.09504177 0.12907828 0.0805326 0.3037151

model.layers.1.temporal.0.bias f4 [32]
00000000: 7f27 5cbe 0769 0b3d 9da4 ffbd 6357 1dbf
00000010: 67e6 6ebd c807 36be 7e12 dabe ed93 b0bd
00000020: a801 1ebc 2608 7bbe b4fe 01bf a637 1ebe
00000030: 9cac e7be b4ab 68bd 6445 98be 8a53 27be
00000040: e248 c7bd 0d71 2cbe 8d8f 05be 8a4b b2bd
00000050: 45ad 18bf 068f 40be f1a9 f4bd 7ced 93be
00000060: d4ea 81be d1f2 f3bd 071e f1bd 563d 80bd
00000070: 16bb 22bf e448 dbbe b266 12be f0d8 04be
-0.21499442 0.03403571 -0.12482569 -0.61461467 -0.058325198 -0.17776406 -0.42592233 -0.086219646
-0.00964395 -0.24514827 -0.5077927 -0.15450916 -0.45248878 -0.056804374 -0.2974044 -0.16340461
-0.09730698 -0.1684 -0.13043042 -0.08705814 -0.5963939 -0.18804559 -0.11946476 -0.28892124
-0.25374472 -0.11911548 -0.117733054 -0.06261699 -0.6356672 -0.4282905 -0.14296988 -0.1297338
