experiments/Exp4/saved_models/tsmixer_benchmark_4.pt (torch, 730196 bytes, 30 tensors)

model.static_proj.weight f4 [64, 10]
0.03728092 -0.19481339 0.062845975 -0.0732455 0.070638575 0.17929253 -0.18492158 0.059641186
-0.22654504 -0.11893079 0.14667104 -0.3041157 0.26374388 0.006569114 0.14918992 0.07353052
0.025885474 0.1854688 0.044912275 0.030700428 -0.19274126 0.12953278 0.19444254 -0.26500303
-0.13659029 -0.079159796 0.19369616 0.04830499 0.30426928 0.22825901 0.11558445 0.28380173
0.112771735 -0.006160942 -0.13011113 0.15379438 -0.25657675 -0.20116737 0.16158868 0.058638573
-0.24789982 -0.09240069 0.12843618 -0.1320881 -0.2381058 0.2739638 -0.14855847 -0.25036976
-0.18065464 -0.22467355 0.0026337146 0.2890472 -0.2548296 -0.2007923 0.120161586 0.08455875
0.08752706 0.16672862 0.020246787 0.15729648 0.20879044 -0.03472763 -0.19885573 0.020230286
-0.23577458 -0.16271225 0.09389011 0.071188636 0.026321763 0.21375646 0.2901127 0.19152394
-0.16306135 0.16287352 -0.19061022 -0.16996023 -0.09286751 -0.21273646 -0.044247985 0.15618958
0.23733489 0.23009306 -0.083875336 -0.097612604 0.20429139 -0.3132371 -0.021639772 0.12503308
0.0754863 0.3025824 -0.019262556 -0.23275995 -0.06426918 0.04314054 0.24656685 -0.053365372
-0.046869263 0.2163528 -0.034756154 -0.20511763 0.06697092 0.15595596 0.0162031 -0.1899475
-0.05801004 0.13135375 0.0076860352 0.12454896 0.27174535 0.1386683 -0.22663409 -0.047306027
0.3721138 -0.21542376 -0.036250696 0.2579895 0.21762553 -0.22635765 0.14517042 0.011064891
0.21665423 0.0022752183 0.1929423 0.22863938 0.109221734 0.05379047 0.10064897 0.046264138
0.29874223 0.10908945 -0.040009264 0.23282595 -0.14910154 -0.038056184 -0.083616994 0.08198849
-0.09454374 -0.08062179 -0.10763134 0.12543431 0.10425456 -0.13485637 0.01717098 -0.15500395
-0.044895474 0.092156954 -0.18142225 0.03118351 -0.17322303 0.065489374 0.14120114 -0.29618314
-0.0033482953 -0.025671156 0.055241335 0.06899498 0.21074624 0.13721623 -0.066112384 -0.17708513
-0.14548418 -0.04174499 0.03358431 -0.05117945 0.10698837 0.009205749 -0.07166277 0.22515604
0.2077235 -0.16823834 0.2124623 -0.16115236 -0.20176193 -0.26327688 -0.33974114 -0.18789837
0.018380634 0.08043581 -0.046179578 -0.026234938 -0.07815951 -0.106896624 0.054727435 0.06321454
0.14725137 -0.11953314 -0.18882167 -0.043519802 -0.05942414 -0.06340019 0.08320478 -0.119543694
-0.01341189 -0.08402969 -0.24272649 0.1734505 0.11228349 0.041879445 -0.003056499 -0.09089214
-0.13083062 -0.033049807 0.30685335 -0.28161645 -0.18916017 -0.13585292 0.16816074 0.15127192
0.008209878 0.075607054 0.17156805 -0.24882036 -0.020701015 -0.069823384 -0.053581335 -0.09364645
0.20917355 0.22029597 -0.048595812 -0.15746877 -0.24501938 -0.1253127 0.06713695 -0.2443724
-0.18004481 0.23558609 0.24657238 -0.22574691 -0.015008637 -0.13266568 -0.013827401 0.19645426
-0.23135087 -0.14892283 -0.1818771 -0.17265409 -0.05875983 0.088708356 -0.1601256 0.06659505
-0.110061646 0.29702348 0.12975493 -0.13619542 -0.17420492 -0.07384786 -0.16543308 -0.15853049
0.15705498 -0.16241047 0.22201696 -0.11240197 0.03894882 0.04705281 0.15497021 -0.0025290544
00000000: e1b3 183d 297d 47be 64b5 803d bd01 96bd
00000010: f5aa 903d 7698 373e 155c 3dbe 514a 743d
00000020: 6cfb 67be fc91 f3bd ef30 163e 0eb5 9bbe
00000030: 7009 873e b941 d73b 3ec5 183e 2b97 963d
00000040: c60d d43c 88eb 3d3e eff5 373d 777f fb3c
00000050: f75d 45be 3ea4 043e f21b 473e 7aae 87be
00000060: 53de 0bbe 881e a2bd 4958 463e 74db 453d
00000070: 2fc9 9b3e bbbc 693e 8ab7 ec3d 764e 913e
00000080: def4 e63d bae1 c9bb da3b 05be 467c 1d3e
00000090: 075e 83be d2fe 4dbe 8177 253e 002f 703d
000000a0: 73d9 7dbe 933c bdbd c684 033e 1a42 07be
000000b0: 02d2 73be fc44 8c3e b61f 18be 7730 80be
000000c0: 88fd 38be d310 66be 669a 2c3b fffd 933e
000000d0: 0679 82be 7f9c 4dbe 4717 f63d 232d ad3d
000000e0: 6341 b33d e8ba 2a3e 97dc a53c 5412 213e
000000f0: 29cd 553e 8f3e 0ebd d6a0 4bbe fcb9 a53c
00000100: e46e 71be 0a9e 26be 7549 c03d 59cb 913d
00000110: bda0 d73c f9e2 5a3e a789 943e da1e 443e
00000120: 8ef9 26be 51c8 263e 532f 43be 0e0a 2ebe
00000130: 5231 bebd 96d7 59be 603d 35bd 29f0 1f3e
00000140: eb07 733e 849d 6b3e d5c6 abbd 1ee9 c7bd
00000150: c331 513e 9d60 a0be e445 b1bc ac08 003e
00000160: 9098 9a3d 15ec 9a3e 82cc 9dbc a058 6ebe
00000170: 8f9f 83bd 23b4 303d 057c 7c3e a695 5abd
00000180: fcf9 3fbd 978b 5d3e 785c 0ebd 5b0a 52be
00000190: 0d28 893d ebb2 1f3e 5dbc 843c 9981 42be
000001a0: f09b 6dbd 9981 063e 23db fb3b 8613 ff3d
000001b0: 3522 8b3e 10ff 0d3e c412 68be f7c3 41bd
000001c0: b385 be3e 0c98 5cbe 9c7b 14bd 3317 843e
000001d0: 3ad9 5e3e 4dca 67be 8ea7 143e 8449 353c
000001e0: 9bda 5d3e d41b 153b ab92 453e 7120 6a3e
000001f0: a5af df3d 6553 5c3d 0c21 ce3d 777f 3d3d
00000200: bef4 983e 4a6a df3d c1e0 23bd ed69 6e3e
00000210: 13ae 18be cde0 1bbd 633f abbd 95e9 a73d
00000220: 26a0 c1bd 091d a5bd d26d dcbd da71 003e
00000230: 6a83 d53d ca17 0abe 28aa 8c3c 5bb9 1ebe
00000240: 51e4 37bd c9bc bc3d c1c6 39be 8f74 ff3c
00000250: 6161 31be 4b1f 863d 0897 103e 51a5 97be
00000260: 136f 5bbb 514c d2bc bd44 623d 3d4d 8d3d
00000270: ddcd 573e 6982 0c3e ee65 87bd ce55 35be
00000280: cef9 14be cbfc 2abd b48f 093d 8ba1 51bd
00000290: b81c db3d b6d3 163c eec3 92bd 4e8f 663e
000002a0: 78b5 543e ac46 2cbe b88f 593e 2005 25be
000002b0: ae9a 4ebe 3acc 86be 8df2 adbe 6e68 40be
000002c0: fc92 963c 88bb a43d cc26 3dbd a7ea d6bc
000002d0: 1812 a0bd 9eec dabd e029 603d a076 813d
000002e0: 10c9 163e cacd f4bd 785a 41be d241 32bd
000002f0: ba66 73bd f5d7 81bd 4567 aa3d 53d3 f4bd
00000300: 8bbd 5bbc c217 acbd 4b8d 78be 029d 313e
00000310: e3f4 e53d c889 2b3d 8b4f 48bb a925 babd
00000320: 76f8 05be 3c5f 07bd e21b 9d3e 0830 90be
00000330: 34b3 41be 071d 0bbe 5432 2c3e 07e7 1a3e
00000340: b982 063c dfd7 9a3d 89af 2f3e c4ca 7ebe
00000350: 2d95 a9bc 90ff 8ebd 1a78 5bbd b6c9 bfbd
00000360: 9731 563e 4495 613e 670c 47bd 7e3f 21be
00000370: 5ce6 7abe f951 00be 197f 893d c23c 7abe
00000380: ab5d 38be 7b3d 713e 787d 7c3e 332a 67be
00000390: c9e6 75bc 83d9 07be 538c 62bc 4e2b 493e
000003a0: 3ee7 6cbe 3a7f 18be fe3d 3abe 3ccc 30be
000003b0: 26ae 70bd baac b53d f7f7 23be fc62 883d
000003c0: 0068 e1bd 7613 983e 7ade 043e d076 0bbe
000003d0: c662 32be 8c3d 97bd 4a67 29be d155 22be
000003e0: 05d3 203e ee4e 26be 6a58 633e 0133 e6bd
000003f0: cc88 1f3d 73ba 403d 83b0 1e3e 7ebe 25bb

model.static_proj.bias f4 [64]
-0.030150896 -0.04731901 -0.23808339 0.19677575 0.1869752 -0.106041566 -0.12086509 0.28174946
-0.028456325 -0.18856095 -0.10382654 -0.11281402 0.175646 0.006090028 0.1126589 -0.1221535
-0.22751495 -0.13361157 -0.1626662 0.11994441 -0.12194051 -0.15842682 0.02898224 -0.009437452
0.24390028 0.22586045 -0.21171159 -0.03359077 -0.1652206 0.15375869 -0.113844596 0.12301152
-0.061126336 -0.128029 0.14504115 0.21250954 -0.043640655 -0.1439923 -0.097293206 -0.00885659
-0.07013382 -0.030246036 -0.20714913 0.08884074 -0.050782293 -0.034978397 0.15148284 -0.06732884
-0.2376897 -0.27322665 0.16662347 -0.13204193 -0.04085534 -0.26194817 0.30354038 -0.08550328
0.041976467 -0.090782575 -0.065627374 -0.19646816 0.010889598 -0.120243944 0.22770165 0.21032774
00000000: 03ff f6bc 94d1 41bd 22cc 73be 957f 493e
00000010: 6d76 3f3e 522c d9bd 1e88 f7bd 7741 903e
00000020: 3d1d e9bc 1f16 41be 02a3 d4bd 090b e7bd
00000030: 8cdc 333e dc8e c73b b6b9 e63d 9d2b fabd
00000040: aef9 68be 79d1 08be f891 26be 6aa5 f53d
00000050: f2bb f9bd a43a 22be 2a6c ed3c 8b9f 1abc
00000060: ffc0 793e f647 673e ecca 58be 7a96 09bd
00000070: 972f 29be eb72 1d3e 5b27 e9bd 77ed fb3d
00000080: 9c5f 7abd 091a 03be ab85 143e 1a9c 593e
00000090: 8bc0 32bd b872 13be a941 c7bd 3b1b 11bc
000000a0: 52a2 8fbd 89c6 f7bc e71e 54be 22f2 b53d
000000b0: 1801 50bd 8245 0fbd 511e 1b3e b4e3 89bd
000000c0: ee64 73be 5de4 8bbe 589f 2a3e 0036 07be
000000d0: ee57 27bd 121e 86be a569 9b3e 581c afbd
000000e0: 84ef 2b3d 37ec b9bd a567 86bd f32e 49be
000000f0: 496a 323c 7542 f6bd 9f2a 693e 2860 573e

model.layers.0.temporal.0.weight f4 [32, 64]
0.036785834 -0.10273567 -0.11713323 -0.053026173 -0.07823379 -0.14180326 -0.054539915 -0.022699714
-0.078593895 -0.0025373166 -0.07602125 -0.02034164 0.08585122 0.089139186 0.019560846 0.052795846
-0.015593641 -0.027563786 0.06879037 -0.0292292 -0.03307166 0.09480487 -0.10947336 0.063928075
0.10611664 -0.083404705 0.028901802 -0.043645356 0.026832942 -0.047621347 0.091925405 -0.103948325
0.05524417 0.05133731 0.053231463 0.028159728 -0.005694795 -0.070024185 0.05478553 -0.07471983
-0.16784729 -0.033411305 0.038598903 0.061458495 0.049403 -0.0127505325 -0.06801552 0.04817456
-0.04084385 -0.0065394 -0.006572033 -0.032719463 -0.048593204 -0.16246085 -0.11752685 -0.07884826
0.017818024 -0.106921494 0.097847074 -0.08394714 0.01899875 0.19604778 0.026992962 0.12050897
-0.03845251 -0.106786855 -0.21140693 -0.12529224 -0.026144866 -0.06258958 0.004068561 -0.14265597
-0.16132542 -0.11887574 -0.060408253 -0.060202923 -0.086348005 -0.063724086 0.08317467 0.08443436
-0.03468478 0.07544809 0.0064480524 0.20091566 0.19288222 -0.034968164 0.2334248 0.18623187
0.1835948 0.008065775 0.16781768 0.020795437 -0.03230599 0.06581838 -0.056655265 -0.09570557
-0.055142548 -0.05434151 -0.08051378 -0.23596972 -0.17999797 -0.09710003 -0.13604781 0.0064499327
0.10564074 -0.08587356 -0.042388376 -0.14528877 -0.1264479 0.01412541 -0.070825085 0.064586304
-0.07786975 0.10979085 0.12378887 -0.02141378 0.1298714 0.16215336 0.0477786 -0.0071269074
0.025188264 -0.08449201 -0.08495017 -0.017177528 -0.11667149 -0.1959868 -0.01458074 -0.0134117855
0.104804 0.054121632 -0.071020454 -0.02064983 0.058136154 0.10962737 0.15746571 -0.06448812
0.053236812 0.10966719 -0.013510623 0.062743686 0.03660609 -0.040054474 0.013793039 0.031775296
-0.0061460705 -0.010729117 -0.01871995 -0.10638558 0.054067906 0.050901756 0.0370501 -0.03535857
-0.09016279 -0.056030095 0.04640563 0.15377825 0.06862381 0.058353152 0.065083645 -0.035450455
-0.109023176 0.061963473 -0.09501986 0.036255073 -0.020767251 0.12307698 0.03469547 0.14698003
0.068555385 -0.01671076 -0.07693916 0.07854285 -0.06430205 -0.094707124 0.08096969 -0.12548842
0.106345475 -0.045776244 0.003281741 0.07563609 0.10641365 -0.07982297 -0.1517876 0.047164164
0.027103677 0.069570005 0.01985728 0.05615529 -0.1258153 0.0009312012 -0.005237677 0.12463752
-0.026239369 0.011883556 0.12155781 0.12333497 0.101892196 0.116116725 0.018896276 0.0040040086
-0.04221699 -0.0719372 -0.109426625 -0.018261509 -0.03881092 -0.045204863 -0.14529212 0.03214564
-0.06030395 0.013814316 0.14978613 -0.07090247 0.096151635 0.17239098 0.041970585 0.041615415
0.025595363 -0.08729969 -0.13910079 -0.023381224 -0.11220499 -0.12770543 -0.1350992 -0.18022583
-0.1306368 -0.017891712 -0.057373837 -0.123687334 0.008278441 -0.021780947 -0.073973335 0.019270206
0.092506036 -0.07328379 -0.113224365 -0.10151144 -0.14238717 -0.09248238 0.04589732 0.13014849
0.03471084 -0.042168997 0.09521682 0.0010696256 -0.12860961 -0.054772064 0.13578434 -0.02493424
0.027469454 0.043539703 -0.05773768 0.09611182 -0.049001724 0.13395569 0.17095405 -0.08410051
00000000: beac 163d 1467 d2bd 8ce3 efbd f931 59bd
00000010: 0a39 a0bd e034 11be 3f65 5fbd c0f4 b9bc
00000020: d6f5 a0bd 1c49 26bb 07b1 9bbd 83a3 a6bc
00000030: c4d2 af3d 9b8e b63d 113e a03c 7540 583d
00000040: 797c 7fbc 73cd e1bc f7e1 8c3d 1372 efbc
00000050: 2676 07bd 0e29 c23d 9233 e0bd b9ec 823d
00000060: ae53 d93d 16d0 aabd 79c3 ec3c 79c5 32bd
00000070: c2d0 db3c 9a0e 43bd 6343 bc3d dce2 d4bd
00000080: b647 623d 1247 523d 3c09 5a3d 3baf e63c
00000090: 679b babb d768 8fbd cb66 603d b606 99bd
000000a0: 29e0 2bbe 4bda 08bd e219 1e3d e7bb 7b3d
000000b0: cd5a 4a3d 9ce7 50bc b94b 8bbd b052 453d
000000c0: e14b 27bd 7748 d6bb 355a d7bb d804 06bd
000000d0: ab09 47bd 235c 26be ebb1 f0bd 327b a1bd
000000e0: 1bf7 913c a8f9 dabd 0c64 c83d 7aec abbd
000000f0: 44a3 9b3c c0c0 483e 5820 dd3c 68cd f63d
00000100: 6180 1dbd 11b3 dabd 0f7b 58be 9c4c 00be
00000110: c22d d6bc f72e 80bd 9051 853b 6814 12be
00000120: 7e32 25be 2075 f3bd a56e 77bd 5797 76bd
00000130: 39d7 b0bd c681 82bd 7b57 aa3d eceb ac3d
00000140: a111 0ebd 8784 9a3d 2f4a d33b d6bc 4d3e
00000150: eb82 453e c73a 0fbd e906 6f3e 91b3 3e3e
00000160: 4600 3c3e 5026 043c 66d8 2b3e 315b aa3c
00000170: 4953 04bd c9cb 863d 5a0f 68bd 4801 c4bd
00000180: 27dd 61bd 3495 5ebd 69e4 a4bd 0ca2 71be
00000190: 6351 38be 61dc c6bd 1e50 0bbe f559 d33b
000001a0: 2c5a d83d 7ade afbd 6f9f 2dbd 94c6 14be
000001b0: 8f7b 01be 436e 673c be0c 91bd d345 843d
000001c0: 2d7a 9fbd 06da e03d 0585 fd3d f46b afbc
000001d0: 02fd 043e 880b 263e 7eb3 433d d588 e9bb
000001e0: 9e57 ce3c 260a adbd 5bfa adbd e3b7 8cbc
000001f0: 76f1 eebd c4b0 48be 0ee4 6ebc 1bbd 5bbc
00000200: 7ba3 d63d a5ae 5d3d 2c73 91bd d529 a9bc
00000210: 2d20 6e3d 5184 e03d b13e 213e 5912 84bd
00000220: d80e 5a3d 3199 e03d a95b 5dbc c37f 803d
00000230: 44f0 153d 2910 24bd 33fc 613c d026 023d
00000240: fa64 c9bb 2ec9 2fbc 955a 99bc afe0 d9bd
00000250: 4f76 5d3d 5c7e 503d d8c1 173d 26d4 10bd
00000260: 45a7 b8bd d07f 65bd d413 3e3d 0c78 1d3e
00000270: a48a 8c3d b703 6f3d 934a 853d 7f34 11bd
00000280: 8b47 dfbd 69cd 7d3d c699 c2bd 3380 143d
00000290: 1520 aabc c90f fc3d d61c 0e3d ef81 163e
000002a0: c466 8c3d 01e5 88bc 4792 9dbd 13db a03d
000002b0: cbb0 83bd cff5 c1bd 70d3 a53d 0980 00be
000002c0: a8cb d93d df7f 3bbd 7a12 573b 18e7 9a3d
000002d0: 66ef d93d 3a7a a3bd 356e 1bbe 362f 413d
000002e0: 8808 de3c b87a 8e3d bcab a23c 1703 663d
000002f0: bad5 00be db1b 743a d2a0 abbb f541 ff3d
00000300: f2f3 d6bc 3fb3 423c 4df3 f83d 0b97 fc3d
00000310: dbac d03d 9bce ed3d 5dcc 9a3c 0f34 833b
00000320: b9eb 2cbd d053 93bd 111b e0bd 2999 95bc
00000330: 33f8 1ebd bc28 39bd 75c7 14be 26ab 033d
00000340: 4601 77bd 7155 623c 8961 193e 5035 91bd
00000350: 26eb c43d 4387 303e 59e9 2b3d ed74 2a3d
00000360: 5ead d13c 2eca b2bd 7070 0ebe fb89 bfbc
00000370: bbcb e5bd 36c5 02be 7257 0abe 1f8d 38be
00000380: a7c5 05be a491 92bc d400 6bbd c94f fdbd
00000390: 4ca2 073c f56d b2bc 557f 97bd 8ddc 9d3c
000003a0: ce73 bd3d d015 96bd 2de2 e7bd 3be5 cfbd
000003b0: f1cd 11be 6767 bdbd d4fe 3b3d a545 053e
000003c0: f42c 0e3d 66b9 2cbd 0901 c33d ae32 8c3a
000003d0: 3db2 03be ac58 60bd 0d0b 0b3e e442 ccbc
000003e0: 9f07 e13c b056 323d 587e 6cbd 46d6 c43d
000003f0: 08b6 48bd ae2b 093e 940e 2f3e e33c acbd

model.layers.0.temporal.0.bias f4 [32]
-0.22802311 -0.021042112 -0.1629316 -0.07915135 -0.14975888 0.042586163 -0.22696474 0.049999997
-0.38291028 -0.04830614 0.024543755 0.1471677 -0.17458643 0.13406497 -0.2342281 0.021515435
-0.06645634 -0.09321957 0.15238516 0.20013736 0.06008368 -0.16279516 -0.15811045 -0.104445264
-0.06038416 8.221187e-06 -2.906165e-06 -0.051238354 -0.16829719 0.0033458855 0.024586067 -0.055328824
00000000: e47e 69be 8260 acbc 8bd7 26be 1a1a a2bd
00000010: 645a 19be d46e 2e3d 7269 68be cccc 4c3d
00000020: d10c c4be a9dc 45bd fc0f c93c 21b3 163e
00000030: c9c6 32be 5448 093e 7ed9 6fbe 2341 b03c
00000040: 431a 88bd e7e9 bebd db0a 1c3e cff0 4c3e
00000050: 4e1a 763d c6b3 26be b5e7 21be 66e7 d5bd
00000060: 6255 77bd bbed 0937 8907 43b6 4fdf 51bd
00000070: 1956 2cbe a546 5b3b b868 c93c 7aa0 62bd

model.layers.0.temporal.2.weight f4 [64, 32]
0.17529565 -0.021746552 -0.14826098 0.1645402 -0.008969832 0.12975357 -0.099460356 -0.08707038
0.004350016 0.17475264 0.16873755 -0.0056575993 -0.040300738 -0.17084149 0.15850614 0.00998297
0.10681844 0.14565507 -0.0015173914 -0.12753494 0.010289792 0.16610233 -0.15933442 -0.04106266
-0.17844632 -0.029058399 0.19148465 0.25086895 -0.02235394 -0.16352071 -0.06237823 0.020466805
0.14939255 0.17259334 0.07227126 0.004244355 0.12388764 0.025589352 -0.06064231 0.032601632
0.007874895 -0.0041418094 -0.16426279 -0.0669672 -0.12363983 -0.14774385 -0.040045567 0.0944878
-0.18407443 0.10106485 0.13403028 -0.11356324 0.13219182 -0.06516211 -0.10131719 0.1564084
0.18782169 0.1217234 0.16566084 0.1134951 -0.055686135 0.1945027 0.13181035 -0.14677703
-0.07608908 0.18635477 -0.1642355 0.18863605 0.09310954 0.01243871 0.08426443 -0.09753305
-0.09229633 -0.08202059 0.13311592 -0.0971997 0.043303408 0.085233845 -0.06814164 -0.22925594
-0.19324282 0.20742486 -0.023060713 -0.09221578 -0.16924715 0.119967856 -0.009610863 0.04213402
0.10810531 0.28252038 0.20343342 0.0061652083 0.08482914 -0.13380365 -0.15640306 0.19005388
0.13234016 -0.05918058 -0.17916572 -0.022876117 0.21348678 0.061518952 -0.06975253 0.19533978
0.0063745272 -0.022881798 0.0888192 -0.103683755 0.077695064 -0.25897008 0.09792797 -0.064945
-0.13513355 -0.06168472 0.026141644 0.04106786 0.06154483 0.0049506943 -0.13865383 0.18950981
0.23486128 0.2265668 -0.080299266 0.12903044 0.08453002 -0.1080364 9.5549905e-05 -0.10015313
0.016951388 -0.0055509447 -0.11653056 0.19459467 0.057792082 -0.16905622 0.027953485 -0.11048958
-0.1003661 -0.0921504 0.18290284 0.017830184 -0.05655628 0.11218705 0.089376025 -0.12470049
-0.18605442 0.08137909 -0.0835768 0.01216408 -0.081189506 0.1066079 0.17320801 0.093581624
0.13196263 -0.03816774 0.13834216 -0.021839451 -0.06843475 0.15852916 0.16229162 -0.113698035
0.16397293 0.1749622 -0.038971595 -0.010510855 0.22766607 0.19825128 -0.17654228 -0.00372723
0.15460604 -0.1531984 0.098385856 0.106152505 0.108787246 -0.14287108 0.3546466 0.05286996
-0.1640365 -0.002745702 -0.015000849 0.10089033 -0.15172112 0.11035317 -0.051035896 0.21275334
0.2131114 0.11418407 0.070791565 -0.040153712 0.05088786 -0.08196214 -0.15390404 -0.02031675
-0.10072479 0.02533175 0.026247835 0.1799569 -0.08489932 -0.069005735 -0.039742883 0.03794397
-0.14988759 -0.05050349 0.22403088 0.14725424 0.13761263 -0.054443188 -0.02348773 -0.10676459
-0.05580588 -0.08112252 0.20792365 0.06506893 -0.0852687 0.14371045 0.0018492492 0.29500112
0.040382043 -0.042721163 0.0019769527 0.08907863 -0.03733424 -0.15194814 0.08678547 -0.280107
-0.0877049 -0.098873325 -0.016584666 -0.06015765 0.1677446 -0.0086590815 -0.06954934 0.03698417
0.0027443094 0.15835248 0.06481008 0.06667486 -0.0172504 -0.15961805 0.04327542 -0.19644035
-0.21151154 0.050580215 0.13343051 -0.22304314 -0.12844114 -0.01273926 -0.28557745 0.06660739
0.057053152 0.21450467 0.1051 -0.081594564 0.07694559 -0.1443852 -0.09510997 0.14113666
00000000: b480 333e d325 b2bc bad1 17be 3a7d 283e
00000010: 34f6 12bc 1fde 043e dfb1 cbbd f551 b2bd
00000020: 948a 8e3b 5bf2 323e 89c9 2c3e 6263 b9bb
00000030: 6312 25bd 12f1 2ebe 6f4f 223e 9c8f 233c
00000040: a0c3 da3d 9a26 153e 35e3 c6ba 8598 02be
00000050: 8496 283c bb16 2a3e 9028 23be 5231 28bd
00000060: a2ba 36be e10b eebc 8d14 443e e571 803e
00000070: 9c1f b7bc f971 27be 5180 7fbd 00aa a73c
00000080: 5cfa 183e 4fbc 303e f402 943d 3b14 8b3b
00000090: ceb8 fd3d c3a0 d13c 1264 78bd 4a89 053d
000000a0: b405 013c 04b8 87bb 8134 28be 1926 89bd
000000b0: e136 fdbd 2a4a 17be d206 24bd d282 c13d
000000c0: 027e 3cbe 17fb ce3d 3c3f 093e d893 e8bd
000000d0: 4b5d 073e b673 85bd 637f cfbd 8629 203e
000000e0: 5454 403e 1e4a f93d ffa2 293e 1e70 e83d
000000f0: 2517 64bd b72b 473e 4bf9 063e b84c 16be
00000100: 97d4 9bbd c9d3 3e3e 5a2d 28be cf29 413e
00000110: 37b0 be3d bbcb 4b3c d492 ac3d 68bf c7bd
00000120: dc05 bdbd 69fa a7bd 8a4f 083e a310 c7bd
00000130: ea5e 313d 158f ae3d d88d 8bbd 12c2 6abe
00000140: 72e1 45be 2f67 543e d2e9 bcbc a0db bcbd
00000150: 204f 2dbe b5b1 f53d e276 1dbc b994 2c3d
00000160: 5166 dd3d 83a6 903e da50 503e 8405 ca3b
00000170: e6ba ad3d d303 09be 2028 20be 7c9d 423e
00000180: 2e84 073e 5667 72bd 3877 37be b266 bbbc
00000190: 479c 5a3e 4cfb 7b3d 6ada 8ebd 2707 483e
000001a0: 69e1 d03b 9c72 bbbc d7e6 b53d 2658 d4bd
000001b0: 971e 9f3d ba97 84be 768e c83d e201 85bd
000001c0: 7360 0abe 1ea9 7cbd 0027 d63c c636 283d
000001d0: 6f16 7c3d 6f39 a23b 45fb 0dbe dc0e 423e
000001e0: 7a7f 703e 2101 683e f173 a4bd 8e20 043e
000001f0: 131e ad3d 3042 ddbd f761 c838 161d cdbd
00000200: a3dd 8a3c b3e4 b5bb 93a7 eebd d343 473e
00000210: 64b7 6c3d 131d 2dbe b5fe e43c 5c48 e2bd
00000220: be8c cdbd 59b9 bcbd e24a 3b3e 9b10 923c
00000230: 8fa7 67bd 53c2 e53d c70a b73d f862 ffbd
00000240: 0d85 3ebe 15aa a63d 502a abbd d94b 473c
00000250: af46 a6bd 3e55 da3d 715d 313e b9a7 bf3d
00000260: 3621 073e c755 1cbd 91a9 0d3e a6e8 b2bc
00000270: 8527 8cbd 7855 223e c62f 263e 84da e8bd
00000280: 85e8 273e 4a29 333e aea0 1fbd b935 2cbc
00000290: 4b21 693e 6202 4b3e 80c7 34be 8b44 74bb
000002a0: 0c51 1e3e 0be0 1cbe 867e c93d 7c66 d93d
000002b0: d9cb de3d cc4c 12be 3d94 b53e 2c8e 583d
000002c0: 2ff9 27be 3cf1 33bb 1fc6 75bc 979f ce3d
000002d0: c85c 1bbe d800 e23d 040b 51bd 03dc 593e
000002e0: e039 5a3e 56d9 e93d 2bfb 903d 3878 24bd
000002f0: ca6f 503d c4db a7bd 0599 1dbe 506f a6bc
00000300: cc48 cebd 8884 cf3c b305 d73c 9f46 383e
00000310: b2df adbd e152 8dbd 6fc9 22bd 236b 1b3d
00000320: 227c 19be bfdc 4ebd 5a68 653e d1c9 163e
00000330: 53ea 0c3e d2ff 5ebd 5769 c0bc 65a7 dabd
00000340: b594 64bd 9023 a6bd f0e9 543e dc42 853d
00000350: 5ba1 aebd d528 133e 8262 f23a 630a 973e
00000360: a467 253d 63fc 2ebd c38f 013b db6e b63d
00000370: caeb 18bd 4b98 1bbe 95bc b13d 2f6a 8fbe
00000380: a09e b3bd 197e cabd 91dc 87bc de67 76bd
00000390: 3ec5 2b3e d2de 0dbc e26f 8ebd b77c 173d
000003a0: dfd9 333b 2727 223e 26bb 843d d48c 883d
000003b0: b650 8dbc ea72 23be 9141 313d a927 49be
000003c0: 7b96 58be 332d 4f3d 02a2 083e 6c65 64be
000003d0: 1386 03be 54b8 50bc 3537 92be 7569 883d
000003e0: 91b0 693d 1da7 5b3e ab3e d73d 0d1b a7bd
000003f0: a695 9d3d b7d9 13be 04c9 c2bd 2186 103e

model.layers.0.temporal.2.bias f4 [64]
0.067332365 -0.032867692 0.076952316 0.057637226 0.028699134 0.06782116 -0.045683585 0.11700484
-0.03479763 -0.023256324 0.027356308 -0.06354053 -0.04752133 -0.06037891 0.06050595 0.076076336
-0.04683896 0.045085203 0.0035879328 0.081883416 0.07355595 0.03187109 -0.05169631 0.11515833
-0.08414175 0.020593386 -0.023686696 -0.008178452 0.107526295 0.110236146 -0.011280475 -0.04575887
-0.019337175 0.0070334757 0.14124504 -0.017880343 -0.102323845 0.003685219 0.12296641 0.05402253
0.03350988 0.013173617 -0.008871792 -0.084034726 0.0083050635 -0.022181213 -0.032844845 0.070487015
0.032377694 0.06618542 0.04366664 0.018979441 -0.08114261 0.010591122 0.07604064 -0.016053215
-0.01299558 -0.033585627 -0.05099033 -0.05763096 0.050032254 -0.013664634 -0.0695539 0.031881563
00000000: 8de5 893d 46a0 06bd 2d99 9d3d 0315 6c3d
00000010: 721a eb3c d2e5 8a3d b61e 3bbd 3ca0 ef3d
00000020: f687 0ebd 0c84 bebc 561a e03c 8a21 82bd
00000030: baa5 42bd e04f 77bd 16d5 773d e9cd 9b3d
00000040: 36da 3fbd 43ab 383d 8623 6b3b 7eb2 a73d
00000050: 80a4 963d 438b 023d 83bf 53bd 21d8 eb3d
00000060: 8352 acbd 76b3 a83c 9a0a c2bc eafe 05bc
00000070: bf36 dc3d 7dc3 e13d bed1 38bc a76d 3bbd
00000080: ff68 9ebc 1279 e63b 8aa2 103e cc79 92bc
00000090: 2a8f d1bd b783 713b d0d5 fb3d ba46 5d3d
000000a0: a841 093d 28d6 573c fe5a 11bc 661a acbd
000000b0: f611 083c 60b5 b5bc 5188 06bd 7f5b 903d
000000c0: 799e 043d 398c 873d cadb 323d c67a 9b3c
000000d0: 192e a6bd 6386 2d3c 32bb 9b3d 0882 83bc
000000e0: 6aeb 54bc 1591 09bd 3cdb 50bd 710e 6cbd
000000f0: 9fee 4c3d a1e1 5fbc 4672 8ebd 3e96 023d

model.layers.0.channel.0.weight f4 [32, 74]
-0.022935791 -0.10573076 0.1528875 0.044720113 -0.11982501 0.11562184 0.19436352 0.07611072
0.12774436 -0.021081029 -0.10226252 -0.015438347 0.11666541 -0.07516898 -0.19138911 0.01703567
0.14537716 -0.01617581 0.09472698 -0.07438886 0.011562849 0.06534255 -0.078446984 -0.10985236
0.056219544 0.11347136 -0.0065991622 0.09667448 0.049233705 0.06265365 0.12455088 0.025806889
-0.026828267 -0.07784374 -0.16007233 0.07555089 0.15627885 -0.01325484 0.1655225 0.04157235
-0.100822404 0.11852813 -0.058170393 0.14968044 0.09816515 -0.19906934 -0.032224335 0.07658132
0.079744756 -0.009329769 0.037429996 -0.02535836 0.033425845 0.016517809 0.112832285 0.09957913
-0.056545984 -0.13155739 0.14394794 3.08414e-06 -0.23679203 -0.0115490155 -0.022227025 0.022176767
-0.026298225 -0.13798478 -0.055504967 0.013300848 0.12532882 -0.005999459 -0.023403887 0.111745246
-0.1190273 -0.037584085 -0.05275302 -0.06900283 -0.09596177 -0.09650037 -0.16186064 0.029023746
-0.1573085 -0.18525638 -0.037146628 -0.030117176 -0.025522064 0.040926937 0.21461298 -0.117685385
-0.2241033 0.10808792 0.12967452 -0.01295415 0.26606366 0.028579215 0.031311236 0.112758875
-0.109881744 0.1481892 -0.06577529 0.08815535 -0.110387795 -0.00527356 0.04916974 -0.23132992
0.1312101 0.01574839 -0.110398054 0.0011493663 -0.17500727 -0.2163592 0.27731538 0.13533525
-0.15263946 -0.07913545 0.028461833 -0.13442129 0.0695875 0.3184627 -0.0067578424 -0.18668075
-0.13445798 0.12138631 -0.0655539 0.0345248 -0.012419222 -0.10334028 0.062161893 0.0534612
0.08509792 0.11130667 0.014324205 -0.07546584 0.064111605 0.01797079 -0.20315923 -0.0011247384
-0.11942665 0.2208004 0.071827896 -0.08828693 0.051171895 -0.14923924 -0.07336598 0.14524874
0.18484336 0.10892776 -0.17472984 0.049451917 0.0023232105 -0.10465231 0.021392338 0.09072542
-0.0678129 -0.0723254 -0.1205727 -0.13067403 -0.20192221 0.0137267215 0.12824403 -0.1309001
0.012816187 -0.10033576 -0.01081698 0.002676264 -0.09167279 -0.026545292 -0.012406373 0.21813262
-0.10609408 0.12808321 -0.06176533 0.049455 -0.050249707 -0.06430521 -0.043395482 0.04375958
0.11049917 -0.044993535 -0.1800119 -0.024344807 0.08776521 -0.059294734 -0.095228024 -0.05334078
0.0015015766 0.15450878 0.14013864 -0.07773161 -0.031869564 -0.09915253 0.21403456 -0.042147066
0.02131881 -0.16756171 0.03402073 0.10645651 0.09806784 -0.05280421 0.19028619 -0.061050303
0.051043957 -0.08005811 -0.19243637 0.18512139 0.18842432 -0.16744353 -0.032429796 0.3011817
-0.10497819 0.18491209 -0.18523633 0.17154421 -0.061722297 0.2550359 0.0044830837 0.083143964
0.18660082 0.13798505 -0.047959108 0.040729392 0.020243578 -0.122798696 -0.12568593 -0.16074263
0.100576706 -0.088987984 -0.33072668 0.21395792 -0.1616834 -0.054498915 -0.031207198 -0.1569631
0.05011401 0.11115424 0.07187334 0.05959037 -0.02124636 0.104620196 0.15528305 -0.08346822
-0.008670156 0.11332434 -0.01816193 0.02688061 0.035518147 0.030030956 -0.023193588 -0.07520307
0.03184551 -0.015936898 -0.09658255 0.002475214 0.04709703 -0.059420284 0.10696041 -0.032431725
00000000: d7e3 bbbc 5e89 d8bd 8a8e 1c3e 702c 373d
00000010: d166 f5bd 25cb ec3d 3b07 473e f0df 9b3d
00000020: 6bcf 023e 1fb2 acbc 036f d1bd 1ff1 7cbc
00000030: 46ee ee3d 32f2 99bd 82fb 43be 648e 8b3c
00000040: c0dd 143e 2283 84bc 3800 c23d 3059 98bd
00000050: 1b72 3d3c 51d2 853d d0a8 a0bd 46fa e0bd
00000060: 7746 663d ac63 e83d c93d d8bb 45fd c53d
00000070: 48a9 493d 8f50 803d 8814 ff3d f868 d33c
00000080: f4c6 dbbc 8a6c 9fbd 00ea 23be 6dba 9a3d
00000090: 9007 203e d42a 59bc bb7e 293e c547 2a3d
000000a0: fa7b cebd e0be f23d 1444 6ebd d445 193e
000000b0: cf0a c93d d5d8 4bbe aafd 03bd abd6 9c3d
000000c0: 3851 a33d e3db 18bc 3250 193d 56bc cfbc
000000d0: 8ae9 083d 5b50 873c 9d14 e73d 25f0 cb3d
000000e0: c39c 67bd fbb6 06be 1767 133e 1ff9 4e36
000000f0: 9c79 72be 1538 3dbc 7315 b6bc 0dac b53c
00000100: 606f d7bc e24b 0dbe 2d59 63bd cdeb 593c
00000110: 3356 003e 1c97 c4bb 82b9 bfbc b1da e43d
00000120: 96c4 f3bd c5f1 19bd 8d13 58bd 5b51 8dbd
00000130: 9b87 c4bd fca1 c5bd ccbe 25be 35c3 ed3c
00000140: 7b15 21be d9b3 3dbe 1027 18bd 4cb8 f6bc
00000150: a613 d1bc 01a3 273d 81c3 5b3e 0905 f1bd
00000160: 567b 65be 335d dd3d 66c9 043e a53d 54bc
00000170: 7f39 883e f51e ea3c 3640 003d 20ee e63d
00000180: ae09 e1bd e9be 173e 32b5 86bd cb8a b43d
00000190: ff12 e2bd d4cd acbb 3666 493d c0e1 6cbe
000001a0: f15b 063e c502 813c 6018 e2bd 55a6 963a
000001b0: 1b35 33be 448d 5dbe 48fc 8d3e 5395 0a3e
000001c0: 854d 1cbe c411 a2bd ca28 e93c bca5 09be
000001d0: e483 8e3d 8b0d a33e e470 ddbb 3d29 3fbe
000001e0: 5aaf 09be 6399 f83d 2041 86bd e069 0d3d
000001f0: fe79 4bbc 12a4 d3bd 789d 7e3d 22fa 5a3d
00000200: d147 ae3d c0f4 e33d 12b0 6a3c d68d 9abd
00000210: f24c 833d 7a37 933c f908 50be f56b 93ba
00000220: f695 f4bd 8019 623e 811a 933d c7cf b4bd
00000230: 9f99 513d 2cd2 18be e740 96bd 16bc 143e
00000240: 9447 3d3e 8415 df3d 61ec 32be 188e 4a3d
00000250: 0141 183b f353 d6bd fc3e af3c 40ce b93d
00000260: 7de1 8abd 571f 94bd d2ee f6bd 6acf 05be
00000270: b2c4 4ebe 0be6 603c 6752 033e ad0a 06be
00000280: fcfa 513c d67c cdbd b439 31bc 4264 2f3b
00000290: f2be bbbd 8375 d9bc 1a44 4bbc 285e 5f3e
000002a0: da47 d9bd 3f28 033e a5fd 7cbd 5391 4a3d
000002b0: a3d2 4dbd 73b2 83bd 76bf 31bd 3f3d 333d
000002c0: 644d e23d 244b 38bd 0a55 38be c36e c7bc
000002d0: 3fbe b33d 09df 72bd e906 c3bd dd7b 5abd
000002e0: 8dd0 c43a 8d37 1e3e 8180 0f3e c031 9fbd
000002f0: a989 02bd 7b10 cbbd e02b 5b3e 67a2 2cbd
00000300: c9a4 ae3c 4c95 2bbe 5259 0b3d df05 da3d
00000310: cbd7 c83d 3a49 58bd 62da 423e e20f 7abd
00000320: 7813 513d 82f5 a3bd 0a0e 45be 7690 3d3e
00000330: 4ef2 403e 5176 2bbe 1bd5 04bd 7d34 9a3e
00000340: cefe d6bd 9859 3d3e 98ae 3dbe 49a9 2f3e
00000350: 85d0 7cbd 1194 823e d5e6 923b 6247 aa3d
00000360: 4914 3f3e f44b 0d3e c570 44bd ddd3 263d
00000370: dcd5 a53c e27d fbbd d0b3 00be b799 24be
00000380: 29fb cd3d 553f b6bd 0255 a9be c917 5b3e
00000390: 5590 25be 413a 5fbd 3da6 ffbc efba 20be
000003a0: 5944 4d3d d6a4 e33d 5432 933d 0815 743d
000003b0: d90c aebc 1d43 d63d 8502 1f3e 63f1 aabd
000003c0: 450d 0ebc 9716 e83d 54c8 94bc ba34 dc3c
000003d0: 7a7b 113d 7b03 f63c 7b00 bebc 1104 9abd
000003e0: 7070 023d 198e 82bc 12cd c5bd 3337 223b
000003f0: d1e8 403d af62 73bd 0f0e db3d 21d7 04bd

model.layers.0.channel.0.bias f4 [32]
-0.034246463 -0.17099509 -0.08213359 -0.11058738 0.096353814 -0.16364582 -0.029501684 -0.10234104
-0.22103731 -0.023861358 -0.03964947 -0.058908433 -0.03178057 0.11261527 -0.062271684 -0.17734005
-0.09371348 -0.110697865 -0.025600031 -0.11085891 0.084705114 -0.10898554 -0.045048732 0.07163303
-0.25018594 -0.06627562 -0.13277568 -0.062429298 0.0017506417 -0.06048292 -0.044729467 0.060889818
00000000: 0546 0cbd 5619 2fbe a835 a8bd a37b e2bd
00000010: 2655 c53d c592 27be 84ad f1bc 2e98 d1bd
00000020: 9b57 62be e578 c3bc 7c67 22bd f849 71bd
00000030: 582c 02bd d6a2 e63d 9810 7fbd a198 35be
00000040: daec bfbd 90b5 e2bd 28b7 d1bc ff09 e3bd
00000050: e079 ad3d d033 dfbd 0585 38bd 57b4 923d
00000060: 5f18 80be 83bb 87bd 59f6 07be ddb5 7fbd
00000070: ca75 e53a f0bc 77bd 3f36 37bd 9a67 793d

model.layers.0.channel.2.weight f4 [74, 32]
0.12210354 0.17779726 0.332015 0.030178018 -0.04946121 0.04208087 -0.07442672 0.0968061
0.10473488 0.021780586 0.004459424 0.0391813 -0.029559016 0.108888306 0.12141363 0.049206764
0.0076912143 -0.18529777 -0.12240497 0.07691856 -0.038220186 -0.074472874 -0.22902636 0.08815828
0.038061522 -0.12888527 -0.027495278 -0.038249627 0.07939578 0.07689999 -0.048318103 0.16053627
0.17718817 0.36319205 0.18027364 0.16461456 0.16153152 -0.08410709 -0.05268977 0.2090074
0.2231187 0.14997835 0.2281773 0.11261254 -0.039569676 0.07256991 0.14388043 0.110087916
0.03174617 -0.29324958 0.03286507 -0.10171356 -0.16382162 -0.19474305 0.04228267 -0.042794228
0.09348931 -0.08895398 -0.0022528323 -0.0370334 0.09181299 -0.085417315 0.018854503 -0.1569589
0.08571331 -0.19909178 -0.06687691 -0.2884717 -0.11066162 -0.036904607 0.11728526 0.0693964
0.03445939 0.087093964 -0.27097338 -0.09364385 0.07963829 -0.029773869 -0.0786794 -0.35516843
0.08170509 -0.062426202 0.16078523 0.11521159 0.05711958 0.17895815 -0.05083548 -0.057880376
-0.06684854 -0.060869128 0.10929968 0.014929115 -0.17957218 0.017103119 0.06673388 0.11899191
-0.033913493 -0.0038254256 0.0030222677 -0.0031958316 0.03455156 0.04004349 0.029785058 0.055191558
-0.05780686 0.05786407 -0.040165275 -0.094876096 -0.123576164 -0.06972014 0.09734626 -0.022950752
0.04501328 0.06734973 0.009687207 -0.1231797 0.03607355 0.08217752 -0.039263282 -0.038261253
-0.025610058 -0.0059879995 0.08308808 -0.037366316 -0.096288964 0.032933973 -0.070336476 -0.03606198
0.01291723 0.2669299 -0.04881113 0.071371585 0.04074312 0.07344685 -0.12435336 0.025693363
0.050710276 0.10079968 0.026218655 -0.2295639 -0.036840476 0.03478776 -0.08846634 0.070533186
-0.20904261 -0.15920766 -0.004139711 -0.02522734 -0.01857658 -0.096959054 -0.1776306 0.15931483
-0.055969212 -0.14350387 -0.12923776 -0.047443114 0.13460916 -0.19025238 0.039566956 -0.03990156
0.08280852 0.20897828 0.06725966 0.00017723642 0.0540657 0.12695387 0.056158043 -0.012555545
-0.23640655 0.15526305 0.1477955 -0.039654464 -0.118281856 -0.15187281 -0.14033963 -0.14029191
0.078509085 0.17570595 -0.03841966 0.16081437 -0.06479938 -0.061240096 -0.10856278 0.16431993
0.015944567 0.05048846 0.028553447 -0.13239162 -0.03762547 -0.13096966 0.021776197 -0.061220333
0.10745901 0.07400835 0.21260776 0.077131525 -0.07896117 -0.23872803 -0.08162707 -0.026473932
0.06843946 0.09980431 0.20811768 0.026374787 0.021220792 -0.22520094 -0.082028285 -0.063306846
-0.11612545 -0.14652455 -0.026509834 0.061299153 -0.09639272 -0.12309989 -0.09086571 0.20544346
0.09628622 0.0096200835 -0.095041715 0.033992838 0.04207746 -0.09055831 0.060502116 -0.111036114
0.21319604 0.08305056 0.20890798 0.07430005 0.12929547 -0.07101956 0.0004922401 0.015053106
0.23950201 0.044562917 0.024718741 0.1781614 -0.1535584 -0.055006348 -0.069549 -0.08648613
0.13402481 -0.16803652 -0.057392385 0.09007998 -0.14684923 -0.036997627 -0.08923838 0.09930533
0.0021117465 0.008147123 -0.051153798 0.17705427 0.1464868 0.05635569 -0.07287076 -0.10155509
00000000: 6c11 fa3d 7c10 363e dffd a93e e437 f73c
00000010: d697 4abd fe5c 2c3d 096d 98bd 4742 c63d
00000020: 3e7f d63d 336d b23c 5c20 923b 927c 203d
00000030: c025 f2bc d500 df3d b6a7 f83d 088d 493d
00000040: 9506 fc3b b3be 3dbe 75af fabd 7a87 9d3d
00000050: c58c 1cbd 3c85 98bd e385 6abe 548c b43d
00000060: 66e6 1b3d 80fa 03be c73d e1bc a4ab 1cbd
00000070: 419a a23d be7d 9d3d 34e9 45bd 9f63 243e
00000080: d170 353e 4ff4 b93e a799 383e b890 283e
00000090: 8568 253e 5740 acbd 3ad1 57bd 0906 563e
000000a0: 3a79 643e ed93 193e 4fa7 693e 67a1 e63d
000000b0: d013 22bd 889f 943d 6455 133e c675 e13d
000000c0: 4608 023d cf24 96be 869d 063d 334f d0bd
000000d0: dbc0 27be b96a 47be 9830 2d3d 0049 2fbd
000000e0: 5377 bf3d 812d b6bd 41a4 13bb 56b0 17bd
000000f0: 7308 bc3d 46ef aebd c274 9a3c d5b9 20be
00000100: 768a af3d b7de 4bbe c3f6 88bd 90b2 93be
00000110: 8fa2 e2bd 4929 17bd 4133 f03d b31f 8e3d
00000120: 4a25 0d3d 525e b23d 06bd 8abe 59c8 bfbd
00000130: 6619 a33d 54e8 f3bc aa22 a1bd a3d8 b5be
00000140: 0055 a73d 9eb2 7fbd e2a4 243e 0ef4 eb3d
00000150: 39f6 693d ce40 373e dd38 50bd f913 6dbd
00000160: e3e7 88bd e851 79bd 83d8 df3d 3f99 743c
00000170: c5e1 37be d71b 8c3c c6ab 883d 08b2 f33d
00000180: e0e8 0abd feb3 7abb 3d11 463b 2871 51bb
00000190: f085 0d3d a404 243d cbff f33c 8b10 623d
000001a0: e3c6 6cbd e002 6d3d 5884 24bd 664e c2bd
000001b0: 8015 fdbd 6fc9 8ebd 7a5d c73d 3703 bcbc
000001c0: d85f 383d a8ee 893d 17b7 1e3c a345 fcbd
000001d0: dcc1 133d b04c a83d 89d2 20bd d5b7 1cbd
000001e0: 2fcc d1bc fb36 c4bb 152a aa3d 6c0d 19bd
000001f0: 2633 c5bd c6e5 063d 920c 90bd bab5 13bd
00000200: caa2 533c 09ab 883e 2eee 47bd 442b 923d
00000210: 42e2 263d 4d6b 963d f9ac febd e37a d23c
00000220: 94b5 4f3d 1070 ce3d 81c8 d63c cd12 6bbe
00000230: 0ae6 16bd 9c7d 0e3d d72d b5bd b473 903d
00000240: 440f 56be 5507 23be 6aa6 87bb 91a9 cebc
00000250: e92d 98bc 7892 c6bd cce4 35be 6d23 233e
00000260: f93f 65bd aef2 12be e756 04be b653 42bd
00000270: fcd6 093e 85d1 42be f610 223d d16f 23bd
00000280: 8397 a93d 67fe 553e 6fbf 893d 8ad8 3939
00000290: ff73 5d3d 3200 023e fa05 663d c6b5 4dbc
000002a0: 8f14 72be 47fd 1e3e b457 173e b86c 22bd
000002b0: c23d f2bd 8c84 1bbe 31b5 0fbe afa8 0fbe
000002c0: 5fc9 a03d 43ec 333e ef5d 1dbd 86ac 243e
000002d0: 8ab5 84bd e5d6 7abd 2a56 debd 7c43 283e
000002e0: 2e9e 823c fdcc 4e3d ebe8 e93c ab91 07be
000002f0: 2a1d 1abd e91c 06be ff63 b23c 2cc2 7abd
00000300: 7813 dc3d b191 973d d9b5 593e 22f7 9d3d
00000310: 65b6 a1bd 1f75 74be 182c a7bd dcdf d8bc
00000320: fd29 8c3d 3466 cc3d cd1c 553e f00f d83c
00000330: 3ad7 ad3c 139b 66be 72fe a7bd 05a7 81bd
00000340: 2ed3 edbd 880a 16be 272b d9bc d214 7b3d
00000350: 8c69 c5bd cc1b fcbd cd17 babd c55f 523e
00000360: b631 c53d 8e9d 1d3c 3ba5 c2bd 133c 0b3d
00000370: 6a59 2c3d a376 b9bd 11d1 773d e766 e3bd
00000380: 1050 5a3e 6916 aa3d f9eb 553e a02a 983d
00000390: 0866 043e b472 91bd ad09 013a 4da1 763c
000003a0: 0440 753e 9b87 363d f57e ca3c f16f 363e
000003b0: 6a3e 1dbe 564e 61bd b56f 8ebd a41f b1bd
000003c0: cd3d 093e c411 2cbe 4714 6bbd da7b b83d
000003d0: a55f 16be d38a 17bd 9dc2 b6bd 9860 cb3d
000003e0: 3a65 0a3b 837b 053c a586 51bd b74d 353e
000003f0: a300 163e 39d5 663d 443d 95bd 1dfc cfbd

model.layers.0.channel.2.bias f4 [74]
-0.020448947 -0.009061439 0.10705149 0.05786883 0.018135725 -0.052709017 -0.018768389 -0.08332038
-0.11480333 0.07332395 -0.04818155 0.023976471 0.085334115 0.033124503 0.07180371 0.14364676
0.09787411 -0.087461464 0.16733381 -0.1503968 -0.038319923 -0.09254785 -0.12415877 -0.026007062
0.06436396 -0.071135364 -0.025292395 0.11734552 -0.028413521 0.14539488 0.0862417 0.090281844
0.046050128 0.048154045 0.030123146 0.04263582 0.026790306 -0.048626523 -0.062215164 -0.06722892
-0.11371563 -0.029225353 -0.11071682 0.09884684 -0.022084309 0.034845583 0.029969038 -0.11290903
-0.15533593 -0.122216776 -0.11907717 0.024767352 0.002017623 0.04496212 -0.1296325 0.07988372
-0.04223246 0.10026655 -0.022557313 0.01896859 0.024415527 0.009568841 0.001602365 0.10895262
-0.066778295 -0.07802087 -0.072598994 0.06854842 0.04798495 -0.066667855 -0.029056547 0.0877773
0.014668885 0.037929356
00000000: 8d84 a7bc 6e76 14bc d03d db3d de07 6d3d
00000010: 5f91 943c 69e5 57bd 2ac0 99bc e0a3 aabd
00000020: 021e ebbd de2a 963d 045a 45bd 4e6a c43c
00000030: a7c3 ae3d 8fad 073d d30d 933d 2318 133e
00000040: 3972 c83d ff1e b3bd 8e59 2b3e 9e01 1abe
00000050: 5af5 1cbd ba89 bdbd f446 febd c30c d5bc
00000060: 40d1 833d 6baf 91bd ff31 cfbc d952 f03d
00000070: 79c3 e8bc 65e2 143e 7d9f b03d b0e5 b83d
00000080: 0f9f 3c3d 2d3d 453d d1c4 f63c e6a2 2e3d
00000090: 5877 db3c 9b2c 47bd 54d5 7ebd 51af 89bd
000000a0: bde3 e8bd 026a efbc 80bf e2bd 3670 ca3d
000000b0: 27ea b4bc 3eba 0e3d a181 f53c d93c e7bd
000000c0: 6210 1fbe ca4c fabd bbde f3bd e7e4 ca3c
000000d0: 193a 043b 332a 383d 62be 04be 139a a33d
000000e0: f2fb 2cbd 8d58 cd3d 1dca b8bc 0464 9b3c
000000f0: 1203 c83c a1c6 1c3c 7306 d23a 8d22 df3d
00000100: 0fc3 88bd 68c9 9fbd c8ae 94bd 1d63 8c3d
00000110: de8b 443d 2889 88bd ff07 eebc 96c4 b33d
00000120: c355 703c d05b 1b3d

model.layers.1.temporal.0.weight f4 [32, 64]
0.07623272 -0.06356186 0.03709399 0.08475001 0.046071712 0.068282045 0.053517625 0.041071124
-0.09596089 0.03540158 0.062043242 0.05205015 -0.16048743 0.03698797 -0.05974657 -0.14851582
0.069105625 0.013090872 0.053242702 -0.18024524 -0.080558315 -0.11917627 -0.041002568 -0.026235323
0.14797118 -0.049682662 0.12750308 0.10021324 0.062394045 0.04570594 -0.09964749 -0.011292677
-0.16811967 -0.1825132 -0.2350676 0.028592708 -0.02748701 -0.049614154 0.001669791 0.14215644
-0.031243231 0.026639279 -0.008074391 0.04233138 -0.08882373 -0.08063022 0.094813794 -0.005671901
-0.07107463 -0.14849608 -0.013273172 0.11691451 -0.08396778 -0.11142145 0.07728634 -0.10365723
-0.04697188 0.11812444 -0.07579487 0.029466072 0.0715035 -0.00246779 0.07485111 0.30082425
-0.17314956 0.021036934 0.12940542 0.13642928 -6.3169055e-06 -0.14727268 -0.018417956 0.037922934
-0.0573109 -0.045235615 -0.019657308 -0.15110165 0.091789015 0.0010454251 -0.09156821 0.04888051
-0.15595958 0.013805401 -0.15537263 0.05739345 -0.077598676 0.03627811 0.12728478 0.15431891
-0.017184896 0.09386529 0.17744516 -0.025775744 -0.090539716 -0.1691907 -0.073499426 -0.09254734
-0.102575846 0.18801087 0.1436121 -0.043867495 -0.052950896 0.05306505 0.12369625 0.05434139
-0.07218964 -0.11926875 0.009001257 0.050911766 -0.07490561 -0.05474184 0.049961813 -0.04786361
-0.051238723 -0.011632348 0.109030604 -0.08351233 0.0019092095 -0.15238927 -0.10809469 0.018015765
-0.01777703 -0.018141301 0.09173836 -0.03623976 0.078998 0.08648439 -0.09872083 0.22660872
-0.17921174 -0.049131107 -0.11204859 -0.0442686 -0.070305355 0.043496862 -0.09328593 0.06775892
-0.040261336 0.051099192 -0.09614677 0.027631743 0.017155763 0.04949903 0.018164432 -0.038648654
-0.042249512 -0.019523554 0.0073330863 -0.09349746 0.054514527 -0.16645955 0.055738054 -0.07139328
0.011399698 0.02161447 -0.033743594 -0.0064747236 0.107906125 -0.09231495 -0.12792546 0.0050322185
-0.05582924 -0.009226199 0.19538431 0.090139315 0.0020365254 0.031676527 -0.08898707 -0.09038621
-0.0075304992 0.052037124 -0.02259692 -0.025521293 -0.13669086 0.021960061 0.058742702 -0.09354471
-0.066120915 -0.110814065 -0.13866009 -0.12809658 -0.11391759 0.01571167 0.035487395 0.058806673
-0.00863623 0.073437944 0.121634774 -0.029475497 -0.06355262 0.04767894 -0.11341751 0.2637276
0.03439736 0.032330904 -0.058531564 -0.08127743 -0.07943018 -0.09730388 0.02471686 -0.025814038
0.038918685 0.0062991967 -0.033351734 -0.051942647 -0.08991299 0.11022552 0.10289414 -0.07257274
-0.035431884 -0.077176586 -0.017314702 -0.014497518 -0.020596225 0.036385015 -0.06562926 -0.014926406
-0.061235722 -0.015602348 -0.046225656 -0.008260892 0.085603595 0.05136413 -0.12892309 -0.01177313
0.010765967 -0.008588269 0.024818098 -0.019469475 -0.053896483 0.07809383 -0.021907592 0.036305435
-0.008588874 -0.07082905 -0.022486378 0.1286667 0.08100971 0.114926815 -0.019240221 -0.06636352
0.080995545 0.016957004 -0.04517661 0.061540965 0.092154175 0.08715526 -0.038352065 0.09880281
-0.044620648 -0.033678807 -0.06305772 -0.15217198 -0.17873663 -0.06495933 -0.07030654 0.36009476
00000000: e61f 9c3d b82c 82bd deef 173d 6a91 ad3d
00000010: b1b5 3c3d 75d7 8b3d 4c35 5b3d 323a 283d
00000020: 2587 c4bd 3f01 113d 0e21 7e3d 8a32 553d
00000030: d156 24be b380 173d d2b8 74bd 8814 18be
00000040: 4087 8d3d 197b 563c 0515 5a3d 3592 38be
00000050: c2fb a4bd b012 f4bd 4ff2 27bd 76eb d6bc
00000060: c285 173e 0c80 4bbd 2b90 023e 993c cd3d
00000070: e690 7f3d 2736 3b3d fc13 ccbd ec04 39bc
00000080: 9027 2cbe bee4 3abe 90b5 70be 413b ea3c
00000090: 702c e1bc 3638 4bbd e3dc da3a 7591 113e
000000a0: cef1 ffbc 9e3a da3c 734a 04bc ab63 2d3d
000000b0: 37e9 b5bd 7521 a5bd bc2d c23d 5bdb b9bb
000000c0: 938f 91bd 5b0f 18be b877 59bc e070 ef3d
000000d0: 4df7 abbd ee30 e4bd 4d48 9e3d 3e4a d4bd
000000e0: 9665 40bd 3aeb f13d 573a 9bbd d562 f13c
000000f0: 6d70 923d a5ba 21bb 8a4b 993d a305 9a3e
00000100: 1e4e 31be a655 ac3c db82 043e 1eb4 0b3e
00000110: cef5 d3b6 a6ce 16be 41e1 96bc 1455 1b3d
00000120: d6be 6abd fb48 39bd 5d08 a1bc 64ba 1abe
00000130: e1fb bb3d a506 893a 1d88 bbbd ee36 483d
00000140: deb3 1fbe 0c30 623c 011a 1fbe 6515 6b3d
00000150: 0eec 9ebd 5b98 143d f156 023e c705 1e3e
00000160: 57c7 8cbc 723c c03d 2fb4 353e a727 d3bc
00000170: e36c b9bd 5440 2dbe de86 96bd 7689 bdbd
00000180: 4913 d2bd ec85 403e 0d0f 133e 67ae 33bd
00000190: 0ae3 58bd bd5a 593d 7654 fd3d 1495 5e3d
000001a0: 29d8 93bd 2d43 f4bd 027a 133c db88 503d
000001b0: 1d68 99bd fb38 60bd c2a4 4c3d a20c 44bd
000001c0: b2df 51bd 9b95 3ebc 704b df3d 8308 abbd
000001d0: 713e fa3a ef0b 1cbe c060 ddbd cc95 933c
000001e0: 22a1 91bc 119d 94bc 52e1 bb3d 2570 14bd
000001f0: b4c9 a13d ba1e b13d 262e cabd 1e0c 683e
00000200: 4883 37be b33d 49bd bb79 e5bd fe52 35bd
00000210: 41fc 8fbd c429 323d b20c bfbd 30c5 8a3d
00000220: 12e9 24bd 634d 513d 99e8 c4bd f75b e23c
00000230: 3e8a 8c3c 7fbf 4a3d 93cd 943c 0d4e 1ebd
00000240: d30d 2dbd dcef 9fbc 634a f03b 997b bfbd
00000250: a04a 5f3d 5f74 2abe 964d 643d a436 92bd
00000260: cdc5 3a3c d410 b13c b936 0abd eb29 d4bb
00000270: e3fd dc3d 9f0f bdbd e4fe 02be 4fe5 a43b
00000280: 33ad 64bd 7c29 17bc d312 483e f69a b83d
00000290: 3a77 053b 3fbf 013d da3e b6bd 681c b9bd
000002a0: 68c2 f6bb e124 553d 2d1d b9bc 0812 d1bc
000002b0: b0f8 0bbe 96e5 b33c 309c 703d 5e94 bfbd
000002c0: 676a 87bd 7cf2 e2bd e9fc 0dbe c02b 03be
000002d0: a04d e9bd c3b5 803c 3b5b 113d 44df 703d
000002e0: f97e 0dbc a266 963d a71b f93d 9976 f1bc
000002f0: e027 82bd fe4a 433d 7147 e8bd 4e07 873e
00000300: 3fe4 0c3d 696d 043d cbbe 6fbd c874 a6bd
00000310: 4aac a2bd 4247 c7bd 037b ca3c f677 d3bc
00000320: 3369 1f3d 7e69 ce3b d49b 08bd d0c1 54bd
00000330: 4d24 b8bd ebbd e13d 2aba d23d 04a1 94bd
00000340: 0621 11bd c20e 9ebd 90d7 8dbc ff86 6dbc
00000350: 6ab9 a8bc 7408 153d a268 86bd e28d 74bc
00000360: 4fd2 7abd fea0 7fbc 1d57 3dbd b158 07bc
00000370: f050 af3d 3263 523d 6a04 04be 16e4 40bc
00000380: bd63 303c d0b5 0cbc 534f cb3c 737e 9fbc
00000390: 8fc2 5cbd a8ef 9f3d 8d77 b3bc 02b5 143d
000003a0: 59b8 0cbc d20e 91bd 5a35 b8bc 34c1 033e
000003b0: 6be8 a53d c05e eb3d ab9d 9dbc 99e9 87bd
000003c0: fee0 a53d 6ae9 8a3c 1c0b 39bd 6112 7c3d
000003d0: 54bb bc3d 757e b23d 0e17 1dbd 2159 ca3d
000003e0: 24c4 36bd caf2 09bd 6824 81bd f9d2 1bbe
000003f0: bc06 37be 6609 85bd e0fc 8fbd 575e b83e

model.layers.1.temporal.0.bias f4 [32]
-0.04224105 -0.13116895 -0.01715359 0.11152191 0.09604321 -0.0434357 -0.034718923 0.0049148453
0.013606568 -0.26542354 -0.04567389 0.057537593 -0.0023754179 0.007252191 -0.11839545 0.003747285
-0.09947043 -0.14100656 0.017656233 -0.03200205 -0.32454774 0.041352596 -0.11913151 0.024091553
0.049008388 0.15862186 -0.12586853 0.13833421 -0.032454118 -0.012602467 -0.00016741536 -0.19456199
00000000: f404 2dbd 2751 06be b085 8cbc 9965 e43d
00000010: 4db2 c43d a2e9 31bd 6e35 0ebd b60c a13b
00000020: 15ee 5e3c 98e5 87be 8b14 3bbd 8aac 6b3d
00000030: e6ac 1bbb caa3 ed3b 5079 f2bd 0395 753b
00000040: 27b7 cbbd 0664 10be cea3 903c 9514 03bd
00000050: 1f2b a6be 5761 293d 39fb f3bd a65b c53c
00000060: 05bd 483d c56d 223e aee3 00be 7ca7 0d3e
00000070: 9cee 04bd 947a 4ebc 388c 2fb9 423b 47be
