experiments/Exp4/saved_models/tsmixer_benchmark_3.pt (torch, 730196 bytes, 30 tensors)

model.static_proj.weight f4 [64, 10]
0	0xbdc9cb92	-0.09853281
1	0x3e3f6589	0.18691076
2	0x3dd1bca4	0.102410585
3	0x3d509aaf	0.050928768
4	0xbe09fe44	-0.13475901
5	0x3df617a0	0.12016225
6	0x3de14410	0.1099931
7	0xbeb4037c	-0.35158908
8	0x3e415606	0.18880472
9	0xbd0f4be2	-0.034984477
10	0xbe146861	-0.14492942
11	0xbe1fbfb0	-0.15600467
12	0x3d4c435e	0.049868934
13	0xbd9f9ec6	-0.077939555
14	0x3d23f047	0.04002407
15	0xbd7b00a9	-0.061279926
16	0x3e6aa932	0.22916105
17	0x3e36784b	0.17819326
18	0xbd0641af	-0.032777485
19	0x3e7f5315	0.24934037
20	0xbe28b9be	-0.16477105
21	0xbe473b7f	-0.1945629
22	0x3c4f0bb9	0.012637072
23	0x3e7b7478	0.24556148
24	0x3d7558d7	0.059899177
25	0x3e3049b3	0.17215614
26	0xbcb69694	-0.022288598
27	0xbd867f1d	-0.06567214
28	0xbe8ee3bc	-0.27908123
29	0x3d916ce4	0.07100847
30	0xbd8a4c66	-0.06752853
31	0xbbc44f69	-0.0059909117
32	0x3e41648c	0.18886012
33	0x3d9c2a4c	0.07625255
34	0xbdcc4900	-0.09974861
35	0xbe91fc1b	-0.28512654
36	0x3d1d0e71	0.03834385
37	0xbe5d45e7	-0.21608697
38	0xbde8f4a8	-0.113747895
39	0x3e0a983b	0.13534634
40	0x3d8800aa	0.06640752
41	0xbe878ac8	-0.2647307
42	0x3e3c7d0c	0.18407077
43	0xbe1c5a8a	-0.15268913
44	0xbe921ff0	-0.2853999
45	0xbe54725c	-0.2074675
46	0xbc59a6f0	-0.01328443
47	0x3d8a0a1d	0.0674021
48	0xbe55940a	-0.20857254
49	0x3dbbf66d	0.09177861
50	0xbda5e788	-0.08100802
51	0xbe2f5267	-0.17121278
52	0x3e101d1d	0.14073606
53	0x3ba9808b	0.005172794
54	0xbe2bc557	-0.16774498
55	0x3e112b7a	0.14176741
56	0xbcad8641	-0.021182181
57	0xbc2724dc	-0.010201659
58	0xbdb74434	-0.089485556
59	0x3e0dc8d2	0.13846138
60	0x3e29bca7	0.16575871
61	0x3e2df4b3	0.16987877
62	0xbe4d7bca	-0.20066753
63	0xbe090ecf	-0.13384555
64	0x3e5639cd	0.20920487
65	0xbe2b26c8	-0.16714013
66	0xbda1a664	-0.078930646
67	0x3e48600f	0.19567893
68	0xbdc8e685	-0.09809593
69	0x3dca6288	0.098820746
70	0xbe53ed7c	-0.20696062
71	0x3e20f67c	0.15719026
72	0xbe71af7d	-0.236021
73	0x3e07fd3f	0.132802
74	0x3e10068f	0.14065002
75	0x3e416355	0.18885548
76	0x3cc5e61e	0.02415758
77	0x3d3c5a81	0.04598475
78	0xbe0d4169	-0.13794483
79	0xbca7c3a4	-0.02047903
80	0xbec0d83c	-0.37664974
81	0xbcd6eba5	-0.026235411
82	0xbd8d20f8	-0.06891054
83	0x3e393aac	0.18088788
84	0xbc930b50	-0.01794973
85	0x3e80e61a	0.25175554
86	0x3db63012	0.088958874
87	0xbe7631f2	-0.2404249
88	0xbe7a4992	-0.24442127
89	0xbe0f3482	-0.13984874
90	0xbe61e251	-0.22058989
91	0x3d316473	0.043308686
92	0x3e93700f	0.2879643
93	0xbe23b8dd	-0.15988488
94	0xbe846a0d	-0.2586216
95	0x3d1cbb13	0.038264345
96	0xbe2b2f96	-0.16717371
97	0xbe1cdb58	-0.15318048
98	0xbe46b2f7	-0.19404207
99	0x3e8872c8	0.2665007
100	0xbe08021d	-0.13282056
101	0xbcedc11a	-0.029022742
102	0xbe5b6f04	-0.21429068
103	0xbe283189	-0.16425146
104	0xbe8abf6b	-0.27099165
105	0xbda77ca3	-0.081780694
106	0x3d6edb71	0.058314744
107	0xbd62a2e9	-0.055331144
108	0xbe497a3f	-0.1967554
109	0xbdfdf26d	-0.12399755
110	0xbd58e5a6	-0.052953385
111	0xbe2c2d0b	-0.16814058
112	0x3eb2d5b4	0.34928668
113	0xbcf0f48d	-0.029413486
114	0x3d57d06f	0.052689012
115	0xbd45a622	-0.04825414
116	0xbe07d36c	-0.13264245
117	0x3d50a44c	0.050937936
118	0x3a547c53	0.0008105684
119	0x3e3b5b0e	0.18296453
120	0x3dc1c8f8	0.0946216
121	0xbd26c87c	-0.04071854
122	0xbe8b1cf1	-0.27170518
123	0x3e1cd93d	0.15317245
124	0x3dc1e48e	0.094674215
125	0x3e6a2b17	0.22868
126	0xbdd4129d	-0.10355113
127	0x3e50087b	0.20315735
128	0xbd8ebe32	-0.069698706
129	0xbdfb651a	-0.12275143
130	0x3e8c4009	0.27392605
131	0x3dd84215	0.10559479
132	0xbe9f33c3	-0.3109418
133	0x3e84025e	0.25783056
134	0x3e8b1795	0.2716643
135	0xbe124837	-0.1428536
136	0x3e6dc7ba	0.23220721
137	0xbd82ddb1	-0.063899405
138	0xbde0bed4	-0.109738976
139	0x3d38a764	0.04508151
140	0x3dfe68d6	0.124223396
141	0x3d366865	0.044533152
142	0x3c5a9889	0.013342031
143	0x3d3a4fdd	0.04548632
144	0xbe292283	-0.16517071
145	0xbdcb2e6e	-0.09920965
146	0xbe3073bf	-0.17231654
147	0xbdc64041	-0.09680224
148	0xbe730180	-0.23731041
149	0xbd327d23	-0.04357637
150	0x3e7238f7	0.23654543
151	0xbe0f07df	-0.13967846
152	0x3e5ae06e	0.21374676
153	0x3e76f6ee	0.24117634
154	0x3e2e4a11	0.17020442
155	0x3cfadf0c	0.030623935
156	0xbe688152	-0.22705582
157	0x3dc1c629	0.09461624
158	0x3e77ed4b	0.24211614
159	0x3d99f79b	0.0751793
160	0x3ca1e284	0.019761331
161	0xbda8e6ce	-0.082471475
162	0x3e4904be	0.19630715
163	0x3e0edc63	0.13951258
164	0x3e9fffd8	0.3124988
165	0x3cea487b	0.028599015
166	0x3d1a409a	0.037659265
167	0xbc581a4e	-0.013189865
168	0x3ea317f6	0.31854218
169	0xbeb37285	-0.3504831
170	0xbd4db9bb	-0.050225955
171	0xbcc59df3	-0.024123168
172	0x3e174602	0.147728
173	0x3e5138e4	0.20431858
174	0xbdb58fa7	-0.0886529
175	0x3e2a8e94	0.16655952
176	0x3b59f81c	0.0033259457
177	0x3da57f1f	0.08080887
178	0x3c2047fa	0.009782786
179	0x3e58758e	0.21138594
180	0xbe2a02f9	-0.16602696
181	0xbe447b11	-0.19187571
182	0x3e9d326d	0.30702534
183	0x3c908ba2	0.017644707
184	0x3c9adb47	0.018903388
185	0x3e744d49	0.23857607
186	0x3e18705d	0.14886613
187	0xbe6acd9b	-0.22929995
188	0x3e216854	0.15762454
189	0xbd588ce4	-0.05286874
190	0xbe41ff72	-0.18945101
191	0xbd7046c2	-0.05866123
192	0xbe19130c	-0.14948672
193	0x3d213fad	0.039367367
194	0x3e039b68	0.12852252
195	0xbdce6bb9	-0.1007914
196	0xbe83aa74	-0.25715983
197	0x3e961819	0.2931526
198	0xbe01c900	-0.12674332
199	0x3decafcb	0.11556967
200	0xbda42e6e	-0.08016668
201	0xbdb11afd	-0.08647726
202	0xbe3d01b5	-0.18457682
203	0xbe09e671	-0.13466813
204	0xbdbb6d40	-0.09151697
205	0xbdd6c7bf	-0.10487317
206	0x3e9e25f1	0.30888322
207	0x3e8f9d0e	0.2804951
208	0xbda38776	-0.079848215
209	0xbd13704b	-0.035995763
210	0xbe74d457	-0.23909126
211	0xbc9eeb53	-0.01939932
212	0xbd9c672f	-0.07636868
213	0xbdfe8d9f	-0.12429356
214	0xbe50e354	-0.20399219
215	0x3d104a25	0.03522696
216	0xbe399d36	-0.18126377
217	0x3e813ad4	0.25240195
218	0xbe29a728	-0.16567671
219	0x3a1857a8	0.00058114016
220	0x3d2d1583	0.042256843
221	0x3e3c2a6c	0.18375558
222	0xbd9e3e5c	-0.07726738
223	0x3e05fcb6	0.13084683
224	0x3e1acc68	0.15117037
225	0x3dc02032	0.09381141
226	0xbe08bb9e	-0.1335282
227	0xbdc6fcaf	-0.09716164
228	0xbe800c85	-0.25009552
229	0x3e154511	0.14577128
230	0x3c39eeaf	0.0113484105
231	0x3c408d46	0.011752432
232	0xbe67069a	-0.22561112
233	0x3eb421ab	0.35181937
234	0x3e6b1d1a	0.2296032
235	0x3e3add9f	0.18248604
236	0xbc2f8d12	-0.010714786
237	0xbd8ebab3	-0.06969204
238	0xbd9e069b	-0.07716104
239	0xbd83ad94	-0.06429592
240	0xbe305d18	-0.17223012
241	0xbe0725f0	-0.13198066
242	0x3daecaa2	0.08534743
243	0xbd5da77e	-0.05411481
244	0x3e522274	0.20520955
245	0x3d998c01	0.07497407
246	0xbc3e7149	-0.011623689
247	0x3e083c4d	0.13304253
248	0x3dd77bf9	0.10521693
249	0xbe445ee1	-0.19176818
250	0x3e0543ff	0.1301422
251	0x3db9bd2b	0.09069284
252	0x3e509819	0.2037052
253	0x3d6068fb	0.054787617
254	0xbe1ac592	-0.1511443
255	0x3cc12317	0.023576302

model.static_proj.bias f4 [64]
0	0xbe2df650	-0.16988492
1	0x3decbe17	0.11559694
2	0xbde81f39	-0.1133408
3	0x3e10e729	0.1415068
4	0x3e52505f	0.20538472
5	0xbe48b8d0	-0.1960175
6	0x3e81b61f	0.2533426
7	0x3e0e7b1d	0.13914151
8	0xbde0914c	-0.10965213
9	0x3d93384a	0.07188471
10	0x3e201f74	0.15636998
11	0x3d95ca7c	0.073140115
12	0xbe350745	-0.17678554
13	0xbde31815	-0.11088578
14	0xbe2a058c	-0.16603678
15	0xbe274868	-0.16336215
16	0x3d8664b7	0.065621786
17	0xbafbcb4c	-0.0019210367
18	0x3da7a374	0.08185473
19	0x3e6a44aa	0.22877756
20	0x3d175607	0.036947276
21	0xbce92625	-0.028460572
22	0x3d92df21	0.07171465
23	0x3e440fe0	0.19146681
24	0xbe42def3	-0.19030361
25	0x3c55d8ab	0.013052146
26	0xbd865f0f	-0.065611
27	0xbda6bfa1	-0.08142019
28	0x3e4f5b8c	0.20249766
29	0x3e9517b7	0.29119655
30	0x3e322ba9	0.17399468
31	0x3d82718c	0.063693136
32	0xbd21e4aa	-0.03952471
33	0xbe3d9ea4	-0.18517548
34	0xbddc7991	-0.107653745
35	0x3dd37578	0.1032514
36	0xbe334ec7	-0.1751052
37	0xbe29b7e5	-0.16574056
38	0xbe0afe0f	-0.13573478
39	0xbde2748f	-0.11057388
40	0xbe1eea44	-0.15519053
41	0x3e7c7c17	0.24656712
42	0xbd99d27a	-0.07510848
43	0x3df73b1f	0.12071823
44	0x3e0d4c8b	0.1379873
45	0xbdedbb0d	-0.11607943
46	0xbe0865d6	-0.13320097
47	0xbd2d9f24	-0.042388096
48	0x3e6ff72d	0.23434134
49	0x3d620749	0.05518273
50	0x3e71e2fe	0.23621747
51	0x3d57edd4	0.052717045
52	0x3e3b70b1	0.18304707
53	0x3e8aa217	0.2707679
54	0x3d8e5a7a	0.06950851
55	0xbe0a0b99	-0.13480987
56	0x3d5fac13	0.054607462
57	0x3cec4a30	0.02884397
58	0xbe31f141	-0.17377187
59	0x3db60ec5	0.08889536
60	0xbe38f789	-0.18063177
61	0x3d45a24a	0.048250474
62	0x3e83ee2d	0.2576765
63	0x3de0f4d4	0.10984197

model.layers.0.temporal.0.weight f4 [32, 64]
0	0xbe483d0c	-0.19554538
1	0x3dbec8d0	0.09315646
2	0x3db036f9	0.08604235
3	0xbdc8d10c	-0.098054975
4	0x3d8c1555	0.06840006
5	0x3d13ba9b	0.036066633
6	0x3e028f5a	0.12749997
7	0x3e2da15e	0.16956088
8	0x3debad2c	0.11507639
9	0xbd59fa8c	-0.053217456
10	0x3c5ae9cc	0.013361406
11	0xbb3d22e3	-0.0028859905
12	0xbdae57aa	-0.08512814
13	0xbd9ca830	-0.07649267
14	0x3e0a5993	0.13510732
15	0xbcadd118	-0.021217868
16	0xbcadba0f	-0.021206884
17	0xbcc310a7	-0.023811651
18	0x3de3247f	0.110909455
19	0xbcf03acf	-0.029324917
20	0xbd0d5e7e	-0.034513943
21	0xbbb3f119	-0.0054913876
22	0x3caeed55	0.021353403
23	0xbc54f9c6	-0.012999004
24	0x3df9b39e	0.121924624
25	0x3dfada1b	0.122486316
26	0xbd2aab56	-0.041667305
27	0xbb9536d5	-0.0045536556
28	0x3ddd5846	0.108078524
29	0xbdb35fbb	-0.087584935
30	0xbe019662	-0.12655023
31	0x3c41bf53	0.0118254
32	0xbd7829c9	-0.060586724
33	0x3d840a7e	0.06447314
34	0xbde9cb00	-0.11415672
35	0x3a77c58e	0.000945174
36	0x3dbffa21	0.0937388
37	0x3d4dcaa4	0.05024208
38	0x3e0018ba	0.12509432
39	0x3cdfc939	0.02731763
40	0x3d1d70f4	0.0384378
41	0x3cec9ed0	0.028884321
42	0xbcdc4211	-0.026886972
43	0xbb514e6e	-0.0031937617
44	0x3a21f627	0.0006178342
45	0x3d87e09d	0.066346385
46	0xbd824ced	-0.06362329
47	0xbd22cb36	-0.03974458
48	0xbdc72fcc	-0.097259134
49	0x3c8a17f1	0.01685712
50	0xbd93e79f	-0.072219126
51	0x3d93b4a3	0.07212188
52	0x3d499b0e	0.049220137
53	0xbd332f7f	-0.043746468
54	0xbd238f29	-0.03993145
55	0xbc5f5d6b	-0.013633112
56	0xbcdfa894	-0.027302064
57	0xbe041653	-0.12899141
58	0xbd0ee371	-0.034884874
59	0x3d81d43e	0.0633931
60	0x3c0bf7e1	0.008542986
61	0x3da6124e	0.0810896
62	0x3e43b67c	0.19112581
63	0xbe0307e5	-0.1279598
64	0xbdc1c74a	-0.094618395
65	0xbdfe5cce	-0.12420045
66	0xbdf51002	-0.11965944
67	0xbe058e7b	-0.13042633
68	0x3d574aef	0.052561697
69	0xbd955f4c	-0.07293567
70	0xbd6e4f56	-0.05818113
71	0xbd6e8c90	-0.05823952
72	0x3d8bc49f	0.06824612
73	0xbc88c22b	-0.016694149
74	0xbe3330e2	-0.17499116
75	0xbde784a7	-0.11304598
76	0x3dcb611b	0.09930631
77	0xbd01a3e6	-0.031650446
78	0xbd4047e3	-0.046943557
79	0x3d437170	0.047715604
80	0x3d962499	0.07331199
81	0xbc6b2dae	-0.014354153
82	0x3d842861	0.06453014
83	0x3ddb50dc	0.10708782
84	0x3da818f7	0.08207887
85	0xbd9a1593	-0.07523646
86	0x3d7adab6	0.061243735
87	0x3d1ddeb6	0.03854247
88	0xbd414207	-0.04718211
89	0x3da7587e	0.081711754
90	0x3dcc4f9b	0.09976121
91	0xbdeefbea	-0.116691425
92	0x3ceb70cf	0.028740315
93	0xbbc6e02a	-0.006069203
94	0xbd7d756a	-0.061879553
95	0x3d4efe92	0.050535746
96	0xbd8b4780	-0.06800747
97	0xbbd9332b	-0.006628414
98	0x3d747713	0.05968387
99	0x3d4bd115	0.049759943
100	0x3d02bbad	0.031917263
101	0x3dd48b5a	0.10378142
102	0x3d1d7590	0.038442194
103	0xbd95e858	-0.07319707
104	0xbdd7d6df	-0.1053903
105	0xbd36960f	-0.0445767
106	0xbd0a6a67	-0.03379288
107	0x3d888553	0.066660546
108	0xbd861126	-0.065462396
109	0x3c28d6b6	0.010305097
110	0xbd734ddd	-0.059400428
111	0xbd400bf8	-0.046886414
112	0xbc7ab16c	-0.01530109
113	0xbdb79984	-0.08964828
114	0xbe150541	-0.14552785
115	0x3d850017	0.06494158
116	0xbc7cecbe	-0.015437303
117	0x3b87d864	0.004145669
118	0x3c94c0c2	0.01815832
119	0xbd93b46d	-0.07212148
120	0x3d6d27a5	0.057899136
121	0x3d5efba3	0.0544392
122	0x3d10073d	0.035163153
123	0x3e097db5	0.1342686
124	0x3d50f096	0.05101069
125	0x3e837893	0.25677928
126	0x3da1994b	0.078905664
127	0xbe7f57ea	-0.2493588
128	0x3cc52eb1	0.024070116
129	0x3d71b3cb	0.059009355
130	0xbdede4e3	-0.11615922
131	0xbc941ff6	-0.018081646
132	0x3de2573a	0.110517934
133	0x3d8b8027	0.068115525
134	0x3da6f719	0.08152599
135	0xbdc0f7c5	-0.09422258
136	0x3d43c378	0.047793835
137	0xbc88d11a	-0.01670127
138	0x3dd067f7	0.1017608
139	0xbc883c85	-0.01663042
140	0x3d431fbe	0.047637694
141	0x3bd6de5f	0.0065572704
142	0xbddaec8e	-0.106896505
143	0xbc1c365c	-0.009534445
144	0xbd00f419	-0.03148279
145	0xbd174236	-0.036928378
146	0xbe0b4c51	-0.13603331
147	0x3c757bee	0.01498316
148	0x3d4e4797	0.050361242
149	0xbd4044b8	-0.046940535
150	0xbd8c1d0b	-0.06841477
151	0x3dd44f1a	0.1036665
152	0x3d666215	0.056245882
153	0x3d55b8dd	0.052178252
154	0x3d9b5cd4	0.07586065
155	0xbda92714	-0.08259407
156	0x3c91ec10	0.017812759
157	0x3d8fee27	0.07027846
158	0x3ddc7cf7	0.10766023
159	0x3cc765df	0.024340568
160	0x3d91248a	0.070870474
161	0xbd32db0d	-0.043665934
162	0xbdac2224	-0.08404949
163	0x3cb5b76d	0.02218219
164	0xbd5a8c66	-0.05335655
165	0xbdceb1c2	-0.10092498
166	0x3d8101d5	0.062991776
167	0xbb549409	-0.0032436869
168	0x3ceef287	0.02916838
169	0xbd280511	-0.041020457
170	0xbd53782e	-0.051628284
171	0x3dd3b8f9	0.10338015
172	0xbd96d2be	-0.07364415
173	0xbe0c7713	-0.13717298
174	0x3d2f5c2c	0.04281251
175	0xbdff67e4	-0.124709874
176	0x3ce25e0c	0.027632736
177	0x3b8085e2	0.00392221
178	0xbcdb04e7	-0.026735736
179	0xbd3c5f19	-0.04598913
180	0xbd97ddbd	-0.0741534
181	0xbc8aced5	-0.016944328
182	0xbdd6a462	-0.10480572
183	0xbdb387ca	-0.08766134
184	0xbd19aba9	-0.037517224
185	0xbc95d064	-0.018287845
186	0xbe242515	-0.1602977
187	0xbc13aeb0	-0.009013817
188	0xbd807f51	-0.06274284
189	0x3bdf383e	0.0068121245
190	0x3de4d946	0.11174254
191	0x3eb413e4	0.35171425
192	0xbc8cbe4c	-0.017180584
193	0x3de42422	0.11139704
194	0xbaff17df	-0.001946207
195	0x3dd0dfcd	0.101989366
196	0xbbcfcd66	-0.006341624
197	0x3d1a1eb5	0.03762694
198	0x3d55ffc9	0.05224589
199	0xbcd5fb06	-0.026120674
200	0x3d2e60fc	0.04257296
201	0xba2dcb90	-0.00066297594
202	0xbd82499f	-0.06361698
203	0xbd1f1141	-0.038834814
204	0x3d15721c	0.036485776
205	0xbc38b142	-0.01127273
206	0x3d057892	0.032585688
207	0xbdd67590	-0.10471642
208	0xbd2fc01c	-0.04290782
209	0xbdfbb4f2	-0.12290372
210	0x3c5a25ba	0.013314659
211	0xbcf3ffcc	-0.02978506
212	0x3de4c4f6	0.1117038
213	0x3d7f4731	0.062323753
214	0x3bc124a6	0.0058942614
215	0x3d36b556	0.04460653
216	0x3d767e6e	0.060179166
217	0x3d3be59e	0.045873277
218	0x3e091273	0.13385944
219	0x3d165f62	0.036712058
220	0x3d961517	0.07328241
221	0xbd939945	-0.07206968
222	0xbde06f87	-0.10958772
223	0xbdb05ce0	-0.086114645
224	0xbdb696c1	-0.08915473
225	0x3cea7bf0	0.028623551
226	0xbdbce886	-0.09224038
227	0xbdca5200	-0.098789215
228	0x3defd483	0.11710455
229	0x3dbf31c9	0.09335668
230	0x3cc24b84	0.02371765
231	0x3dc0e649	0.094189234
232	0x3da714cb	0.08158263
233	0xbda6dd90	-0.081477284
234	0x3c8d138d	0.017221237
235	0x3b8560ba	0.0040703686
236	0xbdc06a46	-0.0939527
237	0x3d3d7a9e	0.046259515
238	0xbdb9083a	-0.09034772
239	0xbd402213	-0.046907496
240	0xbd92e889	-0.07173259
241	0xbdd1f72f	-0.10252225
242	0xbdb3a6bd	-0.08772037
243	0xbd854da2	-0.06508948
244	0x3d47a93f	0.04874539
245	0xbdeefd65	-0.11669425
246	0xbccd36a9	-0.025050478
247	0xbc3942e7	-0.011307455
248	0xbd9d62ff	-0.07684898
249	0xbc46fa7b	-0.01214468
250	0x3da8b433	0.08237495
251	0x3c8625a5	0.016375372
252	0xbda6e571	-0.08149231
253	0x3c3737c8	0.011182733
254	0x3e0275d9	0.12740268
255	0x3f0b8409	0.54498345

model.layers.0.temporal.0.bias f4 [32]
0	0xbdcaa74f	-0.09895193
1	0xbe1bf4d5	-0.15230115
2	0x3d7fa3a4	0.06241192
3	0xbcc3ef00	-0.023917675
4	0xbe538c72	-0.20659044
5	0xbe35669a	-0.1771492
6	0xbea40db4	-0.32041705
7	0xbebccac2	-0.36873442
8	0xbe4764af	-0.19472001
9	0xbd3344b9	-0.04376671
10	0xbe818d2b	-0.25303015
11	0xbdf7aa16	-0.12092988
12	0xbdc3d639	-0.09562344
13	0x3d21afdb	0.03947435
14	0xbd3b7142	-0.045762308
15	0x3d581cb7	0.05276176
16	0xbe910a72	-0.28328282
17	0x3c997a92	0.018735204
18	0x3d4592aa	0.048235573
19	0xbe1d3ab3	-0.15354423
20	0xbbeba230	-0.007190965
21	0xbe25db6d	-0.16196986
22	0xbcc8c6d7	-0.024508877
23	0x3d126a73	0.03574605
24	0x3df78d6f	0.12087523
25	0x3de9ae28	0.11410171
26	0x3cae06aa	0.021243412
27	0x3d0e32e1	0.03471649
28	0x3da408c3	0.08009484
29	0xbdc9b8a1	-0.09849668
30	0xbdada2ad	-0.084782936
31	0xbe9d4da1	-0.3072329

model.layers.0.temporal.2.weight f4 [64, 32]
0	0x3cb700c1	0.022339227
1	0xbaefc580	-0.0018293113
2	0xbd7c31ff	-0.061571117
3	0xbdbbd6d8	-0.091718376
4	0x3cee5018	0.029090926
5	0x3dcb6baa	0.09932645
6	0x3d3b7868	0.045769125
7	0x3e3f8069	0.18701328
8	0x3bc0ed55	0.005887667
9	0x3d2e3fe8	0.042541414
10	0xbddef27a	-0.108860925
11	0x3e88b634	0.2670151
12	0x3c4658b1	0.012106107
13	0x3e5ebd07	0.21751796
14	0xbbac2a11	-0.005254038
15	0xbdf957fd	-0.121749856
16	0x3e87ab5d	0.26497927
17	0x3e870f0b	0.26378664
18	0xbcb9ddc9	-0.022688763
19	0xbc21495b	-0.009844149
20	0xbd24a2ab	-0.040194195
21	0x3ca83fa9	0.020538168
22	0xbd4730dc	-0.04863058
23	0xbe3b85fe	-0.18312833
24	0x3e006f04	0.12542349
25	0x3d71ea85	0.059061546
26	0xbe35bd17	-0.17747913
27	0xbe112fbf	-0.1417837
28	0xbde3669b	-0.11103555
29	0x3e481940	0.19540882
30	0xbdc094d3	-0.09403386
31	0xbd9466f4	-0.07246199
32	0xbe4b22ca	-0.1983749
33	0x3d8cea5c	0.06880638
34	0x3d0e03b5	0.034671504
35	0xbe5e771d	-0.21725126
36	0x3da25e09	0.07928092
37	0xbc937a39	-0.018002616
38	0xbdc0a7d8	-0.09407014
39	0x3e629602	0.22127536
40	0xbe97f754	-0.29680884
41	0xbe3a6a21	-0.18204547
42	0x3df2ebbd	0.1186137
43	0xbb818eaf	-0.003953777
44	0xbd4f1d34	-0.05056496
45	0x3dcb3fd5	0.09924284
46	0xbd20de70	-0.039274633
47	0x3e2431a1	0.16034557
48	0x3e21ac9e	0.15788504
49	0x3c304c87	0.010760433
50	0xbe643af8	-0.2228812
51	0x3e04d83f	0.12973116
52	0x3e390644	0.18068796
53	0x3e040177	0.12891184
54	0x3c75d2f5	0.015003909
55	0xbe0ca313	-0.13734083
56	0x3d238e8c	0.039930865
57	0xbd8ef354	-0.06980005
58	0x3c83e5d2	0.016100798
59	0x3e556910	0.2084086
60	0xbda77c88	-0.08178049
61	0x3da086f4	0.0783824
62	0xbcfd8f85	-0.030952225
63	0x3d5a1db0	0.05325097
64	0xbe4f44af	-0.20241044
65	0xbd9d2024	-0.07672146
66	0xbcc9b5d7	-0.02462284
67	0x3d520524	0.051274434
68	0x3e173861	0.147676
69	0x3e58d88d	0.21176358
70	0x3d2279fd	0.03966712
71	0x3dd3cf16	0.10342233
72	0xbef4edbc	-0.47837627
73	0x3d813c8e	0.06310378
74	0x3e55c548	0.20876038
75	0x3ce55945	0.027996669
76	0xbe0fcf93	-0.14044027
77	0x3cbe064f	0.023196368
78	0x3e5a5092	0.21319798
79	0xbd65ee57	-0.0561355
80	0x3b8e9a6d	0.004351905
81	0x3dc40fef	0.095733516
82	0xbe277f12	-0.16357067
83	0x3d8008f5	0.062517084
84	0x3d9c3c8f	0.07628738
85	0x3d8a3f59	0.06750364
86	0x3de70161	0.1127956
87	0x3d6c2430	0.0576517
88	0xbdb507ac	-0.08839354
89	0x3cbda2a7	0.023148848
90	0xbdd2de0f	-0.102962606
91	0xbd3bfcf8	-0.045895547
92	0x3e2863b8	0.1644429
93	0x3d173056	0.03691133
94	0x3c590900	0.013246775
95	0x3d88ab00	0.06673241
96	0xbde80c19	-0.113304324
97	0x3e787255	0.24262364
98	0xbd9b3176	-0.07577793
99	0xbe280f9f	-0.16412209
100	0x3cb09cdf	0.021559177
101	0xbd21fcd0	-0.03954774
102	0xba97c20a	-0.0011578214
103	0x3ebbe9a6	0.36701697
104	0xbe5a3ada	-0.21311513
105	0xbdec5da1	-0.11541296
106	0xbe352cd4	-0.17692882
107	0x3dc4312a	0.0957969
108	0x3e46e740	0.19424152
109	0x3cc926a0	0.02455455
110	0x3de1a48b	0.11017712
111	0x3db7114e	0.089388475
112	0x3d937ca1	0.072015055
113	0x3e266c71	0.16252305
114	0xbe262520	-0.162251
115	0x3e8facef	0.28061625
116	0xbde9f5ab	-0.114238106
117	0x3e1e748f	0.15474151
118	0x3c6c9f0d	0.014442218
119	0x3e1c5d64	0.1527
120	0x3deaf9f1	0.11473454
121	0xbe2e53b7	-0.17024122
122	0x3bf98162	0.0076143006
123	0x3dfa37cd	0.122176744
124	0xbc9b6551	-0.01896921
125	0xbd713d45	-0.05889632
126	0xbe1e7555	-0.15474446
127	0xbd4ca1d4	-0.04995902
128	0x3d324c77	0.043529954
129	0xbc254e52	-0.010089474
130	0xbe48c78d	-0.19607373
131	0xbdf58ec6	-0.119901225
132	0xbe334a41	-0.17508794
133	0x3d44a8d9	0.04801259
134	0xbe257c58	-0.16160715
135	0x3da028f3	0.078203104
136	0xbdb9f015	-0.09078995
137	0x3e2c46ea	0.16823927
138	0xbd6c74f3	-0.05772872
139	0x3e5a2032	0.21301344
140	0x3da07a82	0.078358665
141	0x3e6780ff	0.22607802
142	0x3d8e29ca	0.069415644
143	0x3dcc5602	0.09977342
144	0x3df9061e	0.1215937
145	0xbd6b28f4	-0.057412103
146	0x3d8df7e7	0.06932049
147	0x3e166386	0.14686403
148	0x3de2c8d8	0.11073464
149	0xbd8803d2	-0.06641354
150	0xbc2ce204	-0.010551933
151	0x3e5fc1f7	0.21851335
152	0xbcdd4554	-0.027010597
153	0xbda1376b	-0.07871898
154	0xbe08f7b8	-0.13375747
155	0x3c1e8078	0.009674184
156	0x3d8b3489	0.0679713
157	0xbb48be62	-0.0030631055
158	0xbd098406	-0.033573173
159	0x3e298919	0.16556205
160	0xbe0754a4	-0.13215882
161	0x3deea74e	0.116530046
162	0x3cc3607f	0.023849724
163	0xbdc460d6	-0.095887825
164	0xbcd05a99	-0.025433825
165	0x3da7740f	0.08176433
166	0xbdaf07d9	-0.08546419
167	0x3d3b9fab	0.045806568
168	0x3dcce5d7	0.10004776
169	0xbbcf8667	-0.0063331607
170	0xbe689dd0	-0.2271645
171	0x3d7b3377	0.061328378
172	0x3d84d748	0.06486374
173	0x3e8095a9	0.25114182
174	0xbc3ce1fe	-0.01152849
175	0x3bac4345	0.0052570426
176	0xbc9efe3b	-0.019408336
177	0xbd53c57a	-0.051702
178	0x3e4f6be2	0.20255998
179	0x3d964eca	0.073392466
180	0xbe436a11	-0.1908343
181	0x3d0399c0	0.03212905
182	0xbdaa8fb7	-0.08328193
183	0xbe02465b	-0.12722151
184	0x3c95b3a4	0.018274136
185	0x3e47a41b	0.19496195
186	0xbd62f077	-0.055405106
187	0x3dce3429	0.100685425
188	0x3dac5d1d	0.084161974
189	0x3d0517bd	0.03249334
190	0xbe4c874e	-0.1997349
191	0xbdd50be7	-0.10402661
192	0xbe22defc	-0.15905374
193	0x3e3c5c7a	0.18394652
194	0x3d620980	0.05518484
195	0x3d94fd77	0.07274907
196	0x3d61332f	0.054980453
197	0xbd4b8868	-0.049690634
198	0xb826899c	-3.9705643e-05
199	0x3e0a78fe	0.13522717
200	0xbe1b342e	-0.15156624
201	0xbe410d46	-0.1885272
202	0x3e80fa42	0.25190932
203	0x3d28ebee	0.041240625
204	0x3c51be83	0.012801769
205	0xbdb2f7b4	-0.08738652
206	0xbe151cc8	-0.1456176
207	0xbde1276d	-0.10993848
208	0x3e055250	0.13019681
209	0xbd058eeb	-0.032607
210	0xbe128473	-0.14308338
211	0x3e88ecf9	0.26743296
212	0xbe3870a3	-0.18011717
213	0xbd8152b7	-0.06314605
214	0x3d97555b	0.07389327
215	0xbe397b87	-0.18113528
216	0xbe04ff0b	-0.12987916
217	0x3e18a48e	0.14906523
218	0x3d7692e8	0.060198694
219	0xbc3a5ff9	-0.011375421
220	0xbd56ac5e	-0.052410476
221	0x3d1de583	0.038548958
222	0x3d071394	0.032977656
223	0x3e07a956	0.1324819
224	0xbd086a9a	-0.03330479
225	0xbd959bb3	-0.07305088
226	0xbd5102ad	-0.051027942
227	0xbb9a5836	-0.0047102226
228	0x3e0bd042	0.13653663
229	0x3d83384a	0.06407221
230	0xbe062532	-0.13100126
231	0x3ca4efa2	0.020133797
232	0xba4607b8	-0.0007554251
233	0x3e19a37d	0.15003772
234	0xbb5e4c2a	-0.003391991
235	0x3d8a46d0	0.06751788
236	0x3d16ae4d	0.03678732
237	0xbd2be8d9	-0.041970108
238	0x3e2cd9fc	0.1688003
239	0xbd213bae	-0.039363556
240	0x3d4909dc	0.04908167
241	0x3ddf3d8c	0.10900411
242	0x3c045868	0.008077718
243	0x3e651183	0.22369961
244	0x3ce96d0c	0.02849438
245	0x3d3876bd	0.045035113
246	0x3db07e86	0.086178824
247	0xbeb38d50	-0.3506875
248	0xbe419745	-0.18905361
249	0x3d8fabe0	0.070152044
250	0x3da96315	0.082708515
251	0xbea63c93	-0.3246809
252	0xbd30231f	-0.043002244
253	0xbe880191	-0.26563695
254	0x3d174ba4	0.03693737
255	0xbaf6e7a0	-0.001883734

model.layers.0.temporal.2.bias f4 [64]
0	0x3d8001f0	0.062503695
1	0x3d03bc47	0.032161977
2	0x3be9266b	0.0071151755
3	0xbc5c15ad	-0.013432902
4	0xbd8562e7	-0.06513005
5	0xbd3aa4fa	-0.04556749
6	0x3d34a125	0.044098992
7	0x3d472a6d	0.048624445
8	0xbca9a63c	-0.02070915
9	0xbd01dd45	-0.03170516
10	0xbc7eff6d	-0.015563828
11	0xbd8ab019	-0.06771869
12	0x3cd30ea9	0.025763826
13	0x3d9aa7a5	0.07551507
14	0xbd3e31f2	-0.04643435
15	0x3cd90f79	0.026496636
16	0x3d9b7112	0.07589926
17	0x3c04c378	0.008103244
18	0x3c9ff370	0.01952526
19	0x3e2dfb6f	0.16990446
20	0x3d8bd168	0.068270504
21	0x3dabf806	0.08396916
22	0x3d4c0dee	0.049817972
23	0x3dcf3ee0	0.10119414
24	0x3dae466c	0.08509526
25	0x3c9b5bd5	0.018964687
26	0xbcaf6838	-0.021412
27	0x3d5898e9	0.0528802
28	0x3e02e7c1	0.1278372
29	0xbd45df7d	-0.04830884
30	0xbd25b2ed	-0.04045384
31	0x3df222ea	0.118230656
32	0x3cb075e5	0.021540591
33	0x3de44d07	0.11147504
34	0x3db1c17d	0.08679483
35	0x3b853c2b	0.0040660105
36	0xbc8f22c1	-0.017472627
37	0x3d745d05	0.059659023
38	0x3d4109a7	0.047128346
39	0x3d2528dd	0.040322173
40	0xbd1b03ba	-0.03784535
41	0x3d2ad25e	0.041704528
42	0x3caaf0fc	0.020866863
43	0x3d24e737	0.040259566
44	0x3d61568e	0.055014186
45	0x3bf52382	0.0074810395
46	0x3d931e15	0.07183472
47	0xbb9505d1	-0.0045478125
48	0xbc981fa5	-0.018569777
49	0xbd139935	-0.03603478
50	0xbb5c7911	-0.0033641497
51	0xbcaf949c	-0.021433167
52	0x3d0586e6	0.032599352
53	0x3d191a3e	0.037378542
54	0xbd73db86	-0.059535526
55	0xbd038a0d	-0.032114077
56	0xbd860539	-0.06543965
57	0xbde120d1	-0.10992587
58	0x3d708a01	0.05872536
59	0x3dc80cae	0.097680435
60	0xbc242ec0	-0.010020912
61	0xbd84045d	-0.06446145
62	0xbd82bd03	-0.063837074
63	0xbcdc865b	-0.026919534

model.layers.0.channel.0.weight f4 [32, 74]
0	0x3dfb0125	0.12256078
1	0xbd2991c9	-0.041398797
2	0xbd893880	-0.0670023
3	0xbda48489	-0.080330916
4	0xbcd6d227	-0.026223255
5	0xbe4af02c	-0.19818181
6	0x3e0183ca	0.1264793
7	0x3d24908c	0.040176913
8	0x3dfa8707	0.12232786
9	0x3e03b89e	0.12863395
10	0x3d956d80	0.07296276
11	0x3e59b5fd	0.2126083
12	0xbc7a5d9a	-0.015281105
13	0xbdf2e0d3	-0.11859288
14	0xbdcf2f10	-0.10116398
15	0x3d01a158	0.03164801
16	0xbdb71c2f	-0.089409225
17	0xbc9970c1	-0.018730523
18	0xbddf19f5	-0.10893623
19	0x3de9d7c8	0.1141811
20	0xbe149baa	-0.14512506
21	0x3da3ac6b	0.079918705
22	0x3dc2e922	0.09517123
23	0x3dc18ef6	0.09451096
24	0xbd79beec	-0.060973093
25	0x3cb39cd6	0.021925371
26	0xbe728b1a	-0.23685876
27	0x3e0c4213	0.1369708
28	0x3d66484e	0.0562213
29	0xbd469186	-0.048478626
30	0x3d7983e2	0.06091679
31	0xbe1ac0c4	-0.15112597
32	0xbd74a1b1	-0.059724513
33	0xbddfe9a9	-0.10933239
34	0x3d908334	0.07056275
35	0xbc1141d6	-0.008865794
36	0xbdcd0979	-0.100115724
37	0xbcfabc1c	-0.030607276
38	0xbe487cdd	-0.19578882
39	0xbdbc2783	-0.09187224
40	0xbc3a27b3	-0.011362004
41	0x3d58387c	0.052788243
42	0x3d995080	0.07486057
43	0xbe10652f	-0.14101098
44	0x3cf67cfc	0.030088894
45	0x39ba7ddd	0.0003557046
46	0xbb725051	-0.0036974142
47	0x3cfdb343	0.030969268
48	0xbd853982	-0.06505109
49	0xbd20ab67	-0.039225962
50	0x3d007dbb	0.031369906
51	0x3e394331	0.18092038
52	0xba47b288	-0.0007617851
53	0x3c09c81a	0.008409524
54	0x3e2dc991	0.16971423
55	0xbd76531c	-0.060137853
56	0xbe01bd20	-0.12669802
57	0x3e008be9	0.12553371
58	0x3e1aa283	0.15101056
59	0xbdcf96ab	-0.101361595
60	0xbde6d191	-0.1127044
61	0xbdebf50a	-0.11521347
62	0xbe5ba373	-0.2144907
63	0xbd1b5ba1	-0.03792918
64	0xbe6a7a19	-0.22898139
65	0x3da9e57f	0.08295726
66	0xbd550d43	-0.0520146
67	0xbcb73cff	-0.022367952
68	0x3def1374	0.11673632
69	0x3e2ef077	0.17083918
70	0x3c978fd4	0.0185012
71	0x3d249779	0.040183518
72	0x3be376a1	0.006941632
73	0x3cb9d06e	0.022682395
74	0xbdc80679	-0.097668596
75	0x3d03b618	0.03215608
76	0xbdf3fa75	-0.11913005
77	0xbd90ed36	-0.070764944
78	0xbdf4ee75	-0.119595446
79	0x3cb7cb7c	0.022435896
80	0xbda19585	-0.07889847
81	0xbd9c1777	-0.07621663
82	0xbdb95888	-0.09050089
83	0xbda13e63	-0.078732274
84	0x3d596271	0.053072397
85	0x3d57f38d	0.052722502
86	0x3da9dc2c	0.082939476
87	0x3c0af100	0.00848031
88	0xbc72dd14	-0.014823217
89	0xbdae85b8	-0.085215986
90	0x3c841e2d	0.01612767
91	0x3d3e53bc	0.046466574
92	0xbdba3c44	-0.09093526
93	0x3ddfa683	0.109204315
94	0xbd8531e5	-0.06503657
95	0x3d6dab86	0.058024906
96	0xbe212ed6	-0.15740523
97	0x3e0a696a	0.13516775
98	0xbe020836	-0.12698445
99	0xbdcc0aaf	-0.09962975
100	0xbe1f0286	-0.15528306
101	0x3da88a8f	0.08229553
102	0xbdba4e24	-0.090969354
103	0x3ba42717	0.0050095427
104	0x3de3754f	0.11106359
105	0x3cdb8fc7	0.026801957
106	0xbb849748	-0.0040463544
107	0xbcbe8a56	-0.023259323
108	0x3c164df7	0.009173862
109	0x3d7fcc98	0.062450975
110	0xbe568188	-0.2094785
111	0xbe145710	-0.14486337
112	0xbd8495b7	-0.06473868
113	0xbe7fcf53	-0.24981432
114	0x3e699101	0.22809221
115	0x3d77a577	0.060460534
116	0x3dc9905c	0.098419875
117	0xbe073217	-0.13202702
118	0xbccda004	-0.025100715
119	0xbe29186b	-0.16513221
120	0xbde5794a	-0.11204775
121	0xbd5e0025	-0.054199357
122	0xbc31892b	-0.010835926
123	0xbde8c705	-0.11366085
124	0x3ddcf59b	0.10789033
125	0x3e23efa1	0.1600938
126	0xbd25e58f	-0.040502127
127	0xbdf65a77	-0.120289735
128	0x3d978bd6	0.073997185
129	0xbe0191b2	-0.12653235
130	0xbe2713a9	-0.16316094
131	0xbd771f88	-0.060332805
132	0x3d7b9aa1	0.061426762
133	0x3d9b814b	0.0759302
134	0xbe1160e3	-0.14197116
135	0xbe7d8c6f	-0.24760602
136	0xbe594562	-0.21217874
137	0x3c8418fd	0.016125197
138	0xbe6aefc0	-0.2294302
139	0xbd50bed1	-0.050963227
140	0xbd8bbb6b	-0.068228565
141	0xbea856ae	-0.3287863
142	0x3cc6ebc2	0.02428234
143	0xbb9235df	-0.0044619883
144	0x3ccc7864	0.02495975
145	0x3e053217	0.13007389
146	0x3e00479c	0.12527317
147	0x3e1363f7	0.14393602
148	0xbe6c3839	-0.23068322
149	0xbe2bfdb6	-0.16796002
150	0x3caa5527	0.020792557
151	0x3cff9357	0.031198187
152	0x3c31aa77	0.010843865
153	0xbc16a4b4	-0.009194542
154	0xbdc1d9a0	-0.09465337
155	0xbb348d97	-0.0027550214
156	0xbdc3e8be	-0.095658764
157	0xbde2a8fa	-0.11067386
158	0x3c049160	0.008091301
159	0xbba02ee8	-0.004888404
160	0xbe5074c5	-0.20357044
161	0xbcfcd1e0	-0.030861795
162	0x3cd93ed4	0.026519217
163	0x3c136096	0.008995196
164	0x3d61de12	0.055143423
165	0xbdd40a02	-0.10353471
166	0xbcb87afc	-0.022519581
167	0xbd377dcc	-0.044797704
168	0x3ceab44c	0.028650425
169	0xbd2dcf4f	-0.042434033
170	0x3dd17014	0.10226455
171	0x3d8f96be	0.07011174
172	0xbd7041d8	-0.058656543
173	0xbd3077a3	-0.043082844
174	0x3c9f5cbd	0.0194534
175	0x3d991db4	0.074763685
176	0xbe042e17	-0.12908207
177	0xbd2bf12c	-0.041978046
178	0x3e106512	0.14101055
179	0x3d8fa5f3	0.07014074
180	0xbdbcd19b	-0.092196666
181	0xbe437e1d	-0.19091077
182	0xbdb18199	-0.08667297
183	0x3d9a08cb	0.075212084
184	0x3e1ac049	0.15112413
185	0xbc35779b	-0.011075879
186	0x3daa6aea	0.083211735
187	0x3e121e15	0.14269288
188	0xbda368cf	-0.07978975
189	0x3dd00ea0	0.101590395
190	0x3c90d9b8	0.017681941
191	0x3c779364	0.015110824
192	0x3dc12042	0.09429981
193	0xbdf3add7	-0.11898392
194	0x3e1c7860	0.15280294
195	0x3e39c939	0.18143167
196	0x3d893eb2	0.06701411
197	0x3b07af05	0.0020703685
198	0x3b93218f	0.0044900845
199	0xbdbe989c	-0.09306452
200	0xbc839970	-0.016064376
201	0x3e0f229a	0.13978043
202	0xbe52a4ef	-0.2057073
203	0xbc1392da	-0.00900718
204	0xbd2b3c5b	-0.041805606
205	0x3e183585	0.14864166
206	0x3ccea742	0.02522624
207	0xbde7e2a3	-0.113225244
208	0x3dfd927c	0.12381455
209	0xbce5d33b	-0.028054824
210	0x3b4c105d	0.0031137683
211	0xbd50849c	-0.050907716
212	0xbd27618c	-0.040864512
213	0xbde539cd	-0.11192665
214	0x3de6b039	0.112640806
215	0x3dcf78f9	0.101304956
216	0xbc60b8e0	-0.013715953
217	0xbd10805f	-0.035278674
218	0x3d49c51c	0.049260244
219	0xbd29ddf2	-0.04147143
220	0xbcdca2c4	-0.026933081
221	0x3c8a9ec0	0.016921401
222	0x3c8c36e2	0.017116014
223	0xbd1a3dac	-0.03765647
224	0xbdbc2b3e	-0.09187935
225	0xbe203190	-0.15643907
226	0x3df7aebd	0.120938756
227	0x3c8284e3	0.015932506
228	0x3c82b5f7	0.015955908
229	0xbd7ce991	-0.061746184
230	0xbe03da8f	-0.12876342
231	0xbd4a22b4	-0.0493495
232	0xbcd0514f	-0.025429396
233	0xbe3c86d8	-0.18410814
234	0x3d8feff4	0.07028189
235	0x3d9cbe82	0.07653524
236	0xbd4c8604	-0.049932495
237	0x3e03dff3	0.12878399
238	0xbde90605	-0.11378101
239	0x3e24eb59	0.16105403
240	0x3e66b1d9	0.22528781
241	0x3e33ce65	0.17559202
242	0x3d1cde0e	0.038297705
243	0xbe02ddd4	-0.12779933
244	0x3e57f66a	0.21090093
245	0xbe5872ba	-0.21137515
246	0x3dfe4d5a	0.124170974
247	0xbd4fc612	-0.050726004
248	0x3d0089b0	0.03138131
249	0x3e33a30b	0.17542665
250	0x3c011f74	0.007881034
251	0x3d49f7aa	0.049308456
252	0xbdbe00db	-0.09277507
253	0x3d59fad7	0.053217735
254	0x3ddd32d2	0.10800709
255	0xbd33a71b	-0.043860536

model.layers.0.channel.0.bias f4 [32]
0	0xbde36625	-0.11103467
1	0xbd1d1b70	-0.038356245
2	0xbdc11eec	-0.09429726
3	0xbdf6b981	-0.12047101
4	0xbe247958	-0.16061914
5	0xbe264329	-0.16236557
6	0xbd8453ce	-0.06461297
7	0xbbebd398	-0.007196855
8	0xbe10a3eb	-0.1412503
9	0xbc19f7b2	-0.009397434
10	0xbd85ed95	-0.06539456
11	0x3c8ff0d4	0.01757089
12	0xbe0da055	-0.13830693
13	0xbdf005ba	-0.11719842
14	0xbdeec51d	-0.1165869
15	0xbdb3f41d	-0.08786795
16	0xbddd9f4d	-0.108214
17	0x3c9c0db7	0.019049508
18	0x3dd691e3	0.104770444
19	0x3d31f885	0.043449897
20	0xbe034dd6	-0.12822661
21	0xbe0aaa8b	-0.1354162
22	0xbda29132	-0.0793785
23	0xbdcc4f6c	-0.09976086
24	0x3d82b607	0.06382375
25	0xbe176d9c	-0.14787906
26	0x3ca39142	0.019966725
27	0xbdf6482e	-0.12025486
28	0x3d3631cc	0.044481084
29	0x3cab69df	0.020924507
30	0xbe0954aa	-0.13411203
31	0xbddb9e8e	-0.10723601

model.layers.0.channel.2.weight f4 [74, 32]
0	0xbd9d1a2f	-0.0767101
1	0xbcaccd1f	-0.021093903
2	0xbd0f9eec	-0.03506367
3	0xbe0dad8c	-0.13835734
4	0x3da2e316	0.079534695
5	0x3e5eb90c	0.21750277
6	0xbe6a21b6	-0.22864422
7	0xbe1718eb	-0.14755599
8	0xbd034c9b	-0.03205548
9	0x3cf3dcea	0.029768426
10	0xbcfbb38c	-0.030725263
11	0x3e1325c1	0.1436987
12	0xbc49e66e	-0.012323005
13	0x3cdab596	0.026697915
14	0x3c799041	0.015232147
15	0x3c63806b	0.013885598
16	0xbe0479cf	-0.12937091
17	0xbdee4ae9	-0.11635382
18	0x3dad02a6	0.08447771
19	0x3dad1de8	0.0845297
20	0x3e924b51	0.28573087
21	0xbd9d8494	-0.07691303
22	0x3d6e551c	0.058186635
23	0xbeb2017b	-0.34766755
24	0xbd66f2b8	-0.05638382
25	0xbd90c23a	-0.07068296
26	0x3d1c495e	0.038155906
27	0x3e2c3702	0.16817859
28	0x3dd9f458	0.10642308
29	0x3be562ed	0.0070003183
30	0xbe0d33f8	-0.13789356
31	0x3d898c27	0.06716185
32	0xbe994dcd	-0.2994217
33	0xbd939170	-0.072054744
34	0x3e5694d5	0.20955212
35	0x3cfc5301	0.030801298
36	0x3e011406	0.12605295
37	0x3dcb9535	0.09940568
38	0xbb868efc	-0.0041064005
39	0xbe2f02bc	-0.17090887
40	0xbba54ee7	-0.0050448063
41	0xbc829ae4	-0.015942998
42	0xbc8cbb0a	-0.01717903
43	0xbd709d2e	-0.05874365
44	0x3de280c2	0.11059715
45	0x3e021a43	0.1270533
46	0x3e079462	0.13240197
47	0xbdc4ecb1	-0.09615458
48	0xbca095eb	-0.019602736
49	0xbdc388ec	-0.095476
50	0x3e20eb80	0.15714836
51	0xbe8b0a84	-0.2715646
52	0x3e8e89d2	0.27839524
53	0x3d8cd85d	0.068772055
54	0x3e92ab76	0.2864644
55	0xbea11b8c	-0.3146633
56	0xbc30f5b5	-0.010800769
57	0xbd875a76	-0.06609051
58	0x3db1041d	0.08643363
59	0x3e13fffc	0.14453119
60	0x3e1730c3	0.14764695
61	0xbcb128f2	-0.02162597
62	0x3e0e8ac8	0.13920128
63	0x3e793232	0.24335554
64	0x3e2056d6	0.15658125
65	0xbca00761	-0.019534769
66	0xbe231e3f	-0.15929507
67	0xbe848761	-0.25884536
68	0x3d53cdc1	0.051709894
69	0x3d2133ca	0.03935603
70	0xbe2b2de1	-0.1671672
71	0x3d200f9c	0.039077386
72	0xbd050e7c	-0.032484517
73	0xbd4092d3	-0.047015022
74	0xbd8e4381	-0.06946469
75	0xbde68862	-0.11256482
76	0x3e4b2876	0.19839653
77	0x3d2143d1	0.039371315
78	0xbe9f7aeb	-0.31148466
79	0x3def6ea7	0.11691027
80	0x3c4d61b9	0.012535506
81	0xbe8b66bf	-0.27226827
82	0xbe0b582f	-0.13607858
83	0xbde39add	-0.11113522
84	0x3d2bbb69	0.041926775
85	0x3cda3422	0.026636187
86	0xbd12da62	-0.035852797
87	0x3cd51da2	0.026015107
88	0xbe0174f4	-0.1264227
89	0x3e280ecc	0.16411895
90	0xbe6a6bfb	-0.22892754
91	0xbd6b9d8e	-0.057523303
92	0xbe1b8faa	-0.15191522
93	0x3d91c697	0.07117956
94	0x3d61e123	0.055146348
95	0xbddf7c08	-0.10912329
96	0xbb31a021	-0.00271035
97	0x3d1647ae	0.036689453
98	0x3db2b2f1	0.087255366
99	0xbce6c6ba	-0.028170932
100	0x3d86f7c4	0.06590226
101	0xbdba2583	-0.09089186
102	0xbc125fed	-0.008934003
103	0x3d8a018e	0.06738578
104	0xbb7cdd07	-0.003858389
105	0x3d71b4fa	0.059010483
106	0xbc29c72d	-0.010362429
107	0xbdc13a59	-0.09434957
108	0x3cdfda73	0.027325844
109	0xbde401ae	-0.11133133
110	0xbc6e3dcf	-0.0145411035
111	0x3d1c04fe	0.0380907
112	0xbd34823c	-0.044069514
113	0xbbf33985	-0.0074226283
114	0x3d039cbc	0.032131895
115	0xbdb16111	-0.08661092
116	0x3dcef201	0.10104752
117	0xbd053921	-0.032525185
118	0x3d8d16c8	0.06889111
119	0xbb5494f5	-0.0032437418
120	0xbb6b422e	-0.00358976
121	0x3dc22f64	0.09481695
122	0xbd89fce6	-0.0673769
123	0xbd3f7fb0	-0.04675263
124	0x3d4ce7e2	0.05002583
125	0x3cfba321	0.030717434
126	0x3d869555	0.065714516
127	0xbda10af1	-0.07863415
128	0xbdffd5a0	-0.124919176
129	0xbd8538b2	-0.065049544
130	0x3d5d651b	0.0540515
131	0xbcf37eff	-0.029723642
132	0x3d7867aa	0.060645737
133	0xbd487865	-0.048942942
134	0xbd51cd26	-0.051221035
135	0xbded488d	-0.115861036
136	0xbe2b6b96	-0.1674026
137	0xbe416a95	-0.18888314
138	0x3dd40fd4	0.103545815
139	0x3d3e762d	0.04649942
140	0xbdd507d4	-0.10401884
141	0xbdf67a5f	-0.12035059
142	0x3e586dc6	0.21135625
143	0x3d5f6cc1	0.054547075
144	0x3dd55f01	0.10418511
145	0xbdf21cc7	-0.11821895
146	0x3d5687ad	0.052375484
147	0xbd8c022b	-0.06836351
148	0x3df92eaf	0.12167107
149	0xbdcadc86	-0.09905343
150	0xbe15ca68	-0.14627993
151	0xbe7e0fa8	-0.2481066
152	0x3d65b71b	0.056082826
153	0x3d53f51d	0.05174743
154	0x3d8d0619	0.06885929
155	0x3e923197	0.2855346
156	0x3e7ceaf1	0.24698998
157	0xbd9fb3b7	-0.0779795
158	0x3d163f77	0.03668162
159	0x3c22513c	0.009907063
160	0x3e3a81d1	0.18213584
161	0x3ca771c4	0.02043999
162	0x3e611a7f	0.21982764
163	0xbe543b79	-0.20725812
164	0x3d9f03f1	0.07764424
165	0xbe06fd36	-0.1318253
166	0x3d9698a7	0.07353335
167	0x3db1ff63	0.08691289
168	0x3d0612f2	0.03273291
169	0x3cfa25d6	0.03053562
170	0xbc0752c4	-0.008259479
171	0x3d2b9f3b	0.0418999
172	0x3a9b497f	0.0011847465
173	0xbd936bc3	-0.07198288
174	0x3c5e1d05	0.0135567235
175	0x3e0f4aac	0.13993329
176	0x3e7eb10d	0.24872227
177	0x3e3b5fe5	0.182983
178	0x3e1357f7	0.14389025
179	0x3dd63b5d	0.104605414
180	0xbe3dfbae	-0.1855304
181	0xbe160fdd	-0.14654489
182	0x3ce79256	0.02826802
183	0x3d856493	0.06513324
184	0xbe5e8484	-0.21730238
185	0xbe4fb0a7	-0.20282231
186	0x3e1bbf8c	0.15209788
187	0xbe86f2ab	-0.26357016
188	0xbdb8b82d	-0.09019504
189	0x3eb9da1f	0.36299226
190	0xbe85882e	-0.2608046
191	0x3c031263	0.007999989
192	0xbd31978a	-0.04335741
193	0xbd387ab8	-0.04503891
194	0xbdcaa461	-0.09894634
195	0x3ab72cbf	0.0013975127
196	0x3e82900f	0.25500533
197	0xbdc4d2a8	-0.09610492
198	0xbe08534d	-0.13313027
199	0x3d7440d7	0.05963215
200	0x3d92a2f0	0.07159984
201	0x3c4d2104	0.012520079
202	0x3d4a9dae	0.04946678
203	0xbcea6f39	-0.028617488
204	0xbe0d9d6f	-0.13829587
205	0x3dad5db7	0.0846514
206	0xbda36a09	-0.07979209
207	0x3dc4fd69	0.09618647
208	0x3e0f4421	0.13990833
209	0x3dc0941e	0.09403251
210	0xbd97f1a5	-0.07419137
211	0xbe143dde	-0.14476725
212	0x3b09a688	0.0021003801
213	0x3df6d05d	0.12051461
214	0x3e1e1dbe	0.15441033
215	0xbe0fe083	-0.14050488
216	0x3d29436d	0.041324068
217	0x3e345334	0.17609864
218	0xbcf479ab	-0.029843172
219	0x3dced58b	0.10099324
220	0x3d3dded7	0.046355095
221	0x3e20e70e	0.1571314
222	0xbde2ba46	-0.11070685
223	0x3e810d68	0.2520554
224	0xbc9042a4	-0.017609902
225	0xbd4d0093	-0.050049376
226	0xbc89d718	-0.016826198
227	0xbc3bc3b7	-0.011460236
228	0x3e4878a6	0.19577274
229	0xbe27f60f	-0.16402458
230	0xbe3bfd93	-0.1835845
231	0x3c44b5a5	0.012006198
232	0xbd4581fb	-0.048219662
233	0xbe5cd0cc	-0.21564025
234	0x3de090a3	0.10965087
235	0xbcdb1a9d	-0.026746089
236	0x3d69dc69	0.057094965
237	0xbd778f98	-0.060439676
238	0xbddf00d7	-0.10888832
239	0x3e738e5f	0.23784779
240	0x3e547ca1	0.20750667
241	0x3e17fdf8	0.14842975
242	0x3e2ae9a5	0.16690691
243	0xbe47a5fb	-0.1949691
244	0x3c9d2d5d	0.01918667
245	0x3d4eb648	0.050466806
246	0x3c14c565	0.009080266
247	0xbe34a428	-0.17640746
248	0xbdfc278e	-0.12312232
249	0xbd82d351	-0.06387962
250	0x3e1357f8	0.14389026
251	0x3e381b9c	0.17979282
252	0x3d884620	0.06654
253	0x3e33aadd	0.17545648
254	0xbdaa15f9	-0.08304972
255	0x3e6d2ffd	0.23162837

model.layers.0.channel.2.bias f4 [74]
0	0x3e11c010	0.14233422
1	0x3d5a65a6	0.053319596
2	0x3e0e8241	0.13916875
3	0xbbd7184d	-0.006564176
4	0x3dca75ff	0.09885787
5	0xbd7bd2ea	-0.06148044
6	0xbd79ac83	-0.060955536
7	0xbd6f791d	-0.058465112
8	0xbd85dc44	-0.06536153
9	0xbd1f3c96	-0.03887614
10	0x3da26aba	0.07930513
11	0xbe356ab6	-0.17716488
12	0x3d276194	0.040864542
13	0xbda9c8bc	-0.0829024
14	0x3dbb98ac	0.09159979
15	0xbc8548de	-0.016270097
16	0xbdd1ca96	-0.10243718
17	0xbd175ce6	-0.03695383
18	0xbd7e90de	-0.062149875
19	0x3d8fa079	0.070130296
20	0x3e0a3d19	0.1349987
21	0xbdfb1225	-0.1225932
22	0xbd9c9a0f	-0.07646572
23	0xbe265ac9	-0.1624557
24	0x3dcb423d	0.09924743
25	0x3d187e24	0.037229672
26	0x3d7f6b49	0.062358174
27	0xbd9c1ec8	-0.076230586
28	0x3d43ac26	0.047771595
29	0x3e07d123	0.13263373
30	0x3d6c4774	0.05768533
31	0xbc4c44c2	-0.012467565
32	0xbd2e897d	-0.042611588
33	0xbc77b7ef	-0.015119537
34	0x3e07dda1	0.13268138
35	0xbd7272b6	-0.059191428
36	0x3ddfa038	0.10919231
37	0x3cb445a2	0.02200586
38	0xbb6876ab	-0.0035471122
39	0xbbd15c10	-0.0063891485
40	0x3dcb4028	0.09924346
41	0xbdbda45d	-0.092598654
42	0xbd3f1512	-0.046650954
43	0xbda68667	-0.08131104
44	0x3d5b3010	0.053512633
45	0x3d021a3a	0.031763293
46	0x3dc948b2	0.09828319
47	0xbd602d4a	-0.05473069
48	0xbd23e595	-0.04001387
49	0x3cb91c4f	0.022596506
50	0x3afcd4c6	0.0019289486
51	0x3dd3b477	0.10337155
52	0xbc41c129	-0.011825838
53	0x3d22513d	0.039628256
54	0x3ddab313	0.10678687
55	0xbdc67a02	-0.0969124
56	0xbd5bb8d1	-0.05364305
57	0xbcb45adb	-0.02201598
58	0x3db2548e	0.08707534
59	0x3dc3138b	0.09525212
60	0x3db188e8	0.08668691
61	0xbe036294	-0.12830573
62	0x3cab53cd	0.020913983
63	0xbd463489	-0.048389945
64	0xbd6e72fc	-0.058215126
65	0xbdadbdfe	-0.08483504
66	0x3cc50e61	0.024054708
67	0x3ce7374e	0.028224614
68	0x3a9b22d7	0.0011835945
69	0xbd6b9bdb	-0.057521682
70	0x3d6933f7	0.056934323
71	0xbe01f754	-0.12692004
72	0xba12a9e4	-0.00055947737
73	0xbce45327	-0.027871681

model.layers.1.temporal.0.weight f4 [32, 64]
0	0xbba52d27	-0.005040783
1	0xbcfd9bff	-0.030958174
2	0xbe04e8eb	-0.12979476
3	0xbd8b1c04	-0.06792453
4	0xbd9983fd	-0.07495878
5	0x3d9d536e	0.076819286
6	0x3cb51254	0.022103466
7	0xbd5ed26b	-0.05439989
8	0xbc94c484	-0.018160112
9	0x3d8b25f5	0.06794349
10	0x3de70ece	0.11282121
11	0x3d925dfe	0.07146834
12	0xbbb17a59	-0.0054161963
13	0x3e0b86fe	0.13625714
14	0x3dc75514	0.09733024
15	0xbd9580f2	-0.07299985
16	0x3d6a3f64	0.05718936
17	0x3da49c09	0.08037574
18	0x3cdee324	0.027207918
19	0xbdf71e07	-0.12066274
20	0xbdecf10f	-0.11569416
21	0xbbb5e0b5	-0.005550469
22	0x3d0cd8a4	0.034386292
23	0xbd7148c9	-0.058907304
24	0x3e585bb4	0.21128732
25	0x3d50f9a7	0.051019337
26	0xbb8ef0ef	-0.0043622176
27	0xbd3204ca	-0.0434616
28	0x3d930430	0.07178533
29	0x3c149770	0.009069309
30	0xbe0fa4ee	-0.1402776
31	0xbdc55761	-0.09635807
32	0xbb0f9f00	-0.002191484
33	0xbe448028	-0.19189513
34	0xbdaf5305	-0.085607566
35	0x3d5ac29b	0.053408246
36	0x3d2ce131	0.042206947
37	0x3d7ae3c0	0.061252356
38	0xbd4d558e	-0.05013042
39	0x3dd8a3c6	0.10578112
40	0x3bc5782e	0.0060262894
41	0xbe06508e	-0.13116667
42	0xbe0baa7f	-0.13639258
43	0xbd3b4938	-0.045724124
44	0xbc177c07	-0.009245879
45	0xbdcc4025	-0.09973172
46	0x3dea0837	0.11427348
47	0xbd86f723	-0.06590106
48	0xbe11af3e	-0.14227006
49	0x3d548607	0.05188563
50	0x3d32b2f8	0.04362771
51	0x3d782cdc	0.060589656
52	0x3dc56b2e	0.096395835
53	0xbe195d36	-0.14976963
54	0x3b688ab0	0.0035483055
55	0xbe34e07b	-0.17663758
56	0xbd7a1767	-0.061057474
57	0xbdbd736c	-0.092505306
58	0xbd8e86d7	-0.069593124
59	0x3d40e595	0.047093946
60	0x3cd30656	0.025759857
61	0x3e1bc986	0.15213594
62	0x3cd5458a	0.026034135
63	0x3ea23d19	0.3168724
64	0x3d2cd181	0.042191986
65	0x3d39cf36	0.045363627
66	0xbc62d1b6	-0.013843944
67	0x3dbf7241	0.09347964
68	0x3de9fec1	0.114255436
69	0xbd1b1655	-0.037863094
70	0x3e0a5901	0.13510515
71	0x3e0983af	0.1342914
72	0xbcbcea5a	-0.023060966
73	0x3dde3cbc	0.10851428
74	0x3c3ac467	0.011399365
75	0x3dda65ca	0.10663946
76	0x3cafcc01	0.021459581
77	0xbcbc71d2	-0.023003493
78	0x3dbd029b	0.092290126
79	0x3c9e4dd3	0.019324219
80	0x3d77dab9	0.060511325
81	0x3d6ee821	0.058326844
82	0x3c7e6bd2	0.015528636
83	0xbda92a9f	-0.082600825
84	0xbb59882f	-0.0033192744
85	0x3b8d6c87	0.004315916
86	0xbdeee973	-0.11665621
87	0xbd96203c	-0.07330367
88	0x3ce351a0	0.027748883
89	0x3e019721	0.12655307
90	0x3df48c56	0.119408295
91	0x3ca1a9b2	0.019734237
92	0x3d34f261	0.044176463
93	0x3d3ffc28	0.046871334
94	0x3d005e1c	0.03133975
95	0x3d1a086b	0.037605684
96	0x3dc291b7	0.09500449
97	0xbc06f50c	-0.008237135
98	0x3c3086d4	0.010774333
99	0x3c4e666f	0.012597664
100	0x3d34cadb	0.04413877
101	0xbdd3e323	-0.10346057
102	0xbcc314cc	-0.023813628
103	0x3d10247c	0.035191044
104	0x3e0cee8e	0.13762876
105	0xbc865452	-0.016397629
106	0xbcb4e8b1	-0.022083612
107	0x3d1eae9b	0.038740736
108	0x3d3f5695	0.04671343
109	0xbda2cd01	-0.07949258
110	0xbd96dade	-0.07365964
111	0xbd84d5ed	-0.064861156
112	0x3cd23df5	0.025664309
113	0x3c2b0910	0.010439172
114	0xbcc7408e	-0.024322774
115	0xbda32fe7	-0.07968121
116	0x3cf27b38	0.02959977
117	0xbd886047	-0.066589884
118	0x3dffd1ee	0.12491213
119	0xbd115d08	-0.035489112
120	0x3cf8ce36	0.030371767
121	0x3dc6fc76	0.09716122
122	0x3e037af4	0.12839872
123	0x3c0cd599	0.0085958475
124	0xbbd46a3b	-0.00648239
125	0x3c8c0289	0.017091053
126	0xbdb3b48c	-0.08774671
127	0xbeded8ad	-0.43524686
128	0x3d478d3d	0.04871868
129	0x3d6643d3	0.056217026
130	0x3cc08548	0.023501053
131	0xb9ab5087	-0.0003267566
132	0x3db95647	0.09049659
133	0xbd336d05	-0.04380514
134	0xbd87cb7e	-0.0663061
135	0xbddf8c0f	-0.10915386
136	0xbc2414c5	-0.0100147175
137	0x3c84c013	0.01620487
138	0x3cfadd61	0.03062314
139	0xbd4d2370	-0.050082624
140	0xbcbac9bd	-0.022801274
141	0x3e0908d0	0.13382268
142	0xbd8ea6ff	-0.06965446
143	0xbda55d6e	-0.08074461
144	0x3d04a289	0.032381568
145	0xbd99f328	-0.075170815
146	0xbde42913	-0.11140647
147	0xbd040656	-0.032232605
148	0xbdec63ad	-0.11542449
149	0x3d436f36	0.04771348
150	0xbe011b68	-0.12608111
151	0x3c41fa62	0.011839481
152	0xbdf57b7b	-0.11986443
153	0x3d6ed79b	0.058311086
154	0x3af518a6	0.0018699362
155	0x3c9c31e3	0.019066757
156	0xbdc6209a	-0.09674187
157	0xbd95acfc	-0.07308385
158	0xbdcb2a3b	-0.09920164
159	0x3de3206c	0.11090168
160	0x3dfd63f3	0.123725794
161	0x3de242b0	0.11047876
162	0x3dbfc3a3	0.093634866
163	0xbd16ab5a	-0.036784507
164	0x3d66d881	0.056358818
165	0x3bebb676	0.007193382
166	0xbe10fb8d	-0.14158459
167	0x3d04865e	0.032354705
168	0x3d203cbb	0.039120417
169	0xbc2957db	-0.010335888
170	0xbd1a76be	-0.037710898
171	0x3d111f1a	0.03543005
172	0x3d1d4630	0.038397014
173	0xbd6df11f	-0.05809128
174	0x3d58f81b	0.052970987
175	0xbdda639c	-0.1066353
176	0x3d21b6f0	0.039481103
177	0x3dcd83ed	0.100349285
178	0x3d858c00	0.065208435
179	0x3d7b8966	0.06141033
180	0x3d0aca7a	0.033884503
181	0x3dc7d4b0	0.09757364
182	0xbd89a687	-0.06721216
183	0xbdcfeefa	-0.10153003
184	0xbd9891e0	-0.074496984
185	0xbd1eb25d	-0.03874432
186	0xbd80f1f8	-0.06296152
187	0xbc5a0146	-0.013305968
188	0xbda0c6cc	-0.078504175
189	0xbbc0c2c9	-0.005882595
190	0xbdbca2c3	-0.09210732
191	0x3edee08a	0.43530685
192	0xbd2c4fb6	-0.042068206
193	0x3d84477b	0.06458946
194	0xbe149cc5	-0.14512928
195	0xbd87722c	-0.066135734
196	0xbe18c121	-0.14917423
197	0xbe00ea1c	-0.12589306
198	0xbd93d4b7	-0.072183065
199	0x3c4ae459	0.012383544
200	0x3c8d590d	0.017254377
201	0xbe5b1902	-0.21396258
202	0xbde9c32b	-0.114141785
203	0xbd59c1f7	-0.053163495
204	0xbd18b983	-0.037286293
205	0xbe0f2618	-0.13979375
206	0xbd53f7d4	-0.05175002
207	0x3d66ca84	0.056345478
208	0x3d0468d2	0.032326527
209	0xbd86d248	-0.06583077
210	0x3e135da8	0.14391196
211	0xbda59291	-0.08084596
212	0xbd4f1988	-0.050561458
213	0xbb537e16	-0.0032271198
214	0xbdfb09bd	-0.12257717
215	0xbcd2f857	-0.025753183
216	0xbda50f3b	-0.080595456
217	0xbc5dca5b	-0.013537015
218	0x3d33f7fe	0.043937676
219	0xbd011226	-0.03151145
220	0x3caadf3a	0.020858396
221	0x3cdd262b	0.026995739
222	0xbd754eac	-0.05988948
223	0xbd9fcfa3	-0.078032754
224	0xbcfbdedf	-0.030745922
225	0x3c56e783	0.01311672
226	0xbc34e531	-0.011040972
227	0xb8aa6e82	-8.1268154e-05
228	0x3d230f99	0.039809797
229	0xbd694a7e	-0.056955807
230	0xbc2c981c	-0.010534313
231	0xbe1e9089	-0.15484823
232	0x3d124e0c	0.035718963
233	0xbe1c42bf	-0.15259837
234	0xbd32de79	-0.043669198
235	0xbd391991	-0.045190398
236	0xbdb74964	-0.08949545
237	0xbcf6b1b3	-0.03011403
238	0x3baaae0c	0.0052087363
239	0x3dcd5168	0.10025293
240	0x3e1434f1	0.1447332
241	0x3dc4d89e	0.09611629
242	0xbd650370	-0.05591148
243	0x3d46f55f	0.048573848
244	0x3bac1518	0.005251538
245	0xbdb85eb7	-0.090024404
246	0xbdfba8cd	-0.122880556
247	0x3e04c30b	0.12965028
248	0xbd7292d5	-0.05922206
249	0x3dd60371	0.10449875
250	0x3e04c6e8	0.12966502
251	0x3e0fde51	0.1404965
252	0x3d68e220	0.056856275
253	0xbd9a88bb	-0.075456105
254	0x3db1c4ee	0.086801395
255	0x3e48ba28	0.19602263

model.layers.1.temporal.0.bias f4 [32]
0	0xbd20b900	-0.03923893
1	0xbdcd83b0	-0.10034883
2	0x3d3cae2e	0.04606455
3	0xbdc6c013	-0.09704604
4	0x3c47f3e0	0.01220414
5	0x3be2d1da	0.006921989
6	0xbef32c2e	-0.47494644
7	0xbd738c4d	-0.059459973
8	0xbceea362	-0.029130641
9	0xbdc48557	-0.09595745
10	0x3d935d66	0.07195549
11	0xbda212d0	-0.079137444
12	0xbd664ad0	-0.05622369
13	0x3bf66a8a	0.0075200247
14	0xbcd08542	-0.025454167
15	0xbcb2d091	-0.021827968
16	0x3def4efa	0.116849855
17	0xbe6ae92d	-0.22940512
18	0xbd7df6de	-0.06200301
19	0xbd90a53c	-0.07062766
20	0x3b1c3fe9	0.0023841804
21	0xbd0e70ea	-0.034775652
22	0x3d29b695	0.04143389
23	0x3d417ecd	0.047240067
24	0xbda1b20e	-0.07895289
25	0xbc215c1a	-0.009848619
26	0x3d8afb2e	0.0678619
27	0xbd3ac3bd	-0.045596827
28	0xbe5d9a47	-0.21640883
29	0xbec7338f	-0.38906524
30	0x3e21da8a	0.15806022
31	0xbe4d99fd	-0.20078273
