experiments/AdversarialDomainAdaptation/saved_models/test/tsmixer_da_pretrained_0.pt (torch, 731036 bytes, 30 tensors)

model.backbone.static_proj.weight f4 [64, 10]
0	0x3e6a36de	0.22872493
1	0x3e8d104d	0.275515
2	0xbd7a0525	-0.061040062
3	0x3e8e0d87	0.27744696
4	0xbda89ca8	-0.08233005
5	0x3d4ff28d	0.050768424
6	0xbe2b022c	-0.16700047
7	0x3e30d0d9	0.17267169
8	0x3e95685b	0.2918118
9	0xbe60347b	-0.2189502
10	0x3e81fead	0.25389615
11	0x3da42725	0.08015279
12	0x3e825ae5	0.25459972
13	0x3cb311e2	0.021859113
14	0x3e06ab78	0.13151348
15	0xbd8661da	-0.065616325
16	0x3e6427b4	0.2228077
17	0x3cd322ea	0.025773484
18	0xbe01b325	-0.12665994
19	0x3dd005e5	0.10157374
20	0xbdf8ed5d	-0.121546485
21	0xbd7ad2cb	-0.061236184
22	0xbe1c4083	-0.15258984
23	0x3e6f8ab8	0.23392761
24	0xbe66e178	-0.22546947
25	0xbdf91abf	-0.121633045
26	0xbd8569fc	-0.065143555
27	0xbe29f8b1	-0.16598774
28	0x3bba9feb	0.0056953332
29	0xbeac477b	-0.33648285
30	0x3e85f1bb	0.26160988
31	0xbe7a84be	-0.244647
32	0x3e894658	0.2681148
33	0x3ceaaf1a	0.028647948
34	0xbe01b2e7	-0.12665902
35	0x3e2f8c88	0.17143452
36	0x3ccf4e60	0.025305927
37	0x3e6d141d	0.23152204
38	0x3d6fd061	0.058548335
39	0xbd9b2386	-0.07575135
40	0x3d76368a	0.060110606
41	0xbd79721c	-0.06089984
42	0x3e21bb69	0.15794148
43	0x3e83d47d	0.25748053
44	0x3e21bc08	0.15794384
45	0xbe2703e0	-0.16310072
46	0x3e217a23	0.15769248
47	0x3d01f3f9	0.03172681
48	0x3e3de59a	0.18544617
49	0xbe2beac7	-0.16788779
50	0xbeab1621	-0.3341532
51	0xbdcef941	-0.10106135
52	0xbe62c076	-0.2214373
53	0x3e7414cb	0.23836057
54	0x3d8f4ad2	0.06996693
55	0x3de10322	0.10986926
56	0x3da1932c	0.07889399
57	0xbcda0d4f	-0.026617674
58	0x3e8985d4	0.26859915
59	0xbe507400	-0.2035675
60	0x3b40ed44	0.0029438296
61	0xbe4ba4e0	-0.19887114
62	0x3dea72aa	0.11447652
63	0xbe00e422	-0.12587026
64	0x3da3b27c	0.079930276
65	0xbda9ad7b	-0.08285042
66	0x3e7b327a	0.24530974
67	0xbe514d23	-0.20439582
68	0xbe2fbfee	-0.17163059
69	0xbe2fc2ea	-0.17164198
70	0x3e9d300c	0.3070072
71	0x3da9958d	0.08280478
72	0x3e903c8d	0.28171197
73	0xbe741e4a	-0.2383968
74	0xbe95087c	-0.29108036
75	0xbe6638f7	-0.22482668
76	0xbe42b53d	-0.1901445
77	0x3e1a4782	0.1506634
78	0x3db9a95b	0.09065505
79	0x3e75f282	0.2401829
80	0xbe322896	-0.17398295
81	0xbe51d1a4	-0.20490128
82	0x3e36bdd0	0.17845845
83	0xbe0dd1ca	-0.1384956
84	0x3e3999ee	0.18125126
85	0xbdaf8be2	-0.085716024
86	0x3e2e4ea6	0.1702219
87	0xbe83436d	-0.2563738
88	0xbe187bb2	-0.14890936
89	0x3ddb4f93	0.10708537
90	0x3d8f8c2a	0.07009156
91	0xbdabc0b6	-0.08386366
92	0x3e3db381	0.18525507
93	0x3e5f7348	0.2182132
94	0xbe6781db	-0.2260813
95	0xbe298f31	-0.1655853
96	0x3e95e966	0.2927963
97	0xbdd3e674	-0.1034669
98	0xbdec3ad0	-0.11534655
99	0xbe9e51f0	-0.30921888
100	0xbe221b5a	-0.15830746
101	0x3d663a72	0.05620808
102	0xbd84268d	-0.064526655
103	0xbe53b882	-0.20675853
104	0x3cf76f45	0.030204425
105	0xbe45dc24	-0.19322258
106	0xbe7b6454	-0.24549991
107	0xbe1afafc	-0.15134805
108	0xbe995f07	-0.29955313
109	0xbe658538	-0.224141
110	0x3ead3936	0.3383271
111	0x3d199e34	0.03750439
112	0x3d9a0fdb	0.075225554
113	0xbe8ba1a6	-0.27271765
114	0xbe3deb0f	-0.18546699
115	0xbdaa0e55	-0.08303515
116	0x3d92c8c4	0.07167199
117	0xbe8316b2	-0.25603253
118	0xbe2247d4	-0.15847713
119	0xbe589d9d	-0.21153875
120	0x3cc29a36	0.023755174
121	0xbe0febdf	-0.14054821
122	0xbd3777e2	-0.044792064
123	0xbe440010	-0.19140649
124	0xbe46d6b2	-0.19417837
125	0xbe257cd5	-0.16160901
126	0xbdaed3e7	-0.08536511
127	0xbe6827a2	-0.22671369
128	0x3e781546	0.24226865
129	0xbdaf6355	-0.08563868
130	0x3e979779	0.29607752
131	0x3d98a5b2	0.07453479
132	0xbe9563c8	-0.2917769
133	0x3e78aa3e	0.24283692
134	0xbd810c9a	-0.06301232
135	0xbdc71c72	-0.097222224
136	0xbe743813	-0.23849516
137	0xbe94ad59	-0.29038504
138	0x3d8826ac	0.06648001
139	0xbdbe9da6	-0.09307413
140	0x3dd93f67	0.10607796
141	0xbe784c9b	-0.24247973
142	0x3e80edb4	0.25181353
143	0xbe7f251b	-0.24916498
144	0xbd92b87a	-0.07164092
145	0x3d48c27a	0.049013592
146	0x3e15b9bd	0.14621635
147	0x3e73f9ac	0.23825711
148	0x3e9c370a	0.3051074
149	0xbe6f50ef	-0.23370717
150	0x3d800487	0.062508635
151	0xbdf397fe	-0.118942246
152	0xbc90003e	-0.01757824
153	0xbe81edff	-0.2537689
154	0x3e8abbb2	0.27096325
155	0xbe7f26b4	-0.24917108
156	0x3e1b9444	0.15193278
157	0x3dc0a239	0.094059415
158	0x3df56c62	0.11983563
159	0xbe1d95cf	-0.15389179
160	0x3e882cd9	0.26596716
161	0x3dba490a	0.09095962
162	0x3d7e8ee1	0.06214798
163	0xbe99acb5	-0.30014578
164	0x3de3e6f0	0.11128032
165	0xbd8d2039	-0.068909116
166	0xbe2a550e	-0.16634008
167	0x3e801436	0.2501542
168	0x3dbc5b50	0.09197104
169	0xbe1d2d3e	-0.1534929
170	0xbe0151e6	-0.12628898
171	0xbd4829c5	-0.04886796
172	0x3e123afd	0.14280315
173	0xbd40ada7	-0.047040608
174	0xbe162f76	-0.14666542
175	0xbd989fd9	-0.074523635
176	0xbe4f56d1	-0.20247962
177	0x3e160f74	0.14654332
178	0x3e58122c	0.21100682
179	0xbea9b734	-0.33147585
180	0x3dacda87	0.08440118
181	0x3e1c0fb0	0.1524036
182	0x3d3dfd7c	0.04638432
183	0xbdd032d2	-0.10165943
184	0x3e343be1	0.17600967
185	0x3e3563e9	0.17713894
186	0x3e044ddb	0.12920325
187	0xbd36b9f2	-0.044610925
188	0xbdc1ef3c	-0.094694585
189	0x3cbb60b9	0.02287327
190	0xbd07bb7b	-0.03313778
191	0xbdef896d	-0.11696134
192	0x3e37b737	0.17940985
193	0x3e96c78a	0.2944911
194	0xbc0c9584	-0.008580569
195	0xbd44eca5	-0.048077244
196	0x3cdff757	0.02733962
197	0x3b7be735	0.003843737
198	0x3d5a50a2	0.053299554
199	0x3d86f2a8	0.06589252
200	0xbe86dbd7	-0.263396
201	0xbe0fe478	-0.14051998
202	0x3e784deb	0.24248473
203	0x3e16894a	0.14700809
204	0x3c049289	0.008091577
205	0xbe2ad6f1	-0.16683556
206	0xbe2db8ab	-0.16964976
207	0xbe84d626	-0.25944632
208	0xbe01f1a4	-0.12689835
209	0x3da9ecf2	0.08297147
210	0x3e380e9a	0.1797432
211	0x3e2bebe0	0.16789198
212	0xbe83e905	-0.25763717
213	0xbe5925b9	-0.21205796
214	0xbd930a02	-0.07179643
215	0x3e916a10	0.28401232
216	0x3cc36a0e	0.023854282
217	0xbdd48ccb	-0.10378417
218	0x3e1c624b	0.15271871
219	0xbdc9d725	-0.09855489
220	0xbe68b03e	-0.22723481
221	0x3e81b915	0.2533652
222	0xbdf849e3	-0.12123468
223	0xbdb00563	-0.085947774
224	0xbeac9d83	-0.33713922
225	0x3e41a01d	0.18908735
226	0x3e5e3d3e	0.2170305
227	0x3dbdd65c	0.092694014
228	0xbe4ab188	-0.19794285
229	0xbe943f05	-0.2895433
230	0xbe8fb6e3	-0.2806922
231	0x3e84f370	0.25966978
232	0x3e33e5d4	0.17568141
233	0x3e780ffa	0.24224845
234	0x3e1134f4	0.14180356
235	0x3d661901	0.05617619
236	0xbcdcd164	-0.026955314
237	0xbe87591e	-0.2643518
238	0xbe7d019c	-0.24707645
239	0xbe8b39b2	-0.27192456
240	0x3e19a75c	0.15005249
241	0xbe341445	-0.17585857
242	0xbdac8760	-0.08424258
243	0xbe254363	-0.16138987
244	0xbd17a5b1	-0.03702325
245	0xbe4ed18e	-0.20197126
246	0xbe3e7df1	-0.1860273
247	0x3e00824d	0.12549706
248	0xbdeaaa53	-0.11458268
249	0x3e32cfa2	0.17462018
250	0xbdabc84a	-0.083878115
251	0xbe7f88b1	-0.24954487
252	0xbd96409c	-0.07336542
253	0xbe0afa32	-0.13572004
254	0xbda22764	-0.079176694
255	0xbe9123e3	-0.28347692

model.backbone.static_proj.bias f4 [64]
0	0x3d9df3f9	0.0771255
1	0xbe86896d	-0.26276723
2	0x3e90be8d	0.2827038
3	0x3e5e514a	0.21710697
4	0xbe92862d	-0.28617993
5	0xbdff310f	-0.12460529
6	0x3df4a524	0.119455606
7	0xbdb0f7fd	-0.0864105
8	0xbc200bbf	-0.0097684255
9	0xbe172047	-0.14758407
10	0x3e6daffd	0.23211665
11	0xbe49b0a4	-0.1969629
12	0x3e827e51	0.25486997
13	0xba991b7a	-0.0011681162
14	0x3da55ef4	0.080747515
15	0x3e8594d8	0.2609012
16	0xbcfa1479	-0.03052734
17	0xbe4edad4	-0.20200664
18	0xbd7c08ed	-0.06153195
19	0x3e647860	0.22311544
20	0xbe8266e0	-0.25469112
21	0x3da80935	0.08204881
22	0xbe94818f	-0.29005095
23	0x3e3e4233	0.1857994
24	0x3dc521fe	0.09625624
25	0xbb35a123	-0.0027714453
26	0x3e192052	0.14953735
27	0x3c7c505b	0.015400018
28	0x3e1c003f	0.15234469
29	0xbe69dc94	-0.2283805
30	0xbd081fbd	-0.033233393
31	0x3e22e348	0.15907013
32	0x3e988309	0.29787472
33	0x3e278110	0.16357827
34	0xbe646f2a	-0.2230803
35	0x3e610ca5	0.2197748
36	0xbd664741	-0.056220297
37	0xbdae2544	-0.085032016
38	0xbe86f06c	-0.26355302
39	0xbd09b6ce	-0.0336216
40	0x3e4e526b	0.20148627
41	0x3cca9e16	0.024733584
42	0xbe2ea8c9	-0.17056574
43	0x3debbb1a	0.11510296
44	0xbd9a0647	-0.075207286
45	0x3e9be81c	0.30450523
46	0xbe943790	-0.2894864
47	0xbdfc6c49	-0.12325341
48	0xbe9b0848	-0.30279756
49	0xbdde0260	-0.10840297
50	0x3da6eec8	0.08151013
51	0x3e9432f3	0.2894512
52	0x3d795798	0.06087455
53	0x3e935690	0.2877698
54	0x3d9fe6f6	0.07807724
55	0x3e291149	0.165105
56	0x3e6a9916	0.2290996
57	0x3e924cf4	0.28574336
58	0xbe1ea5c1	-0.15492918
59	0x3e88130f	0.2657704
60	0x3e2ffefc	0.17187113
61	0xbdf73df8	-0.120723665
62	0xbe1f664f	-0.15566371
63	0xbe907feb	-0.28222594

model.backbone.layers.0.temporal.0.weight f4 [32, 64]
0	0x3c8227f5	0.015888194
1	0xbdef505f	-0.116852514
2	0x3d18db54	0.037318543
3	0x3cc6553c	0.024210565
4	0xbdfd7108	-0.123750746
5	0x3c9af927	0.018917633
6	0xbccee340	-0.025254846
7	0x3d2b956c	0.041890547
8	0x3d67736d	0.056506563
9	0xbe0ebb07	-0.13938533
10	0x3dcc0e8b	0.09963711
11	0x3db80825	0.089859284
12	0x3d0e95d2	0.03481085
13	0xbe04386d	-0.1291215
14	0xbd73a047	-0.059479024
15	0xbd511a76	-0.051050626
16	0xbd4043cb	-0.046939652
17	0x3d63d453	0.05562241
18	0x3cc980b0	0.024597496
19	0x3da0761e	0.07835029
20	0xbd8a26ba	-0.06745668
21	0x3ce029fd	0.027363772
22	0x3cf40661	0.029788198
23	0xbdf30c04	-0.11867526
24	0xbe0b0335	-0.13575442
25	0xbda28b89	-0.079367705
26	0x3d851e64	0.06499937
27	0xbe07660a	-0.13222519
28	0xbdfcb56f	-0.12339293
29	0x3d49c6ed	0.049261976
30	0x3d57c415	0.052677233
31	0x3da8318a	0.08212574
32	0xbddeea24	-0.108845025
33	0xbdd8d5c0	-0.105876446
34	0x3d331b6f	0.043727335
35	0x3dc112ad	0.0942739
36	0x3d5e4114	0.054261282
37	0xba3fbb26	-0.0007313959
38	0x3caad93a	0.020855535
39	0x3dc96caf	0.09835183
40	0xbdc218bd	-0.09477375
41	0xbd912718	-0.07087535
42	0x3d897024	0.06710842
43	0xbdcc8f93	-0.09988322
44	0xbdaa6bea	-0.08321364
45	0x3d9117f5	0.070846476
46	0x3c9bfdcc	0.019041918
47	0x3ca44551	0.020052584
48	0xbd89c4cc	-0.06726989
49	0xbcb5f7e7	-0.022212936
50	0x3dc03f5a	0.09387083
51	0xbdb700df	-0.08935713
52	0xbc5a6e34	-0.013331939
53	0x3d38bfe9	0.045104895
54	0xbdce06a4	-0.1005986
55	0x3dcee23b	0.10101744
56	0xbd9d7e6e	-0.0769013
57	0xbd369bad	-0.044582058
58	0xbd45e093	-0.048309874
59	0xbdc49428	-0.09598571
60	0xbe0c6074	-0.13708669
61	0x3d4c4852	0.049873658
62	0x3c4c4e3c	0.012469824
63	0xbe07754e	-0.13228342
64	0xbd878449	-0.06617028
65	0x3e0d32b0	0.13788867
66	0x3d7dfc04	0.06200792
67	0x3d83cab9	0.06435151
68	0xbd77b57d	-0.060475815
69	0xbd25b918	-0.040459722
70	0xbb9661d6	-0.0045892997
71	0xbc0eb305	-0.008709674
72	0xbd92d106	-0.07168774
73	0x3cc7293c	0.024311654
74	0x3cd7fb4e	0.026364949
75	0xbb07debc	-0.0020732125
76	0x3cff8f0d	0.031196142
77	0xbd11c549	-0.035588536
78	0x3d3e0496	0.046391092
79	0x3d7998b3	0.06093664
80	0xbd5576ea	-0.05211536
81	0xbde1caed	-0.11025033
82	0x3da1ff35	0.07910005
83	0x3d32a2b4	0.043612197
84	0xbd4cd6c6	-0.05000951
85	0x3e09137b	0.13386337
86	0xbd311899	-0.04323635
87	0x3dc818c0	0.09770346
88	0x3d9c9b60	0.07646823
89	0xbdbbff39	-0.09179539
90	0x3dbfc37a	0.09363456
91	0xbdd0ab8e	-0.101889715
92	0xbd66bb61	-0.056331042
93	0xbc062892	-0.008188384
94	0xbd92ab51	-0.07161582
95	0x3e09c9d1	0.13455893
96	0xbc50c01d	-0.012741116
97	0x3d7da108	0.06192115
98	0xbdcb5196	-0.09927671
99	0x3dac6032	0.08416785
100	0xbcdaf1b9	-0.02672659
101	0xbdaa6686	-0.08320336
102	0x3cf6fcf8	0.030149922
103	0x3d93da47	0.072193675
104	0x3df56d7b	0.11983772
105	0xbd847596	-0.0646774
106	0xbd4cd051	-0.050003354
107	0x3d117d41	0.035519842
108	0x3d39fec4	0.04540898
109	0x3d72be6b	0.059263628
110	0x3da30184	0.079592735
111	0xbc8e3eb4	-0.017363884
112	0x3da4c54d	0.08045445
113	0x3dd34bf6	0.10317223
114	0xbcb17806	-0.021663677
115	0x3dcc86b8	0.09986633
116	0x3d92d45c	0.071694106
117	0x3df7db0a	0.12102325
118	0xbd77aa5b	-0.060465198
119	0xbd515cb1	-0.051113788
120	0xbcd07a8b	-0.025449058
121	0x3c8b1c43	0.01698125
122	0x3daf2cd3	0.085534714
123	0xbd78e650	-0.060766518
124	0x3d9659da	0.073413566
125	0xbd0a7e77	-0.033812013
126	0x3db11b2f	0.08647763
127	0x3ba7fd45	0.0051266276
128	0xbdd7143f	-0.105019085
129	0xbd839a6a	-0.064259365
130	0xbdae1cb9	-0.08501572
131	0x3d8ce427	0.06879454
132	0xbd9ed191	-0.07754815
133	0xbb7ba6d8	-0.0038399007
134	0x3d096c8e	0.03355079
135	0xbd7e65f2	-0.06210894
136	0x3d2d72c5	0.04234578
137	0xbdee6a74	-0.11641398
138	0xbdab030f	-0.08350193
139	0xbddb0160	-0.10693622
140	0xbd02c95e	-0.03193032
141	0xbd20507f	-0.039139267
142	0x3cc94bff	0.02457237
143	0xbc8ea699	-0.017413424
144	0x3d84c92e	0.064836845
145	0x3df6a761	0.12043644
146	0x3d4fb579	0.050710175
147	0xbd32d715	-0.04366215
148	0xbde4f3a4	-0.11179283
149	0x3d4e0cb0	0.05030507
150	0xbd6b1855	-0.05739625
151	0x3d8c8596	0.06861417
152	0x3db48e4f	0.08816206
153	0x3d5641b9	0.05230877
154	0x3df9e8c3	0.12202599
155	0x3dfce9c3	0.12349274
156	0x3cfb5924	0.030682154
157	0xbdb22f39	-0.08700413
158	0x3dede827	0.11616545
159	0xbd5f7b85	-0.054561157
160	0xbd62d118	-0.05537519
161	0x3ddd5d9b	0.108088695
162	0x3dcde2f8	0.100530565
163	0x3d2ac0cf	0.041687783
164	0x3c3af528	0.011410989
165	0xbdd02561	-0.101633795
166	0xbc1ef189	-0.009701141
167	0x3dfc4129	0.12317116
168	0x3d0e5fd4	0.034759358
169	0x3c5d353a	0.01350146
170	0xbcbbd14f	-0.022926955
171	0xbd25fcaa	-0.040524162
172	0x3d9dad33	0.07699051
173	0x3c2151d2	0.009846168
174	0x3dab6179	0.08368201
175	0xbc9d3e7e	-0.019194838
176	0x3d6a7502	0.057240494
177	0x3d5e5f0f	0.054289874
178	0x3cbc4dec	0.022986375
179	0x3da7f788	0.0820151
180	0x3da7f1d7	0.08200424
181	0x3df5db8c	0.12004766
182	0x3dce4a82	0.10072805
183	0xbcd9237b	-0.026506176
184	0xbdcc4b4f	-0.099753015
185	0x3ce8c1a3	0.028412646
186	0x3bac0c1b	0.0052504665
187	0xbcd50d36	-0.026007276
188	0xbc6880d6	-0.014190873
189	0x3c5afff0	0.013366684
190	0x3dcb2ee2	0.099210516
191	0x3d3ec768	0.046576887
192	0xbd7f509d	-0.06233274
193	0xbd8ebed3	-0.069699906
194	0xbd4a6682	-0.049414165
195	0xbd8944ef	-0.06702601
196	0x3dbfec2f	0.0937122
197	0x3d41169b	0.0471407
198	0x3dc03890	0.093857884
199	0xbc98bd9a	-0.018645097
200	0x3bc0cf8b	0.005884116
201	0x3cc1a6b1	0.023639055
202	0xbe0c5a41	-0.13706304
203	0xbbf372ca	-0.0074294554
204	0xbcd9c9c4	-0.026585467
205	0xbdb4f547	-0.088358454
206	0xbdec61cc	-0.11542091
207	0x3dbc7a52	0.09203018
208	0x3daa0a02	0.0830269
209	0x3d208929	0.039193306
210	0x3dce8d55	0.10085551
211	0xbd8d5dc8	-0.06902653
212	0xbd24c75a	-0.04022918
213	0x3cece1b7	0.028916223
214	0xbd1e9197	-0.038713064
215	0xbd3003d9	-0.04297242
216	0xbdf91973	-0.12163057
217	0x3c7d0c16	0.015444776
218	0xbdc0a5a2	-0.09406592
219	0xbc65f982	-0.014036538
220	0x3dd2d27d	0.10294054
221	0xbd6b05f4	-0.057378724
222	0xbd6e8670	-0.05823368
223	0x3d69aa61	0.05704725
224	0xbd8277cc	-0.06370506
225	0xbceadedc	-0.02867072
226	0x3dca184c	0.098679155
227	0xbd8d6dc6	-0.06905703
228	0xbddbb282	-0.10727407
229	0xbdb4a8e1	-0.088212736
230	0xbd56b70a	-0.052420653
231	0xbd9d24cf	-0.07673036
232	0xbda81ca5	-0.082085885
233	0x3d078a67	0.033090975
234	0x3b5e1f06	0.0033893003
235	0xbd54fc2b	-0.0519983
236	0xbde0453d	-0.10950706
237	0xbd6dfad7	-0.058100548
238	0xbd8610f6	-0.06546204
239	0xbd5b2e6d	-0.053511072
240	0xbe00d1cd	-0.12580033
241	0x3c5c66e3	0.0134522645
242	0xbde3ec3f	-0.11129045
243	0xbde3946d	-0.11112294
244	0xbdfa2bd1	-0.122153886
245	0x3d1b65a4	0.03793873
246	0xbdb7c188	-0.0897246
247	0xbd8893e7	-0.06668835
248	0x3da79e37	0.08184474
249	0x3d4a8dfc	0.049451813
250	0x3d5d5809	0.054039035
251	0xbe0bc035	-0.1364754
252	0xbddc52f3	-0.10758009
253	0xbd8686df	-0.06568693
254	0x3d9dadc7	0.07699161
255	0xbc1334e3	-0.008984777

model.backbone.layers.0.temporal.0.bias f4 [32]
0	0x3dd7d35e	0.10538362
1	0x3d9bf116	0.07614343
2	0x3da8bbb0	0.082389235
3	0xbcb2de23	-0.021834439
4	0x3dbb2053	0.09137025
5	0x3c8ec5c6	0.01742829
6	0x3db821b8	0.08990806
7	0xbc152b5e	-0.009104578
8	0x3d46912a	0.048478283
9	0x3e08e3f8	0.13368213
10	0xbde57511	-0.11203969
11	0x3d959b1e	0.07304977
12	0xbd8cc779	-0.06873984
13	0xbd864c25	-0.06557492
14	0xbdabe4c2	-0.083932415
15	0x3c7eee29	0.0155597115
16	0xbd980893	-0.074235104
17	0xbd1fbe42	-0.038999803
18	0xbd8b093d	-0.067888714
19	0x3cd6ffde	0.026245054
20	0xbdc65b0f	-0.09685337
21	0xbd9ba781	-0.07600308
22	0xbcae50c0	-0.021278739
23	0x3d148a03	0.03626443
24	0xbd0dadde	-0.03458964
25	0x3d86ced5	0.06582419
26	0xbdd24444	-0.10266927
27	0xbddf6653	-0.10908189
28	0x3aa81a8d	0.0012825296
29	0xbd784b6b	-0.0606188
30	0x3d68f593	0.056874823
31	0xbdc88273	-0.09790506

model.backbone.layers.0.temporal.2.weight f4 [64, 32]
0	0xbc978f04	-0.018500812
1	0x3d943496	0.072365925
2	0xbe353535	-0.17696078
3	0x3e25cb93	0.16190939
4	0xbd74764e	-0.059683137
5	0xbb60fbb6	-0.003432972
6	0xbdacc5ca	-0.08436163
7	0xbdbba667	-0.09162598
8	0xbdb75e32	-0.08953513
9	0xbe39efa7	-0.18157826
10	0x3da46edd	0.08028958
11	0x3d01d7c0	0.031699896
12	0x3e1dcd4f	0.1541035
13	0x3db728bb	0.089433156
14	0x3e394cd3	0.18095712
15	0x3d18295c	0.03714882
16	0x3d8bd4f3	0.06827726
17	0x3df65db6	0.12029593
18	0x3e225f2a	0.15856615
19	0xbe0c66ba	-0.13711062
20	0xbc70e0f8	-0.014702074
21	0xbe3bd40a	-0.18342605
22	0xbc66c20b	-0.014084349
23	0xbd12c979	-0.03583667
24	0x3e373899	0.17892684
25	0xba0774f8	-0.0005167271
26	0x3cc8ef2c	0.024528109
27	0xbe1ecb02	-0.15507129
28	0xbe263c95	-0.16234048
29	0x3bcd0a43	0.006257327
30	0xbd89e594	-0.06733242
31	0xbdd3c735	-0.1034073
32	0x3de8704a	0.113495424
33	0xbdee72f6	-0.11643021
34	0xbdd4c3ea	-0.1038893
35	0x3e1faeb4	0.15593988
36	0x3daf5579	0.085612245
37	0xbdb86563	-0.09003713
38	0x3d989ede	0.074521765
39	0x3d8163f7	0.06317895
40	0xbe368f4a	-0.17828098
41	0x3bf0724a	0.007337843
42	0x3d66eab4	0.056376174
43	0xbcde882d	-0.027164543
44	0x3e14ea75	0.14542563
45	0xbe195a7f	-0.14975928
46	0x3ded25f3	0.11579504
47	0xbde6924b	-0.11258372
48	0xbe3e808f	-0.18603729
49	0x3d934b34	0.07192078
50	0xbd9f53f2	-0.07779683
51	0x3b936d6a	0.004499127
52	0x3de86819	0.1134798
53	0xbe2bd83c	-0.16781706
54	0xbe305072	-0.17218187
55	0x3da6bf6d	0.0814198
56	0x3e33daba	0.17563906
57	0xbd4b4589	-0.04962686
58	0x3e14d919	0.14535941
59	0x3c92d27e	0.017922636
60	0x3ccea557	0.025225325
61	0xbe0d8a1e	-0.13822219
62	0x3e3f750f	0.18696998
63	0x3d721c23	0.059108865
64	0x3c8054ec	0.015665494
65	0x3df8eb98	0.12154311
66	0xbe2c8dc5	-0.16850956
67	0x3d6a143d	0.057148207
68	0xbd7c931d	-0.061663736
69	0xbc89789b	-0.016781142
70	0x3d97162a	0.07377274
71	0x3d584786	0.052802585
72	0x3c94f383	0.018182522
73	0xbe23f1b4	-0.16010171
74	0xbdbae5a9	-0.091258354
75	0xbd4706fb	-0.04859064
76	0xbd4920a9	-0.049103413
77	0xbe3383f6	-0.17530808
78	0x3e4352dc	0.19074577
79	0x3b9194ff	0.0044428105
80	0xbe14b4d8	-0.14522111
81	0x3cb486b7	0.022036893
82	0x3da320f8	0.07965273
83	0xbdc0cb15	-0.09413735
84	0x3ddc341e	0.10752128
85	0xbe0977ea	-0.1342465
86	0x3d272d44	0.040814653
87	0x3e40ef6a	0.18841329
88	0x3e0d52ae	0.13801071
89	0x3d8037c3	0.06260636
90	0xbc79b6d8	-0.015241347
91	0xbb229dbd	-0.0024813258
92	0x3d1ebebb	0.038756113
93	0x3cb3a214	0.02192787
94	0xbc868cb2	-0.01642451
95	0x3af9d148	0.0019059563
96	0xbd4b2510	-0.049595892
97	0xbda82d3c	-0.08211753
98	0xbe2fedf1	-0.17180611
99	0xbdebf8b6	-0.11522047
100	0xbdbb78e9	-0.09153921
101	0x3e54d8b1	0.20785786
102	0x3d9b2d84	0.07577041
103	0xbe3a88e7	-0.18216287
104	0xbdd15090	-0.10220444
105	0x3cba1a82	0.022717718
106	0xbd11a8ff	-0.035561558
107	0xbc11c736	-0.008897593
108	0xbd950c82	-0.07277776
109	0xbd88955b	-0.06669112
110	0x3d559b92	0.052150317
111	0x3c684922	0.0141775925
112	0x3dc0a0ed	0.09405694
113	0x3dba96de	0.09110807
114	0x3e175901	0.14780046
115	0xb989360a	-0.00026170939
116	0xbd551af1	-0.052027646
117	0x3c4fd66f	0.012685402
118	0xbe04c2b7	-0.12964903
119	0x3dd07ad8	0.101796806
120	0x3bdc4840	0.00672248
121	0xbd9a48d3	-0.07533421
122	0xbe0286e7	-0.12746774
123	0x3d964c20	0.073387384
124	0x3da752ac	0.08170065
125	0x3e13fb65	0.14451368
126	0xbd2dc669	-0.042425547
127	0x3d1ee38c	0.038791224
128	0xbb1eebd3	-0.002424945
129	0xbe022e1f	-0.12712906
130	0xbdfe1230	-0.12405813
131	0x3dd94afc	0.10610005
132	0xbdab8066	-0.083740994
133	0x3e16c7b8	0.14724624
134	0x3db7315d	0.08944962
135	0x3d30cef8	0.04316613
136	0x3dd0c55f	0.101938955
137	0x3d9050bf	0.07046651
138	0x3db1447c	0.086556405
139	0x3d97c0b4	0.07409802
140	0xbdb2bd29	-0.08727486
141	0xbdef8b23	-0.1169646
142	0xbc871997	-0.016491694
143	0x3db2d916	0.08732812
144	0x3dd54950	0.10414374
145	0x3dd2de94	0.1029636
146	0xbd502add	-0.050822128
147	0xbce371cc	-0.027764224
148	0xbdd893f2	-0.10575093
149	0x3dc570ea	0.09640677
150	0xbe066b80	-0.13126945
151	0xbd4bcadf	-0.04975402
152	0x3e2cc617	0.1687244
153	0x3ccb4dfd	0.024817461
154	0xbd596fdb	-0.05308519
155	0xbe0f64ca	-0.14003292
156	0xbe0c8de8	-0.13726008
157	0x3e023a45	0.1271754
158	0xbe12345a	-0.14277783
159	0x3e0d4779	0.13796796
160	0x3e037711	0.12838389
161	0x3c80293d	0.015644664
162	0xbcf43977	-0.029812558
163	0x3e1d38d8	0.15353715
164	0x3dbc9574	0.092081934
165	0x3e3e96f4	0.18612272
166	0x3e24375c	0.16036743
167	0xbe08683d	-0.13321014
168	0x3dc0cbf4	0.09413901
169	0x3d94c32a	0.07263787
170	0xbde09d52	-0.109675065
171	0x3d9a852e	0.07544933
172	0xbdd4513e	-0.10367058
173	0xbe0524a3	-0.13002257
174	0x3ca230c2	0.01979864
175	0xbd0794e9	-0.033100996
176	0xbd7a5eeb	-0.061125677
177	0xbe2b580b	-0.16732804
178	0x3ddf4096	0.10900991
179	0x3e363bdc	0.17796272
180	0xbcbfa7da	-0.023395468
181	0xbe02ad18	-0.12761343
182	0xbcbf4b7d	-0.023351425
183	0xbe0c6d05	-0.13713463
184	0xbe02555f	-0.12727879
185	0xbdada1f4	-0.08478156
186	0x3e00c7ba	0.1257619
187	0xbe0ce149	-0.13757814
188	0xbd33c6c2	-0.043890722
189	0xbdd9917a	-0.106234506
190	0xbe185374	-0.14875585
191	0xbd60c7ac	-0.054877922
192	0xbc99a2fe	-0.018754479
193	0xbd867fb0	-0.06567323
194	0x3de3e8c0	0.11128378
195	0x3db88f6f	0.09011733
196	0x3de4d0eb	0.111726604
197	0x3e182004	0.14855963
198	0x3d3ed377	0.046588387
199	0x3d9bed4d	0.07613621
200	0xbe00fbfa	-0.12596121
201	0x3d837397	0.064185314
202	0x3d9537c2	0.072860256
203	0xbda9f831	-0.08299292
204	0xbcbe26d1	-0.023211868
205	0xbe35e9ae	-0.17764923
206	0xbe06832c	-0.13135976
207	0xbc0d70ea	-0.008632878
208	0xbac0f388	-0.0014721015
209	0xbd8c5cd1	-0.06853641
210	0x3d010650	0.03150016
211	0xbe25b9ee	-0.16184208
212	0xbda1f7da	-0.07908602
213	0x3dedb98e	0.116076574
214	0xbe3e60d3	-0.18591623
215	0x3d442b7d	0.047893036
216	0x3e1d9ca2	0.15391782
217	0x3dd3eabb	0.10347506
218	0x3d946117	0.07245081
219	0xbe3b939f	-0.18318032
220	0x3b83c0cc	0.004020786
221	0xbda71396	-0.081580326
222	0xbd288867	-0.04114571
223	0x3df85d42	0.121271625
224	0xbd886c30	-0.0666126
225	0xbdd6845d	-0.10474465
226	0xbe1cc27e	-0.15308568
227	0x3e0595cd	0.13045426
228	0x3cd04b2b	0.025426468
229	0x3e56d2ca	0.20978847
230	0x3d72bf2b	0.059264343
231	0xbe3e2617	-0.18569218
232	0x3cbd9d54	0.023146309
233	0x3e1221d3	0.14270715
234	0x3e062875	0.1310137
235	0x3d06f29d	0.032946218
236	0xbe162876	-0.14663872
237	0xbdf491c8	-0.11941868
238	0x3e10a1cb	0.14124219
239	0xbe094bed	-0.1340787
240	0x3ceff53b	0.02929174
241	0xbd40c065	-0.04705848
242	0x3d8d1904	0.06889537
243	0x3c684eb1	0.014178918
244	0xbdef7def	-0.11693942
245	0xbdae3ddd	-0.08507893
246	0x3e09592d	0.13412924
247	0x3d26309b	0.040573698
248	0x3ddd7b1a	0.108144954
249	0xbdd4d1b9	-0.10391564
250	0x3e1dfad3	0.15427713
251	0xbd41cb53	-0.047313046
252	0xbda02af8	-0.07820696
253	0x3c988b2c	0.01862105
254	0xbd4cbc0b	-0.04998402
255	0xbdbc88aa	-0.09205754

model.backbone.layers.0.temporal.2.bias f4 [64]
0	0xbd2ff8bd	-0.042961825
1	0xbd7f10c6	-0.062271856
2	0x3e1c60fa	0.15271369
3	0x3c9c4448	0.019075528
4	0x3e0b7493	0.13618688
5	0x3e0ac561	0.13551857
6	0xbda9870a	-0.0827771
7	0xbe3cd65d	-0.18441148
8	0x3e276a99	0.16349258
9	0xbddc0b11	-0.10744298
10	0x3e192ce4	0.1495853
11	0xbe04fd5d	-0.12987275
12	0x3d111a04	0.0354252
13	0x3d72c421	0.059269074
14	0xbd795a1f	-0.06087696
15	0x3e1ad9aa	0.15122095
16	0xbe08e62a	-0.1336905
17	0xbd76f170	-0.060288846
18	0x3c13ab2b	0.009012978
19	0x3e0d6455	0.13807805
20	0x3daa9fd2	0.083312646
21	0x3db91776	0.09037678
22	0x3d86ab38	0.06575626
23	0x3e0c387e	0.13693425
24	0xbd6cd823	-0.05782331
25	0xbd825db3	-0.06365528
26	0xbd71685c	-0.058937415
27	0x3d613794	0.054984644
28	0xbd83c965	-0.06434897
29	0x3d749cd0	0.05971986
30	0x3ce70807	0.02820207
31	0x3d1be689	0.038061652
32	0x3e0328bb	0.12808506
33	0x3d9ec254	0.07751909
34	0x3dbb28ff	0.09138679
35	0xbd8f7495	-0.07004658
36	0xbe362485	-0.17787369
37	0x3da3445b	0.07972022
38	0x3d834b26	0.06410818
39	0x3dfadf2f	0.122496
40	0x3cf2f30f	0.029656915
41	0xbcaf20b7	-0.021377904
42	0xbe04a9ca	-0.12955394
43	0xbe3b0e49	-0.18267168
44	0x3ce96216	0.028489154
45	0x3e26e773	0.16299228
46	0xbd384f8d	-0.04499774
47	0xbd8db789	-0.06919772
48	0x3d90fd36	0.07079546
49	0xbdd7cd94	-0.10537258
50	0x3d3e0a70	0.046396673
51	0xbe13b0a3	-0.1442285
52	0xbe235cb3	-0.1595333
53	0xbde67f65	-0.11254767
54	0xbc035cec	-0.00801776
55	0x3d348d0a	0.044079818
56	0x3db1c2d5	0.086797394
57	0xbd8d9e87	-0.06915002
58	0xbccf310d	-0.025291944
59	0x3cef54b0	0.029215187
60	0xbcc9ca0d	-0.024632478
61	0x3c8cf59d	0.017206961
62	0x3e0c12a8	0.13678992
63	0xbd4dec00	-0.050273895

model.backbone.layers.0.channel.0.weight f4 [32, 74]
0	0x3d5440d5	0.05181964
1	0x3da09755	0.07841364
2	0x3c38315f	0.01124224
3	0xbd91b4b2	-0.07114543
4	0xbdac097b	-0.08400246
5	0xbdd6af5a	-0.104826644
6	0xbd0e760a	-0.03478054
7	0x3cad0493	0.021120345
8	0x3d4e993b	0.0504391
9	0xbd3578d2	-0.044304676
10	0x3de5e133	0.11224594
11	0xbce71316	-0.028207343
12	0x3d3343ab	0.043765705
13	0xbd26583e	-0.040611498
14	0x3d4a4375	0.04938074
15	0x3df12db4	0.11776295
16	0x3d73e3bf	0.059543367
17	0xbc81172c	-0.01575812
18	0xbd880732	-0.066419974
19	0xbd9b9a63	-0.07597806
20	0xbdd2d732	-0.102949515
21	0xbdfc10b8	-0.12307876
22	0x3d710854	0.058845833
23	0xbd8e6a6b	-0.06953891
24	0x3aa906b7	0.0012895678
25	0xbdaf21ef	-0.08551394
26	0xbc800849	-0.01562895
27	0x3d9969ad	0.07490859
28	0x3d2bdfc5	0.04196145
29	0xbaba76b3	-0.0014226049
30	0x3d16d7cb	0.03682689
31	0x3ddc580f	0.10758983
32	0x3ddbed74	0.1073865
33	0xbd8af393	-0.06784739
34	0xbc736b09	-0.014857062
35	0xbdf3c171	-0.119021304
36	0xbd78c6d2	-0.060736485
37	0x3ddcf70f	0.1078931
38	0xbded96f8	-0.11601061
39	0xbda5f21f	-0.081028216
40	0x3d924f56	0.071440384
41	0x3e0780ec	0.13232774
42	0xbe0b79ed	-0.1362073
43	0xbd68cfc5	-0.05683877
44	0xbd8ae815	-0.067825474
45	0x3d8c9a20	0.068653345
46	0x3db10d11	0.0864507
47	0x3dc06d6d	0.09395871
48	0x3dbd1ea6	0.09234361
49	0xbd53dde0	-0.05172527
50	0x3d7f052a	0.062260784
51	0x3c71021f	0.014709978
52	0x3cefd227	0.029275013
53	0xbc4f87fd	-0.0126666995
54	0x3d7fc832	0.06244678
55	0x3d928c9b	0.071557246
56	0xbd139a47	-0.036035802
57	0x3da03126	0.07821874
58	0xbd5a0ff2	-0.053237863
59	0x3d46d4d3	0.04854281
60	0x3dfec716	0.124403164
61	0x3d2cb92f	0.042168792
62	0xbce4177d	-0.027843231
63	0xbd0989db	-0.033578735
64	0x3d28db8c	0.041225
65	0xbcc6d97e	-0.02427363
66	0xbc81896f	-0.015812604
67	0x3dc0484b	0.09388789
68	0x3d7208fa	0.059090592
69	0xbdb78597	-0.08961027
70	0xbdf200f2	-0.118165866
71	0x3e038c0e	0.12846395
72	0xbbd8ff88	-0.0066222586
73	0xbd8d75fe	-0.06907271
74	0xbd736fae	-0.059432678
75	0x3e0af1bd	0.13568778
76	0x3d1e207d	0.038605202
77	0xbd600a25	-0.054697175
78	0xbd97d799	-0.07414169
79	0x3d8eae56	0.06966846
80	0x3d9ac4dc	0.07557079
81	0x3c0ac443	0.008469644
82	0xbd928673	-0.071545504
83	0x3d8c7bd1	0.068595536
84	0xbdbef0b6	-0.09323256
85	0x3d2c0f86	0.04200699
86	0xbdc2ccfc	-0.09511754
87	0xbdf1a861	-0.11799694
88	0xbe0192d4	-0.12653667
89	0x3db9cc5b	0.09072181
90	0x3dbae5af	0.0912584
91	0xbdadd759	-0.0848834
92	0x3dd42518	0.103586376
93	0xbdaf60ca	-0.08563383
94	0xbdbf8e8b	-0.0935336
95	0x3d8fefef	0.070281856
96	0x3da4649a	0.08027001
97	0x3da59c0f	0.080864064
98	0x3bc4bda5	0.0060040527
99	0x3dbb41f2	0.091434374
100	0xbdeaf939	-0.11473317
101	0x3d8b1f71	0.06793106
102	0xbd552de0	-0.052045703
103	0x3cadb780	0.021205664
104	0x3dc15388	0.094397604
105	0xbdc7a9bd	-0.09749172
106	0x3d123b3b	0.035701018
107	0xbd314e3e	-0.04328751
108	0x3db7cf28	0.08975059
109	0x3c39d77b	0.011342878
110	0x3d311d43	0.043240797
111	0x3dc686f5	0.0969371
112	0xbcdd32f5	-0.027001837
113	0xbdc40704	-0.095716506
114	0x3dc5fd14	0.096674114
115	0xbda0bc3c	-0.07848403
116	0x3d27d997	0.040978994
117	0x3d5585ea	0.052129664
118	0x3abc0b00	0.001434654
119	0x3dd8028f	0.10547363
120	0x3d7899f2	0.06069369
121	0xbd1e7d80	-0.038693905
122	0x3c7c4635	0.015397598
123	0x3cbebf11	0.023284467
124	0x3e032d29	0.12810196
125	0x3d879231	0.06619681
126	0xbdbd084d	-0.09230099
127	0xbb45b243	-0.0030166067
128	0x3d4317ee	0.047630243
129	0x3d98a736	0.07453768
130	0x3d5d135d	0.053973544
131	0x3d827a43	0.06370976
132	0xbabe2fda	-0.001451011
133	0xbc48750c	-0.012234937
134	0xbdc1b0c5	-0.09457544
135	0x3de1cea1	0.110257395
136	0x3dcdb97b	0.10045143
137	0xbdac649f	-0.084176295
138	0xbde93f6e	-0.113890514
139	0x3dd75321	0.105139025
140	0xbdb56ef8	-0.08859056
141	0x3d76a945	0.06022002
142	0xbe032a7e	-0.12809178
143	0xbd38588b	-0.045006316
144	0xbd0f14d8	-0.034931988
145	0x3dc19a6b	0.09453281
146	0xbd0f8af4	-0.035044625
147	0x3df5fc9f	0.12011074
148	0x3ce70510	0.028200656
149	0x3de00c68	0.10939866
150	0x3da902df	0.08252501
151	0x3da385b4	0.07984486
152	0x3dc12f6f	0.09432875
153	0xbc882561	-0.016619386
154	0xbd1a918b	-0.037736457
155	0x3d00c961	0.03144205
156	0x3dc3a928	0.09553748
157	0x368fa800	4.28129e-06
158	0xbdb17fe0	-0.08666968
159	0xbda3e644	-0.08002904
160	0xbd8fe6ca	-0.070264414
161	0x3c9c8ce6	0.019110154
162	0xbb8e8a02	-0.004349948
163	0xbcc02d00	-0.023458958
164	0xbd51aad3	-0.0511883
165	0x3cdfac27	0.027303768
166	0xbd86007c	-0.06543061
167	0x3df298f3	0.11845579
168	0xbccd9570	-0.025095671
169	0x3ca67367	0.0203187
170	0x3d0631f6	0.03276249
171	0xbd85bffd	-0.065307595
172	0x3dc6c020	0.09704614
173	0xbb7ba085	-0.0038395238
174	0x3cbce5ca	0.02305879
175	0xbde7de15	-0.11321656
176	0x3c6fed49	0.0146439755
177	0x3cc15ea1	0.023604693
178	0x3c767056	0.015041431
179	0xbbd3de47	-0.0064657065
180	0x3dcaf9e9	0.09910948
181	0x3dcd9218	0.10037631
182	0x3d90bf91	0.070677884
183	0xbcc86bd9	-0.024465488
184	0x3cb5274c	0.022113465
185	0xbd9c5d4d	-0.07634983
186	0xbdc17567	-0.09446221
187	0x3c5831b9	0.013195449
188	0x3ba25466	0.0049539087
189	0xbd8632db	-0.06552669
190	0xbdd2e5b0	-0.10297716
191	0x3d5d898c	0.054086253
192	0x3df3b9d3	0.119006775
193	0xbdafe5c9	-0.0858875
194	0x3daa54ae	0.083169326
195	0xbdb1a347	-0.08673721
196	0x3dcb4b64	0.09926489
197	0x3d59455a	0.053044654
198	0xbd342f62	-0.0439905
199	0x3df20d37	0.11818927
200	0xbd670070	-0.0563969
201	0xbd4d7362	-0.050158866
202	0x3dde0b99	0.10842056
203	0xbcf74faf	-0.030189363
204	0xbd43ce90	-0.047804415
205	0x3c704bed	0.01466654
206	0xbb834a50	-0.0040066615
207	0x3da52608	0.080638945
208	0x3db0d6aa	0.08634694
209	0x3d37e422	0.0448953
210	0x3d4cde99	0.050016973
211	0x3cc5e6cd	0.024157906
212	0x3bf74fc9	0.007547353
213	0x3be9e48e	0.0071378415
214	0xbb8f36c0	-0.0043705404
215	0x3da1acc5	0.07894281
216	0x3d95fe1c	0.07323858
217	0xbc91853c	-0.017763726
218	0x3d22d4a6	0.03975358
219	0x3c5f009c	0.013610985
220	0x3d671b8e	0.056422763
221	0x3e0fc631	0.14040448
222	0xbd853bcd	-0.06505547
223	0x3ce08e3d	0.027411574
224	0x39892240	0.00026156195
225	0xbe196fe2	-0.14984086
226	0xbdc8dfe9	-0.098083325
227	0xbd369604	-0.04457666
228	0x3dc8220c	0.09772119
229	0xbd6d9e20	-0.058012128
230	0x3d30a3d2	0.04312498
231	0x3d1ff0aa	0.039047875
232	0xbd6e85b7	-0.05823299
233	0x3d953a61	0.072865255
234	0x3ae4f1e8	0.0017467113
235	0xbda1c98a	-0.07899769
236	0x3cacb495	0.021082202
237	0xbdadd924	-0.08488682
238	0x3e033562	0.12813333
239	0x3cfa5f49	0.030563014
240	0x3ca245bd	0.019808644
241	0x3de9e91d	0.11421416
242	0x3d87df6e	0.06634413
243	0x3dbbc523	0.0916846
244	0x3ccbae89	0.024863498
245	0xbdd50774	-0.10401812
246	0x3e09a4cf	0.13441776
247	0x3d8279b5	0.0637087
248	0xbcafd3c2	-0.021463279
249	0xbd897337	-0.067114286
250	0x3e09ece4	0.13469273
251	0x3bb4f60f	0.0055224965
252	0x3d754047	0.059875753
253	0x3d14e185	0.036347885
254	0x3e05338b	0.13007943
255	0xbdb3a794	-0.08772197

model.backbone.layers.0.channel.0.bias f4 [32]
0	0xbca6430b	-0.02029564
1	0x3d9ea0d1	0.07745517
2	0x3d9f9212	0.077915326
3	0xbdf60cd8	-0.120141685
4	0xbe06e799	-0.13174285
5	0xbd763191	-0.060105864
6	0xbce0b4ef	-0.027430026
7	0x3d65b91f	0.05608475
8	0x3d75d35b	0.060016017
9	0x3db5aae9	0.08870489
10	0xbd927f22	-0.07153155
11	0x3d510f8b	0.051040214
12	0x3d21a0ca	0.03945998
13	0xbd7832e8	-0.060595423
14	0xbda84d1d	-0.08217833
15	0x3cc33523	0.023829048
16	0x3e0023b7	0.12513624
17	0xbd45b065	-0.048263926
18	0xbbc8afef	-0.0061244885
19	0xbdb6193d	-0.088915326
20	0x3d1c7fc1	0.038207773
21	0x3cd9bb46	0.026578557
22	0xbd3cc15d	-0.046082843
23	0x3d26b048	0.04069546
24	0x3d8e0a99	0.06935615
25	0x3dc789da	0.0974309
26	0x3cc00473	0.023439622
27	0x3c360913	0.011110562
28	0x3c4b5d08	0.012412317
29	0x3c9ca0c7	0.019119633
30	0xbdb88551	-0.09009803
31	0xbd824cba	-0.06362291

model.backbone.layers.0.channel.2.weight f4 [74, 32]
0	0x3def6e4d	0.1169096
1	0xbd7be087	-0.061493423
2	0x3e0a05b0	0.13478732
3	0xbd69da77	-0.05709311
4	0x3e18e936	0.14932713
5	0xbdbd9a7c	-0.09257981
6	0x3de1f7e1	0.11033607
7	0xbdc96fa0	-0.09835744
8	0x3e170cbc	0.14750952
9	0x3da31cf4	0.07964507
10	0x3d4f9dd2	0.05068762
11	0x3d8ae358	0.06781644
12	0x3de43d98	0.111445606
13	0xbdb58670	-0.088635325
14	0xbd7d1cf1	-0.06179518
15	0x3d77344f	0.06035262
16	0xbe127cee	-0.1430547
17	0x3d1b41cf	0.037904557
18	0x3d9cd2bb	0.07657381
19	0xbe1986c2	-0.14992812
20	0x3b9d4f19	0.004800689
21	0x3cb347e6	0.02188487
22	0xbdf52bc7	-0.119712405
23	0x3deced68	0.11568719
24	0xbc14a2a6	-0.009071982
25	0xbe3d8348	-0.18507111
26	0xbd9e91f0	-0.07742679
27	0x3d72cdf0	0.05927843
28	0x3daac920	0.08339143
29	0xbd3acf28	-0.045607716
30	0x3e29aee9	0.16570629
31	0xbcc621a3	-0.024185961
32	0xbe05a2b3	-0.13050346
33	0xbd60b81d	-0.054863084
34	0xbdefc405	-0.1170731
35	0x3d0db5f9	0.03459737
36	0x3dd34b5e	0.103171095
37	0xbe0f37bb	-0.13986103
38	0xbe12a269	-0.14319767
39	0x3da4dcd7	0.08049934
40	0x3aaf7624	0.0013386649
41	0x3e155e2e	0.14586708
42	0x3e160bb0	0.14652896
43	0xbdc3a0d6	-0.095521614
44	0x3ddf0cdf	0.10891127
45	0xbe3f39cf	-0.18674396
46	0x3d860357	0.06543606
47	0xbdb9aef9	-0.090665765
48	0xbc83a47d	-0.016069645
49	0x3e5fff08	0.2187463
50	0x3c2f4fae	0.010700149
51	0xbd9e8fdd	-0.077422835
52	0x3dbfc15c	0.09363052
53	0xbc6fc379	-0.014634007
54	0x3e365718	0.17806661
55	0xbe13b938	-0.14426124
56	0xbd2f46bc	-0.042792067
57	0xbe272e80	-0.16326332
58	0xbdf9f9ab	-0.122058235
59	0xbd0ee446	-0.034885667
60	0xbe077b34	-0.13230592
61	0xbde3bb4d	-0.11119709
62	0xbcf3bc07	-0.029752744
63	0xbce11453	-0.027475512
64	0xbe10ee3c	-0.14153379
65	0x3d43f2e9	0.04783908
66	0xbe2d4b0a	-0.16923156
67	0x3dd4c3f4	0.103889376
68	0x3df83224	0.121189386
69	0x3e12f28f	0.14350341
70	0xbcc985d5	-0.024599949
71	0x3c047072	0.00808345
72	0xbdbad62e	-0.09122883
73	0xbd628f0f	-0.055312213
74	0x3dff08c2	0.12452842
75	0x3d9a4e11	0.07534421
76	0x3dc2999b	0.09501954
77	0xbc433977	-0.011915556
78	0xbdb89540	-0.09012842
79	0x3d3f87e1	0.046760444
80	0x3e4021ce	0.18762895
81	0xbd8cb0ca	-0.06869657
82	0x3de036cd	0.109479524
83	0x3db8599a	0.09001465
84	0x3d34078e	0.043952517
85	0xbd884d05	-0.06655315
86	0xbd60e581	-0.054906372
87	0xbc95648f	-0.018236427
88	0x3c2dc079	0.010604971
89	0xbc4be994	-0.012445826
90	0xbe1a9cb7	-0.15098844
91	0xbd9754b6	-0.07389204
92	0xbd83ca1c	-0.06435034
93	0x3e00550f	0.12532447
94	0x3d550d8a	0.052014865
95	0xbe176940	-0.14786243
96	0xbde9fc68	-0.11425096
97	0xbd8fee97	-0.07027929
98	0x3e4d6c3e	0.20060822
99	0x3cad7d0d	0.021177793
100	0x3e02ac4f	0.12761043
101	0xbe016432	-0.12635878
102	0x3e2bc206	0.16773233
103	0x3dfa45d6	0.122203514
104	0x3d16443a	0.03668616
105	0xbdcbacd4	-0.09945074
106	0x3d629baa	0.055324234
107	0xbd966d51	-0.07345069
108	0xbd7af21b	-0.061266046
109	0x3d4cfd28	0.050046116
110	0xbe0d5fbb	-0.1380605
111	0x3d76244f	0.06009322
112	0xbcdc18be	-0.026867267
113	0x3d46ef58	0.0485681
114	0x3cb3ab1d	0.02193218
115	0x3d76eccf	0.060284432
116	0xbdb2c1ce	-0.087283716
117	0x3db9b92a	0.0906852
118	0xbe11ae69	-0.14226688
119	0x3d6b605e	0.05746495
120	0xbe206f69	-0.156675
121	0x3e1e380d	0.15451069
122	0x3c196fad	0.0093650045
123	0x3dbe40f1	0.0928973
124	0x3cf87859	0.030330824
125	0x3d51cb37	0.05121919
126	0xbd4689c6	-0.048471235
127	0xbdcfbcc4	-0.10143426
128	0x3df3a770	0.118971705
129	0x3de2a39a	0.11066361
130	0xbd0f2407	-0.034946468
131	0xbc7cfd84	-0.015441302
132	0xbd01c229	-0.031679306
133	0xbcbf93ad	-0.023385847
134	0x3dd8783c	0.10569808
135	0xbe01c4c0	-0.1267271
136	0xbdf4ed0d	-0.11959276
137	0xbd396917	-0.045266237
138	0xbdfdde33	-0.12395897
139	0xbda3ee11	-0.08004392
140	0xbd463917	-0.04839429
141	0xbcba9768	-0.022777274
142	0x3dd5bdaa	0.10436566
143	0x3dff834d	0.124762155
144	0x3e00511d	0.12530942
145	0x3e3ae44b	0.1825115
146	0x3d2028de	0.039101474
147	0x3c76741b	0.01504233
148	0x3caff70c	0.021480106
149	0xbdebb3a8	-0.11508876
150	0x3d4df36f	0.050280984
151	0xbd80f5e9	-0.06296904
152	0xbd865a40	-0.065601826
153	0x3e051625	0.12996729
154	0x3d6a6bec	0.05723183
155	0x3e08b296	0.13349375
156	0x3db25017	0.08706682
157	0xbdac732c	-0.08420405
158	0x3d90d4f5	0.07071868
159	0x3d432c68	0.04764977
160	0x3d608ad4	0.054819897
161	0x3de3c2c6	0.111211345
162	0xbd0034b9	-0.03130028
163	0x3e1532df	0.14570187
164	0x3ca72959	0.020405458
165	0xbd3744dd	-0.044743408
166	0x3df4bed4	0.1195046
167	0x3e16bade	0.14719722
168	0xbd93c9d0	-0.07216227
169	0x3dee774c	0.11643848
170	0xbcc16140	-0.023605943
171	0xbd08fdbb	-0.0334451
172	0xbe00be63	-0.12572627
173	0xbd802238	-0.06256527
174	0x3d244e3f	0.040113684
175	0xbd731499	-0.059345815
176	0xbbde284d	-0.0067797066
177	0x3cced080	0.025245905
178	0xbd3d1676	-0.046164
179	0x3db59d21	0.088678606
180	0x3e132f5a	0.14373532
181	0x3e06eb08	0.13175595
182	0x3e0dc567	0.13844834
183	0xbceafaa6	-0.028683972
184	0x3c9a3b24	0.018827029
185	0xbd3eea03	-0.04660989
186	0xbdbc2641	-0.09186984
187	0x3b774e25	0.0037735787
188	0x3e1121a6	0.14172992
189	0xbe358cef	-0.17729543
190	0xbdd128ec	-0.10212883
191	0x3db68fc1	0.08914138
192	0x3dc21999	0.094775386
193	0xbd14185f	-0.036156055
194	0xbd1639aa	-0.036676086
195	0xbd3756a2	-0.044760354
196	0x3ddcd2dc	0.10782406
197	0x3e0b64d0	0.13612676
198	0xbdd9c7f9	-0.10633845
199	0x3bd3a047	0.0064583155
200	0xbe133e15	-0.14379151
201	0xbe0ce2b9	-0.13758363
202	0xbd17d3d3	-0.037067246
203	0xbd2f250f	-0.04275995
204	0xbdb31371	-0.087439425
205	0x3e00a1b3	0.12561683
206	0x3d9fe01f	0.078064196
207	0x3cb846e0	0.022494733
208	0xbd93678e	-0.07197486
209	0x3d58ccbe	0.052929632
210	0x3de915b2	0.11381091
211	0xbcd8f16f	-0.026482312
212	0x3ccb5395	0.024820128
213	0x3d841090	0.064484715
214	0x3df638fc	0.12022588
215	0x3dac545f	0.0841453
216	0xbdcf27bf	-0.10115003
217	0x3d496fce	0.04917889
218	0x3bdb3fbf	0.0066909487
219	0x3d5be533	0.05368538
220	0xbe3ca09d	-0.18420644
221	0x3e2f3007	0.17108165
222	0x3db2b078	0.08725065
223	0x3db5ef84	0.088835746
224	0x3d9b8207	0.0759316
225	0xbc0e9501	-0.0087025175
226	0xbdd954a9	-0.10611851
227	0xbd8d9804	-0.0691376
228	0xbe36d63c	-0.17855161
229	0x3e2d0085	0.1689473
230	0x3d8c249b	0.068429194
231	0x3cf2fc41	0.0296613
232	0xbdb7a564	-0.08967093
233	0xbe045516	-0.12923083
234	0x3dae186c	0.08500752
235	0xbdf90128	-0.12158424
236	0x3d180ef5	0.03712364
237	0x3df97ed5	0.121823944
238	0xbe19c0a5	-0.15014894
239	0x3e0feccb	0.14055173
240	0xbe218b35	-0.1577576
241	0x3c9f86c1	0.019473435
242	0x3dfba922	0.12288119
243	0x3e1160d0	0.14197087
244	0x3e35d041	0.17755224
245	0x3e2527bf	0.16128443
246	0xbe17a308	-0.14808285
247	0x3c0cb3ec	0.008587819
248	0xbe2d7024	-0.1693731
249	0x3db146ce	0.08656083
250	0x3d37454b	0.044743817
251	0x3e328313	0.17432813
252	0x3bcaf447	0.006193671
253	0x3e0abf58	0.13549554
254	0x3bbbbd0e	0.005729324
255	0xbd49c9d1	-0.049264733

model.backbone.layers.0.channel.2.bias f4 [74]
0	0xbddafc32	-0.10692634
1	0x3dbe755c	0.09299728
2	0x3e13f3a2	0.14448407
3	0xbdd315ec	-0.10306916
4	0xbe391064	-0.18072659
5	0x3dea938c	0.114539236
6	0xbd8066e3	-0.06269624
7	0xbe388572	-0.18019655
8	0x3c76ac85	0.01505578
9	0x3c028115	0.007965346
10	0x3e106064	0.1409927
11	0x3d6b1d42	0.05740095
12	0xbdea18fe	-0.11430548
13	0xbc2eb941	-0.010664285
14	0xbdd3e57e	-0.103465065
15	0x3dd23d31	0.102655776
16	0x3d8bd452	0.06827606
17	0x3da814a3	0.08207061
18	0xbdd6c2b3	-0.10486355
19	0xbdcb6f8d	-0.09933386
20	0xbe053510	-0.13008523
21	0xbe22f8ec	-0.15915269
22	0xbe33b11f	-0.17548035
23	0xbe2872f8	-0.16450107
24	0x3e10319b	0.14081423
25	0xbd1ffa06	-0.0390568
26	0xbc5f7e1c	-0.013640907
27	0x3cdf0c77	0.027227623
28	0x3d420cc7	0.047375467
29	0x3d37c69a	0.044867136
30	0xbe144830	-0.14480662
31	0x3e2650d4	0.16241771
32	0x3b81b159	0.003957909
33	0xbd804d92	-0.06264795
34	0x3dbffb98	0.093741596
35	0xbe24cf07	-0.160946
36	0xbda393ed	-0.07987199
37	0x3de6ca62	0.1126907
38	0x3d3f0eaa	0.046644844
39	0xbd432008	-0.04763797
40	0x3ae2bac8	0.0017298097
41	0xbc3c5c9a	-0.011496687
42	0x3d607ca1	0.054806355
43	0x3d37afae	0.044845276
44	0x3d9dddf8	0.07708353
45	0x3df55f18	0.11981028
46	0xbdcb83e0	-0.099372625
47	0xbe1b9feb	-0.15197723
48	0xbc94ec3c	-0.018179052
49	0xbd829845	-0.06376699
50	0xbe0ee736	-0.13955387
51	0x3e26b40e	0.16279623
52	0x3e2d4d4f	0.16924022
53	0x3e21cfc9	0.1580192
54	0xbdb56bcd	-0.08858452
55	0xbbd454c3	-0.006479831
56	0xbe22c3ee	-0.15895054
57	0xbda673a0	-0.081275225
58	0x3e13336c	0.14375085
59	0x3d16b139	0.036790106
60	0x3d2f6d7d	0.042829026
61	0xbe42428e	-0.18970701
62	0x3daa4221	0.08313394
63	0x3dc7e2dc	0.09760067
64	0xbd44e3a4	-0.048068658
65	0x3de38c9e	0.11110805
66	0x3d68e3ff	0.05685806
67	0xbdd8859e	-0.105723605
68	0xbdea5156	-0.11441295
69	0xbcbb3fa3	-0.022857493
70	0xbe41f778	-0.18942058
71	0xbdc4e081	-0.09613133
72	0x3d88d710	0.06681645
73	0xbd91519b	-0.07095643

model.backbone.layers.1.temporal.0.weight f4 [32, 64]
0	0x3cf95968	0.03043814
1	0xbcc769b4	-0.024342395
2	0x3dd36973	0.10322847
3	0x3dff1cee	0.1245669
4	0x3de66b91	0.112509854
5	0xbdaa36c1	-0.08311225
6	0xbc6bafbd	-0.014385161
7	0x3da63cef	0.08117091
8	0x3dca8f1c	0.09890577
9	0xba8cf1be	-0.0010753197
10	0x3dca6b5d	0.09883759
11	0x3cb5a71a	0.022174407
12	0x3d2d91f6	0.042375527
13	0x3de1caec	0.110250324
14	0x3df23a26	0.11827497
15	0xbd780d78	-0.06055972
16	0xbd39a00f	-0.04531866
17	0x3d885bd4	0.0665814
18	0x3dcb1912	0.09916891
19	0x3b45aa97	0.0030161494
20	0x3e137506	0.1440011
21	0x3c8601ae	0.016358223
22	0xbccb7ddd	-0.02484029
23	0x3cb0a32c	0.021562181
24	0xbda2c841	-0.07948352
25	0x3d8b1c20	0.06792474
26	0xbdb76038	-0.08953899
27	0x3e0ee193	0.13953237
28	0xbd913403	-0.070899986
29	0x3dcf4918	0.101213634
30	0xbd863ce2	-0.06554581
31	0x3b88cdb6	0.0041749133
32	0xbd2f8612	-0.04285247
33	0x3db9aa88	0.090657294
34	0x3dcd38cb	0.10020598
35	0xbdc08a1b	-0.094013415
36	0xbdada601	-0.08478928
37	0x3d24029f	0.040041562
38	0x3cd30078	0.02575706
39	0x3ce7f6dd	0.028315956
40	0x3d87bb49	0.06627519
41	0x3ba4fe86	0.0050352244
42	0x3e0765e0	0.13222456
43	0x3d0a3165	0.033738513
44	0xbcc23eb2	-0.023711536
45	0x3d9cfacc	0.07665023
46	0xbd86c30a	-0.065801695
47	0xbcc0c648	-0.023532048
48	0x3d88b23a	0.06674619
49	0xbc8d7ddd	-0.01727193
50	0xbdaefbcd	-0.08544121
51	0x3db3ae8b	0.08773526
52	0x3d925146	0.07144408
53	0x3d83f5ef	0.064433925
54	0x3d953437	0.0728535
55	0xbdb4690b	-0.08809098
56	0xbce6f285	-0.028191814
57	0xbd272001	-0.040802006
58	0x3e0b065e	0.13576648
59	0xbd193fb9	-0.037414286
60	0xbd8abcdc	-0.06774303
61	0xbd288150	-0.041138947
62	0x3c037d36	0.008025458
63	0x3d2077d8	0.039176792
64	0x3d94e23c	0.07269713
65	0x3d8c900e	0.06863414
66	0xbc1d8d64	-0.00961623
67	0x3dc01f9e	0.093810305
68	0x3d37fbda	0.04491792
69	0x3d3c87b5	0.046027858
70	0xbe02c493	-0.127703
71	0xbc0bd1cc	-0.008533906
72	0xbd47843b	-0.04871009
73	0xbe0d0233	-0.1377037
74	0xbdaa6f66	-0.08322029
75	0x3d9c8adf	0.07643675
76	0x3ccd4aa2	0.025060002
77	0x3dc098e6	0.09404163
78	0x3d8558a8	0.065110505
79	0xbcb58f94	-0.02216319
80	0x3dc3da9d	0.095631815
81	0x3bdf33f0	0.0068116114
82	0xbd1f6e69	-0.038923655
83	0xbd978f5d	-0.07400391
84	0x3d79b493	0.060963225
85	0x3d0eb7ef	0.03484338
86	0x3d8c43cf	0.06848871
87	0xbd2b966c	-0.0418915
88	0xbe0961a0	-0.13416147
89	0x3b7167b2	0.003683549
90	0xbbf0880c	-0.007340437
91	0xbdcfe703	-0.10151484
92	0x3c37a9a4	0.011209879
93	0xbd0f9703	-0.035056125
94	0x3daff57a	0.08591743
95	0xbc7c738d	-0.015408409
96	0xbdab3af3	-0.08360853
97	0x3da50551	0.08057655
98	0xbc7eb679	-0.015546435
99	0xbd250b9e	-0.040294282
100	0x3d248328	0.040164143
101	0x3dcb6627	0.099315934
102	0x3d164f7a	0.03669689
103	0xbc9231f4	-0.017846085
104	0x3da8c3e6	0.0824049
105	0xbd994556	-0.07483928
106	0x3dbfdb13	0.09367957
107	0xbdb7bb03	-0.089712165
108	0xbc8a7387	-0.01690079
109	0x3dbe37b9	0.09287972
110	0x3ce74931	0.028233143
111	0xbd3b19bc	-0.04567884
112	0x3d63d970	0.055627286
113	0x3d65905b	0.05604587
114	0xbe07c75c	-0.13259643
115	0xbd05364f	-0.032522496
116	0xbde61aea	-0.11235602
117	0xbd37ab03	-0.044840824
118	0xbd0f9526	-0.03505435
119	0xbd903072	-0.0704049
120	0xbd885e08	-0.0665856
121	0x3d4060e3	0.0469674
122	0xbccddbe7	-0.025129272
123	0xbe165b26	-0.14683208
124	0xbadc1326	-0.0016790375
125	0xbe12716d	-0.14301081
126	0xbdde6c6e	-0.10860525
127	0x3d5bd6d8	0.053671688
128	0x3dec2ea2	0.11532332
129	0xbcc81248	-0.02442278
130	0xbd5fd965	-0.054650683
131	0x3d9db3fc	0.07700345
132	0xbdcacb8e	-0.09902106
133	0x3dcb7ad9	0.09935541
134	0x3dd49654	0.10380235
135	0x3d9adede	0.0756204
136	0x3d6fc2a8	0.058535248
137	0x3d4000ea	0.04687587
138	0xbd9d017a	-0.07666297
139	0xbcf25904	-0.029583462
140	0x3dcad090	0.099030614
141	0x3dffa62d	0.124828674
142	0x3c9bc41b	0.019014409
143	0x3d5783ef	0.052616056
144	0xbdc3fccc	-0.095697016
145	0x3dde922d	0.108677246
146	0xbd4f0ecd	-0.050551224
147	0xbd4b7507	-0.049672153
148	0x3e138b43	0.14408593
149	0xbc8b8a9e	-0.017033871
150	0xbd1af179	-0.037827943
151	0x3d1a8d6a	0.03773252
152	0x3df4a101	0.119447716
153	0x3e07620c	0.13220996
154	0x3cf6e4d7	0.030138416
155	0x3dd2d60f	0.10294735
156	0x3de2255c	0.11042282
157	0xbb79ea01	-0.0038133862
158	0xbd9ad8b0	-0.07560861
159	0x3cccc91f	0.024998246
160	0xbcbf64af	-0.02336344
161	0x3d76a153	0.060212445
162	0xbd9151f7	-0.07095712
163	0xbd86fa75	-0.0659074
164	0xbd9a67b4	-0.07539311
165	0xbd9da118	-0.07696742
166	0x3de914f7	0.11380952
167	0xbdd9d573	-0.10636415
168	0x3c4aba38	0.0123735
169	0xbd716671	-0.058935586
170	0xbd0bb2f5	-0.034106214
171	0xbc8e84fd	-0.017397398
172	0x3d9f0bdd	0.077659346
173	0x3dd1272b	0.10212549
174	0xbc1e2821	-0.009653122
175	0x3c9e4340	0.019319177
176	0x3c8495b6	0.016184669
177	0x3e04d863	0.1297317
178	0x3d96ecc2	0.07369377
179	0xbbe163b4	-0.0068783406
180	0x3dda67c4	0.10664323
181	0xbda99c13	-0.08281722
182	0x3d8961bb	0.06708094
183	0x3deb463a	0.11488004
184	0xbd32434d	-0.043521214
185	0x3d827b77	0.06371205
186	0x3d985248	0.07437569
187	0xbdafb4a9	-0.0857938
188	0x3d56c6bb	0.052435618
189	0x3deb0c91	0.11477006
190	0x3d037e0b	0.032102626
191	0xbb82f365	-0.0039963
192	0xbce6ba0c	-0.028164886
193	0xbd758215	-0.05993851
194	0x3d5b87d7	0.053596344
195	0xbdc70fe8	-0.09719831
196	0xbdaf4934	-0.08558884
197	0xbcc2dd0b	-0.023787042
198	0xbdc6fae1	-0.0971582
199	0x3e0ce5a8	0.13759482
200	0xbc931556	-0.01795451
201	0xbd3c56fa	-0.045981385
202	0x3d5bb8ed	0.053643156
203	0x3d97f8b0	0.0742048
204	0x3dec6d4b	0.115442835
205	0xbcf17bc0	-0.029477954
206	0xbaa601a4	-0.0012665284
207	0xbd95f175	-0.07321445
208	0xbdb62b2f	-0.08894955
209	0xbd0b2e79	-0.033979867
210	0x3d0edfa7	0.03488126
211	0xbd2917f1	-0.041282598
212	0xbc6ee468	-0.0145808235
213	0x3d88ba68	0.06676179
214	0x3d3b8fdd	0.045791496
215	0x3dc884f2	0.09790982
216	0x3d9f5bfb	0.07781216
217	0x3db03e69	0.08605654
218	0xbd32da11	-0.043664996
219	0x3db344b7	0.08753341
220	0xbdbca317	-0.092107944
221	0x3d71856a	0.058965124
222	0xbd6e684c	-0.058204934
223	0x3d6231a1	0.05522311
224	0xbdbe8981	-0.093035705
225	0xba700d37	-0.00091572426
226	0x3dc5913d	0.09646843
227	0xbd2e737e	-0.04259061
228	0x3dc76511	0.09736074
229	0x3a58f40e	0.0008276113
230	0x3e0caad6	0.13737044
231	0x3e0ce4be	0.13759133
232	0xbd5d178f	-0.053977545
233	0xbc254678	-0.010087602
234	0xbbc5b709	-0.0060337824
235	0xbce55833	-0.027996158
236	0x3d75bf68	0.059996992
237	0xbdbff75c	-0.09373352
238	0xbd6169de	-0.055032603
239	0x39256640	0.00015773717
240	0xbdbb3ddb	-0.09142657
241	0xbdcdc358	-0.100470245
242	0x3d90855e	0.07056688
243	0xbdae71af	-0.08517777
244	0x3dd15c34	0.102226645
245	0xbd58819e	-0.052857988
246	0x3c1d339c	0.009594824
247	0x3dc141f1	0.094364055
248	0xbdd3cb3f	-0.103415005
249	0xbdd05471	-0.10172356
250	0x3cd12f6e	0.025535312
251	0xbcef33a8	-0.029199436
252	0x3da28bd9	0.0793683
253	0x3d837b04	0.06419948
254	0x3d181571	0.037129823
255	0x3d8e66cf	0.06953203

model.backbone.layers.1.temporal.0.bias f4 [32]
0	0xbcc4b197	-0.024010463
1	0x3d9dd4d9	0.07706613
2	0x3db46a33	0.088093184
3	0x3d236ce9	0.039898787
4	0x3e0ee3f1	0.1395414
5	0xbd975fa1	-0.07391287
6	0xbda8f8fa	-0.082506135
7	0x3debaaf8	0.11507219
8	0x3d8975dd	0.06711934
9	0x3cb743e2	0.022371236
10	0x3d2cd6fd	0.042197216
11	0x3d298ba0	0.041392922
12	0x3bb1c51d	0.005425109
13	0xbd11591f	-0.035485383
14	0x3d64c763	0.055854212
15	0xbdf9dcf0	-0.122003436
16	0x3e0edfa4	0.139525
17	0xbdb19910	-0.086717725
18	0xbd9ce3e4	-0.07660654
19	0x3dcac28b	0.099003874
20	0xbdc12e35	-0.094326414
21	0xbd9e0ede	-0.077176794
22	0xbd3aa3d0	-0.04556638
23	0xbdca2cd4	-0.098718315
24	0x3a7cf63e	0.000964973
25	0x3b546f5b	0.0032415006
26	0xbd089627	-0.03334632
27	0x3c3a011b	0.011352803
28	0xbdcfb38f	-0.1014167
29	0x3cb1ce17	0.021704717
30	0xbaee4ed9	-0.0018181457
31	0xbe1015d2	-0.14070824
